size8/agent_white_29000/target_model.npz (npz, 607956 bytes, 8 tensors)

l2/W f4 [256, 256]
0	0x411baeea	9.730204
1	0xc111a6fc	-9.103268
2	0xc18e4935	-17.785746
3	0xc110b747	-9.044745
4	0xc0d6d760	-6.713791
5	0x3ee4c03b	0.4467791
6	0x415ff3a5	13.996984
7	0xc06e12b1	-3.7198908
8	0x3f87b6bd	1.0602642
9	0xc0b9b8fd	-5.8038316
10	0xc0800d92	-4.0016565
11	0x403e3510	2.9719887
12	0x3f6a826d	0.91605264
13	0xc129a021	-10.601594
14	0xc0d85318	-6.7601433
15	0xc0e58c46	-7.173373
16	0x3f29b28c	0.66288066
17	0xc1024fc5	-8.144475
18	0xc19b7320	-19.431213
19	0xc0166bcf	-2.35033
20	0xc0d812a2	-6.7522745
21	0xbf8cf846	-1.1013267
22	0x40cb021c	6.3440075
23	0xc03db419	-2.9641173
24	0x4004a3f0	2.072506
25	0xc0ad82c5	-5.422213
26	0xc1505ba6	-13.022375
27	0xbf991076	-1.1958148
28	0x41329739	11.16192
29	0x410f4afa	8.955805
30	0x409e3316	4.943736
31	0xc001ae22	-2.0262532
32	0xc05d0882	-3.4536443
33	0xc026f68d	-2.6087983
34	0xc0946067	-4.636768
35	0x3fdc253b	1.7198862
36	0x3fd1eff3	1.6401352
37	0x4100998e	8.037489
38	0xc17da4ab	-15.852702
39	0x409886c1	4.7664495
40	0xc0e5c7ee	-7.1806555
41	0xc1291690	-10.568008
42	0xc04831dd	-3.1280434
43	0xc0b5c185	-5.679873
44	0xc0492337	-3.1427743
45	0xc0657feb	-3.5859325
46	0x40b49a7f	5.6438594
47	0x40f6fa05	7.71802
48	0x410a1f57	8.632651
49	0xc029ca28	-2.6529636
50	0xc10d1b1b	-8.819118
51	0x409c1c46	4.8784513
52	0xc138a75a	-11.540857
53	0xc08c9197	-4.392772
54	0xc0d005e9	-6.5007215
55	0x414966b4	12.587574
56	0xc11818cd	-9.506055
57	0x3d608012	0.054809637
58	0xc002f145	-2.045976
59	0xc064fba2	-3.5778584
60	0xc12378a9	-10.216958
61	0xbf7377e2	-0.951048
62	0x3daaa084	0.08331397
63	0x40596978	3.3970623
64	0x3e0007f0	0.12503028
65	0xc10d8096	-8.843893
66	0xc1095b79	-8.584832
67	0xc05828a4	-3.3774805
68	0xc008f71f	-2.140083
69	0x40c5f670	6.1863327
70	0xbf1c8b17	-0.61149734
71	0x40f92726	7.786029
72	0xbfc5b47b	-1.5445703
73	0xc0195ac8	-2.3961658
74	0xc01340da	-2.3008332
75	0x40ed2f86	7.412051
76	0xc10fbb7b	-8.983272
77	0x401a961b	2.4154117
78	0xc0c328aa	-6.098714
79	0x40af1696	5.471507
80	0xc10901e4	-8.562962
81	0xbff883c9	-1.9415218
82	0x40e26472	7.0747614
83	0xc02ac939	-2.6685317
84	0xc0a97cb0	-5.2964706
85	0x40c1d962	6.057786
86	0xc122c5b6	-10.173269
87	0x4107fec3	8.499698
88	0xc0abb988	-5.366398
89	0x406cd60e	3.7005649
90	0xc04f4546	-3.238603
91	0x4006fbb1	2.109112
92	0xbf9c5bcd	-1.2215515
93	0x408fec03	4.49756
94	0x409cf301	4.9046636
95	0x4098a7c4	4.770479
96	0xbe8d7a19	-0.27632216
97	0xbf814ad0	-1.0100956
98	0x4109c85e	8.611418
99	0xc0094380	-2.1447449
100	0x3fcc12d3	1.5943245
101	0xc102f199	-8.183984
102	0xbfb0ac53	-1.3802589
103	0x40b6cc06	5.712405
104	0x406ad265	3.6690915
105	0xc16f958e	-14.974012
106	0xc0f8b7e3	-7.772447
107	0x3f9924c9	1.1964351
108	0x40452fbf	3.0810392
109	0xc1e08e8f	-28.069609
110	0xc11c4d72	-9.768908
111	0x401f59e4	2.4898615
112	0xc00e535e	-2.2238383
113	0xbfb6351a	-1.4234955
114	0xc0318e1a	-2.7742982
115	0xc131e892	-11.11928
116	0x40aa8a3f	5.3293757
117	0xc10a4510	-8.641861
118	0xc100ed4b	-8.057933
119	0x410d5bb5	8.834889
120	0x40085182	2.1299748
121	0xc1378d6b	-11.472026
122	0xc01d8b15	-2.461614
123	0xc19423f2	-18.517551
124	0x3fe82e95	1.8139216
125	0x3f934e02	1.1508181
126	0xc0674d65	-3.6140988
127	0xbfec8f1e	-1.8481176
128	0xc062a524	-3.5413294
129	0xc1a5a88f	-20.707304
130	0x3fed112b	1.8520864
131	0x3f189c3b	0.5961339
132	0xc0ed8e78	-7.423641
133	0xbf81bf3a	-1.0136483
134	0xbf117843	-0.5682413
135	0x40d6a1a9	6.707234
136	0xc12eb88b	-10.920054
137	0xc022ff4e	-2.5468326
138	0xc026c244	-2.605607
139	0xc0a1916c	-5.0490017
140	0xbfe54588	-1.7911844
141	0x40f35005	7.603518
142	0xc04d5914	-3.208562
143	0xbfcafe8a	-1.5858929
144	0xc0d56fda	-6.6699038
145	0xbfc4ecf6	-1.5384815
146	0x4109ec33	8.620166
147	0x40930dbe	4.5954275
148	0x3e3d2003	0.18469243
149	0xc01549e6	-2.3326354
150	0x3f0539e6	0.5204147
151	0xc040d0d9	-3.012747
152	0x3ff4426e	1.9082773
153	0x40459016	3.0869193
154	0x3fac971a	1.3483613
155	0xbff6c147	-1.9277734
156	0xbf2f669d	-0.6851595
157	0xc083b3e9	-4.1157117
158	0x409108f3	4.5323424
159	0xc184215b	-16.516287
160	0xc145aad5	-12.354207
161	0x40317eb7	2.773359
162	0xc02167cd	-2.5219605
163	0x410061d6	8.023886
164	0xc0c4f524	-6.1549244
165	0xc10316db	-8.19308
166	0xc04597cf	-3.0873907
167	0x3feb4f19	1.8383514
168	0xc11d7ce2	-9.842989
169	0xc1920aa3	-18.255194
170	0x402de6bd	2.7172081
171	0x40393de9	2.8944037
172	0xc1710a1f	-15.064971
173	0xc004aec5	-2.073167
174	0xc1bdfa4b	-23.747213
175	0xc08cd087	-4.400455
176	0x3fa001c5	1.250054
177	0x40742d9f	3.8152845
178	0x4131388b	11.076304
179	0xc1040579	-8.251336
180	0xc08b1947	-4.3468356
181	0x4191b1c1	18.211794
182	0xc0295c07	-2.646242
183	0xc0bf7afc	-5.9837627
184	0xc0d46cff	-6.638305
185	0x3f8892aa	1.0669758
186	0x3f4b1e5a	0.7934319
187	0xc045b58f	-3.0892065
188	0xc189f55a	-17.2448
189	0xc01fd8cf	-2.497608
190	0xbf9a54e8	-1.2057161
191	0x4107287c	8.447384
192	0xc0081d06	-2.1267715
193	0x407f96df	3.9935834
194	0xc057963a	-3.368544
195	0x3fa3aee5	1.2787749
196	0x403072a3	2.7569969
197	0x40335ab6	2.8024116
198	0x40f20662	7.563279
199	0x41094f60	8.581879
200	0x3fa04cd1	1.2523443
201	0xc0be770b	-5.9520316
202	0xc1d09da2	-26.07697
203	0xc1638226	-14.2192745
204	0xc07fbd5b	-3.9959323
205	0xc1b31484	-22.385017
206	0x3dc22379	0.09479422
207	0xbdf26cb2	-0.11837138
208	0x3fa39e0d	1.2782608
209	0x3ee44324	0.44582474
210	0xc17c1044	-15.753971
211	0x3e060bfb	0.13090508
212	0xc0f405ba	-7.625699
213	0xc1353041	-11.324281
214	0xc16f5297	-14.957664
215	0xc0de1b5a	-6.940839
216	0x40d8f3c4	6.7797565
217	0xbe723faa	-0.23657098
218	0xc08365c0	-4.1061707
219	0xc12ad199	-10.676171
220	0xc0510020	-3.2656326
221	0xc084608d	-4.136786
222	0xbf5f1da1	-0.87154585
223	0x40ddce5c	6.9314404
224	0xc19ff268	-19.993362
225	0xc11a5ff0	-9.648422
226	0x408bab06	4.364627
227	0xbfaf7a90	-1.3709278
228	0x4093cc71	4.618706
229	0xc144a4d6	-12.290243
230	0x4124d0a9	10.300942
231	0x4103d29b	8.238917
232	0xc098221a	-4.754163
233	0xc1202b5d	-10.010587
234	0x3eb059e6	0.34443587
235	0x3e8f7751	0.2802072
236	0x40247b90	2.5700417
237	0x406b7200	3.678833
238	0xc1282e78	-10.511345
239	0x3fdb61cc	1.713922
240	0x40116920	2.2720413
241	0x3f977a04	1.1834111
242	0xbfad5a14	-1.3543115
243	0x40005f2c	2.0058088
244	0xc0cdb4fa	-6.428342
245	0xc083b59d	-4.1159196
246	0x3f6fbe3c	0.9364965
247	0x40107c89	2.257601
248	0x408760c9	4.2305646
249	0x40c42177	6.129085
250	0x40b5033f	5.6566463
251	0x40fd8dbf	7.923553
252	0xc0d6ec65	-6.7163568
253	0xc0bafa2b	-5.843038
254	0xbfd230c2	-1.642113
255	0xc0b599d9	-5.67503

l2/b f4 [256]
0	0x402ccf0c	2.7001371
1	0x3f078611	0.52938944
2	0x3fa230f0	1.2671185
3	0x3f87dd12	1.061434
4	0x3fcf31ed	1.6187111
5	0x4093fb6e	4.624442
6	0x3e8614fe	0.2618789
7	0x3ee0f5d7	0.4393756
8	0x3d1d2a15	0.03837021
9	0x412e13dc	10.8798485
10	0x406e7ed2	3.7264905
11	0x3f8ce5c3	1.1007618
12	0x400c12c1	2.1886446
13	0x40345c85	2.818147
14	0x4033fa79	2.8121626
15	0xbf90c6cc	-1.1310668
16	0xbd21ae87	-0.039473083
17	0xbe765fca	-0.24059978
18	0x3fd31af7	1.6492604
19	0x400a5e09	2.1619895
20	0x3f6c6962	0.923483
21	0x400e3d65	2.2224972
22	0x41b01f6c	22.015343
23	0x3f97ab73	1.1849197
24	0x3fdb721d	1.71442
25	0x401b15f9	2.423216
26	0x41086459	8.524499
27	0x40b06e38	5.5134544
28	0x3e8f235b	0.27956662
29	0xbf87ed03	-1.0619205
30	0x40249266	2.5714355
31	0xbf0e7c6b	-0.55658597
32	0x4035c673	2.8402374
33	0xc030b576	-2.7610755
34	0x40c422be	6.129241
35	0x3f2e08ba	0.67982066
36	0x40794f46	3.8954635
37	0x3e11f52d	0.14253683
38	0xbfecb338	-1.8492193
39	0x3fa924d5	1.3214365
40	0x3ff76672	1.9328139
41	0x3fe83b36	1.814307
42	0x4035cc80	2.8406067
43	0x4058ca3c	3.3873434
44	0x403d7250	2.960102
45	0x40235e07	2.552614
46	0x3fed8255	1.8555399
47	0x40300a6a	2.7506356
48	0xbf828904	-1.0198064
49	0x40941e86	4.628726
50	0x3fd7e286	1.6866004
51	0x405fe0d6	3.498098
52	0x4025080f	2.5786169
53	0x40609a10	3.5094032
54	0x3eb89d42	0.36057478
55	0x400628ea	2.0962472
56	0x3fc762d3	1.5577034
57	0x40063d3f	2.0974882
58	0x40adc643	5.430452
59	0x40abe6f8	5.3719444
60	0x3f929673	1.1452163
61	0x3f9a3e02	1.2050173
62	0xbeaa4d18	-0.33261943
63	0xbee9d5ca	-0.4567092
64	0x40bf49d2	5.9777613
65	0xbe94a8c7	-0.29035017
66	0x4115943c	9.34869
67	0x3f9ee799	1.2414428
68	0xc01602c0	-2.3439178
69	0x3efc199a	0.49238282
70	0xbfcd167e	-1.6022489
71	0x3fcd9bfa	1.6063225
72	0x407f3b9b	3.988013
73	0x4037c9a3	2.871682
74	0xc0118232	-2.2735715
75	0x3fca2f7a	1.5795739
76	0x40b825b6	5.7546034
77	0x3f3b513e	0.7317084
78	0xbf0aa36f	-0.5415563
79	0x4013b248	2.3077564
80	0x3f5f7b0d	0.87297136
81	0x402c3e42	2.6913
82	0x3f82dc59	1.0223495
83	0x403acd5f	2.9187849
84	0x3e8fb50d	0.28067818
85	0x4086478f	4.196235
86	0x3fc9a218	1.5752592
87	0xbe977e5d	-0.29588595
88	0xbff1d1f1	-1.8892194
89	0x40824f8c	4.0722103
90	0xbfc198e0	-1.5124779
91	0x3f852f25	1.0405012
92	0x3d9383dc	0.072028846
93	0xbe01170e	-0.12606451
94	0xbf6e9ab5	-0.93204814
95	0x3ee25314	0.4420401
96	0x3f9b431d	1.2129856
97	0x410526fe	8.32202
98	0x40999824	4.799822
99	0xbf05dfda	-0.52294695
100	0xbee9f67c	-0.45695865
101	0xbf9e0307	-1.2344674
102	0x3f98180d	1.188234
103	0x3fe26036	1.7685611
104	0xbfdbd015	-1.7172877
105	0x3f6dd1ef	0.9289846
106	0x4098d427	4.7758975
107	0xbfa1be82	-1.2636263
108	0x4021cc79	2.528105
109	0x3f62bf1e	0.8857287
110	0x3f702f97	0.93822616
111	0xbf20b7ca	-0.6278044
112	0x4080e052	4.027383
113	0x3e8b4236	0.27198952
114	0xbdfab4aa	-0.1224149
115	0x403d64ca	2.9592767
116	0x3fef726d	1.8706795
117	0x3f57c5f4	0.8428643
118	0x3f611235	0.87918407
119	0x3fa79bf0	1.3094463
120	0x40c3c536	6.1178236
121	0x40cf6f86	6.4823637
122	0x3e0297c3	0.12753205
123	0x40ef16a1	7.4715123
124	0x40a81c3d	5.253447
125	0x3f4c1dea	0.79733145
126	0x3fa14533	1.2599243
127	0x3f9dc6a4	1.2326245
128	0x3f9c64d8	1.2218275
129	0x3f4b5e25	0.7944053
130	0x3f9aa37a	1.2081139
131	0x3fc90fa1	1.5707895
132	0x3ffd3e3e	1.978462
133	0x4058b040	3.3857574
134	0x3f17fae9	0.59367234
135	0xbf2bc3d7	-0.670957
136	0x3f7d284b	0.9888961
137	0x3f558b4a	0.83415663
138	0x406a6af9	3.662779
139	0x40028493	2.0393417
140	0xbfd975ad	-1.6989037
141	0x3fe6b14a	1.8022854
142	0x401c73a3	2.444558
143	0x408e9c90	4.4566116
144	0x40850ea8	4.158039
145	0x3eb7ee0e	0.3592381
146	0xbfd2d548	-1.6471338
147	0x3e23cab8	0.159953
148	0x3e30037b	0.17188828
149	0xc01a385c	-2.40969
150	0xbf2c99ad	-0.6742199
151	0x4030f878	2.7651653
152	0x40622646	3.533586
153	0x40a7e910	5.2472
154	0xbf3fb3cc	-0.74883723
155	0x40301fb7	2.7519357
156	0xc010e27f	-2.2638242
157	0x402ddb9c	2.716529
158	0xbee0aba0	-0.4388094
159	0xbfea7208	-1.831605
160	0x3fa180e8	1.2617464
161	0x3fe9a71f	1.8254126
162	0xbeac2111	-0.33618978
163	0x40067dc2	2.1014256
164	0xbf214b60	-0.6300564
165	0xbfca0e9b	-1.5785707
166	0x4089c05e	4.3047323
167	0x3ff4f559	1.9137374
168	0x3f6a8124	0.916033
169	0x4075ffad	3.8437302
170	0x4093783c	4.608427
171	0x3fdc8f76	1.7231281
172	0x40318ba1	2.7741473
173	0xbfbecced	-1.4906288
174	0x3fbbf40f	1.4683856
175	0x40ccd3e1	6.400864
176	0x3f858f0d	1.0434281
177	0xbf723eb9	-0.9462696
178	0x3f7d7eac	0.9902141
179	0x4014bb60	2.3239365
180	0xbe98ab79	-0.29818323
181	0x405bcf6a	3.4345345
182	0xbf8176b0	-1.0114346
183	0xbe18b3ab	-0.14912288
184	0xbf158199	-0.58400875
185	0xbfff86e2	-1.9963038
186	0x3fc6a05a	1.5517685
187	0x3fb574cb	1.4176267
188	0xbef6110a	-0.48059875
189	0x4005b83a	2.0893693
190	0x3f8837ce	1.064203
191	0x3d82d468	0.063881695
192	0x409f3a06	4.975833
193	0x3f88350e	1.0641191
194	0x402e6e5f	2.7254865
195	0xbf36028e	-0.7109765
196	0x3f92ed66	1.1478698
197	0x3f50d696	0.8157743
198	0x404485f3	3.0706756
199	0x4035437d	2.8322442
200	0xbebc062a	-0.36723453
201	0x40a50286	5.156558
202	0x406e4c99	3.7234251
203	0x3a775cf7	0.0009436155
204	0x3f50a4cf	0.8150148
205	0x40a56356	5.168376
206	0x3facd551	1.3502599
207	0xbef880dc	-0.48535812
208	0x4029f04b	2.6552913
209	0x4012bffc	2.2929678
210	0x3fa6760b	1.3004774
211	0x40a9ba8a	5.304021
212	0x40233dfc	2.5506582
213	0xbe59fdfa	-0.2128829
214	0x3ffa0ef0	1.9535809
215	0x3fc32d09	1.5248119
216	0xc000fa1d	-2.0152657
217	0x3f88e576	1.0695026
218	0x40162e9b	2.3465946
219	0xbf602a07	-0.8756413
220	0x3d02a340	0.03189397
221	0x4040a0a5	3.009805
222	0x3f8de62e	1.108587
223	0x3fee17b3	1.8600982
224	0x3fd3f22f	1.6558284
225	0x3fb4aa45	1.4114462
226	0x4011c4fb	2.2776477
227	0x405d6cf1	3.4597743
228	0x3faec93f	1.3655165
229	0x404763b7	3.115461
230	0x40312077	2.7676065
231	0x3fd81cd4	1.6883798
232	0xbebd84cf	-0.37015387
233	0xbf5df6a6	-0.8670448
234	0xbe4581ee	-0.19287845
235	0x3f1cfc49	0.61322457
236	0x40888b90	4.2670364
237	0x4067860a	3.617556
238	0xbe9302cd	-0.28713074
239	0x402dfec3	2.7186744
240	0xbfbd5a65	-1.4793211
241	0x3f1687b3	0.5880081
242	0x3e2a4994	0.1662963
243	0x3ffe2899	1.985614
244	0x3e1939ec	0.14963502
245	0x3f886ad5	1.0657603
246	0x410f0952	8.939775
247	0xbf07f7bb	-0.5311238
248	0x3f729311	0.94755656
249	0x3fdebe1b	1.7401766
250	0x404e4a9b	3.2233036
251	0x401e5eaa	2.4745278
252	0x3fae36e7	1.3610505
253	0x3fc6eca9	1.5540973
254	0x3deb6876	0.11494534
255	0x3eb08d5b	0.34482846

l1/W f4 [256, 64]
0	0x419ee869	19.863482
1	0xc1a80d6c	-21.006554
2	0xc168b496	-14.544088
3	0x41796beb	15.588847
4	0x3f992853	1.1965431
5	0xc0cb6725	-6.356341
6	0xc0e0f636	-7.030055
7	0x409c1af6	4.878291
8	0x3fad861c	1.3556552
9	0x4031eeed	2.7802079
10	0x3fcb68f5	1.5891405
11	0x3f7f31b7	0.99685234
12	0xc0842533	-4.129541
13	0x403454b0	2.817669
14	0x3ffe82d2	1.9883673
15	0xc082013a	-4.0626497
16	0x400abddf	2.1678388
17	0x408b8332	4.359765
18	0x3e786bcb	0.2425987
19	0xc04db234	-3.2140017
20	0xc02bb6e3	-2.6830375
21	0xbf7e1183	-0.9924547
22	0x40b47cdb	5.640241
23	0x40282a94	2.6275988
24	0x410bf26c	8.746685
25	0xc0c28973	-6.0792785
26	0x402aeae8	2.6705875
27	0xc0a8212e	-5.2540503
28	0x406f776e	3.7416644
29	0x4046152a	3.0950418
30	0x40fd9541	7.9244695
31	0x40006272	2.0060086
32	0xc0b1dd49	-5.5582623
33	0xc0b6140c	-5.689947
34	0x40b93f09	5.7889447
35	0xc03a8469	-2.9143317
36	0xbf8f99a7	-1.1218766
37	0xbf73fa21	-0.9530354
38	0xc08b4f24	-4.3534107
39	0xbfe100a0	-1.7578316
40	0x4145719b	12.340236
41	0x406e2416	3.7209525
42	0xbf9ea66a	-1.2394536
43	0x3e8bc445	0.2729818
44	0xbf16aee9	-0.5886064
45	0x40510f8a	3.2665734
46	0xbf177c41	-0.5917397
47	0xc1276de5	-10.46433
48	0x40a9f7ed	5.3115144
49	0x4033b65a	2.8080049
50	0xbeba591d	-0.36396113
51	0x40fa391a	7.8194704
52	0x40b34b3a	5.602933
53	0xc09a6405	-4.8247094
54	0xbfd0d1df	-1.6314048
55	0x400c3c35	2.1911747
56	0x41bcf636	23.62022
57	0x40501a10	3.2515907
58	0xc1022e1a	-8.136255
59	0x40efe885	7.4971337
60	0xbf1b1c57	-0.6059012
61	0xc06206da	-3.5316682
62	0xc13749bc	-11.455502
63	0xc1195708	-9.583748
64	0x414d2917	12.822532
65	0xc1190b7a	-9.565302
66	0x4053d8a8	3.3100986
67	0xc1410bc1	-12.06537
68	0xc0d08d02	-6.517213
69	0xc127ddc6	-10.491644
70	0x410d7d18	8.84304
71	0xc095ed46	-4.685214
72	0xc0bdc228	-5.9299507
73	0x4086ed4f	4.2164683
74	0xc0079d53	-2.1189773
75	0x4072b201	3.7921145
76	0xc0913f6d	-4.5389924
77	0xc02bc689	-2.6839926
78	0x40d95e02	6.7927256
79	0x40ae0b3d	5.438872
80	0x40ebe40c	7.3715878
81	0xc0e0d8d9	-7.0264707
82	0x3ec75533	0.3893219
83	0x3e85962a	0.2609113
84	0x3fe03efc	1.7519221
85	0x3f87367c	1.0563502
86	0x40c80936	6.2511244
87	0xc0bd5e58	-5.9177666
88	0xbd8c5435	-0.06851999
89	0x4094a4a2	4.645097
90	0xbf22e259	-0.6362663
91	0x404200a7	3.0312898
92	0x4027ee0f	2.623905
93	0xbdcd60be	-0.10028218
94	0xc1418757	-12.095542
95	0xc0a8b191	-5.2716756
96	0x4080db92	4.026803
97	0x40084eb0	2.1298027
98	0x3ea44cca	0.32089835
99	0xc016343d	-2.3469384
100	0xbe1777c9	-0.14791788
101	0xc0744201	-3.8165286
102	0x4042cd74	3.0437899
103	0xc0add778	-5.4325523
104	0xc0d84ace	-6.7591314
105	0xc1b31fb3	-22.390478
106	0x401cf186	2.4522414
107	0x403d76a2	2.9603658
108	0xbfb63957	-1.4236249
109	0x3faf53a8	1.3697405
110	0x40d8abe5	6.770983
111	0x3f8e350d	1.110994
112	0x405573fc	3.3352041
113	0xbea0ef79	-0.31432703
114	0xbf715bfc	-0.9428098
115	0xc1394a6e	-11.580671
116	0xc03537a9	-2.8315222
117	0x3f29a462	0.66266453
118	0x412981e5	10.594213
119	0xc0336949	-2.803301
120	0x40bae711	5.8407063
121	0xbfdb5229	-1.7134448
122	0xc0b43e6f	-5.6326213
123	0xc1cb56b9	-25.417345
124	0x41298dce	10.59712
125	0x408041fc	4.0080547
126	0x3f9da040	1.231453
127	0x4106213a	8.383112
128	0xc11c7afe	-9.780027
129	0x40bca8fd	5.8956285
130	0x40edc94f	7.430824
131	0x417f4817	15.9551
132	0xbf3f8c30	-0.74823284
133	0x408ff524	4.4986744
134	0x406fc258	3.7462368
135	0x3f95acb5	1.1693331
136	0x411b7120	9.715118
137	0x3fd43df3	1.6581405
138	0xc01a9ff6	-2.4160132
139	0xbf5c4cba	-0.86054575
140	0xbf0e0275	-0.554725
141	0x4070c835	3.7622197
142	0x40e41b10	7.1283035
143	0xc080305e	-4.005904
144	0xc081b176	-4.0529127
145	0x41039c61	8.225678
146	0xc1377730	-11.4665985
147	0xc02aac70	-2.6667747
148	0xc030941c	-2.7590399
149	0xbf14eadd	-0.5817087
150	0x40c3aa44	6.1145344
151	0x4077b1b5	3.8702214
152	0x4152d196	13.176168
153	0xc0c73ada	-6.225934
154	0xbec3f816	-0.38275212
155	0x405bc0bb	3.4336383
156	0xbd98c904	-0.07460216
157	0x3faf1a62	1.3679926
158	0xbfdf5c0d	-1.7449967
159	0xc089876e	-4.297782
160	0xc097bebf	-4.7420344
161	0x405a134b	3.4074275
162	0xc11e6e77	-9.901969
163	0x3ff69ee7	1.9267243
164	0x404bdc62	3.185326
165	0xbffd42d6	-1.9786022
166	0xc0836a3a	-4.106717
167	0xc0b41ecf	-5.628761
168	0x40dd8954	6.9230137
169	0xc0fdd49f	-7.9322047
170	0xbf2dfbeb	-0.6796252
171	0x408e10b1	4.4395375
172	0x40b67173	5.701349
173	0xbf923e38	-1.1425238
174	0xbf0ac72b	-0.54210156
175	0xc12e7654	-10.903889
176	0xc081f188	-4.060734
177	0xc13e441a	-11.891626
178	0xc12d76ef	-10.8415365
179	0xbfb4a054	-1.4111428
180	0x3f0c747e	0.5486525
181	0xc15ac4c8	-13.673042
182	0xc029ae5d	-2.6512673
183	0xc10ee637	-8.931205
184	0xc092ca9f	-4.587234
185	0x3e07f678	0.13277614
186	0x3e4b02d6	0.198253
187	0x412728e4	10.447483
188	0xc10d3f41	-8.827943
189	0xc18dd3f0	-17.728485
190	0xbfa4149c	-1.281879
191	0xc096e83a	-4.715848
192	0xbfdd6360	-1.7295952
193	0x413dd76f	11.865096
194	0x3f4adb8c	0.7924125
195	0x4090422c	4.5080776
196	0xc0d997f3	-6.7997985
197	0xbfa6c7ef	-1.3029765
198	0x40b4a3fb	5.645017
199	0x41261f8f	10.382705
200	0xc0774f0a	-3.8641992
201	0xc12e535e	-10.895353
202	0x4003bea1	2.05851
203	0x40c61bc3	6.190889
204	0xc1333e1a	-11.2026615
205	0x3f65d924	0.89784455
206	0x40ad11e6	5.408435
207	0x4084dbb7	4.1518207
208	0x40c1d1a8	6.056843
209	0xc01418df	-2.314018
210	0x40246f6a	2.5693002
211	0xc0819401	-4.049317
212	0x40a710be	5.2207937
213	0xbe4239ee	-0.18967411
214	0x40890819	4.2822385
215	0xc06dfce5	-3.7185605
216	0xc0c4b2e5	-6.1468377
217	0x3f900ae7	1.1253327
218	0x40d6e9d9	6.716046
219	0x3e50ce03	0.20391087
220	0xbfc96dd6	-1.5736644
221	0x405ccd39	3.4500258
222	0xbfb70d76	-1.4300983
223	0x406ee4c4	3.7327127
224	0xc08e9b4b	-4.4564567
225	0x407830ca	3.8779778
226	0x4078d029	3.887705
227	0xc0597fd2	-3.3984265
228	0xbf752794	-0.95763516
229	0xbe44d9f9	-0.19223775
230	0xc0271a76	-2.61099
231	0xc12c4886	-10.767706
232	0xc0f1fb21	-7.5619054
233	0x404ba6be	3.1820521
234	0xc0f23eeb	-7.5701804
235	0xc00edd34	-2.2322512
236	0xc00424d3	-2.0647476
237	0x40a42d84	5.130556
238	0x3f63775f	0.8885402
239	0xc176d895	-15.427876
240	0x40928b4c	4.579504
241	0xc102bffa	-8.171869
242	0x3ff52a9c	1.9153628
243	0xc1359643	-11.349185
244	0x407d6508	3.9592915
245	0x41441c19	12.25686
246	0x40f424d8	7.6294975
247	0x3fcb1fe7	1.5869111
248	0xc185ae1a	-16.71001
249	0xc06fc84a	-3.7465997
250	0xc13d3a95	-11.826802
251	0x3f724a2e	0.9464444
252	0xc0f989b7	-7.798061
253	0x415565dc	13.337368
254	0x411c9f7f	9.788939
255	0x3e67a0c4	0.22619921

l1/b f4 [256]
0	0xbf408231	-0.75198656
1	0x3f4b69c3	0.79458255
2	0x40205676	2.5052772
3	0xbec85467	-0.39126894
4	0xbf92e8a8	-1.1477251
5	0x3e10a795	0.14126427
6	0x3f10ec11	0.5661021
7	0x3f828216	1.0195949
8	0xbe89673f	-0.26836583
9	0xbe2b3b45	-0.16721828
10	0xc0db8378	-6.8597984
11	0xbe113b5b	-0.14182799
12	0xc085db28	-4.1830025
13	0xc028428f	-2.6290624
14	0xbe916853	-0.28399906
15	0xc03f7a62	-2.9918447
16	0xbcd8708f	-0.02642086
17	0xbfbf5511	-1.4947835
18	0x3fbb6d97	1.4642819
19	0x3f840d3e	1.0316541
20	0x3f3809df	0.7189006
21	0x3f886b38	1.065772
22	0x409d82c9	4.922215
23	0x3eb9864b	0.3623527
24	0xc018cde9	-2.3875678
25	0xc0ee5fe4	-7.4492054
26	0x3f9ea6b2	1.2394621
27	0xbfcb70fc	-1.5893855
28	0x407c26aa	3.9398599
29	0xc068b560	-3.6360703
30	0xbf7af16c	-0.9802463
31	0x4026c1f9	2.6055892
32	0x4007a8af	2.1196706
33	0x3f1f2b04	0.6217501
34	0xc1188e27	-9.534705
35	0x403a9919	2.9155943
36	0x40646cd2	3.5691419
37	0x409287e8	4.57909
38	0x3f0978d1	0.53699976
39	0x4002792c	2.0386457
40	0xbf30dfc8	-0.69091463
41	0xbfb31a7b	-1.3992456
42	0xbff280d3	-1.8945564
43	0xc0dc93be	-6.893035
44	0xbfe22039	-1.7666084
45	0xbf797538	-0.97444487
46	0xc07e2b88	-3.971407
47	0xc04fb704	-3.2455454
48	0xc0acd70e	-5.401252
49	0x409c0f88	4.876896
50	0x3f920ea1	1.1410714
51	0x40a3f1fa	5.123288
52	0x4069f56f	3.655605
53	0xc03f250d	-2.9866364
54	0x4030bbc3	2.76146
55	0x3f22036d	0.6328648
56	0xbfdd746b	-1.7301153
57	0x3f37b765	0.7176421
58	0x408c93bb	4.3930335
59	0x3f501a46	0.8129009
60	0x407c3304	3.9406137
61	0xc0566e5c	-3.3504858
62	0x4096ee0b	4.716558
63	0xbfde67e4	-1.7375455
64	0xc061c99a	-3.5279298
65	0x4032aa85	2.7916577
66	0xc06590ab	-3.5869548
67	0xbf182831	-0.5943633
68	0xc052d36e	-3.2941546
69	0x405168ed	3.2720292
70	0xbefcd356	-0.49379987
71	0xbeeffdce	-0.46873325
72	0x3f15a477	0.5845408
73	0xbf101e1f	-0.5629596
74	0x3fde6a83	1.7376255
75	0xc028d0b5	-2.6377385
76	0x3fb4a819	1.4113799
77	0xbfaed88b	-1.3659834
78	0x4001cd27	2.0281465
79	0x413e6eae	11.902021
80	0x3ecff8f6	0.4061963
81	0xc12607da	-10.376917
82	0xbed922ed	-0.4240946
83	0x3f1a81c4	0.60354257
84	0xbcc0f931	-0.023556324
85	0xc015aac0	-2.3385468
86	0xbef7cd58	-0.48398852
87	0x40362f53	2.8466384
88	0x4014c927	2.3247774
89	0x407a5d7a	3.9119554
90	0xc01fe5f4	-2.4984102
91	0x3fdf6192	1.7451651
92	0x402f388a	2.7378259
93	0xc037cc93	-2.8718612
94	0x4015170d	2.329532
95	0x3f65c1c7	0.89748806
96	0xc123f108	-10.2463455
97	0xc1207cc0	-10.030457
98	0x3fe39ce2	1.7782252
99	0xc065e7a5	-3.5922635
100	0x3fe74168	1.8066835
101	0xbf4c4fbe	-0.79809177
102	0xc0360547	-2.844072
103	0x3f85d526	1.0455673
104	0x4044e813	3.0766647
105	0xbfc1bee9	-1.5136386
106	0xbfc9a6ec	-1.5754066
107	0x3ea6e9c3	0.3260022
108	0xbfcdff87	-1.6093606
109	0x40ba8424	5.8286304
110	0xc09a2d5d	-4.8180375
111	0x4054fd73	3.3279693
112	0x408428de	4.1299887
113	0x3fdcbabc	1.7244487
114	0xc098142d	-4.752463
115	0xbdd213e6	-0.102577016
116	0xbdfcb492	-0.123391286
117	0x40a9e18d	5.308783
118	0x3feecabe	1.8655622
119	0xbdf50159	-0.11963148
120	0x40b7f5ba	5.748746
121	0xc0d6366a	-6.6941423
122	0xc0574390	-3.3634987
123	0xbf6a3733	-0.9149048
124	0xc0189655	-2.3841755
125	0x3f9ff255	1.2495829
126	0xbdd046ae	-0.10169731
127	0xbf6dfc88	-0.9296346
128	0xc0994228	-4.7893257
129	0xc103baf3	-8.233142
130	0x40d276af	6.5769877
131	0xbfa2d4a7	-1.2721146
132	0x403fd75f	2.9975202
133	0xbf9f5788	-1.2448587
134	0xbdc1d8d3	-0.09465184
135	0x40cc4573	6.3834777
136	0xc0bd4dc3	-5.9157424
137	0xc0803004	-4.0058613
138	0xbcf506b2	-0.02991042
139	0xbd49110b	-0.04908852
140	0xc1036fc5	-8.2147875
141	0xbff61565	-1.9225279
142	0x3ff92ba9	1.9466449
143	0xc011a8f7	-2.2759378
144	0xc0b21355	-5.56486
145	0xbee8a606	-0.45439166
146	0x3f2869ee	0.65786636
147	0x40883b02	4.257203
148	0x408080ed	4.015738
149	0xc0aac9d3	-5.3371367
150	0xc017c766	-2.3715453
151	0x40320a26	2.7818694
152	0x3f6a53e1	0.9153424
153	0xc0147607	-2.3197038
154	0xc042de95	-3.0448353
155	0x3eed032f	0.4629149
156	0xbf5209e9	-0.8204637
157	0x40955321	4.6663976
158	0xc1276546	-10.462225
159	0x41033ddd	8.202603
160	0x405287cc	3.2895384
161	0xbf405b02	-0.75138867
162	0x3f5fe885	0.8746417
163	0x4005be1a	2.0897279
164	0x409b8322	4.8597574
165	0xc0ebda3b	-7.3703895
166	0x40a53240	5.162384
167	0xc09a3c5a	-4.819867
168	0xc0c691af	-6.2052836
169	0xc1378769	-11.470559
170	0xc092b77a	-4.584897
171	0x401831b3	2.3780334
172	0x3fcae011	1.584963
173	0x402790dd	2.6182168
174	0x406b71a6	3.6788116
175	0xc0ceea07	-6.466068
176	0xbfb4ae2c	-1.4115653
177	0xbfa18aff	-1.2620543
178	0x401d93d2	2.4621472
179	0xc036669c	-2.8500128
180	0x402bf338	2.68672
181	0x3f3c0ad6	0.73454034
182	0x3fa29fa6	1.2704971
183	0x3f727029	0.9470239
184	0x3cbcff76	0.023071032
185	0x400569d8	2.0845852
186	0xc0cd7782	-6.4208384
187	0x3fe647d5	1.7990671
188	0xbfcc8e50	-1.598093
189	0x3fe89321	1.81699
190	0xbf8545ec	-1.0411963
191	0x403ed337	2.9816415
192	0xbf925998	-1.1433592
193	0x3f76fd29	0.9648004
194	0xc0723b74	-3.7848787
195	0x3e172cec	0.1476323
196	0x405643fb	3.3478992
197	0xbfe4cfa0	-1.7875862
198	0xbf9bd872	-1.2175429
199	0x4082b7f8	4.084957
200	0xc01be81d	-2.436042
201	0xbf94e9fc	-1.1633906
202	0xc0590dbe	-3.3914638
203	0x3ee1c216	0.44093388
204	0x3f9f3ce3	1.2440456
205	0xc08b5edd	-4.35533
206	0xc08c7734	-4.389551
207	0xc0ee138a	-7.439885
208	0xc03c95b5	-2.9466374
209	0xbf42bc51	-0.760686
210	0xc112269a	-9.134424
211	0xbfbde9c0	-1.483696
212	0xc0723309	-3.784365
213	0x404b2064	3.173852
214	0xbfa39514	-1.277987
215	0xbfdce1c8	-1.7256403
216	0x3f2093b2	0.62725365
217	0xbf30d535	-0.6907533
218	0xbea587b8	-0.32330108
219	0xbf8274ed	-1.0191933
220	0xc02defff	-2.7177732
221	0xbfacde2c	-1.3505301
222	0xbf9f1700	-1.2428894
223	0xc11b4d2a	-9.706339
224	0x4056cc46	3.3562179
225	0xc0562c17	-3.346441
226	0xbedf6c13	-0.43637142
227	0xc0176133	-2.3653076
228	0xbf8c40ff	-1.0957335
229	0x401043b7	2.254133
230	0x3fd06176	1.6279743
231	0xc0a585bf	-5.1725764
232	0x3fef9f83	1.8720554
233	0xc06f8db9	-3.743025
234	0x408731fd	4.224852
235	0xc047f872	-3.124539
236	0x4016a706	2.3539443
237	0x40d12229	6.53542
238	0xc13793a8	-11.473549
239	0x40106c42	2.2566075
240	0xc05f5680	-3.4896545
241	0xc0dc9bb6	-6.8940077
242	0xc08b47bc	-4.3525066
243	0xc078ca4e	-3.8873477
244	0xc14af564	-12.68491
245	0xc1793488	-15.575325
246	0xc0968edc	-4.704939
247	0xbfe36d52	-1.7767737
248	0x40b4d71f	5.65126
249	0x3f848eaf	1.0356044
250	0xbec23e73	-0.3793827
251	0x409c9002	4.892579
252	0xc0a51930	-5.1593246
253	0x3fcd6d91	1.6049062
254	0xc01c66a0	-2.4437637
255	0xc0abcc90	-5.368721

l4/W f4 [64, 256]
0	0x419f62ab	19.923178
1	0x419da674	19.706276
2	0x417f6a67	15.963477
3	0x41de5dd2	27.79581
4	0x40e5734d	7.170325
5	0x41198084	9.593876
6	0x41a08f96	20.07011
7	0x4194e9a6	18.614086
8	0x4160d089	14.050912
9	0x4195739c	18.68145
10	0x41b20d4c	22.256493
11	0x41a4a881	20.582277
12	0x419c8646	19.565563
13	0x41bde0de	23.734798
14	0x418bb60d	17.463892
15	0x4198239e	19.017391
16	0x41b2b7dc	22.339775
17	0x418916df	17.136168
18	0x4198a5eb	19.081015
19	0x419d7b96	19.685345
20	0x418fc209	17.969744
21	0x4191f4b6	18.244488
22	0x415a5327	13.645301
23	0x418b4094	17.406532
24	0x418dc62a	17.72176
25	0x419a5c4d	19.295069
26	0x41a49dc3	20.577032
27	0x41c6a29d	24.829401
28	0x41c3b15f	24.461607
29	0x41c2d457	24.353682
30	0x41c25381	24.290773
31	0x41a63a13	20.778357
32	0x41bd8663	23.690619
33	0x418595c2	16.698124
34	0x41ca1c3c	25.263786
35	0x3fdb0b1d	1.7112767
36	0x41c68d1a	24.818897
37	0x41a8f8ae	21.121426
38	0x41a124ce	20.142971
39	0x417653aa	15.395426
40	0x41521d49	13.13215
41	0x41928a86	18.317638
42	0x41d450e7	26.539503
43	0x41953929	18.65291
44	0x419b41dd	19.40716
45	0x41931800	18.386719
46	0x4129da69	10.615823
47	0x41a1318e	20.149197
48	0x41a26981	20.301516
49	0x41db4f9d	27.413874
50	0x4180ac5d	16.084162
51	0x41c9220d	25.141626
52	0x41cb5da8	25.42073
53	0x41bc7d32	23.56113
54	0x41a6416e	20.781948
55	0x41db2129	27.391191
56	0x41af4ee7	21.913527
57	0x41b65f14	22.796425
58	0x41ac6279	21.548082
59	0x41d24a40	26.286255
60	0x4165a044	14.351627
61	0x41d4d9fd	26.60644
62	0x41c822b1	25.01694
63	0x41b2876c	22.316124
64	0x418ece50	17.850739
65	0x41b69406	22.822277
66	0x41c100fa	24.125477
67	0x418d9020	17.695374
68	0x41b99d7c	23.201897
69	0x418449c6	16.536022
70	0x41b32401	22.39258
71	0x41a848e4	21.035591
72	0x419ba220	19.454163
73	0x41968180	18.813232
74	0x419c0a8f	19.505156
75	0x41a6e51c	20.86187
76	0x41a3fbd2	20.49796
77	0x4185bf42	16.718388
78	0x41a09ba0	20.075989
79	0x418b7916	17.434124
80	0x418f185d	17.886896
81	0x41d9ff24	27.24958
82	0x41be484f	23.785307
83	0x41b8dc27	23.107496
84	0x41515d14	13.085224
85	0x40f175b6	7.545619
86	0x41941b00	18.513184
87	0x41addf6c	21.734093
88	0x41c41aab	24.513021
89	0x41c17c12	24.185581
90	0x41bcde3b	23.608511
91	0x419a16d2	19.261143
92	0x41b71711	22.886263
93	0x416563be	14.336851
94	0x41aa3cea	21.279743
95	0x41892b91	17.146273
96	0x41460cc6	12.3781185
97	0x41b2496a	22.285847
98	0x41495b6f	12.584823
99	0x413aa6f3	11.665759
100	0x41ba2709	23.26906
101	0x418c2d6d	17.52218
102	0x41814d50	16.16275
103	0x41c90301	25.126467
104	0x416c2d69	14.761086
105	0x418d90b9	17.695665
106	0x4192c767	18.347364
107	0x411a838b	9.657115
108	0x41bccd9d	23.600397
109	0x41b6b99d	22.840631
110	0x419a14d5	19.260172
111	0x419e8a22	19.817448
112	0x4185eca4	16.740547
113	0x419f49eb	19.911093
114	0x410e0a41	8.877503
115	0x41ac1041	21.507936
116	0x4157b84d	13.482495
117	0x4140a4a1	12.040193
118	0x41b67aa9	22.809893
119	0x417fe6d3	15.993854
120	0x4195b119	18.711473
121	0x418f9c24	17.95124
122	0x418f5c60	17.920105
123	0x419393c4	18.447151
124	0x41b0094d	22.004541
125	0x41a81139	21.00841
126	0x41d82cb6	27.021832
127	0x419cf8a9	19.621416
128	0x41b12ece	22.147854
129	0x41306b7d	11.026242
130	0x4175995f	15.349944
131	0x41a892ec	21.07174
132	0x418b43a4	17.408028
133	0x40321ead	2.7831223
134	0x40e3bbeb	7.116689
135	0x411fedfc	9.995602
136	0x411c4464	9.766697
137	0x41c4ef78	24.616928
138	0x41a69241	20.821413
139	0x41b76b30	22.927338
140	0x41a2b372	20.33762
141	0x41a507f6	20.628887
142	0x4184c56a	16.596394
143	0x4192c8c5	18.348032
144	0x41947208	18.55568
145	0x419b71ef	19.430632
146	0x41b58032	22.687595
147	0x4186b21d	16.83697
148	0x41adbd3a	21.717396
149	0x41bb7a63	23.43476
150	0x4156ead6	13.432333
151	0x41b80f8f	23.007597
152	0x41c7f049	24.992327
153	0x41cbcfa8	25.476395
154	0x3bea843f	0.0071568782
155	0x419e5c38	19.795029
156	0x41c81aed	25.013147
157	0x41a7cf48	20.976212
158	0x41a2aff2	20.33591
159	0x419e4618	19.784225
160	0x41821ab8	16.263046
161	0x411ccc45	9.7998705
162	0x418d2fa3	17.64826
163	0x418920d6	17.141033
164	0x41601ff1	14.007798
165	0x41c4ec06	24.615246
166	0x419bd8dc	19.480888
167	0x419ba6da	19.45647
168	0x41d9dc85	27.232676
169	0x41177400	9.46582
170	0x41a3c987	20.473402
171	0x418daa47	17.708143
172	0x41cdbfe0	25.718689
173	0x41bb51ef	23.415007
174	0x41941735	18.511332
175	0x41752895	15.322408
176	0x41af0418	21.876999
177	0x41a3ee2b	20.491293
178	0x4190a5d9	18.08098
179	0x417d855b	15.8450575
180	0x417b6389	15.711801
181	0x41aaeaf0	21.364716
182	0x411b07bc	9.689388
183	0x41befed8	23.874435
184	0x41a7b9fd	20.965815
185	0x419b0501	19.377443
186	0x41abf273	21.493383
187	0x41858aab	16.692709
188	0x419a79ba	19.309437
189	0x41bc6061	23.54706
190	0x41a7a3ea	20.955036
191	0x41971c7e	18.888912
192	0x41a535eb	20.651327
193	0x419865aa	19.04964
194	0x4135b4e2	11.356661
195	0x41c3b36f	24.462614
196	0x41b40988	22.504654
197	0x417986b6	15.595388
198	0x4190d383	18.103277
199	0x41c25346	24.29066
200	0x41849a1f	16.575254
201	0x419a6a3b	19.30187
202	0x41a10806	20.128918
203	0x414ab33e	12.66876
204	0x41b979f0	23.18454
205	0x41c8850c	25.064964
206	0x419ec189	19.8445
207	0x41659b94	14.350483
208	0x41b7e2ef	22.985807
209	0x41a0feb1	20.124361
210	0x411b69c5	9.713323
211	0x41926cc0	18.3031
212	0x41a83769	21.027056
213	0x419ed1ef	19.852507
214	0x419bafc7	19.460829
215	0x411c4acf	9.768264
216	0x41bf3be7	23.90425
217	0x41a5b502	20.713383
218	0x41945c30	18.545013
219	0x419143a2	18.158024
220	0x405c903e	3.4463038
221	0x417166ec	15.087627
222	0x41a4a0d8	20.578537
223	0x418460cf	16.54727
224	0x41beb87c	23.84008
225	0x4194cb7c	18.599358
226	0x41a56092	20.672153
227	0x41a22c90	20.271759
228	0x41a211ad	20.25863
229	0x418ca41c	17.580132
230	0x41aed754	21.85514
231	0x41a13b53	20.153967
232	0x41a909c5	21.12977
233	0x418c98ef	17.574675
234	0x419787b9	18.94127
235	0x4189e925	17.23884
236	0x419648f9	18.785631
237	0x41b4abae	22.583828
238	0x41ce2e17	25.772505
239	0x41e96c64	29.177925
240	0x41bd2bdc	23.646416
241	0x41bb12dd	23.38421
242	0x41a16250	20.173004
243	0x41bf2cce	23.896877
244	0x41be540b	23.791037
245	0x41969ed5	18.827555
246	0x41bbe402	23.486332
247	0x417d190c	15.818615
248	0x410f8504	8.9699745
249	0x41990c1b	19.13091
250	0x418d2a3c	17.645622
251	0x40c61f90	6.191353
252	0x417450cb	15.269725
253	0x41b81d92	23.014439
254	0x41c3012f	24.375578
255	0x41c7ac13	24.95902

l4/b f4 [64]
0	0xc2bc0a3a	-94.01997
1	0xc2bc0ea9	-94.02863
2	0xc2bc09b5	-94.01896
3	0xc2bc0ce5	-94.025185
4	0xc2bc16bb	-94.044395
5	0xc2bc1580	-94.04199
6	0xc2bc13a3	-94.03835
7	0xc2bc0e1b	-94.02755
8	0xc2bc0c8b	-94.0245
9	0xc2bc0f5e	-94.030014
10	0xc2bc1041	-94.031746
11	0xc2bc1396	-94.03825
12	0xc2bc0cb7	-94.02483
13	0xc2bc1737	-94.04534
14	0xc2bc19dc	-94.05051
15	0xc2bc13cd	-94.03867
16	0xc2bc1284	-94.03616
17	0xc2bc183f	-94.047356
18	0xc2bc1837	-94.047295
19	0xc2bc2f68	-94.09259
20	0xc2bc12b7	-94.03655
21	0xc2bc0f53	-94.02993
22	0xc2bc1107	-94.03326
23	0xc2bc1258	-94.03583
24	0xc2bc134e	-94.037704
25	0xc2bc1428	-94.03937
26	0xc2bc29ed	-94.08189
27	0xc2bc082a	-94.015945
28	0xc2bc15d4	-94.04263
29	0xc2bc10e7	-94.03301
30	0xc2bc0bd1	-94.02308
31	0xc2bc1bed	-94.05454
32	0xc2bc1bc4	-94.05423
33	0xc2bc10a5	-94.03251
34	0xc2bc1e0c	-94.058685
35	0xc2bc1e15	-94.058754
36	0xc2bc1c5b	-94.05538
37	0xc2bc0b92	-94.0226
38	0xc2bc0d27	-94.02569
39	0xc2bc0bb3	-94.02285
40	0xc2bc10c6	-94.03276
41	0xc2bc21b0	-94.065796
42	0xc2bc19a0	-94.05005
43	0xc2bc1766	-94.0457
44	0xc2bc1cac	-94.056
45	0xc2bc0d17	-94.025566
46	0xc2bc2838	-94.07855
47	0xc2bc1584	-94.04202
48	0xc2bc1c20	-94.05493
49	0xc2bc19c2	-94.05031
50	0xc2bc2953	-94.08071
51	0xc2bc1e45	-94.05912
52	0xc2bc264c	-94.0748
53	0xc2bc1d22	-94.0569
54	0xc2bc17d8	-94.04657
55	0xc2bc1906	-94.048874
56	0xc2bc0a3e	-94.020004
57	0xc2bc1502	-94.04103
58	0xc2bc171a	-94.04512
59	0xc2bc176d	-94.04575
60	0xc2bc101a	-94.03145
61	0xc2bc20a6	-94.06377
62	0xc2bc0fc2	-94.03078
63	0xc2bc02fc	-94.00583

l3/W f4 [256, 256]
0	0x40a1209e	5.0352316
1	0x407ecb85	3.9811718
2	0x40cc722d	6.3889375
3	0x41819855	16.19938
4	0x413a409e	11.640776
5	0x4081ca17	4.055919
6	0x4084687f	4.137756
7	0xc089b4dc	-4.3033276
8	0xc10f1533	-8.942676
9	0xc135be90	-11.359024
10	0x3fef42d2	1.8692267
11	0xc0282565	-2.6272824
12	0xc0f8314b	-7.756017
13	0xc08620e1	-4.1915135
14	0x40da1aaf	6.8157573
15	0xc0929684	-4.5808735
16	0x415a8a7e	13.658812
17	0x41893c8a	17.15456
18	0x40e36eb8	7.1072655
19	0x40d0f1fe	6.52954
20	0x3f00356c	0.50081515
21	0x4123128e	10.19203
22	0x410c5925	8.771764
23	0x3f43ae15	0.76437503
24	0xc1410636	-12.064016
25	0x3ff48211	1.9102193
26	0x401c2d0c	2.4402494
27	0xc15e2059	-13.882897
28	0x407309d1	3.7974741
29	0x3f92bc37	1.1463689
30	0x3f0c6e91	0.5485621
31	0x4116bd2b	9.421184
32	0x3d90ec18	0.07076281
33	0x4104bd1b	8.296168
34	0xbdefcac4	-0.11708596
35	0x40f5a26b	7.6760764
36	0x40bbfe4b	5.8747916
37	0xc109dd15	-8.616475
38	0xbe1abf2f	-0.15111993
39	0x41981ed9	19.015062
40	0xc0cbf1a8	-6.373249
41	0x40eef684	7.4675922
42	0xbebdb3d6	-0.37051266
43	0x4060f87a	3.5151658
44	0x3ec6b316	0.38808507
45	0x4190a41d	18.080133
46	0xbf26ef4b	-0.6520888
47	0x4057f110	3.3740883
48	0xc12e5c1a	-10.897486
49	0x3f5037ea	0.8133532
50	0x412e2da8	10.886147
51	0xc0d70224	-6.7190113
52	0xbe69160f	-0.22762321
53	0x41201bf1	10.006822
54	0xc130e354	-11.0555
55	0xc1a83ad9	-21.028734
56	0xc0c5790e	-6.171027
57	0x411a1d42	9.632143
58	0xc096d7a8	-4.713825
59	0xc163605b	-14.211024
60	0x4184e2a8	16.610672
61	0xbf347839	-0.70495945
62	0x4008acbd	2.135543
63	0xc19ec82d	-19.847742
64	0x3f790d5e	0.9728602
65	0x40d2e850	6.5908585
66	0xc1162842	-9.384829
67	0x40d74e65	6.7283196
68	0xc00ef6f4	-2.2338228
69	0xc1e77a10	-28.9346
70	0x404a1690	3.157627
71	0x40fbf14a	7.873204
72	0x40d20343	6.562898
73	0xc10c4c70	-8.7686615
74	0xc0d267d5	-6.575175
75	0x40da1c27	6.8159366
76	0xc092b6a2	-4.584794
77	0xc0bd80ed	-5.921988
78	0x40a1d015	5.0566506
79	0x3f2128f1	0.62953097
80	0x4009c286	2.1524978
81	0x40e2543f	7.072784
82	0x41204aa3	10.018222
83	0x4126838e	10.407118
84	0x409d4b28	4.9154243
85	0xc0de7b59	-6.952557
86	0xc19b1fc7	-19.390516
87	0x3f9ef724	1.2419171
88	0xc12742fb	-10.453853
89	0xbf48f3af	-0.7849683
90	0x41268bc4	10.409122
91	0x411d0cd1	9.815629
92	0xc1311147	-11.066718
93	0x3ee6ae49	0.45054844
94	0x411a7d07	9.655524
95	0xbeb2d4f8	-0.34928107
96	0xc054cf7a	-3.3251634
97	0xc0760b7e	-3.8444514
98	0xc1380870	-11.50206
99	0x4121ccb9	10.112481
100	0x4080923a	4.01785
101	0xc1094a5b	-8.580653
102	0x410628b4	8.384937
103	0x4074e4f7	3.826475
104	0x40c72399	6.2230954
105	0x40b713b6	5.721156
106	0x41d1ee32	26.241306
107	0x40c561e6	6.1682005
108	0xc02f5eeb	-2.7401683
109	0xc05f9dc3	-3.494004
110	0x408d7825	4.420916
111	0x406be29d	3.6857064
112	0xc0a6a31a	-5.20741
113	0x3eb1456c	0.34623277
114	0xbd90eeb4	-0.07076779
115	0xc0d186b5	-6.5476937
116	0x40ac386b	5.381887
117	0x40e62932	7.1925287
118	0x40a3d100	5.1192627
119	0x40ad3eb1	5.4139028
120	0xc14e045e	-12.876066
121	0xc189b025	-17.211008
122	0xbe41ddf0	-0.18932319
123	0x3e6bee69	0.23040165
124	0x41202990	10.010147
125	0x40e939be	7.2882986
126	0x40411ba7	3.0173128
127	0x3fb181bf	1.386772
128	0x40023102	2.0342412
129	0xc10e7bd4	-8.905231
130	0xbfd60ccc	-1.6722655
131	0x40fdd0c3	7.9317336
132	0x40f65ffc	7.699217
133	0xc0971046	-4.7207365
134	0x3f80a032	1.0048888
135	0x4102ac3e	8.167051
136	0x41554ad6	13.3307705
137	0xbfff429e	-1.9942205
138	0xc197820c	-18.9385
139	0xc03f5d0f	-2.9900548
140	0x41144b81	9.268434
141	0xc0e08a9a	-7.016919
142	0x4118cf38	9.5505905
143	0x40aa2c40	5.3179016
144	0x408a8733	4.329004
145	0xc0cec79f	-6.461868
146	0x3f43487d	0.76282483
147	0xc10ea956	-8.916342
148	0x4050c8b2	3.2622495
149	0x40fe9085	7.9551415
150	0x414d4c57	12.831138
151	0xc166cbad	-14.424726
152	0x4122068f	10.126601
153	0xc15f219e	-13.945707
154	0x3f96c6bd	1.17794
155	0xc13a94cd	-11.661328
156	0x4083226a	4.097951
157	0x4176bcd0	15.421097
158	0x40a2436b	5.0707297
159	0x3fd9f839	1.7028877
160	0xbf21741a	-0.6306778
161	0xc0f5402a	-7.6640825
162	0xc12e3ac3	-10.889346
163	0x41ad2486	21.642834
164	0x41175bfb	9.459956
165	0x41057f22	8.343538
166	0xc1547216	-13.277853
167	0x40f392dc	7.611677
168	0x40ebf2c8	7.3733864
169	0x404b9e76	3.1815467
170	0xbfe96654	-1.8234353
171	0x40d20fa2	6.5644083
172	0xbe645303	-0.22297291
173	0x40a3fd01	5.1246343
174	0x418166f3	16.175268
175	0xc119084d	-9.564527
176	0xc0499fd2	-3.1503797
177	0x40d5c907	6.6807895
178	0x405c6b57	3.4440515
179	0xc158dfda	-13.554651
180	0xbf2fac75	-0.68622524
181	0x418e904c	17.820457
182	0x3ded7c1b	0.11595937
183	0xc0054952	-2.0826
184	0x40d6d2db	6.713239
185	0x40e574fe	7.1705313
186	0x40e500a4	7.156328
187	0x41525291	13.145158
188	0x3c72a837	0.014810613
189	0x40b7a729	5.7391553
190	0x4138e492	11.555803
191	0x40d6e41e	6.7153463
192	0x40c74573	6.2272277
193	0x41aea680	21.831299
194	0x41029249	8.160714
195	0xbff8787b	-1.9411768
196	0xc09d8324	-4.9222584
197	0x40f14ee0	7.5408783
198	0xc125b6fe	-10.357176
199	0x415ea193	13.914447
200	0x40c21c9d	6.065993
201	0xc1408bad	-12.034101
202	0x40a29830	5.0810776
203	0x419ba3cb	19.454977
204	0x41176aa0	9.4635315
205	0x40c99035	6.2988534
206	0x413bb055	11.73055
207	0x407fc495	3.9963734
208	0xc0b1127a	-5.5335054
209	0xc0baaf62	-5.833909
210	0xc171f039	-15.121148
211	0xbfa74440	-1.3067703
212	0x419b4563	19.40888
213	0x405af636	3.4212775
214	0x4176e0ad	15.4298525
215	0x40ce2b17	6.44276
216	0x40e69603	7.205812
217	0x40d32333	6.598047
218	0x408afaf9	4.3431363
219	0x40d861ca	6.761937
220	0x4006de5a	2.1073213
221	0xbfb4fe57	-1.4140118
222	0x41130a73	9.190051
223	0x40a1982c	5.0498257
224	0x40a936ad	5.2879243
225	0xc123839d	-10.219632
226	0xc1249ee0	-10.288788
227	0xc0f9c9b7	-7.8058734
228	0x40bd22eb	5.9105124
229	0x40a5bba6	5.1791563
230	0xbff374cf	-1.9020022
231	0x3fc12a0d	1.5090958
232	0xbf56916a	-0.83815634
233	0x410142e0	8.078827
234	0x3f875241	1.0571977
235	0x411642d2	9.391314
236	0x40c26763	6.0751204
237	0xc1120460	-9.126068
238	0xc0b90223	-5.781511
239	0xc1b30788	-22.378677
240	0xc1190cb7	-9.565604
241	0x40cb2bf7	6.349117
242	0x40f6e8a3	7.715898
243	0x41ac2bad	21.521326
244	0x4143326e	12.199812
245	0x40630d41	3.547684
246	0x3f2ec07e	0.6826247
247	0xbf9ca3db	-1.2237505
248	0xc10e4112	-8.890886
249	0x4179b688	15.607063
250	0x4083daa1	4.120438
251	0xc120cf1d	-10.050565
252	0x4143ed5c	12.245449
253	0x41544f75	13.269399
254	0x413ca33b	11.789851
255	0x40dfb8af	6.9912944

l3/b f4 [256]
0	0x3fc4772b	1.5348867
1	0x405f87fa	3.4926744
2	0x3f539b3a	0.8265873
3	0x4069a5da	3.6507478
4	0x4141b799	12.107324
5	0x41281fcf	10.507766
6	0xbeceb52b	-0.40372595
7	0x405c3231	3.4405634
8	0x3fa32bb4	1.2747712
9	0xc0b4e0e1	-5.652451
10	0xc07287b7	-3.7895334
11	0x4103afdd	8.230435
12	0xc007fddc	-2.1248693
13	0xc0a8f322	-5.2796793
14	0xbed05be3	-0.40695104
15	0x40eb09fa	7.344968
16	0x40562859	3.3462126
17	0xbfbca5e6	-1.4738128
18	0x4012d817	2.294439
19	0x40075829	2.1147559
20	0xbfbed7b6	-1.490958
21	0xc0539054	-3.305684
22	0x4189a173	17.203833
23	0x408dc125	4.429827
24	0xc039e4e2	-2.904595
25	0x40a88369	5.2660413
26	0x3f25c29c	0.64750075
27	0x4098d97a	4.7765474
28	0xc019ba81	-2.4020083
29	0xbe8996ed	-0.2687296
30	0x4026d185	2.606538
31	0x3fc56854	1.5422463
32	0xbfa23fb7	-1.2675694
33	0x4065d9ba	3.591414
34	0x40b81396	5.752391
35	0x423f1f41	47.78052
36	0xbe02afae	-0.12762329
37	0xbfb05d92	-1.3778555
38	0xbf5a1155	-0.85182697
39	0x400350e3	2.051812
40	0x411f82b8	9.969414
41	0x4006c171	2.1055567
42	0x406d31e9	3.7061713
43	0x40f887b4	7.7665653
44	0x3ebfb93d	0.37446013
45	0x40d1571f	6.541885
46	0x41994655	19.159342
47	0x40beae00	5.95874
48	0x3fea24a1	1.8292428
49	0x3fe6afe5	1.8022429
50	0x40400870	3.000515
51	0x3e20245e	0.15638873
52	0xbed0f3ea	-0.40811092
53	0x3f648fd6	0.89281976
54	0x401cb524	2.448556
55	0x408ab7b4	4.3349247
56	0xc049e438	-3.1545544
57	0xbe87da29	-0.2653363
58	0x3f75511b	0.9582688
59	0x3fe9a37c	1.8253016
60	0x415eaf34	13.917774
61	0x3fdbf0b0	1.7182827
62	0xbdd80570	-0.10547912
63	0x400270a4	2.038125
64	0xbfe0a50e	-1.7550371
65	0x40455154	3.0830889
66	0x40822c96	4.0679426
67	0x403074b2	2.7571225
68	0x409733bc	4.725065
69	0x40d09f48	6.5194435
70	0x4089b4ee	4.303336
71	0xbfe5bb66	-1.7947814
72	0xc081ee05	-4.060305
73	0x409c2909	4.880009
74	0x40cb248d	6.348212
75	0x408f6c75	4.4819894
76	0x40624d66	3.535974
77	0xc084682d	-4.137717
78	0x40a2cdc8	5.08762
79	0xc021272d	-2.518016
80	0x405443b3	3.316632
81	0x40511c38	3.2673473
82	0xbed7a4f5	-0.4211804
83	0x40b3c924	5.6183033
84	0x40924883	4.5713515
85	0x41a1b5fa	20.213856
86	0x409ec506	4.9615507
87	0x3f452ab6	0.77018297
88	0x407edeb8	3.9823437
89	0x3cd81f37	0.026382072
90	0x407dc654	3.96523
91	0x408fd6a1	4.49495
92	0x401c8111	2.4453776
93	0x40295ecd	2.6464112
94	0x40d8f94a	6.780431
95	0x40f1ed64	7.5602283
96	0x414e13b8	12.879814
97	0x407303dc	3.7971106
98	0xc046d407	-3.1066911
99	0xc0ef3735	-7.475489
100	0x3f3a9c4d	0.72894746
101	0x3f12c552	0.57332337
102	0x3efe4e5c	0.49669158
103	0x406df07b	3.7178028
104	0xc0f49f17	-7.64442
105	0x3f9a7f3a	1.2070076
106	0x40348e57	2.8211877
107	0x41a495e8	20.573196
108	0xbe36fa46	-0.17868909
109	0x4088d247	4.2756686
110	0xc088c3de	-4.2739096
111	0xbc57eb71	-0.013178692
112	0x41023e56	8.140219
113	0x3fd6842f	1.6759089
114	0x418cd08a	17.601826
115	0x40e3e3dc	7.121565
116	0x418b0e70	17.38205
117	0x4048217b	3.1270435
118	0x3fad61e6	1.3545501
119	0xc07a4ac1	-3.9108126
120	0x3f16b545	0.58870345
121	0x40a24201	5.070557
122	0xc03e0a79	-2.9693892
123	0x40bad16c	5.838064
124	0xbdd69208	-0.10477072
125	0xc0926191	-4.57441
126	0xbe847b3d	-0.25875273
127	0x40d60131	6.6876454
128	0x401f1a89	2.4859946
129	0x4083d8a1	4.120194
130	0x3f575f1d	0.84129506
131	0xc065ce6f	-3.5907247
132	0x40a5da26	5.1828794
133	0xc0c22695	-6.0672097
134	0x40cb8463	6.3599105
135	0x41984a6a	19.036335
136	0xbfaf3ee5	-1.3691069
137	0x4034d11f	2.8252637
138	0x404188da	3.0239778
139	0xc01136bc	-2.2689657
140	0xc010e8c4	-2.264207
141	0x4002d73c	2.0443869
142	0xc0195d8e	-2.3963351
143	0x4093357f	4.6002803
144	0x40efa03f	7.4883113
145	0xbfe5edf8	-1.7963247
146	0x40271c7d	2.6111138
147	0xc09eefa4	-4.966753
148	0x403528c7	2.8306139
149	0x4067a1ca	3.6192498
150	0x40f199f0	7.550041
151	0x400beb1a	2.1862245
152	0x408f6b22	4.4818277
153	0xbff057dc	-1.8776813
154	0x41288468	10.532326
155	0x40cf013b	6.4689
156	0xbeab296a	-0.33430034
157	0xbfad52b2	-1.3540862
158	0xbff5dfa3	-1.9208874
159	0x408526e3	4.160997
160	0x402b4da5	2.676614
161	0x41b64a97	22.78642
162	0xbfa9ca71	-1.3264905
163	0x40fd94d3	7.924417
164	0x40aad458	5.338421
165	0x4019821a	2.3985658
166	0x40bef167	5.966968
167	0x3f3b30d0	0.73121357
168	0x4066a8c6	3.604051
169	0x41c042b1	24.032564
170	0x41015b18	8.08474
171	0x401c2383	2.4396675
172	0x4015bf3e	2.3397975
173	0x3e1ccf11	0.15313365
174	0x40ddd1c7	6.9318576
175	0x4128ffdf	10.562469
176	0x40abc33c	5.3675823
177	0x40d41836	6.6279554
178	0x3f6f7aec	0.9354694
179	0x408ef703	4.467653
180	0x40fc854d	7.891272
181	0x40a9f3f5	5.31103
182	0x4180d608	16.104507
183	0x4075d4ce	3.8411136
184	0xbe5bf490	-0.21480012
185	0x40ba6b38	5.825588
186	0x408807a5	4.250933
187	0xc0550dbd	-3.3289635
188	0x4017a7c6	2.369615
189	0xbf11d801	-0.5697022
190	0x406ef4b2	3.733685
191	0x40204338	2.5041027
192	0x40c3ddab	6.120809
193	0xc0aa5d8e	-5.3239202
194	0x419b203f	19.390745
195	0x406f52bd	3.739425
196	0xbf67bddb	-0.9052407
197	0x411b1b5e	9.694181
198	0x3fd910df	1.6958274
199	0x40a1ba12	5.0539637
200	0xc0777f7e	-3.8671565
201	0xc068640a	-3.631106
202	0x3f12a863	0.5728819
203	0x41033ded	8.202619
204	0x3fbac60a	1.4591687
205	0x4012f317	2.296087
206	0x40c00f7d	6.0018907
207	0x4197d333	18.978125
208	0x3ff392ec	1.9029212
209	0x4090be92	4.523263
210	0x419be8b9	19.488634
211	0x40d15033	6.54104
212	0x40df9085	6.9863915
213	0x408c5d63	4.3863997
214	0x403644f5	2.8479588
215	0x4188674c	17.050438
216	0x40cfff7c	6.499937
217	0xbfb9473b	-1.4474863
218	0x3fa2e342	1.2725604
219	0x402e9298	2.7276974
220	0x422abcf8	42.68454
221	0x4083373f	4.100494
222	0x3ea27f13	0.31737575
223	0xc08c8bad	-4.3920503
224	0x40d2a48a	6.5825853
225	0x3fe0302d	1.7514702
226	0x3fd885bf	1.6915816
227	0x410857f0	8.521469
228	0xc075ccce	-3.8406253
229	0xbf448193	-0.76760215
230	0x404b67e4	3.178216
231	0xc0435e08	-3.0526142
232	0x408a6931	4.3253407
233	0x3f62a940	0.88539505
234	0x3f75ff2b	0.9609248
235	0xbf9cd1ba	-1.2251503
236	0x40ac2538	5.3795433
237	0xbfc7e36a	-1.5616276
238	0x3ff57e50	1.9179173
239	0x40accab9	5.3997464
240	0xc0613603	-3.5189216
241	0x40b87385	5.7641015
242	0x408edeee	4.464713
243	0x40c7034f	6.219154
244	0x3df9c8e9	0.12196524
245	0x40210d92	2.5164533
246	0xbf1837e2	-0.5946027
247	0x4097effc	4.748045
248	0x418e6daa	17.803547
249	0x3fe6edd0	1.8041325
250	0x3fbc8bb3	1.4730133
251	0x421cd28e	39.20562
252	0x40fa13ce	7.8149176
253	0xbc7c83b7	-0.015412263
254	0x40a9d23d	5.306914
255	0x3fc915ec	1.5709815
