size8/agent_white_79000/target_model.npz (npz, 608731 bytes, 8 tensors)

l2/W f4 [256, 256]
0	0x414a1e59	12.632409
1	0xc1815116	-16.164593
2	0xc1468ba4	-12.409092
3	0xc0f2863a	-7.578885
4	0xc124c802	-10.29883
5	0x4109a92b	8.603801
6	0x41a10d6d	20.131556
7	0x408c0d26	4.376605
8	0x409553e3	4.66649
9	0x4025218b	2.5801723
10	0x4125639d	10.33682
11	0x4187240f	16.892607
12	0x40815fe1	4.042954
13	0x40b80413	5.7504973
14	0xc1fe5f19	-31.796434
15	0x3fe55482	1.7916415
16	0x40fc5e1b	7.8864875
17	0x3f4f5541	0.8098946
18	0xc1a14051	-20.156404
19	0xc103afa4	-8.230381
20	0xc19413e4	-18.509712
21	0x40aea6ec	5.457876
22	0x409a352c	4.8189907
23	0xc105e036	-8.367239
24	0xbfc4d8ee	-1.5378702
25	0x3ffd2152	1.9775794
26	0xc1a513f8	-20.63475
27	0xc10c5eef	-8.773177
28	0x41c6d898	24.855759
29	0x41c658e5	24.793406
30	0x400bd229	2.1847022
31	0xbf3356c3	-0.7005426
32	0xc18405d1	-16.50284
33	0xc14d4567	-12.829444
34	0x3f25553e	0.64583194
35	0x40aa4b12	5.321664
36	0x4163f5e4	14.247532
37	0x4198985a	19.07439
38	0xc1adf094	-21.74247
39	0x41b4aa30	22.5831
40	0xc18809f3	-17.004858
41	0xc0f7a4c3	-7.7388625
42	0x3f9392e7	1.1529206
43	0xc19d8a70	-19.692596
44	0x3fd16af0	1.636076
45	0x414da370	12.852402
46	0x4171a2c5	15.102239
47	0x409045d7	4.5085254
48	0xc14305ff	-12.188964
49	0xc1ea3e3d	-29.28039
50	0x3fb93d5f	1.4471854
51	0x40be5755	5.9481606
52	0x410ea275	8.914662
53	0xc164640c	-14.2744255
54	0xc133b8e8	-11.232643
55	0x4110c7ab	9.048747
56	0xc12c6105	-10.773686
57	0x4006ee61	2.1082995
58	0x4119772d	9.591596
59	0xc0193db1	-2.3943903
60	0xc1a480c3	-20.562872
61	0x41028768	8.158058
62	0x40cb6ca3	6.3570113
63	0xc11fea05	-9.994634
64	0x3f5d1c03	0.8637087
65	0xc18adfd1	-17.359285
66	0xc2311f37	-44.280483
67	0xc17952e3	-15.582736
68	0xc16d7f1f	-14.843535
69	0x412df0ca	10.871286
70	0x4149e00a	12.617197
71	0x41a78a43	20.94251
72	0x4106ff12	8.437273
73	0x4135e93c	11.369442
74	0xc0b90540	-5.781891
75	0x4106c25a	8.422449
76	0xc092d66d	-4.588675
77	0xc113150f	-9.192641
78	0x415f2f60	13.949066
79	0x40d1dbfa	6.5581026
80	0x412386bf	10.220397
81	0xc1205033	-10.01958
82	0xbde82d66	-0.11336784
83	0xc131a145	-11.101872
84	0x40d3a5f0	6.614006
85	0x41133e80	9.202759
86	0xc1808d27	-16.068922
87	0x4127681e	10.462919
88	0x41739c47	15.225654
89	0xc17f92d8	-15.973351
90	0x3eeb2b02	0.4593125
91	0x4129a79e	10.603422
92	0xc1b83f59	-23.030931
93	0x417136ef	15.0759115
94	0x40c217de	6.0654135
95	0x41592dea	13.5737095
96	0xc19164f2	-18.17429
97	0xc0eaea4b	-7.3411
98	0x40652994	3.5806627
99	0xbfb6f923	-1.429478
100	0xc1548105	-13.281499
101	0xc20e7078	-35.609833
102	0xbf97cff1	-1.1860334
103	0xc16ae7a4	-14.681553
104	0xc0706c33	-3.756604
105	0xc154ad97	-13.29238
106	0xc1146114	-9.273701
107	0xc2217820	-40.36731
108	0x414dfae8	12.873756
109	0xc21a1155	-38.516926
110	0xbf4b423b	-0.79397935
111	0x4033770a	2.8041406
112	0xc0f76cbb	-7.732023
113	0xc14b90db	-12.722865
114	0x40358675	2.8363316
115	0xc181bcfd	-16.21728
116	0x40b2cdad	5.587607
117	0xc14fbaf7	-12.983146
118	0xc135f552	-11.372393
119	0xc0f1cf87	-7.556583
120	0xc11c852e	-9.782515
121	0xc1d057a9	-26.042803
122	0x3f167a5a	0.58780444
123	0xc2241a1d	-41.0255
124	0x3f45528a	0.7707907
125	0xc0ccfb56	-6.4056807
126	0x3fdd940f	1.7310809
127	0xc07fe133	-3.99812
128	0x4115a32e	9.352339
129	0xc2343264	-45.04921
130	0x40a902da	5.281598
131	0x3f8b49f1	1.088194
132	0x4148a5fc	12.540524
133	0x4133690d	11.213147
134	0x40cbb8ae	6.366294
135	0x419345da	18.409107
136	0xc23ffb5d	-47.995472
137	0xc14b1be6	-12.694311
138	0x41866d45	16.803354
139	0xc1ac7ed6	-21.561932
140	0xc121446d	-10.0792055
141	0x3e82f974	0.25580943
142	0xc0e2bb54	-7.085367
143	0x414d3805	12.826177
144	0xc148a7e3	-12.540988
145	0xc1bb89ed	-23.442347
146	0x41e77737	28.93321
147	0x40162ec4	2.3466043
148	0x417d3dc5	15.82758
149	0x3c2915f3	0.0103201745
150	0xc0a9025e	-5.281539
151	0x40d576a8	6.6707344
152	0x40432433	3.0490844
153	0xc152730a	-13.153086
154	0x40fabe90	7.835762
155	0x40dcd607	6.9011264
156	0x40071a73	2.1109893
157	0xc1542349	-13.258615
158	0x3feae949	1.8352443
159	0xc039ac78	-2.9011517
160	0xbfb7af0e	-1.4350297
161	0xc0f0c617	-7.524181
162	0x415a6ec3	13.652041
163	0x415404d5	13.25118
164	0xc106ed01	-8.432862
165	0xc1e001bb	-28.000845
166	0x417a6606	15.649908
167	0xbf8cc6c6	-1.0998161
168	0xc120a5ea	-10.040506
169	0x403e9ea8	2.9784336
170	0xc19ff56f	-19.99484
171	0xc07fec1a	-3.9987855
172	0x40be1310	5.939827
173	0x4025c886	2.590364
174	0xc218781d	-38.1173
175	0xc0b8bda2	-5.7731485
176	0xbfe09cb2	-1.754782
177	0x41321f9e	11.132719
178	0x40a31f7c	5.0975933
179	0x3feaa394	1.833117
180	0xc1769aaf	-15.412765
181	0x41c20c6a	24.256062
182	0xc1cadf2f	-25.358976
183	0x411331be	9.199644
184	0x415a4265	13.64121
185	0xc1b44beb	-22.53707
186	0x40cc0129	6.3751416
187	0x3f704038	0.9384799
188	0xc18fe0d6	-17.984783
189	0x413c1cdb	11.757045
190	0x41644419	14.266625
191	0x413eaf7b	11.917842
192	0x3fb14b55	1.3851115
193	0x4101d2b5	8.113942
194	0x4081c415	4.055186
195	0xc0aa72f0	-5.3265305
196	0x4105a814	8.353535
197	0x40a5344a	5.162633
198	0x414b14b8	12.692558
199	0x416f8e76	14.9722805
200	0xc14a10cc	-12.629101
201	0xc18bc36e	-17.470425
202	0xc244ef87	-49.233913
203	0xc18d8422	-17.689518
204	0xc0f250fe	-7.5723867
205	0xc17b0b9f	-15.690337
206	0xc15b1b73	-13.694201
207	0xc0cff222	-6.498307
208	0x3f5e6006	0.8686527
209	0xc16a4285	-14.64124
210	0xc20acbc3	-34.698986
211	0x408cc93e	4.3995657
212	0xc00de53c	-2.2171164
213	0xc0eb4170	-7.351738
214	0xc2281ca3	-42.027966
215	0xc14ed159	-12.92611
216	0x40b30aeb	5.5950828
217	0xbe503020	-0.20330858
218	0xc194afcc	-18.585838
219	0xc0d85644	-6.7605305
220	0xc0063e48	-2.0975513
221	0xbf94b9f4	-1.1619248
222	0x3f669228	0.90066767
223	0xc14e41ef	-12.891097
224	0xc1889f14	-17.077675
225	0xc1df1c17	-27.888716
226	0xc07646b7	-3.848066
227	0xc1fb1c76	-31.388897
228	0x401d2fc0	2.4560394
229	0xc1de053f	-27.752562
230	0x41623f0d	14.140393
231	0x410b1cb1	8.694505
232	0x40e3c4dc	7.1177807
233	0xc1439a2c	-12.22514
234	0x41573ac3	13.451846
235	0xc1251e9b	-10.319972
236	0xc0f848f5	-7.758906
237	0x40ff04de	7.969344
238	0xc1368363	-11.407077
239	0xc1212c4d	-10.073316
240	0xc0829e7a	-4.0818453
241	0x40b922f8	5.7855186
242	0xc0c29fcd	-6.082007
243	0x40fcc9c8	7.8996315
244	0xc1b7d0e5	-22.977
245	0xc18ede8d	-17.858667
246	0x3f35130b	0.7073218
247	0xc20f6cd0	-35.856262
248	0x41cc590f	25.543486
249	0x41e1d3ea	28.228474
250	0x4148c840	12.548889
251	0xbfd13c82	-1.634659
252	0xc10e96db	-8.91183
253	0xc1dbf4f8	-27.494614
254	0x40272976	2.6119056
255	0x41a42a6c	20.520714

l2/b f4 [256]
0	0x414dcc23	12.862338
1	0x40e9568e	7.2918158
2	0x40439ba5	3.0563748
3	0x4185e014	16.734413
4	0x41048ce8	8.284401
5	0x415a15f7	13.6303625
6	0x3e8614fe	0.2618789
7	0xbfc12716	-1.5090053
8	0x4145455d	12.329434
9	0x401369e4	2.303338
10	0x40259df7	2.5877664
11	0x4120da7f	10.053344
12	0x40424ce7	3.0359437
13	0x3f523c18	0.82122946
14	0x408f8b65	4.485766
15	0xc0141e07	-2.3143327
16	0xbd21ae87	-0.039473083
17	0x40d8ea15	6.7785745
18	0x40eaa84f	7.3330455
19	0xc08ed0cc	-4.462988
20	0x40b86362	5.7621317
21	0x418bd3bd	17.478388
22	0x416b340a	14.700205
23	0x405334d8	3.3001003
24	0xbe74c0ca	-0.23901668
25	0xc00c0eb3	-2.1883972
26	0x40b719c2	5.7218943
27	0x40b75260	5.7288055
28	0x40d21ff8	6.5664024
29	0xbfebb650	-1.8415012
30	0x4179b1b0	15.605881
31	0x40a057d0	5.0107193
32	0x416aab93	14.666888
33	0x40c1dcfb	6.058225
34	0x413365d5	11.212361
35	0x3f2e08ba	0.67982066
36	0xc03e396a	-2.9722543
37	0x41132ddf	9.198699
38	0xc05310ec	-3.2979078
39	0x40f62cd2	7.692971
40	0x40e99e43	7.300569
41	0x40dcf8d1	6.905373
42	0x411b7e69	9.718362
43	0xc043ca21	-3.059212
44	0x414c07b0	12.751877
45	0x4177bdab	15.483806
46	0xc0fd2054	-7.9101963
47	0x413fa7dc	11.978481
48	0xc080768a	-4.01447
49	0x3f151868	0.58240366
50	0x4165af77	14.355338
51	0xc0ca36d9	-6.3191953
52	0x41480492	12.501116
53	0x4124f606	10.310064
54	0x41086eaa	8.527018
55	0xc07aa1da	-3.9161286
56	0xbfa51fc4	-1.2900319
57	0x41222979	10.135125
58	0x40486088	3.1308918
59	0x3fb3cc2e	1.4046686
60	0x40a71272	5.2210016
61	0xc00b0565	-2.1722043
62	0x3e4b7606	0.19869241
63	0xbf8485a3	-1.0353283
64	0x4063b820	3.558113
65	0xc00b626c	-2.1778822
66	0x404ff29f	3.2491834
67	0x41520411	13.125993
68	0xc0980494	-4.750559
69	0xc0edc67a	-7.430478
70	0x40a397e9	5.1122937
71	0x411276b3	9.153979
72	0x40db6abb	6.8567786
73	0xbd9f067c	-0.07764909
74	0xc10e259d	-8.884183
75	0x412952fe	10.582762
76	0x3e0d1628	0.13777983
77	0xc0b23d30	-5.569969
78	0x41221440	10.129944
79	0x40e96624	7.2937183
80	0x414626eb	12.384501
81	0x41268300	10.406982
82	0x4133b3df	11.231414
83	0x4163ba48	14.232979
84	0x41450224	12.313023
85	0xc06112c8	-3.5167713
86	0x3f8f2558	1.1183271
87	0xc0b52144	-5.6603107
88	0xc120f7c5	-10.060491
89	0x401a8409	2.4143088
90	0xc0124800	-2.2856445
91	0x4102aa8f	8.16664
92	0xc1183f58	-9.515465
93	0x4158f66f	13.560164
94	0xbf6e9ab5	-0.93204814
95	0xc0e62c11	-7.192879
96	0xc0130c53	-2.2976272
97	0x4062845e	3.539329
98	0x40466100	3.0996704
99	0xbf05dfda	-0.52294695
100	0x415a0d10	13.628189
101	0x40bbd254	5.869425
102	0x40bf5968	5.979664
103	0x40e16f1e	7.044814
104	0x4058364e	3.3783145
105	0x41373a75	11.451772
106	0xc052f40d	-3.2961457
107	0xbfa1be82	-1.2636263
108	0x4181a0eb	16.203573
109	0x4163063d	14.189023
110	0x4048ef75	3.1396153
111	0x41388bb0	11.534103
112	0x411f90ae	9.972822
113	0x41533e43	13.202701
114	0xc0742f3e	-3.8153834
115	0x41641268	14.254494
116	0x41245f2b	10.273234
117	0x411dd652	9.864824
118	0xbf4b40df	-0.7939586
119	0x4136bcb0	11.421066
120	0x413e931f	11.910918
121	0x41a05b29	20.044512
122	0x3f573415	0.84063846
123	0x41584310	13.516373
124	0x4169bb5b	14.608241
125	0x40e2d572	7.0885553
126	0x41497599	12.59121
127	0x41169b63	9.412936
128	0x3fe08fc6	1.7543876
129	0x41292406	10.571295
130	0xc0acfea6	-5.406085
131	0x40de8299	6.953442
132	0x412a2b78	10.6356125
133	0x417efebc	15.937191
134	0x4083110a	4.09583
135	0xbf2bc3d7	-0.670957
136	0x41540b7d	13.252805
137	0x414378bc	12.216976
138	0x3f0e385c	0.5555475
139	0x4154d79d	13.30264
140	0x40f1a13e	7.550933
141	0xc0d17a14	-6.546152
142	0x411fa837	9.978568
143	0x4142694f	12.15071
144	0x412e0add	10.877652
145	0xc104ebcc	-8.307568
146	0xc1187e52	-9.53084
147	0x4107e10a	8.492441
148	0x40de5ba3	6.948686
149	0xc01a385c	-2.40969
150	0x4166d0ea	14.426004
151	0xbff7ead1	-1.9368535
152	0x4150d59f	13.052154
153	0x3f7a342a	0.97735846
154	0x40a322b2	5.0979853
155	0xc0355696	-2.8334098
156	0x40f78be5	7.735827
157	0x412a5bce	10.647413
158	0x414c8789	12.78309
159	0xc101a182	-8.101931
160	0x4141d54a	12.114573
161	0x410b3482	8.700319
162	0xc0f2e934	-7.590967
163	0x40264197	2.5977533
164	0x40c3f19a	6.1232424
165	0xbf89d9d7	-1.0769604
166	0xc0f77e4c	-7.734167
167	0x415fb7f7	13.982413
168	0x415281f6	13.156729
169	0x400819ef	2.1265829
170	0x417cd3bd	15.801694
171	0x41180582	9.501345
172	0x410050b0	8.019699
173	0x400c7bdb	2.1950595
174	0xc1054b69	-8.330911
175	0x4099e34b	4.8089957
176	0xc0033cf3	-2.050595
177	0x4114bedf	9.296599
178	0xc004fe12	-2.0780072
179	0x410a4dc0	8.643982
180	0x40a09ab1	5.018883
181	0x4121e143	10.117496
182	0xc0718bbd	-3.774154
183	0x402815c7	2.6263292
184	0x4125d85d	10.365323
185	0x40cd8d6e	6.4235144
186	0x3f88a772	1.06761
187	0x4136287a	11.384882
188	0x40b00547	5.500644
189	0x411b035a	9.688318
190	0x40b076e1	5.5145116
191	0x405180e8	3.2734928
192	0x40cc3018	6.380871
193	0x40ea4526	7.320941
194	0x4137493e	11.455381
195	0x411c3b15	9.764424
196	0x3fbbcecf	1.4672488
197	0x410d52d9	8.8327265
198	0xc080a24b	-4.019811
199	0x4117bb87	9.483283
200	0x415918a1	13.568513
201	0x40fb1ba2	7.847123
202	0x416d6479	14.837029
203	0x4118779a	9.5292
204	0x41612324	14.071079
205	0x417635cb	15.388133
206	0xc0a9b127	-5.302875
207	0xc04da421	-3.2131426
208	0x3fa5ad2c	1.2943473
209	0x419697ce	18.824123
210	0x4145b39d	12.356351
211	0x400f8264	2.2423334
212	0x4123a202	10.227053
213	0x40e9a599	7.3014646
214	0x4135b370	11.356308
215	0x4126e76d	10.4315
216	0xc000fa1d	-2.0152657
217	0x41665a91	14.397111
218	0x411972b6	9.590506
219	0x40ba81d1	5.8283467
220	0x40f6d377	7.7133136
221	0x41678e4b	14.4722395
222	0x410eef07	8.933356
223	0x40ff607c	7.980528
224	0x413a2534	11.634083
225	0x40fbf152	7.873208
226	0x3d66de38	0.056364268
227	0x41385c13	11.522479
228	0xc0a5e493	-5.184152
229	0x41880a9b	17.005178
230	0x410ce3fb	8.805659
231	0x412901a0	10.562897
232	0xc0c27326	-6.076556
233	0xbf5df6a6	-0.8670448
234	0xc03f5c6f	-2.9900167
235	0x3f093f8e	0.536126
236	0x416bfb75	14.748891
237	0xbf24d62b	-0.64389294
238	0x410431a2	8.262117
239	0xc083c073	-4.1172423
240	0xc0b27f96	-5.5780745
241	0xc060a685	-3.5101635
242	0x40d268e1	6.5753026
243	0x4192d3c9	18.35341
244	0x3e1939ec	0.14963502
245	0xc08fcbdb	-4.4936347
246	0x409c53ea	4.8852434
247	0xbf07f7bb	-0.5311238
248	0x4122e79d	10.181546
249	0x4100a0ed	8.0392885
250	0x414fbb64	12.98325
251	0x415bb0e6	13.730688
252	0x4105a842	8.353579
253	0x414cb4c6	12.794134
254	0x415e415c	13.890957
255	0x409bceef	4.8690104

l1/W f4 [256, 64]
0	0x42564361	53.5658
1	0xc1852c26	-16.646557
2	0xc20e1c17	-35.52743
3	0x4196b764	18.839546
4	0x41b94d6c	23.162804
5	0xc0c1b8e7	-6.053821
6	0x403f1e83	2.9862373
7	0xc1848de5	-16.569284
8	0xbdcca38a	-0.0999213
9	0x411870c7	9.527534
10	0xc1a714a0	-20.88507
11	0x40e9649f	7.293533
12	0xc1ab6f29	-21.429277
13	0x41b342fa	22.407703
14	0xbfb83ce7	-1.4393586
15	0xc163d2f4	-14.239002
16	0xc0ae2ed5	-5.443217
17	0x408aae2a	4.3337603
18	0x3fe792fd	1.8091732
19	0xc0d041de	-6.5080404
20	0xc0a3a1f7	-5.113521
21	0xc1223490	-10.137833
22	0x41c43cd1	24.529696
23	0x41045afc	8.272213
24	0x41233546	10.200506
25	0xc07572dd	-3.8351357
26	0x418f949f	17.947569
27	0xc1029196	-8.160543
28	0xc127a102	-10.476809
29	0x415dad96	13.854879
30	0x4126c4f2	10.423082
31	0x4142c3db	12.172816
32	0xc0be2bb3	-5.9428344
33	0x3f1a5762	0.60289586
34	0x40b1a537	5.551418
35	0xc15b6692	-13.712542
36	0x3e12e855	0.1434644
37	0xc08d5c76	-4.4175367
38	0xbeb74f13	-0.35802516
39	0x419436cd	18.526758
40	0x3f5558c9	0.833386
41	0x41064cc8	8.393745
42	0x3ec6a7ea	0.38799983
43	0x41a19298	20.196579
44	0x40cff107	6.4981723
45	0x3e3449df	0.17606305
46	0xc00361ae	-2.052837
47	0xc1af18fa	-21.887196
48	0x402225b8	2.5335522
49	0x419973fc	19.181633
50	0x3f4f7b07	0.810471
51	0x411156ed	9.083722
52	0x41270499	10.438622
53	0xc0e7bb13	-7.241586
54	0x3de4cd0d	0.11171923
55	0x41150b22	9.315218
56	0x41ed029f	29.62628
57	0xc0d7dbca	-6.7455797
58	0xc0a64dbc	-5.196989
59	0xc09cb624	-4.897234
60	0x417b94d6	15.723837
61	0x40f3daca	7.6204576
62	0xc1c772e7	-24.931105
63	0xc1fb4b7b	-31.411856
64	0x4209e93a	34.47776
65	0xc140dcfd	-12.053952
66	0x41786562	15.524752
67	0xc08b5d0f	-4.3551097
68	0x400f95b0	2.2435112
69	0xc1e6d33a	-28.853138
70	0xc0d18bd9	-6.5483212
71	0x411e9024	9.910191
72	0xc1a0b057	-20.086103
73	0x410eda49	8.928292
74	0x4158a8e0	13.541229
75	0xc11b2e5a	-9.698816
76	0xc0e80d8a	-7.2516527
77	0xc1cbfecc	-25.499413
78	0x41002c60	8.010834
79	0xc0c3fd95	-6.124705
80	0x4192ec4e	18.365383
81	0xc1558f55	-13.347493
82	0x41097fa3	8.593661
83	0xbf25fcfe	-0.6483916
84	0x4109701b	8.5898695
85	0xc00f45cd	-2.2386353
86	0x41d18c38	26.193466
87	0xc1f878d9	-31.059008
88	0x40ef8f84	7.486269
89	0xc0cddd30	-6.4332504
90	0x3ffe76ae	1.9879968
91	0xbfaac56b	-1.3341497
92	0x4010c1b7	2.2618234
93	0xc109965c	-8.599209
94	0xc191da73	-18.231665
95	0xc1d36406	-26.42384
96	0x410bc1aa	8.734781
97	0x3e1b1dab	0.15148036
98	0x4176dd23	15.428988
99	0xc0741c57	-3.8142297
100	0xbfb10b28	-1.383153
101	0xc0f9ed9b	-7.8102546
102	0x41a63078	20.773666
103	0xc0944d8f	-4.6344676
104	0x408a8a4e	4.329383
105	0xc1cac09c	-25.344048
106	0x41837375	16.431376
107	0x40433818	3.0502987
108	0x3f504878	0.8136058
109	0x418d6ff9	17.679674
110	0x414b463a	12.704645
111	0xc14d12b2	-12.817064
112	0x40ca1d76	6.3160963
113	0xc112298d	-9.135144
114	0x4101fb35	8.12383
115	0xc220fce2	-40.246956
116	0xbe337411	-0.17524745
117	0x40872636	4.2234144
118	0x41b19666	22.198437
119	0xc169f94d	-14.623364
120	0x40fa15bc	7.815153
121	0x40c1b5ed	6.0534577
122	0xc1500eae	-13.003584
123	0xc1d8558b	-27.041769
124	0x41ee2e5f	29.772642
125	0xbf9d28f2	-1.227812
126	0xc0540a22	-3.3131185
127	0x411d32ca	9.8249
128	0x4027b4bf	2.6204069
129	0x4197215d	18.89129
130	0x416a4072	14.640734
131	0x41705bdc	15.022427
132	0x409a21db	4.8166327
133	0x41b6a4a9	22.8304
134	0x41105113	9.0197935
135	0x407fc370	3.9963036
136	0x41ae619e	21.797665
137	0x40db14e3	6.8462996
138	0xbfc6045c	-1.547008
139	0x3fc79cf0	1.5594769
140	0x40a3e2c8	5.1214333
141	0x41fd1257	31.633955
142	0x412ff89c	10.998196
143	0xbfc2f6b6	-1.523154
144	0x40ee194a	7.440587
145	0x40b4a923	5.6456466
146	0xc126ac46	-10.417059
147	0x4026f46a	2.6086679
148	0xbec28eac	-0.37999475
149	0x4072302a	3.7841897
150	0x41a7c47b	20.970938
151	0xc1c19f44	-24.202766
152	0x421a01e1	38.501835
153	0xc1a063ae	-20.048672
154	0x40a476c8	5.1394997
155	0x408e72f0	4.4515305
156	0x3fc3ff20	1.5312233
157	0x416e1cb0	14.882004
158	0xc0e1f1ec	-7.0607815
159	0xc103a764	-8.228367
160	0xc1631e87	-14.194953
161	0x41072354	8.446125
162	0xc1d35696	-26.417278
163	0x3f1ee78c	0.6207206
164	0x4103ef8b	8.245982
165	0xbfa8cf6f	-1.3188304
166	0xc152d33d	-13.176572
167	0xc1c237ce	-24.277248
168	0xc1163076	-9.386831
169	0xc12da616	-10.853048
170	0x3fbf3404	1.4937749
171	0x3fea71da	1.8315995
172	0x4054b30d	3.3234284
173	0xc0cd5241	-6.4162908
174	0x3f7dc331	0.99125963
175	0xc1b8a517	-23.08061
176	0xc1ab933b	-21.44689
177	0xc1ede505	-29.736826
178	0xc0eec869	-7.461964
179	0x40bc4fc8	5.884739
180	0x41b5d77e	22.73022
181	0xc154f113	-13.308856
182	0x3fc890d6	1.56692
183	0xc219b99f	-38.43127
184	0x4089d51e	4.3072653
185	0xc1645947	-14.271796
186	0xc1522eac	-13.1363945
187	0x41b035d3	22.026281
188	0xc18b0d90	-17.381622
189	0xc12126a0	-10.07193
190	0x3f5ef65b	0.8709466
191	0xc0bb77a1	-5.858353
192	0xc1f20356	-30.251629
193	0x4108cd1f	8.550078
194	0xc10b291e	-8.697538
195	0x415eec77	13.932731
196	0x4058ef3a	3.3896012
197	0x3f216bd6	0.6305517
198	0x413975c0	11.591248
199	0xc1c6eea7	-24.86653
200	0x40a6b5da	5.2096987
201	0xc2143a0d	-37.05669
202	0xbfb117bb	-1.3835367
203	0x40f4902f	7.6426005
204	0xc18af365	-17.368845
205	0x40a22b7c	5.067808
206	0x411304d3	9.188678
207	0x40905604	4.5105
208	0xc027164f	-2.6107366
209	0xc17d1242	-15.816957
210	0x40669c8e	3.6033053
211	0xc038789f	-2.8823621
212	0x4195037e	18.626705
213	0xc024a8c3	-2.5728004
214	0x4189503e	17.16418
215	0xc1804153	-16.031897
216	0x40e79991	7.237496
217	0xbfff0bc9	-1.9925472
218	0x411eb4ae	9.919111
219	0x4044762a	3.0697122
220	0xbfe510c5	-1.7895743
221	0x40ba0ab8	5.8138084
222	0x40d2c3c8	6.586399
223	0xc0bbadcb	-5.864965
224	0xc1adcc64	-21.7248
225	0x4162267c	14.134396
226	0x4194dc71	18.607637
227	0xc08a4feb	-4.3222556
228	0xbfef24b4	-1.8683076
229	0xc02e51a1	-2.7237322
230	0xc153684b	-13.212962
231	0xbdd511b7	-0.104037695
232	0x418ef11a	17.867725
233	0xc091c0ac	-4.5547695
234	0xc1543578	-13.263054
235	0xc1025e4a	-8.14802
236	0xbfb64582	-1.4239962
237	0x41933e3e	18.405392
238	0x40a9c774	5.3055973
239	0xc20a7919	-34.61826
240	0xc03532bb	-2.8312213
241	0xc1832d68	-16.397171
242	0x401dc109	2.464907
243	0xc1ee00b5	-29.750345
244	0x3f94312f	1.157751
245	0x41f0cabe	30.098995
246	0x41bac59e	23.346493
247	0xc13e18ce	-11.881056
248	0xc186c353	-16.845373
249	0x41b5145f	22.634947
250	0xc1fc18d7	-31.512129
251	0xc1069812	-8.412127
252	0xc2093ff0	-34.31244
253	0x40ee9b83	7.4564834
254	0x422692cd	41.64336
255	0x4082b217	4.0842395

l1/b f4 [256]
0	0xc1054196	-8.328512
1	0x4005cb73	2.0905426
2	0x40f5b72e	7.678611
3	0x401a3603	2.4095466
4	0xc05141d7	-3.2696435
5	0x404b95c0	3.181015
6	0x3d279956	0.040917717
7	0x40e39e69	7.113087
8	0xc0184e97	-2.3797967
9	0x40dedf8a	6.9647875
10	0xc1be6fc8	-23.80458
11	0x40fdcc09	7.9311566
12	0xc001b643	-2.0267494
13	0xc11ad2fa	-9.676508
14	0xc01dcb19	-2.465521
15	0xc08bc7cd	-4.3681397
16	0x3fb2ff4c	1.398416
17	0x40795190	3.8956032
18	0x41064af7	8.393302
19	0x408981f6	4.2971144
20	0x40c41e08	6.128666
21	0x3fe9063a	1.8205025
22	0x4102d493	8.176898
23	0x40f76286	7.730777
24	0xbfec333f	-1.8453139
25	0xc1d233f1	-26.275362
26	0x40ca0940	6.313629
27	0x404767d1	3.1157115
28	0x40f4a459	7.645062
29	0xbf116d9e	-0.5680789
30	0xbf0b4694	-0.5440457
31	0x3ef14ecb	0.47130427
32	0x40226671	2.5375025
33	0x410b5bff	8.70996
34	0xc1b16eb2	-22.17905
35	0x41113660	9.075775
36	0x419eb741	19.83948
37	0x412d0e09	10.815927
38	0x408064af	4.0122905
39	0x4107abd2	8.479448
40	0x4103b338	8.231255
41	0xc0f79f7c	-7.7382183
42	0xbfe80deb	-1.8129247
43	0xc194a333	-18.579687
44	0xc0d7b781	-6.7411504
45	0x40bd614b	5.9181266
46	0xc0c6b30b	-6.209356
47	0xbfccdb74	-1.6004472
48	0xc1460944	-12.377262
49	0x40b9bbee	5.8041906
50	0xc09c2de2	-4.880601
51	0x40f54d6c	7.665701
52	0x41214c11	10.081071
53	0xc0c82300	-6.2542725
54	0x3f1143aa	0.5674387
55	0x3f8e9d9b	1.1141847
56	0xc0fe28db	-7.9424872
57	0xc10c839a	-8.782129
58	0x410a801a	8.656275
59	0x3eb2ffb7	0.3496072
60	0x4101a6a2	8.103182
61	0xbf839fbf	-1.0283126
62	0x414a0aa4	12.627598
63	0xc1494c15	-12.581075
64	0xc032a66d	-2.7914078
65	0x411345ec	9.204571
66	0xc14c8886	-12.783331
67	0x3e7543dd	0.23951669
68	0xbf95e05e	-1.1709096
69	0x3f1ebdf8	0.6200862
70	0x40935f85	4.60541
71	0x3ec316a0	0.381032
72	0x40c3ceeb	6.1190085
73	0x40c6527b	6.1975684
74	0xbf84a40c	-1.0362563
75	0xc1242517	-10.259055
76	0x411e1599	9.880273
77	0xc01cda03	-2.4508064
78	0x3f5c8dfd	0.86154157
79	0x41d6d165	26.852243
80	0x3ff4c18f	1.9121569
81	0xc1fa16e8	-31.261185
82	0xc11b6238	-9.711479
83	0x404a23f2	3.158444
84	0x400201c4	2.0313578
85	0xbff0f747	-1.8825463
86	0x400ecf22	2.2313924
87	0x400f1763	2.2358024
88	0x411bafa3	9.73038
89	0x412002a2	10.000643
90	0x3f3b7dcb	0.7323882
91	0x40d05f71	6.5116506
92	0x4137a4e1	11.477754
93	0xc11c66b5	-9.775075
94	0xbf8fc9da	-1.1233475
95	0xc0666728	-3.6000462
96	0xc1e42b3e	-28.521114
97	0xc1d87597	-27.057417
98	0x411fdfca	9.992136
99	0xc086649b	-4.199781
100	0x40b1724f	5.5452037
101	0x411d540c	9.833019
102	0x3f8afcfd	1.0858456
103	0x40470bb8	3.1100903
104	0x4114c26d	9.297467
105	0x403359e0	2.8023605
106	0x3f84dc79	1.0379783
107	0xbe8e3917	-0.2777793
108	0xc1474567	-12.454444
109	0x4185d509	16.729021
110	0xc07e74fe	-3.9758906
111	0x40608031	3.5078242
112	0x416c3994	14.764057
113	0x40db7116	6.8575544
114	0xc0b7a4be	-5.73886
115	0xbfad24c8	-1.352685
116	0x40746398	3.8185787
117	0x40455dba	3.0838456
118	0x3fb68732	1.4260008
119	0xbed42b91	-0.4143949
120	0x41494717	12.579856
121	0xc132bbea	-11.170877
122	0xc14280b9	-12.156426
123	0x403807b9	2.8754714
124	0xbfb98c43	-1.449593
125	0x3fe61f86	1.797837
126	0xc0b0ca69	-5.5247083
127	0xbff261cf	-1.8936099
128	0xc1d498b1	-26.574556
129	0xc1108afe	-9.033934
130	0x417f4871	15.955186
131	0x3f2c2bab	0.6725413
132	0x414772f2	12.465563
133	0x3fabec86	1.3431556
134	0xc08ca4b4	-4.3951054
135	0x40ce9d42	6.4566965
136	0xc186d1fd	-16.852533
137	0xc13ad874	-11.677845
138	0x3d18f44f	0.037342366
139	0xc0780766	-3.8754516
140	0xc1a40663	-20.503119
141	0xbf4d29eb	-0.80142087
142	0x413109f2	11.064928
143	0xc0e95563	-7.291673
144	0xc0ecff5b	-7.4061713
145	0x410aaba3	8.6669035
146	0x40d4bcb5	6.6480355
147	0xbf1e33c8	-0.6179776
148	0x40ef26b7	7.473476
149	0xc1842444	-16.517708
150	0xc0c2fce0	-6.0933685
151	0x40fc4bed	7.8842683
152	0x4175fa86	15.373663
153	0xc0c234bc	-6.0689373
154	0xc123ed18	-10.245384
155	0x40d173b2	6.545373
156	0xc113e1ed	-9.242658
157	0x40c762de	6.2308187
158	0xc1eb9115	-29.44584
159	0x41148824	9.283237
160	0x4083cf9f	4.1190944
161	0xc080d8dd	-4.0264726
162	0x3f906fd9	1.1284133
163	0x412b66f6	10.712637
164	0x40eb5b58	7.3549004
165	0xc19b03a8	-19.376785
166	0x416ced3c	14.807919
167	0xc0ef2c8c	-7.474188
168	0xc0114a03	-2.2701423
169	0xc20529a3	-33.29066
170	0xc10621fc	-8.383297
171	0xbfdeed57	-1.741618
172	0xc040a0cf	-3.009815
173	0x40988175	4.765803
174	0x4184b116	16.586468
175	0xc136c8ae	-11.423994
176	0xbf90fc27	-1.1326951
177	0x40531bd0	3.2985725
178	0xbfdc067b	-1.7189478
179	0x3fc8b55f	1.568035
180	0x40d5e90c	6.684698
181	0xc000249b	-2.0022342
182	0x40d51880	6.6592407
183	0xc0c26bdf	-6.075668
184	0x409d38b1	4.9131703
185	0x4105e865	8.369237
186	0xc15656cd	-13.396192
187	0x40e245f8	7.071041
188	0xbe000336	-0.12501225
189	0x40b4ca8e	5.649726
190	0x3f5ba457	0.8579764
191	0x40c8299e	6.25508
192	0x40b2728b	5.5764823
193	0x405b5f13	3.4276779
194	0xc0f38da5	-7.6110406
195	0x40bac1c8	5.836155
196	0x41547ff8	13.281242
197	0xc10d7563	-8.841159
198	0x3f9a987e	1.2077787
199	0x413c5b31	11.772264
200	0xc11d0039	-9.812554
201	0xbf4f428e	-0.8096093
202	0xc0c07285	-6.0139794
203	0x40970422	4.7192545
204	0x41144ebd	9.269223
205	0xc14d7157	-12.840171
206	0xc0541fb4	-3.314435
207	0xc19d3a31	-19.653414
208	0x40a8bcf1	5.273064
209	0xbfd715a3	-1.6803478
210	0xc1fc9b34	-31.575783
211	0xbf442517	-0.76619095
212	0xc0d749d2	-6.7277613
213	0x410f4d7e	8.956419
214	0xbf8ae5c2	-1.0851367
215	0xc04c2c61	-3.1902087
216	0xbfa1ee47	-1.2650841
217	0xc14bc9d1	-12.736772
218	0xc07c071a	-3.9379334
219	0xc127bda2	-10.483797
220	0xc146cbdd	-12.424771
221	0x40cf4885	6.4776025
222	0xbf628260	-0.88480186
223	0xc212cfb6	-36.702843
224	0x413615f3	11.380359
225	0x40b3b673	5.6160216
226	0x4064f3db	3.5773838
227	0xc079d7f1	-3.903805
228	0x3f8b82a0	1.0899239
229	0x4130418f	11.0160055
230	0x410d4427	8.829139
231	0xc087e2f0	-4.2464523
232	0x40b8ce28	5.7751656
233	0x3fde8639	1.7384712
234	0x412a60c9	10.648629
235	0xc095c624	-4.680437
236	0xc0df1b48	-6.97208
237	0x40d4c6d4	6.649271
238	0xc20836d3	-34.05354
239	0x3feba159	1.8408614
240	0xc09e9b49	-4.9564557
241	0xc156d39d	-13.426663
242	0xc1458282	-12.344362
243	0xc0310c85	-2.7663891
244	0xc2085562	-34.08338
245	0xc22f0867	-43.758205
246	0xc119630e	-9.586683
247	0xc147a455	-12.47762
248	0x4110017c	9.000362
249	0x40c704b9	6.2193265
250	0xc1579f35	-13.476369
251	0x40bf36c0	5.9754333
252	0xc17eebe6	-15.932592
253	0x40c66c3e	6.200713
254	0xc0c069ca	-6.0129137
255	0xc11e879b	-9.908107

l4/W f4 [64, 256]
0	0x420f4272	35.814888
1	0x4218c98c	38.196823
2	0x420a7e04	34.623062
3	0x42816189	64.6905
4	0x41e68f0f	28.819853
5	0x422a4f11	42.577213
6	0x422874d8	42.114105
7	0x4215f6f7	37.491177
8	0x421f152c	39.770676
9	0x423787ba	45.882545
10	0x422c9435	43.144733
11	0x42375f16	45.842857
12	0x422626c4	41.537857
13	0x4245bcf9	49.434544
14	0x4220e609	40.224644
15	0x421c294f	39.04034
16	0x422ceabf	43.229244
17	0x420ebffc	35.687485
18	0x421e6cac	39.606125
19	0x422892af	42.143246
20	0x421f48ac	39.82097
21	0x421bf2bf	38.987057
22	0x421cef94	39.233963
23	0x41f18ed8	30.194748
24	0x4229db3e	42.464104
25	0x42103e61	36.060917
26	0x423440c6	45.063255
27	0x424697da	49.648293
28	0x4241fcf8	48.49704
29	0x422f4e74	43.826614
30	0x428b2623	69.574486
31	0x42315a89	44.338413
32	0x42235036	40.82833
33	0x4228514f	42.079403
34	0x423dcce2	47.45008
35	0x40b837a8	5.756794
36	0x42499c8d	50.40288
37	0x420f3313	35.799877
38	0x423f0dd5	47.763508
39	0x4217f0ad	37.985035
40	0x41f131aa	30.14925
41	0x4217298c	37.790573
42	0x424d0b53	51.26106
43	0x4222619b	40.595318
44	0x4244cbb9	49.198948
45	0x42080997	34.009365
46	0x41f2e678	30.362534
47	0x421ae83b	38.726788
48	0x42299599	42.39609
49	0x4284c970	66.39343
50	0x4219f818	38.49228
51	0x42690126	58.25112
52	0x4229b96b	42.431072
53	0x424be953	50.977856
54	0x42477678	49.865692
55	0x4280f879	64.4853
56	0x422d45f4	43.318314
57	0x4270da0b	60.212933
58	0x4246a7c0	49.66382
59	0x422fd2e4	43.955948
60	0x41fe95b6	31.823101
61	0x4271c074	60.437943
62	0x423f4d46	47.825462
63	0x422f4838	43.820526
64	0x4223b41d	40.92589
65	0x427f6c4d	63.855762
66	0x42422bf7	48.542934
67	0x42105827	36.086086
68	0x41e673aa	28.806477
69	0x421212a8	36.51822
70	0x423bc5f0	46.9433
71	0x422f76a9	43.86588
72	0x4227ba6c	41.932053
73	0x4231768b	44.365765
74	0x4215f456	37.48861
75	0x4205994b	33.3997
76	0x422cf424	43.23842
77	0x422dbebc	43.436264
78	0x421f7c5b	39.87144
79	0x42164524	37.56752
80	0x42137a49	36.86942
81	0x422e24d8	43.53598
82	0x424cf5ea	51.24015
83	0x42483a18	50.056732
84	0x4219a181	38.40772
85	0x41f475d3	30.557531
86	0x422a4c07	42.574245
87	0x422f4bbb	43.823956
88	0x4280c22d	64.37925
89	0x428088ff	64.26757
90	0x423fe433	47.97285
91	0x420c4ad1	35.073063
92	0x423f1312	47.768623
93	0x4218f269	38.23673
94	0x4239a377	46.409634
95	0x41f0260a	30.018574
96	0x42185d89	38.091343
97	0x4233d842	44.96119
98	0x420f6192	35.845284
99	0x41d19789	26.198992
100	0x42308d86	44.138206
101	0x4224b561	41.177128
102	0x4219564d	38.33428
103	0x4245fad5	49.494953
104	0x421ecd35	39.700397
105	0x420f2db5	35.794636
106	0x4221c7ba	40.445045
107	0x4206d525	33.70815
108	0x4269213b	58.28245
109	0x42355037	45.328335
110	0x42284d8f	42.07574
111	0x4218b2cb	38.174603
112	0x41eddf87	29.734144
113	0x4237c229	45.93961
114	0x41c34aed	24.411585
115	0x42044c4f	33.07452
116	0x421132f8	36.299774
117	0x420658cc	33.586716
118	0x4237bdc5	45.93532
119	0x421fe7ac	39.976242
120	0x421627f4	37.539017
121	0x420cace6	35.168846
122	0x4233343c	44.80101
123	0x42262ec2	41.545662
124	0x4233247a	44.78562
125	0x422a0202	42.50196
126	0x425204c8	52.50467
127	0x4221b831	40.429874
128	0x424a908e	50.641167
129	0x41ed1940	29.63733
130	0x42163f4d	37.561817
131	0x4230d7e3	44.210827
132	0x42198214	38.37703
133	0x41aac3f1	21.345675
134	0x41a82524	21.018135
135	0x41db727f	27.430906
136	0x411c4464	9.766697
137	0x4242268a	48.537636
138	0x42406428	48.09781
139	0x4217da7a	37.963356
140	0x42218aee	40.385674
141	0x423bd9f8	46.96286
142	0x4231f11c	44.48546
143	0x42300bd7	44.011562
144	0x41f5e7e7	30.738234
145	0x42066453	33.597973
146	0x4254d0df	53.203976
147	0x422333c7	40.800564
148	0x423b7c9f	46.8717
149	0x4234368a	45.05326
150	0x41f99075	31.195536
151	0x4253b026	52.92202
152	0x424a6750	50.60089
153	0x4260c789	56.19486
154	0x4190d701	18.104982
155	0x421f7e0f	39.873104
156	0x424c7de7	51.12295
157	0x4248ea1d	50.228626
158	0x42136039	36.843967
159	0x421f3a15	39.80672
160	0x41f3925f	30.44647
161	0x4206ba87	33.682156
162	0x4217e5fe	37.9746
163	0x42367da7	45.622707
164	0x420fe48d	35.973194
165	0x423268e7	44.602444
166	0x423d8ed7	47.389492
167	0x4205b9af	33.43133
168	0x4252a29b	52.658794
169	0x42574146	53.813744
170	0x422e768b	43.615765
171	0x4230dc72	44.21528
172	0x424a5e49	50.592075
173	0x42322dd2	44.544746
174	0x42192675	38.287556
175	0x4230078a	44.007362
176	0x422b02bf	42.75268
177	0x4213937c	36.894028
178	0x4213569b	36.834576
179	0x41f581b2	30.688328
180	0x42632e74	56.795364
181	0x4229732b	42.36247
182	0x41b56448	22.673965
183	0x42491159	50.26694
184	0x422ea856	43.66439
185	0x4216977c	37.647934
186	0x4233bf94	44.937088
187	0x4226f960	41.74353
188	0x42322d63	44.544323
189	0x4234018e	45.00152
190	0x4242a912	48.665108
191	0x422a4b94	42.573807
192	0x422159c2	40.337654
193	0x422b23ed	42.785084
194	0x41d8a290	27.079376
195	0x4268463c	58.06859
196	0x4240d26b	48.205486
197	0x421d486b	39.32072
198	0x422969e4	42.35341
199	0x42345a4e	45.08819
200	0x41f513f6	30.634747
201	0x4225e1ed	41.47063
202	0x4220e964	40.22792
203	0x42142363	37.034557
204	0x4206d2cc	33.705856
205	0x42501c13	52.027416
206	0x423d13d1	47.269352
207	0x42167458	37.613617
208	0x42261102	41.51661
209	0x422d66af	43.350277
210	0x41eadb21	29.356997
211	0x41dd7bad	27.685389
212	0x422ec840	43.695557
213	0x4213ed44	36.981705
214	0x421e3ea6	39.56118
215	0x4204881a	33.13291
216	0x4236f7f8	45.742157
217	0x422cfd72	43.247505
218	0x421c563b	39.08421
219	0x422d3388	43.300323
220	0x41a6d0ac	20.85189
221	0x422cb97e	43.181145
222	0x424df3fe	51.488274
223	0x421b7197	38.860928
224	0x4236dd77	45.716274
225	0x421afaec	38.74504
226	0x42316aa1	44.35413
227	0x423439f9	45.056614
228	0x4248a0a6	50.156883
229	0x4200866c	32.13127
230	0x421e5191	39.579655
231	0x420dff6d	35.49944
232	0x42374b6c	45.823654
233	0x4210daad	36.21355
234	0x4225e749	41.475864
235	0x42087805	34.117207
236	0x42093606	34.302757
237	0x423a0d2a	46.512856
238	0x42569c60	53.65271
239	0x42802760	64.076904
240	0x4245d2f2	49.456
241	0x4226f16d	41.735767
242	0x4232ba53	44.681957
243	0x423c357d	47.052235
244	0x4240d127	48.20425
245	0x4236ac17	45.668056
246	0x4238bf8c	46.187057
247	0x42032258	32.78354
248	0x41c31c1b	24.388723
249	0x421d16f9	39.272434
250	0x420f0bdc	35.76158
251	0x422fd173	43.95454
252	0x41fd8579	31.690172
253	0x4244af13	49.17097
254	0x42421199	48.517185
255	0x4244437d	49.065907

l4/b f4 [64]
0	0xc2c1476b	-96.63949
1	0xc2c14bee	-96.6483
2	0xc2c15088	-96.65729
3	0xc2c150b2	-96.65761
4	0xc2c14640	-96.63721
5	0xc2c153a9	-96.6634
6	0xc2c148ba	-96.642044
7	0xc2c142a3	-96.63015
8	0xc2c14b30	-96.64685
9	0xc2c16f3e	-96.71727
10	0xc2c15654	-96.66861
11	0xc2c15574	-96.6669
12	0xc2c15324	-96.662384
13	0xc2c1543a	-96.664505
14	0xc2c15a6f	-96.67663
15	0xc2c147e5	-96.64042
16	0xc2c1462a	-96.63704
17	0xc2c18045	-96.75053
18	0xc2c150ab	-96.657555
19	0xc2c14be1	-96.6482
20	0xc2c1441f	-96.63305
21	0xc2c16652	-96.699844
22	0xc2c16112	-96.68959
23	0xc2c14930	-96.642944
24	0xc2c14dde	-96.652084
25	0xc2c15a7e	-96.67674
26	0xc2c147a1	-96.6399
27	0xc2c15932	-96.67421
28	0xc2c15fb6	-96.686935
29	0xc2c14926	-96.64287
30	0xc2c167bd	-96.702614
31	0xc2c15850	-96.672485
32	0xc2c150b8	-96.65765
33	0xc2c14df6	-96.65227
34	0xc2c15b8f	-96.678825
35	0xc2c158a4	-96.67313
36	0xc2c154b2	-96.66542
37	0xc2c157be	-96.67137
38	0xc2c18548	-96.760315
39	0xc2c15d37	-96.68206
40	0xc2c14a37	-96.64495
41	0xc2c15dc9	-96.683174
42	0xc2c16fe5	-96.718544
43	0xc2c14084	-96.62601
44	0xc2c132db	-96.59933
45	0xc2c1450e	-96.63487
46	0xc2c17d70	-96.744995
47	0xc2c15f78	-96.68646
48	0xc2c144b0	-96.634155
49	0xc2c143d8	-96.63251
50	0xc2c15985	-96.67484
51	0xc2c16b35	-96.70939
52	0xc2c1535e	-96.66283
53	0xc2c1648c	-96.69638
54	0xc2c148fc	-96.64255
55	0xc2c15467	-96.66485
56	0xc2c14760	-96.639404
57	0xc2c14f5f	-96.65502
58	0xc2c14cb2	-96.649796
59	0xc2c16341	-96.693855
60	0xc2c149fb	-96.64449
61	0xc2c153cc	-96.663666
62	0xc2c14eac	-96.653656
63	0xc2c147c6	-96.64018

l3/W f4 [256, 256]
0	0x3f90d0fd	1.1313778
1	0xc0ef06ea	-7.469594
2	0xc1d38961	-26.44208
3	0xc0ab2b87	-5.3490634
4	0x41de068d	27.753199
5	0x40e09226	7.0178404
6	0x4084687f	4.137756
7	0x40e1f9f0	7.06176
8	0xc11d7287	-9.840461
9	0xc0bf8c0f	-5.985847
10	0x41dbdb41	27.482058
11	0x4196adbe	18.834835
12	0xc069b413	-3.6516159
13	0x40c43b04	6.132204
14	0x3fdb0c0d	1.7113053
15	0xc0dc197f	-6.8781123
16	0x415a8a7e	13.658812
17	0xc19bd04f	-19.476713
18	0x40619a96	3.5250602
19	0x412328a6	10.197424
20	0xc1ef7fb0	-29.937347
21	0x412ca0be	10.789244
22	0x4151780b	13.091807
23	0x4043cf8b	3.0595424
24	0xbff628b6	-1.9231174
25	0x413f90e3	11.972873
26	0x40be8304	5.953493
27	0xc18bdff1	-17.484346
28	0x3fb605a6	1.4220474
29	0x402958b0	2.646038
30	0xbe4eac8d	-0.2018301
31	0x40f38f6b	7.611257
32	0xc10f1953	-8.943683
33	0x40827cb9	4.077725
34	0xc168ab4b	-14.54182
35	0x40f5a26b	7.6760764
36	0xc14be065	-12.742284
37	0xc1cf1e60	-25.889832
38	0xc1a724d5	-20.892984
39	0x414b11dc	12.69186
40	0x40ef3878	7.475643
41	0x416f9784	14.974491
42	0x414588b6	12.345877
43	0x413e8d63	11.909518
44	0x417928fc	15.572506
45	0x41cf4951	25.910799
46	0x4181b16b	16.21163
47	0x41eaf755	29.370768
48	0xbe2af069	-0.16693272
49	0x404c432f	3.1916006
50	0x412e3f65	10.890477
51	0xc1e1c6a3	-28.22199
52	0xc0c410ee	-6.1270666
53	0x41d1f55d	26.244806
54	0xc030318f	-2.7530248
55	0xc1e09d2e	-28.076748
56	0x40f09b90	7.5189896
57	0x40bebeb3	5.9607787
58	0xc18045a4	-16.034004
59	0xc12aa38a	-10.664927
60	0x41a37c2b	20.435629
61	0xc15882cd	-13.531934
62	0xc080ffcb	-4.0312247
63	0xc13af838	-11.6856
64	0xc0b717f4	-5.721674
65	0x4190b50a	18.088398
66	0xc1c5076a	-24.62862
67	0x40d679d6	6.7023726
68	0xbf44f7ef	-0.76940817
69	0xc1505fea	-13.0234165
70	0xc1ab2535	-21.393167
71	0x40ec7d04	7.3902607
72	0xbe9aa959	-0.30207327
73	0xc10812cb	-8.504588
74	0xc1aa494a	-21.285786
75	0xc117298a	-9.447641
76	0xc0525b66	-3.2868285
77	0xc14ab5ee	-12.669416
78	0xc0d1eb07	-6.55994
79	0x41434064	12.20322
80	0x404e4aae	3.223308
81	0xc1eeba58	-29.840988
82	0xc1183e0f	-9.515151
83	0xc1096e41	-8.589417
84	0x4058b803	3.3862312
85	0xc1ff57d4	-31.917885
86	0xc1e4a54e	-28.580715
87	0x41923876	18.277569
88	0xc1dbfe50	-27.499176
89	0x40f789fc	7.735594
90	0x41268bc4	10.409122
91	0x41f81096	31.008099
92	0xc1209f9b	-10.038966
93	0xc1b3e897	-22.48857
94	0x411a7d07	9.655524
95	0xc17615d8	-15.380333
96	0x412f53d3	10.957965
97	0x3fa04554	1.2521157
98	0xc1160a5d	-9.37753
99	0x4121ccb9	10.112481
100	0x407c5ee8	3.9432926
101	0xc19c9ee2	-19.57758
102	0x41cea314	25.829628
103	0x407698ad	3.8530686
104	0x3e89fef0	0.26952314
105	0x40c065e3	6.0124373
106	0x41af19a5	21.887522
107	0x40c561e6	6.1682005
108	0xbf5281d3	-0.82229346
109	0xc1be6440	-23.79895
110	0x403bd94d	2.935138
111	0xc0cfb66e	-6.4910192
112	0xc17cb580	-15.794312
113	0xc162ac07	-14.166999
114	0x413c3f9d	11.765531
115	0xc149bfb1	-12.6093
116	0x4141fd84	12.124393
117	0xc0f2a4c3	-7.5826125
118	0x4056dbeb	3.3571727
119	0xc1f126ab	-30.14388
120	0xc1b4a3e9	-22.580034
121	0xbfe0a222	-1.7549479
122	0xc157c11f	-13.484649
123	0xc17dfa47	-15.873603
124	0x3e0225fb	0.12709801
125	0xbec5fc59	-0.38669088
126	0xbcd0afe3	-0.025474494
127	0x41c1f5fb	24.245108
128	0x41320afd	11.127683
129	0xc203bba6	-32.93325
130	0x40c4ec3e	6.153838
131	0x41804f1f	16.038633
132	0x3fa9bf9d	1.3261601
133	0x4200a12c	32.157394
134	0xc164ef4d	-14.308423
135	0x4102ac3e	8.167051
136	0x41000d2c	8.003216
137	0x416711fb	14.44189
138	0xc1daeca4	-27.365547
139	0xc17f179d	-15.943265
140	0x416530e5	14.324437
141	0xc121169b	-10.068019
142	0x41803522	16.025944
143	0x41214b17	10.0808325
144	0xc1a71a6e	-20.887905
145	0xc0c7732b	-6.2328086
146	0x3f08bf07	0.53416485
147	0xc1f628be	-30.769894
148	0x4159319c	13.574612
149	0x40fe9085	7.9551415
150	0xc1bbfa94	-23.497353
151	0xc1ab382a	-21.402424
152	0xc08bf72c	-4.3739223
153	0xc1786ac6	-15.526068
154	0x41595152	13.582354
155	0xc12410a1	-10.25406
156	0xc1b2a25b	-22.329275
157	0x41edf4ef	29.744596
158	0x413de38b	11.8680525
159	0xc033428a	-2.8009362
160	0x410afbf1	8.686509
161	0xc277fe74	-61.99849
162	0xc21358eb	-36.836834
163	0x4166648b	14.399547
164	0xc1835ec9	-16.421282
165	0xc0642d8d	-3.5652802
166	0xc1348121	-11.281526
167	0x40f4fc23	7.6557784
168	0xc254536b	-53.081463
169	0x418cd28e	17.60281
170	0xc1fb4c54	-31.41227
171	0xc00cbadf	-2.1989057
172	0xbfd91d3a	-1.6962044
173	0x4083e4e2	4.12169
174	0x41409662	12.036715
175	0xc0c74b19	-6.227917
176	0xc15b3d14	-13.702412
177	0x3fabb0ed	1.3413368
178	0x40eb2b79	7.3490567
179	0xc1a60d2b	-20.75643
180	0xc1f8190c	-31.01223
181	0x418b7ec8	17.436905
182	0xc0054693	-2.0824325
183	0xc18ac79a	-17.347462
184	0x412d26c4	10.821964
185	0xc1fb74e4	-31.432076
186	0x40e500a4	7.156328
187	0x415013dd	13.004849
188	0x41253f52	10.327959
189	0xc0835006	-4.1035185
190	0xc0f7f0cd	-7.7481446
191	0x41860e1e	16.756893
192	0x4162f127	14.183875
193	0x41ab8728	21.440994
194	0x411cd0ac	9.800945
195	0x40085f11	2.1308024
196	0xc114d67e	-9.302366
197	0x417bf5ea	15.747538
198	0xc1ce6855	-25.800943
199	0xc1959a88	-18.700455
200	0x40520811	3.2817423
201	0x3eea6b9d	0.45785227
202	0x3f4aa3b3	0.79156035
203	0x41cf21c9	25.891497
204	0xc0b0fa2e	-5.5305395
205	0x4053ce92	3.309483
206	0x41095413	8.583026
207	0xbf4d0210	-0.8008127
208	0xc0cc6505	-6.3873315
209	0xc218aec7	-38.17068
210	0xc23deda6	-47.48208
211	0x3d76b675	0.0602326
212	0x420149b6	32.321983
213	0x419e6a08	19.801773
214	0x42021391	32.519108
215	0xc16292a8	-14.160805
216	0x40e69603	7.205812
217	0xbfb703c1	-1.4298021
218	0x3eb46b62	0.35238177
219	0xbfdaaed5	-1.7084605
220	0xc1665f67	-14.398292
221	0xc17c7408	-15.778328
222	0xc12c85a7	-10.78263
223	0xc212a57d	-36.66161
224	0xc13cb5c6	-11.794378
225	0xc15f409f	-13.953277
226	0xc1be2ad2	-23.770908
227	0x407a839d	3.914283
228	0x41816fdd	16.17962
229	0x4219bf87	38.43704
230	0x41c77d9b	24.93633
231	0xc0415ec3	-3.0214088
232	0x40d025e6	6.5046263
233	0x410142e0	8.078827
234	0xc11daa52	-9.854082
235	0x411642d2	9.391314
236	0x3ff1acb8	1.8880835
237	0x40cf6fea	6.4824114
238	0xc1e6a26e	-28.829311
239	0xc1c8c803	-25.097662
240	0xc14da694	-12.8531685
241	0x41739069	15.222756
242	0xc1476728	-12.462685
243	0x416751fd	14.457517
244	0x4143326e	12.199812
245	0x4117ca7a	9.486933
246	0xbf724176	-0.94631135
247	0xbf9ca3db	-1.2237505
248	0xc25cc1c4	-55.189224
249	0x412a1c49	10.631906
250	0xbce65419	-0.028116273
251	0xc100ad6e	-8.042341
252	0x41281829	10.505898
253	0xbf052428	-0.52008295
254	0x418ad461	17.3537
255	0x410668a7	8.40055

l3/b f4 [256]
0	0x40a29eb2	5.081872
1	0x40a63c4b	5.19486
2	0x4045a0d6	3.0879416
3	0xbf5a778b	-0.8533866
4	0x41a67c62	20.810734
5	0x419d9479	19.697496
6	0x410e77b1	8.904222
7	0x413a6e75	11.651967
8	0x40b39b17	5.612682
9	0x409ad44b	4.8384147
10	0x3e8032dc	0.25038803
11	0x41776757	15.462729
12	0xc02fc11b	-2.7461612
13	0xc07ceea7	-3.9520662
14	0x40f19b84	7.550234
15	0x41023622	8.138216
16	0x40afa842	5.4892893
17	0x3fd7d65a	1.686229
18	0x410c29f4	8.760242
19	0x40c98c52	6.298379
20	0x40719bf0	3.7751427
21	0x40463b33	3.0973632
22	0x41ecb18c	29.586693
23	0x410d5e8e	8.835585
24	0x40e7a700	7.2391357
25	0x4092a67e	4.5828238
26	0x3f8d398b	1.1033186
27	0x4075d005	3.8408215
28	0x3f755241	0.95828635
29	0x40ef28ec	7.4737453
30	0x3facd71b	1.3503145
31	0x40e0ed94	7.029001
32	0x3fae297d	1.3606411
33	0x41245d2f	10.27275
34	0x40ab0320	5.3441315
35	0x424a8249	50.62723
36	0x4011542b	2.2707622
37	0xbf3004e4	-0.6875746
38	0xbfed29af	-1.8528346
39	0x404c8591	3.1956522
40	0x40bd34a7	5.9126773
41	0x409a2c02	4.817872
42	0x415288bd	13.158383
43	0x40cc8df5	6.3923287
44	0xc040ce2b	-3.0125835
45	0x40bed7d9	5.9638486
46	0x41c8b132	25.086521
47	0x4060b68a	3.5111413
48	0x3fdf2bd6	1.7435253
49	0xbfc52b7e	-1.5403898
50	0x40f8db9c	7.776808
51	0xc0dc8982	-6.8917856
52	0x3ee4fb15	0.4472281
53	0x3e8d4ff4	0.27600062
54	0xc01a2851	-2.4087107
55	0x404e56df	3.2240522
56	0xbecf2db2	-0.4046455
57	0x3e09438a	0.1340467
58	0x410a819a	8.656641
59	0x40a4bdae	5.1481543
60	0x41a9e399	21.236132
61	0xc057f5f6	-3.3743873
62	0xc13ecb16	-11.924582
63	0x40890af8	4.282589
64	0xbf933434	-1.1500306
65	0xc00941b3	-2.144635
66	0xbfcb5b04	-1.5887151
67	0x40faa4ea	7.832631
68	0x40052144	2.0801554
69	0x406f9a59	3.7437956
70	0x410ded86	8.870489
71	0x41322adb	11.135463
72	0x3e32f180	0.17474937
73	0x40ad0701	5.407105
74	0x40d76b6b	6.7318625
75	0x3ea12357	0.31472275
76	0x40c14136	6.0392103
77	0x408b7ddc	4.3591137
78	0x40e7c26b	7.2424827
79	0xc020ef34	-2.5145998
80	0x40293f0e	2.6444736
81	0x40b7f7da	5.7490053
82	0xbfeb79b9	-1.8396522
83	0x41139075	9.222768
84	0x412543d1	10.329057
85	0x41cc29c7	25.5204
86	0x40d5ff66	6.6874266
87	0x4091fa42	4.561799
88	0xbfa67588	-1.3004618
89	0xc08c110f	-4.3770823
90	0x41144400	9.266602
91	0x40a4f9bc	5.155485
92	0x401748cd	2.3638184
93	0x413ca4c1	11.790223
94	0x40d7f1d3	6.7482696
95	0x4155da51	13.3658
96	0x41b49d52	22.576817
97	0x3fe4bc74	1.7870011
98	0x418d33fe	17.650387
99	0x40950040	4.6562805
100	0x40a7d93d	5.2452683
101	0x40ad5f32	5.4178705
102	0x40642c2f	3.5651968
103	0x3d5b762d	0.053579498
104	0xc0269b41	-2.603226
105	0x40187ad2	2.3824964
106	0x40ba1f1e	5.8162985
107	0x41c9984e	25.199368
108	0xc063959a	-3.556006
109	0x407dc8ca	3.9653802
110	0x3e93dc00	0.28878784
111	0x4041ea86	3.0299392
112	0x404fa127	3.244211
113	0x40f0555d	7.5104203
114	0x41ece392	29.611118
115	0x40cbd8ea	6.370229
116	0x41834769	16.409868
117	0x41395cf0	11.58519
118	0x4094b058	4.6465263
119	0x3f3df61a	0.74203646
120	0x41253895	10.326314
121	0x41141999	9.256249
122	0xc073fbae	-3.8122363
123	0x404746b8	3.1136913
124	0x401aac1a	2.4167542
125	0xc03d222b	-2.9552104
126	0xbfd288b2	-1.6447966
127	0x406ea0cd	3.7285645
128	0x40eea23a	7.457303
129	0x416f4f62	14.956881
130	0xbf170785	-0.5899585
131	0xbf12be63	-0.5732176
132	0x4101ee6c	8.120708
133	0x411258e4	9.146702
134	0x41b68a09	22.8174
135	0x41a72eee	20.897915
136	0xbfbf677a	-1.4953454
137	0x40e89e3f	7.269317
138	0x40d99fa8	6.8007393
139	0xbe3038e1	-0.17209198
140	0x40d026dc	6.5047436
141	0x404e6f3e	3.2255397
142	0x4087a641	4.2390447
143	0x411cbe14	9.796406
144	0x410ec4fe	8.923094
145	0xc098397a	-4.757016
146	0xbfbaf874	-1.4607072
147	0x3f93135b	1.1490282
148	0x4088cddc	4.2751293
149	0x3f7c93de	0.9866313
150	0x414583a1	12.344636
151	0x406b5da4	3.6775904
152	0x410f9c1c	8.975613
153	0x40b9b2e3	5.8030868
154	0x417408c1	15.252137
155	0x40c76d9c	6.23213
156	0x40f2d1c1	7.5881047
157	0x405d7548	3.4602833
158	0xc089b9bd	-4.303923
159	0x40763dde	3.847526
160	0x41109eae	9.03874
161	0x41d3d1de	26.477474
162	0x40615f18	3.521429
163	0x41440e69	12.253518
164	0x414fd8b3	12.990405
165	0x40b3677f	5.606384
166	0x40d2275e	6.5673056
167	0x410ced23	8.807895
168	0x40a4394f	5.1319957
169	0x41961484	18.760017
170	0x410829cb	8.510203
171	0x40b66a2b	5.70046
172	0x3f091d96	0.5356077
173	0xc04ebc34	-3.230237
174	0x4118e55e	9.555998
175	0x4181e90a	16.238789
176	0x4057c38a	3.3713098
177	0x40c702f4	6.2191105
178	0x406c065a	3.6878877
179	0x40a3ddaa	5.1208086
180	0x4103d07a	8.238398
181	0x41630fb3	14.191333
182	0x41c1fee8	24.249466
183	0xbee9f1af	-0.45692202
184	0x3fdbdcf4	1.7176805
185	0x4108107d	8.504025
186	0x3f75e2b0	0.9604902
187	0x40da63c9	6.824681
188	0x40dfbf31	6.992089
189	0xbf6abd13	-0.91694754
190	0x3fef32a0	1.8687325
191	0x40d96c37	6.79446
192	0x40851764	4.1591053
193	0xc00f6c0c	-2.2409697
194	0x41b6cf8b	22.85134
195	0x4065ac21	3.588631
196	0xc0907cba	-4.5152254
197	0x4181fa92	16.247349
198	0xc04fdff7	-3.2480447
199	0x409e41bf	4.9455256
200	0xc00ca812	-2.1977582
201	0x3f644c24	0.8917868
202	0xbf8dadca	-1.1068661
203	0x413af138	11.683891
204	0x40743e6c	3.81631
205	0x40768adf	3.852226
206	0x410b516e	8.70738
207	0x41d27864	26.308784
208	0x40993d43	4.788728
209	0x411c8491	9.782365
210	0x41abcb9e	21.474422
211	0x4145fb06	12.373785
212	0x40e62766	7.1923094
213	0x40427a6a	3.0387216
214	0x40ec3a3b	7.382108
215	0x41c57168	24.680374
216	0x4103ad47	8.229804
217	0x3e49f10d	0.1972086
218	0x40360867	2.8442628
219	0x41077ea4	8.468418
220	0x424e237a	51.534645
221	0x41a9fa60	21.247253
222	0x40a048ff	5.0089107
223	0x402759b6	2.6148505
224	0x40f0c9a8	7.5246162
225	0x409d981c	4.924818
226	0x409c1841	4.8779607
227	0x41486835	12.525441
228	0xc09febf4	-4.997553
229	0xbe89d5ec	-0.26921022
230	0x407f1b81	3.9860537
231	0x3e5c30b5	0.21502955
232	0x401c92ca	2.4464593
233	0x411d4354	9.828938
234	0x40f0f5b2	7.529992
235	0xc0a28bf7	-5.0795856
236	0x3f06cd14	0.52656674
237	0x40425f85	3.03708
238	0x411db407	9.856452
239	0xbf9407db	-1.1564897
240	0x3f85b837	1.0446843
241	0x4018fc99	2.3904173
242	0x40bae249	5.8401227
243	0x40db89ed	6.8605866
244	0x3eee72fe	0.46572107
245	0x40826549	4.074864
246	0xc0129016	-2.2900443
247	0x411f55ed	9.958478
248	0x41be7400	23.80664
249	0x40ae27c8	5.442356
250	0x41330d0e	11.190687
251	0x4204a59b	33.161724
252	0x40b50b9f	5.6576686
253	0xbfcb1bdf	-1.586788
254	0x4097e4b5	4.7466683
255	0x404a8352	3.1642652
