size8/agent_white_133000/target_model.npz (npz, 608586 bytes, 8 tensors)

l2/W f4 [256, 256]
000000 35 68 a8 40 98 00 88 c1 11 69 09 c2 77 11 2d c1
       5.2627206 -17.00029 -34.352604 -10.816764
000010 fd 17 08 c2 0a 04 a2 41 05 a3 de bd 86 a7 38 41
       -34.023426 20.251972 -0.10870937 11.540899
000020 c9 92 89 41 e7 0b 9f c1 45 07 50 41 4a d2 9a 41
       17.196672 -19.880812 13.001775 19.35268
000030 a6 0c 1b c0 50 31 b5 bf 28 7b a4 c1 91 9f 2a c0
       -2.422647 -1.4155674 -20.560135 -2.6659892
000040 8b 59 57 41 24 f4 44 c1 d7 d2 a6 c1 8e a9 58 c1
       13.459361 -12.309605 -20.85295 -13.541395
000050 c4 90 81 c1 17 ec 5b 41 7d 45 b6 40 28 da 8f 40
       -16.195686 13.745139 5.6959825 4.4953804
000060 f1 8e 00 c0 2f 1c 6e c1 8f e9 ad 40 6a 03 29 c1
       -2.0087245 -14.881881 5.4347606 -10.5633335
000070 ee da dc 41 fc b3 28 42 db eb cf 40 b1 46 de 3f
       27.6069 42.175766 6.497541 1.7365323
000080 0a f6 df c0 4a 73 12 41 6a 30 56 c1 cc ef d1 bf
       -6.998784 9.153147 -13.38682 -1.6401305
000090 aa 0b d0 41 6a e1 5c 41 28 fe d2 c1 10 81 3d 41
       26.005695 13.805033 -26.3741 11.844009
0000a0 9e 9b 88 c1 de 80 0f c1 47 47 40 c1 87 58 25 c1
       -17.075985 -8.968962 -12.017402 -10.334113
0000b0 50 23 37 c0 ae c6 fd 41 3c 16 7a 41 9f df fd be
       -2.8615303 31.722012 15.630428 -0.49584672
0000c0 5e 42 1e c1 c0 ae ea c1 6f 23 2f 41 79 8f 94 3e
       -9.891203 -29.335327 10.946151 0.2901571
0000d0 7a c1 07 41 36 94 fe c1 3f 60 03 41 89 12 22 41
       8.4847355 -31.822369 8.210998 10.129525
0000e0 be 00 8a c1 23 80 5b c1 8d b3 76 41 a2 bf 49 41
       -17.250362 -13.718783 15.418836 12.609285
0000f0 5a b7 75 c1 f9 4a ed 40 38 44 3f 40 11 aa 52 c1
       -15.357264 7.415402 2.9885387 -13.16652
000100 11 35 72 c1 3d 53 cd c1 9b 54 d9 c1 98 ee f9 c0
       -15.137956 -25.665644 -27.166311 -7.810375
000110 ad 46 bd 40 cc 53 9b 40 4b 1e 16 c1 70 71 27 41
       5.9148774 4.853979 -9.382396 10.465195
000120 7b fb fb 41 c5 b7 a9 41 8d 97 45 c0 29 d7 f9 40
       31.497793 21.214731 -3.087375 7.8075147
000130 ad 2e 31 40 ca bc cb c1 db 27 ca 41 c7 6b 10 41
       2.7684739 -25.467182 25.26946 9.026313
000140 c1 ae 0b 41 4a 8d 61 c0 6f 3a 96 40 80 e8 7d c1
       8.730165 -3.5242486 4.694633 -15.869263
000150 16 67 af 40 ea 04 47 41 7e 80 fd bf b6 2a ea 41
       5.4813337 12.4387 -1.9804838 29.270855
000160 07 5b 61 41 35 3d a8 c1 8c 2c 4c c0 b8 e2 1f be
       14.084723 -21.029886 -3.190219 -0.1561383
000170 41 df b3 c1 10 0f ac bf 75 f4 0b 41 50 fe 97 41
       -22.48401 -1.3442097 8.747182 18.999176
000180 16 39 e2 c1 29 02 1e 3f de 0f 77 41 dc da 91 bf
       -28.277874 0.61722046 15.441374 -1.1394916
000190 6f d8 57 c0 2b fc 66 c2 24 fe 46 c1 be b2 3e c1
       -3.372585 -57.746258 -12.437046 -11.918638
0001a0 23 69 90 c1 92 7f ef c1 c9 86 d9 c1 9f a6 37 c2
       -18.051336 -29.93729 -27.190813 -45.912716
0001b0 5a 79 a4 41 24 cc 46 c2 89 88 eb 40 f8 f6 01 41
       20.559254 -49.699356 7.360417 8.122795
0001c0 c3 af d8 40 73 19 ed bf 22 82 dc 3e 61 bc f5 c1
       6.7714553 -1.8523391 0.43068033 -30.716982
0001d0 88 8a 0b c1 8a 7f 16 c1 2a e8 d8 c0 0f 05 b6 c0
       -8.721321 -9.406137 -6.7783403 -5.6881175
0001e0 d1 31 cd c0 4b 54 e9 c1 25 c0 e9 be c1 c8 42 c2
       -6.412331 -29.166159 -0.45654407 -48.69605
0001f0 1e 0c 78 40 47 bd bf c1 4b f9 26 c1 60 7d 5f 3f
       3.8757396 -23.96742 -10.435863 0.8730068
000200 59 45 dc 41 94 b0 e8 c1 26 7c 04 c0 5d 09 1f c2
       27.533861 -29.08622 -2.0700774 -39.759144
000210 d6 5b 06 41 a2 cf ee 41 8c ab d7 40 cb 49 a9 41
       8.397421 29.851383 6.739691 21.161032
000220 ee 67 70 c2 0e 34 5d c1 34 8d c9 40 1a bd f0 c0
       -60.101494 -13.825209 6.2984867 -7.5230837
000230 b2 8c 0a c2 55 c5 a3 c1 57 e1 26 c1 93 fc ba 41
       -34.637398 -20.471354 -10.430015 23.373327
000240 10 1d 7e c1 04 b4 47 c2 4c 34 08 42 8b f9 d3 40
       -15.882095 -49.925797 34.05107 6.624212
000250 20 1d 00 42 4a c1 28 41 4e 78 82 bf 84 af 68 41
       32.028442 10.54719 -1.0192964 14.5428505
000260 d1 30 35 41 0a 96 5b c1 75 c0 8b 41 72 12 2a 40
       11.324418 -13.724131 17.468973 2.6573758
000270 45 d7 90 c1 1f 94 41 c1 2e 64 87 40 1c b0 e8 c1
       -18.105112 -12.098662 4.230979 -29.08599
000280 e7 22 d3 c0 90 d1 ea c1 57 c4 83 41 a6 b4 96 41
       -6.5980105 -29.352325 16.47087 18.838207
000290 b4 16 da c1 9d ba 9d c1 e3 5f ff c0 e6 68 61 41
       -27.261086 -19.71612 -7.980455 14.08811
0002a0 8f fd a2 c1 4f b4 21 41 23 da 54 c1 0c bb 51 c1
       -20.373808 10.106521 -13.303256 -13.108166
0002b0 a3 d3 55 c1 59 7c b8 41 f0 e9 44 c2 2c 79 0a c0
       -13.364169 23.060717 -49.228455 -2.1636457
0002c0 bf 4a d9 c1 de be c4 41 11 56 32 40 9d 6d 23 41
       -27.161497 24.593197 2.786503 10.214261
0002d0 13 18 c2 40 ef 69 53 42 13 e9 05 c1 ea 81 8d 40
       6.0654387 52.85345 -8.369403 4.4221087
0002e0 48 5b 5b 41 5a b6 17 c2 76 e7 86 c0 65 ac ae bf
       13.709785 -37.928078 -4.2157545 -1.3646361
0002f0 87 d8 34 c2 c9 b1 0a 42 38 cb a3 41 1d cf a1 41
       -45.211452 34.67362 20.474228 20.22613
000300 fa ea e8 41 f4 7a 11 c0 fa d8 8b 41 db 96 dc 40
       29.114735 -2.2731295 17.480946 6.893415
000310 78 b4 ca 41 b2 3d 63 41 fb 82 bb 41 9e 55 73 41
       25.33812 14.202562 23.438955 15.208403
000320 c5 cd 37 c1 26 c0 ea c1 10 fb f8 c1 9d 42 1a c1
       -11.487737 -29.343822 -31.12259 -9.641263
000330 3b 58 95 c1 78 43 d3 c1 70 ca c5 c1 88 b2 fa c1
       -18.668081 -26.407944 -24.723846 -31.337173
000340 98 a5 c5 c1 39 7e b7 c0 9d bb fc c1 32 e4 a8 3f
       -24.705856 -5.734158 -31.591608 1.319464
000350 12 99 2b c1 53 34 87 c1 01 22 07 c2 f2 ff 82 c1
       -10.724871 -16.900549 -33.783207 -16.374973
000360 0a e0 1b c1 b4 e0 a7 bf a0 11 94 c1 b9 c4 2a c1
       -9.742197 -1.3115449 -18.508606 -10.673028
000370 57 06 8b bf 4b f3 97 40 67 e0 aa c1 b5 1e 37 c1
       -1.086131 4.748449 -21.359571 -11.444997
000380 cd 09 b8 c1 8b b9 d3 c0 58 52 75 bd e9 bb 0f c2
       -23.004786 -6.6163993 -0.059892982 -35.933506
000390 73 47 f0 c1 08 a9 c5 c1 18 68 85 41 fe ff e0 40
       -30.034887 -24.707535 16.675827 7.031249
0003a0 15 06 78 41 f4 ab a3 c1 b9 08 75 41 94 0f c8 c0
       15.501485 -20.458961 15.31463 -6.2519016
0003b0 14 b6 79 c1 e9 61 d9 41 4a 69 9a c0 fe 33 29 41
       -15.606953 27.172808 -4.8253527 10.575193
0003c0 4b 95 31 40 76 05 6f c1 4a ac 0c c1 f5 29 9b 3f
       2.7747371 -14.938833 -8.792063 1.2122179
0003d0 47 fe 20 c2 bf 62 ce c1 ac 2a ff 41 77 a7 b3 c1
       -40.248318 -25.798216 31.895836 -22.45677
0003e0 2a db 05 42 2b d7 f5 41 da eb c5 41 db b8 21 40
       33.464027 30.730062 24.740162 2.5269077
0003f0 f1 f2 b3 c1 fc f3 1b c2 77 35 9a c0 78 a5 b7 40
       -22.493624 -38.988266 -4.8190265 5.738949

l2/b f4 [256]
000000 f9 96 79 41 20 69 4b 41 7b fc 0e 41 c2 50 bc 41
       15.599359 12.713165 8.936641 23.539433
000010 a5 99 51 41 05 1a a4 41 fe 14 86 3e 97 24 14 c0
       13.100011 20.512705 0.2618789 -2.3147333
000020 f4 53 80 41 cf 5a 2f c0 51 ef 4d 40 69 56 06 41
       16.040993 -2.7399175 3.2177317 8.396096
000030 3b 5b 47 c0 21 c4 55 c0 65 8b 8f 40 f0 a9 db 3f
       -3.1149433 -3.3400958 4.485766 1.7161236
000040 87 ae 21 bd b7 af 6d 41 2f 08 40 41 02 f9 55 c1
       -0.039473083 14.855399 12.001998 -13.373293
000050 4c d1 15 41 a1 0c f6 41 ef 0e 87 41 33 cd 9b be
       9.363598 30.756166 16.882292 -0.30429992
000060 85 52 2e 40 39 e7 80 c0 50 71 0b 41 58 cc e1 40
       2.7237866 -4.0282254 8.715164 7.0561943
000070 6b 8f 50 41 96 37 59 c0 9c bf c3 41 1b 46 68 41
       13.035014 -3.3940177 24.46856 14.517116
000080 63 b5 a3 41 1c f1 90 41 5a a9 83 41 ba 08 2e 3f
       20.463568 18.11773 16.457691 0.67982066
000090 81 28 68 c1 76 63 75 41 8d 93 5a c0 73 32 73 41
       -14.509889 15.336782 -3.4152558 15.199817
0000a0 6f 0f 35 41 e7 e6 6b 41 df 0e 8a 41 ce 01 37 c0
       11.316268 14.743873 17.257261 -2.8594851
0000b0 8d 79 4b 41 91 98 93 41 bf 47 8d c1 ea 5a 80 41
       12.7171755 18.449495 -17.660032 16.044392
0000c0 5f d5 21 c1 57 a3 eb c0 a2 b7 06 42 dd 9a c6 c1
       -10.114593 -7.363689 33.67933 -24.825617
0000d0 31 db 92 41 b0 5d a0 41 14 4b 82 41 51 66 75 c1
       18.357027 20.045746 16.28666 -15.33748
0000e0 68 0b 3e c0 d8 bf 60 41 9d 8a 38 40 86 5a 45 bf
       -2.9694462 14.046837 2.8834603 -0.7709125
0000f0 34 4a 46 41 c6 08 dd c0 84 e1 d1 c0 5f 5f af c0
       12.393116 -6.907321 -6.558779 -5.480392
000100 cb c1 51 40 f9 07 ff c0 6d d0 73 40 35 b6 c8 41
       3.2774532 -7.969723 3.8095963 25.088968
000110 0e b4 b6 c0 48 ac 11 c1 03 cf c3 40 e2 9b f2 40
       -5.7094793 -9.104561 6.11902 7.5815287
000120 aa 6d 82 40 1e 9a 0c c1 b8 7e 2f c1 01 de 92 41
       4.0758867 -8.787626 -10.968437 18.3584
000130 7d f4 12 c1 53 32 28 c1 bd 97 79 41 5e 45 17 41
       -9.1846895 -10.512286 15.5995455 9.454435
000140 57 fa c2 41 94 60 98 41 da b1 9b 41 7a 8c 7d 41
       24.372236 19.047157 19.461842 15.846796
000150 04 b4 80 41 ac 2b 22 c1 73 a9 2b 40 a7 a8 5c c1
       16.087898 -10.135662 2.6822174 -13.791175
000160 73 6e 7a c1 cf 55 a9 c0 00 48 12 c0 33 02 ef 40
       -15.651965 -5.2917247 -2.2856445 7.4690185
000170 6d c6 34 c1 36 7c a2 41 b5 9a 6e bf 0e a7 2b c1
       -11.298444 20.31065 -0.93204814 -10.728285
000180 46 22 09 c1 4d f4 12 40 d5 23 e7 40 da df 05 bf
       -8.570868 2.296161 7.223124 -0.52294695
000190 c7 f5 b5 41 f9 29 8a 3f f9 ce 25 41 0a 7b 31 41
       22.745008 1.0794059 10.36303 11.092539
0001a0 33 c0 2f c0 d4 30 56 41 4c 78 03 c1 82 be a1 bf
       -2.746106 13.386921 -8.216869 -1.2636263
0001b0 e0 73 cb 41 66 10 a6 41 75 ef 48 40 74 69 bb 41
       25.43158 20.758007 3.1396153 23.42649
0001c0 a1 b4 b1 41 10 1c 93 41 d1 5d 03 c1 f6 9a 9a 41
       22.213198 18.388702 -8.210404 19.325665
0001d0 e0 e1 85 41 d4 3f 9f 41 59 1e b3 3f 20 a1 af 41
       16.73529 19.906166 1.3993636 21.953674
0001e0 34 17 8c 41 5b bd a8 41 6f c4 e6 40 16 fb 48 41
       17.51133 21.092459 7.2114787 12.5613
0001f0 8d 4f 68 41 76 93 92 41 fb 1b 98 41 de 98 87 41
       14.519422 18.322002 19.013662 16.949642
000200 a1 ce de 3e 7e 6b 55 41 3d 7d 7d c1 2e 7c 53 41
       0.4351702 13.338743 -15.843076 13.217817
000210 52 30 9d 41 45 f8 b3 41 b2 fd 0a 41 d7 c3 2b bf
       19.648594 22.496225 8.686937 -0.670957
000220 f1 c2 d0 41 07 d7 96 41 cd 8e 8d c0 c9 96 a4 41
       26.095186 18.854994 -4.4236817 20.573626
000230 ba 79 f7 40 83 31 0f c1 3b 51 a0 41 44 25 82 41
       7.733609 -8.949588 20.039663 16.268196
000240 4f 24 90 41 ce a1 60 c1 f5 e7 7a c1 69 f2 03 41
       18.017729 -14.039503 -15.68163 8.246682
000250 5d d2 8c 41 5c 38 1a c0 e2 58 a2 41 95 d1 49 c1
       17.602716 -2.40969 20.2934 -12.6136675
000260 ef 5c 3c 41 2a 6c 86 c0 28 7a 03 41 7f 71 f9 c0
       11.772689 -4.2007036 8.217323 -7.7951045
000270 3f e1 58 41 8b 97 7f 41 1a bb b1 41 45 b2 6e c1
       13.554992 15.974498 22.216358 -14.918523
000280 8e 9b 82 41 ab 3f 46 41 01 65 61 c1 97 41 26 40
       16.325954 12.390544 -14.087159 2.5977533
000290 fe 30 74 41 77 fc 52 c1 01 44 7a c1 24 9e 86 41
       15.261961 -13.186637 -15.6416025 16.827217
0002a0 a0 09 c3 41 de 35 35 c0 40 6d 9f 41 40 e4 7e 41
       24.3797 -2.8314128 19.928345 15.930725
0002b0 b8 73 1b 41 fa 39 d4 3f e9 a2 ba c1 46 78 03 40
       9.715752 1.6580193 -23.329546 2.054216
0002c0 67 0b 4b 40 06 83 7d 41 a1 80 ed 3e dc 9d 6e 41
       3.172571 15.844488 0.463872 14.91354
0002d0 18 0e 3f 41 05 05 80 41 cf b3 9d bf 70 3c 4d 40
       11.940941 16.00245 -1.2320498 3.2068138
0002e0 9a 51 7e 41 1e 75 5f 41 72 a7 88 3f 86 eb 65 41
       15.894922 13.966093 1.06761 14.370001
0002f0 ec e6 57 41 5c 3d 64 41 fb 00 23 41 2e ad c5 3f
       13.493877 14.26498 10.187739 1.5443475
000300 c1 7a ec bf e0 fd 55 41 af 7b 95 41 10 df a5 41
       -1.8474962 13.374481 18.685392 20.733917
000310 b8 e8 c7 be 71 74 7b 41 5f 48 9c c0 77 35 4b 41
       -0.39044738 15.715928 -4.8838344 12.700553
000320 f4 96 9f 41 2a 18 62 bf 1e f3 90 41 45 9c 85 41
       19.948708 -0.8831812 18.11871 16.701303
000330 4a 12 a9 41 f9 4c c2 41 2f 22 50 c1 4d 42 6a 40
       21.13393 24.287584 -13.008346 3.6602967
000340 0a 5d 95 c0 2d 39 db 41 33 a1 93 41 44 ff 50 40
       -4.6676073 27.402918 18.45371 3.2655802
000350 28 5b 86 41 61 ca 22 41 c8 45 9a 41 c2 36 7b 41
       16.79451 10.174409 19.284073 15.700869
000360 1d fa 00 c0 33 bf b3 41 b5 c5 60 41 16 45 04 41
       -2.0152657 22.468359 14.048268 8.266867
000370 2a 0c 92 41 eb 5a 85 41 8d 98 77 41 36 cb 9e 41
       18.25594 16.669394 15.474744 19.849224
000380 fc 8f 89 41 7f f7 67 41 a6 81 44 c0 8a b5 3b 41
       17.195305 14.497924 -3.070413 11.731821
000390 99 1f 74 c1 7a 5d ce 41 ca 21 93 41 45 d6 b4 41
       -15.257714 25.795643 18.391499 22.604624
0003a0 d2 b4 d4 c0 a6 f6 5d bf b5 72 3c c0 8e 3f 09 3f
       -6.647073 -0.8670448 -2.9445012 0.536126
0003b0 19 90 a4 41 9b cb d1 bf 08 16 4f 41 4a b1 79 c1
       20.57036 -1.639026 12.942879 -15.605783
0003c0 ff d4 14 c1 23 bb 38 c1 3d 6c 88 41 78 b5 d8 41
       -9.302001 -11.545688 17.05285 27.088608
0003d0 ec 39 19 3e 5d 0d a2 c0 f9 a7 e7 40 bb f7 07 bf
       0.14963502 -5.0641313 7.2392545 -0.5311238
0003e0 27 2e a6 41 fe 70 8a 41 a3 5b de 41 51 8f 96 41
       20.772535 17.305172 27.794744 18.819979
0003f0 95 6f 75 41 6d 36 7c 41 cf b2 a3 41 ef ce 9b 40
       15.339742 15.763288 20.462309 4.8690104

l1/W f4 [256, 64]
000000 24 46 6f 42 b8 50 d6 c0 3f f3 ce c0 b7 fb f2 40
       59.818497 -6.6973534 -6.467193 7.593227
000010 bf 2d 8f 40 cc 66 43 41 22 cf c5 40 9e 64 28 41
       4.4743342 12.212597 6.181535 10.524565
000020 b2 58 a6 c1 d0 ea 92 41 13 1a f1 c1 fe b0 ae 41
       -20.793308 18.364655 -30.137732 21.836422
000030 53 5b 31 c2 84 57 2f 40 d5 13 08 3f b4 79 1b c2
       -44.339184 2.7397165 0.5315526 -38.86885
000040 23 ad 41 c0 11 f6 b8 41 05 10 15 41 bf 6c d9 c0
       -3.0261924 23.12015 9.316411 -6.7945247
000050 73 87 83 41 be 53 f3 c0 36 80 e7 41 fe d5 28 40
       16.441137 -7.6039724 28.937603 2.638061
000060 d0 0c bd 41 76 08 88 c0 a2 d2 9a 41 b0 f6 9e c1
       23.631256 -4.251033 19.352848 -19.870453
000070 35 ad 3e c1 4b 74 95 41 38 d3 08 41 4e 8b ee 40
       -11.917287 18.681784 8.551567 7.454505
000080 b9 9b 3f 40 2d f5 a5 40 89 c3 16 be fb 34 98 c1
       2.9938796 5.1861787 -0.14723028 -19.02587
000090 0b 8f d6 3e 56 54 26 c1 de 12 a8 c0 a6 ef 3f 41
       0.41906008 -10.39559 -5.252303 11.996008
0000a0 05 b4 92 41 50 2d 88 41 59 7c 44 c1 47 e6 c1 41
       18.3379 17.022125 -12.280358 24.23744
0000b0 8e df fe 3f 81 09 ff bf 48 f2 6a 41 ff 8c c2 c1
       1.9911973 -1.9924775 14.684151 -24.318846
0000c0 c1 86 04 41 21 ba 4b 41 9e 61 dd c0 1c d4 b8 c0
       8.282899 12.732942 -6.918166 -5.7758923
0000d0 2d dd f4 40 56 d8 95 40 59 54 08 c1 77 d5 25 42
       7.651999 4.682658 -8.520593 41.45846
0000e0 4a d3 ac 41 9f 53 3a c1 ef 9d 6c c1 3d 91 7f c1
       21.603168 -11.645415 -14.788558 -15.972959
0000f0 c2 d3 82 41 d9 af 89 c1 3e de 15 c0 f2 73 e4 c1
       16.353397 -17.210863 -2.3416896 -28.556614
000100 f8 c3 a6 41 6d c6 5c c0 0b be 23 42 82 93 37 c1
       20.845688 -3.449611 40.93559 -11.473513
000110 1d 6d cb be 8a 0f 5b c2 c3 c1 95 41 91 ff 85 41
       -0.39731684 -54.765175 18.71961 16.749788
000120 b2 f4 c6 c0 9b f6 6a 40 86 36 bb 41 45 1e 6c c1
       -6.21737 3.6713016 23.401623 -14.75739
000130 02 09 2a c1 68 62 f9 c1 fb 80 09 41 8b e3 98 c1
       -10.627199 -31.17305 8.593989 -19.111105
000140 a8 14 b5 41 c2 de af c1 00 8d a1 40 7e 9e 03 c1
       22.635086 -21.983768 5.048462 -8.226194
000150 d1 f9 3b 41 64 00 9e bf d9 51 50 41 aa b2 e1 c1
       11.74849 -1.2343869 13.019982 -28.212238
000160 13 07 9a 40 c4 00 89 bf 7c 6d ec 3f 8d ca e3 c0
       4.8133636 -1.0703359 1.8470912 -7.1184754
000170 38 5c 42 c0 e9 d9 1d c1 a4 23 39 c1 9c e4 e7 c1
       -3.0368786 -9.865701 -11.571201 -28.986626
000180 71 c2 54 c0 28 7c 8f c1 60 16 83 41 e4 f1 71 3f
       -3.3243678 -17.935623 16.385925 0.9450972
000190 06 31 9a 40 49 a0 1b c1 34 fa c5 41 16 4c 71 c1
       4.8184843 -9.726632 24.74717 -15.081076
0001a0 92 96 68 c0 e1 f5 e0 c1 bc 56 a9 41 e7 43 3e 41
       -3.63419 -28.120058 21.16735 11.891578
0001b0 ba 1e d2 c0 e0 6d 99 41 65 17 1f 42 12 af 99 c1
       -6.566251 19.17865 39.772846 -19.210484
0001c0 4c 46 11 c2 5c 88 a3 c1 51 9a 25 c1 13 33 47 c2
       -36.31865 -20.441582 -10.350175 -49.799877
0001d0 1c e7 51 41 4f 53 74 41 e2 66 cb 40 e7 98 e3 bf
       13.118923 15.270339 6.356309 -1.7781037
0001e0 3e bd 7d c1 a2 8b a2 c1 b7 38 29 c2 b7 a8 49 c1
       -15.858702 -20.31818 -42.305386 -12.60369
0001f0 45 04 27 42 ba f1 98 41 0a df 0a c0 d0 0a 11 c0
       41.75417 19.11803 -2.1698632 -2.266285
000200 63 4f d4 41 18 61 e2 41 87 fb f5 c0 ef 4f 7a 41
       26.538763 28.29741 -7.686954 15.644515
000210 95 a2 de c0 c9 f4 59 41 02 ee 96 c1 03 c2 78 41
       -6.9573464 13.622262 -18.866215 15.547366
000220 d7 22 a9 41 88 28 db 40 0b 64 ec c1 b6 0f 05 41
       21.142012 6.8486977 -29.54885 8.316336
000230 75 86 8e 41 be 29 dc 41 ab 76 8a 41 14 5e ad 40
       17.815653 27.520382 17.307943 5.417734
000240 b8 56 38 c1 d9 12 d7 41 18 91 c1 c1 1f 93 58 41
       -11.521172 26.884203 -24.195847 13.535918
000250 b0 95 37 40 ec 1b 44 41 92 fa c3 41 9c 9a 8e 3f
       2.8685112 12.256817 24.497349 1.1140933
000260 bb b1 4d 42 df 29 cd c1 96 0a 50 41 bd b0 ed 40
       51.423565 -25.645445 13.002584 7.4278245
000270 e3 6c 6f bf 4b d6 4f 41 d1 01 08 41 e3 f9 93 bf
       -0.9352552 12.989818 8.500443 -1.1560634
000280 29 3a 83 c1 62 cc 64 41 c0 58 4d c2 70 c1 dc 40
       -16.403399 14.299898 -51.33667 6.898613
000290 f8 79 51 40 f0 7f 64 41 56 34 0b c1 21 e3 c1 c1
       3.2730694 14.281235 -8.700277 -24.235903
0002a0 44 d5 d3 c1 8c e9 50 c1 21 e5 d6 c0 b7 21 17 c1
       -26.479134 -13.057018 -6.71547 -9.445731
0002b0 67 2b 21 41 ce 7a 8f 40 af 7c 4b c1 bd 11 b4 c1
       10.073096 4.483741 -12.71794 -22.508661
0002c0 cf df 97 c1 b3 c8 0a c2 1f 16 2e c1 16 3e b6 40
       -18.984282 -34.695995 -10.880401 5.695079
0002d0 79 bb aa 41 9d 26 59 c1 c0 b4 68 41 e1 95 fd c1
       21.34154 -13.571927 14.544128 -31.698183
0002e0 fe 55 87 41 8e a9 8d 41 c6 5b b5 c1 d3 37 df 41
       16.916988 17.70779 -22.669811 27.902258
0002f0 cb 62 c4 bf 2c 53 c4 bf 90 52 8a 41 c9 b4 60 41
       -1.5342649 -1.5337882 17.290314 14.044137
000300 74 43 1a c2 f2 0c f0 41 70 29 9b c1 b9 2f b4 bf
       -38.565872 30.00632 -19.395233 -1.4077064
000310 ac 78 0f c0 1a 56 a3 41 ad 78 72 41 51 2e 08 c2
       -2.2417402 20.417042 15.154462 -34.04523
000320 e7 b0 17 41 86 de 57 c2 50 f1 86 c1 17 f1 6d 40
       9.480689 -53.967308 -16.867828 3.71784
000330 96 6d d3 c1 fd 2c ca 41 16 5a 59 41 1c 5b c9 c0
       -26.428509 25.271967 13.584494 -6.2923717
000340 0e 4a 91 c1 e1 e7 02 c2 c3 3a 3f 40 a9 36 cf 3f
       -18.16116 -32.726444 2.9879615 1.6188556
000350 67 fe 10 42 a7 21 b4 c0 3d e6 70 41 f0 2f 51 3f
       36.24844 -5.629108 15.0562105 0.8171377
000360 31 d0 b9 40 c2 cc 8d c0 54 53 3b 41 a5 d0 de c0
       5.806664 -4.431245 11.707844 -6.9629693
000370 f3 36 05 c1 cc 73 40 41 2d a8 e7 40 47 97 59 c1
       -8.325915 12.028271 7.2392793 -13.599433
000380 75 a2 a4 c1 05 e7 07 42 8b 90 82 41 c9 e1 4f be
       -20.579325 33.975605 16.320578 -0.20300974
000390 fe 9c 0f 3f 9c 00 94 c0 79 65 22 c1 69 fd 69 41
       0.56098926 -4.6250744 -10.149774 14.624368
0003a0 86 a0 ea 40 dd 6a f7 c1 85 9f e7 c1 de 55 64 c1
       7.332095 -30.92718 -28.95289 -14.270964
0003b0 6f 1c 95 40 c0 c2 d9 41 16 c5 9a 41 79 b7 24 c2
       4.659721 27.220093 19.346233 -41.179173
0003c0 fd 46 a4 c1 1a 4c 9c c1 ff 83 e5 c0 64 92 39 c2
       -20.534662 -19.537159 -7.172363 -46.39296
0003d0 31 9b f7 c0 f8 81 1b 42 db 56 17 42 bf 02 16 c2
       -7.7376943 38.876923 37.83482 -37.50268
0003e0 86 62 82 c2 95 f8 22 41 28 cb 93 c2 a8 49 ac 40
       -65.19243 10.185689 -73.89679 5.3839912
0003f0 27 ad 1b c2 2f 5f d9 c0 8d 2e 1d 42 bc 51 92 c1
       -38.919094 -6.792869 39.29546 -18.28991

l1/b f4 [256]
000000 d9 3f a8 c1 97 03 42 40 32 0b 28 41 90 9e 36 40
       -21.031176 3.031469 10.502733 2.853428
000010 16 8d c5 bf 1e b5 20 41 f3 d6 e2 c0 0f d2 b1 40
       -1.5433681 10.044218 -7.088739 5.556892
000020 23 54 4e 3f c8 d1 4a 40 4b 58 19 c2 a8 8e 68 41
       0.8059713 3.169054 -38.336224 14.534828
000030 70 1b 39 c0 79 89 0a c1 68 76 09 41 00 a6 87 3f
       -2.8922997 -8.658563 8.591408 1.0597534
000040 23 fe 33 41 f5 36 10 41 49 85 27 41 96 c8 c8 40
       11.249545 9.013417 10.47004 6.2744856
000050 a2 87 7e 41 88 9c 8e 3e 83 ac be 40 9a 71 56 41
       15.9081135 0.278538 5.9585586 13.402735
000060 fb 29 81 c0 b8 63 3e c2 75 68 ca 40 f5 ed 6c 3f
       -4.0363746 -47.59738 6.325251 0.92550594
000070 d2 56 19 41 14 91 9c 40 e3 89 f5 40 e0 12 06 40
       9.583696 4.8927097 7.673082 2.094902
000080 26 8e 10 41 79 76 0c 41 fd 54 05 c2 5d ae 0c 41
       9.034704 8.778924 -33.332996 8.792569
000090 fb d5 ff 41 31 04 27 41 e3 3c d5 40 b2 a4 8d 41
       31.979483 10.438523 6.6636825 17.705418
0000a0 e3 48 26 41 00 96 c5 c1 32 c9 36 c1 27 45 98 c1
       10.392795 -24.698242 -11.42412 -19.033766
0000b0 fb c0 09 c1 75 16 59 41 ce 39 57 c1 c7 03 b6 c0
       -8.609614 13.567983 -13.451612 -5.687961
0000c0 d9 b2 6a c1 01 ce 5c 41 54 fc a1 c1 03 e6 8d 41
       -14.668664 13.800294 -20.248207 17.73731
0000d0 f4 fa 38 41 9c 8e 03 c1 30 a4 e7 40 e6 b0 19 41
       11.561268 -8.222317 7.2387924 9.605688
0000e0 7f fd 76 c1 6e 5d 10 c1 d4 44 8f 41 0b a6 b1 40
       -15.436889 -9.02281 17.908607 5.551519
0000f0 b0 e6 65 41 d2 55 d0 3e 24 eb 91 41 c0 eb c5 c1
       14.36882 0.40690476 18.239815 -24.740112
000100 34 dc 0c 3d ed e4 83 41 95 26 a0 c1 52 f5 a1 bf
       0.03438969 16.48678 -20.018839 -1.2652991
000110 8d b0 bd bf 5d bb b7 c0 bc dc ff 3f 21 2f af c0
       -1.4819504 -5.7416215 1.9989238 -5.474503
000120 93 a0 2d 41 26 e4 87 40 ba 6e 9a bf 25 11 99 c1
       10.851703 4.2466 -1.2065041 -19.133371
000130 3b 19 97 41 bf c6 15 c1 ba f8 4e c0 d0 55 ed 41
       18.88732 -9.361022 -3.233931 29.6669
000140 a7 f5 21 c0 cf 74 26 c2 4b bf 12 c1 70 5a f7 40
       -2.5306184 -41.61407 -9.171702 7.7297897
000150 cc 70 57 41 92 ce 8c 3c 67 e2 d4 be a5 d3 a0 bf
       13.465038 0.017188344 -0.4157898 -1.2564589
000160 ad 14 74 41 7c 48 38 41 0e d0 d7 be d0 b3 fd 3f
       15.255048 11.517696 -0.4215092 1.98205
000170 4b 90 96 41 a8 b4 c4 c0 df a1 5b 3f b0 69 07 c1
       18.820456 -6.147053 0.8579387 -8.463303
000180 5c 39 33 c2 5f 94 0f c2 90 f0 ef 40 b8 c3 4f c1
       -44.806015 -35.894894 7.4981155 -12.985283
000190 31 00 d3 40 98 e2 35 41 7b 88 22 40 16 94 2f bf
       6.5937734 11.367821 2.53958 -0.68585336
0001a0 37 86 23 41 55 1d c7 3f 55 ba 03 c0 65 2c c4 c0
       10.220267 1.5555826 -2.0582478 -6.1304193
0001b0 85 3e ae c1 6d 4e ad 41 aa 7d 95 c0 34 e6 87 bf
       -21.780527 21.663294 -4.67159 -1.0617127
0001c0 e0 f5 a5 41 38 83 42 41 cb 56 57 c0 71 12 d8 40
       20.745056 12.157036 -3.3646724 6.752251
0001d0 61 01 b9 40 47 c2 1e be b0 57 1b 40 13 6b 7c 40
       5.7814183 -0.15503798 2.427227 3.9440353
0001e0 28 d8 85 41 4e 9f 94 c1 ce 99 aa c1 6d ea 55 40
       16.730545 -18.577785 -21.3251 3.3424332
0001f0 8f b6 8f bf 26 88 83 3e 4f 4d 5f c0 42 e8 cd c0
       -1.1227587 0.2568981 -3.4890935 -6.434602
000200 3d 1e 0f c2 38 07 b4 c0 f8 fd cd 41 ff 81 1e c1
       -35.77953 -5.625881 25.749008 -9.906737
000210 4c 17 a3 41 7a 35 3d 41 46 9a 98 c0 e7 2e 96 3e
       20.386375 11.825556 -4.768832 0.2933266
000220 b7 6c bd c1 8c 85 1b c1 be bd c5 c0 bd 92 1c c1
       -23.678083 -9.720104 -6.179412 -9.785825
000230 a9 d6 01 c2 8a aa 07 c0 c1 45 8f 41 57 70 93 c1
       -32.45963 -2.1197839 17.90906 -18.429853
000240 7e fd 44 c0 9d 95 01 41 ad b3 48 41 67 58 98 3f
       -3.077972 8.099027 12.543866 1.1901978
000250 30 76 4e 40 a5 cd f1 c1 87 fa 82 c1 e8 dc 0f 41
       3.2259636 -30.225412 -16.372328 8.991432
000260 4d 36 f3 41 dc cf 76 c1 1e 7d 39 c1 16 a8 3b 41
       30.401514 -15.425747 -11.593046 11.728537
000270 f1 c7 82 c1 80 15 9a 3f a9 4a 4a c2 1f cf 4c 41
       -16.347628 1.2037811 -50.57291 12.800567
000280 84 dd 83 3f 34 45 33 bf a1 ca 8a c0 a2 32 29 41
       1.0301976 -0.7002747 -4.337235 10.574862
000290 0e f3 de 40 84 96 0d c2 fa 9f 76 41 8f 24 30 c1
       6.96717 -35.396988 15.414057 -11.008925
0002a0 d9 4f 94 c0 03 73 34 c2 d8 6b 5f c1 76 fe 0f c1
       -4.634747 -45.112316 -13.963829 -8.999624
0002b0 48 2a 91 40 9a d7 3e 41 49 15 97 41 9d db 3d c1
       4.5364113 11.927637 18.885393 -11.866117
0002c0 ba 6a 77 40 ec 61 9d bf 9e 3a 21 c1 f0 50 a1 40
       3.865889 -1.2295508 -10.076811 5.04113
0002d0 1e 0c b6 40 41 d9 3c c0 f4 2d 9d 40 db ec be c0
       5.688979 -2.9507601 4.9118595 -5.966413
0002e0 02 c3 66 40 ac 68 d7 40 94 ac a8 c1 ff 26 72 41
       3.6056523 6.7315273 -21.084267 15.134521
0002f0 e7 8a d3 3f d5 97 61 40 c5 e6 95 be 81 f9 e7 40
       1.6526765 3.524892 -0.29277626 7.249207
000300 7b b0 97 40 8a 12 a9 c0 93 bd 5b c1 60 c5 48 41
       4.740293 -5.283513 -13.733783 12.548187
000310 28 56 8a 41 81 73 41 c1 50 86 02 41 85 c9 00 41
       17.292068 -12.090699 8.157791 8.049199
000320 28 49 4b c1 6a 88 39 40 36 f3 c9 c0 df b1 18 40
       -12.70536 2.898951 -6.310939 2.3858564
000330 3c 11 96 40 61 f7 3d c1 ee 5a c2 c0 d5 b4 d6 c1
       4.689604 -11.872895 -6.0736 -26.838297
000340 c5 38 8e 40 56 da 2d bf bb 63 32 c2 55 68 07 c0
       4.44443 -0.6791128 -44.597393 -2.115743
000350 15 b2 9d c0 a1 fb 5e 41 23 7e 1a c1 c0 2e 3d 40
       -4.9279885 13.936433 -9.655795 2.9559784
000360 e3 be e9 3f 35 e6 e4 c1 34 6f 01 c1 10 30 62 c1
       1.8261379 -28.612406 -8.089649 -14.136734
000370 04 d9 c2 c1 9a 25 98 41 d5 d9 53 40 28 85 61 c2
       -24.355965 19.01836 3.3101704 -56.380035
000380 19 74 8b 41 48 ac d9 40 e5 ae 31 3f 35 38 45 bf
       17.431688 6.8022804 0.6940749 -0.7703889
000390 52 c0 aa bf e3 cf a5 41 55 bf 5a 41 15 12 fd c0
       -1.3339942 20.726507 13.671712 -7.9084573
0003a0 db 25 c1 40 4e 57 bb c0 22 03 77 41 fb e7 3b c1
       6.035871 -5.8544073 15.438265 -11.744136
0003b0 63 21 de bf f1 27 c1 3e a0 a6 26 c2 d0 27 e4 40
       -1.7353939 0.37725785 -41.66272 7.12986
0003c0 bd cc a4 3f cf b5 c8 c1 e3 ac 9a c1 11 18 e2 c0
       1.2874981 -25.088774 -19.334417 -7.065438
0003d0 c2 8b 48 c2 2f f9 76 c2 6f dc 8d c0 44 71 c3 c1
       -50.136482 -61.743343 -4.4331584 -24.430305
0003e0 4e ce f3 40 c7 fd ff 40 1f cf 09 c1 41 54 06 c0
       7.6189337 7.9997287 -8.613067 -2.0988925
0003f0 7b c8 aa c1 11 90 4e 41 7b 11 6e bf 5e 49 be c1
       -21.34789 12.910172 -0.92995423 -23.785824

l4/W f4 [64, 256]
000000 f9 09 5c 42 e2 70 56 42 8b fb 48 42 96 01 b6 42
       55.00974 53.610237 50.245647 91.0031
000010 da 81 17 42 a7 31 5f 42 a4 52 77 42 07 60 50 42
       37.87681 55.79849 61.830704 52.093777
000020 0a 12 48 42 91 29 6e 42 5b 26 5c 42 63 18 63 42
       50.017616 59.540592 55.037457 56.773815
000030 2f 8c 69 42 3d 94 75 42 09 c0 5f 42 64 c7 45 42
       58.386898 61.394764 55.937534 49.444717
000040 66 7c 6a 42 56 ef 50 42 30 fb 59 42 e1 46 6c 42
       58.621483 52.233727 54.4953 59.069218
000050 87 b0 58 42 d6 29 39 42 5e 36 5a 42 f4 fe 18 42
       54.17239 46.290855 54.553093 38.248978
000060 1d 0e 5b 42 c4 f5 41 42 51 f3 72 42 83 42 82 42
       54.763783 48.490005 60.737614 65.129906
000070 a6 27 7c 42 78 55 51 42 0d c9 aa 42 2c 28 6a 42
       63.03872 52.333466 85.39268 58.53923
000080 9e 7a 64 42 6e 8d 52 42 07 63 77 42 1e f6 76 40
       57.119743 52.638115 61.846706 3.8587718
000090 af 6e 65 42 97 a1 2c 42 53 5b 74 42 ed 6a 47 42
       57.35809 43.157803 61.089184 49.85442
0000a0 55 68 22 42 76 9a 43 42 87 c4 83 42 5a 68 65 42
       40.601887 48.90084 65.88384 57.351906
0000b0 f1 ab 7e 42 34 3e 36 42 86 a2 17 42 8b cf 48 42
       63.66791 45.560745 37.908714 50.20268
0000c0 55 b6 69 42 25 82 b8 42 5a 59 4c 42 a7 fd 88 42
       58.42806 92.25419 51.087257 68.495415
0000d0 53 b8 5b 42 a6 89 55 42 71 bf 80 42 80 99 bc 42
       54.930004 53.384422 64.37391 94.299805
0000e0 6c fa 49 42 24 b3 ac 42 48 a2 76 42 5f 17 7c 42
       50.494553 86.349884 61.658478 63.022823
0000f0 aa 84 2c 42 36 f3 a3 42 62 44 6c 42 de 3f 45 42
       43.129555 81.97502 59.06678 49.31237
000100 97 37 4e 42 6b 32 ae 42 f5 f9 9f 42 5c 48 3e 42
       51.554287 87.09847 79.9882 47.570663
000110 da c7 1f 42 01 1e 43 42 e6 28 71 42 94 d9 44 42
       39.945168 48.7793 60.28994 49.21248
000120 68 0a 53 42 64 38 55 42 2a cf 3c 42 00 14 43 42
       52.760162 53.30507 47.20231 48.76953
000130 f7 ce 5d 42 30 40 3a 42 fd b2 54 42 2d 3e 66 42
       55.452114 46.562683 53.174793 57.56072
000140 d0 2f 40 42 be df 5f 42 18 66 79 42 7e b5 76 42
       48.04669 55.9685 62.3497 61.67724
000150 b7 25 4e 42 29 e0 2c 42 bc 4f 7a 42 08 93 61 42
       51.53683 43.218906 62.577866 56.393585
000160 16 bd a8 42 ba f4 bb 42 89 f8 68 42 f5 dc 1e 42
       84.36931 93.97798 58.24271 39.71578
000170 5e 50 71 42 91 41 61 42 76 29 72 42 5f 4d 26 42
       60.328484 56.31403 60.54049 41.575558
000180 c3 16 5d 42 04 04 6b 42 c9 cd 40 42 4d 8d 0e 42
       55.27223 58.75392 48.200962 35.63799
000190 d8 3d 64 42 26 74 48 42 3a 5c 66 42 05 51 81 42
       57.060394 50.113426 57.590065 64.65824
0001a0 42 18 55 42 69 a9 2d 42 03 d1 66 42 13 68 3b 42
       53.27369 43.41544 57.704113 46.851635
0001b0 20 04 84 42 54 ca 64 42 c1 0d 6a 42 95 07 5f 42
       66.00806 57.197586 58.51343 55.757404
0001c0 1c 89 2e 42 62 d2 0c 42 3c d8 0b 42 ce 69 1e 42
       43.633896 35.205452 34.961166 39.603325
0001d0 98 d2 55 42 f8 60 43 42 16 c5 73 42 75 1f 63 42
       53.455658 48.844696 60.942467 56.78072
0001e0 6a e9 43 42 5b a7 41 42 3d 17 5f 42 08 2d 41 42
       48.977943 48.413433 55.772694 48.293976
0001f0 ad 44 63 42 77 06 6a 42 1b 09 63 42 9e cb 5e 42
       56.817066 58.506313 56.758892 55.698845
000200 42 1b 5c 42 d0 9c 2d 42 3f 3b 54 42 98 74 8b 42
       55.02662 43.403137 53.057858 69.72772
000210 58 74 45 42 1b 30 e2 41 e7 22 d2 41 f2 de f7 41
       49.363617 28.273489 26.267042 30.98386
000220 3d 64 68 41 60 29 77 42 03 9d 4b 42 16 dc 55 42
       14.524472 61.790405 50.90333 53.464928
000230 00 cb 4f 42 51 07 6e 42 b4 83 5d 42 85 b0 49 42
       51.948242 59.507145 55.378616 50.422382
000240 d3 30 2a 42 fc 39 27 42 fb 14 4e 42 38 87 49 42
       42.54768 41.806625 51.52049 50.38205
000250 4e 4b 48 42 f9 0b 66 42 35 92 1e 42 51 d1 72 42
       50.07354 57.511692 39.64278 60.70441
000260 fa 57 75 42 b5 4a 73 42 8c 71 a0 41 d8 70 55 42
       61.335915 60.822956 20.055443 53.3602
000270 1c c0 4e 42 a4 43 6e 42 a2 9a 3f 42 c0 81 52 42
       51.687607 59.566055 47.90101 52.62671
000280 38 04 10 42 85 a6 2d 42 91 93 3e 42 bd 68 85 42
       36.00412 43.412617 47.644108 66.70457
000290 45 1c 28 42 43 b3 58 42 54 72 61 42 d0 1b 2a 42
       42.027607 54.17506 56.36165 42.52716
0002a0 5a 89 81 42 a0 40 9d 42 1d ae 5f 42 04 9c 4a 42
       64.768265 78.62622 55.920033 50.65236
0002b0 e6 8a 8f 42 0a 5d 70 42 c9 3e 3a 42 b0 b9 83 42
       71.771286 60.09086 46.561314 65.86267
0002c0 43 74 52 42 80 cd 4f 42 ed 00 3d 42 68 09 23 42
       52.613537 51.950684 47.250904 40.759186
0002d0 45 5a 87 42 2d 8e 75 42 55 a0 f9 41 78 be 68 42
       67.67631 61.388844 31.203287 58.186005
0002e0 59 56 6a 42 a3 47 3d 42 56 ea 5c 42 a6 75 45 42
       58.584324 47.319958 55.228844 49.36489
0002f0 fb d2 62 42 39 fc 70 42 09 fb 61 42 03 be 53 42
       56.706036 60.24631 56.49515 52.93556
000300 52 ac 1a 42 57 78 5a 42 53 04 2c 42 5c 25 7d 42
       38.66828 54.61752 43.004223 63.286484
000310 a3 60 55 42 9f fa 56 42 e2 37 5e 42 1d 66 61 42
       53.34437 53.744747 55.554573 56.34972
000320 c7 cc 29 42 db f3 59 42 33 23 64 42 55 e4 23 42
       42.449978 54.48814 57.034374 40.97298
000330 3e 31 7c 42 62 e3 92 42 42 b8 67 42 f2 19 38 42
       63.048088 73.44411 57.92994 46.025337
000340 63 d4 6e 42 3a 25 69 42 bd 16 e6 41 6a 2d 18 42
       59.70741 58.286354 28.761103 38.04435
000350 c9 93 5b 42 50 98 4a 42 51 c9 52 42 5b fc 47 42
       54.89432 50.648743 52.696598 49.99644
000360 45 0c 65 42 32 fe 63 42 ff 6c 5d 42 27 df 5f 42
       57.261982 56.998238 55.35644 55.967922
000370 b2 2e e4 41 be f4 5c 42 49 43 65 42 91 52 66 42
       28.5228 55.239006 57.31571 57.58063
000380 16 64 5c 42 24 97 37 42 7d 67 53 42 ac e8 58 42
       55.09774 45.8976 52.851063 54.22722
000390 40 24 69 42 92 e4 25 42 dc 11 53 42 ca c8 31 42
       58.2854 41.473213 52.76744 44.446083
0003a0 35 e6 68 42 a6 73 48 42 ea c8 66 42 05 cd 21 42
       58.22481 50.112938 57.696205 40.450214
0003b0 e2 2b 2d 42 3d a2 4f 42 34 f7 5e 42 f6 07 c0 42
       43.292854 51.908436 55.74141 96.01555
0003c0 ff a7 83 42 7a 02 4a 42 da 38 6f 42 f6 a8 62 42
       65.82812 50.50242 59.80552 56.665
0003d0 3d b9 74 42 85 9b 2b 42 a7 c3 66 42 b9 08 3d 42
       61.180897 42.901875 57.691067 47.25852
0003e0 99 97 14 42 3e 28 77 42 64 1e 3a 42 ef d6 a4 42
       37.148045 61.7893 46.52968 82.41979
0003f0 16 c7 29 42 8a e0 46 42 4c ec 7a 42 e5 cb 78 42
       42.44442 49.719276 62.73076 62.199116

l4/b f4 [64]
000000 dc 74 c1 c2 2a 75 c1 c2 b1 7e c1 c2 a0 77 c1 c2
       -96.72824 -96.728836 -96.747444 -96.73364
000010 b3 7c c1 c2 78 74 c1 c2 a4 7d c1 c2 54 70 c1 c2
       -96.74355 -96.72748 -96.74539 -96.71939
000020 cf 74 c1 c2 da 7f c1 c2 2f 74 c1 c2 24 74 c1 c2
       -96.72814 -96.74971 -96.72692 -96.72684
000030 99 7c c1 c2 bc 7d c1 c2 31 7e c1 c2 b6 73 c1 c2
       -96.743355 -96.745575 -96.74647 -96.726
000040 c7 7a c1 c2 f6 7b c1 c2 c7 85 c1 c2 58 79 c1 c2
       -96.7398 -96.74211 -96.761284 -96.737
000050 4d 7b c1 c2 9a 7e c1 c2 ee 8e c1 c2 a8 77 c1 c2
       -96.74082 -96.74727 -96.77916 -96.7337
000060 db 7e c1 c2 7c 84 c1 c2 6f 74 c1 c2 8b 80 c1 c2
       -96.747765 -96.75876 -96.72741 -96.75106
000070 e1 7e c1 c2 66 77 c1 c2 a1 7a c1 c2 18 79 c1 c2
       -96.74781 -96.7332 -96.73951 -96.73651
000080 01 77 c1 c2 4c 86 c1 c2 c8 74 c1 c2 44 77 c1 c2
       -96.73243 -96.7623 -96.72809 -96.73294
000090 b9 80 c1 c2 50 79 c1 c2 a0 75 c1 c2 e9 6c c1 c2
       -96.75141 -96.73694 -96.72974 -96.712715
0000a0 06 77 c1 c2 ee 8a c1 c2 ec 69 c1 c2 b1 81 c1 c2
       -96.73247 -96.77135 -96.70688 -96.7533
0000b0 82 7b c1 c2 64 8c c1 c2 cf 7a c1 c2 58 81 c1 c2
       -96.74123 -96.7742 -96.73986 -96.752625
0000c0 6a 74 c1 c2 81 79 c1 c2 5c 81 c1 c2 5b 78 c1 c2
       -96.72737 -96.73731 -96.752655 -96.73507
0000d0 53 80 c1 c2 64 7f c1 c2 6d 8a c1 c2 7e 77 c1 c2
       -96.75063 -96.74881 -96.77036 -96.73338
0000e0 9d 6e c1 c2 b6 7b c1 c2 03 7d c1 c2 92 7a c1 c2
       -96.71604 -96.74162 -96.74416 -96.739395
0000f0 68 81 c1 c2 71 7c c1 c2 62 77 c1 c2 a3 7b c1 c2
       -96.75275 -96.74305 -96.73317 -96.74148

l3/W f4 [256, 256]
000000 7e 29 ee 40 00 5b be c1 6d ea 37 c2 05 91 79 40
       7.442565 -23.794434 -45.97893 3.8994763
000010 06 67 bd 41 fa 6d df 41 7f 68 84 40 72 40 bd c0
       23.675304 27.9287 4.137756 -5.914117
000020 95 06 75 c0 15 27 67 c0 e0 89 c3 41 dc f1 88 41
       -3.8285267 -3.6117604 24.442322 17.118095
000030 b9 0a 22 bf 51 a6 94 40 0d 0c db 3f 46 ef 63 c0
       -0.6329761 4.6453023 1.7113053 -3.561479
000040 7e 8a 5a 41 5e a5 94 c1 53 1b 4b c1 46 59 1d c1
       13.658812 -18.580746 -12.694171 -9.834295
000050 e5 86 14 c2 d5 00 c6 c1 40 dd b0 41 b7 fc 27 c1
       -37.131733 -24.750406 22.108032 -10.499198
000060 db 79 2f 40 bc d7 4b 41 92 71 c8 40 9f b3 ec c1
       2.7418125 12.74017 6.2638636 -29.587706
000070 f0 3f d9 c0 be bc 3d 40 3b 43 70 c1 1c 47 16 41
       -6.789055 2.964645 -15.016414 9.392361
000080 81 b7 78 41 f1 44 3e c0 9f ba d1 c0 6b a2 f5 40
       15.544801 -2.9729578 -6.554031 7.6760764
000090 05 96 ca c1 81 bd 97 c0 0c cb d4 c1 a0 a1 c0 c0
       -25.323252 -4.741883 -26.599144 -6.0197296
0000a0 ca 78 70 41 e5 8e fe bf e9 00 8c c1 9a e5 aa 41
       15.0294895 -1.9887358 -17.500444 21.36211
0000b0 94 cc 95 41 91 db 7f 41 f1 fb dd 40 dd e4 9b 41
       18.724892 15.991105 6.9370046 19.48675
0000c0 de 94 47 c0 e6 01 04 41 92 7c 95 bf da 69 1e c2
       -3.1184611 8.2504635 -1.1678641 -39.60337
0000d0 21 ae a8 c0 86 58 90 41 20 49 c4 c1 15 df 86 c2
       -5.271256 18.043224 -24.535706 -67.43571
0000e0 48 c9 c2 41 7e 27 d8 c0 ac 6f 0d c2 63 d7 be 41
       24.348282 -6.754821 -35.359055 23.85517
0000f0 1e 72 6a 41 60 55 b9 c1 30 28 ff c1 e6 08 92 c1
       14.652861 -23.166687 -31.894623 -18.254345
000100 00 ec a6 c0 90 8d 2f 41 bf 87 e3 c1 44 4a 6c 41
       -5.2163086 10.972061 -28.441282 14.768131
000110 13 01 a2 40 3d 3b e8 c0 e6 0d 26 c1 b0 cb 07 42
       5.062631 -7.257231 -10.378393 33.948914
000120 74 e1 02 41 ab a6 36 c0 ba 93 0e c2 85 ad 74 c1
       8.180042 -2.8539226 -35.644264 -15.292363
000130 2c 4e 66 c0 3d 7a 9a c0 75 99 ad c1 82 20 9f 40
       -3.5985212 -4.8274217 -21.69993 4.9727182
000140 3d 0b 59 41 e1 24 ec c1 b3 61 b2 c1 e5 50 ab c1
       13.565244 -29.518007 -22.297705 -21.4145
000150 fb 1a ea c1 24 9c 88 c0 ba 5c c1 c1 65 c1 96 41
       -29.263174 -4.26906 -24.170277 18.84443
000160 83 e2 9e c1 bc 07 1d c1 c4 8b 26 41 37 3e 23 42
       -19.860601 -9.814388 10.409122 40.810757
000170 1c 02 2e 41 93 d1 08 c1 07 7d 1a 41 35 3a 76 c1
       10.875515 -8.551166 9.655524 -15.389211
000180 53 c8 8d 41 82 4d dc c0 49 ad 00 c2 b9 cc 21 41
       17.722815 -6.8844614 -32.169224 10.112481
000190 d5 90 94 c0 fc 09 2e c2 d9 62 e6 41 1d 40 4a 41
       -4.6426797 -43.50975 28.798265 12.640653
0001a0 85 f5 53 c0 3f 48 a2 c1 92 00 07 42 e6 61 c5 40
       -3.3118603 -20.285276 33.750557 6.1682005
0001b0 09 ba 55 c1 da 20 4a c1 4d d9 3b 40 4b e5 33 c0
       -13.357919 -12.63302 2.935138 -2.81087
0001c0 5e 6a a4 c1 d2 b8 14 c2 bc 00 87 41 2d c5 03 c2
       -20.551937 -37.18049 16.875359 -32.942554
0001d0 d9 10 4d 42 f9 79 5f c0 51 d6 d7 3e f5 e0 6e c1
       51.266453 -3.4918196 0.42155698 -14.929921
0001e0 41 00 6d c1 d1 00 28 40 10 85 68 c1 03 c5 a2 c1
       -14.812562 2.6250498 -14.532486 -20.346197
0001f0 5d 99 70 41 db 90 45 c2 f6 a2 9e bf 8f f5 ae 41
       15.037442 -49.39146 -1.2393482 21.869902
000200 9c 0a ae 41 4d a3 38 c2 74 b8 05 41 f5 3a ca c1
       21.75518 -46.159473 8.3575325 -25.278788
000210 b7 78 a7 c1 b7 c2 16 42 f2 15 0c c2 3e ac 02 41
       -20.933943 37.69015 -35.02143 8.167051
000220 d2 af cd 41 dc 1b 8b 41 36 e9 cf c1 af 7c b0 c1
       25.71085 17.388603 -25.988873 -22.06088
000230 bf 7b 0a 41 e0 bd 8e c1 71 a0 d0 c0 f7 99 46 c1
       8.655211 -17.842712 -6.519585 -12.412589
000240 74 9b 15 c2 c3 49 9e c1 70 1f 61 40 60 c1 1a c2
       -37.40181 -19.786016 3.5175438 -38.688843
000250 b9 f1 e7 40 85 90 fe 40 99 07 0a bf a6 a1 8a c1
       7.248257 7.9551415 -0.53917843 -17.32893
000260 3f 53 8d c1 f2 60 a3 3f fa 7a eb c1 75 c9 a8 c1
       -17.665648 1.276396 -29.435047 -21.098368
000270 e2 4d 01 c2 31 ac 8b bf 3c 3c 84 3f 27 62 d2 3b
       -32.326057 -1.0911924 1.0330882 0.006420392
000280 48 e5 23 c2 8b 03 b2 c1 c6 97 53 c2 8b 64 66 41
       -40.973907 -22.25173 -52.898216 14.399547
000290 f7 a5 74 c2 d5 7f 90 c1 0d ee d0 c1 8f 50 30 c1
       -61.162075 -18.062418 -26.116236 -11.019668
0002a0 b8 c1 6a c2 eb e6 f5 3f 96 29 06 c2 cb 24 09 40
       -58.68918 1.9211096 -33.54061 2.1428707
0002b0 55 5f a9 41 11 b4 91 c1 8d d9 b2 c1 93 6c b2 c0
       21.171549 -18.212923 -22.356226 -5.5757537
0002c0 33 11 9e 3d 31 de ae 41 8c d3 4b 41 d2 3f 25 c2
       0.07718124 21.858492 12.739147 -41.312325
0002d0 f9 c5 87 c2 6f 0a a3 c1 3e c0 3a 41 65 9f 25 c2
       -67.886665 -20.380095 11.671934 -41.40566
0002e0 f0 a3 18 42 73 9f cc c1 a4 00 e5 40 12 49 0d 40
       38.160095 -25.577856 7.156328 2.2075849
0002f0 cc ea a9 3e 9c f7 ce c1 79 76 f1 bf 2a 29 00 41
       0.33186948 -25.870903 -1.886428 8.01005
000300 ed 46 d3 bf 91 f1 d9 41 82 c3 66 41 bd 2c f5 bf
       -1.650602 27.242952 14.422731 -1.9154278
000310 70 1b 34 c1 58 77 6d 41 4c ed 38 c2 f8 92 d6 41
       -11.256699 14.841637 -46.231735 26.821762
000320 e1 20 c7 40 15 8c 73 c0 66 6b 83 41 03 c9 ed 41
       6.2227635 -3.805425 16.42744 29.72315
000330 83 0c 91 c1 e6 bc b0 41 f2 4f 92 41 1d 71 aa c0
       -18.13111 22.092236 18.289036 -5.326308
000340 b3 6a 83 c1 bb e2 09 c2 99 27 31 c2 40 98 a2 40
       -16.4271 -34.471416 -44.28867 5.081085
000350 ab a5 db 41 e8 58 41 41 0d ed 7b 41 4d 2d 54 c1
       27.455893 12.084206 15.745374 -13.26106
000360 03 96 e6 40 af b0 a7 c1 6f c1 67 c0 fa 6e 1c c1
       7.205812 -20.961271 -3.6211812 -9.777094
000370 44 30 04 c2 6c ad 59 c2 89 a9 75 c1 1b 03 1f c2
       -33.047134 -54.419357 -15.35389 -39.753033
000380 79 c0 ff c1 3d ca eb c1 3b 19 8b c1 54 f3 73 41
       -31.96898 -29.47375 -17.38732 15.246906
000390 83 70 16 41 29 07 c4 41 c7 d4 2e 41 69 6a a8 40
       9.402469 24.503496 10.926948 5.2629895
0003a0 53 0f 59 41 e0 42 01 41 35 6a bd c1 d2 42 16 41
       13.566241 8.078827 -23.676859 9.391314
0003b0 ca e7 27 40 ed 2b a6 c0 de 3a 1f c2 d7 d0 a7 c1
       2.6235223 -5.192862 -39.807487 -20.976973
0003c0 e5 de 6f c1 13 1c db c0 cf 3e 28 c2 35 74 2e 42
       -14.991918 -6.847177 -42.061337 43.613483
0003d0 6e 32 43 41 ee 4f e5 bd c6 44 3b 40 db a3 9c bf
       12.199812 -0.11196886 2.9260726 -1.2237505
0003e0 61 48 83 c2 72 1c ef 40 54 88 28 c1 d6 c2 e6 c1
       -65.641365 7.4722223 -10.533283 -28.845135
0003f0 41 ed 49 41 cf eb 0a c1 6a 34 cb 41 a7 68 06 41
       12.620423 -8.68257 25.400593 8.40055

l3/b f4 [256]
000000 11 ce fd 40 6b 61 98 3f 2c 6b 13 40 20 97 99 c0
       7.9314046 1.190473 2.3034163 -4.799698
000010 36 2d a0 41 7f 10 bd 41 c9 6a 86 41 ae c4 5a 41
       20.022076 23.633055 16.802141 13.6730175
000020 db ed 27 41 ad fc 8c 40 cc 93 a3 bf 27 29 1c 41
       10.49557 4.405844 -1.2779479 9.760047
000030 77 c8 c6 3f c2 5a 13 c0 68 23 b9 40 4d 90 42 41
       1.5529927 -2.3024144 5.785572 12.16023
000040 80 16 9f 3b f6 a4 05 41 16 d7 5c 41 6b 79 e8 40
       0.004854977 8.352774 13.802511 7.2648215
000050 eb 8d 36 40 9e 04 3f c0 d0 b1 ed 41 42 57 9a 40
       2.852412 -2.9846568 29.711823 4.8231516
000060 48 1c 01 41 11 c6 11 40 26 2f 09 40 0d 99 e5 40
       8.069405 2.277714 2.1435027 7.174933
000070 5f 8d 94 bc af 78 d6 40 82 4d e3 c0 d2 40 32 41
       -0.018133817 6.702232 -7.1032114 11.140825
000080 87 ae 31 c0 81 e3 14 41 59 fe 51 40 91 84 77 42
       -2.7762773 9.305543 3.2811491 61.87946
000090 67 72 89 40 6f 09 36 c0 6b a9 2a 40 91 20 36 c0
       4.295215 -2.8443258 2.6665905 -2.8457377
0000a0 2e 71 a9 40 14 42 31 41 ac 99 1f 41 3f 50 0d 41
       5.295066 11.078632 9.975018 8.832091
0000b0 54 53 fd c0 a6 06 b0 40 ee 58 01 42 00 fd 13 41
       -7.916422 5.5008116 32.336845 9.249268
0000c0 78 9b 5d 3f b7 a0 a1 c0 15 b6 59 41 2c 07 c8 c0
       0.8656535 -5.0508685 13.606954 -6.2508755
0000d0 a6 1f 2a bd 71 34 35 c0 c0 05 45 c0 cf 1c 62 bd
       -0.04153409 -2.8313258 -3.078476 -0.055203255
0000e0 c0 1e 8b 40 94 5f f3 c0 0e 5f 44 41 9a 09 62 40
       4.3475037 -7.6054173 12.273207 3.531836
0000f0 35 be b7 41 d6 ba 89 bf e8 fe fd bf 2f 68 f9 40
       22.967875 -1.0760143 -1.9843416 7.7939677
000100 10 5c 9b 40 79 74 06 c0 bf 83 3d c0 0e f0 24 41
       4.854988 -2.100859 -2.9611661 10.308607
000110 8b 9e 1b 41 ac 65 51 41 fd 0d 51 41 e4 4c 2d 41
       9.726207 13.087322 13.065915 10.831272
000120 aa a6 95 bf d0 b6 52 41 26 ba 63 40 84 a5 6f 40
       -1.1691487 13.169632 3.5582366 3.7444773
000130 12 7f 24 3f 89 d3 91 3f 52 82 9b 41 98 2a 92 3f
       0.64256394 1.139268 19.438633 1.1419249
000140 71 38 aa 3f 2d 1e 7b 40 3f 5b 5a 3f 45 23 9a 3f
       1.3298475 3.9237168 0.8529548 1.2042013
000150 6f 91 09 41 c4 dd c4 41 4d 23 1d 41 3b 04 17 40
       8.598006 24.608284 9.821118 2.3596332
000160 22 f1 d0 c0 42 91 33 c1 e1 a6 1a 41 82 4d 07 41
       -6.529435 -11.222963 9.665742 8.456423
000170 6a ff 5c 40 fd 2c 3b 41 70 83 02 41 16 19 24 41
       3.4530892 11.698483 8.157089 10.2561245
000180 32 08 bb 41 1a b8 d6 bf e2 bf 83 41 c6 52 12 41
       23.379002 -1.6774933 16.468693 9.145208
000190 79 28 01 41 c5 cf 42 41 79 7f d3 40 58 eb 23 41
       8.072381 12.175725 6.6093106 10.244957
0001a0 30 e4 fe be a6 c0 fc 40 35 09 b6 3f f8 d6 cd 41
       -0.49783468 7.8985167 1.422156 25.729965
0001b0 f2 d2 54 40 cc d3 d6 bf 8c 2d 81 c0 09 08 e8 40
       3.325375 -1.6783385 -4.03681 7.250981
0001c0 74 a5 b1 40 7e 70 e8 40 dc 8f 12 42 ed 5d e2 40
       5.551447 7.263732 36.640488 7.0739655
0001d0 b2 8e af 41 26 d0 60 41 ee f5 5d c0 1d 0e 2e bf
       21.944675 14.0508175 -3.4681354 -0.67990285
0001e0 07 ad 76 41 ef fc 17 41 9a f8 63 c0 17 00 e5 40
       15.417243 9.499251 -3.5620484 7.156261
0001f0 26 5f 22 c0 2a 98 19 bf c5 29 c9 be 8f d1 ae 3f
       -2.5370574 -0.5999781 -0.3928968 1.3657702
000200 3e 8a 21 41 a3 5c 5b 41 7d 7c 90 3f 23 31 02 41
       10.096251 13.710116 1.1287991 8.136996
000210 c1 a4 cb 40 b5 d2 44 41 d1 28 18 42 0b b1 c6 41
       6.3638616 12.301442 38.03986 24.836447
000220 7a 7d a7 40 aa ab 87 3f 26 80 15 41 ce b0 bc be
       5.234067 1.0599263 9.343786 -0.3685364
000230 9e 5d 0b 41 6a cc 01 bf 47 dc 89 40 ce 4f 1c 41
       8.710356 -0.50702536 4.3081393 9.769484
000240 87 91 98 41 e0 fa 7f 40 64 c5 a9 c0 1c d2 06 bf
       19.071058 3.9996872 -5.3053455 -0.5266435
000250 c9 60 37 41 10 85 80 bf 08 fe 48 41 55 7c e7 40
       11.461129 -1.0040607 12.562019 7.2339272
000260 5b e3 39 41 f0 46 fa 3e 6a 8d be 41 da cd 54 c0
       11.618007 0.48882246 23.81905 -3.3250642
000270 d8 bd c7 40 5e 45 39 41 19 61 b5 bf 76 fd 28 40
       6.2419243 11.579435 -1.4170257 2.64047
000280 b4 f1 50 41 52 3f de 41 e9 3f c2 40 ad 70 34 41
       13.05901 27.780918 6.0703015 11.277509
000290 68 1c 81 41 2c d1 e7 40 46 94 d3 40 b7 f7 38 41
       16.13887 7.2442837 6.61185 11.560477
0002a0 22 44 cd c0 93 e9 8f 41 ad 10 ca 3f c4 3e 2d 41
       -6.414567 17.98905 1.5786339 10.827824
0002b0 a6 7e f3 40 ad 21 9d c0 ff ee cf 40 11 bb 85 41
       7.60921 -4.910361 6.4979243 16.716341
0002c0 ec 67 60 40 79 54 ef 40 19 66 28 41 f5 f3 0b 41
       3.506343 7.4790616 10.524926 8.74706
0002d0 12 7a 1d 41 52 2f 9a 41 3b d0 f5 41 b6 71 d6 3f
       9.842302 19.273106 30.726675 1.6753452
0002e0 8d 99 09 41 b8 d0 c2 40 66 da c9 40 55 72 93 40
       8.599988 6.0879784 6.30791 4.6077065
0002f0 12 84 2e 41 97 65 ef bf 46 fd f6 3f 36 2b 78 40
       10.907244 -1.8702878 1.9296043 3.8776374
000300 e1 17 f2 40 34 cf e6 bf 53 15 ce 41 a4 06 17 3f
       7.565415 -1.8031983 25.760412 0.5899451
000310 83 e3 1e 40 ad bf 7e 41 99 c0 2f c0 b7 df e4 40
       2.4826362 15.921796 -2.7461302 7.152309
000320 7b 2b 94 3f f4 f1 b2 bf 62 20 3d 40 ab 6e 1b 41
       1.1575769 -1.3980088 2.9551015 9.714519
000330 e6 7b 90 40 dc 11 69 bf c8 8b 6f 41 82 54 c7 41
       4.5151243 -0.91042876 14.971626 24.916264
000340 f4 9a fd 3f 7d 5a 19 41 db 96 e4 41 0e b4 37 41
       1.9812913 9.584592 28.57366 11.481459
000350 68 4d 23 41 b9 25 01 41 b4 87 a5 40 c1 d7 07 42
       10.206398 8.07171 5.1728153 33.960697
000360 e4 db 00 41 6a 21 5e 40 06 05 84 40 b2 60 84 41
       8.053684 3.4707894 4.125613 16.547215
000370 85 25 6e 42 4d 0c 9f 41 f9 ed db 3e 26 bd 16 40
       59.53664 19.881006 0.42954996 2.3552947
000380 1b 3c 51 41 d5 e3 bd 3f dd f8 1e 41 2f 05 5d 41
       13.077174 1.4835154 9.935758 13.813766
000390 8a 5b 98 bf 51 a2 18 40 f5 d4 fc 3e 84 b4 98 3e
       -1.1902936 2.384907 0.49381223 0.29825222
0003a0 eb ea ed 3e b4 bc 2d 41 3a 95 d1 40 17 70 54 3f
       0.4646829 10.85857 6.549466 0.82983536
0003b0 9f 05 b9 3f 10 9c bf 40 fc a0 dc 40 46 5a 99 bf
       1.445484 5.9878006 6.8946514 -1.1980674
0003c0 de f4 fb 3f a4 2c 06 c1 d9 73 c4 40 98 e5 bf 40
       1.9684103 -8.385899 6.1391416 5.9967766
0003d0 2d 19 7f 41 b5 df 1c 41 50 bb c7 c0 5b a9 7e 41
       15.943646 9.804616 -6.2416153 15.916347
0003e0 60 44 e7 41 0f af d4 40 9c 04 37 41 e3 b2 f4 41
       28.908386 6.6463695 11.438625 30.587347
0003f0 47 20 2a 41 81 b2 0e c0 91 99 7e 40 e3 93 09 c0
       10.63288 -2.229645 3.978123 -2.1496513
