size8/agent_white_106000/model.npz (npz, 608287 bytes, 8 tensors)

l2/W f4 [256, 256]
00000000: 1419 8641 10b2 a6c1 07f8 4bc1 820d 6ac1
00000010: eab2 b7c1 137f c340 aee4 b541 ef10 8441
00000020: fc46 2b41 7c05 e4bf da51 5d41 d408 8241
00000030: c721 8540 145f 5341 8aee 0fc2 0369 13c0
00000040: 3818 8841 5db1 1dc1 e912 9bc1 ed6a 17c1
00000050: 301e c6c1 2654 fb40 1a0b ab40 6f9c 33c1
00000060: c394 36c1 1b35 4dbe 1709 d53e 5620 65c1
00000070: 9512 0542 7471 0542 0196 62c0 f4d7 b2bf
00000080: 5833 1cc1 5f25 78c0 008e 41c1 244c 5140
00000090: 07b7 4b41 1917 a941 f5bf c8c1 2af8 9541
000000a0: 1d7d 72c1 a0f9 44c1 1329 1cc1 6d8e 50c1
000000b0: 952d b5c0 42e0 b241 2c3e 9741 3539 8041
000000c0: db07 34c1 2ef5 e1c1 ebb7 193f 9a25 7b40
000000d0: 65e6 3841 30b7 5bc1 a703 ef3f e9c5 1741
000000e0: a501 87c1 0873 06bf 2b13 7d41 acc0 b93f
000000f0: a08b bcc1 0c6a 0c3e cc6f 003f 27e2 bec0
00000100: 662b 14c1 1785 6ec1 3aee 23c2 4f09 c7c0
00000110: bca4 2c40 7c4a 7541 8456 60c0 331d ab41
00000120: d62e 9241 2340 4e41 c62d 17c1 37dd 5a41
00000130: 08be 4040 c7c1 edbf 061a a541 dd05 2041
00000140: a420 8940 7f51 0540 7365 6f40 1953 08c1
00000150: fafb 0840 1969 b141 23c0 bbc0 4f23 c741
00000160: 20c2 b240 2792 a6c1 29f0 b3bf 635d 8940
00000170: e828 e9c1 f0d6 a540 52d9 7e40 bf8a f740
00000180: 59c9 fbc1 6775 27c0 1c95 d440 f97c f53f
00000190: e905 cac0 c846 48c2 2c57 82c1 6a4b 61c1
000001a0: 6502 d1c1 db72 adc1 76c1 ddc1 f80a 1cc2
000001b0: 7da1 a241 cd23 5bc2 4183 2e40 ed9d 4d3f
000001c0: 6781 4240 e841 cac1 6182 9abe 1b37 d3c1
000001d0: 3d9d 1340 6911 2fc1 1b5b 8d3f 5736 8cbf
000001e0: 6a58 2dc1 fa39 bcc1 5bca a540 9e7f 55c2
000001f0: 6008 b640 9d32 c0c1 daf3 0ec0 149d 9440
00000200: 8adf 9f41 777b 9ac1 c741 983f fa95 c4c1
00000210: 55c6 8041 1fde 8b41 5055 1741 cb19 7c41
00000220: 6b3a 33c2 238f 02c1 9b11 9b41 1b2f 0dc1
00000230: a796 75c1 6b71 0e40 257c 14c1 c7d3 9141
00000240: c191 82c1 8431 0fc2 376c 1242 8d26 0f41
00000250: 9f12 ad41 cd3b f240 3819 65c0 c122 0641
00000260: 4a7d 9240 b58c 64c1 57ed a541 5095 2841
00000270: 756e fec0 3865 32c0 13ee 5f40 953d b6c1
00000280: 80fa 35c0 fd46 9ac1 61a5 8541 f1ee 9f41
00000290: 89ce 92c1 c160 e7c1 9c87 e940 1c30 3641
000002a0: d4d5 02c1 330d 3241 fda0 c1c1 fa45 0fc1
000002b0: ae54 9bc0 9422 ac41 b8b1 34c2 6ae9 1b40
000002c0: 2cf4 00c1 bfe3 2741 e080 13c0 3111 3741
000002d0: dc13 8140 2af8 2042 90c9 edc1 745b 8e41
000002e0: dab0 9941 47b7 0fc2 7efa a6bf 031d c340
000002f0: 9915 17c1 2d7f 8741 578e a541 5b5c a741
00000300: 9a2b 1841 a53e 7640 c367 0f41 d3e7 5140
00000310: 0297 d441 bdfe c140 22f4 9341 51c3 4341
00000320: 8f77 4fc1 d592 9ac1 3ad5 20c2 1451 87c0
00000330: 3397 9fc1 06b6 8ec1 6e0c d6c1 c06e 34c1
00000340: 4791 89c1 df70 52c1 29b8 aac1 b2bf 3540
00000350: 55f6 68c1 a1bc 13c1 9d9d 18c2 cd27 2cc1
00000360: 9f17 7c40 ce63 c840 8045 43c1 32c6 41c1
00000370: 8705 3f40 ac3d 1740 613b 84c0 2195 7cc0
00000380: 8244 46c1 90da f0c1 ab80 903e 0a11 fcc1
00000390: 72b4 5ec1 889b adc1 73e8 8241 32aa 8141
000003a0: 48d8 9141 ddb5 abc1 44c8 ecbd a892 b4c0
000003b0: d567 07c1 a910 2b41 43e1 073f de20 19c1
000003c0: d7e8 da40 f118 bfc0 02ce 3ec1 d74e 1b41
000003d0: f457 cac1 df5c 92c1 10a0 a141 8015 dac1
000003e0: 76ab fd41 e513 dc41 a4bf af41 fd0f b2bf
000003f0: 1fbd 57c1 4640 23c2 09f0 1341 f953 ad41
16.762245 -20.836945 -12.748054 -14.628298 -22.96236 6.109262 22.73666 16.508268
10.70483 -1.7814174 13.832483 16.25431 4.160373 13.210712 -35.98295 -2.3032844
17.011826 -9.855802 -19.384233 -9.463605 -24.76474 7.854022 5.345105 -11.225692
-11.411319 -0.2003979 0.41608498 -14.3203945 33.268147 33.360794 -3.5404055 -1.3972154
-9.762535 -3.877281 -12.097168 3.2702723 12.732184 21.136278 -25.093729 18.746174
-15.155545 -12.310944 -9.760028 -13.034772 -5.661814 22.3595 18.905357 16.027933
-11.251918 -28.244717 0.6004626 3.92417 11.556249 -13.7322235 1.867299 9.485818
-16.875803 -0.52519274 15.81718 1.4511924 -23.568176 0.13712329 0.5017059 -5.9651065
-9.260595 -14.907493 -40.982643 -6.2198863 2.6975546 15.330685 -3.5052805 21.389257
18.27287 12.890658 -9.448675 13.679008 3.0115986 -1.8574761 20.637707 10.001431
4.2852345 2.0830991 3.740567 -8.5202875 2.1403794 22.176317 -5.867204 24.89224
5.586197 -20.821363 -1.4057666 4.2926497 -29.144974 5.1824875 3.9820142 7.735687
-31.473314 -2.6165407 6.643202 1.9178764 -6.3132215 -50.069122 -16.292564 -14.080912
-26.12617 -21.681082 -27.719463 -39.01071 20.328852 -54.78496 2.726761 0.803191
3.039148 -25.28218 -0.30177596 -26.401907 2.306472 -10.941751 1.1043428 -1.0954083
-10.834085 -23.528309 5.1809516 -53.374626 5.6885223 -24.024714 -2.2336335 4.6441746
19.98415 -19.310286 1.1895074 -24.57323 16.096842 17.483458 9.458328 15.756297
-44.80705 -8.1599455 19.383596 -8.824 -15.34928 2.2256725 -9.280309 18.228407
-16.321169 -35.798355 36.60568 8.946912 21.634092 7.5698 -3.5796642 8.383485
4.577794 -14.284352 20.740889 10.536453 -7.9509835 -2.787428 3.498906 -22.78007
-2.8434143 -19.284662 16.705751 19.99167 -18.350847 -28.922243 7.297804 11.386745
-8.177204 11.128222 -24.203608 -8.954584 -4.854087 21.516884 -45.173553 2.4361215
-8.059612 10.493102 -2.304741 11.441697 4.0336742 40.242348 -29.72342 17.794655
19.211353 -35.92898 -1.3045194 6.0972915 -9.442773 16.937098 20.694502 20.920095
9.510645 3.8475735 8.962832 3.2797744 26.573734 6.062346 18.494205 12.235185
-12.966689 -19.321695 -40.20823 -4.228647 -19.948828 -17.838879 -26.75607 -11.277039
-17.195936 -13.152556 -21.339922 2.8398252 -14.56014 -9.233552 -38.15392 -10.759717
3.9389417 6.262183 -12.204468 -12.110888 2.9847124 2.3631392 -4.1322484 -3.946602
-12.391726 -30.10672 0.28223166 -31.50832 -13.919054 -21.700943 16.3635 16.208103
18.230606 -21.4638 -0.11561635 -5.6429024 -8.46285 10.691567 0.530781 -9.570524
6.840923 -5.9717946 -11.925295 9.706748 -25.292946 -18.295347 20.203156 -27.260498
31.708721 27.509714 21.968575 -1.3911129 -13.483672 -40.812767 9.246102 21.666002

l2/b f4 [256]
00000000: ffbe 6b41 18d9 4241 f3b0 0541 93ec 9441
00000010: d864 0d41 bad1 a041 fe14 863e d96a 87c0
00000020: 47c6 7341 5f09 3ebf d818 bf3f e9a0 1641
00000030: 41ba 2440 186c 8abf 658b 8f40 8cbb 1cc0
00000040: 87ae 21bd d590 2c41 703c 2f41 6d0a 1fc1
00000050: 2ff4 0941 c672 d441 d570 6641 5324 95be
00000060: 823d 5f3f 672c 99bf 6fec f73f cb9a 0b41
00000070: 552e 3441 f84a 6ac0 eb87 9741 ef0b 1341
00000080: 416a 9c41 65f6 3441 9059 5a41 ba08 2e3f
00000090: 7a19 23c1 17c1 3241 3d59 3ac0 0f9c 4841
000000a0: 057a 0d41 0ec6 4e41 5d7c 6941 5de5 86c0
000000b0: d02d 2241 2081 9441 d678 5fc1 6d4c 5941
000000c0: 43e7 dec0 e502 7dc0 a539 bf41 8109 63c1
000000d0: 7f2d 5341 8357 8241 7ccd 4741 f898 18c1
000000e0: 4f33 24c0 6a85 4341 eab4 0940 fd30 76bf
000000f0: adad f440 e237 b8c0 a1ca 64c0 c40d e8bf
00000100: 4294 7d40 b8c6 a8c0 a9ac 0240 1cf0 9041
00000110: 7f91 b5c0 39d3 f5c0 fc5a f340 5b9d fd40
00000120: 1b76 c040 4217 a0c0 3f02 31c1 a8f8 6d41
00000130: eb9b cec0 942b 20c1 7022 8041 d68d 3241
00000140: 7e31 ac41 61e6 7841 3cf7 8641 ea24 7c41
00000150: b3c7 3041 0102 31c0 8450 3b40 0c84 02c1
00000160: 072d 4cc1 afaa 31bf 0048 12c0 ad15 1c41
00000170: a36b 49c1 7649 8441 b59a 6ebf db3d 0ec1
00000180: cc57 ffc0 28e4 4840 a66b b940 dadf 05bf
00000190: d110 b241 23f0 a140 5bd3 b340 e861 0341
000001a0: 3b4a 67bb 65df 5f41 9886 84c0 82be a1bf
000001b0: 04ee ad41 07b9 9141 75ef 4840 8586 9741
000001c0: 121a 6941 c7b5 8741 5198 08c1 bfa4 9741
000001d0: c460 6041 42cf 7841 55bb 2140 8fe3 9141
000001e0: 60c3 3a41 d7fc a541 7f76 6c40 f975 5e41
000001f0: 1384 6541 81da 6d41 d2be 8841 f523 4c41
00000200: 84bc 9a40 4d6b 5141 008c 38c1 4045 5941
00000210: 7cab 5f41 84c2 b141 c413 f540 d7c3 2bbf
00000220: ebda b341 957e 6841 15ca 16c0 09f0 a841
00000230: 3cea d840 03c3 01c1 acbb 4e41 e3d5 7d41
00000240: 997a 6d41 5d0c 67c1 d3fd 88c1 2182 1141
00000250: 4890 4541 5c38 1ac0 ee8a a141 7fb1 a6c0
00000260: 81dc 5641 9490 1fc0 56e0 0441 34f7 34c0
00000270: 81ee 3641 16b3 5641 f27f 8641 2841 46c1
00000280: 5c80 6841 bf42 2641 0e92 11c1 9741 2640
00000290: 10fd 7941 049b f9c0 4cc7 29c1 d97e 8541
000002a0: 95a1 a241 1448 ecbf 3c0d 8f41 4e8c 6e41
000002b0: 2426 2b41 2eed 893f 7352 7ac1 a272 5640
000002c0: ba6c 4c40 eb94 7441 804d 28c0 7ce2 3641
000002d0: 653f 2341 9de1 5e41 506a 2cc0 2899 6740
000002e0: 8796 6b41 8592 3e41 72a7 883f 96c3 5b41
000002f0: 2ea2 1a41 25df 7241 0f94 1b41 6903 0940
00000300: 25c5 f53d 2428 5841 6243 7641 29e6 6c41
00000310: 51ba 2e3f 8b50 3b41 3783 6bc0 974c eb40
00000320: 7094 8641 3b0d c03f 21a0 9741 3b22 7041
00000330: 3590 9441 be01 b041 c939 27c1 5eab 1a40
00000340: fa2d fd3f 0cf8 b941 0a5f 6441 1b4d 2240
00000350: ee46 5941 a8a6 0141 0e51 7f41 bd68 4a41
00000360: 1dfa 00c0 85fa 9d41 0cbd 8641 e251 2141
00000370: ef72 8341 de4c 8b41 411e 4441 6792 8c41
00000380: 4650 7a41 092c 4f41 de44 523f 5de3 3e41
00000390: 5a88 4cc1 76a5 ad41 fea5 6041 d345 8e41
000003a0: f2aa a4c0 a6f6 5dbf 6aa2 9ebf 8e3f 093f
000003b0: 7f0d 8841 871d 17bf 940a 8241 5c49 cfc0
000003c0: 85fb fdc0 3803 e4c0 dac4 4441 894b c341
000003d0: ec39 193e 7b9f 41c0 2cb3 9b40 bbf7 07bf
000003e0: 4c35 7941 426e 4e41 8417 8841 b042 8741
000003f0: 3ccb 2141 43e0 6f41 1455 9041 efce 9b40
14.73413 12.178001 8.3557005 18.615515 8.83712 20.102406 0.2618789 -4.231793
15.235908 -0.7423305 1.4929457 9.414285 2.573868 -1.0814238 4.485766 -2.448947
-0.039473083 10.785359 10.952255 -9.940045 8.622115 26.556042 14.402547 -0.29129276
0.8720323 -1.1966676 1.9369029 8.725291 11.261312 -3.6608257 18.941366 9.190413
19.551882 11.310155 13.646866 0.67982066 -10.19372 11.172141 -2.9116967 12.5381
8.84229 12.923353 14.592862 -4.2154984 10.136185 18.56305 -13.967001 13.581159
-6.96573 -3.9533017 23.903147 -14.18982 13.198607 16.29273 12.487667 -9.537346
-2.5656316 12.220072 2.151667 -0.961685 7.6462007 -5.7568216 -3.5748675 -1.8129201
3.962174 -5.2742577 2.0417883 18.11724 -5.6740108 -7.682034 7.6048565 7.9254584
6.014417 -5.002839 -11.063048 14.873207 -6.456533 -10.010639 16.016815 11.159628
21.524166 15.556245 16.87072 15.759012 11.048755 -2.7657473 2.9267893 -8.157238
-12.760993 -0.6940107 -2.2856445 9.755292 -12.5887785 16.53587 -0.93204814 -8.890101
-7.9794674 3.1389256 5.7943907 -0.52294695 22.258211 5.0605636 5.61955 8.211403
-0.0035292048 13.99204 -4.14143 -1.2636263 21.741219 18.215345 3.1396153 18.940683
14.568865 16.963758 -8.537187 18.955442 14.023624 15.5506 2.5270588 18.236113
11.672699 20.748457 3.6947324 13.903802 14.344745 14.865846 17.093174 12.758779
4.835512 13.0886965 -11.53418 13.579407 13.979366 22.219978 7.658663 -0.670957
22.481894 14.530904 -2.356084 21.117205 6.778593 -8.11011 12.920818 15.864718
14.842431 -14.440518 -17.123938 9.09427 12.347725 -2.40969 20.192837 -5.209167
13.428834 -2.4931993 8.3047695 -2.827588 11.4332285 13.418722 16.812473 -12.390907
14.531338 10.391295 -9.098158 2.5977533 15.624283 -7.800173 -10.611156 16.686937
20.328897 -1.8459496 17.881462 14.909254 10.696812 1.0775506 -15.645129 3.3507466
3.1941361 15.286357 -2.6297302 11.430294 10.202977 13.930081 -2.6939888 3.618723
14.72425 11.910771 1.06761 13.73525 9.664595 15.179479 9.723647 2.1408331
0.12000493 13.5098 15.391451 14.806191 0.68253046 11.707164 -3.6798837 7.3530993
16.82248 1.5004038 18.953188 15.008357 18.570414 22.00085 -10.451608 2.4167094
1.9779656 23.246117 14.273203 2.5359561 13.579817 8.103188 15.957289 12.650571
-2.0152657 19.747324 16.842308 10.082491 16.43112 17.412533 12.257386 17.571486
15.644598 12.948251 0.82136333 11.930509 -12.783289 21.705791 14.040525 17.784094
-5.1458673 -0.8670448 -1.2393315 0.536126 17.00659 -0.5902943 16.255165 -6.477705
-7.936953 -7.125393 12.298059 24.411882 0.14963502 -3.025359 4.8656216 -0.5311238
15.575512 12.901918 17.011482 16.907562 10.112118 14.992251 18.041542 4.8690104

l1/W f4 [256, 64]
00000000: 9c2d 7542 cb1a 1ac1 b154 93c1 24a4 2741
00000010: 43d9 f341 bf38 0141 60bf 1340 20f2 afbd
00000020: eb59 ffc0 3f4f a241 77de ddc1 311f 4141
00000030: cbfd b6c1 daae 7341 b0d4 1e3f 9167 dec1
00000040: 8dc8 0cc1 70a2 7f40 a269 2cc0 bd3a 21c0
00000050: 4ff2 7741 e180 ddc0 3f93 2142 f24f 9d40
00000060: 01b4 ac41 014c 86c0 65b7 9d41 5d6d 8bc1
00000070: c0c2 0ec1 6a16 bb41 ee3b 3841 bb81 5540
00000080: 7615 a93f 499a 2641 62ff 1941 1d8d 46c1
00000090: 792f 973e 0f0f e5c0 c5af 8b40 d016 4c41
000000a0: e340 a041 9e54 cd40 5d86 ccc0 e626 e241
000000b0: 0bf0 a340 9371 bcbd db86 be40 b405 4ec1
000000c0: eab8 cebf 5458 8a41 4c89 253e 42ef c340
000000d0: 0ef2 5941 fd34 8740 16e3 133f 434e ed41
000000e0: 5af8 cd41 aa9a 14c1 f293 7dc0 3f08 02c1
000000f0: 1327 d440 6bd8 03c0 f98a aac0 4019 18c2
00000100: cb19 9f41 86ee 85c1 7d71 ee41 b325 d2c0
00000110: 91d0 c9c0 72a8 38c2 ae67 9d41 d775 7b41
00000120: 0438 e6c1 7056 983f 7668 1941 ba18 5fc1
00000130: 804b 98c1 1bd1 e6c1 a5b0 7840 5ff6 b1c1
00000140: a861 d941 764b aec1 bacc ac40 2abe b2c0
00000150: 7f1d c540 01e7 aa40 9e92 8f41 bbf1 b5c1
00000160: 0ab7 8341 26c5 1ac0 bd30 0f40 08ff 48c0
00000170: c99b 2140 bffb 5ac1 4b47 39c1 2b56 96c1
00000180: fa9f 89c0 a7d9 ddc0 4412 2141 f94c 9abf
00000190: f35e 3c40 1f86 c7bf fa10 df41 66fd 67c1
000001a0: bed8 2241 c18b d8c1 e7c9 bc41 a7bc dd40
000001b0: 69ae d6c0 990e d341 72da 1142 7957 93c1
000001c0: cf54 bdc0 18b9 3ec1 0a39 e9c0 0b3b 30c2
000001d0: 880c d840 115e 4741 91f1 9a41 c562 41c1
000001e0: f3e7 60c1 82f2 87c1 5b52 b0c1 3b09 a7c1
000001f0: ef42 1642 ba2c 6e41 a9c2 c03f db99 5841
00000200: 7f86 5e41 2503 7d41 3715 303f 0021 7141
00000210: 29fd de40 7568 cd41 9ff6 c840 fdd3 ad41
00000220: 8984 0c42 fcf1 bac0 7a11 42c1 0d0c bd40
00000230: 2b8c 1c41 1c90 fb41 f798 5941 201e b640
00000240: 1c9c b040 7a2e 4741 9d26 58c1 e86f 073f
00000250: b0c3 9a40 97e6 2241 6db0 f541 0fc8 f6c0
00000260: 97ea 4242 c8b3 bdc1 2463 ed40 7893 8640
00000270: 2ada 45c0 2206 8741 05b3 b9c0 0130 2bc1
00000280: 40e1 1bc1 01d3 4441 7800 0ac2 7084 10c0
00000290: 60bd de3f 027e 1540 8e6c bec1 e7e9 adc1
000002a0: ea4c 91c1 a189 9ac1 7ef8 eec0 8c61 d6bc
000002b0: a82d 4141 9aeb 8e40 9fd1 2d41 39f4 dac1
000002c0: 4e4e 04c2 1c83 d2c1 2a53 75c1 025e ef3e
000002d0: b841 f741 9532 fcc0 7f59 8941 2845 f5c1
000002e0: 884b ff41 4816 4541 baea a2c1 dc88 c441
000002f0: 60f3 16c1 9209 9e40 b1e6 3541 12e2 8641
00000300: 4853 b3c1 8572 e241 5a79 0fc1 0cd8 da40
00000310: a39b 1740 db6a c241 dc2a a341 489a 0ec2
00000320: b69f a641 e64b 52c2 0c15 4cc1 b51e 1240
00000330: 9543 52c1 46b1 9b41 88b8 eb40 74b9 dfc0
00000340: 9b74 a240 9ee5 a2c1 598a a5bf ac43 c1bf
00000350: 6c97 e341 0d46 11be d3f5 0141 b568 2bc1
00000360: f0a5 d9c0 fb53 05c0 9597 8241 2b7d 97bd
00000370: 33c4 51c0 2366 5341 c85f 32c0 3489 8fc1
00000380: 698b a0c1 de89 e541 fcfc ab41 110d 83bf
00000390: 8868 4b3e b35c 04c1 066c 9ec1 52f4 5240
000003a0: 9ea7 0941 d685 6cc1 1978 d8c1 6840 0dc1
000003b0: 4082 a03f 789d 9a41 6099 8541 7472 29c2
000003c0: cd09 26c1 6a8a 9bc1 3142 d4be 23c8 17c2
000003d0: b03b cdc0 a9b4 0042 165a e541 67be 39c1
000003e0: 9e89 5ac2 f019 c441 4f6d 27c2 bb2e b240
000003f0: 6010 fbc1 01a9 60c0 c0e4 2542 d226 0cc1
61.29454 -9.631541 -18.416353 10.477573 30.481085 8.076354 2.3085556 -0.085911036
-7.9797263 20.288694 -27.733625 12.070115 -22.873922 15.230188 0.62043285 -27.80057
-8.798963 3.9942894 -2.6939473 -2.51921 15.496657 -6.9219823 40.393795 4.916009
21.587893 -4.196778 19.714548 -17.4284 -8.922546 23.385944 11.514631 3.3360431
1.3209674 10.412667 9.624849 -12.4094515 0.29528406 -7.158088 4.3652062 12.755569
20.031683 6.4165792 -6.391402 28.268993 5.123052 -0.0920135 5.953962 -12.876392
-1.6150181 17.293129 0.16165656 6.1229563 13.621595 4.2252183 0.5776838 29.663214
25.746265 -9.28776 -3.9621549 -8.127013 6.62977 -2.060084 -5.3294644 -38.02466
19.887594 -16.741467 29.805414 -6.567102 -6.30671 -46.164497 19.675625 15.7162695
-28.777351 1.1901379 9.588003 -13.943537 -19.036865 -28.852102 3.8857815 -22.245298
27.172684 -21.786846 5.399991 -5.5857134 6.1598506 5.3406987 17.94659 -22.743032
16.464375 -2.418283 2.2373497 -3.1405659 2.5251334 -13.686461 -11.5799055 -18.792074
-4.3007784 -6.932819 10.066959 -1.205474 2.9432952 -1.5587806 27.88329 -14.499365
10.177916 -27.06824 23.598585 6.929279 -6.7087903 26.382128 36.463326 -18.417711
-5.9166026 -11.920189 -7.288213 -44.05766 6.7515297 12.460465 19.367952 -12.086614
-14.056628 -16.993412 -22.040213 -20.879507 37.565365 14.88592 1.5059406 13.537562
13.907836 15.813268 0.6878237 15.070557 6.9684033 25.676004 6.280105 21.72851
35.12943 -5.842039 -12.129267 5.907721 9.784221 31.445366 13.599845 5.6911774
5.5190563 12.448847 -13.509427 0.5290513 4.8363876 10.181296 30.711145 -7.711921
48.72909 -23.712784 7.418352 4.2055016 -3.0914407 16.877995 -5.803103 -10.69922
-9.742493 12.301515 -34.500458 -2.2580833 1.7401543 2.335816 -23.803005 -21.73921
-18.162556 -19.317202 -7.4678335 -0.02616956 12.073647 4.46626 10.863677 -27.36925
-33.07647 -26.314018 -15.332804 0.4675141 30.90709 -7.8811746 17.1687 -30.658768
31.91188 12.31794 -20.364613 24.566826 -9.434418 4.9386683 11.368821 16.860386
-22.415665 28.305918 -8.967127 6.838873 2.3688743 24.302176 20.395927 -35.650665
20.827984 -52.57412 -12.755138 2.2831242 -13.1414995 19.46156 7.366276 -6.9913883
5.076734 -20.362118 -1.2932845 -1.5098777 28.448936 -0.14186879 8.122516 -10.713063
-6.801506 -2.0832508 16.324015 -0.07396921 -3.2776 13.212436 -2.787096 -17.941994
-20.068071 28.692318 21.498528 -1.0238363 0.19864094 -8.272632 -19.802746 3.2961621
8.603422 -14.782675 -27.058641 -8.828224 1.2539749 19.326889 16.69989 -42.36177
-10.377393 -19.442585 -0.4145675 -37.945446 -6.413536 32.176426 28.668987 -11.608985
-54.63439 24.512665 -41.856747 5.5682044 -31.382996 -3.5103152 41.47339 -8.759478

l1/b f4 [256]
00000000: 85d9 5fc1 ad76 3340 6371 ee40 f5cd 0240
00000010: d4c8 bec0 f6a3 e040 c735 9ac0 5b3a c840
00000020: 607f 7a3f e8bf ff40 c15c 0bc2 43ae 4c41
00000030: 2497 94c0 6fb4 35c1 c6ea d53e 926b 28c0
00000040: a42d d240 4f0c 0a41 12fd 1941 dfd3 1740
00000050: f239 1f41 bee0 7e40 d537 af40 97ec 3141
00000060: 9ba7 59c0 26db 12c2 a7bc ba40 9d05 6940
00000070: 3414 0c41 dec4 4d3f 3c47 6340 60dc c440
00000080: a199 bc40 52bb c940 412f dac1 d06e 2341
00000090: 2d02 d841 1926 6441 b0de dc40 301c 4741
000000a0: 4747 1641 3b76 5cc1 8922 8fc0 a7c0 82c1
000000b0: e569 17c1 d473 2841 97d8 26c1 959f 49c0
000000c0: 27a3 5cc1 f78b 0a41 5b94 4fc1 d716 5d41
000000d0: 277a 6641 28c6 0ec1 96a3 f33f 688c e53f
000000e0: 240a 60c1 b900 19c1 3566 5541 5ae5 7440
000000f0: 485e 4c41 0208 5bc0 d5a2 5c41 c04c 93c1
00000100: 32d1 c6bf 8200 6741 50b4 80c1 63c7 c8bf
00000110: ac3d 96bf a38f 36c0 7043 7b40 0291 58bf
00000120: 7d04 3341 9bc4 c740 9be5 74c0 b33f 84c1
00000130: b3a0 4241 cb3d c8c0 3f13 71bf 1cd0 ec41
00000140: ea67 4940 8f29 18c2 38da bbc0 2070 9f40
00000150: f19b 2541 4105 dd3f 5e84 3440 7587 1b40
00000160: 3eb7 3e41 bd35 5c41 2fe4 163f 6306 9c40
00000170: 9314 6041 fcdc dbc0 6764 2a40 0012 c3c0
00000180: 1c6a 0dc2 ed50 e1c1 dd5a 1b41 074b 13c1
00000190: 68d4 ba40 11e2 2141 6363 1440 91a0 35bf
000001a0: de4f 1441 7ec6 3c40 d981 08c0 dba2 13c0
000001b0: 59c0 84c1 93e8 8041 41d3 b6c0 2d35 7740
000001c0: 4edc 7e41 273a 3541 2262 abc0 b573 49bf
000001d0: c93b e040 1877 bc3f 77e0 4b40 0822 753f
000001e0: cecd 9641 ca10 6ac1 0bfb 83c1 a789 1640
000001f0: 4bae eabf d73c 32bd d0ec aac0 ea80 8cc0
00000200: c1f3 e7c1 cb7a bfc0 3b68 8441 a410 dcc0
00000210: 924e 9641 8213 e640 ebb4 d3c0 0aca ce40
00000220: c21c bcc1 78ef 5ac1 ec5e 74c0 ae46 6cc0
00000230: a21c d1c1 70f3 52c0 68af 5741 8ce1 4dc1
00000240: b954 aec0 b594 0141 3cf7 1a41 2e2c 0c3f
00000250: ac52 d040 3398 9cc1 6a30 4ec1 bc0b fc40
00000260: ba48 ab41 bc37 3dc1 a163 3bc1 d284 1141
00000270: 35e3 5bc1 f2ee 3641 e529 1cc2 1953 8941
00000280: a410 8d40 24f9 b0bf 8cae 07bf b246 3041
00000290: 539d 1441 5646 f1c1 5df4 2a41 6cc7 1dc1
000002a0: c9cb d5bf 0791 12c2 f770 58c1 56ef 05c1
000002b0: a336 8cbf edb7 ef40 e7fc a041 410c 47c1
000002c0: a876 313c 3481 6440 5f2e a2c0 d511 3e40
000002d0: e9d8 b640 7913 c6bf e994 1441 5263 1bc0
000002e0: e879 9040 daae d240 0f94 74c1 3a50 5e41
000002f0: 83df 5a40 4b30 f83f 5728 a5c0 9a30 0e41
00000300: a1de fe40 7c4c 0540 42b4 3ec1 5407 3941
00000310: b8c4 4641 00fa 34c1 5807 b340 e58c 3f41
00000320: def5 20c1 9a8a ef3f 8965 bec0 54e3 5940
00000330: 7522 2841 1004 59c1 9ce3 aac0 e400 d7c1
00000340: 370e 3940 c6e6 723f a917 25c2 937a f23f
00000350: a270 cbc0 af7a 5341 4b10 a1c0 086f 69bf
00000360: fddd 6cbf f918 a8c1 bc1f d4c0 697c 6ec1
00000370: de39 8fc1 602f 5641 c110 003f 23f7 46c2
00000380: d270 8741 d1f4 dd40 ba34 1540 5b4f 1d3d
00000390: a2b1 0840 a4f6 9e41 415c 3241 c073 9ac0
000003a0: 00df 0841 023f 1bc0 7777 7741 8ce8 00c1
000003b0: 15ef c2bf 26b3 5abf 93ff 22c2 6941 7b40
000003c0: 227e 8cbf af08 96c1 a6fb a8c1 563c 06c1
000003d0: 5755 38c2 4aa3 64c2 9c25 03c1 7c8d 88c1
000003e0: bfb9 4041 b483 0f41 59fe 29c1 dd92 033f
000003f0: c1b0 a8c1 a9e3 2841 4c99 1340 b808 97c1
-13.990605 2.8041184 7.451341 2.0438206 -5.962015 7.020015 -4.8190646 6.2571235
0.9785061 7.992176 -34.84058 12.792544 -4.64345 -11.356551 0.4178068 -2.6315656
6.5680714 8.628005 9.624285 2.3723066 9.951647 3.9824672 5.4755654 11.120261
-3.4008548 -36.714012 5.835529 3.6409676 8.754932 0.8037852 3.5512228 6.1519012
5.8937535 6.3041162 -27.273073 10.214554 27.001062 14.259301 6.9021835 12.444382
9.392402 -13.778865 -4.4729657 -16.344069 -9.463353 10.528278 -10.427878 -3.150365
-13.789832 8.659171 -12.97372 13.818076 14.404822 -8.923378 1.9034297 1.7933474
-14.002476 -9.562676 13.337453 3.8264985 12.773018 -3.4223638 13.789754 -18.412476
-1.5532591 14.437624 -16.088043 -1.5685848 -1.1737571 -2.852517 3.925991 -0.84596264
11.188596 6.2427497 -3.826514 -16.531103 12.164233 -6.257543 -0.9416999 29.601616
3.1469674 -38.040585 -5.870388 4.982437 10.350572 1.7267228 2.820579 2.4301426
11.919737 13.76312 0.5894193 4.8757796 14.005023 -6.8707256 2.662378 -6.0959473
-35.353622 -28.164515 9.709683 -9.205817 5.8384285 10.117692 2.318566 -0.7094813
9.269499 2.949615 -2.1329253 -2.306815 -16.59392 16.113562 -5.713288 3.8626206
15.928785 11.326697 -5.355729 -0.7869218 7.007298 1.4723845 3.1855752 0.9575505
18.85049 -14.629099 -16.49758 2.3521516 -1.833444 -0.043515053 -5.341408 -4.3907366
-28.99402 -5.9837394 16.550894 -6.8770313 18.788364 7.1898813 -6.6158347 6.462163
-23.514042 -13.683464 -3.8182936 -3.691814 -26.13898 -3.2961082 13.480324 -12.867565
-5.447842 8.098805 9.68536 0.5475491 6.510092 -19.574316 -12.88682 7.8764324
21.410511 -11.826107 -11.711823 9.094927 -13.74297 11.433336 -39.040913 17.165575
4.4082813 -1.3826032 -0.5300071 11.01726 9.288409 -30.159344 10.684659 -9.861187
-1.6702815 -36.64163 -13.527579 -8.370932 -1.0954174 7.491202 20.123487 -12.440492
0.0108315125 3.570386 -5.0681605 2.9698384 5.7139783 -1.5474693 9.286355 -2.427937
4.514881 6.583844 -15.286147 13.894587 3.419892 1.9389738 -5.1611743 8.886866
7.9646764 2.0827932 -11.919008 11.564289 12.423027 -11.311035 5.5946465 11.971898
-10.060026 1.8714173 -5.9498944 3.4045 10.508412 -13.563492 -5.3402843 -26.875435
2.8914926 0.9488338 -41.273106 1.8943657 -6.357499 13.217452 -5.033239 -0.91185045
-0.9252623 -21.012194 -6.628874 -14.905374 -17.903255 13.386566 0.50025564 -49.741344
16.930088 6.936135 2.3313432 0.038405757 2.1358418 19.87043 11.147523 -4.8266296
8.554443 -2.4257207 15.466666 -8.056774 -1.5229212 -0.8542961 -40.749584 3.9258673
-1.0975993 -18.75424 -21.122875 -8.38973 -46.08334 -57.159462 -8.196682 -17.069084
12.045348 8.969654 -10.624597 0.5139597 -21.086306 10.555581 2.3062315 -18.879257

l4/W f4 [64, 256]
00000000: 2a0d 3c42 4bf1 3f42 6cb5 2f42 430d 9f42
00000010: eb19 0942 a187 4542 feb2 4742 bb4f 3542
00000020: 35ef 3442 81a6 6342 200e 4442 ee25 4c42
00000030: 7e33 5142 3613 7242 d6e3 4b42 d5f6 3a42
00000040: e939 5042 198f 3a42 1d38 3d42 f41b 5942
00000050: 7b45 3e42 e366 3a42 d3d9 3442 0dd6 0942
00000060: 91b6 4342 6c70 2642 b773 6542 74b0 8642
00000070: a9c2 7342 2c9d 5142 2df1 9942 185a 5342
00000080: b3c1 5742 1441 4942 5f29 5942 3a68 9e40
00000090: 33d2 5b42 f833 2742 9f7d 6042 961a 3f42
000000a0: e3dd 1642 1881 2b42 9242 6f42 2871 4c42
000000b0: 3a0d 6c42 d016 3142 2ffc 0342 8db3 3d42
000000c0: 9b3f 4942 edae a442 74f2 3642 69c4 8642
000000d0: 4bd7 4f42 a689 5542 905e 7342 2cf8 a142
000000e0: 0b52 4442 6359 9742 caa0 6c42 49d8 7442
000000f0: e47f 2242 5eca 8e42 18ec 5a42 5454 3f42
00000100: 7bdd 3942 261f a042 4dbd 8c42 1d4b 2842
00000110: aa73 e641 318e 2242 f247 6742 9029 4942
00000120: 74ed 5a42 1ab9 3242 1072 3342 6eeb 2742
00000130: a518 4c42 fcfd 4842 5560 3a42 5c1c 4542
00000140: 54df 4542 22ed 5842 78c8 6442 0a9e 6e42
00000150: 1fa9 3642 bfb0 1042 3dd2 5f42 bbde 5842
00000160: f3e1 9742 cd8c 9942 941e 5642 aad6 0842
00000170: 8dc3 6e42 95b6 5042 1579 5642 41bc 1142
00000180: f41e 4442 09e0 5342 6e1f 3042 8647 0842
00000190: d2f1 5042 2f49 3942 5f5e 4a42 fe27 7342
000001a0: 6e42 3b42 ebc6 2f42 2e15 3f42 cca6 2842
000001b0: d520 7942 8580 4a42 c72d 4742 74a7 3b42
000001c0: 8a9c 1542 30e7 4342 9ed0 fb41 5be7 0e42
000001d0: f740 4342 c193 1542 b0ec 5a42 8307 4b42
000001e0: 036c 3442 0bf5 2d42 3c75 4942 8e68 3942
000001f0: e3bf 5342 871e 5242 aac8 6042 68b0 5042
00000200: fc86 5342 f0a9 1242 2592 3742 9324 6742
00000210: c253 3742 b657 d041 d755 b241 0ba7 0042
00000220: 6444 1c41 c737 4242 92c2 4042 ad14 4042
00000230: 7682 3e42 8228 5742 4994 5242 4f9b 4042
00000240: ca1b 0d42 6d23 2242 318a 5742 a464 3b42
00000250: f59c 5042 7168 6642 681f 0e42 ad28 6b42
00000260: e690 5842 7b32 7042 ba6f 9a41 ae41 4042
00000270: 1cc0 4e42 328a 5842 b52f 3042 83fb 4b42
00000280: 94c3 0242 d138 1c42 1b1d 4242 304c 5a42
00000290: 2d65 1f42 ce99 4a42 ce91 5742 6658 1d42
000002a0: fc96 8242 d447 8a42 9b9f 5142 90a4 5142
000002b0: c8a0 7042 07be 6e42 792e 3242 679a 5b42
000002c0: 9123 4742 d85d 3642 8bfb 3942 fb93 1342
000002d0: 49fd 7342 6c0c 5642 bbfb e441 092a 5642
000002e0: f519 5242 a64a 3b42 1106 3c42 ce0e 4642
000002f0: 3ba8 4a42 75b9 3f42 b926 3c42 72db 4542
00000300: 7b7c 1e42 8ea9 4842 fa80 0142 f2d9 6e42
00000310: 6f87 4142 9bd8 3e42 3886 5442 1ef6 4942
00000320: d0dc 3342 2ee2 4642 8b1b 4942 55e4 2342
00000330: 4ca4 6942 93e0 8842 a8a0 5d42 d117 2842
00000340: db60 5542 0550 4f42 7c52 1242 31da fe41
00000350: 04c7 4742 37a3 4042 8ad6 2d42 b3ca 2b42
00000360: d9e0 5642 c3d3 5242 0959 4542 58b1 4a42
00000370: 8311 cc41 f847 4842 d72d 5842 fe42 3942
00000380: e481 5842 a065 2c42 63ae 4b42 c2e0 5642
00000390: 5c65 6942 2e6a 1642 97b5 4642 f367 3042
000003a0: 6c89 5d42 841b 3742 48ec 3d42 ef6e 3342
000003b0: 2751 2842 0a72 4542 c231 7442 e473 b142
000003c0: 15da 6942 b03c 5842 59dd 4f42 1aca 5342
000003d0: 8d02 5f42 6ac7 4142 8d09 5742 c15f 2242
000003e0: afe5 0a42 f3cb 4c42 c637 3242 914a 8d42
000003f0: 4d21 0442 79de 3d42 bc33 5f42 7bca 6842
47.012856 47.985638 43.92717 79.5259 34.27531 49.38245 49.924797 45.32786
45.2336 56.9126 49.013794 51.03704 52.300285 60.51876 50.972496 46.741047
52.056553 46.639744 47.3048 54.277298 47.567852 46.600475 45.21272 34.459034
48.928288 41.609787 57.363003 67.344635 60.940098 52.40349 76.97105 52.837982
53.93916 50.313553 54.2904 4.950223 54.955273 41.80075 56.122677 47.775963
37.716686 42.87607 59.81501 51.110504 59.012917 44.272278 32.996273 47.425343
50.312115 82.34165 45.73677 67.38361 51.960247 53.384422 60.842346 80.98471
49.08012 75.67458 59.15702 61.211216 40.624893 71.39525 54.73056 47.83235
46.46629 80.06084 70.36973 42.073353 28.806477 40.63886 57.82026 50.29059
54.731888 44.680763 44.86139 41.97991 51.024067 50.24803 46.594074 49.277695
49.468094 54.231575 57.19577 59.654335 45.665157 36.172604 55.95531 54.21751
75.94131 76.775 53.52986 34.209633 59.690968 52.178303 53.618244 36.43384
49.030228 52.968784 44.030693 34.069847 52.236153 46.32147 50.59216 60.789055
46.814873 43.944256 47.770683 42.162888 62.282063 50.625507 49.794704 46.91353
37.40287 48.97577 31.476864 35.725933 48.813442 37.39429 54.73114 50.757336
45.10548 43.4893 50.364487 46.352104 52.93739 52.52981 56.19596 52.17227
52.88182 36.665955 45.89272 57.785717 45.831795 26.042828 22.291914 32.163128
9.766697 48.55447 48.19001 48.02019 47.627403 53.78956 52.64481 48.15167
35.277138 40.534595 53.884953 46.84828 52.15328 57.601994 35.53067 58.789722
54.141502 60.049297 19.304554 48.06414 51.687607 54.134956 44.04659 50.995617
32.690994 39.055485 48.528423 54.5744 39.848804 50.6502 53.892387 39.336327
65.29489 69.14029 52.405865 52.410706 60.157013 59.685574 44.545383 54.900784
49.784733 45.591644 46.495647 36.894512 60.99735 53.51213 28.622915 53.54105
52.52535 46.8229 47.005924 49.514458 50.664288 47.93111 47.037815 49.464302
39.621563 50.16558 32.375954 59.712837 48.38226 47.71153 53.131073 50.49035
44.965637 49.72088 50.276897 40.97298 58.410446 68.43862 55.40689 42.02326
53.344585 51.828144 36.58055 31.856539 49.94435 48.15939 43.45951 42.94795
53.719578 52.7068 49.33695 50.673187 25.50855 50.070282 54.044765 46.315422
54.126846 43.099243 50.9203 53.71949 58.348984 37.60369 49.677334 44.101513
55.3842 45.77687 47.480743 44.858334 42.07925 49.361366 61.04859 88.72635
58.46297 54.059265 51.96616 52.947365 55.75249 48.44474 53.759327 40.59351
34.7243 51.19917 44.554466 70.64564 33.03252 47.46726 55.80052 58.197735

l4/b f4 [64]
00000000: 2f46 c2c2 ed44 c2c2 d443 c2c2 7341 c2c2
00000010: cd48 c2c2 df42 c2c2 e642 c2c2 e145 c2c2
00000020: 9e40 c2c2 f64b c2c2 8945 c2c2 cc53 c2c2
00000030: dc48 c2c2 4d4b c2c2 bf47 c2c2 044a c2c2
00000040: bf43 c2c2 e24d c2c2 0049 c2c2 254f c2c2
00000050: b855 c2c2 d445 c2c2 1c4a c2c2 303f c2c2
00000060: 484b c2c2 d246 c2c2 b148 c2c2 1245 c2c2
00000070: 7a3f c2c2 5946 c2c2 3342 c2c2 114a c2c2
00000080: 134a c2c2 204b c2c2 644b c2c2 6d4b c2c2
00000090: 8451 c2c2 1945 c2c2 254c c2c2 4b4b c2c2
000000a0: cb4a c2c2 3155 c2c2 054f c2c2 2c4b c2c2
000000b0: 3645 c2c2 f242 c2c2 324c c2c2 6e47 c2c2
000000c0: fb46 c2c2 6741 c2c2 0e49 c2c2 3955 c2c2
000000d0: c54e c2c2 624c c2c2 7153 c2c2 a242 c2c2
000000e0: 4a40 c2c2 4f4c c2c2 8143 c2c2 ce4a c2c2
000000f0: 984a c2c2 6f4d c2c2 9b49 c2c2 da3f c2c2
-97.13708 -97.13462 -97.13248 -97.12783 -97.14219 -97.13061 -97.13066 -97.13648
-97.126205 -97.14836 -97.13581 -97.163666 -97.1423 -97.14707 -97.14013 -97.14456
-97.13232 -97.152115 -97.14258 -97.15458 -97.16742 -97.13638 -97.144745 -97.12341
-97.14703 -97.13832 -97.141975 -97.1349 -97.12398 -97.1374 -97.129295 -97.14466
-97.14468 -97.14673 -97.14725 -97.147316 -97.15921 -97.13496 -97.14872 -97.14706
-97.14608 -97.16639 -97.154335 -97.14682 -97.13518 -97.13075 -97.14882 -97.13951
-97.13863 -97.12774 -97.142685 -97.16645 -97.15385 -97.149185 -97.16297 -97.13014
-97.125565 -97.14904 -97.13184 -97.1461 -97.14569 -97.15124 -97.14376 -97.12471

l3/W f4 [256, 256]
00000000: d851 8b41 eba5 0fc1 7839 67c1 28ac 5c40
00000010: 97dd ab41 689b 7141 7f68 8440 a9f4 dd40
00000020: de6f afc0 dc03 8ec0 b310 f941 9154 c941
00000030: 2f36 9abf 662f a440 0d0c db3f 9a2b cac0
00000040: 7e8a 5a41 1268 b3c0 d5f3 9bc1 4e84 8c40
00000050: 8ea2 26c2 0b06 5cc1 e1d9 7741 abf0 4440
00000060: 6afc 5a3e aaaa 4941 ff7d d540 c63a 19c2
00000070: fe6b 0641 62ff d23f 4aee 29c1 50b0 2541
00000080: 5dcf 5441 67d9 52be 1258 233f 6ba2 f540
00000090: 13c9 24c1 6175 65c1 48ca 86c1 1f2a e540
000000a0: 221f 16c0 c942 9441 dfb2 13c1 5912 9e41
000000b0: f5a8 2341 c5cc fa41 859f 3441 bfe3 0941
000000c0: 8360 b33f 6a30 8940 eb85 e7c0 91b4 e8c1
000000d0: 40bc b6c0 2dd9 8241 fd57 39c1 ca82 35c2
000000e0: b867 9c41 167d c040 981d dac1 691d 3f40
000000f0: 14d0 6041 f7d7 86c1 789d 40c1 0596 b3c1
00000100: 5318 1fc1 220a 4341 b2e0 eec1 39a7 28c0
00000110: cae5 fb3f a39d 1ec1 fb9f 9ac1 120f e341
00000120: 7279 b140 03c1 293f db81 dac1 138f 90c1
00000130: 667f 54c1 71be 77c1 90d7 1d40 986d 5f41
00000140: 5e0e d83e b307 19c2 3527 a5c1 d88e 81c1
00000150: 93a1 22c1 3f87 8bc1 9c6e dac1 61eb 0240
00000160: 83cb 0bc2 c2b3 1241 c48b 2641 0a1d 2642
00000170: c012 7740 6aff e7c0 077d 1a41 faa2 afc1
00000180: d497 5341 6daf e63e e36a c5c1 b9cc 2141
00000190: 5239 b3c1 336b e5c1 22e4 f641 700a 6a41
000001a0: 871b fe40 438c 3dc0 63a1 bc41 e661 c540
000001b0: 0349 9dbf 5028 d4c1 4dd9 3b40 446d 6bc1
000001c0: 9a1a a4c1 7123 b5c1 23bd 6c41 f1f0 51c0
000001d0: 6aeb 2142 fdce 4d3f de6d 63c0 4747 e2c1
000001e0: 2654 a0c1 d389 79bf 27f1 a43f e085 0cc2
000001f0: 71f5 6c41 81cb 9bc1 70e7 aabe 663f bb41
00000200: 1c99 9741 f53f 08c2 ba20 5a41 cd30 03c1
00000210: fe38 4fc1 3f3a b741 93ab 19c2 3eac 0241
00000220: 3e98 8341 f08a 1041 a8ec 1bc2 073a 9741
00000230: e0fa 91c0 9f78 8fc1 4351 8a41 f04d f5be
00000240: 98d7 0ec2 68c7 98c1 c9ca dfc0 8c52 eac1
00000250: eed6 f9c0 8590 fe40 bff1 adc1 e34e 98c1
00000260: ca8a 5ac1 bbab 81c0 edb0 2dc1 7be2 26c1
00000270: 4664 b8c1 3ddf 8741 025f a140 3f25 7fbf
00000280: b6fc a040 1218 85c1 9c5c 3dc2 8b64 6641
00000290: 20fc 2dc2 987b 3ac1 f838 60c1 cd85 9b40
000002a0: fef4 56c2 df23 5441 4bc2 07c2 a7e4 6e40
000002b0: 471c ce40 2a4a 15c1 a31c 8e3f d688 f1c0
000002c0: fbce 52c1 327c f93c 4582 4841 7898 9fc1
000002d0: 080f 5fc2 cf1c 59bf ea77 8c40 9b9d 48c1
000002e0: 6f1b 7041 e2a1 00c2 a400 e540 062f 9041
000002f0: 0725 a041 2fbe efc0 210a 4dc1 9345 2a41
00000300: f9e4 b140 9540 e441 83e1 2241 5a30 b140
00000310: 752a 2dc1 9e60 db41 6499 15c2 caf5 f240
00000320: 7fc7 8d40 af17 19c1 6aa5 bfc0 28fb b741
00000330: b4d3 8dc1 2b91 c941 b16e c641 ae8b d8c1
00000340: 823f f4c0 0a67 08c2 88df 13c2 5c3c c53f
00000350: ce00 ef41 98e0 9241 03da a841 bf0e 20c1
00000360: 0396 e640 79b2 18c1 2c46 f43f 7f83 7bc0
00000370: 63cd 1cc2 b723 f6c1 c148 a740 9645 46c2
00000380: 0abf dfc1 e881 f8c1 a21f 7bc1 2d84 08c0
00000390: f404 a441 4b67 0242 3571 3840 e7c4 0940
000003a0: 7d77 fd40 e042 0141 1bea 9ac1 d242 1641
000003b0: 8c98 b540 3cfb 40c0 ec63 f7c1 105a 9fc1
000003c0: 338a 70c1 065f 2241 4233 11c2 870b 8041
000003d0: 6e32 4341 a75c 6ec0 c409 0f41 dba3 9cbf
000003e0: 2a11 8cc2 766a 6341 9232 9bc0 d42b 96c1
000003f0: 61f5 a640 6e73 34c1 8f8a cc41 a768 0641
17.414963 -8.978007 -14.45153 3.4480076 21.483198 15.100441 4.137756 6.9361157
-5.4824057 -4.437971 31.133154 25.166292 -1.2047786 5.130786 1.7113053 -6.3178225
13.658812 -5.606454 -19.494059 4.3911505 -41.658745 -13.751475 15.490693 3.0771892
0.21385351 12.604166 6.6716304 -38.307396 8.401365 1.6484187 -10.620676 10.355545
13.300626 -0.20590745 0.6380626 7.6760764 -10.29909 -14.341157 -16.84877 7.1613917
-2.3456502 18.53261 -9.23117 19.758959 10.228749 31.349985 11.288945 8.618102
1.4013828 4.28716 -7.2350974 -29.088167 -5.7104797 16.356043 -11.5839815 -45.377724
19.550644 6.0152693 -27.26445 2.98617 14.0508 -16.855452 -12.0384445 -22.448252
-9.943439 12.189974 -29.859715 -2.6352065 1.9679501 -9.913486 -19.328115 28.382359
5.546075 0.6631014 -27.313406 -18.06986 -13.281103 -15.4839945 2.466282 13.964256
0.4219846 -38.25752 -20.644144 -16.194748 -10.164447 -17.441038 -27.304008 2.0456164
-34.948742 9.168886 10.409122 41.52836 3.8605194 -7.2499285 9.655524 -21.954578
13.224567 0.45055714 -24.67719 10.112481 -22.402988 -28.677343 30.861393 14.627548
7.9408603 -2.961686 23.578802 6.1682005 -1.2287906 -26.519684 2.935138 -14.714176
-20.512989 -22.642305 14.796176 -3.280331 40.479897 0.80393964 -3.5535808 -28.284803
-20.041088 -0.9747593 1.2886094 -35.130737 14.809922 -19.474367 -0.33379698 23.405956
18.94976 -34.062458 13.63299 -8.199414 -12.951414 22.90344 -38.417553 8.167051
16.449337 9.03392 -38.98111 18.903334 -4.5618744 -17.933897 17.289679 -0.47911024
-35.71054 -19.097366 -6.993504 -29.290306 -7.8074865 7.9551415 -21.74304 -19.038519
-13.658884 -4.052213 -10.855695 -10.430293 -23.048962 16.984003 5.0428476 -0.9966621
5.0308485 -16.636753 -47.34044 14.399547 -43.496216 -11.655174 -14.013908 4.860083
-53.73925 13.258758 -33.93974 3.7327058 6.440952 -9.330606 1.1102489 -7.5479536
-13.175532 0.030454729 12.531804 -19.949448 -55.76468 -0.84809583 4.389638 -12.538478
15.006698 -32.15809 7.156328 18.02296 20.01808 -7.491966 -12.814973 10.641986
5.559201 28.531534 10.180057 5.5371523 -10.8228655 27.422176 -37.399796 7.5925035
4.4306026 -9.568282 -5.988942 22.997635 -17.72837 25.195883 24.804049 -27.068203
-7.6327524 -34.100624 -36.968292 1.5409045 29.875393 18.359665 21.106451 -10.0036
7.205812 -9.543572 1.9083915 -3.929901 -39.200573 -30.767439 5.227631 -49.567955
-27.96828 -31.06343 -15.695223 -2.1330674 20.502419 32.600872 2.8819096 2.152643
7.920836 8.078827 -19.36431 9.391314 5.6748714 -3.0153341 -30.92379 -19.918976
-15.03374 10.148199 -36.300056 16.005629 12.199812 -3.724405 8.939884 -1.2237505
-70.03352 14.213491 -4.849923 -18.7714 5.2174535 -11.278181 25.567656 8.40055

l3/b f4 [256]
00000000: 57ba 6e40 27f0 0340 25f4 a340 e9cc 55c0
00000010: f7a1 ad41 df27 b541 ee39 3941 7756 6441
00000020: dd47 0e41 0c9e 2140 b762 fdbf bed1 6a41
00000030: c06d 7f40 31bd e4be 284d d340 8d19 2f41
00000040: d9d2 e03e 7f22 8b40 55bf 3441 2b7a ec40
00000050: cfd3 993f 9466 1e40 aefb f041 dcf1 bc40
00000060: 4f07 f740 b98d f740 e907 8f3f 15b8 3b40
00000070: 8e0c 4840 e122 0541 d53a 1fc0 589a 0241
00000080: f1f6 7f3f 478d 0141 b3b7 dd40 eb1b 3e42
00000090: cebd 543f df09 7ac0 32db 2f3e e4ac 7ebf
000000a0: 6f5e 0c41 af55 fd40 19c8 1841 3d5d 1041
000000b0: e503 8dc0 b070 0a41 43b7 d441 af20 9c40
000000c0: 867a 8a3f d5b9 a4c0 4ee8 2341 67e9 09c1
000000d0: 6200 5ac0 7134 35c0 9972 51c0 b6ba 113e
000000e0: c149 0fc0 02ff 87c0 f915 3741 8411 9c40
000000f0: 8ebb b441 12ac 91bf 6996 16c1 d645 ff40
00000100: a79a 393e 63b0 a6c0 81c2 ebbf 3c8c db40
00000110: 5535 fa3f 06f6 1d41 b9a7 0541 830d 4741
00000120: 81c7 f83f 5455 2b41 6b79 b340 97cb 1040
00000130: 50f3 393f 2ffe ecbf 6464 5541 e566 723e
00000140: bc1e 9c40 965a 8e40 58ae 373e c295 e140
00000150: ead9 0941 910e bc41 c083 c340 b306 f93f
00000160: f92f 6dc0 2678 25c0 eabd 1841 9acf 6940
00000170: 0ad7 6540 31a7 3d41 547f e040 87de 2f41
00000180: 450f b441 2dae 28c0 6686 9141 997b 1841
00000190: 7e67 0d41 ccd0 eb40 dcad b640 260a b040
000001a0: ba35 153f a971 1641 a947 9a3f f621 cc41
000001b0: 75f1 88bf 6bbc 5440 e1d1 7ac0 7727 a740
000001c0: 5da6 d03f 00a9 1b41 28e8 0142 ab51 1141
000001d0: 9d85 5e41 b73a 7941 b7ae a840 4b9e 49c0
000001e0: 32ef 2641 6b32 ef40 4f4f c8bf e045 1e40
000001f0: df96 0fbf 99be d43f 0245 dc3f 61c9 1040
00000200: 9f54 1541 941a 6d41 11f7 4c3f 095c 913f
00000210: 113b a240 07bc 2241 d79e 0342 2717 ac41
00000220: 5aee c4bf c6d0 e93f 652f 0640 a1a2 5cc0
00000230: d0a3 0b41 4020 9240 6c45 a140 5596 2341
00000240: 802b 5b41 3b93 08c0 23de cfc0 0011 a5be
00000250: f007 4e41 b796 4e3f 57e1 5f41 1d33 b640
00000260: 90ae 1a41 c623 8040 e215 9f41 6a98 5940
00000270: f666 c440 3109 f240 aba0 5fc0 a839 0c40
00000280: db9a 4d41 e2c0 ea41 fa63 ec40 0ffe 1e41
00000290: f434 4d41 d267 cc40 81a4 1340 b15a 0941
000002a0: a1bd ce3e 9662 ac41 b626 4e40 cec3 c340
000002b0: 37ed 6740 0a2f efc0 ed17 c040 d157 8841
000002c0: 98f5 98bf 0fe3 ac40 0786 ef40 e7e6 1641
000002d0: a15f 0a41 4595 8241 cf5a e541 835c 9a3f
000002e0: 3066 c640 0f4b 3441 ba9d a63f 7ec9 9240
000002f0: a1b1 3341 346e 55c0 9ef6 71c0 6e56 f740
00000300: e700 4140 00e0 d0be 8b87 c641 c195 0340
00000310: 723b 49c0 634f 8341 c060 efbf 28fa 0141
00000320: eb5f 273f 6a65 5140 2cf3 3b3f ab6e 1b41
00000330: 3c42 b540 1c40 9b40 0aa2 2441 c6eb c441
00000340: fc13 5440 ed13 3441 12bf c541 2246 4b41
00000350: 0cd3 fe40 1218 af40 65f1 6a40 3a8f ec41
00000360: 72ba 2741 8fd2 86bc 3d17 6b40 ba26 1441
00000370: d7b9 6142 79c0 bf41 8792 e13f ff45 2140
00000380: 030c 0d41 2df6 eb3f c3b7 a440 5b58 6141
00000390: 4217 d63d a443 303f 0415 fb3e 924c a93f
000003a0: a42f cb3f d4cb 0741 9264 8b40 532f c13f
000003b0: 7055 2ec0 d30a 8640 dd70 a740 baa4 a33e
000003c0: 6f2d de3f 7ebd 8ec0 a94b bb3e 30c6 d540
000003d0: a1ec 0e41 68ec ac40 09e6 45c0 64b0 4341
000003e0: ecb0 dd41 f98d b040 da94 0e41 d1dd f541
000003f0: 27fa af40 c39c 15c0 da19 b040 bd2a 973f
3.7301233 2.0615327 5.123553 -3.3406317 21.704084 22.644468 11.576643 14.27111
8.892545 2.5252714 -1.979575 14.676207 3.9910736 -0.44675592 6.6031685 10.943738
0.43910864 4.347961 11.296712 7.389913 1.2017764 2.4750109 30.12289 5.904524
7.719642 7.73605 1.1174289 2.9331105 3.1257663 8.321015 -2.4879658 8.162682
0.9998618 8.096992 6.928674 47.527264 0.8310212 -3.9068525 0.1717346 -0.9948256
8.773055 7.9167094 9.548852 9.022763 -4.4067254 8.652512 26.589483 4.8789897
1.0818641 -5.1476846 10.244215 -8.619483 -3.4062734 -2.8313258 -3.2726195 0.14231381
-2.2388766 -4.249879 11.442864 4.877138 22.59158 -1.1380637 -9.411721 7.977275
0.18125401 -5.2090316 -1.8418733 6.8608685 1.9547526 9.872564 8.353448 12.440799
1.9435884 10.708332 5.6085715 2.2624261 0.7263689 -1.8515071 13.337009 0.23672064
4.8787518 4.448558 0.179376 7.049531 8.615702 23.507113 6.109833 1.945517
-3.706053 -2.5854583 9.546366 3.653296 3.59125 11.853318 7.015543 10.991828
22.507456 -2.6356308 18.190624 9.530175 8.837767 7.369238 5.708723 5.501239
0.58285105 9.402749 1.2053119 25.516582 -1.0698687 3.3240001 -3.91906 5.2235675
1.630077 9.72876 32.476715 9.082438 13.90762 15.576835 5.2713275 -3.1502864
10.433397 7.4749045 -1.5649203 2.4730148 -0.56089586 1.6620666 1.720856 2.2622912
9.333159 14.818989 0.80064493 1.1356212 5.0697103 10.170905 32.905117 21.511305
-1.5385239 1.8266838 2.0966427 -3.447426 8.727493 4.566437 5.0397243 10.224202
13.69812 -2.1339862 -6.4958663 -0.32239532 12.876938 0.8069872 13.992515 5.6937394
9.667618 4.004367 19.885685 3.3999276 6.1375685 7.563622 -3.4941814 2.191019
12.8503065 29.344181 7.387204 9.937026 12.825428 6.3876734 2.3069155 8.584641
0.4037905 21.548138 3.2211127 6.117652 3.6238534 -7.474492 6.0029206 17.04288
-1.1949949 5.402717 7.4851108 9.431373 8.648347 16.322886 28.66934 1.2059482
6.199974 11.268325 1.3016884 4.587096 11.230866 -3.3348513 -3.7806773 7.7293005
3.01568 -0.40795898 24.816183 2.0560153 -3.1442533 16.413763 -1.8701401 8.123573
0.65380734 3.2718148 0.73417926 9.714519 5.6643353 4.851576 10.28956 24.615124
3.3137197 11.254865 24.718296 12.704622 7.9632626 5.4716883 3.6709836 29.569935
10.483019 -0.016457824 3.6732934 9.259455 56.431484 23.96898 1.7622842 2.5198972
8.815433 1.8434502 5.147432 14.084071 0.10453655 0.6885321 0.4903947 1.3226492
1.5873914 8.487263 4.3560266 1.5092567 -2.7239647 4.1888213 5.2325273 0.31961614
1.7357615 -4.4606314 0.36581162 6.680443 8.932771 5.403858 -3.0921652 12.230564
27.711388 5.5173306 8.911341 30.733309 5.499286 -2.337693 5.5031557 1.1809918
