size8/agent_black_141000/target_model.npz (npz, 608695 bytes, 8 tensors)

l2/W f4 [256, 256]
000000 80 d9 62 be 5f 75 83 c1 45 df 05 c2 ad c0 5f c1
       -0.22153282 -16.43231 -33.468037 -13.98454
000010 7f 37 30 c2 60 cd 39 41 f6 7f d0 c0 dc d0 8f 41
       -44.054195 11.61264 -6.51562 17.976982
000020 1a c2 62 41 33 0f c8 c1 1d 46 4c 41 a5 9a a3 41
       14.172388 -25.007421 12.7671175 20.45051
000030 79 88 1a 3f 8f e0 b9 c0 42 dc bd c1 c3 86 97 bf
       0.6036449 -5.808662 -23.732548 -1.1838001
000040 36 90 88 41 6e 3a 38 c1 79 c6 8f c1 85 8b 4a c1
       17.070415 -11.514265 -17.97191 -12.659062
000050 77 5e f8 c1 d5 9f 4f 41 7e 0c 7a 40 a8 e8 f9 c0
       -31.046125 12.9765215 3.9070125 -7.8096504
000060 5a 73 68 c1 aa 12 07 c1 44 73 4c 41 31 df 16 c1
       -14.528162 -8.442057 12.778141 -9.42949
000070 a1 39 d6 41 97 35 2f 42 89 7d f3 40 d0 1f 03 41
       26.77814 43.802334 7.609074 8.195267
000080 ed 90 5a c1 bd 8b 24 40 35 1f ac c1 eb ff 90 40
       -13.660382 2.571029 -21.515238 4.53124
000090 c6 54 bb 41 fe fd 41 41 18 4c 04 c2 e4 ee 47 41
       23.416393 12.12451 -33.07431 12.495823
0000a0 e2 0b 06 c1 4f fa 37 40 1d f0 96 c1 11 66 a3 c0
       -8.377901 2.8746526 -18.867243 -5.1062093
0000b0 c0 40 83 c0 bc e5 ee 41 a1 7a 3e 41 c7 f2 c2 41
       -4.101654 29.862175 11.904939 24.368544
0000c0 e3 01 77 c0 88 ec d2 c1 99 93 04 40 2c 53 4c 40
       -3.8594902 -26.365494 2.0715086 3.1925764
0000d0 ce 43 34 3f 94 d6 db c1 36 d8 1e 41 40 a9 4b 41
       0.7041596 -27.479774 9.927786 12.728821
0000e0 dc a9 46 c1 a6 bb d7 c0 54 f3 8b 41 c9 40 4b 41
       -12.41647 -6.7416563 17.493813 12.703317
0000f0 5d aa b1 c1 0c 4e da 40 ca 9c ce 40 38 de 5e c1
       -22.208185 6.822027 6.4566393 -13.929253
000100 a7 56 8e c1 2d fd fc c1 51 64 a5 c1 2c 5c ad c1
       -17.79231 -31.623621 -20.673983 -21.670006
000110 19 51 07 41 4f 27 a1 40 48 4b 17 c0 5f 3d 09 41
       8.457299 5.0360484 -2.3639698 8.577483
000120 b4 9e d1 41 4d bd 97 41 2f 38 3e c1 c2 7a 2b 41
       26.202492 18.967432 -11.888717 10.71747
000130 be d6 21 40 e8 af 93 c1 72 36 ba 41 88 f0 25 41
       2.5287318 -18.460892 23.276585 10.371223
000140 9d 39 89 41 6f 01 88 bf c7 91 a7 40 2a 58 8b c1
       17.153131 -1.0625437 5.236545 -17.418049
000150 a1 4c e3 3f a5 f3 7d 41 f8 2c a4 bf 7f fc 00 42
       1.775776 15.871984 -1.2826223 32.24658
000160 67 90 3b 41 19 2d a4 c1 64 8f ce 3f 74 4d 9b 40
       11.7227545 -20.52202 1.6137509 4.8532047
000170 2d ba a8 c1 7b 2d 29 40 fb 43 d2 40 aa ba b6 41
       -21.090906 2.643401 6.5707984 22.841145
000180 01 a0 10 c2 98 70 d0 bf c2 d7 9c 40 a0 e4 c4 3d
       -36.156254 -1.6284361 4.9013376 0.09613919
000190 6d f2 87 c0 20 39 46 c2 29 a3 12 c1 50 94 8a c1
       -4.248343 -49.555786 -9.164834 -17.322418
0001a0 bf 88 34 c1 af dc 1a c2 c6 3c de c1 09 f3 7a c2
       -11.283385 -38.71551 -27.779675 -62.73734
0001b0 9e a3 a1 41 f9 f8 42 c2 35 ba f5 40 11 df 8e c0
       20.204891 -48.743137 7.6789804 -4.46473
0001c0 a7 c6 3f 40 5d 5e ac 40 d5 99 86 40 d4 00 14 c2
       2.9964998 5.386519 4.2062783 -37.00081
0001d0 76 7c 6d c1 aa 67 8e c1 a6 2d 71 c0 bd 8e 60 c1
       -14.842886 -17.800617 -3.7684112 -14.034848
0001e0 93 2f e5 c0 5b 0f fe c1 a5 a4 e9 40 86 e0 43 c2
       -7.1620574 -31.757498 7.301348 -48.96926
0001f0 d6 34 8e 40 56 a8 0d c2 48 98 5b c1 98 08 39 40
       4.4439497 -35.41439 -13.724678 2.8911495
000200 55 bc a3 41 4c 3c ec c1 80 a5 6f 3f 1d 0b 66 c2
       20.466959 -29.529442 0.9361191 -57.510853
000210 8a 27 6f 41 85 ab ac 41 db dd a3 40 24 41 84 41
       14.947153 21.58375 5.120832 16.531807
000220 79 e9 7a c2 b1 30 81 c1 c4 19 ff 40 83 cb de bf
       -62.728 -16.148775 7.971895 -1.7405857
000230 9d 55 0c c2 b9 a4 81 c1 5c 32 58 c1 6a c6 c6 41
       -35.083607 -16.205431 -13.512295 24.846882
000240 25 62 5e c1 c0 ee 89 c2 f7 37 fe 41 03 e5 23 41
       -13.898961 -68.96631 31.777327 10.243411
000250 0e 11 07 42 34 c9 32 41 c9 98 32 c0 ca 11 4b 41
       33.766655 11.174122 -2.7905753 12.691843
000260 12 cf 90 41 63 0c 7a c0 1a 89 98 41 97 3d ae bf
       18.101109 -3.907006 19.066944 -1.3612546
000270 64 a7 e2 c1 ce a5 67 c1 ee bb 89 40 4e 83 fb c1
       -28.331734 -14.47798 4.3041906 -31.439114
000280 e9 a7 d6 c0 02 32 fe c1 0e 59 8d 41 42 dc b2 41
       -6.707997 -31.774418 17.668484 22.357548
000290 6b 79 a1 c1 49 61 7a c1 e7 bd c0 c0 0b 46 94 41
       -20.184286 -15.648751 -6.0231814 18.5342
0002a0 83 19 0c c2 83 13 f3 40 6b 2e cb c0 1c aa 26 c1
       -35.024914 7.596132 -6.3494163 -10.416531
0002b0 35 3b f2 c0 df 09 97 41 bf 7e 61 c2 bc f7 1d c0
       -7.5697274 18.87982 -56.373775 -2.4682455
0002c0 56 5a da c1 ae 23 8d 41 0b 79 45 41 39 9c 18 41
       -27.29411 17.642422 12.3420515 9.53814
0002d0 12 3e ed 40 77 2b 5d 42 b4 8c a2 c1 d2 c8 dd 40
       7.413827 55.292446 -20.318703 6.930764
0002e0 35 c3 7d 41 37 ff 1a c2 9a 37 17 40 20 d8 45 40
       15.860158 -38.749233 2.3627687 3.0913162
0002f0 88 3f 35 c2 79 37 f2 41 a1 03 ba 41 b9 40 4e 41
       -45.312042 30.277086 23.251772 12.890801
000300 59 8a d9 41 05 36 81 c1 3e 39 90 41 96 be 19 41
       27.192553 -16.151377 18.02795 9.60903
000310 80 49 d0 41 f3 ce 79 41 ef fb ad 41 a4 82 2a 41
       26.035889 15.613025 21.748014 10.656895
000320 89 4c 4e c1 b3 a1 d6 c1 cc 18 91 c1 c1 3d 86 c1
       -12.893685 -26.828955 -18.137108 -16.780153
000330 3e e0 a5 c1 9b 28 ba c1 af 90 b9 c1 d6 d1 dd c1
       -20.734493 -23.269827 -23.195646 -27.727459
000340 11 40 f8 c1 9f 46 98 c0 dc 32 e0 c1 78 85 1a 40
       -31.031282 -4.7586207 -28.024834 2.4143963
000350 77 3e 4b c1 00 a1 30 c1 91 ab 10 c2 2e a6 b9 c1
       -12.70275 -11.039307 -36.167545 -23.206142
000360 7d 37 00 c1 78 6e f4 3f 7b 7c ca c1 7f 58 85 c1
       -8.013547 1.9096212 -25.310781 -16.668211
000370 65 bd 84 c0 e6 8e 03 41 62 6c ba c1 a0 1e 61 c0
       -4.1481194 8.222387 -23.302921 -3.5174942
000380 50 8d 9b c1 78 f7 10 c1 0a c9 04 bf 80 1d 13 c2
       -19.444 -9.060417 -0.5186926 -36.77881
000390 aa b4 13 c2 d1 6a b4 c1 f1 96 e0 40 ed c2 b1 40
       -36.92643 -22.552156 7.0184255 5.5550447
0003a0 f6 62 49 41 d3 2d ba c1 ce ef 8e 41 93 00 95 c1
       12.58666 -23.272375 17.867092 -18.62528
0003b0 3c c8 a4 c1 b6 65 0b 42 8f 32 3d c0 e9 e2 1d 41
       -20.59777 34.849327 -2.9562109 9.867898
0003c0 02 54 c4 40 5d 30 88 c1 f6 77 12 c1 d8 7c c7 3f
       6.135255 -17.023615 -9.154287 1.5584974
0003d0 cf 5b 28 c2 af 80 f8 c1 5e f4 f3 41 c9 1d b6 c1
       -42.089657 -31.062834 30.49432 -22.764544
0003e0 13 45 04 42 83 f1 fc 41 f3 47 00 42 95 32 2c bf
       33.067455 31.617926 32.070263 -0.6726468
0003f0 4e 95 c8 c1 09 b6 35 c2 dd 16 03 c0 d2 6b 44 41
       -25.072903 -45.42777 -2.0482705 12.276323

l2/b f4 [256]
000000 96 9c 7b 41 93 71 fc 40 52 8a 3c 41 92 fb c5 41
       15.725729 7.888864 11.78377 24.747837
000010 a0 96 4a 41 e9 61 9f 41 fe 14 86 3e 1f 8c 50 c0
       12.661774 19.922808 0.2618789 -3.2585523
000020 e6 a7 82 41 42 b9 c3 c0 0f 40 50 40 5e 38 30 41
       16.331982 -6.1163645 3.2539098 11.0137615
000030 d7 0c 63 c0 da d2 72 c0 65 8b 8f 40 9f 14 29 40
       -3.5476587 -3.7941194 4.485766 2.6418836
000040 87 ae 21 bd a9 18 87 41 95 ec 42 41 11 92 60 c1
       -0.039473083 16.887041 12.182759 -14.035661
000050 47 ca 1c 41 dd db f5 41 c9 ac 8e 41 e9 7c d8 bf
       9.799384 30.732355 17.834368 -1.691312
000060 67 30 74 40 90 0f 37 bf bb 01 06 41 5e 44 ad 40
       3.8154542 -0.7150812 8.3754225 5.4145956
000070 7e 11 7b 41 0a 53 0e c0 5f 9c d3 41 c9 51 76 41
       15.691771 -2.2238183 26.451353 15.394967
000080 86 74 a2 41 08 d4 a7 41 75 6e 63 41 ba 08 2e 3f
       20.306896 20.97853 14.214467 0.67982066
000090 0c 1b 82 c1 96 2b 8c 41 f5 4e 55 c0 36 67 5f 41
       -16.263206 17.521282 -3.3329442 13.962698
0000a0 d2 b7 0e 41 0f 3e 7c 41 54 33 8d 41 e1 8b c5 bf
       8.919878 15.765151 17.650063 -1.5433313
0000b0 db 74 53 41 96 0a 9c 41 2d 2d 96 c1 14 53 8a 41
       13.216029 19.505169 -18.772058 17.290565
0000c0 02 0d 55 c1 a7 0d f7 c0 d7 81 00 42 99 25 ca c1
       -13.315676 -7.7204165 32.126797 -25.268358
0000d0 7c fd 8f 41 26 59 a3 41 35 a5 7a 41 a0 a7 80 c1
       17.998772 20.41853 15.665334 -16.081848
0000e0 fb 8d 53 c0 11 c1 6d 41 4f f6 0e 40 40 58 b2 3a
       -3.3055408 14.859635 2.2337835 0.0013606623
0000f0 bd 65 77 41 27 21 ea c0 89 7f ea c0 d4 b8 ac c0
       15.462338 -7.316547 -7.3280683 -5.397562
000100 4b 2c 02 40 15 8d ff c0 8d 5e fc 3f 73 0c d6 41
       2.0339534 -7.985972 1.9716355 26.756079
000110 1f a6 54 c0 f2 00 14 c1 25 2d a3 40 c4 38 fc 40
       -3.3226392 -9.250231 5.099261 7.8819294
000120 7c 41 75 3f 38 94 17 c1 4a 5d 3d c1 c9 ae a4 41
       0.95803046 -9.473686 -11.835276 20.585344
000130 d0 96 19 c1 7d 6f 18 c1 33 02 62 41 d9 d4 02 41
       -9.599319 -9.527219 14.125537 8.176965
000140 75 d3 cf 41 ef 8d 90 41 a5 ac a7 41 5a fd 86 41
       25.97825 18.069304 20.9593 16.873707
000150 c1 79 90 41 50 91 50 c1 2e 12 1a 40 3c 04 73 c1
       18.05945 -13.035477 2.4073596 -15.188534
000160 f0 6c 81 c1 67 b3 a1 c0 00 48 12 c0 8b 28 03 41
       -16.178192 -5.0531497 -2.2856445 8.197398
000170 d2 bb 1a c1 e3 98 a9 41 b5 9a 6e bf 35 de 22 c1
       -9.670855 21.199652 -0.93204814 -10.17925
000180 ab 6d 1f c1 ab 75 74 40 14 29 9f 40 da df 05 bf
       -9.964274 3.819682 4.9737644 -0.52294695
000190 47 16 bd 41 7b 5c c3 3f ba a3 16 41 97 5c 45 41
       23.635878 1.5262598 9.414972 12.335105
0001a0 10 68 95 c0 a1 79 54 41 42 c3 08 c1 82 be a1 bf
       -4.668953 13.279695 -8.54767 -1.2636263
0001b0 f0 0a c9 41 81 64 b2 41 75 ef 48 40 60 66 b5 41
       25.13034 22.299074 3.1396153 22.674988
0001c0 cb fe bb 41 2f ad 89 41 36 af d8 c0 ef 24 aa 41
       23.49941 17.209562 -6.771388 21.268034
0001d0 f8 c8 6e 41 f7 6b 9e 41 28 08 b7 be 16 e4 b0 41
       14.924065 19.802717 -0.3574841 22.11137
0001e0 61 f3 98 41 36 55 ad 41 ca 1d da 40 fc 5b 26 41
       19.118837 21.666607 6.8161364 10.397457
0001f0 5c c4 71 41 23 6e 9a 41 6f e4 91 41 e7 df ab 41
       15.110439 19.303778 18.23654 21.484327
000200 d8 94 ad bd 00 85 4e 41 49 a8 8e c1 b6 3d 75 41
       -0.08475655 12.907471 -17.83217 15.327566
000210 e0 ae a6 41 19 1f ce 41 ce e7 ff 40 d7 c3 2b bf
       20.835388 25.765184 7.9970465 -0.670957
000220 ad cb e2 41 08 e7 93 41 da 56 72 c0 96 be a5 41
       28.349451 18.487808 -3.786551 20.71806
000230 a8 0b f9 40 6c fc da c0 d3 63 ae 41 b1 16 96 41
       7.782673 -6.843313 21.798742 18.76108
000240 61 86 a2 41 3a 7b 5a c1 95 cb 7d c1 36 46 c6 40
       20.315615 -13.655085 -15.862203 6.1960707
000250 53 65 99 41 5c 38 1a c0 40 96 9b 41 86 65 4e c1
       19.174475 -2.40969 19.448364 -12.899786
000260 b3 6c 3e 41 b7 77 bf c0 62 66 11 41 56 28 09 c1
       11.901538 -5.9833636 9.087496 -8.572348
000270 ed 86 5d 41 85 65 90 41 0f 93 b7 41 c3 f7 9f c1
       13.845441 18.04957 22.946806 -19.995977
000280 d9 bd 81 41 c0 cd 35 41 97 3d 66 c1 97 41 26 40
       16.2177 11.362732 -14.390037 2.5977533
000290 21 50 63 41 dc 09 57 c1 54 0c 5a c1 19 5f 80 41
       14.207063 -13.439907 -13.62801 16.046434
0002a0 86 d8 bf 41 a5 ce bd bf 45 44 a3 41 04 49 9c 41
       23.980724 -1.4828688 20.408335 19.535652
0002b0 03 f5 fa 40 65 ca 76 bf 9a 7e c9 c1 04 29 7e 40
       7.8424087 -0.9640258 -25.186817 3.9712534
0002c0 a0 5c b0 40 8c 50 91 41 67 f5 f5 3f d3 50 69 41
       5.511307 18.16433 1.9215516 14.582232
0002d0 fc 83 44 41 1f b1 7d 41 a7 8f 8a bf 45 d8 2e 40
       12.282223 15.855742 -1.0825089 2.73195
0002e0 ea 44 74 41 21 5a 6e 41 72 a7 88 3f c5 11 5f 41
       15.266825 14.897004 1.06761 13.941838
0002f0 eb f2 7e 41 f7 bd 6d 41 df e6 2f 41 b0 71 93 40
       15.934306 14.858878 10.993865 4.607628
000300 48 cc b2 bf 99 95 69 41 7a 74 93 41 9a d6 bb 41
       -1.3968592 14.599023 18.431873 23.479786
000310 e6 76 b8 bf 94 8b 72 41 df 61 8b c0 eb 9d 28 41
       -1.4411285 15.159077 -4.355697 10.538554
000320 e3 58 ad 41 ba 3b 24 c0 eb 61 96 41 ac 34 87 41
       21.668402 -2.5661454 18.797812 16.900719
000330 4c 97 ac 41 50 75 de 41 58 95 72 c1 86 97 89 40
       21.573875 27.807281 -15.161461 4.2997465
000340 a1 3a 7c bf 85 3a e7 41 6d 25 9e 41 68 2f b9 3f
       -0.9852696 28.903574 19.768274 1.4467592
000350 29 c1 71 41 7b af 34 41 ba 65 90 41 43 12 79 41
       15.109658 11.292842 18.049671 15.566958
000360 1d fa 00 c0 93 e8 ba 41 a2 37 58 41 02 23 21 41
       -2.0152657 23.363562 13.513582 10.071047
000370 30 9b 99 41 65 12 8e 41 f6 57 8f 41 fb cf a7 41
       19.200775 17.758982 17.91795 20.976553
000380 67 62 9a 41 86 4f 8c 41 68 d9 57 c0 57 e6 46 41
       19.298048 17.53883 -3.3726444 12.431235
000390 14 50 95 c1 0b 4e da 41 4d 07 7f 41 83 f3 aa 41
       -18.6641 27.288107 15.939282 21.368902
0003a0 5f d7 fe c0 a6 f6 5d bf cc f8 10 c0 8e 3f 09 3f
       -7.9637904 -0.8670448 -2.2651854 0.536126
0003b0 0f 27 bb 41 24 4c 04 3f 29 ea 29 41 6a c8 9d c1
       23.394072 0.5167868 10.619668 -19.722858
0003c0 78 95 0e c1 d5 a9 5a c1 8d a7 9a 41 2d 36 f3 41
       -8.911491 -13.666463 19.331812 30.401453
0003d0 ec 39 19 3e 93 51 df c0 d8 90 ec 40 bb f7 07 bf
       0.14963502 -6.978708 7.392681 -0.5311238
0003e0 a7 86 9b 41 a6 e8 83 41 f0 34 e6 41 4d 00 a7 41
       19.440748 16.488598 28.775848 20.875147
0003f0 af f7 56 41 4d 3d 8f 41 54 c6 a2 41 ef ce 9b 40
       13.43547 17.904932 20.34684 4.8690104

l1/W f4 [256, 64]
000000 d2 1b 6f 42 22 4c 45 c0 81 2d 74 3f 9f 3e 50 bf
       59.77717 -3.0827718 0.95381933 -0.8134555
000010 de a0 80 41 c6 3a 06 41 1e 6b 5d 40 4a fe 29 41
       16.078548 8.389349 3.459663 10.624582
000020 4d 7a bd c1 95 58 d1 40 8c 12 de c1 af 4a a2 41
       -23.684717 6.542063 -27.759056 20.286467
000030 73 fd 1c c2 57 22 9b 40 66 63 f7 bf fa 23 97 c1
       -39.24751 4.847942 -1.9327209 -18.892567
000040 f4 24 83 c0 e6 cc e5 41 e3 4b 17 41 51 6c 05 c1
       -4.098261 28.725048 9.456027 -8.338944
000050 97 ed 98 41 1d 82 cb c0 4d 12 14 42 3d 1d 6f 41
       19.11601 -6.359633 37.01787 14.944638
000060 18 82 c4 41 bb 91 0e bf 88 0c ab 41 e7 cb c1 c1
       24.563522 -0.5569112 21.381119 -24.224562
000070 fe 83 24 c1 1b 00 ab 41 a3 47 44 41 73 b1 90 41
       -10.282225 21.375051 12.267489 18.086645
000080 2e 02 cb c0 f2 c9 e0 3f 35 44 98 40 76 53 a3 c1
       -6.344016 1.7561629 4.758326 -20.415752
000090 99 01 8b 3f fb df 44 c1 c4 58 8c c0 22 36 7b 41
       1.0859863 -12.304683 -4.3858356 15.700716
0000a0 3f 21 78 41 4a 8a 78 41 ad 98 68 c1 31 85 c4 41
       15.508117 15.533762 -14.537274 24.565035
0000b0 5f a3 c7 40 3c cf 9c c0 64 d0 3b 41 f7 11 8e c1
       6.2386928 -4.900297 11.738377 -17.758772
0000c0 73 96 02 c0 20 d0 5c 41 d4 08 4f c0 19 fd 62 c1
       -2.0404327 13.800812 -3.2349138 -14.186791
0000d0 32 ce 9e 40 44 31 f3 40 4c dc 29 c1 35 94 1d 42
       4.9626703 7.599764 -10.616283 39.394733
0000e0 aa 62 84 41 d4 a7 8b c1 60 0f 50 c1 65 6a cf c1
       16.548176 -17.456947 -13.003754 -25.92695
0000f0 03 1e 46 41 c4 18 39 c1 69 7b 59 c1 6c 02 c1 c1
       12.382327 -11.568546 -13.592629 -24.126183
000100 68 e7 d1 41 ee be 89 c0 e8 d7 1b 42 13 62 bc c1
       26.237991 -4.304557 38.960846 -23.547888
000110 45 04 33 c1 ec b0 20 c2 15 34 23 41 9b 7f 3c 41
       -11.188542 -40.172775 10.200215 11.781154
000120 3b ac 1f c1 73 33 50 c0 07 f1 c1 41 c6 ab a3 c1
       -9.979548 -3.2531402 24.24269 -20.458874
000130 65 a1 53 c1 88 89 f7 c1 ad de 53 40 b1 0f be c1
       -13.226903 -30.942154 3.310466 -23.757662
000140 0f 62 90 41 a4 c2 7c c1 ab 63 af 3f 6e b1 6c c0
       18.04788 -15.79752 1.3702291 -3.6983294
000150 6d a4 7e 41 dc d1 1c 3f 70 bd 81 41 86 1a a8 c1
       15.915143 0.6125772 16.217499 -21.01295
000160 bd ed 55 41 04 6e d5 c0 32 cd 87 c0 51 b4 13 c1
       13.370542 -6.6696796 -4.2437983 -9.231523
000170 a2 4c b1 c0 f3 52 7c c1 ef c0 73 c1 21 b5 0f c2
       -5.5406046 -15.770251 -15.234603 -35.926884
000180 bf 7f b6 c0 92 7f 4d c1 12 41 99 41 f3 1a c7 be
       -5.703094 -12.843645 19.156773 -0.38887748
000190 8f a2 c6 3a aa b4 86 c1 86 a7 a2 41 0a 74 82 c1
       0.0015154647 -16.838215 20.331799 -16.30666
0001a0 fe e1 85 40 6c 17 06 c2 5c 86 cf 41 df f0 0e 41
       4.183837 -33.522873 25.940605 8.933806
0001b0 89 b9 80 c0 52 0e 96 41 7f 83 12 42 7a 71 a0 c1
       -4.0226483 18.756992 36.628414 -20.055408
0001c0 44 73 39 c2 57 08 5c c1 13 80 5d c1 8d 21 3d c2
       -46.362564 -13.752036 -13.843768 -47.282764
0001d0 3e ba 0b 41 99 36 4b 41 d1 43 a7 40 45 57 e2 c0
       8.732969 12.7008295 5.2270284 -7.073153
0001e0 ba b6 2b c1 08 72 88 c1 ce ac 64 c2 4e 55 47 c1
       -10.732111 -17.05568 -57.168755 -12.458326
0001f0 8d 26 07 42 19 60 79 41 eb 6f 19 40 1b 37 d8 3f
       33.787647 15.585961 2.397456 1.6891817
000200 6a ca a6 41 73 71 f4 41 a3 bd 0c c1 83 08 e9 41
       20.848835 30.555395 -8.796298 29.129156
000210 90 ab b5 c0 2d 10 1b 41 4e bb 81 c1 8f 90 07 41
       -5.6771927 9.691449 -16.216457 8.472793
000220 70 e2 f3 41 66 1a bd c0 68 d2 ee c1 cb ad 31 41
       30.485565 -5.9094725 -29.852737 11.10493
000230 d5 aa 68 41 1b fd f8 41 97 1c 8a 41 01 05 e5 40
       14.541707 31.123587 17.26396 7.156861
000240 de 56 a7 c0 c9 c4 f6 41 85 f4 dd c1 7c a7 67 40
       -5.229354 30.846087 -27.744394 3.6195974
000250 b5 f6 ac bf ce d4 c1 40 cf a4 da 41 c2 4c 4d 41
       -1.3512789 6.057227 27.330473 12.83124
000260 b6 e2 73 42 6d 19 fc c1 bf 6e 62 41 8a c2 10 41
       60.971397 -31.512415 14.152038 9.047495
000270 48 dc 2a c0 a8 69 22 41 29 d5 c6 40 6f e0 aa 40
       -2.669695 10.150795 6.2135205 5.3398967
000280 60 35 7f c1 93 07 7c 41 57 e3 31 c2 06 e4 ac 40
       -15.950531 15.751849 -44.47201 5.402835
000290 ad 7a 52 c0 38 5e 8b 40 6e 7e fc bf 01 04 96 c1
       -3.2887375 4.3552513 -1.9726083 -18.751955
0002a0 e2 ba ec c1 30 85 91 c1 1a 26 11 40 55 32 97 c1
       -29.591251 -18.190033 2.2679505 -18.899576
0002b0 1b 7c 1b 41 3b ff 95 40 6b de 27 c1 96 d3 c7 c1
       9.717799 4.687406 -10.491801 -24.978313
0002c0 cd ea fa c0 d8 8a 0c c2 80 2b 58 c1 a9 7e 71 bf
       -7.841162 -35.13559 -13.51062 -0.94333893
0002d0 fe 96 c8 41 7c 40 ba c1 5e 33 49 c0 61 45 d8 c1
       25.073727 -23.281487 -3.1437602 -27.033876
0002e0 a3 30 c1 41 07 f7 cf 41 82 5a eb c1 8e 1d f2 41
       24.148748 25.995619 -29.419193 30.264431
0002f0 1f e2 28 c0 d0 92 57 bf d3 4a a7 41 1b 03 18 41
       -2.6388013 -0.84208393 20.911535 9.500758
000300 34 ae cd c1 8b 23 03 42 1a a5 bd c1 ac e4 70 3f
       -25.71006 32.78471 -23.705616 0.94098926
000310 7e 26 30 c1 5f 03 b0 41 52 ce a4 41 2e 92 1c c2
       -11.0093975 22.001646 20.600742 -39.142754
000320 d3 fe 8e 41 fb f5 5a c2 ca 39 45 c1 4d c7 c4 3f
       17.874426 -54.740215 -12.326609 1.5373322
000330 d4 12 ad c1 9c 09 e2 41 82 37 67 41 0f 5a 16 c1
       -21.634193 28.254692 14.451052 -9.396987
000340 95 c5 9f c1 4f a6 c1 c1 42 a3 59 40 a3 02 b9 40
       -19.971476 -24.206205 3.4005895 5.781572
000350 60 5b 1e 42 1c d8 9a c0 52 44 72 41 7b f3 64 c0
       39.589233 -4.8388805 15.14168 -3.5773609
000360 63 d6 26 41 35 13 ac c0 c1 84 66 41 fa 54 ea bf
       10.4273405 -5.3773446 14.407411 -1.8307183
000370 bf e6 ae c0 f3 6d 46 41 df 6f 31 41 15 7a 1d c1
       -5.4656672 12.401843 11.089812 -9.842305
000380 6b 2c 77 c1 d8 21 ed 41 6d 27 aa 41 ed 37 12 40
       -15.448344 29.641525 21.26925 2.2846634
000390 20 ed 3f 3f fd c2 9e be 28 1b b6 c0 1a 21 92 41
       0.749712 -0.3100814 -5.690815 18.266163
0003a0 8a c7 bd 40 10 22 10 c2 c3 4e e4 c1 b1 d0 36 c1
       5.930608 -36.033264 -28.538458 -11.42595
0003b0 59 5f 10 3f 99 1e c8 41 fc 04 89 41 08 0b 13 c2
       0.5639549 25.01494 17.127434 -36.760773
0003c0 f2 f1 a4 c1 52 ac b6 c1 0a d8 21 40 00 60 2c c2
       -20.618137 -22.83414 2.528811 -43.09375
0003d0 52 87 02 c1 dc 66 24 42 e6 5a 17 42 25 57 03 c2
       -8.158037 41.10045 37.838768 -32.835102
0003e0 8d d8 87 c2 b9 73 21 41 3e 50 7b c2 94 55 46 41
       -67.92295 10.090753 -62.82836 12.395893
0003f0 2b 7d ef c1 23 c6 00 c1 46 ba 3c 42 d7 9a ba c1
       -29.936117 -8.048373 47.181908 -23.325605

l1/b f4 [256]
000000 f0 c3 b2 c1 c1 e8 d8 3f c1 1a e3 40 0f 18 9e 40
       -22.345673 1.6946031 7.097016 4.940437
000010 b8 37 2d 3f ad 81 e6 40 d8 34 03 c1 05 d5 fb 3f
       0.67663145 7.2033296 -8.200401 1.9674383
000020 50 70 80 bf 3f 52 71 40 c1 ca 21 c2 10 fc 6b 41
       -1.0034275 3.770645 -40.448 14.749039
000030 3e 26 17 c0 cf a5 d6 c0 c2 28 49 41 e7 39 97 3f
       -2.361709 -6.7077403 12.572451 1.1814545
000040 e4 45 30 41 95 18 2b 41 94 be 24 41 f2 83 20 41
       11.017063 10.693501 10.296528 10.032213
000050 d8 60 58 41 b2 d2 24 40 95 1b 89 40 0d 38 53 41
       13.5236435 2.5753598 4.284617 13.201184
000060 cf 2d a1 c0 ef e4 2b c2 c3 0e ba 40 86 de ed bd
       -5.036842 -42.973568 5.814302 -0.116147086
000070 2e b3 23 41 69 ed 4c 3f 04 0d 0d 41 7a 33 0e 40
       10.231245 0.8004976 8.815678 2.2218919
000080 4c 8e 04 41 0d 6f 1f 41 0d 0b 07 c2 d9 98 25 41
       8.28474 9.964612 -33.76079 10.349816
000090 37 d3 ef 41 69 e5 66 41 a4 35 d3 40 63 f8 8d 41
       29.978132 14.431008 6.600298 17.746283
0000a0 df 19 28 41 99 1c a6 c1 2d ee 26 c1 6a 8e ba c1
       10.506316 -20.763964 -10.433148 -23.319538
0000b0 8c 2a 1c c1 fe ed 6c 41 e5 48 27 c1 7c cf 8a bf
       -9.760387 14.808104 -10.4552965 -1.0844569
0000c0 ea 1c 93 c1 7f 54 45 41 72 7b bb c1 0c 0a 8f 41
       -18.389118 12.333129 -23.435276 17.879906
0000d0 19 6b 20 41 e5 df 00 c1 6b 07 4c 41 d8 52 02 41
       10.026147 -8.054662 12.751811 8.145226
0000e0 c1 c6 85 c1 9f 3f 4a c1 3d 15 92 41 51 17 ed 40
       -16.722048 -12.6405325 18.26037 7.4090962
0000f0 09 03 4d 41 12 8d 57 3f ac 13 4b 41 96 6a da c1
       12.813241 0.8419963 12.692303 -27.302044
000100 23 cf 43 40 50 2c a0 41 b1 d0 ac c1 3d 53 f7 bf
       3.0595176 20.021637 -21.6019 -1.9322277
000110 8c 4c 95 bf 14 9f 30 c0 d2 62 ac 3d 2f 6b 38 c1
       -1.1663985 -2.7597094 0.08417286 -11.526168
000120 3e e4 16 41 15 1f 8a 40 6e 4c 0b c0 e0 1e 95 c1
       9.430723 4.316294 -2.17654 -18.640076
000130 ff 50 8e 41 de 0d f0 c0 c2 ba d9 c0 71 6c f2 41
       17.789549 -7.501693 -6.8040476 30.30295
000140 77 0a 1e c0 68 54 2b c2 bf 56 15 c1 4f 5c 00 41
       -2.4693887 -42.832428 -9.333678 8.022536
000150 d9 70 8c 41 f2 32 86 3f 52 0b 99 3f e9 0f 89 c0
       17.555101 1.0484297 1.195658 -4.283192
000160 e8 7a 70 41 10 22 3d 41 8c bf 7f c0 a3 0f ad 3d
       15.030006 11.820816 -3.996066 0.08450248
000170 29 ce b0 41 52 5a 72 c0 bf 90 e9 3e 1a c1 16 c1
       22.100664 -3.7867627 0.45618245 -9.422144
000180 63 46 43 c2 69 55 0a c2 13 66 1e 3f b7 e6 3d c1
       -48.818737 -34.58341 0.618745 -11.868827
000190 9c ff 6b 40 a0 47 2f 41 7e 4d 1b 40 6f 8f 16 be
       3.6874762 10.954987 2.4266047 -0.14703153
0001a0 7b 58 2a 41 2f e3 7f 3f 86 00 21 bf 6a 72 9d c0
       10.646602 0.9995603 -0.62891424 -4.9202166
0001b0 87 84 b2 c1 aa e7 bc 41 1b 15 cd c0 fc aa 54 c0
       -22.31471 23.613117 -6.4088264 -3.322936
0001c0 e5 ef a1 41 e0 11 13 41 42 ee 55 c0 12 55 aa 40
       20.242136 9.191864 -3.342667 5.3228846
0001d0 f7 08 9f 40 8f 75 b3 3f a9 6a a7 3f a6 4e 19 40
       4.9698443 1.4020251 1.3079425 2.3954253
0001e0 dd 96 a6 41 ca 25 8e c1 4c c2 a3 c1 96 68 9a be
       20.823664 -17.768452 -20.469872 -0.30157918
0001f0 93 55 28 40 c7 ad 67 3f dc f9 bc c0 d3 ca be c0
       2.630223 0.9049954 -5.9055004 -5.962259
000200 9f ed 0f c2 6e 2f 85 c0 56 79 d3 41 cd 26 43 c1
       -35.98205 -4.1620398 26.434246 -12.196973
000210 f0 37 a3 41 8f f1 21 41 a9 b7 63 c0 0d 83 a9 3f
       20.402313 10.121474 -3.5580847 1.3243119
000220 6d 2c d6 c1 63 9a 41 c1 28 2b dd c0 06 b7 2e c1
       -26.771692 -12.100192 -6.911518 -10.919683
000230 dd 09 0f c2 2f 1a d0 c0 56 92 93 41 7a 27 8f c1
       -35.759632 -6.5031962 18.446453 -17.894276
000240 bc 63 13 c0 da e7 1a 41 e5 6f 82 41 e5 35 d1 bf
       -2.3029623 9.681604 16.304636 -1.6344572
000250 a6 c2 38 40 8f 30 ef c1 39 8e 86 c1 d9 62 0e 41
       2.8868804 -29.89871 -16.819445 8.899133
000260 3b 4f 01 42 22 9b 84 c1 5d 4b 47 c1 f8 f2 42 41
       32.327374 -16.575748 -12.455899 12.184319
000270 35 b5 8b c1 cd 28 25 3e 24 25 4e c2 52 73 32 41
       -17.46348 0.16128846 -51.53627 11.153154
000280 5d dc 84 3e a3 11 00 c0 66 b6 53 c0 1a ac 16 41
       0.25949374 -2.0010765 -3.3080077 9.417017
000290 bd ed 16 41 20 e7 15 c2 71 a4 6e 41 12 14 3d c1
       9.433042 -37.475708 14.915147 -11.8174
0002a0 fb 69 89 c0 0b 14 42 c2 22 7d 74 c1 8b 36 f9 c0
       -4.294187 -48.519573 -15.28055 -7.787908
0002b0 8f 7d 9b 40 f8 4f 4f 41 80 b7 84 41 d6 d7 4a c1
       4.859077 12.957024 16.5896 -12.677694
0002c0 31 35 d2 3f 47 65 47 c0 3b 38 27 c1 14 a2 ec 3f
       1.6422483 -3.1155565 -10.451228 1.8486962
0002d0 33 9e 9f 40 73 22 f6 bf 5e 3a 1d 41 99 73 d2 c0
       4.9880614 -1.9229263 9.82675 -6.576611
0002e0 7f 7b aa 40 30 e9 80 40 d2 07 bc c1 fe a8 5e 41
       5.327575 4.0284653 -23.503819 13.916258
0002f0 fb 01 4e 3f 69 01 66 40 06 9e 5e c0 42 ea 0e 41
       0.8047177 3.593836 -3.478395 8.932192
000300 49 1a 49 40 69 00 3d c0 50 79 76 c1 0b ab 3c 41
       3.1422293 -2.95315 -15.404617 11.791759
000310 fd ef 7f 41 f1 81 5e c1 c6 d6 21 41 20 38 11 41
       15.996091 -13.906724 10.114935 9.076202
000320 e5 45 19 c1 48 22 ae 40 84 59 ef c0 c3 07 d5 3f
       -9.579564 5.4416847 -7.479677 1.6642994
000330 d2 f9 93 40 a9 aa 2f c1 fc 3f 54 c0 77 14 d6 c1
       4.6242456 -10.979165 -3.3164053 -26.759993
000340 87 28 80 40 cc bb 3d bf 7a fa 42 c2 60 4c 15 c0
       4.004947 -0.7411468 -48.744606 -2.3327866
000350 58 5e be c0 1d 0d 7e 41 a8 60 2a c1 44 f9 33 40
       -5.9490166 15.8782015 -10.648598 2.812089
000360 78 7b 27 40 ec 90 f7 c1 42 b5 22 c1 dc 13 5a c1
       2.616911 -30.945763 -10.169252 -13.6298485
000370 db d1 b1 c1 9f 7f 88 41 18 7e b2 3f 28 ae 6d c2
       -22.227468 17.062315 1.3944731 -59.420074
000380 76 d4 86 41 36 0d 3c 41 6d 33 5f bf a1 ba 80 c0
       16.85374 11.753225 -0.87187845 -4.022782
000390 af da 8f bf f8 38 c7 41 51 1b 59 41 13 07 dc c0
       -1.1238612 24.902817 13.569169 -6.8758636
0003a0 d4 8a 06 41 dc 44 9c c0 11 74 7b 41 be 6c 32 c1
       8.408894 -4.8834057 15.715837 -11.151548
0003b0 ad be 91 3d ec 24 c0 3f 5c e5 30 c2 96 1a ae 40
       0.07116447 1.5011268 -44.223984 5.4407454
0003c0 7c 11 55 40 57 0e d5 c1 fa cf a6 c1 ba 32 de c0
       3.3291922 -26.632002 -20.851551 -6.943692
0003d0 48 c2 4d c2 25 92 80 c2 01 b0 7b c0 d8 23 cd c1
       -51.439728 -64.28544 -3.9326174 -25.642502
0003e0 66 3c 12 41 a1 be 11 41 fa d2 17 c1 db 29 85 c0
       9.139746 9.10904 -9.489008 -4.1613593
0003f0 c2 dc c8 c1 9e f4 81 41 c3 3e 64 c0 b2 a4 c1 c1
       -25.107792 16.244442 -3.5663307 -24.205418

l4/W f4 [64, 256]
000000 b2 4c 66 42 73 3d 58 42 65 f4 42 42 85 f2 c2 42
       57.574898 54.06001 48.738667 97.47367
000010 da 81 17 42 4a 8b 61 42 d6 9d 7a 42 e7 cb 59 42
       37.87681 56.386024 62.654137 54.449123
000020 0a 12 48 42 91 29 6e 42 79 60 6a 42 63 18 63 42
       50.017616 59.540592 58.59421 56.773815
000030 2f 8c 69 42 3d 94 75 42 10 5a 54 42 85 7c 44 42
       58.386898 61.394764 53.08795 49.1216
000040 f0 f1 78 42 bd 73 3a 42 5d c8 64 42 e1 46 6c 42
       62.236267 46.613026 57.195667 59.069218
000050 6c 2a 60 42 d6 29 39 42 31 1d 57 42 ca d9 1e 42
       56.041428 46.290855 53.778507 39.712685
000060 93 ed 66 42 c4 f5 41 42 1a eb 73 42 68 2f 84 42
       57.732006 48.490005 60.97959 66.09259
000070 a6 27 7c 42 78 55 51 42 c5 21 b2 42 2a 9d 77 42
       63.03872 52.333466 89.065956 61.90348
000080 14 93 68 42 1d 49 52 42 34 63 70 42 7d f3 75 40
       58.14363 52.5714 60.096878 3.8429863
000090 44 3a 67 42 15 18 32 42 b2 83 7b 42 ed 6a 47 42
       57.8069 44.523518 62.87861 49.85442
0000a0 55 68 22 42 b2 82 4b 42 c2 00 8b 42 65 a7 5f 42
       40.601887 50.877632 69.50148 55.91347
0000b0 f1 ab 7e 42 e4 25 55 42 f7 24 18 42 5f c5 47 42
       63.66791 53.287003 38.0361 49.942745
0000c0 35 84 6d 42 48 77 c2 42 4b b3 5f 42 5a 32 90 42
       59.37911 97.23297 55.92509 72.09834
0000d0 53 ea 59 42 a6 89 55 42 d4 61 80 42 be bb cc 42
       54.478832 53.384422 64.19107 102.366684
0000e0 95 0b 58 42 a8 d0 b4 42 48 a2 76 42 45 46 81 42
       54.01131 90.40753 61.658478 64.637245
0000f0 05 81 31 42 ff 65 ac 42 1a 40 74 42 ec 5c 4a 42
       44.375996 86.19921 61.0626 50.590744
000100 fc b3 56 42 45 37 b7 42 a1 b9 a4 42 a9 ee 44 42
       53.675766 91.60795 82.36256 49.233067
000110 42 57 24 42 73 82 47 42 e4 d6 74 42 b5 1a 4a 42
       41.085213 49.87739 61.209854 50.52608
000120 68 0a 53 42 f3 43 55 42 2a cf 3c 42 00 14 43 42
       52.760162 53.316357 47.20231 48.76953
000130 3f ef 60 42 98 c0 3a 42 6a 6d 56 42 05 fc 65 42
       56.23364 46.68808 53.60685 57.496113
000140 d0 2f 40 42 c9 99 5f 42 18 66 79 42 96 69 85 42
       48.04669 55.90018 62.3497 66.70622
000150 15 d9 4e 42 16 57 2b 42 50 9b 74 42 76 d1 5f 42
       51.711994 42.835045 61.151672 55.95455
000160 82 d7 b0 42 5e 0e bb 42 7d 0a 6e 42 2d 46 30 42
       88.42091 93.52806 59.510242 44.06853
000170 5e 50 71 42 af a4 5f 42 ef 87 72 42 4d dd 2b 42
       60.328484 55.910824 60.632748 42.966114
000180 c3 16 5d 42 ab ab 6c 42 6d 03 44 42 06 7b 0e 42
       55.27223 59.167645 49.003345 35.62014
000190 d8 3d 64 42 fa b2 54 42 75 20 65 42 d8 88 81 42
       57.060394 53.17478 57.281696 64.76727
0001a0 45 de 4e 42 27 7e 46 42 c2 48 67 42 16 b8 32 42
       51.71706 49.623196 57.821053 44.67977
0001b0 52 4e 8c 42 35 d4 6d 42 3e e0 75 42 95 07 5f 42
       70.15297 59.457233 61.468987 55.757404
0001c0 9b f8 35 42 62 d2 0c 42 02 3c 0c 42 e9 d8 21 42
       45.49278 35.205452 35.0586 40.461826
0001d0 dd d5 59 42 f8 60 43 42 f2 1f 77 42 77 c3 66 42
       54.45885 48.844696 61.781197 57.690884
0001e0 e9 49 4d 42 41 3e 40 42 3d 17 5f 42 d2 df 35 42
       51.322178 48.060795 55.772694 45.468575
0001f0 ad 44 63 42 77 06 6a 42 1b 09 63 42 4e 8c 5b 42
       56.817066 58.506313 56.758892 54.887016
000200 42 1b 5c 42 72 47 34 42 21 1e 52 42 ba f9 8c 42
       55.02662 45.06977 52.529423 70.48775
000210 b1 e2 4f 42 17 55 e1 41 57 96 ce 41 38 00 0b 42
       51.97138 28.166548 25.823408 34.750214
000220 23 13 75 41 76 bb 6a 42 4f c6 4c 42 dd 19 5c 42
       15.317172 58.683067 51.19366 55.025257
000230 00 cb 4f 42 83 24 7c 42 b4 83 5d 42 85 b0 49 42
       51.948242 63.035656 55.378616 50.422382
000240 94 32 35 42 b2 34 2b 42 7d 57 54 42 ee ec 49 42
       45.299393 42.80146 53.085438 50.481377
000250 4e 4b 48 42 94 51 6f 42 35 92 1e 42 15 8e 7d 42
       50.07354 59.829666 39.64278 63.388752
000260 fa 57 75 42 b5 4a 73 42 cc f7 b2 41 4f 76 5b 42
       61.335915 60.822956 22.370995 54.865536
000270 f2 d2 50 42 19 e0 72 42 5c ef 45 42 6b 11 58 42
       52.206 60.718845 49.48375 54.01701
000280 38 04 10 42 85 a6 2d 42 91 93 3e 42 08 77 86 42
       36.00412 43.412617 47.644108 67.23248
000290 40 95 2c 42 5d 71 5d 42 45 da 61 42 9b ba 2e 42
       43.145752 55.360706 56.463154 43.68223
0002a0 5a 89 81 42 59 b4 a5 42 25 93 5f 42 53 be 58 42
       64.768265 82.85224 55.893696 54.185863
0002b0 70 c8 8e 42 2a 2d 77 42 fe 78 3f 42 94 84 8b 42
       71.39148 61.794106 47.868156 69.75894
0002c0 cb 90 59 42 56 0c 4e 42 ed 00 3d 42 2c 3b 22 42
       54.3914 51.512047 47.250904 40.557785
0002d0 36 93 8b 42 fd d8 71 42 4c fb fc 41 78 be 68 42
       69.78752 60.461903 31.622704 58.186005
0002e0 ff 08 6e 42 a3 47 3d 42 5c c0 63 42 a6 75 45 42
       59.508785 47.319958 56.93785 49.36489
0002f0 27 f3 67 42 92 a3 70 42 f3 43 68 42 03 be 53 42
       57.987453 60.159737 58.066357 52.93556
000300 52 ac 1a 42 3a 23 5e 42 ed cb 2e 42 06 88 7d 42
       38.66828 55.5344 43.699146 63.382835
000310 0f aa 58 42 5b e2 36 42 e2 37 5e 42 f8 78 65 42
       54.166073 45.72105 55.554573 57.368134
000320 c7 cc 29 42 24 1e 5f 42 9c 7d 69 42 55 e4 23 42
       42.449978 55.779434 58.372665 40.97298
000330 27 45 85 42 6f 2b 9e 42 2d e0 6d 42 aa 96 31 42
       66.63506 79.08483 59.46892 44.397133
000340 28 27 72 42 3a 25 69 42 4d 74 38 42 cf 7b 1f 42
       60.53824 58.286354 46.113575 39.870907
000350 b3 6c 60 42 2b d8 40 42 d8 cb 55 42 86 40 4d 42
       56.10615 48.2111 53.449066 51.31301
000360 45 0c 65 42 4a 96 70 42 90 22 5c 42 1f db 6d 42
       57.261982 60.146767 55.033752 59.463985
000370 7c 12 e5 41 4c 8d 65 42 49 43 65 42 1a bd 69 42
       28.634026 57.387985 57.31571 58.43467
000380 c2 e9 63 42 12 dc 36 42 e7 c6 61 42 80 d7 66 42
       56.97828 45.714912 56.44424 57.71045
000390 40 24 69 42 d6 14 2c 42 f1 3e 4e 42 71 a8 31 42
       58.2854 43.020348 51.561466 44.414494
0003a0 35 e6 68 42 14 0c 51 42 65 44 69 42 05 cd 21 42
       58.22481 52.261795 58.31679 40.450214
0003b0 c3 24 30 42 98 2d 58 42 45 8d 63 42 06 8f ca 42
       44.0359 54.044525 56.88796 101.27934
0003c0 89 7d 82 42 7a 02 4a 42 5f 4b 77 42 f6 a8 62 42
       65.245186 50.50242 61.823605 56.665
0003d0 ef 1a 82 42 5c 98 27 42 a7 c3 66 42 f5 58 3d 42
       65.052605 41.89879 57.691067 47.336872
0003e0 99 97 14 42 f4 9c 7c 42 67 68 3b 42 af 14 aa 42
       37.148045 63.153275 46.851955 85.0404
0003f0 d4 6b 2f 42 8a e0 46 42 e7 cb 7e 42 e5 cb 78 42
       43.8553 49.719276 63.699123 62.199116

l4/b f4 [64]
000000 69 fb c1 c2 a3 fb c1 c2 60 ff c1 c2 70 fa c1 c2
       -96.991035 -96.99148 -96.99878 -96.989136
000010 24 00 c2 c2 0e fd c1 c2 94 f7 c1 c2 3f f9 c1 c2
       -97.000275 -96.99425 -96.98355 -96.98681
000020 10 fe c1 c2 d3 08 c2 c2 01 05 c2 c2 7d 06 c2 c2
       -96.996216 -97.017235 -97.00977 -97.01267
000030 c8 01 c2 c2 e5 01 c2 c2 d8 fa c1 c2 fd f4 c1 c2
       -97.00348 -97.0037 -96.98993 -96.97849
000040 89 f4 c1 c2 16 0d c2 c2 ec 05 c2 c2 a3 fd c1 c2
       -96.97761 -97.02556 -97.011566 -96.995384
000050 64 fa c1 c2 f9 f6 c1 c2 1d fd c1 c2 90 f9 c1 c2
       -96.989044 -96.98237 -96.99436 -96.98743
000060 e4 ff c1 c2 47 02 c2 c2 e9 fa c1 c2 3c 05 c2 c2
       -96.99979 -97.00445 -96.99006 -97.01022
000070 95 00 c2 c2 f2 05 c2 c2 49 05 c2 c2 a4 f6 c1 c2
       -97.00114 -97.01161 -97.01032 -96.98172
000080 ec ff c1 c2 5d 01 c2 c2 d8 fc c1 c2 65 00 c2 c2
       -96.99985 -97.00266 -96.993835 -97.00077
000090 66 fe c1 c2 56 fd c1 c2 46 05 c2 c2 b4 04 c2 c2
       -96.99687 -96.9948 -97.0103 -97.009186
0000a0 fd 00 c2 c2 a5 fd c1 c2 ff 04 c2 c2 47 ff c1 c2
       -97.00193 -96.9954 -97.00976 -96.99859
0000b0 8f 00 c2 c2 cc f8 c1 c2 65 07 c2 c2 5e 09 c2 c2
       -97.00109 -96.98593 -97.01444 -97.018295
0000c0 c3 fc c1 c2 89 fe c1 c2 84 04 c2 c2 5d 04 c2 c2
       -96.993675 -96.99714 -97.00882 -97.00852
0000d0 4a 0d c2 c2 fb 01 c2 c2 1d fc c1 c2 b0 02 c2 c2
       -97.025955 -97.00387 -96.99241 -97.00525
0000e0 64 fe c1 c2 9b f9 c1 c2 f5 fa c1 c2 ca 02 c2 c2
       -96.99686 -96.98751 -96.99015 -97.00545
0000f0 cf f9 c1 c2 5f fd c1 c2 31 08 c2 c2 e1 fe c1 c2
       -96.98791 -96.994865 -97.016 -96.99781

l3/W f4 [256, 256]
000000 db 23 7e 3e cc 64 c5 c1 71 ae 01 c2 6c f3 64 40
       0.24818365 -24.674217 -32.420353 3.5773573
000010 76 43 a3 41 47 f3 f2 41 7f 68 84 40 e8 5b 3a c1
       20.40794 30.368788 4.137756 -11.647438
000020 fe f4 f0 3e 9f 76 1c 3e 9f df 08 42 3e 93 c8 41
       0.47061914 0.15279625 34.21838 25.071896
000030 fe 17 79 40 66 b2 d8 40 0d 0c db 3f 60 1c 04 c0
       3.8920894 6.771777 1.7113053 -2.0642319
000040 7e 8a 5a 41 ff d3 ba c1 2a 54 63 c1 9d e1 02 c1
       13.658812 -23.353514 -14.208048 -8.180081
000050 3e a9 3f c2 ce ce 04 c2 f9 eb bb 41 41 62 98 bf
       -47.915276 -33.201958 23.490221 -1.1904985
000060 a7 52 a3 3f e6 af 99 41 e2 a0 c6 40 7b 2c 12 c2
       1.2759598 19.210888 6.207139 -36.543438
000070 20 21 cf c0 82 d6 0e 40 52 3b 3c c1 12 44 4d 41
       -6.4727936 2.2318425 -11.7644825 12.829119
000080 7c 97 a6 41 59 66 41 c0 7a e3 30 c1 6b a2 f5 40
       20.823967 -3.0218718 -11.055536 7.6760764
000090 ac 1b 1f c2 09 3e ba c0 b1 8e a7 c1 29 bb 61 bf
       -39.777023 -5.8200727 -20.944674 -0.8817621
0000a0 85 71 51 41 09 48 c9 bf 15 e3 2b c2 df af bd 41
       13.090215 -1.5725108 -42.97176 23.710875
0000b0 c5 48 8c 41 7b 21 80 41 ad fb c5 40 71 dd be 41
       17.535532 16.016348 6.186972 23.858126
0000c0 36 b3 f3 bf c3 01 9a 40 aa a4 18 41 cc c7 d5 c1
       -1.9039066 4.812715 9.540201 -26.722557
0000d0 6b 62 15 c1 ca 95 8e 41 a2 9f 62 c1 30 e7 89 c2
       -9.336528 17.82314 -14.163973 -68.95154
0000e0 c2 80 c3 41 f8 70 85 c0 48 6c 0e c2 e1 5c c1 41
       24.43787 -4.17004 -35.605743 24.170351
0000f0 e1 22 b1 41 06 83 b2 c1 4f e0 18 c2 42 9a 8f c1
       22.14203 -22.313976 -38.21905 -17.950321
000100 23 24 e2 c0 eb 04 41 41 5f 8e e1 c1 fe 04 2f 41
       -7.066911 12.063701 -28.194517 10.938719
000110 1b 4d 62 40 4f 80 92 c1 c6 21 e2 c0 60 77 0b 42
       3.5359561 -18.31265 -7.0666227 34.866577
000120 bb 6d a9 41 8c 48 d9 bf dc 1c 10 c2 a3 fd 04 c1
       21.17858 -1.6975265 -36.028183 -8.311923
000130 62 f7 3b c1 1b 03 1f c1 8c a0 8e c1 12 2e 3c 41
       -11.747896 -9.938258 -17.828392 11.761248
000140 77 aa 92 40 a4 99 d5 c1 55 be b7 c1 f9 4c b8 c1
       4.5833087 -26.70002 -22.967936 -23.037584
000150 8b 34 d4 c1 3f bd a8 be 13 c2 b4 c1 15 cd 93 40
       -26.525656 -0.32956883 -22.594763 4.6187844
000160 b4 3b a2 c1 23 d1 8c c0 c4 8b 26 41 26 dd 0a 42
       -20.279152 -4.4005294 10.409122 34.715965
000170 4c 79 34 41 0b da 2e 3e 07 7d 1a 41 73 af 85 c1
       11.2796135 0.17075364 9.655524 -16.710669
000180 39 e3 b4 41 88 cb 67 bf 04 ef 1d c2 b9 cc 21 41
       22.610949 -0.9054494 -39.483414 10.112481
000190 df 52 09 c1 8a 32 35 c2 43 5f 1b 42 05 68 86 41
       -8.582732 -45.299355 38.84303 16.80079
0001a0 62 3e 05 c1 31 8e d3 c1 0c cb 09 42 e6 61 c5 40
       -8.32773 -26.44443 34.448288 6.1682005
0001b0 45 e1 ff c0 27 63 c0 c1 4d d9 3b 40 12 8d bb c0
       -7.9962487 -24.048414 2.935138 -5.8609705
0001c0 72 99 b8 c1 e4 f3 23 c2 a3 b8 9b 41 dc c8 06 c2
       -23.074924 -40.988174 19.465155 -33.69615
0001d0 21 53 37 42 15 8b 9d 40 46 24 97 40 2e bb 06 c1
       45.83118 4.923228 4.723178 -8.420698
0001e0 43 6a 55 c1 55 12 61 c0 f3 d4 73 3d 7a 24 41 c1
       -13.338443 -3.516744 0.059529256 -12.071405
0001f0 86 49 d7 41 34 48 25 c2 b7 1e 2c 41 62 8b a4 41
       26.9109 -41.32051 10.757499 20.568058
000200 7c f5 e6 41 df 8f 40 c2 73 27 89 41 12 ed b2 c1
       28.869865 -48.1405 17.144262 -22.365757
000210 cf af 9c c1 59 ec 1f 42 cd 5c 0b c2 3e ac 02 41
       -19.585844 39.98081 -34.840626 8.167051
000220 71 e8 c3 41 fa d0 6c 41 7e 3d e2 c1 a1 08 01 c1
       24.488497 14.80102 -28.280025 -8.064607
000230 a1 f2 ae 40 2b e0 61 c1 5b cd c8 40 79 d0 8d c1
       5.467118 -14.1172285 6.275068 -17.726793
000240 5f cf 60 c2 a6 ae 7b c1 46 06 13 41 f2 46 42 c2
       -56.20251 -15.730139 9.189032 -48.569283
000250 3d 66 e7 40 85 90 fe 40 ab 8b 32 c0 9c 56 a0 c1
       7.2312303 7.9551415 -2.7897747 -20.04229
000260 83 62 92 c1 50 17 1e 41 b1 1e 03 c2 4a fd cb c1
       -18.298101 9.880692 -32.779972 -25.498676
000270 4d f6 f0 c1 0d 74 0a c0 94 42 03 41 f1 f0 82 c1
       -30.120264 -2.1633332 8.203754 -16.367647
000280 5e cf 1b c2 15 ed 80 c1 5b 60 51 c2 8b 64 66 41
       -38.952507 -16.115763 -52.344097 14.399547
000290 e1 31 81 c2 9d 2c 17 c1 40 ba e9 c1 e2 e8 58 40
       -64.59742 -9.448392 -29.215942 3.389214
0002a0 30 e7 8a c2 ac 08 17 c0 36 4d ca c1 c1 c9 fd 40
       -69.45154 -2.3599043 -25.2877 7.930878
0002b0 49 33 de 41 b9 21 8b c1 09 45 80 c1 18 49 e2 c0
       27.775042 -17.391466 -16.033709 -7.0714226
0002c0 5f 97 c2 c0 c9 17 88 41 bb c1 63 41 62 74 16 c2
       -6.080978 17.011614 14.2347975 -37.613655
0002d0 7b a6 88 c2 4a be b2 c1 10 60 a5 41 be e2 2a c2
       -68.32516 -22.342915 20.671906 -42.721428
0002e0 50 0d 45 42 af 25 c3 c1 a4 00 e5 40 7a cb ce 40
       49.263 -24.3934 7.156328 6.4623384
0002f0 e9 3c 30 c1 51 fa d1 c1 0d a5 83 bf 58 69 2f 41
       -11.014871 -26.247225 -1.0284745 10.963219
000300 6b 3b 9d 40 3e 26 bd 41 0b d7 8f 41 2c bc a6 bf
       4.913503 23.643673 17.980001 -1.3026175
000310 b0 e2 2e c1 89 30 91 41 eb e8 44 c2 a8 3d 2a 42
       -10.930344 18.148699 -49.22746 42.56021
000320 73 2b ac bf 8c ec e0 c0 59 af a7 41 ce 6d f3 41
       -1.345076 -7.0288754 20.960619 30.428616
000330 a8 42 91 c1 1a 6a ab 41 a5 aa a4 41 3c bc ec c0
       -18.157547 21.426807 20.583323 -7.397978
000340 25 33 64 c1 1a 95 f9 c1 70 22 15 c2 75 fb 95 40
       -14.262486 -31.197803 -37.28363 4.6869454
000350 5b 04 b9 41 f0 c3 b6 41 e7 d1 af 41 7f f0 2d c1
       23.127127 22.845673 21.977491 -10.871215
000360 03 96 e6 40 7b 98 23 c2 ca f3 f1 bf 16 bd 82 c1
       7.205812 -40.898907 -1.8902524 -16.342327
000370 7f 4f d5 c1 07 fc 48 c2 ad 67 9f c1 a7 17 4c c2
       -26.663816 -50.24612 -19.925623 -51.023098
000380 e6 d6 23 c2 3e 72 9e c1 cb f3 85 c1 19 f1 94 40
       -40.95986 -19.805782 -16.74404 4.654431
000390 a2 9e 80 41 f0 d7 86 41 e8 b1 6b 40 7e c9 70 c0
       16.077457 16.855438 3.6827335 -3.762298
0003a0 80 1a 80 41 e0 42 01 41 17 bb ae c1 d2 42 16 41
       16.01294 8.078827 -21.841352 9.391314
0003b0 07 ab 7b c0 cf 29 27 c1 2d d4 16 c2 5d 23 9e c1
       -3.9323137 -10.447707 -37.707203 -19.767267
0003c0 62 bb 81 c1 0b 9a 1a c0 41 06 3a c2 8c 8e 37 42
       -16.216496 -2.415652 -46.506107 45.889206
0003d0 6e 32 43 41 e7 e1 35 40 45 b6 15 41 db a3 9c bf
       12.199812 2.841913 9.356999 -1.2237505
0003e0 58 ac 4a c2 88 14 98 41 5a ef f2 c0 0b 83 ec c1
       -50.668304 19.010025 -7.5917177 -29.563986
0003f0 aa 20 bb 41 0e 5e 40 c1 8a 3d dd 41 a7 68 06 41
       23.39095 -12.022963 27.655048 8.40055

l3/b f4 [256]
000000 5e 42 ff 40 21 d1 9f bf d4 f8 07 40 c6 4e a1 c0
       7.9768515 -1.2485696 2.1245623 -5.040866
000010 41 61 9e 41 56 61 b5 41 ef 52 8e 41 90 dd 32 41
       19.797487 22.672527 17.790495 11.179092
000020 1b bf 23 41 6a 06 87 40 36 f7 56 c0 5a f0 16 41
       10.234157 4.219533 -3.3588386 9.43368
000030 58 c4 a8 3f c2 5a 13 c0 83 e8 74 40 4b c5 2f 41
       1.3184919 -2.3024144 3.8266914 10.985667
000040 bd 04 68 3f 15 d0 ea 40 d7 06 5a 41 6b 79 e8 40
       0.9063223 7.3379006 13.62667 7.2648215
000050 52 2a f4 3f 9e 04 3f c0 32 f3 f5 41 6e 1a 97 40
       1.9075415 -2.9846568 30.743748 4.7219763
000060 f9 2b 0c 41 11 c6 11 40 fd 07 12 40 c8 a2 46 41
       8.7607355 2.277714 2.2817376 12.4147415
000070 0e 62 01 bd 9e 7b c8 40 ea 58 b6 c0 2f db 1d 41
       -0.031587653 6.26509 -5.698354 9.866012
000080 6c d9 aa c0 78 0a 16 41 d3 70 ca 3f a0 40 6d 42
       -5.3390408 9.377556 1.5815681 59.31311
000090 7c 11 63 40 a9 bb 90 c0 db f7 3f 3e 91 20 36 c0
       3.5479422 -4.5229077 0.18746893 -2.8457377
0000a0 2e 71 a9 40 ea b0 25 41 0c 14 37 41 f5 93 c2 40
       5.295066 10.355692 11.442394 6.080561
0000b0 54 53 fd c0 73 e6 cc 40 d4 79 05 42 17 8f 31 41
       -7.916422 6.403131 33.368973 11.097434
0000c0 a2 4c ef 3f f9 25 c9 c0 aa 05 67 41 05 db dd c0
       1.8695261 -6.2858853 14.438883 -6.932986
0000d0 8b 56 0a bf 71 34 35 c0 48 2e e8 bf dc 5d 9c 3f
       -0.54038304 -2.8313258 -1.8139124 1.2216144
0000e0 b8 9a 69 40 e4 db 06 c1 74 df 33 41 8d ed 64 40
       3.6500683 -8.428684 11.242054 3.576999
0000f0 ec af cf 41 c7 c3 7b bf 59 df e7 bf 6f 76 58 40
       25.9609 -0.9834561 -1.8115035 3.3822286
000100 0a c3 9d 40 f3 6f 51 c0 82 d5 d5 be 06 35 2d 41
       4.9300585 -3.2724578 -0.41764456 10.825445
000110 80 0a 1e 41 43 43 4b 41 ec dd 43 41 91 9a 1e 41
       9.877563 12.703921 12.24168 9.912736
000120 aa a6 95 bf 0f 24 82 41 26 ba 63 40 b9 08 59 40
       -1.1691487 16.267607 3.5582366 3.3911574
000130 65 18 0c 40 67 48 90 40 14 04 a0 41 cb 31 57 40
       2.188989 4.508838 20.001991 3.3624141
000140 71 38 aa 3f 07 a2 24 40 3f 5b 5a 3f 79 df 0a c0
       1.3298475 2.5723894 0.8529548 -2.1698897
000150 c9 ac e9 40 b1 a2 d7 41 e7 7a 0f 41 8d fe 31 40
       7.302342 26.95444 8.967505 2.7811615
000160 ea 8b 89 c0 d5 0c 60 c1 c5 8e 06 41 18 60 2c 41
       -4.2983294 -14.003133 8.409856 10.77346
000170 83 df 51 40 0c c7 63 41 39 9d e5 40 b6 5c 08 41
       3.279267 14.236095 7.175442 8.5226345
000180 32 08 bb 41 54 d2 37 bf c5 f1 67 41 77 f8 1a 41
       23.379002 -0.7180531 14.496526 9.68566
000190 79 28 01 41 7e 86 57 41 7b 04 b7 40 a2 40 42 41
       8.072381 13.470335 5.719297 12.1407795
0001a0 88 fb 5f c0 bf 65 db 40 ca 9e 57 40 2d c0 dc 41
       -3.4997272 6.85617 3.3690667 27.593836
0001b0 77 d0 2f 40 8c 13 15 c0 b6 68 eb c0 09 08 e8 40
       2.7470987 -2.329318 -7.356532 7.250981
0001c0 41 9a 6e 40 45 8e e1 40 98 75 13 42 c3 d4 f5 40
       3.728165 7.048617 36.864838 7.682222
0001d0 0b 34 ab 41 26 d0 60 41 47 95 06 c0 cc 4c 04 bf
       21.400412 14.0508175 -2.1028612 -0.5167968
0001e0 59 01 83 41 af 6e 0b 41 9a f8 63 c0 7d d2 c0 40
       16.375658 8.714522 -3.5620484 6.0256944
0001f0 8f 13 41 c0 00 2e 3f bf bb 6d 13 bf 63 00 6e 3f
       -3.0168188 -0.74679565 -0.5758931 0.9296934
000200 52 a3 20 41 a2 0f 87 41 ee a3 ca 3e c8 74 c0 40
       10.039873 16.882633 0.39578193 6.0142555
000210 49 60 92 40 15 9a 54 41 04 32 1a 42 9d fd d1 41
       4.5742536 13.287618 38.548843 26.248835
000220 84 69 09 40 e3 a9 69 3e 02 ee e0 40 19 4f c4 3f
       2.1470652 0.22818713 7.0290537 1.5336639
000230 6d 6c 0a 41 01 97 0f c0 05 22 7d 40 76 17 1a 41
       8.651471 -2.2435915 3.9552014 9.630728
000240 85 80 81 41 60 ac c7 3e 99 93 86 c0 19 59 91 bf
       16.187754 0.389987 -4.2055173 -1.1355315
000250 53 a7 40 41 45 09 09 3e 08 fe 48 41 89 e3 14 41
       12.040851 0.13382442 12.562019 9.305551
000260 91 31 49 41 f0 46 fa 3e b9 c5 c9 41 8e 9e 85 c0
       12.574601 0.48882246 25.221544 -4.175605
000270 7f fd 07 41 97 b7 5a 41 87 77 0b c0 bd 2e 98 3f
       8.499389 13.669822 -2.1791704 1.1889263
000280 b4 f1 50 41 a7 cd da 41 e9 3f c2 40 e5 7d 24 41
       13.05901 27.350416 6.0703015 10.280736
000290 e3 86 9a 41 a3 f6 13 41 74 d1 a2 40 16 f6 23 41
       19.315863 9.247714 5.088068 10.24758
0002a0 0d ec f1 c0 f4 25 82 41 c2 55 d8 3f f4 25 45 41
       -7.560065 16.268532 1.6901171 12.321766
0002b0 9a 3c 03 41 38 72 8c c0 f3 d6 cf 40 4e a2 70 41
       8.202295 -4.3889427 6.494989 15.039625
0002c0 e3 96 79 40 2a 72 34 41 19 66 28 41 94 d6 07 41
       3.8998344 11.277872 10.524926 8.489887
0002d0 08 f2 1e 41 f9 e1 87 41 fc e0 ff 41 f1 49 af 3f
       9.93409 16.985338 31.984856 1.369444
0002e0 40 55 05 41 b8 d0 c2 40 60 f5 af 40 55 72 93 40
       8.333313 6.0879784 5.498703 4.6077065
0002f0 ae 2f fa 40 de c4 89 c0 91 e0 0e 40 36 2b 78 40
       7.8183203 -4.3052816 2.2324564 3.8776374
000300 e1 17 f2 40 64 7f 1d bf f5 90 d5 41 26 79 d4 be
       7.565415 -0.6152251 26.69578 -0.4149868
000310 f3 3b b0 40 b5 e3 98 41 99 c0 2f c0 c1 53 b8 40
       5.507318 19.111185 -2.7461302 5.760224
000320 69 15 83 3f 8b 20 1f 3f ab aa 46 40 ab 6e 1b 41
       1.0240909 0.6215903 3.1041667 9.714519
000330 49 1f 54 40 32 90 14 3f 87 fa 2c 41 9f 72 f1 41
       3.3144095 0.58032525 10.811164 30.180967
000340 fe aa 4d 40 7d 5a 19 41 1b be e4 41 bb 6f 0c 41
       3.2135615 9.584592 28.592825 8.777278
000350 64 0c 0c 41 c4 88 ea 40 08 71 83 40 10 3c 08 42
       8.753025 7.329195 4.1075478 34.058655
000360 62 0d e0 40 e3 1f 81 40 fd cc 4e 40 23 21 8f 41
       7.0016336 4.0351424 3.2312615 17.89118
000370 9e 9d 68 42 e9 c8 b1 41 fc d9 51 be ff 75 18 3f
       58.153923 22.2231 -0.2049331 0.5955505
000380 99 01 6d 41 64 92 10 40 73 68 16 41 7c 76 4f 41
       14.81289 2.258935 9.4005 12.966427
000390 8a 5b 98 bf 9e bf c3 40 18 d8 0d be 9d 5a 5c 3e
       -1.1902936 6.117141 -0.13851964 0.21518941
0003a0 e6 1f 79 3e 17 dc 28 41 50 85 07 41 17 70 54 3f
       0.24328575 10.553733 8.470047 0.82983536
0003b0 4b e4 62 bd 24 e3 70 40 96 d8 13 41 c6 0a 46 c0
       -0.0553935 3.7638636 9.240377 -3.0944076
0003c0 b4 a5 16 3d a4 2c 06 c1 73 e7 12 41 98 e5 bf 40
       0.03677912 -8.385899 9.181506 5.9967766
0003d0 56 8a 69 41 6d cd 45 41 50 bb c7 c0 af 9b 5d 41
       14.596273 12.362653 -6.2416153 13.850509
0003e0 60 44 e7 41 bb e9 bf 40 ab 35 44 41 77 c5 f1 41
       28.908386 5.9972816 12.263103 30.221418
0003f0 af 2b f9 40 61 0c 12 c0 ca e7 e7 40 e3 93 09 c0
       7.7865825 -2.2820055 7.2470446 -2.1496513
