size8/agent_white_28000/model.npz (npz, 607958 bytes, 8 tensors)

l2/W f4 [256, 256]
00000000: d3b3 0d41 0aa6 15c1 8cda 94c1 3f87 1ac1
00000010: bbf4 cac0 2fb3 9b3f 4930 4f41 646c 2dc0
00000020: d7b2 083e 4cb5 05c1 c2f7 acc0 e10f 963f
00000030: 96c0 17bf 8552 f6c0 8c48 98c0 b610 8ac0
00000040: f3dc 863f 4f1d bec0 ac9a 84c1 de18 bebd
00000050: e7ca b1c0 ccb4 cabf 35df e440 6b11 d0bf
00000060: 2f6f 1840 7607 4cc0 c65b 30c1 cfd3 783f
00000070: ee75 4741 f5d7 0741 3849 a440 2ec7 68c0
00000080: 996a 8bc0 74cf 06c0 3450 acc0 1242 0740
00000090: 02a5 fd3f 5ac9 b440 8c76 81c1 e6b6 9140
000000a0: 3639 13c1 ed6e 2fc1 2e8e d0c0 f067 b0c0
000000b0: e9d4 a2c0 c694 18c0 80b9 7c40 28c9 cf40
000000c0: 2b59 e640 02fd 86bf f78e 29c1 4bad 0040
000000d0: 880b 30c1 3bfc b2c0 f099 d3c0 3fc9 2e41
000000e0: f659 1bc1 4e6c 4640 c8a2 02c0 b62d 78c0
000000f0: 4131 34c1 e5d9 e0bf d530 9fbf d39d 4f40
00000100: 89c4 01c0 5903 02c1 27d4 d6c0 786f 13c0
00000110: 227c 7abf 4408 be40 3c35 eabe f5ae b440
00000120: b539 c1bf fe61 883f 79b8 6dc0 c898 a540
00000130: 729d d1c0 5820 6a40 b23e aac0 ca2f ab40
00000140: 3fb4 f4c0 d2b3 31c0 82d8 ff40 638b 4bbf
00000150: fa86 d2c0 14d5 be40 ce73 15c1 b457 0a41
00000160: 7dd4 85c0 fc8e 5f40 5437 85c0 73f0 9c3e
00000170: f922 fcbf ed59 ab40 3cf5 9640 55eb 8640
00000180: 00a1 a9bd e080 8abe 86e8 b540 3cc3 aabf
00000190: a482 a03f 2c5b fbc0 76a7 42bd 649a 9740
000001a0: cd78 2740 7707 7ac1 8a08 b5c0 e1a7 5f3f
000001b0: e757 453f 882c d9c1 21fb b6c0 6217 b7bd
000001c0: e63c 2ec0 6ebc f9be eb7e b1c0 fdf4 18c1
000001d0: c15e fc40 0b8d f4c0 0ffb ebc0 acec db40
000001e0: 05a7 5440 cb2a 12c1 3c59 eebd 2b71 8ac1
000001f0: 3abe 0c40 838c 723f 0253 42c0 9b8d 9fbf
00000200: a61c bfbf f866 94c1 b9d7 0240 75a8 1640
00000210: 1b4b d3c0 4eca ae3f 9494 0c3f 5b65 b940
00000220: e666 fbc0 b970 a0c0 298e 10c0 884f 63c0
00000230: 37df a5bf 7ea6 d740 80a6 d7bf c36a d8bf
00000240: bc17 00c1 a4b7 443f 2675 fc40 8818 8f40
00000250: e738 b4be 79ab dfbf 7ae1 05bf 03a1 91bf
00000260: f125 893f ecbb 873f 62de c23f d8a9 6ec0
00000270: b59b 0fbf 8b9d 6fc0 45e0 e140 e9a7 84c1
00000280: fca0 1fc1 3fa9 1b40 23f3 10c0 8d12 ca40
00000290: 29c2 bdc0 46a2 8bc0 5a41 2dc0 b8b9 b73e
000002a0: d7cc d8c0 8b85 89c1 9978 2940 e0d5 803e
000002b0: 2daf 4fc1 e5b7 d4bf 1f2d a7c1 e039 54c0
000002c0: 7284 df3f 6bf3 b140 5baf 1041 9606 d2c0
000002d0: 743f 81c0 0b25 7d41 68cc 46c0 e0e8 c3c0
000002e0: 2a1a abc0 9e12 683e 9a19 07bf cb06 26c0
000002f0: aa7b 74c1 837f 15c0 e31e d33e 92a9 0d41
00000300: dc63 1bc0 d2bf 7a40 4757 ddbf 6523 5a40
00000310: 617d f23f 7651 a43f cd3e c740 3d44 0741
00000320: 6066 8fbe 63db f6c0 bd70 b9c1 818d 37c1
00000330: 457c 68bf 5a91 9ec1 e902 f13e a9ed c63f
00000340: 65c5 0c40 fa59 4f40 56fe 7cc1 6a55 6940
00000350: c8f4 00c1 3c35 3dc1 79b3 42c1 962e 04c1
00000360: 9afc 9440 cfa0 82bf 5867 1fc0 0b05 21c1
00000370: 7f4c a0bf 9075 91be 4765 bb3f a351 ab40
00000380: 9feb 79c1 3ffb 06c1 5c02 7240 ca76 86c0
00000390: 5d06 a740 6d59 38c1 86a7 2641 3b0e bf40
000003a0: f84b c2c0 a5ec f3c0 239c 94bd bcab fc3f
000003b0: 0336 e53f 4c42 bf3f fb96 10c1 0bba 84bf
000003c0: 28c4 6d40 778f 1340 7497 96bf 3b02 36bf
000003d0: cbae e2c0 073d b7c0 e63e 4140 23b9 e83f
000003e0: 6928 e940 5b59 d540 cfec df40 4176 0b41
000003f0: 9465 b8c0 ea6b b7c0 9318 50bf ade5 8fc0
8.856402 -9.353037 -18.606712 -9.658019 -6.3423743 1.2164057 12.949288 -2.7097406
0.13349472 -8.356762 -5.405244 1.1723596 -0.5927824 -7.697573 -4.758856 -4.31454
1.0536178 -5.9410777 -16.575523 -0.09282087 -5.5560184 -1.5836425 7.152247 -1.6255316
2.381786 -3.1879554 -11.022406 0.97198194 12.466291 8.490224 5.133938 -3.637157
-4.3567624 -2.106412 -5.3847904 2.1134076 1.9815981 5.649579 -16.182884 4.5535765
-9.2014675 -10.9645815 -6.517356 -5.5126877 -5.08849 -2.3840804 3.948822 6.493305
7.198385 -1.0545962 -10.597404 2.010577 -11.002815 -5.59329 -6.612541 10.924132
-9.709463 3.1003604 -2.0411854 -3.87779 -11.262025 -1.7566496 -1.2436777 3.2440078
-2.0276206 -8.125817 -6.7133975 -2.3036785 -0.9784566 5.938509 -0.4574374 5.646357
-1.5095736 1.0654905 -3.7143843 5.1749 -6.5504694 3.658224 -5.320153 5.3495836
-7.6470027 -2.7766004 7.995179 -0.7950956 -6.5789766 5.9635105 -9.340773 8.646412
-4.1821885 3.493102 -4.163004 0.30652198 -1.9698173 5.3547273 4.717436 4.216227
-0.082826614 -0.2705145 5.684634 -1.3340831 1.2539868 -7.8548794 -0.047522984 4.7375965
2.616748 -15.626822 -5.6572924 0.8736554 0.77087253 -27.146744 -5.7181554 -0.08940007
-2.722467 -0.48776573 -5.546743 -9.559812 7.8865666 -7.642217 -7.374397 6.8726406
3.322694 -9.1354475 -0.11638114 -17.305258 2.1991105 0.94745654 -3.0363164 -1.246509
-1.4930618 -18.550278 2.0444167 2.3540318 -6.602918 1.3655488 0.5491421 5.7936225
-7.856311 -5.01376 -2.2586768 -3.5517292 -1.2958745 6.7390738 -1.6847687 -1.6907581
-8.005795 0.76842713 7.8893003 4.4717445 -0.35199663 -1.7474204 -0.52297175 -1.1377262
1.0714704 1.0604224 1.5224116 -3.7291164 -0.56096965 -3.7439907 7.0586267 -16.581987
-9.976803 2.432205 -2.26484 6.3147645 -5.929951 -4.363559 -2.7071137 0.3588388
-6.775005 -17.190207 2.6479857 0.25163174 -12.980268 -1.661862 -20.897032 -3.3160324
1.7462294 5.560964 9.042811 -6.563304 -4.0389957 15.821544 -3.106226 -6.122177
-5.346944 0.22663352 -0.5277344 -2.5941646 -15.280191 -2.3359077 0.41234502 8.853899
-2.42797 3.9179578 -1.729226 3.4084103 1.8944513 1.283736 6.226416 8.45416
-0.28007793 -7.7142806 -23.180048 -11.472047 -0.9081462 -19.820972 0.47072533 1.5541278
2.199548 3.2398667 -15.812094 3.6458383 -8.059761 -11.825497 -12.168817 -8.2613735
4.655835 -1.0205325 -2.4906826 -10.063731 -1.2523345 -0.28410006 1.4640282 5.3537154
-15.620025 -8.436339 3.781394 -4.2020006 5.219527 -11.521832 10.415899 5.970487
-6.0717735 -7.6226373 -0.07256343 1.9739909 1.7907108 1.4942107 -9.03686 -1.0369276
3.7150974 2.3056314 -1.176497 -0.71097153 -7.083837 -5.7261996 3.019464 1.8181499
7.286183 6.6671576 6.9976573 8.716371 -5.7623997 -5.731923 -0.812875 -4.4967866

l2/b f4 [256]
00000000: b445 e33f 63d7 b53d eded 9c3f f29e 813f
00000010: 6513 c23f 20fe 9340 4feb d43e a7c1 a03e
00000020: 022f daba 7868 3141 a025 6440 dc72 0e3f
00000030: 9aa9 0640 82d5 2e40 c15c 3d40 8a27 9cbf
00000040: 87ae 21bd 1c23 0c3e e367 a13f ed13 2440
00000050: 5e1d 5f3f 4eca e83f d702 af41 38d4 803f
00000060: 8625 c13f a4ea 1d40 b0de 0541 e3c3 a740
00000070: 6922 3bbf ba66 9abf 2f84 1a40 3252 93be
00000080: d388 2240 6aae 42c0 1164 9e40 ba08 2e3f
00000090: 11ea 7240 efb9 aa3e 5f71 cbbf 0a97 e33f
000000a0: ee22 f73f 4a0f 9a3f b804 2b40 7d3c 5540
000000b0: 269e 2940 b697 0240 cf1a ff3f 3d09 1540
000000c0: 1a88 80bf 59a6 9540 a92b a23f d175 5340
000000d0: 5040 0d40 2fed 3940 7f4f 153f de74 f93f
000000e0: 9fa1 d13f cc40 f53f 2cc8 a240 0e41 a140
000000f0: f63e a33f d3c5 b63f 6c74 93be 7f56 5ebf
00000100: c803 c340 74b5 2abd 3b2d 1341 7f95 953f
00000110: 6f27 1fc0 c0d6 5f3e 827e b9bf 0634 cb3f
00000120: f177 6e40 680f 2b40 6f4c 1dc0 81e9 d43f
00000130: b31f c840 2fa7 4d3f 874d 7abf 4ce2 d23f
00000140: dc9b b53f 3626 1a40 66a1 523f 6563 1640
00000150: f473 85bc 753d 8640 8821 df3f ef09 48be
00000160: 2b2b fabf a29b 9340 de87 56bf 0a04 9c3f
00000170: d808 5b3e 2f9e 0abf b59a 6ebf 212a 913f
00000180: e454 ab3f 16d5 0241 d26b aa40 dadf 05bf
00000190: 71f5 08bf 5259 aebf bcbd 663f 2282 d73f
000001a0: b27e cbbf 42a5 753f 6191 8a40 82be a1bf
000001b0: b33d f93f 47f6 5f3f 75a9 373f 8dfc 70bf
000001c0: 4071 7040 6904 3bbe 0b3d 08bf 7630 2240
000001d0: c601 0540 ca79 573f 8a56 453f c12d b33f
000001e0: cae1 c640 ebd6 c840 cb2a 02be efa2 ee40
000001f0: fc0b a240 f980 443f 71d1 2a3f 7dd9 a63f
00000200: 899c cc3f 1a3d 843f 6ed0 8c3f f63c ba3f
00000210: 641f d53f 3157 4540 a1b5 543e d7c3 2bbf
00000220: bbb4 7f3f 85ec 2c3f 4bd9 4140 d5f8 0d40
00000230: 873d 22c0 73c3 a93f 4855 1340 0522 8540
00000240: 0135 8540 704e 023f 707f b7bf 3a2c af3e
00000250: 0fd5 593e 5c38 1ac0 36f7 49bf e89f 2540
00000260: 4f6b 5940 370f a340 63bc 9bbf c282 2140
00000270: 858a eabf 313d 0c40 8f41 6fbf ccea 09c0
00000280: 5cd7 a13f fbf8 db3f 4d04 07bf 3ac4 1a40
00000290: e6ba 6bbf cb91 b0bf d3d5 8940 5c16 0340
000002a0: f71f 273f 9928 8040 fef1 8440 a4e6 cf3f
000002b0: 4568 2240 459b d2bf 7ecf a03f b09b c140
000002c0: 0c18 843f 6e63 1abf b6f0 4e3f c02c 0140
000002d0: ae34 0cbf 9da3 2f40 fa9b a0bf 38ee d13b
000002e0: 4e22 22bf 2c5c 29c0 ab94 e83f 6839 8f3f
000002f0: 556d ffbe 4585 ec3f 03f7 823f 6043 ab3d
00000300: c154 9640 b204 bc3f ae46 2840 df1b 31bf
00000310: fa93 853f cd5f 483f 1899 5440 11c7 1940
00000320: 8488 98be da3f b240 125f 6240 67ca 9f3e
00000330: 9908 313f 0c47 a540 c117 973f 5968 afbe
00000340: 012f 3640 816f d23f a23e 513f 4db5 ae40
00000350: ed10 0840 0539 c5be 9186 d73f 634f a23f
00000360: 1dfa 00c0 88f1 853f 1771 dd3f f014 c4bf
00000370: cbb2 c23d 1c19 1240 f0ac 463f 4cba 9e3f
00000380: 526c 9b3f dc00 943f 1d27 1a40 11a3 5940
00000390: 0546 f53f df77 3240 bc95 3940 d5fc 973f
000003a0: 5d07 17bf a6f6 5dbf bdac adbe 49fc 1c3f
000003b0: c2a2 6740 e2f7 6140 5db1 24bf 6963 1540
000003c0: 29da b9bf 7275 123f 8f0e 4b3d a1d3 d53f
000003d0: ec39 193e 0958 533f 420d 0e41 bbf7 07bf
000003e0: 25a4 5f3f 6edc d83f 774d 4040 fc06 1b40
000003f0: 3741 9a3f 79a2 9e3f 2978 5cbe 7c1c 00bf
1.7755647 0.088789724 1.2260109 1.0126631 1.5162169 4.624771 0.41585776 0.31397745
-0.001664609 11.088005 3.5647964 0.5564401 2.1041017 2.7317815 2.9587862 -1.2199566
-0.039473083 0.13685268 1.2609829 2.5637162 0.87154186 1.8186738 21.876387 1.0064764
1.5089576 2.4674463 8.366867 5.242662 -0.7309938 -1.20626 2.4143178 -0.28773648
2.539601 -3.0418954 4.949715 0.67982066 3.7955363 0.3334498 -1.5893973 1.7780468
1.9307535 1.2035916 2.672163 3.331817 2.6502776 2.0405097 1.9930056 2.3286889
-1.0041535 4.676556 1.2669574 3.304066 2.2070503 2.9051015 0.58324426 1.948879
1.6377448 1.91604 5.086935 5.0391912 1.2753589 1.4279121 -0.2879976 -0.8685073
6.0942116 -0.041676953 9.198543 1.1686248 -2.4867818 0.21859264 -1.4491732 1.5875251
3.7260706 2.6728153 -2.4577901 1.663376 6.2538695 0.80333227 -0.9777455 1.647531
1.418819 2.4085822 0.82277524 2.3498166 -0.016290642 4.195002 1.7432108 -0.1953504
-1.9544424 4.612748 -0.83801067 1.2188733 0.21390092 -0.5414762 -0.93204814 1.1340982
1.3385282 8.177023 5.3256617 -0.52294695 -0.53499514 -1.3621008 0.9013326 1.6836588
-1.5898039 0.9595529 4.3302464 -1.2636263 1.9471954 0.87485164 0.71742946 -0.9413536
3.7569122 -0.18263401 -0.53218144 2.5342078 2.0782332 0.8417021 0.77085173 1.3998338
6.215062 6.276235 -0.12711637 7.4573894 5.063963 0.76759297 0.6672583 1.3035122
1.5985271 1.0331147 1.1001108 1.4549854 1.6650205 3.0834467 0.20772411 -0.670957
0.9988515 0.675484 3.0288875 2.2183125 -2.5350053 1.3262771 2.3020802 4.160403
4.16272 0.50900936 -1.4335766 0.3421343 0.21272682 -2.40969 -0.7889284 2.587885
3.3971746 5.0956073 -1.2166866 2.5236058 -1.8323523 2.1912348 -0.9345941 -2.1549559
1.2643847 1.7185358 -0.5274094 2.4182267 -0.9208206 -1.3794492 4.3073516 2.0482397
0.6528315 4.004956 4.15454 1.6242261 2.537614 -1.6453635 1.2563322 6.050255
1.0319839 -0.6030797 0.80836046 2.0183563 -0.5476788 2.7443612 -1.25476 0.0064065717
-0.63333595 -2.6462507 1.817037 1.1189394 -0.498881 1.8478171 1.0231632 0.0836246
4.697846 1.4688933 2.629314 -0.6918315 1.0435784 0.7827118 3.321844 2.402775
-0.29791653 5.5702944 3.5370526 0.31209108 0.69153744 5.1649227 1.1804124 -0.34259298
2.846619 1.6440278 0.81736195 5.4596314 2.126033 -0.38520065 1.6837941 1.2680477
-2.0152657 1.0464334 1.7300137 -1.531889 0.09506758 2.2827826 0.7760763 1.2400603
1.2142432 1.1562762 2.4086373 3.4005778 1.9161993 2.7885664 2.899764 1.1874033
-0.5899561 -0.8670448 -0.3392085 0.61322457 3.619309 3.5307546 -0.64333135 2.3341925
-1.4519702 0.5721046 0.04957443 1.6705209 0.14963502 0.82556206 8.878237 -0.5311238
0.8735984 1.694227 3.004728 2.4223013 1.2051152 1.2393333 -0.21530212 -0.50043464

l1/W f4 [256, 64]
00000000: 7da3 a441 f328 a1c1 5bd6 42c1 c68d 6d41
00000010: 71df 0040 9918 e8c0 7e8b fbc0 51ed b140
00000020: 140f 983f cc90 1540 6bb5 0140 8bca f13f
00000030: 7c5f 2ac0 1035 f63f 9f78 1040 6438 68c0
00000040: e785 cf3f 3785 ab40 ccc1 40be 37cb 61c0
00000050: e3d3 80c0 4567 95bf 15d0 b940 5e1e d93f
00000060: 7538 1f41 67f8 d8c0 8476 2040 16bb 9ac0
00000070: ede6 6f40 9db8 2640 bc65 df40 d6cf 1540
00000080: 8108 8ec0 4829 a9c0 3c39 9e40 942e 11c0
00000090: 0f69 33bf 5b69 b4bf 1030 85c0 dcca c3bf
000000a0: 0cff 2e41 302d 8040 1c18 ffbf a384 933e
000000b0: 05a5 d7bd 976f 3e40 d428 0a3f 0a76 2cc1
000000c0: bb63 7240 77bf 4c40 b795 a7bd 509b dc40
000000d0: 94b1 c240 240b 66c0 5244 85bf da91 4840
000000e0: 4a2f b541 7057 8540 c9a1 0ac1 98e0 d540
000000f0: a384 b7bf d7a6 5ec0 9043 27c1 2e98 2ac1
00000100: bfde 3241 85b3 31c1 0f45 ed3f 5f27 53c1
00000110: 46ac 04c1 ee6d 14c1 087a f240 8f6b 51c0
00000120: 136e b5c0 4faf 3f40 2cb2 a4bf 9a75 5540
00000130: 15ba 89c0 7d12 4dc0 1542 cc40 5b07 b740
00000140: df81 ec40 047f e7c0 ea8b 4d3d 02f2 34be
00000150: 3c53 c13f 527e 4d3e 347d a640 2e04 8ac0
00000160: 62af 49bf 7c27 ab40 e980 28be 0dcc 6640
00000170: 4bff da3f 6f1d 853f b75a 2bc1 b3ba 80c0
00000180: c8a1 9540 92f5 f53f 1ca9 013f afda 56c0
00000190: 6f79 a4be b818 62c0 f4ce 6c40 1668 d6c0
000001a0: ad9a c3c0 16d1 aac1 2ff9 2840 6bb6 1740
000001b0: 2d1e dfbf 48dd bd3f b9de e340 fd29 1640
000001c0: 9ab9 5840 9752 d4bc 7b92 f9bf 1d86 1ec1
000001d0: 4aa7 80c0 ba4a 943f 9260 2d41 2826 26c0
000001e0: e72d 8e40 7d63 29bf 85cb aec0 7f4e c9c1
000001f0: 0047 1e41 dc12 6440 d676 973f b33c 0641
00000200: ef79 2dc1 09ab e840 d9e8 ca40 7be2 7b41
00000210: 82d8 8abf a30a 9b40 e042 7040 6d7a 723f
00000220: 8c75 2141 bce9 eabe 2dcf 86bf 3d8e 53bf
00000230: dccb c73e 674f 0840 093e b640 550b 8fc0
00000240: f6dd 54c0 e0b6 0341 a1d2 39c1 6618 5ec0
00000250: 46e6 42c0 1683 53be 38f6 d340 9d22 8140
00000260: 1356 5541 b00b afc0 210b bfbf 10e3 7a40
00000270: a20b 25be a7d7 2bbe 7ae7 38bf a5c9 90c0
00000280: d037 9bc0 d8e9 c83f 6962 1ec1 996d f83f
00000290: faaf 5140 8246 b1be e043 99c0 89b8 80c0
000002a0: a2b5 b540 62ac 05c1 5e44 70bf 2d50 8640
000002b0: 26de d340 925c 28be 8ab8 52be 47f9 3bc1
000002c0: bb74 11c0 7f72 4cc1 2a32 12c1 8723 a6bf
000002d0: 6b09 293f a99e 56c1 eab5 8fc0 ba05 ffc0
000002e0: 9a5a 2dc0 aa71 8f3e fb37 1bbf d026 1b41
000002f0: ffa4 f5c0 89b9 81c1 470c 883f 5dd5 ffbf
00000300: c95d 3a3f 9501 5f41 0306 c63f cdca a640
00000310: ba5f ccc0 b19c eabf d6ca a140 1c06 2741
00000320: ebc3 a7c0 665e 09c1 7100 0440 48a3 ce40
00000330: 4b94 1ac1 63cd 2ebd 0842 8240 3130 4c40
00000340: d22a 8340 ab6b ecbf 4d0b e73f ac70 6dc0
00000350: e36e 8e40 f656 98bf bb05 3940 2d36 95c0
00000360: 4405 acc0 60a0 6b3e 2a4b d240 e10d f6be
00000370: d682 5bbf 0491 3b40 64db fcbf 6911 0640
00000380: 6aef 1ec0 cb92 6a40 13b4 5e40 d32b 38c0
00000390: b5ea 8dbd c0c1 303f 2c52 0dc0 bd68 36c1
000003a0: eb7d 07c1 64f7 5f40 a2fe d7c0 8388 16c0
000003b0: 3e86 11c0 6bee be40 efaa a03f 8e8b 72c1
000003c0: 6e03 5f40 2a05 04c1 6628 2d40 33e9 28c1
000003d0: ed5b 7240 94be 4041 d4e7 fc40 bbcf 4040
000003e0: 6944 8cc1 cf53 2fc0 4c5f 43c1 7012 b43f
000003f0: 37f8 bec0 e2ed 6141 ef45 1b41 9db8 81be
20.579828 -20.144995 -12.177333 14.847113 2.0136378 -7.2530026 -7.860778 5.5602193
1.1879601 2.3369627 2.0266979 1.8889936 -2.662078 1.9234943 2.2573621 -3.6284418
1.6212739 5.3600116 -0.18823928 -3.5280282 -4.025865 -1.167214 5.8066506 1.6962392
9.951283 -6.7803226 2.5072336 -4.8353376 3.7484696 2.605018 6.9811687 2.3408103
-4.438538 -5.286289 4.9444866 -2.268468 -0.7008218 -1.4094652 -4.162117 -1.5296283
10.937267 4.005516 -1.9929233 0.2881213 -0.10529522 2.975561 0.5396855 -10.778818
3.787337 3.199186 -0.08182853 6.893959 6.084177 -3.59443 -1.0411475 3.133902
22.64809 4.1669235 -8.664498 6.683666 -1.4337353 -3.478933 -10.453995 -10.662153
11.179381 -11.106328 1.85367 -13.197112 -8.292059 -9.276838 7.5773964 -3.2721899
-5.669687 2.995075 -1.2866874 3.3353028 -4.303965 -3.2042534 6.3830667 5.719648
7.3908534 -7.234255 0.05018226 -0.17670444 1.5103526 0.20067719 5.2027836 -4.31301
-0.7878324 5.34857 -0.16455425 3.6062043 1.7109159 1.0399607 -10.709647 -4.0227904
4.6759987 1.9215567 0.50648665 -3.3570974 -0.32123896 -3.5327587 3.7001314 -6.700206
-6.1126313 -21.352093 2.640209 2.370509 -1.7431084 1.4833155 7.120938 2.3463128
3.3863282 -0.025918288 -1.9497827 -9.9077425 -4.020421 1.1585305 10.836077 -2.5960789
4.4431033 -0.6616743 -5.4623437 -25.163328 9.892334 3.563651 1.1833141 8.389819
-10.842269 7.2708783 6.340924 15.742793 -1.0847323 4.8450484 3.7540817 0.94718057
10.091198 -0.4588145 -1.0531975 -0.82638913 0.3902272 2.1298463 5.6950727 -4.4701333
-3.3260474 8.232147 -11.613923 -3.4702392 -3.0453048 -0.20655474 6.623806 4.0354753
13.333514 -5.4701767 -1.4925271 3.9201088 -0.16117719 -0.16781484 -0.72228205 -4.524615
-4.850563 1.5696363 -9.899026 1.9408447 3.2763658 -0.34624106 -4.7895355 -4.0225263
5.678422 -8.354586 -0.9385432 4.197287 6.6208677 -0.16441563 -0.20578209 -11.748359
-2.2727497 -12.777953 -9.137247 -1.2979592 0.66029996 -13.413735 -4.4909563 -7.969449
-2.7086549 0.28016406 -0.60632294 9.696976 -7.676391 -16.215593 1.0628747 -1.9986988
0.72799355 13.937886 1.5470585 5.212256 -6.3866854 -1.8329068 5.0560102 10.438992
-5.242666 -8.5855465 2.062527 6.457432 -9.661204 -0.04267634 4.0705605 3.1904414
4.098977 -1.8470358 1.8050324 -3.710002 4.451036 -1.1901538 2.8909748 -4.6628633
-5.375643 0.23010397 6.5716753 -0.48057464 -0.85746515 2.930726 -1.9754453 2.0948126
-2.4833627 3.6652095 3.4797409 -2.8776748 -0.069295324 0.6904564 -2.2081404 -11.400571
-8.468242 3.4994745 -6.749833 -2.352082 -2.2738185 5.9666038 1.2552165 -15.159071
3.4845843 -8.251261 2.7055907 -10.556933 3.7868607 12.046528 7.9032993 3.0126789
-17.533403 -2.7394903 -12.210766 1.4068127 -5.9677997 14.120577 9.704574 -0.2533616

l1/b f4 [256]
00000000: ce37 0cbf b607 453f 95e2 2540 ffa7 58bf
00000010: edb4 b4bf fa78 91be 927b c53e 07ce 743f
00000020: 8e43 813e 3610 82bd 932b d3c0 7780 2cbf
00000030: a87a 7ec0 26ca 17c0 8beb d4be c2c2 4ec0
00000040: 8b95 fbbd 8f83 98bf 7179 b23f 16a8 4a3f
00000050: 6f59 763f 9579 fe3e 608c 9e40 3917 c43d
00000060: ad40 22c0 a18c e4c0 3733 b83f fb58 cebf
00000070: 88c4 6040 e750 6fc0 ced9 c0bf 2651 2540
00000080: 74ea de3f 10c9 aa3f 7b43 12c1 db2a 4440
00000090: dcd7 6b40 eb48 8c40 6ac0 4e3f 8856 0d40
000000a0: da69 3fbf 36c4 98bf 6714 dfbf e2d7 dac0
000000b0: 7008 f1bf 5dc3 dfbf 29c0 81c0 a4b8 3bc0
000000c0: cff1 afc0 b0d0 b140 8df0 8f3f 5dd2 ae40
000000d0: 77d9 6d40 f7a9 49c0 9baf 2540 cec8 913f
000000e0: 1683 d8bf 32d6 e63e 5201 8e40 1806 b13f
000000f0: 7b99 6340 3b8b 43c0 8705 8340 aa9b b0bf
00000100: 7842 46c0 ccd4 3740 07d2 5bc0 cb36 d6be
00000110: 6399 54c0 8a80 2a40 373b 97be 8a52 17bf
00000120: 4ea2 043f 0a44 70bf 5e64 d43f 830e 40c0
00000130: df82 c33f 8c82 70bf 0690 0540 3ba7 3141
00000140: 986c 1abd aef2 1fc1 5c70 0ebe f851 1d3f
00000150: 3187 f73d dc01 2dc0 17ab b3bd 4306 3140
00000160: a990 0740 41c7 7640 fc26 27c0 544b 0a40
00000170: 1000 3540 80d6 1fc0 c3d4 e83f 2066 533f
00000180: 4a35 1ec1 e75b 1ec1 e3b7 f83f 151c 42c0
00000190: 70a9 ec3f f09d 71bf 0a60 40c0 a8b7 873f
000001a0: c5fa 1e40 3325 bebf ee29 fbbf fac9 b3be
000001b0: 990b b6bf 5147 b940 7107 9fc0 a3d7 3940
000001c0: dbc4 8640 f0e6 ad3f f56a 95c0 41c9 5b3f
000001d0: 4c69 e83d a9da 9e40 337e f83f 1915 77be
000001e0: acf3 b840 6050 c7c0 049e 55c0 c562 81bf
000001f0: 5303 21c0 08cc 803f 1517 ac3d 2564 81be
00000200: 95fb 91c0 a7d7 02c1 b687 cb40 9d7f ecbf
00000210: 4072 2440 21d1 02c0 1af7 52be 8f23 c140
00000220: ef97 d1c0 5f55 84c0 5ae2 b3bd 2031 1dbe
00000230: 83ff f9c0 ecda ddbf cf59 bb3f fae5 fabf
00000240: 0894 a6c0 cb1c 36bf 7dbe 823f f17a 8640
00000250: cdbc 6440 d91d a3c0 f240 0cc0 50a0 2440
00000260: b47e 7a3f 0821 0cc0 9158 28c0 79dc 7c3e
00000270: c4ad 8abf 9602 8f40 a0a7 1dc1 14b2 f240
00000280: f1c2 6940 6ea0 b5bf d653 563f c607 ec3f
00000290: 5797 9d40 9c0e e3c0 eebf 9840 abea a2c0
000002a0: 242b c2c0 91bc 31c1 a02a 82c0 94ca 1c40
000002b0: 4447 ec3f 65f6 1840 def7 8240 edd9 c4c0
000002c0: 3fce d2bf c9be aebf f511 1640 d5fc 21c0
000002d0: 9fce 3940 bdf4 093e 4c77 a13f e672 923f
000002e0: 31ca 033f 9253 c83f 2b30 c0c0 a44d 1040
000002f0: 7e08 01c0 596b d13f 22d4 a0bf c8e6 2d40
00000300: 9edc d6bf 9571 d43e b9b7 76c0 4775 e73d
00000310: 8bc7 4740 f2f1 c0bf 15b1 e1bf bf3f 8140
00000320: 9f38 11c0 691e aebf 620e 43c0 7714 083f
00000330: a95b ba3f b9f4 6dc0 4758 8ac0 1ec3 e8c0
00000340: 547b 43c0 f053 4dbf c313 0ac1 25b0 aebf
00000350: 8fa1 55c0 94cb 3240 721a 8fbf e7ac d6bf
00000360: 2e2f 633f e590 a3bf 644a aebe 617e 6fbf
00000370: b70d 23c0 4bc1 8dbf ec0c 47bf 1f71 18c1
00000380: 867a 4c40 b0cc 6bc0 4538 77be 72a7 cdbf
00000390: e323 9cbf 7524 0840 c9da b53f e51b aac0
000003a0: f9dd cf3f 210d 66c0 35af 8440 acfb 39c0
000003b0: e86c 1940 37dc d240 8c3e 32c1 8f3b 0a40
000003c0: 78c0 37c0 d6ce d2c0 8615 92c0 1315 7cc0
000003d0: 68e2 41c1 46d8 6dc1 4d68 96c0 a9a3 c8bf
000003e0: 5e3f b140 e53c 713f 98b0 8ebe 07af 8640
000003f0: 85e6 a2c0 595b ec3f f3d7 09c0 decd aac0
-0.5477265 0.7696489 2.5919545 -0.8463134 -1.4117714 -0.2841261 0.3857084 0.9562687
0.25246853 -0.06350748 -6.599069 -0.6738352 -3.9762363 -2.3717132 -0.41585955 -3.230637
-0.122843824 -1.1915148 1.3943311 0.7916273 0.96230215 0.49702135 4.9546356 0.09574742
-2.5351975 -7.1421666 1.439063 -1.6120905 3.5119953 -3.739313 -1.5066469 2.583078
1.74153 1.334261 -9.141475 3.0651157 3.68505 4.383901 0.8076235 2.2084064
-0.7477089 -1.1934879 -1.7428101 -6.838853 -1.88307 -1.7481495 -4.054707 -2.9331446
-5.4982677 5.5567245 1.1245285 5.463179 3.716398 -3.1509988 2.588843 1.1389406
-1.6915004 0.45085293 4.437661 1.3829985 3.5562427 -3.055373 4.0944247 -1.3797505
-3.097807 2.872363 -3.434694 -0.4183868 -3.321862 2.6640954 -0.29537365 -0.5911032
0.5181016 -0.9385382 1.659313 -3.0008857 1.5274314 -0.939492 2.0869155 11.103328
-0.03770122 -9.996748 -0.13910049 0.614532 0.120863326 -2.7032385 -0.08772867 2.7660072
2.1182044 3.8559115 -2.6117544 2.1608477 2.8281288 -2.497467 1.818993 0.82577705
-9.88801 -9.897437 1.9431118 -3.032964 1.8489208 -0.9438162 -3.0058618 1.0602922
2.4840558 -1.4855102 -1.9622171 -0.35115033 -1.4222289 5.7899556 -4.9696584 2.9037864
4.21153 1.3586102 -4.6693063 0.85853964 0.11348209 4.964192 1.9413513 -0.24129142
5.779745 -6.2285614 -3.3377695 -1.0108267 -2.515828 1.0062265 0.0840284 -0.25271717
-4.5619607 -8.1776495 6.3603163 -1.8476444 2.5694733 -2.0440142 -0.20602074 6.0355906
-6.5497966 -4.1354213 -0.087834075 -0.15350771 -7.8124404 -1.7332435 1.4636782 -1.9601433
-5.20557 -0.71137685 1.0214382 4.2025075 3.5740235 -5.0973935 -2.191464 2.5722847
0.97849584 -2.189516 -2.6304057 0.24693479 -1.0834279 4.4690657 -9.853424 7.584238
3.6525233 -1.4189584 0.83721673 1.8439872 4.924724 -7.0955334 4.773429 -5.091146
-6.067766 -11.108537 -4.0677032 2.4498644 1.8459249 2.3900387 4.092757 -6.1516023
-1.6469191 -1.3651973 2.344846 -2.5310566 2.9032362 0.13472266 1.2614532 1.1441314
0.51480395 1.5650504 -6.00588 2.2547388 -2.0161433 1.6360885 -1.2564738 2.7172108
-1.6786077 0.41492906 -3.8549635 0.11301666 3.1215541 -1.5073836 -1.7632166 4.0390315
-2.2690809 -1.360303 -3.0477529 0.53156227 1.4559222 -3.7180617 -4.323276 -7.273818
-3.0544024 -0.80206203 -8.629825 -1.3647505 -3.3379858 2.7936754 -1.1179945 -1.6771516
0.88743865 -1.2778593 -0.3404113 -0.93552214 -2.547712 -1.1074613 -0.7775409 -9.527617
3.1949782 -3.6843681 -0.24142559 -1.6066725 -1.2198452 2.1272252 1.4207393 -5.315905
1.6239616 -3.5945513 4.1463876 -2.9059858 2.397272 6.5893817 -11.14027 2.1598852
-2.8711224 -6.5877485 -4.5651274 -3.9387863 -12.117775 -14.865301 -4.700232 -1.5674945
5.5389853 0.9423354 -0.27869105 4.2088656 -5.0906396 1.8465377 -2.1538055 -5.3376303

l4/W f4 [64, 256]
00000000: 7c59 a341 ac10 9941 e7a0 8041 4d28 dc41
00000010: 14d7 e040 a0d2 1041 c591 9f41 1045 9541
00000020: 6000 3d41 2360 9041 f3ec a941 c11f 9f41
00000030: 253a 9341 6695 b841 b1dc 8341 6c5a 9741
00000040: 18a5 ab41 0c94 8941 7090 9841 8a57 9741
00000050: 30f3 8c41 451b 8d41 9079 4641 8df1 8d41
00000060: cb0f 8241 dcc8 9141 ae8c 9241 1591 bf41
00000070: fd75 c441 ac02 c241 0496 bb41 b33b a241
00000080: 6df2 b741 f6e3 8141 5972 c341 6d41 d43f
00000090: 4117 bd41 d2b2 a641 61c1 9d41 4774 7941
000000a0: 5f54 5341 4c5d 9341 c311 cc41 fba6 8741
000000b0: 4423 9541 88fe 9141 e41c 2441 9aea 9a41
000000c0: 0b00 9e41 ca54 d241 7f14 7841 b78a c041
000000d0: d688 c241 2026 b441 8a1e 9e41 283e da41
000000e0: e2c4 af41 94e8 b341 c8db a941 54f2 ca41
000000f0: 0008 5741 c52f ca41 dcc6 b841 e44e b041
00000100: 5620 8f41 b9df ae41 05e0 b941 e2ff 8741
00000110: ca58 ab41 91d1 8241 64f8 a641 adaf 9841
00000120: 7d40 9e41 5956 9041 9570 9b41 a069 a441
00000130: e28e a441 2a4c 8541 be61 a441 aa63 8941
00000140: 3eb6 8b41 bb1b cf41 32ad ba41 cbe3 b041
00000150: bce0 4c41 ba48 e240 c113 9e41 5ab0 a341
00000160: ff64 c241 99b4 b541 cd5f b841 716d 9341
00000170: 9c00 a441 abd3 5741 f94c 9c41 02f2 8341
00000180: 6686 4241 7817 ae41 a3d7 4041 c4c0 2f41
00000190: 95a0 b641 11ab 8841 458d 7541 a557 c441
000001a0: 235b 6741 8c4c 8b41 097a 8e41 a816 0e41
000001b0: 48e2 a941 e036 b341 e261 9541 4979 9d41
000001c0: bc1f 8041 ce1e 9641 3176 0641 c047 a841
000001d0: 823e 5141 1a6e 3a41 82e9 b441 2208 7a41
000001e0: 37a3 9541 93df 8741 1be7 9241 26d2 9141
000001f0: 2c71 ab41 bbaf a241 bfaa cc41 f415 9a41
00000200: b269 ab41 2391 2741 06fa 7341 afc2 a441
00000210: 26ae 9241 9001 0f40 2180 c240 48fd 1a41
00000220: 6444 1c41 6fea 9b41 6997 af41 7276 ab41
00000230: 25b9 9b41 c397 a241 4b7a 8841 a59c 9141
00000240: e05a 9041 5adb 9341 00fd c141 75e7 7f41
00000250: 9114 a541 d3c3 b941 47ee 5341 fa81 ab41
00000260: 66bc bd41 8ba1 c641 448a 3f3c 70ca 9c41
00000270: 3596 be41 0fb5 a341 b885 a441 b0c3 9841
00000280: a739 8141 2d8a 1041 d23c 8641 0174 8541
00000290: 652e 5941 9bea c341 aa20 9541 640a 9341
000002a0: 8ae7 b341 7241 0941 dc12 9d41 ad4d 8c41
000002b0: 0920 bc41 f21b b641 2645 9141 fd6f 6b41
000002c0: a817 a641 9410 a141 f1cc 8441 26b8 7341
000002d0: 508a 7341 d5d9 a641 e797 1241 cd67 b641
000002e0: 2213 a641 d93d 9941 8b4a ac41 0c16 8041
000002f0: f175 9741 2c4b b641 07bc a541 a3d7 9141
00000300: 8138 a641 da66 9641 6682 2a41 8923 bf41
00000310: 4ab5 ad41 46e6 6c41 6de5 9541 f688 be41
00000320: 17d9 8341 3683 9141 35a4 9a41 29f1 6241
00000330: 52f4 b941 5461 c041 b7d2 ab41 929f 5b41
00000340: cdeb b241 36f4 9941 ca6e 1341 ee27 9341
00000350: 1353 9c41 1e6c 9641 6a2a 9841 5000 1b41
00000360: cedb ba41 745b 9d41 923d 9341 a780 8641
00000370: 964f 4a40 93fa 6141 8b6b 9d41 ab06 7b41
00000380: 32c7 bb41 619a 9341 2d97 a941 6dfa 9941
00000390: 3041 a141 9bb8 8b41 cf09 aa41 8d73 9c41
000003a0: 914f 9d41 bb6f 8641 f4f4 8f41 23d7 8741
000003b0: c720 9241 f4f5 ae41 9252 cc41 b5ba e241
000003c0: 1241 bd41 9596 b441 cd68 a041 f258 b841
000003d0: 1938 be41 ffc6 9341 e926 b541 be4d 8141
000003e0: b229 0941 4607 8d41 44bf 8d41 92a6 ab40
000003f0: d1b0 7941 88f6 c041 f62f c341 2137 c141
20.418694 19.13314 16.078566 27.519678 7.0262547 9.051422 19.946177 18.658722
11.812592 18.046942 21.240698 19.890505 18.40339 23.072948 16.48276 18.919151
21.455612 17.197289 19.070526 18.917744 17.618744 17.638315 12.404678 17.742945
16.257711 18.223076 18.318691 23.94584 24.557611 24.251305 23.44825 20.27915
22.993372 16.23631 24.430834 1.6582466 23.636354 20.837315 19.719423 15.590888
13.208098 18.420555 25.508673 16.956533 18.64222 18.249283 10.257053 19.364552
19.750021 26.2914 15.505004 24.067732 24.316814 22.518616 19.764912 27.28035
21.971134 22.488564 21.232315 25.368324 13.439453 25.273325 23.0971 22.03852
17.890789 21.85924 23.234385 16.999943 21.418354 16.352327 20.871284 19.08578
19.781488 18.042162 19.429972 20.551575 20.569767 16.66219 20.547726 17.173664
17.463985 25.88854 23.334568 22.111227 12.804867 7.0713778 19.759645 20.46111
24.299314 22.713182 23.046778 18.428438 20.500298 13.489177 19.537584 16.493168
12.157812 21.76146 12.052646 10.984562 22.82841 17.083529 15.34699 24.542795
14.45975 17.412376 17.809587 8.880531 21.235489 22.401794 18.672794 19.684221
16.015495 18.765041 8.403855 21.035034 13.077761 11.65188 22.614017 15.626986
18.704695 16.984167 18.362844 18.227612 21.43026 20.335806 25.583372 19.26072
21.426609 10.472934 15.248541 20.59506 18.335033 2.2344704 6.0781407 9.686836
9.766697 19.48947 21.94893 21.432835 19.465403 20.324102 17.059713 18.201487
18.044373 18.482105 24.248535 15.994008 20.635042 23.220617 13.245673 21.438465
23.716991 24.828878 0.01169068 19.598846 23.823343 20.463408 20.565292 19.09555
16.15315 9.033734 16.779697 16.681643 13.573827 24.489553 18.64095 18.380074
22.488056 8.578478 19.634209 17.537928 23.515642 22.763645 18.158764 14.714841
20.76155 20.133095 16.600069 15.232458 15.221268 20.856363 9.162086 22.800684
20.759342 19.1552 21.536398 16.010765 18.932589 22.786705 20.71681 18.230291
20.77759 18.80022 10.656836 23.892351 21.71352 14.806219 18.737024 23.816875
16.481 18.189068 19.33018 14.183877 23.244297 24.047523 21.477888 13.726458
22.365137 19.244244 9.214548 18.394497 19.540564 18.802792 19.02071 9.687576
23.357327 19.669655 18.405064 16.812819 3.1611075 14.123675 19.677511 15.689128
23.472263 18.45038 21.198816 19.247278 20.15683 17.46514 21.25479 19.556421
19.66385 16.804556 17.994606 16.980047 18.266005 21.870094 25.540318 28.341166
23.656773 22.573526 20.051172 23.04343 23.777391 18.472166 22.644 16.16296
8.5726795 17.628551 17.718391 5.3640833 15.605668 24.120377 24.398418 24.151918

l4/b f4 [64]
00000000: e34e bac2 af51 bac2 ee55 bac2 a857 bac2
00000010: c64e bac2 3c4c bac2 d556 bac2 2853 bac2
00000020: cf51 bac2 4c5b bac2 e556 bac2 3e58 bac2
00000030: fd65 bac2 4757 bac2 315a bac2 6150 bac2
00000040: 1a51 bac2 d553 bac2 7f50 bac2 1d6d bac2
00000050: 6b53 bac2 4b56 bac2 2355 bac2 935b bac2
00000060: 8a4f bac2 635b bac2 a66a bac2 1963 bac2
00000070: 2a54 bac2 f858 bac2 a355 bac2 455f bac2
00000080: ba5b bac2 9f52 bac2 1851 bac2 6c5b bac2
00000090: bf64 bac2 f34d bac2 b453 bac2 3e5b bac2
000000a0: a95a bac2 4e5e bac2 bb55 bac2 5757 bac2
000000b0: 7f48 bac2 6c58 bac2 1a52 bac2 ee58 bac2
000000c0: b84f bac2 7c4e bac2 c04c bac2 9f60 bac2
000000d0: 1e5f bac2 fc58 bac2 305f bac2 1c5b bac2
000000e0: 5d53 bac2 be53 bac2 2a5b bac2 4358 bac2
000000f0: 1153 bac2 3158 bac2 6758 bac2 2a4f bac2
-93.154076 -93.15954 -93.16783 -93.1712 -93.153854 -93.148895 -93.16959 -93.162415
-93.15978 -93.178314 -93.169716 -93.17235 -93.199196 -93.17046 -93.176155 -93.15699
-93.1584 -93.163734 -93.15722 -93.21311 -93.162926 -93.16854 -93.16628 -93.178856
-93.15535 -93.17849 -93.2083 -93.19355 -93.16438 -93.17377 -93.16726 -93.18607
-93.17915 -93.16137 -93.15839 -93.17856 -93.19677 -93.152245 -93.16348 -93.17821
-93.17707 -93.18419 -93.16744 -93.170586 -93.141594 -93.1727 -93.160355 -93.17369
-93.1557 -93.15329 -93.1499 -93.18871 -93.185776 -93.1738 -93.18591 -93.17795
-93.16282 -93.16356 -93.178055 -93.172386 -93.16224 -93.17225 -93.17266 -93.15462

l3/W f4 [256, 256]
00000000: 7c63 6840 37e6 7240 7663 8f40 404c 8741
00000010: ef60 5841 5244 3940 7f68 8440 1a60 a6c0
00000020: db69 21c1 3e2d 46c1 073b 103f 874f 0ec0
00000030: 7e23 f4c0 1b3d 87c0 c2ed d340 a982 90c0
00000040: 7e8a 5a41 f6f8 8f41 e8bc cb40 8318 9b40
00000050: 16f9 7f3c e736 2041 cb76 0341 bef5 9a3f
00000060: f4aa 4ec1 5242 593e 9aa0 5d40 229d 79c1
00000070: d109 7340 f696 a03f 62de 2c40 2b67 1941
00000080: 8db7 c13e a13d e640 14fc 90bf 6ba2 f540
00000090: 68c4 a940 b069 cbc0 f0e5 d6be d91e 9841
000000a0: f226 0ac1 94cc 2b41 3765 993f d7a8 5640
000000b0: d805 d2be 6a99 9741 511f b1bf cb1a 9940
000000c0: e4a7 45c1 171b 313f 787c 3641 baff f9c0
000000d0: 7704 19bf f11b 2041 61a5 28c1 33d5 a9c1
000000e0: 2b37 bbc0 752b 3141 0e14 b1c0 81d5 5fc1
000000f0: f395 7141 6f7f 59bf de3b 5a3f 0bb3 a5c1
00000100: 02e6 373f 83b9 cf40 2c66 11c1 79b0 e140
00000110: 4733 cebf facf e6c1 9016 4a40 a051 1041
00000120: 125a d440 e379 0cc1 5877 f5c0 7cf6 ba40
00000130: aa07 cec0 3e9e 9dc0 15d0 a140 7433 57bf
00000140: f847 3640 9f05 ee40 be83 1b41 6cec 1141
00000150: 25a6 c140 1835 11c1 7291 71c1 f0a6 6140
00000160: 97eb 22c1 722a 97bf c958 2b41 fd3c 0341
00000170: 58eb 35c1 10dd 273e 077d 1a41 251f a13d
00000180: cb5c 2cc0 9441 72c0 1ce4 72c1 b9cc 2141
00000190: 6d0e 9b40 6558 00c1 4493 c040 2408 4e40
000001a0: 5a41 3240 86d7 fd40 b78f dd41 e661 c540
000001b0: e2b4 17c0 c39d 5fc0 2578 8d40 ca2b 5a40
000001c0: d0f4 85c0 6c45 b13e c09e acbe 9159 d2c0
000001d0: 9019 bf40 6282 0741 c66c 6740 d807 ac40
000001e0: 8992 55c1 78a1 89c1 4ea5 87bf 6b11 243d
000001f0: 32dc 3741 be39 e940 f320 5940 2aa7 f23f
00000200: 0971 c63f 856c fcc0 567d aabf 8cec 2e41
00000210: fc5f f640 718a a6c0 99e9 f03f 3eac 0241
00000220: 7955 2241 9e42 ffbf e89b 9ac1 cec5 5cc0
00000230: ee5d 1941 b19e 08c1 e513 3541 c8a8 0a3f
00000240: 2832 8e40 532e aac0 f9bb 853f 2ba9 21c1
00000250: fdb9 0840 8590 fe40 c64a 5141 d4c5 82c1
00000260: fa16 3b41 32a0 61c1 4fb8 ab3f 05fd 2ac1
00000270: bcc5 a940 7c3e 4441 52de a140 ad44 ef3f
00000280: 73a1 3ebe bfdc afc0 c3d7 10c1 fb47 a441
00000290: 6cea 0a41 914c d740 4350 40c1 87d6 0a41
000002a0: c02b 9d40 8d8b 1940 f34d 61be 99e1 dd40
000002b0: 08e6 523f 909c 9740 34c5 7c41 7bbd 14c1
000002c0: c5d8 10c0 d431 8640 ba6a 2e40 449b 53c1
000002d0: 58e4 45be e33b 8f41 8b81 11bf 233f f2bf
000002e0: dbd2 d640 fe74 e540 a400 e540 ce24 4b41
000002f0: e3e1 0bc0 b00b ae40 ae0b 2141 0930 cc40
00000300: 466e af40 70fe a341 4992 0241 30eb e53d
00000310: d719 a2c0 e04e f140 81b5 29c1 8457 5c41
00000320: 9d1c c240 eff0 59c1 0f50 9640 cba3 9b41
00000330: 575e 3241 3590 c940 a22c 2f41 bd5a 2240
00000340: 23c9 49c0 dd20 dfc0 0eb8 78c1 b1e7 e4be
00000350: ed0e 8041 a3cc bc40 6d14 5341 081e b540
00000360: 0396 e640 562d f340 f9fa 8a40 81d6 bd40
00000370: caff 9a3e 15f9 c0bf 0612 0d41 2228 b640
00000380: cc43 cb40 0bdd d2c0 cd60 04c1 b287 f2c0
00000390: 7df6 9b40 a6bb a540 46f7 2fc0 5684 f43d
000003a0: f6fb c33d e042 0141 f6b1 1f3f d242 1641
000003b0: 871a ca40 18b5 f3c0 2302 b9c0 a81c adc1
000003c0: 8eb6 0fc1 9850 f040 a3e8 f640 aba1 b741
000003d0: 6e32 4341 0421 4040 e013 453f dba3 9cbf
000003e0: d568 12c1 1a67 6141 a1da 8340 2d99 27c1
000003f0: 93f4 3e41 ac9e 8041 d9b8 3b41 6804 ee40
3.631072 3.7953012 4.480891 16.912231 13.523665 2.894795 4.137756 -5.199231
-10.088344 -12.386045 0.5634007 -2.223604 -7.6293325 -4.226209 6.622773 -4.5159497
13.658812 17.996563 6.36681 4.846742 0.015623352 10.013404 8.216502 1.2106245
-12.916737 0.21216705 3.4629273 -15.6008625 3.7974741 1.254607 2.7010732 9.5876875
0.3783535 7.195023 -1.1326928 7.6760764 5.3052254 -6.3566513 -0.41972303 19.015062
-8.634508 10.737446 1.1984013 3.3540552 -0.41020083 18.94991 -1.3837682 4.7845206
-12.353489 0.6918196 11.405388 -7.8124666 -0.5977244 10.006822 -10.540376 -21.229101
-5.8504844 11.07311 -5.533698 -13.989625 15.099109 -0.84960073 0.852476 -20.712423
0.7183534 6.4913955 -9.087444 7.052792 -1.6109399 -28.851551 3.157627 9.019928
6.635995 -8.7797575 -7.6708183 5.8425884 -6.4384356 -4.9255667 5.0566506 -0.84062886
2.8481426 7.438186 9.719664 9.12022 6.0515313 -9.075462 -15.098009 3.525814
-10.182517 -1.1809828 10.709176 8.20239 -11.369957 0.16392922 9.655524 0.078672685
-2.6931636 -3.7852526 -15.180691 10.112481 4.845511 -8.021581 6.0179768 3.2192469
2.7852387 7.932559 27.695173 6.1682005 -2.3704152 -3.494004 4.420916 3.4089227
-4.1861343 0.34623277 -0.33714867 -6.5734334 5.9718704 8.469332 3.616014 5.3759575
-13.348275 -17.203842 -1.0597322 0.040055674 11.491259 7.2882986 3.392636 1.8957264
1.5503246 -7.888247 -1.33195 10.932751 7.699217 -5.2043996 1.8821288 8.167051
10.145867 -1.9942205 -19.326126 -3.449573 9.585432 -8.538743 11.317357 0.5416379
4.4436226 -5.318155 1.044799 -10.103801 2.1363518 7.9551415 13.080755 -16.346596
11.6931095 -14.10161 1.3415622 -10.686772 5.3053875 12.265255 5.0583887 1.8692833
-0.18616275 -5.4956965 -9.052676 20.535147 8.682232 6.7280965 -12.019595 8.677375
4.9115906 2.3991425 -0.22002392 6.933789 0.8238225 4.7378616 15.798145 -9.29626
-2.2632306 4.1935825 2.725264 -13.225407 -0.19325387 17.904242 -0.5683829 -1.8925518
6.713239 7.1705313 7.156328 12.6964855 -2.185662 5.4389267 10.0653515 6.3808637
5.482211 20.499237 8.160714 0.11226499 -5.0656543 7.5408783 -10.6068125 13.771366
6.065993 -13.621322 4.697273 19.454977 11.148032 6.2988534 10.948397 2.5367882
-3.1529014 -6.9727616 -15.544935 -0.44708017 16.007288 5.89998 13.192487 5.659916
7.205812 7.599284 4.3431363 5.9324346 0.30273277 -1.5076014 8.8169 5.692399
6.352026 -6.589483 -8.273633 -7.5790644 4.873839 5.1791563 -2.7494674 0.119393036
0.09569542 8.078827 0.6238092 9.391314 6.315738 -7.615856 -5.781511 -21.638992
-8.982069 7.509838 7.715898 22.95394 12.199812 3.002015 0.7698345 -1.2237505
-9.150594 14.087671 4.120438 -10.474896 11.9347105 16.077477 11.732629 7.438038

l3/b f4 [256]
00000000: 4cb5 ab3f d527 6240 fc43 3b3f b487 6940
00000010: 3e54 3a41 823e 2941 0e8e 013e dc8a 2540
00000020: e0da c53f 9725 a4c0 35da 76c0 0ced 0041
00000030: 0912 1dc0 a44b 97c0 61ad 8ebe 7b48 ec40
00000040: 6964 8a40 1df4 97bf 7a6e 1d40 e61d 0140
00000050: a07f ddbf ef9c 48c0 24a1 8b41 8ef9 8940
00000060: 6934 4cc0 c08b aa40 ee15 d13e 11c2 9c40
00000070: b125 0ac0 824b acbe 5261 3240 f1e7 bc3f
00000080: 583e 56bf dda7 6b40 b64c ac40 cb59 3b42
00000090: 6a82 55bf 2d1e cabf 6136 8bbf 6caf f23f
000000a0: b6f6 2641 4482 1940 6f23 4d40 48b0 0141
000000b0: 0636 3dbe 8324 cf40 ffa1 9541 1417 c240
000000c0: 3e9c 0f40 a61d e73f c4c2 b13f ae6a debe
000000d0: 82f1 8b3b 321b e73e 35bb 1e40 a582 9b40
000000e0: 715c 29c0 ead1 643d e602 5d3f 2c0d 1640
000000f0: 7060 5841 9b3b a03f 3b5e f1be 6877 1240
00000100: 2bd1 e3bf 368d 5040 c97d 7340 6f2f 1c40
00000110: e483 9740 e7ec c740 5838 7840 9df7 02c0
00000120: 393f 97c0 0c74 9440 57a3 bb40 8f76 9540
00000130: 5ce4 8340 9262 8bc0 2db6 a040 9eb3 e9bf
00000140: 156d 6740 9bcb 6240 21ea c7be 073f b740
00000150: 3b19 8f40 e3bf a141 d165 b040 2fad c63e
00000160: 1b32 8640 5565 53be 6cc5 4e40 e22f 8d40
00000170: 082c 1c40 6700 3340 109c e140 e2f7 e040
00000180: 6161 5541 ffd8 7440 b677 4bc0 afaa f8c0
00000190: d37c bf3e 9320 233f d62a 873e e467 4740
000001a0: cdf4 eec0 3487 703f 9fe9 0840 eca7 a341
000001b0: 9120 09bf 2694 8040 4a78 94c0 3bf2 d83e
000001c0: 26a3 fe40 1c9a 983f 8e11 8f41 4e41 e640
000001d0: 3e2d 8541 e782 3440 0ff1 843f 6dae 6cc0
000001e0: 8e7a 28be dc58 9f40 c443 1ec0 4b6f c040
000001f0: abd4 233e c405 84c0 597d b4be de34 c340
00000200: 1439 2340 b6f9 8040 280c 283f d320 55c0
00000210: 5b93 9f40 af73 c5c0 39e5 c240 a3af 9841
00000220: e53e afbf 2d19 4340 ccfb 2640 c53b 1ec0
00000230: 2295 2ec0 b0b8 1240 498f 16c0 8b01 8740
00000240: b338 e640 2057 05c0 869b ce3f 6247 a6c0
00000250: f3f7 4c40 9cbd 7840 e460 e440 dfa5 c63f
00000260: 88a9 8840 328e c3bf 375e 2541 d813 ca40
00000270: e894 c9bd 4d3e 9ebf 6316 05c0 2dbe 8940
00000280: 2dce 3340 ba2c b741 7db3 1abf 8396 0041
00000290: a321 8540 a2b7 1840 2c3f b740 fed9 5b3f
000002a0: 4276 3040 5d27 bd41 f314 0341 c6e9 dd3f
000002b0: 5732 1e40 1e86 bd3e 5e14 d140 3b37 2741
000002c0: 0cd3 b740 0fef cd40 9fb5 323f 2886 8d40
000002d0: ffce f240 9887 b740 0279 8041 a3e2 8340
000002e0: e673 13bf 0ec0 ac40 a7a6 9440 fe4e 31c0
000002f0: 5488 0e40 d51b 58bf 3e47 8940 6bdb ff3f
00000300: 8af1 b840 1bb9 94c0 5482 9641 58a4 7e40
00000310: 8c80 73bf 0f27 1841 167a cd3f b632 a740
00000320: b6d2 69c0 0901 6ec0 9ba2 033f 46ef 0041
00000330: b4b9 563f 9717 1240 3d4d 9c40 ab09 9941
00000340: 3f95 a93f 7cd9 8c40 6f2b 9a41 dc3e d540
00000350: 7a28 d440 8959 8b40 eb5b 1f40 950a 8d41
00000360: de3f be40 4648 e5bf eb50 ad3f 1c45 4140
00000370: ef5b 2942 14f2 7a40 a05a b13e 499c a1c0
00000380: 43c5 ca40 f985 b83f 058a f13f 3be4 fa40
00000390: 1429 71c0 a27e 38bf f7a5 3c40 6111 29c0
000003a0: f63f 8240 c8de 583f 9ba1 813f 1dbd 89bf
000003b0: 9147 b640 d1e4 9cbf 42b8 0a40 060a a340
000003c0: 5b05 65c0 6d64 b640 47fa 8140 3469 cb40
000003d0: 49f6 153e e6fb 3e40 305d 74bd a3a1 9d40
000003e0: ed6a 9141 38e9 ed3f 07fe 883f 059d 1c42
000003f0: 90bb ff40 8671 56be dabc a540 5e74 dd3f
1.3414702 3.5336812 0.7315061 3.6489077 11.645567 10.577761 0.12651846 2.5866003
1.545742 -5.1295886 -3.8570683 8.057873 -2.4542258 -4.7279835 -0.27866653 7.3838477
4.324757 -1.1871372 2.459868 2.0174499 -1.7304573 -3.1345785 17.453682 4.311713
-3.1906989 5.3295593 0.40837044 4.8986897 -2.1585505 -0.33651358 2.78719 1.4758283
-0.8368888 3.6821206 5.384364 46.83769 -0.8340212 -1.5790459 -1.087597 1.8959785
10.435232 2.3985758 3.2052877 8.105537 -0.1847764 6.473207 18.7041 6.065317
2.2439113 1.8055923 1.3887563 -0.43440765 0.0042707333 0.45137936 2.4801762 4.859698
-2.6462672 0.055864252 0.8633255 2.344554 13.523544 1.251819 -0.47142205 2.288538
-1.7798208 3.2586188 3.8045523 2.440395 4.73485 6.2476687 3.878439 -2.046363
-4.7264676 4.639166 5.863689 4.6707225 4.121626 -4.3557825 5.0222383 -1.825794
3.6160328 3.543677 -0.39045814 5.726444 4.47183 20.218695 5.5124288 0.38804004
4.1936164 -0.20644124 3.2307997 4.412095 2.4401875 2.7968996 7.0503006 7.030259
13.336274 3.8257444 -3.1791816 -7.7708354 0.3739992 0.6372158 0.2639987 3.115716
-7.467383 0.93956304 2.139259 20.456993 -0.5356532 4.0180845 -4.6396837 0.42372307
7.9574156 1.192203 17.883572 7.195472 16.64709 2.8204896 1.0386065 -3.698146
-0.16453001 4.979597 -2.472886 6.0135856 0.15999095 -4.125704 -0.35251883 6.1002035
2.5503588 4.0304823 0.6564355 -3.3301284 4.9867377 -6.1703715 6.0904813 19.08576
-1.3691069 3.0484116 2.6091185 -2.472398 -2.7278523 2.2925224 -2.3524954 4.2189384
7.1944213 -2.0834427 1.6141212 -5.1962137 3.2026336 3.8865728 7.1368275 1.551937
4.2706947 -1.527777 10.335502 6.3149223 -0.09842855 -1.2362763 -2.0794914 4.304465
2.809459 22.89684 -0.6043013 8.036746 4.160356 2.386208 5.7264614 0.85879505
2.757218 23.64422 8.192615 1.7336967 2.4718225 0.37016386 6.533736 10.450984
5.7445126 6.435432 0.6980838 4.4226265 7.587768 5.735302 16.059086 4.1214156
-0.5759872 5.398444 4.6453433 -2.7704463 2.2270708 -0.8441747 4.2899466 1.9988836
5.7794847 -4.647596 18.813637 3.9787807 -0.9511802 9.509536 1.6052883 5.2249403
-3.6534858 -3.7188132 0.5141999 8.058416 0.8387711 2.2826898 4.8844285 19.12972
1.3248671 4.4015484 19.271208 6.6639233 6.629941 4.3546796 2.4899852 17.630167
5.9452963 -1.7912681 1.3540319 3.019843 42.33978 3.9210253 0.34639454 -5.050328
6.33658 1.4415885 1.8870245 7.84036 -3.7681322 -0.72068226 2.9476297 -2.6416857
4.0703077 0.8471494 1.0127443 -1.0760838 5.696236 -1.2257329 2.1674962 5.0949736
-3.5784519 5.699759 4.0618014 6.356592 0.14644732 2.9841247 -0.059659183 4.925981
18.17721 1.8586798 1.0702523 39.15334 7.991646 -0.20941743 5.179303 1.7301137
