size8/agent_black_166000/target_model.npz (npz, 609010 bytes, 8 tensors)

l2/W f4 [256, 256]
0	0xc0f2e225	-7.5901055
1	0xc1837884	-16.433846
2	0xc1d300fa	-26.375477
3	0xc0e7f17d	-7.2482285
4	0xc2264a8f	-41.57281
5	0x416fca94	14.986958
6	0x418a3bd6	17.279217
7	0x4200a03d	32.156483
8	0x40a1c999	5.055859
9	0xc1d1a73b	-26.206656
10	0x41c60a41	24.755007
11	0x41a19226	20.196362
12	0x4116168a	9.380503
13	0xc12e299f	-10.885161
14	0xc1965247	-18.790174
15	0xc096f255	-4.7170815
16	0x41bbac93	23.459265
17	0xc0b837c7	-5.7568088
18	0xc01bbd02	-2.4334111
19	0xc1320a06	-11.127447
20	0xc20fe829	-35.97672
21	0x415636ab	13.388347
22	0x409a60a6	4.824298
23	0xc18ac423	-17.34577
24	0xc1ba0924	-23.254463
25	0x403df558	2.9680996
26	0x4007980b	2.118655
27	0xc193d15a	-18.477222
28	0x422aa419	42.66025
29	0x4237a4ac	45.910812
30	0x4147f746	12.4978695
31	0x40e3ea09	7.1223187
32	0xc1e66cc1	-28.803102
33	0xc115477c	-9.329952
34	0xc12f976a	-10.974466
35	0x40a6f858	5.2178154
36	0x41765d1b	15.397731
37	0x418d97bf	17.699095
38	0xc1bd7fd0	-23.687408
39	0x4172a4a5	15.165196
40	0x416674dc	14.40353
41	0x407d4d81	3.9578555
42	0xc18b564e	-17.417141
43	0x40f53197	7.6623034
44	0x40e6c101	7.21106
45	0x42067923	33.618298
46	0x411f81b6	9.969168
47	0x41e09537	28.072859
48	0x40925cf3	4.5738463
49	0xc1a65790	-20.792755
50	0x419f15d8	19.885666
51	0x40049e46	2.0721602
52	0xbf5fe381	-0.8745652
53	0xc1da69be	-27.301632
54	0x40b2daae	5.5891943
55	0x418d764d	17.682764
56	0xc0c753a1	-6.2289586
57	0xc0ad0d9c	-5.4079113
58	0x41a70cd2	20.88126
59	0x410b9442	8.723696
60	0xc2046d23	-33.10658
61	0x3f97b196	1.185107
62	0x41c6e79f	24.863096
63	0xc115c05c	-9.359463
64	0xc0f23b98	-7.5697746
65	0xc218c554	-38.192703
66	0xc211b23b	-36.424053
67	0xc18e48b4	-17.7855
68	0x4136deae	11.429365
69	0x4130a486	11.040167
70	0x4084b36c	4.146902
71	0x41988ce7	19.0688
72	0x41fe3357	31.775068
73	0x41d91e14	27.139687
74	0xc19388c1	-18.441774
75	0x4193e660	18.487488
76	0x410e2dca	8.886179
77	0xc1842919	-16.520067
78	0x41d00963	26.004583
79	0x41899f78	17.202866
80	0x41ba56a2	23.292301
81	0x40986789	4.7626386
82	0x414aa49f	12.665191
83	0xc14521fb	-12.320796
84	0x411f622b	9.961467
85	0x418dfc83	17.748297
86	0x4039edb8	2.9051342
87	0x41d12f9f	26.148252
88	0x41a496b3	20.573584
89	0xc1a728a5	-20.894846
90	0x41d5371d	26.65191
91	0x3e6459b5	0.22299846
92	0xc1aa5f00	-21.296387
93	0x4104370b	8.263438
94	0x413e0aba	11.877619
95	0x41639002	14.222658
96	0xc224475c	-41.069687
97	0x4110e05d	9.054776
98	0x411bcfa0	9.73819
99	0x4054566d	3.317775
100	0x409a30c1	4.8184514
101	0xc2296ea7	-42.35806
102	0xc0d8c236	-6.7737074
103	0xc0aac356	-5.3363447
104	0x40b3fa3e	5.624297
105	0xc22484bc	-41.129623
106	0xc1ccb566	-25.588573
107	0xc27b5a8d	-62.83843
108	0x41de782d	27.80868
109	0xc234a485	-45.160664
110	0x40bcf87f	5.905334
111	0xc0ef9d07	-7.4879184
112	0x4156f8fb	13.435786
113	0x41c1a0a3	24.203436
114	0x4165c9e3	14.361789
115	0xc225dc51	-41.465153
116	0xc14e7679	-12.903924
117	0xc0da9998	-6.831249
118	0xbe8f8f00	-0.28038788
119	0xc1b21544	-22.260384
120	0xc01ee444	-2.4826822
121	0xc20e69ac	-35.603195
122	0x415e1bc6	13.881781
123	0xc235d268	-45.455475
124	0x413c82a6	11.781897
125	0xc22d0d59	-43.263035
126	0xc10fb968	-8.982765
127	0x41063fbc	8.39056
128	0x41c675d8	24.80754
129	0xc219cef7	-38.452114
130	0x4100e7b1	8.056565
131	0xc22ea8bb	-43.664776
132	0x418c07d9	17.503832
133	0x4211dad7	36.46371
134	0x41474f24	12.456821
135	0x41a61e6a	20.76485
136	0xc2856777	-66.70208
137	0xc19e2a15	-19.770548
138	0x4097e797	4.7470202
139	0x408e8af9	4.4544644
140	0xc08c1833	-4.377954
141	0x403d2af2	2.9557462
142	0xc0853550	-4.162758
143	0x41ed594b	29.6686
144	0xc17f4e50	-15.956619
145	0xc280d557	-64.41668
146	0x4223041e	40.75402
147	0x412265ac	10.149822
148	0x42127fd2	36.624825
149	0x40d715e3	6.7214217
150	0xc00ed462	-2.2317128
151	0x418b3428	17.400467
152	0x41955cb8	18.670273
153	0xc0a5c556	-5.180339
154	0x41824f3f	16.288694
155	0x40bfa250	5.9885635
156	0xc1c6f235	-24.868265
157	0xc1ade1dc	-21.735283
158	0x40d1b6d1	6.5535665
159	0xc19036db	-18.026785
160	0xc16694e9	-14.411355
161	0xc19007f1	-18.003878
162	0x413f399a	11.951563
163	0x41c5742f	24.68173
164	0xc1933ba8	-18.404129
165	0xc13cae43	-11.792544
166	0xc0aee287	-5.4651523
167	0xc0b89e7d	-5.7693467
168	0xc1f3dbfc	-30.482414
169	0x41542df1	13.261216
170	0xc19cf3af	-19.618986
171	0xc12f92ea	-10.973368
172	0xbf262eee	-0.6491536
173	0x4130222a	11.008341
174	0xc2605941	-56.087162
175	0x3dac35b7	0.08408683
176	0xc1b8fe9d	-23.124323
177	0x41915111	18.164583
178	0x41942630	18.518646
179	0x3fc7db6b	1.5613836
180	0x413f034f	11.938308
181	0x4248915f	50.141964
182	0xc14ffec0	-12.999695
183	0x4117aad7	9.479209
184	0x41e4ca9b	28.598928
185	0xc1cc2784	-25.519295
186	0x418683af	16.814299
187	0x4156a34f	13.41487
188	0xc25ad61b	-54.709087
189	0x420e8564	35.630264
190	0x420a8016	34.625084
191	0x4145b045	12.355535
192	0x41e49cbd	28.576532
193	0xc1a44d4c	-20.537743
194	0x41e369a8	28.42659
195	0x412db291	10.856095
196	0x41d0a1f2	26.079075
197	0x40df2e79	6.974423
198	0x41a3963c	20.448357
199	0x413d36db	11.825892
200	0xc102dae1	-8.178437
201	0xc1cb9419	-25.447313
202	0xc142abba	-12.166925
203	0xc20b3054	-34.797195
204	0xc23ecebf	-47.7019
205	0xc11d404b	-9.828197
206	0xc1a99dab	-21.201986
207	0xc1bd0e89	-23.632097
208	0xc1e33011	-28.39847
209	0xc0fd0c52	-7.907754
210	0xc20d31e3	-35.298717
211	0xc10f306a	-8.94932
212	0xc184e7ac	-16.613121
213	0xc155b16d	-13.355817
214	0xc1d3cbcd	-26.474512
215	0xc1c6f0f1	-24.867647
216	0xc10ecb80	-8.924683
217	0x414f96a9	12.974282
218	0xc1b2fbf4	-22.373024
219	0xc1426a73	-12.150989
220	0x40a0fda4	5.030962
221	0x40f470c9	7.6387677
222	0xc18a238a	-17.267353
223	0xc025e64c	-2.5921812
224	0xc1933f07	-18.405775
225	0xc187c78d	-16.972437
226	0xc07afc8d	-3.9216645
227	0xc2068c5f	-33.63708
228	0xc1ec0c2c	-29.505943
229	0xc18cee71	-17.616426
230	0x41a971f5	21.180643
231	0x403c2c41	2.940201
232	0x41c9b428	25.212967
233	0xc15940ce	-13.578321
234	0x41a03e10	20.030304
235	0xc18b5e73	-17.421118
236	0xc1a7ac70	-20.959198
237	0x42216aec	40.354416
238	0x4151c278	13.109978
239	0x410252dd	8.14523
240	0x415fbe4d	13.98396
241	0xc17acd50	-15.675125
242	0xc18a4990	-17.28592
243	0x4119bccc	9.608593
244	0xc21f976e	-39.89788
245	0xc1e134b4	-28.150734
246	0x420154fa	32.332985
247	0xc170d89a	-15.052881
248	0x421d7af1	39.37006
249	0x4201ef0f	32.483456
250	0x420af17e	34.735832
251	0xc12b63f6	-10.711905
252	0xc1d2309d	-26.273737
253	0xc226fe3a	-41.74827
254	0xbfaebca7	-1.3651322
255	0x416e8379	14.907098

l2/b f4 [256]
0	0x41b5c7a5	22.722483
1	0x412d95f9	10.849114
2	0x4154264b	13.259349
3	0x41ee809c	29.812798
4	0x4158085a	13.502039
5	0x41e50965	28.629587
6	0x3e8614fe	0.2618789
7	0xbf3d40cb	-0.7392699
8	0x4189abb9	17.208849
9	0xc08a128c	-4.314764
10	0xbfa1338d	-1.2593857
11	0x41167faa	9.406168
12	0xc08af2b5	-4.3421273
13	0xc086da49	-4.214146
14	0x408f8b65	4.485766
15	0xbf348930	-0.7052183
16	0xbd21ae87	-0.039473083
17	0x41237c7b	10.217891
18	0x418fe166	17.985058
19	0xc181f9ca	-16.246967
20	0x41396127	11.586219
21	0x41f2a720	30.331604
22	0x418089e8	16.067337
23	0x3fe4cece	1.7875612
24	0x3f825abb	1.0183939
25	0xc0d6a20b	-6.7072806
26	0x4075cbcd	3.840564
27	0x40616d33	3.52229
28	0x41b58a51	22.692537
29	0xc0a06c4b	-5.0132194
30	0x41e07b1a	28.060108
31	0x4191f086	18.242443
32	0x41b856cb	23.04238
33	0x41c0ee0c	24.116234
34	0x418dfdcd	17.748926
35	0x3f2e08ba	0.67982066
36	0xc19a7e84	-19.311775
37	0x41927f29	18.31209
38	0x3fe8ff03	1.8202823
39	0x4168d47f	14.551879
40	0x41392736	11.572073
41	0x419e9b1e	19.82574
42	0x41acf243	21.618292
43	0xc097ca68	-4.743458
44	0x417c2f6b	15.761577
45	0x41a6bf1b	20.843313
46	0xc1ad7ac9	-21.684954
47	0x4176fc2f	15.436568
48	0xc131e655	-11.118733
49	0xc13dbf15	-11.859151
50	0x4203dbd0	32.96466
51	0xc1df4095	-27.906534
52	0x41a8b831	21.089937
53	0x41ca5be5	25.29487
54	0x416c2dd7	14.761191
55	0xc13127eb	-11.072246
56	0xbd93c6c8	-0.07215649
57	0x41513138	13.074516
58	0x3e473394	0.19453269
59	0x3d6f8191	0.058473174
60	0x41a78c2f	20.943449
61	0xc1102dde	-9.011198
62	0xc10e258f	-8.88417
63	0xc103b471	-8.231553
64	0x40396321	2.8966753
65	0xc1129253	-9.160724
66	0x3f1e1825	0.6175559
67	0x41ed9773	29.69895
68	0xc0e0cec7	-7.0252414
69	0xc14ee333	-12.930469
70	0x4004c013	2.0742233
71	0x40de9b37	6.956447
72	0xbfec9ef0	-1.8486004
73	0xc14ffa14	-12.998554
74	0xc167231f	-14.4460745
75	0x41d50064	26.62519
76	0xc12b8c82	-10.721804
77	0xc15defab	-13.871013
78	0x4181b870	16.215057
79	0x410fae2b	8.980021
80	0x420ac676	34.69381
81	0x41983855	19.027506
82	0x41ba8ccc	23.318748
83	0x4187d916	16.980999
84	0x41bffe1c	23.999077
85	0xc1931bdf	-18.388609
86	0x3f828e52	1.0199683
87	0xc16053b0	-14.0204315
88	0xc19d0676	-19.628155
89	0xc0f63946	-7.6944914
90	0xc0124800	-2.2856445
91	0x40facec3	7.8377395
92	0xc131bbb0	-11.108322
93	0x419598f1	18.699678
94	0xbf6e9ab5	-0.93204814
95	0xc0d8feea	-6.7811174
96	0xc11fd78f	-9.990127
97	0x40065ed5	2.099538
98	0x409e7068	4.9512215
99	0xbf05dfda	-0.52294695
100	0x41b5e368	22.736038
101	0x407ef614	3.9837694
102	0x412a7399	10.653222
103	0x4122f729	10.185342
104	0x3fef01f8	1.8672476
105	0x41682346	14.508612
106	0xc122fafc	-10.1862755
107	0xbfa1be82	-1.2636263
108	0x41f10221	30.12604
109	0x41c46623	24.549871
110	0x4048ef75	3.1396153
111	0x41bf7307	23.931166
112	0x41f285b2	30.31528
113	0x41adbb18	21.716354
114	0xc12dbea4	-10.859043
115	0x41bce33d	23.610956
116	0x4188a70f	17.081572
117	0x41ad1c4e	21.63882
118	0x407acee2	3.9188771
119	0x41b28661	22.315615
120	0x4129888d	10.595838
121	0x419b88d0	19.441803
122	0x40b33f09	5.6014447
123	0x41494212	12.57863
124	0x41b47f3c	22.562126
125	0x41ba8ecc	23.319725
126	0x41a9aa04	21.208015
127	0x41ad299c	21.645317
128	0xc03b1d9e	-2.9236827
129	0x411dcb54	9.862141
130	0xc1b1703c	-22.179802
131	0x418b70d0	17.430084
132	0x41ae732d	21.806238
133	0x41fe951e	31.822811
134	0x4123119c	10.191799
135	0xbf2bc3d7	-0.670957
136	0x41f4d059	30.601732
137	0x41a7f5b3	20.99497
138	0xc0df6a7a	-6.9817476
139	0x41ada4fc	21.705559
140	0x412e9f14	10.913837
141	0xc113680a	-9.2129
142	0x41d71e31	26.889742
143	0x41b28790	22.316193
144	0x41b45274	22.54026
145	0xc199b6ad	-19.214197
146	0xc17a0cd2	-15.62813
147	0x40525e24	3.286996
148	0x41a9c509	21.221209
149	0xc01a385c	-2.40969
150	0x41ba9d16	23.326702
151	0xc18d06bc	-17.628288
152	0x414eed31	12.932908
153	0xc12c5c56	-10.772543
154	0x410d513a	8.832331
155	0xc1641967	-14.256202
156	0x4161347a	14.075312
157	0x4199b1ce	19.211819
158	0x41bd7f25	23.687082
159	0xc1a44b58	-20.536789
160	0x4128b0e3	10.543185
161	0x414ae713	12.681415
162	0xc1743a45	-15.264226
163	0x40264197	2.5977533
164	0x414d1b6c	12.819195
165	0xc1b06edd	-22.054132
166	0xc1b51683	-22.635992
167	0x419180c9	18.187883
168	0x41b5ad98	22.709763
169	0xc115080c	-9.314465
170	0x41d3e58a	26.48708
171	0x41de49a9	27.785967
172	0x415328fc	13.197506
173	0xc05fb875	-3.4956334
174	0xc1db4108	-27.406754
175	0xbf583558	-0.84456396
176	0x410b6b6f	8.713729
177	0x4193dbdd	18.482355
178	0xbfab422f	-1.3379573
179	0x4182e674	16.362526
180	0x4193a9b0	18.457855
181	0x418fbd5d	17.967463
182	0xc068dfb9	-3.638655
183	0x40f60bab	7.6889243
184	0x418f42b0	17.907562
185	0x41750fa7	15.316321
186	0x3f88a772	1.06761
187	0x41a841e1	21.032167
188	0x4199cf5b	19.226248
189	0x415e2771	13.884629
190	0x416652bc	14.395199
191	0x40da980d	6.831061
192	0xc0d2ea2c	-6.5910854
193	0x419c7af2	19.560032
194	0x41943524	18.525948
195	0x41ee57ad	29.79281
196	0xc09b36cb	-4.8504386
197	0x40f7a8bb	7.739347
198	0xc12b1de5	-10.694798
199	0x4132086e	11.127058
200	0x41b6aeeb	22.83541
201	0xc0c2eb82	-6.0912485
202	0x41b824e7	23.018019
203	0x416b6232	14.711473
204	0x419e7d5b	19.811209
205	0x420a38f0	34.555603
206	0xc1a32d66	-20.397167
207	0x40ab5f6c	5.355398
208	0xc0b888d2	-5.7667017
209	0x41e0e487	28.111586
210	0x41c0a451	24.080233
211	0xbeabc360	-0.33547497
212	0x417705a0	15.438873
213	0x413d3125	11.824498
214	0x41cbb4d8	25.463303
215	0x417c9b54	15.787922
216	0xc000fa1d	-2.0152657
217	0x41eec74c	29.847313
218	0x41a3f9e5	20.497019
219	0x4101b289	8.106088
220	0x41ca0233	25.251074
221	0x41c00bca	24.005756
222	0x41c0e027	24.10945
223	0x41c79647	24.948378
224	0x412ec598	10.923241
225	0x41ce6692	25.800083
226	0xc0d4fedc	-6.656111
227	0x4188b046	17.086071
228	0xc1c24564	-24.283882
229	0x42045412	33.0821
230	0x41b04184	22.03199
231	0x41d96a50	27.17691
232	0xc160938b	-14.036021
233	0xbf5df6a6	-0.8670448
234	0xc11610fb	-9.379146
235	0x3f093f8e	0.536126
236	0x41be8f6c	23.82003
237	0xbd6e497c	-0.05817555
238	0x411d2fa3	9.82413
239	0xc1cbb910	-25.465363
240	0xc168d613	-14.552264
241	0xc14d9d06	-12.850836
242	0x41c98814	25.191444
243	0x42190576	38.255333
244	0x3e1939ec	0.14963502
245	0xc0e1eea2	-7.06038
246	0x3ff647fa	1.9240716
247	0xbf07f7bb	-0.5311238
248	0x419e0ee1	19.757265
249	0x41939ef5	18.452616
250	0x420016a9	32.02213
251	0x41b86c0a	23.052753
252	0x41227ab8	10.154961
253	0x41b04178	22.031967
254	0x41986d37	19.053328
255	0x409bceef	4.8690104

l1/W f4 [256, 64]
0	0x424e8808	51.632843
1	0xc01cc765	-2.44967
2	0x41c44190	24.532013
3	0x3f9f9ad3	1.2469124
4	0x40e07914	7.01478
5	0x42107482	36.113777
6	0x3ff646f4	1.9240403
7	0xbf5397e4	-0.8265364
8	0xc17fca19	-15.98684
9	0xc07fad86	-3.994966
10	0xc1b868f3	-23.051245
11	0x41ff749b	31.931936
12	0xc216fec3	-37.74879
13	0x415a1e53	13.632403
14	0x4118510b	9.519786
15	0xc0eebe1f	-7.460708
16	0xc02a7a67	-2.6637208
17	0x41b788ce	22.9418
18	0xc081461e	-4.039809
19	0xc0c5d159	-6.181805
20	0x419ba2a3	19.454412
21	0xbf6a4984	-0.91518426
22	0x4238c9c8	46.197052
23	0x40ce487d	6.4463487
24	0x41dd2185	27.641367
25	0xc01d2433	-2.4553344
26	0x41e0add3	28.084875
27	0xc18f62ce	-17.923244
28	0xc0ff28c9	-7.9737287
29	0x41b635d6	22.776287
30	0x41953381	18.650148
31	0x4117ed0b	9.495372
32	0xc1996579	-19.174547
33	0xc13bdbe7	-11.741187
34	0x3f767696	0.962747
35	0xc188c873	-17.097876
36	0x3fac082d	1.3439995
37	0xc1102b83	-9.010623
38	0xc094f7d2	-4.6552515
39	0x3f9c9633	1.2233337
40	0x41cf47f1	25.910128
41	0x41449bc5	12.28803
42	0xc0dd38e4	-6.9131947
43	0x41c09b7f	24.075926
44	0xbfb100bc	-1.3828349
45	0xc0eac147	-7.3360934
46	0x40f11644	7.533968
47	0xc20b4d87	-34.82571
48	0x4114f0e0	9.308807
49	0x42022313	32.534252
50	0xbfb198e2	-1.3874781
51	0xc1b999a6	-23.200024
52	0x40e4b456	7.1470137
53	0x4109f3d9	8.622033
54	0xc191b7d3	-18.214758
55	0x41d08f89	26.070086
56	0x421bedae	38.98211
57	0xc096e82f	-4.7158427
58	0xc18ad9e1	-17.356386
59	0xc1ea4ac9	-29.286516
60	0x4144dafc	12.303463
61	0x40f59952	7.674966
62	0xc1c32a32	-24.395603
63	0xc19639aa	-18.778156
64	0x417162a4	15.086582
65	0x40c9d119	6.3067746
66	0x42586bec	54.105392
67	0x3f4b6141	0.7944527
68	0xc1696617	-14.587424
69	0xc20e16d6	-35.5223
70	0x413fa07d	11.976682
71	0x410c229e	8.758451
72	0xc11e88fd	-9.908444
73	0xc141d788	-12.11512
74	0x41ba3599	23.27617
75	0xc18bc033	-17.468847
76	0xc185ecd0	-16.740631
77	0xc195ccfe	-18.725094
78	0x4109d3e6	8.614233
79	0xc24da5f4	-51.412064
80	0xc08257d3	-4.0732207
81	0xc1f28c10	-30.31839
82	0xc068e5ea	-3.6390328
83	0xc0be1b5a	-5.940839
84	0x413a268a	11.634409
85	0x411b3bde	9.702116
86	0xbffd22a1	-1.9776193
87	0xc0d7653d	-6.731108
88	0x3fd83a32	1.689276
89	0xc0be44ca	-5.945897
90	0xc113d4ab	-9.239421
91	0xc10560f8	-8.336174
92	0xc02c4b32	-2.6920896
93	0xc13f6a6b	-11.963481
94	0xc163b6ec	-14.232159
95	0xc20d8b9b	-35.386333
96	0xc110a3f5	-9.040029
97	0xc0cfd6df	-6.4949794
98	0x416ef77b	14.93542
99	0x40966415	4.699717
100	0x406edd22	3.7322469
101	0xc03d95e6	-2.962274
102	0x41d98028	27.187576
103	0x407211c3	3.782334
104	0x413c075a	11.751795
105	0xc20c919b	-35.142193
106	0x41c2061e	24.252987
107	0x4193b19a	18.46172
108	0xc0d76352	-6.730874
109	0x418e3d3d	17.779902
110	0x42670b1f	57.76086
111	0xc0e494e7	-7.1431766
112	0xc20a1785	-34.52297
113	0x40c24c1c	6.0717907
114	0xc083955e	-4.1119833
115	0xc18bf373	-17.493872
116	0x4146a5ed	12.415509
117	0x41aadca1	21.357729
118	0xc08677b4	-4.202112
119	0x40ea9011	7.330086
120	0xbf4c37ff	-0.79772943
121	0xc0f040f7	-7.5079303
122	0xc29c279e	-78.07738
123	0xc1195986	-9.584356
124	0x420fab6f	35.917416
125	0x420d823a	35.377174
126	0x40a0e2bb	5.027677
127	0xc1672973	-14.447619
128	0x4194d7f5	18.605448
129	0x4208d055	34.20345
130	0xc1465211	-12.395036
131	0x41fc87f0	31.566376
132	0xc0243fc1	-2.5663912
133	0x41b7d614	22.97953
134	0x406e831e	3.7267528
135	0x3f995b4f	1.198099
136	0x421649e1	37.572147
137	0xc1755923	-15.334262
138	0xc2110daf	-36.263363
139	0x419833ae	19.025234
140	0x41482bd1	12.510697
141	0x41f5e700	30.737793
142	0x41276295	10.461568
143	0x4177440f	15.454116
144	0xc01b8be5	-2.4304135
145	0x420d3e12	35.310616
146	0xc11ee5ea	-9.931131
147	0x410c9ba0	8.787994
148	0xc0d425e7	-6.6296268
149	0x4103ef7c	8.245968
150	0x41f4d8fe	30.605953
151	0x415330a8	13.199379
152	0x4260e045	56.219013
153	0xc2034953	-32.821606
154	0x41b28f78	22.320053
155	0x41638fe3	14.222629
156	0x3fd9dad4	1.7019906
157	0x418be9d7	17.48918
158	0x401ce75a	2.4516206
159	0xbfd4270b	-1.6574415
160	0x3f8ce0b8	1.1006079
161	0x41e3e7ef	28.488249
162	0xc2117841	-36.367435
163	0x4122aacc	10.166698
164	0xc0a24621	-5.0710607
165	0x40c852e0	6.2601166
166	0xc0c4ab0d	-6.14588
167	0xc18f1305	-17.884287
168	0xc2636e95	-56.85799
169	0xc124c8f8	-10.299065
170	0x41923823	18.27741
171	0xc0eb83b3	-7.3598266
172	0x41744848	15.267647
173	0x413356f8	11.208733
174	0xc07e328a	-3.9718347
175	0xc21de595	-39.4742
176	0xc1aa8800	-21.316406
177	0xc259a9a6	-54.415672
178	0xc11d1487	-9.817512
179	0xc0f20a8a	-7.5637865
180	0x415097bf	13.037047
181	0xc17feb34	-15.994923
182	0x410ab969	8.670266
183	0xc1b2fbcb	-22.372946
184	0x41db5631	27.417086
185	0x41881aef	17.013151
186	0xc24f1015	-51.765705
187	0x41e2b1aa	28.33675
188	0xc00ccbee	-2.1999469
189	0xc10da3f8	-8.852531
190	0x421d33f0	39.30072
191	0xbf6cdb47	-0.9252209
192	0xc1c3d47d	-24.478754
193	0x41166bf7	9.401359
194	0xc2179533	-37.895702
195	0xc1b39fb9	-22.45299
196	0xc16f751a	-14.966089
197	0x416ae7bd	14.681577
198	0x41d8643b	27.04894
199	0xc1ffe616	-31.987347
200	0x40b512ba	5.658536
201	0xc28b57d9	-69.67158
202	0xc1c050ab	-24.039389
203	0xc0c9334d	-6.2875123
204	0xc1bab457	-23.338057
205	0x419d607f	19.672117
206	0x4166e00c	14.429699
207	0xc0086487	-2.1311357
208	0xc1e81473	-29.009985
209	0xc1c14cc4	-24.162483
210	0x3fad4f23	1.3539776
211	0x410d72d1	8.840531
212	0x421ab7b1	38.679386
213	0xc0e2e968	-7.090992
214	0x419e28ee	19.769985
215	0xc0e8695b	-7.262861
216	0x40477793	3.1166732
217	0xc0efecf1	-7.4976735
218	0x4181246b	16.142782
219	0xc05ac256	-3.4181113
220	0xc0d5ec47	-6.6850924
221	0x41628a7a	14.158808
222	0x412966c8	10.587593
223	0xc0886368	-4.2621346
224	0xc124fcdb	-10.311732
225	0x420ff7fe	35.99218
226	0x41a55561	20.666689
227	0x3fc4dfb2	1.5380766
228	0x4044ffab	3.0781047
229	0xbfc0946f	-1.5045298
230	0xbf668114	-0.9004071
231	0x41657340	14.340637
232	0xc188f43d	-17.119257
233	0xc1db1ff0	-27.390594
234	0xc1a91ca9	-21.138994
235	0xc11ed6b6	-9.92742
236	0xbf9f8d8c	-1.2465072
237	0x41ecedb2	29.616062
238	0x418ffd20	17.998596
239	0xc2140b36	-37.01095
240	0xc221e799	-40.47617
241	0xc2606537	-56.098843
242	0xbe07bdc6	-0.13255987
243	0xc233ce22	-44.9513
244	0xc130df82	-11.054567
245	0x422149ad	40.32195
246	0x42126f12	36.608467
247	0xc225032b	-41.253094
248	0xc29c286f	-78.07897
249	0x41751609	15.31788
250	0xc28f4def	-71.652214
251	0x41ba05a1	23.252748
252	0xc203a458	-32.910492
253	0xc17940e5	-15.578343
254	0x4221d738	40.460175
255	0xc16a0f14	-14.628681

l1/b f4 [256]
0	0xc1af2c5a	-21.896656
1	0x4044f4f3	3.0774505
2	0x415f2642	13.94684
3	0x40c5317c	6.1622906
4	0x4046575b	3.0990818
5	0x409f7d0e	4.9840155
6	0xc13f3397	-11.950095
7	0x3e9217e8	0.28533864
8	0xbf2b11d8	-0.668241
9	0x41094e94	8.581684
10	0xc21949a4	-38.321915
11	0x418c1653	17.5109
12	0xc10d5152	-8.832354
13	0xbf09f2e6	-0.5388626
14	0x418b4c5a	17.412281
15	0x409472fb	4.6390357
16	0x40a34428	5.10207
17	0x410ec0ed	8.922101
18	0x40f73a20	7.7258453
19	0x40d54090	6.664131
20	0x414c3588	12.763069
21	0x3fe876dc	1.8161273
22	0x4069da78	3.6539593
23	0x4139fe58	11.624596
24	0xc0e5d9bd	-7.1828294
25	0xc22a8a36	-42.63497
26	0x407996fe	3.8998408
27	0xc0aa6816	-5.325206
28	0x410f661c	8.962429
29	0x3fc791e9	1.5591403
30	0x40822f6d	4.0682893
31	0x3d0bd827	0.034141686
32	0x41110026	9.062536
33	0x40fa869e	7.828933
34	0xc209bdf0	-34.435486
35	0x411ae328	9.680458
36	0x41e9b9b4	29.215675
37	0x416f2e72	14.948839
38	0x40c51216	6.1584578
39	0x41a71cde	20.889095
40	0x40a66a65	5.2004876
41	0xc18f436c	-17.90792
42	0xc0ea10d7	-7.3145556
43	0xc1a8ce7e	-21.100826
44	0xc0b06e7d	-5.5134873
45	0x41558876	13.345816
46	0xc18cc29e	-17.595028
47	0x40880c63	4.251512
48	0xc1a2bab0	-20.341156
49	0x417b6063	15.711032
50	0xc1edd73d	-29.730097
51	0x41b4fefc	22.624504
52	0x4175405e	15.328215
53	0xc1511888	-13.068489
54	0x406a4c21	3.6608965
55	0x4129da91	10.615861
56	0xc18a0c0c	-17.255882
57	0xc1515808	-13.083992
58	0x41b70124	22.875557
59	0x4129a139	10.601861
60	0x4102a279	8.164666
61	0xbf4e2873	-0.8053047
62	0x410ec48e	8.922987
63	0xc2066b94	-33.605057
64	0xc0c9e7b8	-6.309536
65	0x41a88f22	21.06989
66	0xc1e02c03	-28.02149
67	0xbfd765e0	-1.6827965
68	0xc10c614c	-8.773754
69	0xc13eb615	-11.919454
70	0x3f1b588a	0.60681975
71	0xc119e560	-9.6185
72	0x41175328	9.457802
73	0x40df542c	6.979025
74	0xc0ff851e	-7.9849997
75	0xc1ac80e1	-21.56293
76	0x418d8bf9	17.693346
77	0xc0e2edb1	-7.091515
78	0xc0c677cc	-6.2021236
79	0x41b5d159	22.72722
80	0xc0baa30f	-5.8324046
81	0xc21da0b6	-39.406944
82	0xc1137667	-9.216407
83	0x40af4792	5.4774866
84	0x41a3113c	20.383415
85	0x40393004	2.8935556
86	0x40df00b7	6.9688373
87	0xc0f0ac5b	-7.5210395
88	0x418ad0e0	17.35199
89	0x41400e06	12.003424
90	0xc0812e1d	-4.036879
91	0xc0aec56d	-5.4616
92	0x41a92718	21.144089
93	0xc10fcbd9	-8.9872675
94	0x4030d8fa	2.7632432
95	0xc11d923e	-9.848204
96	0xc25ac7c2	-54.695076
97	0xc2023e76	-32.560997
98	0xbf0dd7ef	-0.55407614
99	0xc1603bb7	-14.014579
100	0x40c8f6e6	6.280139
101	0x4105f891	8.373185
102	0x405b7ae9	3.4293768
103	0xc084ab80	-4.145935
104	0x40c680f2	6.2032404
105	0x3f5d70f9	0.8650051
106	0x40a467f8	5.1376915
107	0xc1038f5d	-8.222501
108	0xc1ab28f0	-21.394989
109	0x41d16306	26.173351
110	0xc13473d3	-11.278277
111	0xbf58206a	-0.8442446
112	0x4124c3a8	10.297768
113	0x412f0931	10.939744
114	0xbff50bb9	-1.9144202
115	0x412aed19	10.682885
116	0x413e4211	11.8911295
117	0xbfa39f48	-1.2782984
118	0xc0e68e76	-7.2048903
119	0xbfd6d310	-1.6783161
120	0x419bda60	19.481628
121	0xc1c8a111	-25.078646
122	0xc194d231	-18.602633
123	0xbf62c5b1	-0.88582903
124	0x4083eb63	4.1224837
125	0x4104dc65	8.303807
126	0xc0a1b336	-5.0531263
127	0xbf619ee2	-0.8813306
128	0xc2000a34	-32.009964
129	0xc1456cbe	-12.339048
130	0x41a71d8f	20.889433
131	0xc157abb4	-13.47942
132	0x41bb49da	23.41106
133	0x4124888b	10.283336
134	0xc06adbdc	-3.6696692
135	0x41049237	8.285697
136	0xc1cec99b	-25.84844
137	0xc1a215ce	-20.260647
138	0xc0e7f428	-7.248554
139	0xc18bb6db	-17.464285
140	0xc22c01c3	-43.00172
141	0xc022d5b7	-2.544294
142	0x419138cc	18.152733
143	0xc188d1f0	-17.102509
144	0xc020f8c3	-2.5151832
145	0x414957cd	12.583936
146	0x419ee93b	19.863882
147	0xbf02e5c0	-0.5113182
148	0x3fb8f2ff	1.4449157
149	0xc2086f67	-34.10879
150	0xc194efee	-18.617153
151	0x411d5e20	9.83548
152	0x42168ffd	37.640614
153	0xc1af09ec	-21.879845
154	0xc1957deb	-18.686483
155	0x4184f57b	16.619864
156	0xc199d456	-19.22868
157	0xc113b2d8	-9.231163
158	0xc253c28f	-52.94
159	0x4122e9ef	10.182113
160	0x3db0a4bf	0.08625173
161	0xc026bad5	-2.6051533
162	0x3f615397	0.8801817
163	0x41172073	9.445422
164	0x40ebad74	7.3649235
165	0xc23b6ae1	-46.854374
166	0x41815ae9	16.16939
167	0xc1ac6f9c	-21.554497
168	0xc05b8fd3	-3.4306533
169	0xc24ae26a	-50.721107
170	0xc1ad153d	-21.63537
171	0xc170f16f	-15.058944
172	0x40348868	2.8208256
173	0x40f634eb	7.6939597
174	0x419b3971	19.403048
175	0xc105fecf	-8.374709
176	0x401523a7	2.330301
177	0xc0835a44	-4.1047688
178	0xc088fdc0	-4.2809753
179	0xc0acadf4	-5.3962345
180	0x4054914a	3.3213677
181	0xbec5b09c	-0.38611305
182	0x40ee0193	7.437692
183	0xc05b6d22	-3.428536
184	0xbf997604	-1.198914
185	0x40203d85	2.5037549
186	0xc1af1973	-21.887426
187	0x41a76bb6	20.927593
188	0x40a2ca75	5.087214
189	0xc0046f33	-2.069287
190	0xc0be394b	-5.944494
191	0x411fe6eb	9.993876
192	0x4070d78a	3.7631555
193	0xc11162d2	-9.086626
194	0xc115a44b	-9.352611
195	0x4184f8c9	16.621477
196	0x41969f63	18.827826
197	0xc14595c2	-12.349062
198	0x40c58f53	6.1737456
199	0x4101ddbf	8.116637
200	0xc0f44830	-7.633812
201	0xc085953b	-4.1744666
202	0xc0cd77ac	-6.4208584
203	0x40802e4a	4.0056505
204	0x40c91d1c	6.2848034
205	0xc0eddb09	-7.4329877
206	0xc120e556	-10.05599
207	0xc1c57aba	-24.684925
208	0x4108ad19	8.54226
209	0xbf57db1b	-0.84318703
210	0xc2579e36	-53.904503
211	0xc09755b5	-4.7292123
212	0xc096de1e	-4.714614
213	0x40f5293d	7.661284
214	0xc19a7a4c	-19.309715
215	0xbfacab0e	-1.3489702
216	0x404d62fc	3.2091665
217	0xc2041f73	-33.030712
218	0xc151300c	-13.07423
219	0xc184b38d	-16.587671
220	0xc1a30a68	-20.380081
221	0x418f24e8	17.89302
222	0xc0117fb8	-2.2734203
223	0xc268278c	-58.03862
224	0x419a7bd2	19.31046
225	0x4133b587	11.231818
226	0xc093e5e9	-4.621815
227	0xc0d9c7cf	-6.8056407
228	0xc0811659	-4.033978
229	0x41cfd19d	25.97735
230	0x4186470b	16.784689
231	0xc10a789b	-8.654445
232	0x406eecb7	3.733198
233	0xc09dcd35	-4.9312997
234	0x419ef967	19.871778
235	0xc16bdba5	-14.741124
236	0xc04221ca	-3.0333123
237	0x400a48b9	2.1606886
238	0xc225ff76	-41.499474
239	0x3ea06368	0.3132584
240	0xbf0187c0	-0.50597763
241	0xc1e4631c	-28.548393
242	0xc1d83104	-27.023933
243	0xc1250b60	-10.315277
244	0xc2527ede	-52.623894
245	0xc2808a5f	-64.270256
246	0xc0879d08	-4.237919
247	0xc20d3a41	-35.30689
248	0x4122472e	10.142378
249	0x410b5a6f	8.7095785
250	0xc0bba0e3	-5.8633895
251	0x40130621	2.297249
252	0xc1b5aca3	-22.709295
253	0x41828cc0	16.318726
254	0xc0d5766a	-6.670705
255	0xc1b654a3	-22.791327

l4/W f4 [64, 256]
0	0x426ada3a	58.71311
1	0x425e1bf6	55.527306
2	0x4243bd6c	48.934982
3	0x42c558a3	98.67312
4	0x421781da	37.87681
5	0x426556ff	57.334957
6	0x427d88eb	63.38371
7	0x4257c3d9	53.941257
8	0x4248120a	50.017616
9	0x426e2991	59.540592
10	0x426d628d	59.34624
11	0x42631863	56.773815
12	0x42698c2f	58.386898
13	0x427ff99b	63.993755
14	0x425a8663	54.631237
15	0x425ac2e6	54.69033
16	0x427c05d8	63.005707
17	0x425a69cf	54.60333
18	0x42499af8	50.401337
19	0x426c46e1	59.069218
20	0x4260b1e5	56.173725
21	0x423929d6	46.290855
22	0x4257fe2f	53.998226
23	0x423773f3	45.86323
24	0x4263fc51	56.996403
25	0x4241f5c4	48.490005
26	0x4282b243	65.34817
27	0x42846da1	66.21412
28	0x427c27a6	63.03872
29	0x42515578	52.333466
30	0x42b22f5b	89.09249
31	0x426fe28e	59.971245
32	0x42643bed	57.05852
33	0x4254a344	53.15944
34	0x4271e6d1	60.475407
35	0x4021fe54	2.531148
36	0x4266093c	57.509018
37	0x4237a756	45.913414
38	0x427b83b2	62.87861
39	0x42476aed	49.85442
40	0x42226855	40.601887
41	0x424c7c75	51.12154
42	0x4294205d	74.06321
43	0x42701c29	60.0275
44	0x4282b2d7	65.3493
45	0x42551955	53.27474
46	0x422a226d	42.53362
47	0x42456f59	49.358738
48	0x427d7350	63.36261
49	0x42bdc2ab	94.88021
50	0x4235b815	45.429768
51	0x42938a0b	73.769615
52	0x4257a2d6	53.90902
53	0x425589a6	53.384422
54	0x428466de	66.20091
55	0x42ca2650	101.07483
56	0x42680e94	58.014236
57	0x42aff692	87.98158
58	0x4276a248	61.658478
59	0x42895654	68.66861
60	0x424647f6	49.570274
61	0x42bc0f8f	94.03039
62	0x427793ab	61.894207
63	0x424b174c	50.77275
64	0x4256e731	53.725773
65	0x42cb4ea6	101.65361
66	0x42b5c5b8	90.88617
67	0x424ae306	50.721703
68	0x422cd6d3	43.20979
69	0x424d3368	51.3002
70	0x427a6e58	62.607758
71	0x424a1ab5	50.52608
72	0x42530a68	52.760162
73	0x4254fecf	53.248837
74	0x423ccf2a	47.20231
75	0x42431400	48.76953
76	0x426401fa	57.00193
77	0x42389f4a	46.155556
78	0x424dd737	51.46017
79	0x42641974	57.024857
80	0x42427011	48.60944
81	0x426f3eac	59.811203
82	0x42796618	62.3497
83	0x428d7b4a	70.7408
84	0x423f1cee	47.77825
85	0x422eb91c	43.68077
86	0x4273cd9e	60.950798
87	0x426eccef	59.70013
88	0x42ba3468	93.102356
89	0x42bf9657	95.79363
90	0x42711511	60.270573
91	0x42370a9f	45.760372
92	0x4271505e	60.328484
93	0x425f87c4	55.882584
94	0x42705d90	60.09137
95	0x42376788	45.851105
96	0x425d16c3	55.27223
97	0x4268c353	58.190746
98	0x4243bf77	48.936977
99	0x421c7529	39.114414
100	0x42643dd8	57.060394
101	0x42512748	52.28836
102	0x4264b087	57.17239
103	0x42886a0e	68.20714
104	0x4258a688	54.16263
105	0x42431c30	48.777527
106	0x42498b4d	50.386036
107	0x422f2b03	43.792004
108	0x4293c98a	73.89363
109	0x42674c63	57.824596
110	0x428317ad	65.54624
111	0x425f0795	55.757404
112	0x42338d48	44.88797
113	0x420cd262	35.205452
114	0x420aa4a0	34.660767
115	0x4228e34e	42.221977
116	0x426e6935	59.60274
117	0x4244a772	49.16352
118	0x42781a56	62.02572
119	0x4260a00a	56.15629
120	0x424d5125	51.329243
121	0x423c7598	47.114838
122	0x425f173d	55.772694
123	0x423766db	45.850445
124	0x426344ad	56.817066
125	0x426a0677	58.506313
126	0x426179ff	56.369137
127	0x42591932	54.274605
128	0x42633c12	56.808662
129	0x42409d6b	48.15373
130	0x42537d06	52.872093
131	0x4285fb04	66.990265
132	0x424ec7e5	51.69521
133	0x41fd4d64	31.662788
134	0x41d6bcc7	26.842176
135	0x42091d30	34.278503
136	0x41629014	14.160175
137	0x42898a27	68.76983
138	0x42598327	54.37808
139	0x42562048	53.531525
140	0x424fcb00	51.948242
141	0x427fe211	63.970768
142	0x42673936	57.80587
143	0x4249b085	50.422382
144	0x424045dd	48.068226
145	0x423159d8	44.337738
146	0x4250a2fe	52.159172
147	0x424abcd8	50.684418
148	0x424f747e	51.86376
149	0x427287e7	60.632717
150	0x421e9235	39.64278
151	0x427caaa9	63.16666
152	0x42808aa2	64.27077
153	0x42734ab5	60.822956
154	0x41c03d91	24.030062
155	0x4238765d	46.11559
156	0x425e118f	55.517147
157	0x4282a0c1	65.31397
158	0x42460562	49.505257
159	0x42544a15	53.072346
160	0x42100438	36.00412
161	0x422da685	43.412617
162	0x42489f92	50.15583
163	0x42881f35	68.06095
164	0x422d703a	43.359596
165	0x425dad8c	55.41948
166	0x4261da45	56.463154
167	0x4230e154	44.220047
168	0x4281895a	64.768265
169	0x42b4ac2b	90.336266
170	0x4269c734	58.444534
171	0x42592b77	54.292446
172	0x429ab920	77.36157
173	0x427abad2	62.68244
174	0x42451380	49.269043
175	0x428b8494	69.75894
176	0x425fef20	55.98352
177	0x4259b592	54.427315
178	0x423d00ed	47.250904
179	0x4222a63c	40.66234
180	0x42a33eba	81.62251
181	0x427ed946	63.71218
182	0x4207e04b	33.969036
183	0x4268be78	58.186005
184	0x42888e3b	68.277794
185	0x423d47a3	47.319958
186	0x4271a642	60.41236
187	0x42446ce7	49.10635
188	0x42790c67	62.26211
189	0x426b95f0	58.896423
190	0x4277f150	61.985657
191	0x4253be03	52.93556
192	0x421aac52	38.66828
193	0x424ec39e	51.691032
194	0x42320bd4	44.51155
195	0x427034b0	60.051453
196	0x4263a82b	56.914227
197	0x424d0075	51.250446
198	0x425e37e2	55.554573
199	0x4264af1b	57.171
200	0x423e8efb	47.63963
201	0x427898be	62.149162
202	0x4276597c	61.587387
203	0x4223e455	40.97298
204	0x42834f4f	65.6549
205	0x42a3429e	81.63011
206	0x427f20b4	63.781937
207	0x422c5603	43.083996
208	0x42851f4f	66.56115
209	0x4269253a	58.286354
210	0x4249553e	50.333244
211	0x422a6bf5	42.605427
212	0x42579ad3	53.901196
213	0x426fb7d8	59.929535
214	0x42773220	61.79895
215	0x4251da99	52.463474
216	0x42650c45	57.261982
217	0x426d5ec3	59.34254
218	0x4257156e	53.770927
219	0x42795a81	62.338383
220	0x41d0c5c3	26.096563
221	0x4265cc38	57.449432
222	0x42654349	57.31571
223	0x42692995	58.290607
224	0x4267d568	57.958405
225	0x423250fd	44.57909
226	0x426b9fae	58.905937
227	0x4266d780	57.71045
228	0x42692440	58.2854
229	0x4228053c	42.00511
230	0x424e3ef1	51.561466
231	0x423ac172	46.68891
232	0x4267a506	57.911156
233	0x4248157c	50.02098
234	0x426ca1a4	59.157852
235	0x4221cd05	40.450214
236	0x421d40f3	39.313427
237	0x426e5e85	59.592304
238	0x4275f024	61.484512
239	0x42cf57bf	103.67138
240	0x42814530	64.63513
241	0x424a027a	50.50242
242	0x4282b613	65.35561
243	0x4262a8f6	56.665
244	0x4280fb5f	64.49096
245	0x42381d4b	46.028606
246	0x4266c3a7	57.691067
247	0x4240e143	48.219982
248	0x42149799	37.148045
249	0x42761213	61.51765
250	0x422d879e	43.38244
251	0x42bcb449	94.35212
252	0x423e4afe	47.573235
253	0x4249034e	50.253227
254	0x42752dc8	61.29471
255	0x4278cbe5	62.199116

l4/b f4 [64]
0	0xc2c3f9de	-97.98802
1	0xc2c3fb66	-97.99101
2	0xc2c3fbd2	-97.99184
3	0xc2c3f9ee	-97.988144
4	0xc2c3f850	-97.984985
5	0xc2c3f767	-97.98321
6	0xc2c3fad0	-97.98987
7	0xc2c3f7bb	-97.98385
8	0xc2c3fa2e	-97.98863
9	0xc2c3fe97	-97.997246
10	0xc2c3facf	-97.98986
11	0xc2c3ffa8	-97.99933
12	0xc2c41152	-98.03383
13	0xc2c3fe81	-97.99708
14	0xc2c3fd52	-97.99477
15	0xc2c3f603	-97.98049
16	0xc2c3f807	-97.98443
17	0xc2c40cfe	-98.025375
18	0xc2c400ac	-98.00131
19	0xc2c3fb91	-97.99134
20	0xc2c40059	-98.00068
21	0xc2c3fe26	-97.99638
22	0xc2c3febf	-97.99755
23	0xc2c3fda5	-97.9954
24	0xc2c3fbc3	-97.99172
25	0xc2c3f806	-97.98442
26	0xc2c3f90e	-97.986435
27	0xc2c3fa98	-97.98944
28	0xc2c3f946	-97.98686
29	0xc2c3f9ff	-97.98827
30	0xc2c3fdde	-97.995834
31	0xc2c3fc63	-97.99294
32	0xc2c3fc54	-97.99283
33	0xc2c3fc8c	-97.993256
34	0xc2c3ffe1	-97.99976
35	0xc2c3ffe5	-97.999794
36	0xc2c3fe9f	-97.99731
37	0xc2c3fe0a	-97.99617
38	0xc2c3fcd4	-97.993805
39	0xc2c3faf7	-97.990166
40	0xc2c3fd9f	-97.99535
41	0xc2c402c6	-98.00542
42	0xc2c3f877	-97.98528
43	0xc2c3fffd	-97.99998
44	0xc2c3ff72	-97.99892
45	0xc2c3fea1	-97.99732
46	0xc2c3f89a	-97.98555
47	0xc2c3fae7	-97.99004
48	0xc2c3ff09	-97.998116
49	0xc2c3fe0e	-97.9962
50	0xc2c3fff1	-97.999886
51	0xc2c3fa6f	-97.98913
52	0xc2c3faf1	-97.99012
53	0xc2c40325	-98.00614
54	0xc2c3ff4e	-97.99864
55	0xc2c3f8d1	-97.98597
56	0xc2c3fa75	-97.989174
57	0xc2c3fa2c	-97.98862
58	0xc2c3faba	-97.9897
59	0xc2c3fa83	-97.98928
60	0xc2c3fdf1	-97.99598
61	0xc2c3fa37	-97.9887
62	0xc2c3fc7f	-97.99316
63	0xc2c3fb3a	-97.99068

l3/W f4 [256, 256]
0	0xc05fe062	-3.4980702
1	0xc22cee2b	-43.232586
2	0xc1111609	-9.06788
3	0xc08a749e	-4.3267355
4	0x40bddbe1	5.9330907
5	0x42230f9d	40.765247
6	0x4084687f	4.137756
7	0x3e6eb1b0	0.2330997
8	0x4167ac24	14.4795265
9	0x406fc343	3.7462928
10	0x41dfde08	27.983414
11	0x41872a87	16.895765
12	0x3e3509bd	0.17679496
13	0x41a945c4	21.159065
14	0x3fdb0c0d	1.7113053
15	0xc079648d	-3.8967621
16	0x415a8a7e	13.658812
17	0xc2024163	-32.563854
18	0xc125c9ad	-10.361737
19	0xc217af74	-37.92134
20	0xc274076e	-61.007256
21	0xc1e41a0b	-28.512716
22	0x417d8b5e	15.846525
23	0x40e25179	7.0724454
24	0xc031c688	-2.7777424
25	0x417c36dd	15.763394
26	0x410bd39a	8.739161
27	0xc25b6dcc	-54.857224
28	0x41660b5e	14.377775
29	0xc0f95192	-7.7912073
30	0xc187ca89	-16.973894
31	0x3f2e8644	0.68173623
32	0x40af999e	5.487502
33	0x40bf9c70	5.9878464
34	0xc1ea740d	-29.306665
35	0x40f5a26b	7.6760764
36	0xc280b54d	-64.3541
37	0x408f00ef	4.468864
38	0xc19e186c	-19.761925
39	0x407dd989	3.9664023
40	0x4125b924	10.3577
41	0xc0d48027	-6.6406436
42	0xc1aaa21a	-21.329151
43	0x41abc079	21.46898
44	0x4101279a	8.072168
45	0x41ed33be	29.650265
46	0xbf592a37	-0.8483004
47	0x41c6280a	24.76955
48	0xc0c1a8cd	-6.0518556
49	0x412b0eed	10.691144
50	0x410ca27e	8.789671
51	0xc1a44871	-20.535372
52	0xc199f53d	-19.244745
53	0x41548901	13.283448
54	0xc0315aa2	-2.7711568
55	0xc25459f4	-53.087845
56	0x41b87e60	23.061707
57	0xc171f0ff	-15.121337
58	0xc1a26d30	-20.303314
59	0x41c47ee5	24.56196
60	0x41bf6dd3	23.928625
61	0xc1d550bc	-26.664421
62	0xc1fdfac7	-31.74745
63	0xc1ce2c95	-25.771769
64	0xc1337ca8	-11.217934
65	0x41402015	12.007833
66	0xc2198ec1	-38.38941
67	0xc069ba91	-3.652012
68	0x3fae27f9	1.3605949
69	0xc0ac2def	-5.380607
70	0xc19667cd	-18.800684
71	0x41cfeb86	25.990002
72	0x41a30200	20.375977
73	0x3fe894cc	1.8170409
74	0xc211e2a1	-36.471317
75	0xc1667db3	-14.405688
76	0xc0b2eb21	-5.5912023
77	0xc0a0bc6d	-5.023001
78	0xc1d4a987	-26.582777
79	0x418ce123	17.60993
80	0xc0d76bbe	-6.731902
81	0xc1969ab9	-18.825548
82	0xc1ac2912	-21.520054
83	0xc2099ac3	-34.401134
84	0xc1bb69cd	-23.42666
85	0x40e4f1d0	7.154518
86	0xc1bcde88	-23.608658
87	0x4114a34a	9.2898655
88	0xc13bdceb	-11.741435
89	0xbe7eadca	-0.24870983
90	0x41268bc4	10.409122
91	0x41d8877a	27.06615
92	0x413487b0	11.283127
93	0xbfc3eb42	-1.530617
94	0x411a7d07	9.655524
95	0xc1720c32	-15.127977
96	0x412971e3	10.590304
97	0x3fc32b04	1.5247502
98	0xc2330293	-44.752514
99	0x4121ccb9	10.112481
100	0xc1903424	-18.02546
101	0xc1a8ae0b	-21.084982
102	0x4241fa80	48.49463
103	0xbf76f919	-0.9647384
104	0xc0a3a61f	-5.1140285
105	0xc1733a52	-15.201738
106	0x422bbbab	42.93327
107	0x40c561e6	6.1682005
108	0xc1af6b72	-21.927464
109	0xc20411db	-33.017437
110	0x403bd94d	2.935138
111	0x418b9c0b	17.451193
112	0xc1b574cb	-22.682028
113	0xc2679aaa	-57.90104
114	0x41859a97	16.700483
115	0xc204e209	-33.220737
116	0x416e8878	14.908318
117	0x42169b2d	37.65154
118	0x4165c1cb	14.359813
119	0xc13b047c	-11.688595
120	0xc186eb2f	-16.864836
121	0xc117dd1a	-9.49148
122	0xc0c09bc1	-6.019013
123	0xc169ebdf	-14.620086
124	0x41aa8c5c	21.318535
125	0xc1f056b4	-30.042336
126	0xc1ab47bd	-21.410028
127	0x4166ffca	14.4374485
128	0x41f6922c	30.821373
129	0xc2921a69	-73.05158
130	0x415c84d1	13.782426
131	0xc14c0f75	-12.753774
132	0xc22c49d9	-43.072117
133	0x41b1b617	22.213911
134	0xc243950e	-48.89556
135	0x4102ac3e	8.167051
136	0x40e7efc1	7.248017
137	0x4169d4b7	14.614432
138	0xc1d5b6d8	-26.71428
139	0xc1437e01	-12.218263
140	0x413f73f6	11.965811
141	0xc16b820c	-14.71925
142	0xc0a4abe0	-5.145981
143	0xc1e7a274	-28.954323
144	0xc2453b8e	-49.30816
145	0xc0eb16a1	-7.3465123
146	0x4030d6a1	2.7631
147	0xc28a5f9b	-69.18673
148	0x40c3f649	6.123814
149	0x40fe9085	7.9551415
150	0xc1f207a1	-30.253725
151	0xc0753529	-3.8313696
152	0xc1aa091e	-21.254452
153	0x417047e2	15.0175495
154	0xc1df7e40	-27.936646
155	0xc112fa9a	-9.186182
156	0x3fd0cfd8	1.6313429
157	0xc110bafa	-9.045649
158	0x41bbd418	23.478561
159	0xc103195c	-8.193691
160	0xc2247566	-41.114647
161	0xc1080026	-8.500036
162	0xc238a5cf	-46.161922
163	0x4166648b	14.399547
164	0xc28b94c3	-69.79055
165	0xc19ed01d	-19.851618
166	0xc21c9de6	-39.154198
167	0xc01ca000	-2.4472656
168	0xc2a07aa3	-80.239525
169	0xc22acc93	-42.69978
170	0xc2006570	-32.09906
171	0x40ae3aa7	5.4446597
172	0x420c5ef3	35.092724
173	0xc1f2b10a	-30.336445
174	0x408cba1d	4.397719
175	0xc118429f	-9.516265
176	0x3fce20c5	1.610375
177	0xc12b0291	-10.688127
178	0x416e785b	14.904384
179	0xc2393c41	-46.30884
180	0xc289eff3	-68.96865
181	0xc1eb651f	-29.424376
182	0x41e01069	28.008013
183	0xc20bd2af	-34.955746
184	0x42396e79	46.357883
185	0xc1ec8599	-29.565233
186	0x40e500a4	7.156328
187	0xc08e7e62	-4.4529276
188	0xc1775678	-15.458611
189	0xc1a1f00d	-20.242212
190	0xc0010305	-2.0158093
191	0x41b83244	23.024544
192	0xc057f57c	-3.3743582
193	0x400cd931	2.2007563
194	0x40d45677	6.635555
195	0x4087f8a1	4.2491
196	0xc1583e43	-13.515201
197	0x41899548	17.197891
198	0xc288b360	-68.35034
199	0x42086376	34.09713
200	0xc179368c	-15.575817
201	0xc0e7b07a	-7.2402925
202	0x40cb8ee2	6.3611917
203	0x41f3dc11	30.482454
204	0xc23bab00	-46.916992
205	0x418b1a52	17.387852
206	0x418608f9	16.754381
207	0xbd129d3b	-0.035794478
208	0xc11d2464	-9.821384
209	0xc1dbe3c2	-27.48621
210	0xc22bb1c1	-42.923588
211	0xc00e8e1f	-2.2274244
212	0x404e7f0c	3.2265043
213	0x41f6f730	30.870697
214	0x41f613ef	30.759733
215	0x403a5065	2.911157
216	0x40e69603	7.205812
217	0xc2758a5c	-61.385117
218	0xc09fc090	-4.992256
219	0xc1103af8	-9.014397
220	0xc20e3b4a	-35.5579
221	0xc252ef04	-52.733414
222	0xc152194c	-13.131176
223	0xc1800480	-16.002197
224	0xc22cc369	-43.19083
225	0xc0b45bc2	-5.636201
226	0xc1a592ac	-20.696617
227	0x40a90f83	5.2831435
228	0x413139bc	11.076595
229	0x416b2f73	14.699084
230	0x417ae16a	15.680033
231	0xc15d22d3	-13.821002
232	0x41810443	16.12708
233	0x410142e0	8.078827
234	0xc1c07984	-24.059334
235	0x411642d2	9.391314
236	0x401a9ec6	2.4159408
237	0xc11b5834	-9.709034
238	0xc215c486	-37.441917
239	0xc1946c2d	-18.55282
240	0xc1b436f1	-22.526827
241	0xc1059fbb	-8.351497
242	0xc269dbbb	-58.46458
243	0x42613bde	56.308464
244	0x4143326e	12.199812
245	0xbefaf513	-0.49015102
246	0x414a7178	12.652702
247	0xbf9ca3db	-1.2237505
248	0xc229300e	-42.29693
249	0x41336524	11.212193
250	0x414ab9cf	12.670363
251	0xc2356ba8	-45.355133
252	0x41cb2301	25.392092
253	0xc15ed9a5	-13.928136
254	0x42272796	41.78866
255	0x410668a7	8.40055

l3/b f4 [256]
0	0x40122bda	2.2839265
1	0xbfe2da31	-1.7722837
2	0x3ea67795	0.3251311
3	0xc09b3510	-4.8502274
4	0x419ccc62	19.599796
5	0x41d7bc5b	26.96697
6	0x416ef261	14.934175
7	0x40dc1edb	6.8787665
8	0x412843dc	10.516567
9	0x40808d73	4.0172668
10	0xc093657f	-4.6061397
11	0x4116f05a	9.43368
12	0x3f9a3cc1	1.2049791
13	0x404394fc	3.0559683
14	0x4080ae7b	4.021299
15	0x4154dd30	13.304001
16	0xbedf9d12	-0.43674523
17	0x41180d67	9.503272
18	0x4133e003	11.24219
19	0x40da698b	6.8253837
20	0x408b1553	4.346353
21	0xc058db60	-3.3883896
22	0x41ecd191	29.602327
23	0x4109e3eb	8.618144
24	0x40d2f276	6.5920973
25	0x4011c611	2.277714
26	0x3f8d57b5	1.1042391
27	0x416d9920	14.849884
28	0x3f0d4787	0.5518727
29	0x40c87b9e	6.26509
30	0x40208a0e	2.5084262
31	0x413c2898	11.759911
32	0xc0c1ff1b	-6.062391
33	0x40f8300e	7.755866
34	0x3e9b9a77	0.30391285
35	0x42922e1b	73.09005
36	0x408c88e2	4.3917093
37	0xc088313d	-4.2560105
38	0x3e3ff7db	0.18746893
39	0xc0362091	-2.8457377
40	0x40a9712e	5.295066
41	0x411aab61	9.666841
42	0x411d5ec8	9.83564
43	0x411f1b98	9.944237
44	0xc0b9dcd0	-5.8082047
45	0x412c35fa	10.763178
46	0x41fc3f47	31.530897
47	0x411ef0d2	9.933794
48	0x3f022da1	0.50850874
49	0xc0986bc5	-4.7631555
50	0x4156ba0f	13.420424
51	0xc04b9223	-3.1807945
52	0xc021b602	-2.5267339
53	0xc0353471	-2.8313258
54	0xc00109ae	-2.0162158
55	0x40ccbe7d	6.398253
56	0x40cb3495	6.3501687
57	0xc0f0091e	-7.501113
58	0x412eeabc	10.932308
59	0x410473ed	8.278302
60	0x41b6ec55	22.865396
61	0x3f89d5ee	1.0768411
62	0xbf282f2a	-0.65696967
63	0x400f26f8	2.2367535
64	0x406674e4	3.6008844
65	0xbf822ac8	-1.0169306
66	0x40612ab0	3.5182304
67	0x41369477	11.411246
68	0x408d4bd2	4.4155054
69	0x415321d5	13.19576
70	0x41248f81	10.285035
71	0x411a79d8	9.654747
72	0xbf95a6aa	-1.1691487
73	0x416bad2c	14.729778
74	0x4063ba26	3.5582366
75	0x4042ccb1	3.0437434
76	0xbde6a330	-0.11261594
77	0x40990752	4.7821436
78	0x419641c0	18.782104
79	0x4017a58d	2.3694794
80	0x409cf9f0	4.90551
81	0x3f8c3237	1.0952824
82	0x3f5a5b3f	0.8529548
83	0xc0087637	-2.1322153
84	0x40abba57	5.3664966
85	0x41bbd57a	23.479237
86	0x410a3569	8.63804
87	0x403e91cb	2.9776485
88	0x4082746b	4.076711
89	0xc10ebbf1	-8.920884
90	0x40e9a4f9	7.3013883
91	0x4170fe18	15.062035
92	0x4051df83	3.279267
93	0x414a148e	12.630018
94	0x40ca8195	6.328318
95	0x411ae5fa	9.681147
96	0x41babe9b	23.34307
97	0xbf01d8bd	-0.5072134
98	0x4146f205	12.434087
99	0x40ba2cd5	5.8179727
100	0x41012879	8.072381
101	0x41676f98	14.464745
102	0x40539517	3.3059747
103	0x41391242	11.566957
104	0xc011aa60	-2.2760239
105	0x40a8d6fa	5.2762423
106	0x406b3a95	3.6754506
107	0x41e563d2	28.67374
108	0x4139446d	11.5792055
109	0xc00ce553	-2.2014968
110	0xc103c05c	-8.234463
111	0x40e80809	7.250981
112	0x3f6905f2	0.91024697
113	0x40cca85c	6.3955517
114	0x420f5899	35.83652
115	0x410738fe	8.451414
116	0x4196fdc3	18.873907
117	0x4183e390	16.486115
118	0xc05a8880	-3.4145813
119	0x409698ef	4.7061687
120	0x415c2765	13.759618
121	0x40da914d	6.830237
122	0xc063f89a	-3.5620484
123	0x4044623b	3.0684955
124	0xc041138f	-3.0168188
125	0xbf3f2e00	-0.74679565
126	0x3f64e9f1	0.89419466
127	0x3ee0932e	0.4386229
128	0x414eadd5	12.917439
129	0x4186216e	16.766323
130	0x405638ac	3.347209
131	0x40a53892	5.1631556
132	0x3f3bca22	0.73355305
133	0x414af092	12.683733
134	0x422682f4	41.627884
135	0x41e71207	28.883802
136	0x3ea83f19	0.3286064
137	0xc0432fd0	-3.0497932
138	0x40f690b2	7.705163
139	0xbf1feec4	-0.624737
140	0x41052586	8.321661
141	0xc01ef704	-2.4838266
142	0x40c717ac	6.2216396
143	0x41120748	9.126778
144	0x415f61cd	13.961377
145	0x40725aed	3.7867997
146	0x4041ac89	3.0261557
147	0xc063ee33	-3.5614135
148	0x418edc18	17.857468
149	0x3fbf43f4	1.4942613
150	0x4148fe08	12.562019
151	0x4116c18d	9.422254
152	0x41673f38	14.452934
153	0x3efa46f0	0.48882246
154	0x41f27700	30.308105
155	0xc010e450	-2.263935
156	0x40aaa792	5.3329554
157	0x41502d8e	13.011122
158	0xc020e3c4	-2.5139017
159	0x3f08bf0a	0.534165
160	0x4150f1b4	13.05901
161	0x41d8f837	27.121199
162	0x4053cec3	3.3094947
163	0x4125c2ab	10.360026
164	0x41957b2b	18.68514
165	0x40feece2	7.9664164
166	0x40921a21	4.5656896
167	0x4134f561	11.309907
168	0xc0a5dbce	-5.1830816
169	0x4185bd73	16.717505
170	0xbf0fe346	-0.56206167
171	0x4168b95a	14.545252
172	0x411479ba	9.279718
173	0xc0e892a1	-7.267899
174	0x41087d6b	8.53062
175	0x417003c7	15.000922
176	0x408363f7	4.1059527
177	0x41120410	9.125992
178	0x41286619	10.524926
179	0x410b3dac	8.702557
180	0x41540b60	13.252777
181	0x419eae56	19.835125
182	0x41e33ab5	28.403666
183	0x3faf49f1	1.369444
184	0x40fa19c1	7.815644
185	0x40b795d9	5.737042
186	0x40b8bc5b	5.7729926
187	0x40ba4821	5.821305
188	0x40817759	4.045819
189	0xc098f9d4	-4.7804966
190	0x3eb7d87e	0.35907358
191	0x40782b36	3.8776374
192	0x40f217e1	7.565415
193	0xc06674d8	-3.6008816
194	0x41df54fc	27.916496
195	0xc01b47bc	-2.4262533
196	0x4143a6d6	12.228231
197	0x417a2fc3	15.636661
198	0xc02fc099	-2.7461302
199	0x40a75e08	5.2302284
200	0x40775ff5	3.8652318
201	0x40a9fcad	5.312094
202	0x3e001963	0.12509684
203	0x4123b5c7	10.231879
204	0x404c501e	3.19239
205	0x408addc9	4.3395734
206	0x41983718	19.026901
207	0x41f4ba2a	30.5909
208	0x403c119b	2.9385746
209	0x41195a7d	9.584592
210	0x41ef6325	29.92341
211	0x413ad5a1	11.6771555
212	0x40bf106f	5.970756
213	0x415408ba	13.2521305
214	0xbf3aa166	-0.72902524
215	0x4208da5b	34.213238
216	0x40e00d62	7.0016336
217	0x409f04f0	4.9693527
218	0x3f9ab3a4	1.2086072
219	0x418980ea	17.187946
220	0x4271a8a4	60.41469
221	0x41a5ed0e	20.74075
222	0xbee1c860	-0.44098186
223	0xbf2c6e8e	-0.67356193
224	0x417d649e	15.837065
225	0xc031f3db	-2.7805088
226	0x4183d554	16.479164
227	0x4148be5a	12.546473
228	0xbfa2de5d	-1.272411
229	0x40b7e8ec	5.747183
230	0xbf0d33d8	-0.5515723
231	0x3f26f314	0.6521466
232	0x404e3196	3.2217765
233	0x41168a7f	9.4088125
234	0x4105f628	8.372597
235	0x3f547017	0.82983536
236	0xbf231913	-0.63710135
237	0x409dce5e	4.9314413
238	0x41099577	8.59899
239	0x3f5234a8	0.821116
240	0xc0ac639a	-5.3871584
241	0xc1062ca4	-8.385899
242	0x4100bce3	8.046115
243	0x40bfe598	5.9967766
244	0x416397b6	14.224539
245	0x4146a016	12.4140835
246	0xc0c7bb50	-6.2416153
247	0x41405fcd	12.023389
248	0x41e6061b	28.752981
249	0x407c7b9b	3.9450443
250	0x4127d8d3	10.490436
251	0x41f104fe	30.127438
252	0x4115cdc7	9.362739
253	0xc023b81c	-2.5581121
254	0x40f01c73	7.503473
255	0xc00993e3	-2.1496513
