size8/agent_black_151000/target_model.npz (npz, 608918 bytes, 8 tensors)

l2/W f4 [256, 256]
0	0xc11ee119	-9.9299555
1	0xc139dcff	-11.616454
2	0xc21e5662	-39.58436
3	0xc16576ea	-14.341532
4	0xc23ea84f	-47.664364
5	0x414072db	12.028041
6	0xbfd8e71c	-1.6945529
7	0x41fb2880	31.394775
8	0xbeb7083b	-0.35748467
9	0xc1f00eac	-30.007164
10	0x41973613	18.901403
11	0x4192bcdf	18.342222
12	0x40aa14b6	5.315028
13	0xc1961cdc	-18.764091
14	0xc1b1d18c	-22.227318
15	0xbd97da8b	-0.07414731
16	0x4199edcd	19.241114
17	0xc116546e	-9.395613
18	0xc1235c96	-10.210104
19	0xc108185d	-8.505948
20	0xc1c9017d	-25.125727
21	0x414f23b5	12.946218
22	0x4056f843	3.3589027
23	0xc120613c	-10.023739
24	0xc170c51f	-15.048125
25	0xc0ed78b0	-7.4209824
26	0x41320ad8	11.127647
27	0xc1ae9957	-21.824873
28	0x420af117	34.73544
29	0x4234fb2a	45.245277
30	0x414cc500	12.798096
31	0x40a3e349	5.121495
32	0xc19d1663	-19.635931
33	0x3fd06c94	1.6283135
34	0xc143979c	-12.224514
35	0xbf142b22	-0.57878315
36	0x4152faf4	13.186268
37	0x413d0ec1	11.816102
38	0xc20dbd5a	-35.434914
39	0x4115dea5	9.366857
40	0x40994b78	4.7904625
41	0x4004d560	2.0755234
42	0xc18888b9	-17.06676
43	0xc08e7536	-4.451808
44	0x3e8ae350	0.2712655
45	0x420887b6	34.13253
46	0x410fd27a	8.988886
47	0x41f96ffb	31.179678
48	0x407abfe1	3.9179614
49	0xc1cbd61c	-25.479546
50	0x410d791e	8.84207
51	0x406c4161	3.6914904
52	0x400ac2c5	2.1681378
53	0xc1feb66c	-31.839073
54	0x410bf4d7	8.747275
55	0x418acb25	17.349192
56	0xc0c671d8	-6.201397
57	0xbf9af5d4	-1.2106271
58	0x41a4a9ef	20.582975
59	0x41499cbc	12.600765
60	0xc1ae891b	-21.816946
61	0x40cfa367	6.4886966
62	0x419606e1	18.753359
63	0xc116c546	-9.423162
64	0xc0d5a586	-6.6764555
65	0xc20ffcf4	-35.997025
66	0xc1eda034	-29.703224
67	0xc1ae0606	-21.752941
68	0x406a4d00	3.6609497
69	0x409e3fb0	4.9452744
70	0x40106d91	2.2566874
71	0x418203ed	16.251917
72	0x41becbad	23.849451
73	0x4191d071	18.226778
74	0xc18ed3fe	-17.853512
75	0x416e28a5	14.884923
76	0x409bfa08	4.8742714
77	0xc192f6d6	-18.370525
78	0x41abb22c	21.461998
79	0x412330cd	10.199414
80	0x418b5140	17.414673
81	0xc0665edf	-3.5995405
82	0x4087203f	4.2226863
83	0xc1863ac5	-16.778696
84	0x40d71d7a	6.722348
85	0x41cda14e	25.703762
86	0xc0531f47	-3.298784
87	0x41e5c9a0	28.72345
88	0x414411b0	12.254318
89	0xc1ac548c	-21.541283
90	0x4186f9cf	16.871977
91	0xc004e604	-2.076539
92	0xc1903997	-18.02812
93	0x414911af	12.566817
94	0x415ff693	13.997699
95	0x41947e68	18.561722
96	0xc21a908a	-38.64115
97	0x401694f5	2.3528416
98	0x410cceda	8.800501
99	0x40cde45d	6.4341264
100	0x3f9f62e0	1.2452049
101	0xc2398cce	-46.387505
102	0xc0c432c5	-6.1311975
103	0xc169a806	-14.603521
104	0x3f898df1	1.0746442
105	0xc214e9d7	-37.22836
106	0xc1ec6ada	-29.552174
107	0xc27f6dc1	-63.85718
108	0x41b62c13	22.77152
109	0xc2173f2c	-37.81169
110	0x406a71a0	3.6631851
111	0xc1609466	-14.03623
112	0x40780941	3.8755648
113	0x413d4bd7	11.831016
114	0x41415d94	12.085346
115	0xc21dbde3	-39.435436
116	0xc1944caa	-18.537434
117	0xc0b98927	-5.797992
118	0xc0426009	-3.0371115
119	0xc18117be	-16.136593
120	0xc0ccf9a5	-6.405474
121	0xc208b41d	-34.17589
122	0x418e22c2	17.766972
123	0xc246a3f4	-49.66011
124	0x40fd5fa8	7.917927
125	0xc2193cd8	-38.309418
126	0xc164437d	-14.266477
127	0xbfc58779	-1.5431968
128	0x41a9f271	21.24338
129	0xc20eddcf	-35.71661
130	0x413289d8	11.158653
131	0xc2255ea5	-41.342426
132	0x417bd062	15.738375
133	0x4200cc70	32.199646
134	0x40f8c87a	7.774472
135	0x41935f03	18.421392
136	0xc290accd	-72.3375
137	0xc16bab05	-14.729253
138	0x3fc2116a	1.5161564
139	0xbf2f1375	-0.68389064
140	0xc1a6e5a9	-20.862139
141	0xc0936abf	-4.6067805
142	0xc1863cae	-16.779629
143	0x41a728ec	20.894981
144	0xc15301ba	-13.187922
145	0xc28afe5d	-69.4968
146	0x4210d425	36.207172
147	0x4158bf5e	13.5467205
148	0x420f4321	35.815556
149	0x414f0a03	12.939944
150	0x400eeeb4	2.2333193
151	0x417009e0	15.002411
152	0x4185748d	16.68191
153	0xc08192d4	-4.0491734
154	0x417782a9	15.469399
155	0x40fb06ed	7.8445954
156	0xc1f146d1	-30.159578
157	0xc18188bc	-16.191765
158	0x409af61b	4.842542
159	0xc1f3b8d2	-30.465244
160	0xc1c01453	-24.009924
161	0xc1bee911	-23.863802
162	0x4124cb88	10.29969
163	0x41ccbb60	25.591492
164	0xc1bf3ffe	-23.906246
165	0xc169fbd6	-14.623983
166	0xc0d316af	-6.596519
167	0x3f4b06b2	0.7930709
168	0xc215b54c	-37.427048
169	0x41820586	16.252697
170	0xc18e5e1b	-17.79595
171	0xc115e7c3	-9.369082
172	0xbff3c483	-1.9044346
173	0x41aec3fa	21.845692
174	0xc26615ac	-57.521164
175	0xc081b673	-4.0535216
176	0xc1de7422	-27.806705
177	0x413af4c8	11.684761
178	0x4177d33f	15.489074
179	0x41355ea3	11.335605
180	0x4136e0a4	11.429844
181	0x4265d39b	57.456646
182	0xc1a206e8	-20.253372
183	0x3f800483	1.0001377
184	0x41c6c028	24.843826
185	0xc1e1b4c3	-28.213263
186	0x413f59f0	11.959457
187	0x40cde396	6.4340315
188	0xc23154a2	-44.33265
189	0x4211f0a2	36.484993
190	0x41da00c1	27.250368
191	0x4117e1f6	9.492666
192	0x41f1fe25	30.249094
193	0xc1b619a8	-22.762527
194	0x41c36c45	24.427866
195	0x413f85ff	11.970214
196	0x417933d9	15.575158
197	0x41439ca5	12.225743
198	0x41927d44	18.311165
199	0x415aef0d	13.683362
200	0xc1123bdc	-9.139614
201	0xc1b7d1e9	-22.977495
202	0xc1afb9a5	-21.965647
203	0xc1a75031	-20.914156
204	0xc1d85684	-27.042244
205	0xc18b39f6	-17.403301
206	0xc1d3b4d7	-26.4633
207	0xc1eced4d	-29.61587
208	0xc1fa9a84	-31.325447
209	0xc073ec5c	-3.8113012
210	0xc2183564	-38.05214
211	0xc12bcf40	-10.738098
212	0xc1c56fd6	-24.679607
213	0xc15b8ca3	-13.721835
214	0xc1d2e9f8	-26.364243
215	0xc1b7ab46	-22.95863
216	0xc0e697f6	-7.20605
217	0x4162bf24	14.171665
218	0xc18e0db2	-17.756687
219	0xc1be5657	-23.792158
220	0x403f383b	2.987807
221	0x3f9d312f	1.2280635
222	0xc1e75007	-28.914076
223	0xc0338f50	-2.805622
224	0xc197a744	-18.956673
225	0xc11031cd	-9.012158
226	0xc0e7eb52	-7.2474756
227	0xc211ed9a	-36.482033
228	0xc1eb2147	-29.391249
229	0xc19d4996	-19.66093
230	0x4193de7f	18.48364
231	0xbf400021	-0.75000197
232	0x412a83d0	10.657181
233	0xc185c8de	-16.72308
234	0x41a6c5bb	20.846548
235	0xc1570baa	-13.440348
236	0xc1a3682d	-20.425867
237	0x421fb952	39.930977
238	0x40ae0c8c	5.4390316
239	0x41d1ab25	26.208567
240	0x410ed2bb	8.926448
241	0xc19a2533	-19.268164
242	0xc1b73f18	-22.905807
243	0x40da23c5	6.8168664
244	0xc23917e6	-46.27334
245	0xc1ffb219	-31.961962
246	0x41d5ebb4	26.74009
247	0xc137f119	-11.496362
248	0x4205b63a	33.427956
249	0x4202863a	32.63108
250	0x42159d84	37.403824
251	0xc117ffff	-9.499999
252	0xc1e638e3	-28.777777
253	0xc246913f	-49.64184
254	0xc0ddbc2b	-6.9292197
255	0x4184b523	16.588446

l2/b f4 [256]
0	0x41904520	18.033752
1	0x41200fec	10.003887
2	0x415e2de2	13.886202
3	0x41b8455b	23.033865
4	0x41289adb	10.5378065
5	0x41b761db	22.922781
6	0x3e8614fe	0.2618789
7	0xc02f6b4c	-2.740924
8	0x4195bf27	18.718336
9	0xbf875d14	-1.057528
10	0x3ec080d7	0.37598297
11	0x41505b2e	13.022261
12	0xc0360beb	-2.8444774
13	0xc0be1d67	-5.941089
14	0x408f8b65	4.485766
15	0x3fae965d	1.3639637
16	0xbd21ae87	-0.039473083
17	0x4183179d	16.38653
18	0x4176f38a	15.434458
19	0xc169943a	-14.598688
20	0x4125bd3a	10.358698
21	0x41eb7010	29.429718
22	0x4162c275	14.172475
23	0x3f9c1a97	1.2195615
24	0x40434ac3	3.051438
25	0xbff0fed1	-1.8827764
26	0x40b31ea6	5.5974913
27	0x4085a1c2	4.175996
28	0x4181c586	16.221447
29	0xc10de56e	-8.868513
30	0x41f444a1	30.53351
31	0x4178f544	15.559879
32	0x41b77e14	22.936562
33	0x41a5c7e4	20.722603
34	0x4179d1b2	15.613695
35	0x3f2e08ba	0.67982066
36	0xc16eeb92	-14.932512
37	0x418d1132	17.633396
38	0xbdd26fc7	-0.10275226
39	0x41800cf6	16.006329
40	0x411babf5	9.729482
41	0x418448a0	16.535461
42	0x419583b4	18.689308
43	0xc05d804c	-3.4609556
44	0x41365782	11.396364
45	0x4199bb10	19.21634
46	0xc1aa9410	-21.322296
47	0x4192ed61	18.365908
48	0xc14d1ad9	-12.819055
49	0xc127ff87	-10.499885
50	0x4208a3b0	34.15985
51	0xc1cc925d	-25.571466
52	0x41a79dda	20.952076
53	0x41b906f7	23.1284
54	0x416a8c2d	14.659223
55	0xc1674fa9	-14.456948
56	0xc0752e3e	-3.8309474
57	0x417899d4	15.537556
58	0x3eb0b6e4	0.34514534
59	0xbfacd209	-1.3501598
60	0x415f16f9	13.943109
61	0xc106b274	-8.418568
62	0xc0e8860b	-7.2663627
63	0xc0df656f	-6.981132
64	0x3f43e984	0.7652819
65	0xc0d17472	-6.5454645
66	0xbf9406f2	-1.156462
67	0x41e0072d	28.003504
68	0xc08b7264	-4.3577137
69	0xc130fd16	-11.061789
70	0x40a4d87d	5.151427
71	0x41176445	9.46198
72	0xc01f3d13	-2.4881027
73	0xc11bea1a	-9.744654
74	0xc160e88c	-14.056774
75	0x41cb7907	25.434095
76	0xc1559052	-13.347734
77	0xc122ca26	-10.174353
78	0x418006ce	16.003323
79	0x40f145bd	7.539763
80	0x41e2e051	28.35953
81	0x419b0120	19.37555
82	0x41aab665	21.33906
83	0x419f8554	19.940102
84	0x419bddca	19.483295
85	0xc1724132	-15.140917
86	0x3ff15751	1.8854772
87	0xc191d498	-18.228806
88	0xc1838b49	-16.44301
89	0xc05098eb	-3.2593334
90	0xc0124800	-2.2856445
91	0x4105f4ef	8.372298
92	0xc1286ee7	-10.527076
93	0x419dbece	19.718166
94	0xbf6e9ab5	-0.93204814
95	0xc10aec01	-8.682618
96	0xc0ed305f	-7.4121547
97	0x403ca3e5	2.9475033
98	0x4041ed4d	3.0301087
99	0xbf05dfda	-0.52294695
100	0x41ac15fc	21.510735
101	0x401ca20a	2.44739
102	0x4129f0d7	10.621299
103	0x41471a9b	12.443995
104	0xc081207a	-4.0352144
105	0x4158e12d	13.554975
106	0xc109fc7f	-8.624145
107	0xbfa1be82	-1.2636263
108	0x41b76e62	22.928898
109	0x41c3472a	24.409748
110	0x4048ef75	3.1396153
111	0x41bfe4d5	23.986734
112	0x41c3cd70	24.475311
113	0x418d99c4	17.70008
114	0xc110d658	-9.05233
115	0x41b21c1c	22.263725
116	0x41885a02	17.04395
117	0x41a9d607	21.229506
118	0x3f9bad00	1.216217
119	0x41b1fce8	22.24849
120	0x418946b3	17.159521
121	0x41aa5382	21.290775
122	0x40ab7712	5.358285
123	0x414db82b	12.857463
124	0x418ec2a7	17.845045
125	0x41946f53	18.554358
126	0x41a8058d	21.00271
127	0x41b134e8	22.150833
128	0xc0b33a84	-5.600893
129	0x4168d264	14.551365
130	0xc194f180	-18.61792
131	0x41903112	18.02396
132	0x4196e410	18.861359
133	0x41dbf874	27.496315
134	0x40f385a2	7.6100626
135	0xbf2bc3d7	-0.670957
136	0x41e6f04b	28.86733
137	0x41956953	18.676428
138	0xc099f0aa	-4.810628
139	0x41b62c06	22.771496
140	0x40f7e188	7.7462807
141	0xc1011cef	-8.069564
142	0x41b82a84	23.02076
143	0x4193f86b	18.496298
144	0x419d3d96	19.655071
145	0xc184da92	-16.606724
146	0xc16c9b3e	-14.787901
147	0x4092ad6d	4.58367
148	0x419cec28	19.61531
149	0xc01a385c	-2.40969
150	0x41b00743	22.003546
151	0xc1686164	-14.523777
152	0x41237e98	10.218407
153	0xc10cc848	-8.798897
154	0x410c3a8c	8.764294
155	0xc11da535	-9.852834
156	0x4162150b	14.130137
157	0x41a55771	20.667696
158	0x41c10c46	24.130993
159	0xc1a1946b	-20.19747
160	0x4133916e	11.223005
161	0x412ee007	10.929694
162	0xc180a194	-16.078896
163	0x40264197	2.5977533
164	0x4168160c	14.505383
165	0xc181ae76	-16.210186
166	0xc199dc86	-19.232677
167	0x41812510	16.143097
168	0x41a49770	20.573944
169	0xc01985cb	-2.398791
170	0x4194e34b	18.610983
171	0x41aaf0c0	21.367554
172	0x412488e3	10.28342
173	0x3fde45fb	1.7365106
174	0xc1e773dc	-28.931572
175	0x400ab649	2.1673758
176	0x410fda11	8.990739
177	0x4199a02e	19.203213
178	0x3f33429f	0.7002353
179	0x4174b3ef	15.293929
180	0x4178d32b	15.551555
181	0x4183e67a	16.487537
182	0xbdf7551d	-0.12076781
183	0x408fd118	4.494274
184	0x41899683	17.198492
185	0x417852dc	15.520229
186	0x3f88a772	1.06761
187	0x4173754f	15.21614
188	0x4184a051	16.57828
189	0x413ea57a	11.9154
190	0x414ed127	12.926063
191	0x40921f37	4.5663104
192	0x3cb547ea	0.022129018
193	0x4178307a	15.511835
194	0x4191a273	18.20432
195	0x41d4da3e	26.606564
196	0x3fd7f9fe	1.6873167
197	0x4185d1a8	16.727371
198	0xc07b1d71	-3.923672
199	0x415bde53	13.741778
200	0x41adee43	21.741339
201	0xc06ede14	-3.7323046
202	0x41aa9d17	21.326704
203	0x41875c62	16.920109
204	0x4199b4f2	19.213352
205	0x41e2cbcb	28.349508
206	0xc191e937	-18.238874
207	0x40d74de7	6.7282596
208	0xc060b779	-3.5111983
209	0x41de446d	27.783411
210	0x41980c9a	19.006153
211	0x4009c8e0	2.1528854
212	0x417fe36e	15.993025
213	0x413fc75e	11.986174
214	0x419fb6aa	19.964191
215	0x41786698	15.525047
216	0xc000fa1d	-2.0152657
217	0x41c2d6da	24.354908
218	0x418e277e	17.769283
219	0x41472b8f	12.448134
220	0x41b43413	22.525427
221	0x419d0348	19.626602
222	0x41a299ea	20.325153
223	0x41abbef5	21.46824
224	0x419d7273	19.680883
225	0x41a01b64	20.013374
226	0xc0c3b81c	-6.1162243
227	0x416d6a32	14.838427
228	0xc1a5fdc6	-20.748913
229	0x41e79031	28.945406
230	0x418aac3e	17.334103
231	0x41c23820	24.277405
232	0xc11c63ee	-9.774397
233	0xbf5df6a6	-0.8670448
234	0xc091e09c	-4.558668
235	0x3f093f8e	0.536126
236	0x41b485f3	22.565405
237	0xbf986993	-1.1907219
238	0x41225c30	10.147507
239	0xc1b687f6	-22.816387
240	0xc11d707c	-9.839962
241	0xc1656a33	-14.338428
242	0x41a747e2	20.910099
243	0x420fd505	35.958027
244	0x3e1939ec	0.14963502
245	0xc107798a	-8.467173
246	0x40c36a13	6.1066985
247	0xbf07f7bb	-0.5311238
248	0x419eb2fa	19.83739
249	0x418b1880	17.386963
250	0x41e8e118	29.10991
251	0x41adc64a	21.72182
252	0x4128c18d	10.547254
253	0x418b8981	17.44214
254	0x41a56699	20.675097
255	0x409bceef	4.8690104

l1/W f4 [256, 64]
0	0x42725047	60.578396
1	0xc0bb682d	-5.856467
2	0x4172bf3d	15.171689
3	0x40581591	3.3763163
4	0x41a45793	20.54276
5	0x41bd3f89	23.656023
6	0x40c9995b	6.29997
7	0xbfae81fc	-1.3633418
8	0xc19761a3	-18.922674
9	0x4080e82d	4.028342
10	0xc1f74226	-30.907299
11	0x41add489	21.728777
12	0xc212a75f	-36.66345
13	0x4118395b	9.514003
14	0x4068a064	3.6347895
15	0xc145d2cf	-12.363967
16	0xc0f27c58	-7.5776787
17	0x41aac081	21.343996
18	0x40be5f87	5.949161
19	0xc139c187	-11.609748
20	0x41a73936	20.902935
21	0xc091ab2c	-4.552145
22	0x4222c704	40.69435
23	0x4133a7d4	11.228474
24	0x41af30ea	21.898884
25	0xbfb7ff56	-1.4374797
26	0x41c0ac1b	24.084036
27	0xc1bbd085	-23.476816
28	0xc105ebe0	-8.370087
29	0x41a155f1	20.166964
30	0x4181af48	16.210587
31	0x414ea6d9	12.915734
32	0xc10ce6f5	-8.806386
33	0xc01becb4	-2.4363222
34	0x3fa73466	1.3062866
35	0xc190c157	-18.094404
36	0x3fe99d42	1.8251116
37	0xc0dd2b3d	-6.911528
38	0xc07f7064	-3.9912348
39	0x419a3c7f	19.27954
40	0x41b8df82	23.109135
41	0x416191b5	14.098073
42	0xc18f7650	-17.93277
43	0x41b106ba	22.128284
44	0x403090a1	2.7588274
45	0xc0ba3012	-5.818368
46	0x4129c9fb	10.611812
47	0xc1a25d75	-20.295633
48	0xbf19e3da	-0.601133
49	0x414b9d7c	12.725948
50	0xc0fca727	-7.8954043
51	0xc163448c	-14.204235
52	0xbebc5266	-0.36781615
53	0x411d5c3a	9.835016
54	0xc19500e4	-18.625435
55	0x4219fd0c	38.497116
56	0x41b628fd	22.770014
57	0xc103fe8d	-8.249646
58	0xbfecce92	-1.850054
59	0xc163a4ec	-14.227764
60	0x41158bfb	9.346675
61	0x3e1d769d	0.15377279
62	0xc189c890	-17.22293
63	0xc1ab879d	-21.441217
64	0x4179d322	15.614046
65	0xc044894c	-3.07088
66	0x4226468e	41.5689
67	0xc0f877a7	-7.764606
68	0xc14e17b8	-12.880791
69	0xc233acc1	-44.918705
70	0x41843554	16.52604
71	0x40c84d68	6.259449
72	0xc149862e	-12.595259
73	0xc00cb6ca	-2.1986566
74	0x41b2ebac	22.365074
75	0xc1c96712	-25.175327
76	0xc15ce073	-13.804797
77	0xc2095e58	-34.342133
78	0x4188cde1	17.100527
79	0xc1a8bcd5	-21.092203
80	0x4123e54a	10.243479
81	0xc16b8356	-14.719564
82	0xc05596e8	-3.3373356
83	0xc0c39bfc	-6.112791
84	0x4144af31	12.292771
85	0xc09afa90	-4.8430862
86	0x41357e4b	11.343333
87	0xbeb2fdad	-0.34959164
88	0x411bdc00	9.741211
89	0xc163b170	-14.23082
90	0xc0c3b07a	-6.1152925
91	0xc103cf41	-8.238099
92	0xc0def712	-6.96766
93	0xc16ae8c2	-14.681826
94	0xc1760179	-15.37536
95	0xc1eb627e	-29.423092
96	0xbef484d9	-0.47757605
97	0xc011f06f	-2.2803
98	0x418f80f5	17.937967
99	0x400e17d5	2.2202046
100	0x3ecec221	0.40382484
101	0xc105c887	-8.361457
102	0x41ee356e	29.776089
103	0xc12cc9bc	-10.799252
104	0xc04ebe2c	-3.2303572
105	0xc20897f4	-34.14839
106	0x41b50649	22.628069
107	0x4183ce60	16.475769
108	0xc0b734d4	-5.7251987
109	0x419ab696	19.339153
110	0x42530a11	52.75983
111	0xc1802f91	-16.023226
112	0xc226e106	-41.71975
113	0xc124245f	-10.25888
114	0xc11c8360	-9.782074
115	0xc21ceaf6	-39.229454
116	0x4083ed48	4.122715
117	0x4181474b	16.159811
118	0xbf332b4e	-0.6998795
119	0x40ad6d79	5.4196134
120	0xc0ca5564	-6.3229237
121	0xc179b796	-15.607321
122	0xc2904e9a	-72.15352
123	0xc12b5bbb	-10.709895
124	0x42097442	34.363533
125	0x41bf9a59	23.950365
126	0x410ad30b	8.676524
127	0xc0d91a02	-6.784425
128	0x41c45ed9	24.546312
129	0x42078086	33.87551
130	0xc0a1f529	-5.061177
131	0x42046a69	33.103916
132	0x40692a40	3.6432037
133	0x410f2fc9	8.949166
134	0xc057caa0	-3.3717422
135	0x4087ab6e	4.2396765
136	0x420d0c86	35.26223
137	0xbec2ccdd	-0.38046923
138	0xc22cf43a	-43.238503
139	0x41315697	11.08364
140	0x41896da4	17.178535
141	0x41eae848	29.363419
142	0x417076c2	15.028994
143	0xbfcfe604	-1.624207
144	0x40c9f9b5	6.311732
145	0x4226d477	41.707485
146	0xc15068ec	-13.025616
147	0x410e3f8f	8.890517
148	0xc013eb96	-2.311254
149	0x412d2855	10.822347
150	0x41e79f35	28.952738
151	0x418e3a41	17.778444
152	0x42862607	67.07427
153	0xc1b51039	-22.632921
154	0x41a1f973	20.246801
155	0x415b225d	13.695889
156	0x3f61189f	0.87928194
157	0x418272fb	16.306143
158	0x405fd05d	3.4970925
159	0x41545f97	13.273337
160	0xc10f2e17	-8.948752
161	0x41acae5d	21.585138
162	0xc2115c8d	-36.34038
163	0x41082e32	8.511278
164	0xc02e2042	-2.7207189
165	0x40a79dd3	5.2380157
166	0xc12a10e9	-10.629128
167	0xc1aad967	-21.356153
168	0xc209378e	-34.304253
169	0xc1c0e999	-24.114061
170	0x412d5e9f	10.835601
171	0xc115cca3	-9.36246
172	0x4148c6af	12.548507
173	0x4114fad3	9.311236
174	0xc1301d04	-11.007084
175	0xc20f4ae6	-35.823143
176	0xc1938a7e	-18.442623
177	0xc213673f	-36.850826
178	0xc1205c69	-10.022561
179	0xc0b230df	-5.5684657
180	0x41888a80	17.067627
181	0xc1b09ed2	-22.077549
182	0x40abd012	5.369149
183	0xc1d1be75	-26.217997
184	0x41b53ece	22.655666
185	0x41b686c7	22.81581
186	0xc22e5574	-43.58345
187	0x41d23f56	26.280926
188	0xc0da7a45	-6.8274255
189	0xc0fd9c54	-7.925333
190	0x4205fdfc	33.49803
191	0xbfdc42ef	-1.7207927
192	0xc1a92db6	-21.14732
193	0x41b7d2a5	22.977854
194	0xc1c4fba8	-24.622879
195	0xc12ab66b	-10.669536
196	0xc1486da4	-12.526768
197	0x415656a0	13.396149
198	0x41b45c14	22.54496
199	0xc1c6c3da	-24.84563
200	0x418561cb	16.67275
201	0xc25d9576	-55.395958
202	0xc1aedafd	-21.856928
203	0x40a1e7d7	5.059551
204	0xc18e5649	-17.792131
205	0x41d493a1	26.572084
206	0x416ac818	14.673851
207	0xc171f50a	-15.122324
208	0xc171ed68	-15.1204605
209	0xc199c3c9	-19.220598
210	0x4120240f	10.008803
211	0x41231413	10.192401
212	0x421722ca	37.783974
213	0x3ffdd5d9	1.9830886
214	0x41a1903e	20.19543
215	0xc09eff10	-4.9686356
216	0x414c5fde	12.773405
217	0xc055ec5c	-3.3425512
218	0x4185572c	16.667564
219	0x3c15a12d	0.009132666
220	0xc00b6eed	-2.1786454
221	0x4192e6d5	18.36271
222	0x41394b1b	11.580836
223	0xc0622770	-3.533657
224	0xc181dff8	-16.23436
225	0x41fb6d42	31.428349
226	0x41c50723	24.628485
227	0x40c694df	6.2056727
228	0x4065d1e3	3.5909355
229	0x3f813afa	1.0096123
230	0xc0602d2f	-3.5027578
231	0x418cb3ae	17.587734
232	0x3eb2fabe	0.34956926
233	0xc1c0f262	-24.118351
234	0xc19a00c9	-19.250383
235	0xc0fe995b	-7.95622
236	0x4058f195	3.389745
237	0x41dbcd50	27.47525
238	0x4197686e	18.925991
239	0xc204dc4d	-33.215137
240	0xc1e23bf2	-28.27927
241	0xc1cd1552	-25.63541
242	0x4070b026	3.7607512
243	0xc21b3ebb	-38.81126
244	0xc0ec1fd1	-7.378884
245	0x4223e01f	40.96887
246	0x42248799	41.13242
247	0xc1ff7985	-31.934336
248	0xc287808b	-67.75106
249	0x41936af2	18.42722
250	0xc26cdf59	-59.218113
251	0x41a6d3ad	20.853357
252	0xc1c42ca6	-24.521801
253	0xc13030b4	-11.01189
254	0x42383140	46.048096
255	0xc1b5ddf1	-22.73337

l1/b f4 [256]
0	0xc1a7762e	-20.932705
1	0x401b9e5f	2.4315412
2	0x41374ed1	11.456742
3	0x41057f0a	8.343515
4	0xbb8651f2	-0.004099124
5	0x40dfa10b	6.9884086
6	0xc1247ebb	-10.28094
7	0x3fc21d35	1.5165163
8	0x4044edad	3.0770066
9	0x40152fb5	2.3310368
10	0xc22984aa	-42.379555
11	0x4159b019	13.605493
12	0xc0d84e04	-6.7595234
13	0xc0aa6d1d	-5.3258195
14	0x418e47f5	17.785135
15	0xbe3eae42	-0.18621162
16	0x4100f206	8.059088
17	0x411c6947	9.775702
18	0x4129db7d	10.616086
19	0x4118bfaf	9.546798
20	0x417c8fda	15.78512
21	0x40821b11	4.065804
22	0x4011dc10	2.2790565
23	0x417596c3	15.349307
24	0xc0e8fabd	-7.2806077
25	0xc2285c31	-42.09003
26	0x40aa549b	5.322828
27	0xc0901f50	-4.5038223
28	0x40f70d67	7.720386
29	0x3fc93ba6	1.5721328
30	0x40dcc687	6.8992343
31	0x4046d654	3.1068316
32	0x41082ce5	8.510961
33	0x4142b1db	12.168422
34	0xc202846a	-32.62931
35	0x41462085	12.382939
36	0x41e4657d	28.549555
37	0x41452d06	12.323492
38	0x4101ff93	8.124896
39	0x419b7641	19.432741
40	0x40e2f6be	7.09262
41	0xc1b9c016	-23.218792
42	0xc0dc6bac	-6.8881435
43	0xc1b43fea	-22.531208
44	0xc11ae06f	-9.679793
45	0x418f9c67	17.951368
46	0xc116df8b	-9.429576
47	0x4058bf63	3.3866813
48	0xc1928dd6	-18.319256
49	0x417cc534	15.798145
50	0xc1b48c9d	-22.568659
51	0x419ec0ac	19.844078
52	0x411d4de1	9.831513
53	0xc13eeee5	-11.933324
54	0x411e0fe4	9.87888
55	0x40ebfec0	7.3748474
56	0xc18f23f1	-17.89255
57	0xc12d5323	-10.832797
58	0x419c327a	19.524647
59	0x40ea875c	7.3290234
60	0x415c7f21	13.781037
61	0xbf2c233e	-0.67241275
62	0x415ae78e	13.681532
63	0xc1edc45d	-29.72088
64	0xbf572fe0	-0.84057426
65	0x41aea234	21.8292
66	0xc1b614ed	-22.760218
67	0xbff648ba	-1.9240944
68	0xc0820727	-4.063373
69	0xc098670b	-4.7625785
70	0xbf019055	-0.5061086
71	0xc10b21c8	-8.695747
72	0x4125e823	10.369174
73	0x406bbbf8	3.6833477
74	0xc101d208	-8.113777
75	0xc1ac3a2a	-21.5284
76	0x4177c953	15.486651
77	0xc0dc41d7	-6.883037
78	0xc0d4b6d4	-6.647318
79	0x41ded832	27.855564
80	0xc07d8f84	-3.9618845
81	0xc222fcda	-40.746925
82	0xc0f94c10	-7.790535
83	0x41261e74	10.382435
84	0x418a2902	17.270023
85	0x40a803bc	5.250456
86	0x4031ed47	2.7801073
87	0xc0f2795a	-7.5773134
88	0x41789afd	15.537839
89	0x4135b90f	11.35768
90	0xc06a5c54	-3.6618853
91	0x3eecee14	0.4627539
92	0x41a66814	20.80082
93	0xc0b70309	-5.7191205
94	0x3f2d7efb	0.6777188
95	0xc1182a30	-9.5103
96	0xc247da30	-49.963074
97	0xc209e916	-34.477623
98	0x3fda500f	1.7055682
99	0xc11bc18b	-9.734752
100	0x40c8f449	6.27982
101	0x4140eeda	12.058313
102	0x40599b08	3.4000874
103	0xbfba80ac	-1.4570518
104	0x410ef62c	8.935101
105	0x3fd00ad1	1.6253301
106	0x3e16e3e2	0.14735368
107	0xc1069dab	-8.413493
108	0xc1b68633	-22.815527
109	0x41ddc6e2	27.72211
110	0xc1181cd5	-9.507039
111	0xbff97a24	-1.9490399
112	0x419ce755	19.612955
113	0x411c8b72	9.784044
114	0xbfa217f2	-1.2663558
115	0x40971c15	4.722178
116	0x41124358	9.141441
117	0x3f00487a	0.5011059
118	0xbfd9f597	-1.7028073
119	0x3feaa910	1.8332844
120	0x419cf70a	19.620625
121	0xc1a8e2ae	-21.110683
122	0xc19354d9	-18.41643
123	0xbe52882e	-0.20559761
124	0x40171bd4	2.3610735
125	0x40856b1b	4.1693244
126	0xc0d657b6	-6.698207
127	0xc04b0342	-3.1720738
128	0xc20835d4	-34.052567
129	0xc08ac14f	-4.3360972
130	0x41d2afc6	26.335827
131	0xc11ad1b3	-9.676196
132	0x41ab3b03	21.403814
133	0x41149af0	9.287827
134	0xc0bde3e5	-5.934069
135	0x4083675a	4.106366
136	0xc1be3d98	-23.780075
137	0xc15a08b7	-13.627128
138	0xc0f8f01b	-7.7793097
139	0xc12ef286	-10.93421
140	0xc2133159	-36.79819
141	0xc0e32f5f	-7.0995326
142	0x418db552	17.713535
143	0xc18e9f63	-17.827826
144	0xc040b896	-3.0112662
145	0x41207d0d	10.03053
146	0x41832488	16.392838
147	0xc00fbcea	-2.2459054
148	0x3fe4e3e2	1.7882044
149	0xc2002fe7	-32.04678
150	0xc192f4ca	-18.369526
151	0x40c15618	6.0417595
152	0x42009cef	32.153255
153	0xc17a3b84	-15.63953
154	0xc1770bdc	-15.440395
155	0x418a5e8c	17.296165
156	0xc188919c	-17.071098
157	0xc0d79621	-6.7370763
158	0xc2547782	-53.116707
159	0x412aa8cc	10.66621
160	0x4071ee70	3.780178
161	0xc03843b5	-2.8791325
162	0xbf88c311	-1.068453
163	0x40ec43ba	7.3832674
164	0x4114110a	9.25416
165	0xc2289375	-42.144
166	0x415d274e	13.822096
167	0xc17cb685	-15.79456
168	0xbfa7afc2	-1.3100512
169	0xc240a5b2	-48.16181
170	0xc1903147	-18.024061
171	0xc1282463	-10.508883
172	0x4100c6be	8.048521
173	0x412d1d1a	10.819605
174	0x41b78e6d	22.944544
175	0xc15dcf58	-13.863121
176	0x3faa17bb	1.3288492
177	0xc0c4bf9d	-6.1483903
178	0xc127e8ed	-10.494367
179	0xc001d324	-2.028512
180	0x40952282	4.6604624
181	0xbfb24ce8	-1.392972
182	0x41474258	12.453697
183	0xc0ec8a15	-7.3918557
184	0x3faa4570	1.3302441
185	0x40824b4d	4.071692
186	0xc1dc3f82	-27.53101
187	0x4184e550	16.611969
188	0x4042feff	3.0468137
189	0x40ddf04f	6.9355845
190	0xc07d71f9	-3.9600813
191	0x41254088	10.328255
192	0x40a7f804	5.2490253
193	0xbfb543d7	-1.4161328
194	0xc1760c61	-15.378022
195	0x4159ab88	13.604378
196	0x4172fa10	15.18605
197	0xc1688012	-14.531267
198	0x411817d4	9.505817
199	0x410a381c	8.638699
200	0xc1115bed	-9.084943
201	0x40c10c9e	6.03279
202	0xc099f55a	-4.8112
203	0x3f94c30e	1.1622026
204	0x40502bd6	3.2526755
205	0xc10e970d	-8.911878
206	0xc0fff690	-7.998848
207	0xc1d4f680	-26.620361
208	0x409c7c44	4.890169
209	0x3e06fe89	0.13183035
210	0xc242bc9a	-48.68418
211	0xc0a057ad	-5.0107026
212	0xc100a396	-8.039938
213	0x41192e39	9.573785
214	0xc16704be	-14.438658
215	0x40be5c9f	5.9488063
216	0x400383b2	2.054913
217	0xc1fa65a6	-31.299633
218	0xc12e712e	-10.902632
219	0xc1816c3c	-16.177849
220	0xc1be3e79	-23.780504
221	0x417e76ac	15.903973
222	0x402cb8c7	2.698778
223	0xc262dce0	-56.7157
224	0x4192ab8c	18.333763
225	0x412fb05b	10.980556
226	0xbfc8282a	-1.5637257
227	0xbffaae8b	-1.9584516
228	0xbf89b193	-1.0757316
229	0x41be176f	23.761442
230	0x415fec47	13.995185
231	0xc129a40c	-10.6025505
232	0x4074fccb	3.8279293
233	0xc0caae46	-6.3337736
234	0x4195f0c4	18.742561
235	0xc14002ec	-12.000713
236	0xc02508ec	-2.5786695
237	0xbef588c8	-0.47955918
238	0xc22f4939	-43.821507
239	0x3fd98f25	1.6996809
240	0xbf8297ef	-1.0202616
241	0xc1c75882	-24.918217
242	0xc1b22c94	-22.271767
243	0xc109494c	-8.580395
244	0xc25a4f78	-54.577606
245	0xc27bdcdc	-62.965683
246	0xc0ba3cda	-5.819928
247	0xc1f3005d	-30.375177
248	0x40fc38f9	7.8819547
249	0x40ec6a3b	7.3879676
250	0xc103c94a	-8.236643
251	0x3fc36f78	1.5268393
252	0xc1ce192f	-25.762297
253	0x419ab691	19.339144
254	0xc0888195	-4.265818
255	0xc1b74d89	-22.912859

l4/W f4 [64, 256]
0	0x42600f9f	56.015255
1	0x425e1bf6	55.527306
2	0x4243bd6c	48.934982
3	0x42c78657	99.76238
4	0x421781da	37.87681
5	0x425f6c37	55.85568
6	0x427f873d	63.88207
7	0x4253895d	52.884144
8	0x4248120a	50.017616
9	0x426e2991	59.540592
10	0x426d628d	59.34624
11	0x42631863	56.773815
12	0x42698c2f	58.386898
13	0x4275943d	61.394764
14	0x425e4650	55.568665
15	0x424333ed	48.80071
16	0x427abcb3	62.684277
17	0x42598827	54.38296
18	0x42499af8	50.401337
19	0x426c46e1	59.069218
20	0x42603f83	56.062023
21	0x423929d6	46.290855
22	0x4257fe2f	53.998226
23	0x421f4059	39.81284
24	0x4263fc51	56.996403
25	0x4241f5c4	48.490005
26	0x426ea34b	59.659466
27	0x428ce0a3	70.43874
28	0x427c27a6	63.03872
29	0x42515578	52.333466
30	0x42b5cb8b	90.897545
31	0x4271b5d1	60.427555
32	0x42643bed	57.05852
33	0x4254a344	53.15944
34	0x4271e6d1	60.475407
35	0x3f66d923	0.90175074
36	0x4263d77e	56.96044
37	0x422cf4f0	43.239197
38	0x427b83b2	62.87861
39	0x42476aed	49.85442
40	0x42226855	40.601887
41	0x424695f2	49.64643
42	0x428b4b43	69.646996
43	0x426da226	59.408348
44	0x427eabf1	63.66791
45	0x4254a651	53.16242
46	0x421e1526	39.520653
47	0x4246f753	49.741528
48	0x4265c4fb	57.442364
49	0x42c25349	97.16267
50	0x42614d31	56.325382
51	0x42963a7f	75.11425
52	0x4257a2d6	53.90902
53	0x425589a6	53.384422
54	0x428466de	66.20091
55	0x42cb3253	101.59829
56	0x425c32fc	55.04979
57	0x42bb564d	93.66856
58	0x4276a248	61.658478
59	0x42815309	64.66218
60	0x4229848c	42.37944
61	0x42aef2e1	87.47437
62	0x428124e2	64.57204
63	0x424b174c	50.77275
64	0x4256e731	53.725773
65	0x42bacc7c	93.39938
66	0x42a95537	84.666435
67	0x423fcda5	47.950825
68	0x4221783c	40.367416
69	0x424889fc	50.13475
70	0x427a6e58	62.607758
71	0x424a1ab5	50.52608
72	0x42530a68	52.760162
73	0x4254fecf	53.248837
74	0x423ccf2a	47.20231
75	0x42431400	48.76953
76	0x4264761a	57.115334
77	0x42389f4a	46.155556
78	0x424dd737	51.46017
79	0x42641974	57.024857
80	0x42410c56	48.262047
81	0x42617c1a	56.371193
82	0x42796618	62.3497
83	0x428faf3a	71.84224
84	0x423f1cee	47.77825
85	0x422ba75f	42.91345
86	0x42750112	61.251045
87	0x42680ffb	58.015606
88	0x42b67c19	91.24238
89	0x42b96da7	92.714165
90	0x42711511	60.270573
91	0x422fd528	43.95816
92	0x4271505e	60.328484
93	0x425f87c4	55.882584
94	0x42705d90	60.09137
95	0x422471fc	41.111313
96	0x425d16c3	55.27223
97	0x426cabab	59.167645
98	0x4243bf77	48.936977
99	0x4213ee8f	36.982967
100	0x42643dd8	57.060394
101	0x425232fb	52.549786
102	0x4264b087	57.17239
103	0x428766a1	67.70045
104	0x425800da	54.00083
105	0x42405bc1	48.089603
106	0x423f7a10	47.8692
107	0x422f34a9	43.801426
108	0x428b9e32	69.808975
109	0x426b4597	58.81796
110	0x427a0674	62.5063
111	0x425f0795	55.757404
112	0x4236ab68	45.66739
113	0x420cd262	35.205452
114	0x420aa4a0	34.660767
115	0x421d8f5a	39.38999
116	0x4261f397	56.48788
117	0x424360f8	48.844696
118	0x42781a56	62.02572
119	0x4260ce9b	56.201763
120	0x4250ed94	52.23201
121	0x423c7598	47.114838
122	0x425f173d	55.772694
123	0x423a7146	46.61062
124	0x426344ad	56.817066
125	0x426a0677	58.506313
126	0x426179ff	56.369137
127	0x42591932	54.274605
128	0x425c1b42	55.02662
129	0x42286ad9	42.104343
130	0x4251ebe9	52.48038
131	0x428a0feb	69.03109
132	0x424fc47b	51.941875
133	0x41e3efb8	28.49205
134	0x41dfe53c	27.98693
135	0x4204b69e	33.178337
136	0x4179aa7e	15.604124
137	0x4284f59e	66.47972
138	0x42520674	52.5063
139	0x4258658a	54.09916
140	0x424fcb00	51.948242
141	0x42724416	60.56649
142	0x425d83b4	55.378616
143	0x4249b085	50.422382
144	0x423502d7	45.252773
145	0x4233179f	44.773067
146	0x4254577d	53.085438
147	0x424abcd8	50.684418
148	0x42484b4e	50.07354
149	0x427287e7	60.632717
150	0x421e9235	39.64278
151	0x427d9190	63.39215
152	0x4282722f	65.223015
153	0x42734ab5	60.822956
154	0x41bb7e40	23.436646
155	0x4250c1ff	52.18945
156	0x424d9c08	51.402374
157	0x426d37aa	59.30436
158	0x4240dca0	48.215454
159	0x42544a15	53.072346
160	0x42100438	36.00412
161	0x422da685	43.412617
162	0x423ad9b8	46.712616
163	0x42881f35	68.06095
164	0x422e56cc	43.584763
165	0x425dad8c	55.41948
166	0x4261da45	56.463154
167	0x422eba9b	43.68223
168	0x4281895a	64.768265
169	0x42ad0e5a	86.52803
170	0x425ae56e	54.724052
171	0x4254c2d8	53.190277
172	0x4297d45b	75.91476
173	0x42772d2a	61.794106
174	0x42489c25	50.152485
175	0x428b8494	69.75894
176	0x42569c32	53.652534
177	0x42405445	48.082294
178	0x423d00ed	47.250904
179	0x42208193	40.126537
180	0x42948021	74.25025
181	0x4278fc52	62.246407
182	0x41fdc41e	31.72076
183	0x4268be78	58.186005
184	0x4271a2af	60.40887
185	0x423d47a3	47.319958
186	0x426a12f3	58.518505
187	0x4242915e	48.64196
188	0x42657ed1	57.373844
189	0x426b95f0	58.896423
190	0x42669cbc	57.65306
191	0x4253be03	52.93556
192	0x421aac52	38.66828
193	0x424f4ed3	51.826977
194	0x422f7ad7	43.86996
195	0x427034b0	60.051453
196	0x42557b2e	53.370293
197	0x42356d0b	45.356487
198	0x425e37e2	55.554573
199	0x4264af1b	57.171
200	0x4229ccc7	42.449978
201	0x426be9a1	58.978153
202	0x426ac4c7	58.692165
203	0x4223e455	40.97298
204	0x42842338	66.06879
205	0x429e60d9	79.189156
206	0x426bb930	58.930847
207	0x422eaec2	43.670662
208	0x427c32dd	63.04967
209	0x4269253a	58.286354
210	0x423a182e	46.523613
211	0x4224d600	41.208984
212	0x425b2b8b	54.792522
213	0x426040d5	56.063313
214	0x425f3887	55.805202
215	0x4251da99	52.463474
216	0x42650c45	57.261982
217	0x427060c0	60.094482
218	0x4257156e	53.770927
219	0x42721744	60.52272
220	0x41ddcc81	27.724855
221	0x4265cc38	57.449432
222	0x42654349	57.31571
223	0x42692995	58.290607
224	0x4264fd4e	57.247368
225	0x422e0079	43.50046
226	0x4257f13d	53.985584
227	0x4266d780	57.71045
228	0x42692440	58.2854
229	0x421944d9	38.317234
230	0x424e3ef1	51.561466
231	0x4231a871	44.414494
232	0x4268e635	58.22481
233	0x4248157c	50.02098
234	0x426994e7	58.395412
235	0x4221cd05	40.450214
236	0x4224806e	41.12542
237	0x425d04b1	55.25458
238	0x42703b25	60.05776
239	0x42cde35a	102.944046
240	0x42814530	64.63513
241	0x424a027a	50.50242
242	0x427a77af	62.61688
243	0x4262a8f6	56.665
244	0x4280fb5f	64.49096
245	0x4224b20b	41.17387
246	0x4266c3a7	57.691067
247	0x4240e143	48.219982
248	0x42149799	37.148045
249	0x42761213	61.51765
250	0x423b73bd	46.863026
251	0x42bc3587	94.104546
252	0x423495ef	45.14642
253	0x4249034e	50.253227
254	0x427698bb	61.64915
255	0x4278cbe5	62.199116

l4/b f4 [64]
0	0xc2c4e14c	-98.44003
1	0xc2c4e021	-98.43775
2	0xc2c4e252	-98.44203
3	0xc2c4dfc1	-98.43702
4	0xc2c4e098	-98.43866
5	0xc2c4e1a7	-98.44073
6	0xc2c4e127	-98.43975
7	0xc2c4e3b9	-98.44477
8	0xc2c4de8b	-98.434654
9	0xc2c4e54c	-98.447845
10	0xc2c4e806	-98.45317
11	0xc2c4e57b	-98.448204
12	0xc2c4e5f0	-98.4491
13	0xc2c4e2af	-98.44274
14	0xc2c4e62b	-98.44955
15	0xc2c4e19e	-98.44066
16	0xc2c4e0e3	-98.43923
17	0xc2c4e069	-98.4383
18	0xc2c4e9a7	-98.45635
19	0xc2c4e4b5	-98.44669
20	0xc2c4e19e	-98.44066
21	0xc2c4e61d	-98.44944
22	0xc2c4e065	-98.43827
23	0xc2c4e206	-98.44145
24	0xc2c4e342	-98.44386
25	0xc2c4e3ee	-98.445175
26	0xc2c4e4df	-98.447014
27	0xc2c4de37	-98.43401
28	0xc2c4df27	-98.435844
29	0xc2c4e7a3	-98.452415
30	0xc2c4e0df	-98.4392
31	0xc2c4dd9a	-98.432816
32	0xc2c4e095	-98.43864
33	0xc2c4e427	-98.44561
34	0xc2c4e78d	-98.45225
35	0xc2c4e3cb	-98.44491
36	0xc2c4e1b6	-98.44084
37	0xc2c4e188	-98.44049
38	0xc2c4e9af	-98.45641
39	0xc2c4e33d	-98.443825
40	0xc2c4e190	-98.44055
41	0xc2c4e55a	-98.44795
42	0xc2c4e95b	-98.45577
43	0xc2c4e514	-98.44742
44	0xc2c4e383	-98.44436
45	0xc2c4df35	-98.43595
46	0xc2c4e159	-98.44013
47	0xc2c4ddfa	-98.43355
48	0xc2c4df00	-98.43555
49	0xc2c4e88b	-98.454185
50	0xc2c4e0d9	-98.439156
51	0xc2c4e094	-98.43863
52	0xc2c4e0bd	-98.43894
53	0xc2c4e21a	-98.441605
54	0xc2c4e1e7	-98.441216
55	0xc2c4e1ad	-98.44077
56	0xc2c4e006	-98.437546
57	0xc2c4df01	-98.435555
58	0xc2c4dea9	-98.43488
59	0xc2c4e200	-98.44141
60	0xc2c4e0d3	-98.43911
61	0xc2c4e30f	-98.443474
62	0xc2c4e487	-98.44634
63	0xc2c4df28	-98.43585

l3/W f4 [256, 256]
0	0xc102ffcc	-8.18745
1	0xc1d2560e	-26.292019
2	0xc2030e8b	-32.764202
3	0x40d7ae2f	6.7400126
4	0x41a08b4e	20.06802
5	0x420107f6	32.257774
6	0x4084687f	4.137756
7	0xc0a2d2ad	-5.0882173
8	0x40261f05	2.5956433
9	0x40a569ff	5.169189
10	0x4208f191	34.235905
11	0x41c30e21	24.381899
12	0x4090a038	4.519558
13	0x41254534	10.329395
14	0x3fdb0c0d	1.7113053
15	0xc0599482	-3.3996892
16	0x415a8a7e	13.658812
17	0xc1e28e59	-28.319506
18	0xc18551f6	-16.66502
19	0xc0e9f749	-7.311436
20	0xc24b34ae	-50.801445
21	0xc1e6134e	-28.759426
22	0x41a5e82c	20.738365
23	0x40926d2e	4.5758276
24	0xc000c1de	-2.0118327
25	0x4193ffbf	18.499876
26	0x4099ae0d	4.8024964
27	0xc2047cc6	-33.12185
28	0xbf9954ab	-1.1978964
29	0xbd8ca2f6	-0.0686702
30	0xc194e316	-18.610882
31	0x41553267	13.324805
32	0x4145b99f	12.357818
33	0xc04b2bc4	-3.1745462
34	0xc1373b3e	-11.451963
35	0x40f5a26b	7.6760764
36	0xc23b6e78	-46.85788
37	0xc1195a2d	-9.584516
38	0xc18efc33	-17.873144
39	0xbea3f83a	-0.3202532
40	0x40ea4ff9	7.3222623
41	0xc0f3d5c0	-7.6198425
42	0xc20eece1	-35.731327
43	0x41af7c8c	21.935814
44	0x4165ab8f	14.354384
45	0x41819e6e	16.202358
46	0x40c47715	6.1395364
47	0x41c6280a	24.76955
48	0xc02eacc4	-2.7292948
49	0x412d3054	10.824299
50	0x410b8b14	8.721455
51	0xc1c63d3d	-24.779902
52	0xc1437f6a	-12.218607
53	0x418dd8eb	17.730917
54	0xc1584fd6	-13.519491
55	0xc27b4434	-62.816605
56	0x41af074e	21.878567
57	0xc141cd66	-12.112646
58	0xc20dbe93	-35.436108
59	0x419fccbd	19.97497
60	0x41b3fd2d	22.498621
61	0xc1a27073	-20.304907
62	0xc212db7d	-36.714344
63	0xc19d26be	-19.643917
64	0xc0d11f80	-6.535095
65	0x41351469	11.317483
66	0xc1fd1922	-31.637272
67	0x4146e33b	12.430476
68	0x400426f8	2.0648785
69	0xc19a8718	-19.315964
70	0xc1229447	-10.161201
71	0x4203b17a	32.923317
72	0x41c740a9	24.906572
73	0xc00784f3	-2.1174896
74	0xc2143be1	-37.058475
75	0xc0eda55e	-7.4264364
76	0xc0dcdd6e	-6.90203
77	0xc15ab825	-13.669957
78	0xc1cdb2c2	-25.712284
79	0x40c4053e	6.12564
80	0xc085e3ae	-4.184043
81	0xc1e67ff0	-28.81247
82	0xc190c2fd	-18.09521
83	0xc1908208	-18.063492
84	0xc1c94afd	-25.161615
85	0xc06c3b4b	-3.691119
86	0xc1c312cb	-24.384176
87	0x40f78f59	7.7362485
88	0xc1a26e26	-20.303783
89	0xc06520b1	-3.5801203
90	0x41268bc4	10.409122
91	0x420add26	34.715965
92	0x41132331	9.196092
93	0xbf2ba72a	-0.6705195
94	0x411a7d07	9.655524
95	0xc18c876c	-17.566124
96	0x41a9dd8f	21.233183
97	0x400dbf80	2.2148132
98	0xc22cdd0a	-43.21586
99	0x4121ccb9	10.112481
100	0xc1463c4d	-12.389722
101	0xc22b0187	-42.75149
102	0x4220ec6a	40.230873
103	0x417f6a64	15.963474
104	0x3fe4d2e4	1.7876859
105	0xc197fa21	-18.997133
106	0x420ea909	35.665073
107	0x40c561e6	6.1682005
108	0xc0beb4b8	-5.9595604
109	0xc1b7cdd6	-22.975506
110	0x403bd94d	2.935138
111	0xc0a47fbe	-5.1405935
112	0xc1ab436f	-21.407927
113	0xc230b5aa	-44.177406
114	0x418e265d	17.768732
115	0xc206c8dc	-33.69615
116	0x4214c640	37.193604
117	0x40a23bd8	5.069805
118	0x40b2a0ac	5.5821133
119	0xc15eca08	-13.924324
120	0xc16b1adf	-14.69406
121	0xc1273847	-10.45124
122	0xc007ab2a	-2.119822
123	0xc129b472	-10.606554
124	0x420025ae	32.036797
125	0xc21bbe21	-38.935673
126	0x4115193b	9.31866
127	0x41870956	16.879559
128	0x41ccda09	25.606462
129	0xc250b357	-52.175137
130	0x41a783ff	20.939451
131	0xc1da5fbb	-27.296743
132	0xc1d80cf0	-27.006317
133	0x420b8bf8	34.88669
134	0xc2007acd	-32.119923
135	0x4102ac3e	8.167051
136	0x41c5c81d	24.722712
137	0x4169d4b7	14.614432
138	0xc1e4b052	-28.586094
139	0xc191c849	-18.222795
140	0x409c6a0b	4.8879447
141	0xc16816eb	-14.505595
142	0x40da02bb	6.8128333
143	0xc1479b5a	-12.475428
144	0xc28188db	-64.767296
145	0xc14c0bad	-12.752851
146	0x4108fd6b	8.56187
147	0xc24f9d9b	-51.90391
148	0x405dcd27	3.4656465
149	0x40fe9085	7.9551415
150	0xc1365146	-11.394842
151	0xc1b2f9d2	-22.371983
152	0xc19b64af	-19.424162
153	0x41334e76	11.2066555
154	0xc1ed5238	-29.665146
155	0xc1e4d054	-28.601723
156	0xc1e7c850	-28.972809
157	0xc0019c68	-2.0251713
158	0x419b0679	19.37816
159	0xc14e1956	-12.881186
160	0xc2247566	-41.114647
161	0xc1870de7	-16.881788
162	0xc260ac6b	-56.168377
163	0x4166648b	14.399547
164	0xc287d8a4	-67.92313
165	0xc0b8f756	-5.7801924
166	0xc1be215e	-23.766293
167	0xc007c791	-2.1215556
168	0xc2827518	-65.2287
169	0xc120d58a	-10.052134
170	0xc1d03ed0	-26.03067
171	0x401b5e81	2.427643
172	0x41d20cf2	26.25632
173	0xc188c47b	-17.095938
174	0xc12dd9c8	-10.865669
175	0xc110d03d	-9.050839
176	0xc0072281	-2.111481
177	0x4195c459	18.720873
178	0x414dbce7	12.858619
179	0xc22d0017	-43.250088
180	0xc280dd1b	-64.43185
181	0xc1c26977	-24.301497
182	0x41a4750f	20.557158
183	0xc21a451b	-38.567486
184	0x42466664	49.59999
185	0xc1b7ec95	-22.990519
186	0x40e500a4	7.156328
187	0x413e950e	11.91139
188	0xc12867c9	-10.525338
189	0xc1df8be5	-27.943308
190	0xbfc2d1e8	-1.5220308
191	0x41053660	8.325775
192	0x407bf12b	3.9365947
193	0x41ab28ef	21.394987
194	0x41995ffe	19.171871
195	0x3f1cf4f2	0.61311257
196	0xc13e3069	-11.886819
197	0x41899548	17.197891
198	0xc23b54b4	-46.832718
199	0x42353eea	45.31144
200	0xbfbda517	-1.4816006
201	0xc1379631	-11.474168
202	0x41b197ce	22.199123
203	0x41e357b3	28.417822
204	0xc1d0206a	-26.015827
205	0x41a175b4	20.182472
206	0x41902898	18.019821
207	0xc0f3395c	-7.600752
208	0xc16d59df	-14.834441
209	0xc1e737d8	-28.902267
210	0xc20e2a4d	-35.54131
211	0x400049d4	2.004506
212	0x41b465e8	22.549759
213	0x41a4cdfd	20.60058
214	0x41a9c166	21.219433
215	0xbfecbd4d	-1.849527
216	0x40e69603	7.205812
217	0xc22e4d0a	-43.575233
218	0xbf54e490	-0.8316126
219	0xc1848ef1	-16.569796
220	0xc200e2ad	-32.221363
221	0xc249eb62	-50.479866
222	0xc1d859bd	-27.043818
223	0xc247edaf	-49.982113
224	0xc22ab70c	-42.678757
225	0xc1c51e0f	-24.639677
226	0xc1927cec	-18.310997
227	0x40f276b2	7.576989
228	0x41948862	18.566593
229	0x4137ff42	11.499819
230	0x410225f1	8.134263
231	0xbf8cd286	-1.1001747
232	0x416caf31	14.792771
233	0x410142e0	8.078827
234	0xc1bcaf2b	-23.585531
235	0x411642d2	9.391314
236	0xc05ccbba	-3.4499345
237	0xc11cad04	-9.79224
238	0xc1ff2660	-31.893738
239	0xc19def2f	-19.741789
240	0xc19320d1	-18.391024
241	0xbf622d8c	-0.8835075
242	0xc23ba8ad	-46.914722
243	0x423aff85	46.74953
244	0x4143326e	12.199812
245	0x3f2e9a1f	0.6820392
246	0x411d678a	9.837778
247	0xbf9ca3db	-1.2237505
248	0xc22e58a9	-43.586582
249	0x418bda78	17.481674
250	0xc04a6cdd	-3.1628945
251	0xc1fe0933	-31.754492
252	0x41bb9ecd	23.45254
253	0xc113643e	-9.211973
254	0x41fb4de3	31.41303
255	0x410668a7	8.40055

l3/b f4 [256]
0	0x40c73ca7	6.226154
1	0xbfd51253	-1.6646217
2	0x3ea67795	0.3251311
3	0xc0666ad2	-3.6002698
4	0x419ccc62	19.599796
5	0x41cc4ba4	25.536934
6	0x418ce9da	17.614185
7	0x412abb1d	10.670682
8	0x412378b3	10.216968
9	0x40808d73	4.0172668
10	0xc093657f	-4.6061397
11	0x4116f05a	9.43368
12	0x3fa8c458	1.3184919
13	0xc0135ac2	-2.3024144
14	0x403c88b6	2.9458442
15	0x412d24f0	10.821518
16	0x4030675c	2.7563086
17	0x411a7f83	9.656131
18	0x4133e003	11.24219
19	0x40da698b	6.8253837
20	0x409a3bed	4.819815
21	0xc03f049e	-2.9846568
22	0x41ecd191	29.602327
23	0x40ea2195	7.3165994
24	0x40dc80be	6.8907156
25	0x4011c611	2.277714
26	0x408bb535	4.36587
27	0x414efe38	12.937065
28	0x3f6cf713	0.92564505
29	0x40c87b9e	6.26509
30	0xc038b741	-2.886185
31	0x4116c718	9.423607
32	0xc0bee41d	-5.965346
33	0x40f8300e	7.755866
34	0x3ea56908	0.32306695
35	0x428f11ed	71.53501
36	0x40378c92	2.8679547
37	0xc0078f8a	-2.118136
38	0x3e3ff7db	0.18746893
39	0xc0362091	-2.8457377
40	0x40a9712e	5.295066
41	0x4140a964	12.041355
42	0x411779bf	9.467223
43	0x40ceda66	6.46416
44	0xc1004fdc	-8.019497
45	0x40af8637	5.4851336
46	0x42139205	36.892597
47	0x411a57da	9.646448
48	0xba960d8c	-0.0011448129
49	0xc0b26280	-5.574524
50	0x413c2dc2	11.761171
51	0xc0c41762	-6.1278543
52	0xc00d737d	-2.2101738
53	0xc0353471	-2.8313258
54	0xc01e1e6a	-2.4706063
55	0x408f7020	4.482437
56	0x40966358	4.699627
57	0xc0da4705	-6.8211694
58	0x4133df74	11.242054
59	0x40cc44dc	6.3834057
60	0x41cd351c	25.650932
61	0x3f961698	1.1725645
62	0x3f86cf13	1.0531944
63	0x401785cd	2.3675416
64	0x406674e4	3.6008844
65	0xc02d35c2	-2.706406
66	0x401f2bdb	2.4870517
67	0x412a7791	10.654191
68	0x411833b7	9.512626
69	0x41640eb5	14.253591
70	0x412b4b8a	10.705942
71	0x411e9a91	9.912736
72	0xbf95a6aa	-1.1691487
73	0x416dc9ea	14.861795
74	0x4063ba26	3.5582366
75	0x4055ef40	3.3427277
76	0x3efd73f9	0.49502543
77	0x40990752	4.7821436
78	0x419641c0	18.782104
79	0x40182bac	2.3776655
80	0x409ad37f	4.8383174
81	0x40a4c5b1	5.1491323
82	0x3f5a5b3f	0.8529548
83	0xc02d2938	-2.7056408
84	0x40abba57	5.3664966
85	0x41d05803	26.042974
86	0x410e3dd1	8.890092
87	0x40d68c88	6.7046547
88	0xc0be14bf	-5.9400325
89	0xc1308b41	-11.033998
90	0x40e9a4f9	7.3013883
91	0x417ae88f	15.681777
92	0x4051df83	3.279267
93	0x414a148e	12.630018
94	0x40d38387	6.6098056
95	0x4129d516	10.614523
96	0x41babe9b	23.34307
97	0xbfac9c9d	-1.3485295
98	0x41511ee6	13.070044
99	0x4149e535	12.618459
100	0x41012879	8.072381
101	0x41463d7a	12.390009
102	0x406088a0	3.508339
103	0x4154012e	13.250288
104	0xc0b56579	-5.668637
105	0x40b3b967	5.616382
106	0x400e25b7	2.221052
107	0x41e096c3	28.073614
108	0x405fd4e3	3.4973686
109	0xc0268713	-2.6019943
110	0xc0fd7da0	-7.921585
111	0x40e80809	7.250981
112	0x4088bbf2	4.2729425
113	0x40cca85c	6.3955517
114	0x42110346	36.253197
115	0x411dd1d7	9.86373
116	0x419f1aac	19.888023
117	0x4167facf	14.498733
118	0xc0559d9c	-3.3377447
119	0x3fc89fd7	1.5673779
120	0x415952f3	13.582751
121	0x40df0701	6.969605
122	0xc063f89a	-3.5620484
123	0x4098bba3	4.772905
124	0xc041138f	-3.0168188
125	0xbf3f2e00	-0.74679565
126	0xbedf45c4	-0.43607914
127	0x3ee0932e	0.4386229
128	0x4120a352	10.039873
129	0x418848bd	17.035517
130	0x3f8d65a9	1.1046649
131	0x40dffb54	6.9994297
132	0x404879f8	3.1324444
133	0x417fca8f	15.986953
134	0x4220d937	40.212124
135	0x41ede8d0	29.738678
136	0x40688888	3.6333332
137	0x3fe640c2	1.7988513
138	0x4122ec4f	10.182693
139	0xbf888f06	-1.0668647
140	0x41052586	8.321661
141	0xc00b7640	-2.1790924
142	0x407d2205	3.9552014
143	0x41120748	9.126778
144	0x416ff3a2	14.996981
145	0x4009e5e9	2.1546576
146	0xc096aa74	-4.7083073
147	0xc063ee33	-3.5614135
148	0x413cdefa	11.804438
149	0x40267f54	2.6015215
150	0x4148fe08	12.562019
151	0x411f6981	9.963258
152	0x413bd8e3	11.740451
153	0x3efa46f0	0.48882246
154	0x41dfd735	27.980082
155	0xc09c1ab1	-4.878258
156	0x411c63e1	9.7743845
157	0x4148962c	12.536663
158	0xc043a4f0	-3.056942
159	0x3f08bf0a	0.534165
160	0x4150f1b4	13.05901
161	0x41d8f837	27.121199
162	0x40f32cab	7.5992026
163	0x413ffd0e	11.999281
164	0x41a3ed3b	20.490835
165	0x4101b5c0	8.106873
166	0x40a2d174	5.088068
167	0x411fb88f	9.982558
168	0xc0fee5d6	-7.965556
169	0x414475e1	12.278779
170	0x3fb8cedc	1.4438128
171	0x4151271d	13.072049
172	0x412ea30a	10.914804
173	0xc0a166ba	-5.04379
174	0x40dd9e41	6.925568
175	0x4170bd97	15.046287
176	0x402f3450	2.737568
177	0x413a00a1	11.625154
178	0x41286619	10.524926
179	0x4121d32d	10.114057
180	0x412a61a9	10.648843
181	0x418e85f4	17.815407
182	0x42015d8a	32.341347
183	0x3faf49f1	1.369444
184	0x4101baf7	8.108146
185	0x40b795d9	5.737042
186	0x40bfee02	5.9978037
187	0x40e8de27	7.277118
188	0x4111dac9	9.115914
189	0xc0969da6	-4.706744
190	0x3f6923c5	0.91070205
191	0x40782b36	3.8776374
192	0x40f217e1	7.565415
193	0xbdbef5ce	-0.09324227
194	0x41d9a3f3	27.205053
195	0xbfefb23e	-1.872627
196	0x40ecc038	7.398464
197	0x4186562b	16.792074
198	0xc02fc099	-2.7461302
199	0x40b38f1e	5.6112204
200	0x3f831569	1.0240909
201	0x3f48b0b2	0.78394616
202	0x4050c0b9	3.2617629
203	0x4123b5c7	10.231879
204	0x3fe6d480	1.80336
205	0x404b614e	3.177814
206	0x41830c3f	16.38098
207	0x41f5ee87	30.741468
208	0x403df343	2.9679725
209	0x41195a7d	9.584592
210	0x41f5efbf	30.742064
211	0x4121a19a	10.1019535
212	0x40e059ab	7.010946
213	0x40e855e5	7.260485
214	0x40954b7a	4.6654634
215	0x42086228	34.095856
216	0x40e00d62	7.0016336
217	0x4067ed59	3.6238616
218	0x3f9ab3a4	1.2086072
219	0x41949ddf	18.577085
220	0x42780ca2	62.012337
221	0x41ab11dc	21.38372
222	0xbee1c860	-0.44098186
223	0xbf2dcb6a	-0.6788851
224	0x4171ac6a	15.104593
225	0x406e1833	3.720227
226	0x41317324	11.0906105
227	0x4148be5a	12.546473
228	0xbfa2de5d	-1.272411
229	0x40953b69	4.663502
230	0xbe68bc7c	-0.22728151
231	0xbdd3bef7	-0.10339158
232	0x3de71296	0.11282842
233	0x41168a7f	9.4088125
234	0x40ef6715	7.4813333
235	0x3f547017	0.82983536
236	0x3ea4dd84	0.32200253
237	0x40c24c29	6.071797
238	0x415acabf	13.674499
239	0xbff75809	-1.9323741
240	0xc086eb2c	-4.2162075
241	0xc1062ca4	-8.385899
242	0x4116d924	9.428013
243	0x40bfe598	5.9967766
244	0x416743bc	14.454037
245	0x413d1851	11.818437
246	0xc0c7bb50	-6.2416153
247	0x41421409	12.129891
248	0x41e6061b	28.752981
249	0x407c7b9b	3.9450443
250	0x413412cb	11.254588
251	0x42075cdf	33.840694
252	0x4129e7a0	10.619049
253	0xc017d77c	-2.3725271
254	0x40e31c4a	7.0972033
255	0xc00993e3	-2.1496513
