size8/agent_black_131000/target_model.npz (npz, 608524 bytes, 8 tensors)

l2/W f4 [256, 256]
000000 3a cc 54 41 6c 2a 74 c1 de c0 d5 c1 98 e3 eb c0
       13.29986 -15.260357 -26.719173 -7.3715324
000010 80 41 15 c2 f9 e3 b4 41 6c 31 ba 3f 9a d7 61 41
       -37.313965 22.611315 1.4546332 14.115137
000020 ae 66 ec 40 01 f4 54 c1 1f 02 73 41 12 08 8e 41
       7.387534 -13.309571 15.188018 17.75394
000030 82 97 3b c0 16 ed e8 3f a0 7e e1 c1 fa b4 05 c0
       -2.9311223 1.8197353 -28.186829 -2.089171
000040 ce 6f 53 41 17 a9 68 c1 bb 08 99 c1 10 b0 3f c1
       13.214796 -14.541282 -19.129263 -11.980484
000050 4a dd 58 c1 13 c9 21 41 de 5f cd 40 e0 71 ef 40
       -13.554026 10.11159 6.4179525 7.4826508
000060 c4 5b 7f c0 c2 7b 2f c1 b3 72 eb 40 29 cf 30 c1
       -3.989976 -10.967714 7.3577514 -11.050576
000070 fc ec ef 41 47 9c 2d 42 cd 49 c4 40 2b 6e 58 40
       29.990715 43.402615 6.134009 3.381724
000080 ef 54 df c0 93 ea ca 40 36 18 4b c1 f9 00 94 bf
       -6.979118 6.3411345 -12.693411 -1.1562797
000090 8b de d0 41 72 be 74 41 3e 06 c3 c1 9d bd 5e 41
       26.108664 15.296495 -24.378048 13.921292
0000a0 5d d9 62 c1 e7 dc ae c0 6b cf 83 c1 34 02 18 c1
       -14.178067 -5.4644656 -16.476278 -9.500538
0000b0 2b db 8c 3e 6c b7 f0 41 33 08 8c 41 20 97 bd 3f
       0.27510962 30.089561 17.504004 1.4811745
0000c0 ef 07 c5 c0 c6 47 e2 c1 2e 3f 4b 41 80 de 0e bf
       -6.1572185 -28.285046 12.702925 -0.5580826
0000d0 7f 35 cb 40 8a a4 01 c2 82 33 e4 40 72 51 0e 41
       6.3502803 -32.410683 7.1312876 8.894884
0000e0 3d 86 c4 c1 fd de 3d c1 74 74 82 41 78 ef 32 41
       -24.565546 -11.8669405 16.306862 11.183464
0000f0 b9 82 7b c1 07 e7 a4 40 ef 68 2b 40 e3 c4 4d c1
       -15.719415 5.1532016 2.6782796 -12.860568
000100 65 3e 59 c1 69 cb cc c1 3f 7c 05 c2 9b 1f 30 c1
       -13.577733 -25.599321 -33.371334 -11.007716
000110 66 a4 14 41 5e 61 93 40 42 ec c5 c0 41 fc 52 41
       9.290136 4.6056356 -6.18509 13.186585
000120 96 41 de 41 c7 9a 91 41 4c 1d 93 c0 9d 82 18 41
       27.782024 18.200575 -4.5973263 9.531888
000130 ab e2 1f 40 f1 43 c8 c1 c4 da e4 41 55 a4 27 41
       2.4982097 -25.033175 28.60682 10.47762
000140 c5 ec 21 41 5c 75 94 bf 8d 6b a8 3f ac 82 5f c1
       10.120305 -1.1598315 1.3157822 -13.969402
000150 29 3f 19 41 6d ec 67 41 03 48 7e c0 e1 4f e8 41
       9.57792 14.495221 -3.9731452 29.039003
000160 4f 3e 55 41 7b 33 b9 c1 6d d4 fe bf ee f9 29 40
       13.327712 -23.150137 -1.9908577 2.6558795
000170 f6 99 e4 c1 85 52 da c0 78 24 23 41 70 9c a6 41
       -28.575176 -6.822573 10.1964035 20.826385
000180 37 ac d8 c1 b5 2e 0f 40 f2 3f 91 41 cc 77 c5 3f
       -27.08409 2.2372258 18.156223 1.5427184
000190 b8 91 9f c0 a0 de 61 c2 a8 04 48 c1 5e 91 62 c1
       -4.986538 -56.467407 -12.501137 -14.16049
0001a0 e6 fd a4 c1 1d 70 ce c1 75 2d ee c1 68 91 26 c2
       -20.623974 -25.804743 -29.772196 -41.642
0001b0 c2 d9 ad 41 03 e6 4d c2 1d f1 ee 40 fd 50 37 41
       21.731327 -51.47462 7.466933 11.457273
0001c0 c2 29 1f 41 9d 1f fc c0 28 db 51 be 89 8b 02 c2
       9.947695 -7.878859 -0.20493758 -32.636265
0001d0 5c 01 e6 c0 bf 58 52 c1 31 22 d3 c0 f2 7e 02 c1
       -7.187666 -13.146667 -6.5979238 -8.1559925
0001e0 00 d8 00 c1 f4 a6 e2 c1 bd 8e c9 bd c8 3d 3c c2
       -8.052734 -28.33152 -0.09841678 -47.060333
0001f0 bf b5 76 40 e8 5f ca c1 c6 65 2b c1 ff 4e 62 3f
       3.854843 -25.29683 -10.712347 0.8840179
000200 1a 61 d2 41 9f f1 db c1 55 6c 8d bf 16 91 20 c2
       26.297413 -27.49298 -1.1048685 -40.141685
000210 cc ba 38 41 3c d9 cb 41 0c 4a e7 40 fb f5 ca 41
       11.545605 25.481071 7.227789 25.370108
000220 fd e9 68 c2 ba ef 47 c1 01 aa 2f 41 4b 59 06 c1
       -58.228504 -12.496027 10.979005 -8.3968
000230 97 fb ca c1 1d cc c0 c1 8a 8e 3f c1 35 7e 9f 41
       -25.372847 -24.099665 -11.9723 19.936625
000240 04 e8 87 c1 1a 7b 3d c2 af bf 00 42 8c 13 97 40
       -16.988289 -47.370216 32.18719 4.721136
000250 55 07 f0 41 e5 eb bd 40 f4 3d eb bf 2f 18 7c 41
       30.00358 5.9350457 -1.8378282 15.755904
000260 92 0e 30 41 15 6c 4f c1 3b 11 95 41 a5 98 67 40
       11.003557 -12.963887 18.633413 3.6186917
000270 8c b4 8c c1 6f f8 1c c1 b0 03 93 40 b2 0b cb c1
       -17.588158 -9.810653 4.5942 -25.38071
000280 d3 71 46 c1 08 38 cc c1 2f d4 a3 41 7d 26 9e 41
       -12.402789 -25.527359 20.478605 19.768793
000290 0c 21 a9 c1 91 48 8f c1 34 75 b0 c0 27 23 2b 41
       -21.141136 -17.910433 -5.514307 10.696082
0002a0 a7 3c 8b c1 ba 8d 4b 41 0c 3a 46 c1 2a 02 48 c1
       -17.404615 12.722101 -12.389172 -12.500528
0002b0 e0 1e 46 c1 03 b4 c8 41 75 86 39 c2 1d 52 e4 3f
       -12.382538 25.087896 -46.381306 1.7837559
0002c0 ae 7e d8 c1 43 ad a2 41 44 4d 4d 40 a7 86 3e 41
       -27.061855 20.3346 3.207841 11.907874
0002d0 b7 14 fe 40 7b 85 50 42 83 1d 37 c1 b4 b2 db 40
       7.9400287 52.130352 -11.444705 6.8655643
0002e0 28 5b 5f 41 54 97 17 c2 d1 00 2f c0 d3 e4 28 40
       13.959755 -37.89778 -2.7344248 2.6389663
0002f0 d3 83 16 c2 3a f1 16 42 04 53 9e 41 e8 4d 9b 41
       -37.628735 37.735573 19.790535 19.41304
000300 66 3d d0 41 ab 7d 9a be 1e 56 4f 41 74 e2 ea 40
       26.02998 -0.30174002 12.958525 7.340143
000310 e2 dc b6 41 d4 99 53 41 34 fe b8 41 91 e2 87 41
       22.857853 13.225056 23.124123 16.985628
000320 3c 88 2d c1 fe 5c da c1 c8 9a de c1 0e 3b 15 c1
       -10.84576 -27.295406 -27.825577 -9.326918
000330 0d 68 7b c1 f8 78 a8 c1 3f c1 b5 c1 80 e2 ea c1
       -15.712903 -21.059067 -22.719358 -29.360596
000340 ac 1c bd c1 57 b4 bc c0 6a 2c f9 c1 03 0b 82 3f
       -23.639 -5.897014 -31.146687 1.015961
000350 68 e1 16 c1 b4 87 8b c1 04 aa 0b c2 15 f1 57 c1
       -9.430031 -17.441261 -34.91603 -13.496358
000360 d8 e1 22 c1 fa 1f d4 be 8e f6 75 c1 78 f1 45 c1
       -10.180138 -0.41430646 -15.372694 -12.371452
000370 e4 44 c1 bf 47 8a 59 40 6c b4 ba c1 26 67 19 c1
       -1.5099149 3.3990648 -23.338097 -9.587683
000380 4e ca 93 c1 73 8b 23 c1 c0 8d 84 bf a6 47 23 c2
       -18.473782 -10.221545 -1.0355759 -40.81997
000390 07 eb 00 c2 b9 cf ba c1 2b de 80 41 55 c9 05 41
       -32.22952 -23.351427 16.10848 8.361653
0003a0 e8 4a 8d 41 55 bc 95 c1 d9 89 77 41 74 9d c3 c0
       17.661575 -18.716959 15.471154 -6.1129704
0003b0 84 f3 90 c1 4d d1 b3 41 ae 6d 3b c0 4f 94 4a 40
       -18.118904 22.477198 -2.9285693 3.165302
0003c0 b2 da 0c c0 ac b1 62 c1 01 53 cf c0 93 b2 ad 40
       -2.200848 -14.168377 -6.4788823 5.4280486
0003d0 d3 5a 05 c2 f1 7b c0 c1 bf fe fe 41 1d 41 fe c1
       -33.338696 -24.060518 31.874388 -31.781794
0003e0 50 25 13 42 d5 36 03 42 75 f2 cb 41 70 4d 93 3f
       36.786438 32.803547 25.493387 1.1508007
0003f0 fd c9 96 c1 e4 03 34 c2 72 d1 19 c0 0a ea 40 41
       -18.848627 -45.0038 -2.4034085 12.057138

l2/b f4 [256]
000000 22 21 88 41 f7 76 68 41 0f 1f 07 41 d5 12 bd 41
       17.016178 14.529044 8.445083 23.634195
000010 f7 c6 31 41 cb ae a5 41 fe 14 86 3e d9 6a 50 c0
       11.111075 20.710348 0.2618789 -3.2565215
000020 ff 9b 85 41 35 85 94 c0 e4 70 29 3f 90 a3 1c 41
       16.70117 -4.6412606 0.6618788 9.789932
000030 88 8c 26 c0 39 17 92 c0 65 8b 8f 40 45 04 a4 3e
       -2.6023273 -4.565335 4.485766 0.32034507
000040 87 ae 21 bd 22 cc 79 41 6f 73 59 41 d3 4b 57 c1
       -0.039473083 15.612337 13.590682 -13.456012
000050 42 e6 04 41 29 f5 fc 41 2f 09 75 41 e4 8f 52 bf
       8.306215 31.619707 15.314742 -0.8225081
000060 b5 f4 c7 3f 05 97 73 c0 3a af b0 40 51 7c b1 40
       1.5621554 -3.8060925 5.52139 5.5464253
000070 65 cd 50 41 4c 67 8e c0 5a dd c8 41 a0 e4 5c 41
       13.050145 -4.4501095 25.108082 13.805817
000080 7a 15 b1 41 b4 33 85 41 d0 77 6d 41 ba 08 2e 3f
       22.135487 16.650246 14.841751 0.67982066
000090 71 64 70 c1 97 42 66 41 67 c9 8f c0 3a b1 72 41
       -15.024522 14.391257 -4.4933352 15.168268
0000a0 4c 19 28 41 54 76 6b 41 44 56 86 41 fb 7c 86 c0
       10.506176 14.716389 16.792122 -4.2027564
0000b0 d1 ae 55 41 b2 aa a0 41 84 15 85 c1 92 02 72 41
       13.35518 20.083347 -16.635506 15.1256275
0000c0 dd a6 2f c1 83 46 04 c1 12 86 07 42 b0 36 b8 c1
       -10.978238 -8.267215 33.880928 -23.026703
0000d0 0d 5e 9a 41 ac 2c a0 41 fc 67 8a 41 8b 29 80 c1
       19.295923 20.021812 17.300774 -16.020285
0000e0 4b b2 3c c0 83 98 72 41 ab 59 38 40 f0 d3 97 bf
       -2.9483821 15.162234 2.880473 -1.1861553
0000f0 84 c8 3f 41 e0 1d d0 c0 96 30 df c0 7b 23 99 c0
       11.986454 -6.503647 -6.974681 -4.785581
000100 f8 f8 77 40 99 20 0c c1 95 57 82 40 1d 84 bf 41
       3.8745708 -8.757958 4.073191 23.939508
000110 65 45 d4 c0 e3 54 14 c1 92 b7 e1 40 ac 88 07 41
       -6.633471 -9.270724 7.0536585 8.470867
000120 e4 30 92 40 e8 22 1c c1 11 5e 30 c1 bf 0b 8c 41
       4.568468 -9.758522 -11.022965 17.505735
000130 93 1d 00 c1 be dd 40 c1 27 d7 7c 41 cf da 2b 41
       -8.00722 -12.054136 15.802527 10.74092
000140 d9 4a c4 41 72 5b 97 41 dd 33 99 41 69 3c 8b 41
       24.536547 18.919651 19.150324 17.404497
000150 ae ea 85 41 d0 60 20 c1 e1 9d d6 3f 24 d1 52 c1
       16.73959 -10.023636 1.6766931 -13.17606
000160 8a f4 82 c1 b9 a8 ae c0 00 48 12 c0 0a 3c f2 40
       -16.369404 -5.458096 -2.2856445 7.569829
000170 16 d6 4e c1 25 ed a3 41 b5 9a 6e bf 2f df 1b c1
       -12.927267 20.490793 -0.93204814 -9.741988
000180 ff 6e 17 c1 9e 96 fd 3e 54 17 b3 40 da df 05 bf
       -9.464599 0.49528974 5.5965977 -0.52294695
000190 88 50 b1 41 9f dd f8 3e 49 77 36 41 0e c4 37 41
       22.164322 0.48606583 11.404122 11.485365
0001a0 10 44 34 c0 a9 27 63 41 ab 68 04 c1 82 be a1 bf
       -2.8166542 14.197183 -8.275554 -1.2636263
0001b0 3b 83 d5 41 25 3e a3 41 75 ef 48 40 b2 2a bc 41
       26.689077 20.405344 3.1396153 23.520847
0001c0 2a 09 af 41 e5 21 97 41 9b ec 15 c1 b8 43 99 41
       21.879475 18.89155 -9.370265 19.158066
0001d0 b2 93 89 41 ae 83 a5 41 fb 24 2c 40 bb b6 b5 41
       17.197117 20.689297 2.689757 22.714224
0001e0 1f 33 84 41 88 b3 a9 41 73 10 e2 40 e1 a0 55 41
       16.524961 21.212662 7.064508 13.351777
0001f0 5b 2c 79 41 2b 8c 93 41 0c 14 9b 41 7c 64 7d 41
       15.573329 18.443441 19.384789 15.837032
000200 6d 12 84 be 9d a2 4e 41 1d 52 75 c1 98 04 6e 41
       -0.25795308 12.9147005 -15.332547 14.8761215
000210 9f 4b 9e 41 25 bf ba 41 54 15 0b 41 d7 c3 2b bf
       19.786924 23.343332 8.692707 -0.670957
000220 3f 53 d1 41 6c b3 9b 41 b9 ca 94 c0 ec cf aa 41
       26.165648 19.462608 -4.6497464 21.351524
000230 b1 f7 f9 40 7c 9b 28 c1 4a a9 a3 41 16 43 83 41
       7.811486 -10.53796 20.45766 16.407757
000240 24 1b 97 41 49 bc 67 c1 9c 04 80 c1 0c b2 0b 41
       18.888252 -14.483468 -16.00225 8.730968
000250 3c aa 8b 41 5c 38 1a c0 87 99 a6 41 50 5d 62 c1
       17.458122 -2.40969 20.824965 -14.147781
000260 10 7f 36 41 0f 69 71 c0 37 53 03 41 55 d6 ef c0
       11.406021 -3.7720373 8.207816 -7.4949136
000270 f4 f9 54 41 cb 35 90 41 64 c4 c0 41 74 eb 73 c1
       13.311024 18.026266 24.095894 -15.244984
000280 b0 ae 85 41 0c aa 2b 41 05 8a 67 c1 97 41 26 40
       16.710297 10.729015 -14.471196 2.5977533
000290 f6 cb 81 41 7d a3 4d c1 7d 0d 68 c1 99 0b 87 41
       16.22459 -12.852414 -14.503293 16.880663
0002a0 fd 70 c3 41 4e 00 64 c0 82 9c 8c 41 c2 96 78 41
       24.43017 -3.5625186 17.57642 15.536806
0002b0 80 70 2b 41 5b 9f ed 3e 96 83 b7 c1 29 e0 9c 3f
       10.714966 0.4641064 -22.93925 1.2255908
0002c0 9d 29 33 40 f3 4f 87 41 61 82 73 bf e5 56 5e 41
       2.7994149 16.914038 -0.9512082 13.8962145
0002d0 67 b6 52 41 00 b8 78 41 9b f7 8a bf 16 9f 79 40
       13.169532 15.544922 -1.0856813 3.9003348
0002e0 19 6b 77 41 ef a9 5f 41 72 a7 88 3f 79 ce 6f 41
       15.463647 13.978988 1.06761 14.987908
0002f0 29 14 45 41 bd fd 55 41 c2 c2 38 41 31 d5 7b 3f
       12.317422 13.374448 11.547548 0.9837218
000300 c3 c4 ef bf 39 b1 4d 41 04 aa 96 41 b1 6d 9d 41
       -1.8731922 12.855767 18.833015 19.67856
000310 e5 f7 91 bf 23 c4 85 41 83 39 db c0 3f 1c 44 41
       -1.1403776 16.72077 -6.8507705 12.256896
000320 50 06 9d 41 f8 fb 55 bf c3 79 9a 41 e0 d1 8c 41
       19.628082 -0.835876 19.309454 17.602478
000330 31 e1 ae 41 db ce ca 41 b7 a6 58 c1 7a ab 65 40
       21.859957 25.351004 -13.540702 3.588591
000340 9d 1d 9f c0 cc ee e7 41 63 17 9d 41 90 06 40 40
       -4.972365 28.9916 19.63642 3.0004005
000350 e5 9c 6f 41 db 78 38 41 73 80 9f 41 3f bd 82 41
       14.975804 11.529506 19.93772 16.342405
000360 1d fa 00 c0 69 7c ae 41 20 97 58 41 c5 4a 11 41
       -2.0152657 21.810747 13.536896 9.080754
000370 07 01 92 41 ee 35 88 41 3b 76 71 41 fe 15 9b 41
       18.250502 17.026333 15.091365 19.385738
000380 d9 78 8a 41 94 ab 60 41 aa 16 82 c0 40 bf 37 41
       17.309008 14.041889 -4.0652666 11.484192
000390 85 71 77 c1 24 c1 cc 41 6b 93 8e 41 9c 8c ab 41
       -15.465215 25.594307 17.821981 21.443657
0003a0 9c 72 d6 c0 a6 f6 5d bf 5d 04 8b c0 8e 3f 09 3f
       -6.7014904 -0.8670448 -4.3442826 0.536126
0003b0 1b dc a4 41 1d 13 05 c0 6e 1b 3a 41 0b 33 72 c1
       20.607473 -2.0792916 11.631697 -15.137462
0003c0 ec 89 1a c1 5f 1f 4b c1 ac b5 81 41 81 71 eb 41
       -9.658672 -12.695159 16.213707 29.430422
0003d0 ec 39 19 3e cd b7 a4 c0 0b 25 eb 40 bb f7 07 bf
       0.14963502 -5.1474366 7.348272 -0.5311238
0003e0 6c 70 aa 41 80 c8 8b 41 51 81 d3 41 8c b8 a0 41
       21.304893 17.4729 26.438143 20.09011
0003f0 aa b4 77 41 af 8f 78 41 fa 0d a9 41 ef ce 9b 40
       15.481607 15.535079 21.131824 4.8690104

l1/W f4 [256, 64]
000000 7c 22 69 42 c7 05 e8 c0 4f 01 88 c0 67 d7 05 41
       58.283676 -7.2507052 -4.2501597 8.365088
000010 93 02 9d 40 9f a0 6a 41 04 a2 18 41 fd 6e 28 41
       4.906564 14.664214 9.539555 10.527097
000020 a1 5f ae c1 90 a3 95 41 8b 12 dd c1 44 a1 b5 41
       -21.796694 18.704865 -27.634054 22.703743
000030 87 9e 22 c2 a9 7e bd 40 59 0b 87 40 fd 0b 08 c2
       -40.65481 5.9217114 4.220135 -34.011707
000040 87 74 ac bf aa 1c b7 41 64 a4 b0 40 4d ba ba c0
       -1.3473061 22.888996 5.520067 -5.835242
000050 0c 98 81 41 66 88 98 c0 42 84 00 42 e4 53 23 40
       16.199242 -4.76665 32.129158 2.5519953
000060 96 52 85 41 f8 70 d9 c0 b9 e5 96 41 98 1e a0 c1
       16.665325 -6.79504 18.86217 -20.014938
000070 21 36 65 c1 82 5f a0 41 e0 e6 27 41 f0 06 11 41
       -14.325715 20.046635 10.493866 9.064194
000080 6f a5 bc 3f 97 fe da 40 ab 9b 8e 40 23 ef 8d c1
       1.4737986 6.843578 4.4565024 -17.741766
000090 72 c3 31 3f 3b b3 2a c1 a2 cf a3 c0 ed c9 58 41
       0.6943885 -10.668757 -5.119096 13.549298
0000a0 a9 04 6d 41 f1 70 92 41 79 6e 64 c1 b2 47 cd 41
       14.813638 18.305147 -14.276971 25.660007
0000b0 ad 83 6a 40 46 13 33 c0 52 0a 56 41 2f 5f ae c1
       3.6642869 -2.7980514 13.37752 -21.796476
0000c0 6b 57 92 40 ec 09 63 41 67 a4 c4 c0 02 70 dc c0
       4.573171 14.189922 -6.1450686 -6.888673
0000d0 15 4c 0e 41 fe 55 ae 40 c0 41 06 c1 d2 94 1f 42
       8.893575 5.447997 -8.391052 39.895332
0000e0 6f b5 b7 41 2f 4e 2e c1 dd 86 5b c1 18 09 8f c1
       22.96359 -10.894088 -13.720426 -17.87944
0000f0 68 7d 6e 41 ba 06 46 c1 12 19 bd c0 28 ef 03 c2
       14.905617 -12.376642 -5.9093103 -32.98355
000100 0f 76 a5 41 66 ab 75 bf 41 df 18 42 34 3d 63 c1
       20.682646 -0.9596466 38.21802 -14.202442
000110 5c 36 58 c0 7a 7f 50 c2 ee 13 a1 41 27 4c 76 41
       -3.3783178 -52.12449 20.134731 15.393592
000120 00 68 0b c1 bd c5 53 40 54 e8 c6 41 b3 f9 51 c1
       -8.712891 3.308944 24.863441 -13.123462
000130 6f 6d 28 c1 c5 ce f4 c1 d8 3f eb 40 4a 5d a6 c1
       -10.526717 -30.600962 7.3515434 -20.795551
000140 2a 64 ad 41 8d d0 b9 c1 2c d2 e2 40 71 24 b8 c0
       21.673908 -23.226831 7.0881557 -5.7544484
000150 40 2a 57 41 33 d9 c1 be 18 62 57 41 b2 76 15 c2
       13.447815 -0.37861022 13.461449 -37.365913
000160 65 65 a2 40 60 80 87 c0 69 70 07 40 a0 58 a4 c0
       5.0748773 -4.234421 2.116236 -5.1358185
000170 79 60 19 c0 5f d1 12 c1 fd ca 25 c1 69 2f df c1
       -2.3965132 -9.176116 -10.362058 -27.89815
000180 fd f2 93 c0 b7 c1 a0 c1 b8 ed 87 41 11 47 72 3f
       -4.6234117 -20.094587 16.991074 0.9463969
000190 8f 93 a5 40 7f c2 cf c0 c3 d7 d5 41 a3 55 41 c1
       5.1742625 -6.492492 26.730352 -12.083407
0001a0 46 39 0d c1 ac c7 df c1 08 24 c2 41 c1 05 fd 40
       -8.826483 -27.972496 24.267593 7.9069524
0001b0 f0 92 b1 c0 05 da 9d 41 bd 2b 20 42 c6 c5 9f c1
       -5.5491867 19.731455 40.042713 -19.97157
0001c0 c9 ee fb c1 4e cd 98 c1 1c cf 11 c1 ab dc 46 c2
       -31.491594 -19.100246 -9.113064 -49.715496
0001d0 86 a5 04 41 ca 83 55 41 4c e7 e8 40 ba f5 d7 bf
       8.290411 13.344675 7.2782345 -1.6871865
0001e0 2c 60 9c c1 84 81 c1 c1 30 9b 1e c2 e9 e6 60 c1
       -19.546959 -24.18824 -39.65155 -14.056375
0001f0 b9 e2 21 42 68 0a 8a 41 03 a3 dd c0 bc 5f 1b bd
       40.47141 17.255081 -6.926149 -0.037933096
000200 c1 bd bc 41 7c 4f c5 41 12 4f 05 c1 64 8b 8b 41
       23.592653 24.66381 -8.331804 17.443062
000210 16 fc 43 c0 af a4 6e 41 7e 63 2c c1 d4 18 b1 41
       -3.062261 14.915206 -10.77429 22.137123
000220 05 d5 93 41 80 6d 8a 40 9c 78 ce c1 f6 ff 8b 40
       18.479013 4.3258667 -25.808891 4.374995
000230 04 19 79 41 44 ad ef 41 ad 1e 9b 41 45 50 aa 40
       15.568607 29.959602 19.389978 5.3222985
000240 5b f1 37 c1 62 76 d7 41 a2 22 a1 c1 fc 20 92 41
       -11.496425 26.932804 -20.14191 18.266106
000250 3d bf 56 bf b9 71 59 41 f4 dc bd 41 bd d4 fb be
       -0.83885556 13.590264 23.732887 -0.49185744
000260 5e 67 65 42 45 ee cf c1 d3 b0 6d 41 ea 4e de 40
       57.350945 -25.991343 14.85567 6.947133
000270 24 28 95 3f 71 49 4d 41 39 23 7e 40 0b 34 18 c0
       1.1652875 12.83043 3.9708998 -2.3781765
000280 1a a4 64 c1 39 fa 96 41 03 87 3b c2 0e 27 b4 40
       -14.290064 18.872179 -46.881847 5.6297674
000290 3d cb 0d 40 55 3d 8d 41 46 08 0a c1 2b c4 d7 c1
       2.2155297 17.654947 -8.62702 -26.970785
0002a0 05 6d cc c1 54 34 18 c1 94 5c aa c0 4f 05 e1 c0
       -25.553232 -9.512775 -5.323801 -7.031898
0002b0 f3 ce 17 41 d4 e3 69 40 ac d1 24 c1 58 be b7 c1
       9.488025 3.6545305 -10.301189 -22.967941
0002c0 4d 5f aa c1 04 7e f5 c1 c1 f8 03 c1 9d 1b bf 40
       -21.296534 -30.686531 -8.248231 5.972121
0002d0 81 ba 9e 41 f4 9c 39 c1 b2 44 84 41 dc 80 ed c1
       19.841066 -11.600819 16.533543 -29.68792
0002e0 be 9a 80 41 9e e5 ac 41 6f ed ab c1 4d 36 00 42
       16.075558 21.612118 -21.490934 32.05303
0002f0 33 95 a5 3d a7 7d 7c c0 04 6f 46 41 f7 62 55 41
       0.08085098 -3.9451692 12.402103 13.336661
000300 3d e7 1d c2 24 2d f0 41 40 6c 97 c1 7f ae 8f c0
       -39.47582 30.022041 -18.927856 -4.490051
000310 59 75 dc 3f 27 a9 98 41 9d 4e 8c 41 8c 2a 21 c2
       1.7223312 19.082594 17.538385 -40.29155
000320 2a 08 1c 41 bd 1e 71 c2 41 6e 96 c1 15 0e 57 bf
       9.751993 -60.280018 -18.803835 -0.8400586
000330 5f ea d8 c1 a5 68 c7 41 4f ee 3c 41 eb 31 de c0
       -27.114439 24.926096 11.808181 -6.9435935
000340 0e d5 8a c1 69 00 f0 c1 61 d2 74 40 8d 6a b9 3d
       -17.35403 -30.0002 3.8253405 0.09053526
000350 0f 3a 06 42 42 0a cd c0 9b b6 5d 41 64 9c 46 c0
       33.556698 -6.407502 13.857081 -3.1032953
000360 0d 85 c4 40 dc 51 dc c0 e7 4d 30 41 7f 9e dd c0
       6.1412416 -6.8849926 11.019019 -6.9255977
000370 49 95 e6 c0 e2 a3 48 41 16 74 66 40 37 15 45 c1
       -7.2057233 12.54001 3.6008353 -12.317679
000380 b9 53 a0 c1 05 7b 02 42 50 4f 71 41 0d 37 ce 3f
       -20.04088 32.620136 15.081863 1.611055
000390 f8 0f 2a be 0f da 23 c0 89 e9 39 c1 e5 87 28 41
       -0.16607654 -2.5601842 -11.619515 10.533177
0003a0 f8 32 1c 41 a0 af 07 c2 8f 55 e7 c1 28 fd 4a c1
       9.762444 -33.92151 -28.916777 -12.686806
0003b0 54 f7 af 3f e4 2c c2 41 c8 3b c3 41 b1 3c 23 c2
       1.3747354 24.27192 24.40419 -40.80927
0003c0 12 6a cf c1 1f 48 8b c1 ee 9c e7 c0 ad 3c 2f c2
       -25.926792 -17.410215 -7.2379065 -43.809254
0003d0 f5 a3 e9 c0 bc c0 18 42 28 44 12 42 34 ef 1b c2
       -7.3012643 38.188217 36.56656 -38.983597
0003e0 51 6e 5e c2 20 dd 09 41 cf 6c 9a c2 07 36 45 41
       -55.60773 8.616486 -77.21252 12.32569
0003f0 07 3f 36 c2 74 81 79 c0 05 61 0e 42 4d a2 6b c1
       -45.56155 -3.8985262 35.594746 -14.727124

l1/b f4 [256]
000000 92 ca aa c1 f5 3f 59 40 ac b0 19 41 48 f9 63 40
       -21.348911 3.3945286 9.605633 3.56209
000010 0b 62 2d c0 eb db 08 41 d3 24 ed c0 ed e2 6c 40
       -2.709109 8.553691 -7.410745 3.7013505
000020 2a 0a 3b 3f f8 c4 00 40 86 f8 18 c2 a6 d5 60 41
       0.73062384 2.012022 -38.2427 14.05216
000030 c7 e0 4f c0 3a ce 0a c1 12 2f e0 40 31 ed ca 3f
       -3.2480943 -8.675348 7.005746 1.5853635
000040 73 48 10 41 f7 4b 13 41 46 aa 39 41 6e 36 b1 40
       9.017688 9.206046 11.604071 5.5378942
000050 19 4b 6e 41 ba a6 ab 3f b8 3e 81 40 b4 0b 5d 41
       14.893334 1.3410256 4.038906 13.815357
000060 33 34 97 c0 78 78 3b c2 f2 72 9d 40 28 d7 06 40
       -4.725122 -46.867645 4.9202814 2.106882
000070 4e 91 22 41 54 6d 90 40 a4 98 eb 40 d4 13 33 40
       10.160475 4.5133457 7.362383 2.7980852
000080 b8 d3 f8 40 85 6e 21 41 38 49 08 c2 5d 10 f0 40
       7.7758446 10.089482 -34.071503 7.5019975
000090 a6 23 fe 41 9e 20 25 41 8d fa a7 40 3b c5 93 41
       31.767406 10.320463 5.249335 18.471304
0000a0 74 b4 14 41 9a 54 c1 c1 2a 8e 55 c1 3d 17 97 c1
       9.294056 -24.16631 -13.347208 -18.886347
0000b0 c8 c7 20 c1 50 9e 68 41 07 09 4f c1 fb 7a 95 c0
       -10.048775 14.5386505 -12.939704 -4.6712623
0000c0 87 a4 64 c1 f0 34 4f 41 7e 3d 9b c1 09 6f 92 41
       -14.290168 12.950424 -19.405025 18.304216
0000d0 14 94 3a 41 a6 23 f6 c0 9a 4f b0 40 d7 a9 f5 40
       11.661152 -7.6918516 5.509717 7.6769824
0000e0 46 d9 81 c1 c0 82 1a c1 09 f8 8e 41 47 1d be 40
       -16.23109 -9.656921 17.87111 5.941074
0000f0 00 b5 64 41 ee 16 a7 bf 0c 71 8d 41 e2 f9 bc c1
       14.294189 -1.3053873 17.680199 -23.622013
000100 95 62 2d 3f 1d d4 5e 41 86 a4 9c c1 c4 de 85 bf
       0.6772855 13.926785 -19.580334 -1.0458608
000110 2f 1e 0c c0 d1 c4 d2 c0 66 a0 87 3f d0 a1 b0 c0
       -2.1893423 -6.5865254 1.0595825 -5.5197525
000120 c8 fa 47 41 2d 55 93 40 2a cc 0a c0 4d 18 98 c1
       12.498726 4.6041474 -2.1687112 -19.011866
000130 37 04 8b 41 0d e5 2a c1 fb 06 50 c0 4e b1 e9 41
       17.377058 -10.680921 -3.250426 29.211575
000140 cc 04 65 c0 95 bd 26 c2 2c 99 03 c1 8b 73 05 41
       -3.5784178 -41.68514 -8.2248955 8.340709
000150 f8 65 50 41 a3 c0 b7 3f 78 4f c8 3f c3 96 45 c0
       13.024895 1.4355663 1.5649252 -3.0873268
000160 6e 20 75 41 95 93 29 41 6a 12 75 bd 80 75 50 3f
       15.320417 10.598531 -0.059832014 0.8142929
000170 54 0e 9a 41 87 b1 b9 c0 8c 88 03 3d 6a e5 fb c0
       19.256996 -5.802921 0.032112643 -7.8717546
000180 b4 bc 31 c2 27 96 10 c2 e4 5d a2 40 87 46 5f c1
       -44.43428 -36.146633 5.0739613 -13.954719
000190 38 de dc 40 91 d9 28 41 60 32 8e 40 fd 02 a9 bf
       6.9021263 10.553117 4.4436493 -1.3204037
0001a0 0c b9 19 41 a5 3d 63 3f 19 12 66 c0 f2 c7 e0 c0
       9.607677 0.8876594 -3.5948546 -7.0244074
0001b0 9c 16 a4 c1 75 2f aa 41 20 f4 c3 c0 de 60 0d c0
       -20.51104 21.273172 -6.1235504 -2.2090373
0001c0 98 60 9d 41 e4 c6 55 41 03 61 a8 c0 ef 1f c3 40
       19.672165 13.361057 -5.2618423 6.097648
0001d0 b8 44 85 40 81 1c 7c 3e 9d 85 58 3f ff 98 0f 40
       4.1646385 0.24620248 0.8457888 2.2437131
0001e0 64 0d 79 41 aa 39 9d c1 cc 5e a0 c1 28 a4 21 40
       15.565769 -19.653156 -20.046288 2.5256443
0001f0 81 8c 9d bf 2c 94 9b bf 6c 65 41 c0 a7 dc bb c0
       -1.2308503 -1.2154593 -3.0218153 -5.870685
000200 f6 bf 0a c2 6a 2e c5 c0 24 1c a8 41 17 4a 29 c1
       -34.68746 -6.161916 21.01374 -10.580588
000210 24 5f a8 41 6e 81 36 41 5c 7d bf c0 00 49 31 3f
       21.046455 11.406599 -5.9840527 0.69252014
000220 64 1f b9 c1 30 cc 3f c1 03 85 c5 c0 33 88 1e c1
       -23.140327 -11.98735 -6.172487 -9.908252
000230 2e 73 06 c2 f9 05 03 c0 52 82 84 41 06 11 88 c1
       -33.61248 -2.0472395 16.563633 -17.008312
000240 42 15 14 c0 dc f1 04 41 02 6b 3c 41 1b e9 f0 3f
       -2.3137975 8.309048 11.776125 1.8821138
000250 52 70 1d 40 f9 11 d8 c1 00 79 8d c1 50 af cb 40
       2.4599805 -27.008776 -17.684082 6.3651505
000260 02 c0 ed 41 04 84 82 c1 b1 cf 3f c1 e6 f5 3b 41
       29.718754 -16.31446 -11.988206 11.747534
000270 d9 1b 80 c1 51 e1 b4 3f 25 4d 43 c2 37 21 2f 41
       -16.013597 1.4131261 -48.825336 10.945609
000280 70 c5 5f 40 66 8b 32 c0 7c d9 65 c0 24 1f 2e 41
       3.4964256 -2.7897582 -3.5913992 10.882603
000290 82 86 d7 40 d0 f5 0f c2 c0 06 60 41 72 e4 52 c1
       6.7351694 -35.99005 14.001648 -13.180773
0002a0 61 a7 77 c0 d9 bc 2e c2 ba c4 59 c1 38 ab 3e c1
       -3.869591 -43.68442 -13.610529 -11.916801
0002b0 7c f6 0a 40 e7 90 19 41 9a 72 94 41 b2 8f 37 c1
       2.1712942 9.597877 18.555958 -11.472582
0002c0 1b ad 9d 40 83 a4 cb be d5 40 0a c1 3e 5a 58 40
       4.927381 -0.3977395 -8.640828 3.380508
0002d0 c6 78 9b 40 27 31 2d c0 a2 b3 b0 40 34 c2 92 c0
       4.858493 -2.706125 5.521928 -4.5862064
0002e0 a4 2e 1e 40 f7 3b 9a 40 00 62 a6 c1 12 97 72 41
       2.4715967 4.81982 -20.797852 15.161882
0002f0 06 9b 0c 40 4f e0 fa 3f 94 7b 07 3e 3a f6 c1 40
       2.1969619 1.9599704 0.13230735 6.061307
000300 1d 1b 96 40 2e 50 95 c0 ac 8a 65 c1 03 e2 55 41
       4.6908097 -4.6660376 -14.346355 13.367679
000310 f1 46 8e 41 9c 4b 38 c1 c8 ef 04 41 55 0b d9 40
       17.78464 -11.518459 8.30854 6.7826333
000320 2c bd 50 c1 40 8f 74 40 92 24 b4 c0 48 c5 24 40
       -13.046185 3.8212433 -5.629464 2.574541
000330 dc fd b3 40 52 8d 50 c1 86 6b d1 c0 35 b7 de c1
       5.6247387 -13.034502 -6.5443754 -27.839457
000340 e4 be e5 40 26 47 68 be 49 cf 38 c2 b6 f1 0e c0
       7.179552 -0.22683391 -46.202427 -2.2335029
000350 86 0d b1 c0 d5 7e 29 41 e6 82 34 c1 e0 07 a6 3f
       -5.532901 10.593465 -11.281958 1.2971153
000360 3e 80 34 3f 14 e4 d9 c1 5b e7 1b c1 cf f7 71 c1
       0.7050818 -27.236366 -9.743983 -15.123
000370 25 d9 c3 c1 7e 0a a0 41 14 fa 1c 40 2d a9 65 c2
       -24.481028 20.005123 2.4527636 -57.41521
000380 85 fc 8a 41 0c 96 d2 40 0b 4a 4c 3f 7c 55 21 bf
       17.3733 6.5808163 0.7980048 -0.63021064
000390 e8 b3 d0 bf 93 35 ac 41 d2 3f 2e 41 ff f9 13 c1
       -1.6304903 21.52616 10.890581 -9.248534
0003a0 27 47 f4 40 52 e2 f8 c0 5c 3b 63 41 a8 c1 40 c1
       7.6336856 -7.777627 14.201992 -12.047279
0003b0 a3 f5 2f c0 f0 ca 5c be 33 18 24 c2 09 9d cc 40
       -2.7493675 -0.2156179 -41.023632 6.3941693
0003c0 85 47 53 be 1a b0 bd c1 3a b8 a5 c1 2b 1d f7 c0
       -0.20632751 -23.710987 -20.714954 -7.7223105
0003d0 3f 3b 4d c2 05 4d 72 c2 2a 8a ad c0 65 99 c1 c1
       -51.307858 -60.575214 -5.4231157 -24.1999
0003e0 0f 3a c2 40 97 90 0d 41 3e 69 06 c1 5a 06 85 c0
       6.069587 8.8478 -8.400694 -4.1570253
0003f0 dc df ad c1 75 d6 57 41 3d 7c 9a c0 a2 34 b2 c1
       -21.734306 13.489858 -4.827666 -22.2757

l4/W f4 [64, 256]
000000 19 d1 5c 42 61 51 51 42 57 8e 46 42 79 c9 b2 42
       55.204197 52.32947 49.639004 89.3935
000010 da 81 17 42 19 bc 59 42 d0 65 7b 42 18 5e 51 42
       37.87681 54.43369 62.849426 52.34189
000020 9d 3f 48 42 91 29 6e 42 53 b7 5f 42 63 18 63 42
       50.062122 59.540592 55.929028 56.773815
000030 2f 8c 69 42 3d 94 75 42 c3 97 57 42 eb 86 4d 42
       58.386898 61.394764 53.898205 51.381756
000040 bc c0 60 42 e1 27 4a 42 15 f7 41 42 e1 46 6c 42
       56.188217 50.538944 48.49129 59.069218
000050 c4 e1 54 42 d6 29 39 42 5e 36 5a 42 94 35 19 42
       53.220474 46.290855 54.553093 38.302322
000060 e6 26 55 42 c4 f5 41 42 56 2b 6b 42 83 42 82 42
       53.287987 48.490005 58.79232 65.129906
000070 a6 27 7c 42 78 55 51 42 de 3d a9 42 76 19 6e 42
       63.03872 52.333466 84.620834 59.524864
000080 d9 78 57 42 b6 26 53 42 9d bb 6a 42 54 b0 bc 3f
       53.868015 52.787804 58.683216 1.4741311
000090 6e 09 5f 42 31 d6 39 42 37 2d 7a 42 ed 6a 47 42
       55.75921 46.45917 62.544155 49.85442
0000a0 55 68 22 42 8a 4f 41 42 f4 73 83 42 0d c0 5a 42
       40.601887 48.327675 65.72647 54.68755
0000b0 f1 ab 7e 42 34 3e 36 42 86 e7 0e 42 76 62 48 42
       63.66791 45.560745 35.726097 50.096153
0000c0 c0 73 65 42 4d 99 b4 42 2c 5d 4e 42 dc 2b 89 42
       57.363037 90.299416 51.59099 68.58566
0000d0 08 4b 51 42 a6 89 55 42 71 bf 80 42 d1 75 b7 42
       52.323273 53.384422 64.37391 91.73011
0000e0 eb a0 44 42 13 22 a2 42 48 a2 76 42 df b4 7b 42
       49.157146 81.06655 61.658478 62.926632
0000f0 a2 60 2a 42 3b 80 a1 42 e0 c9 67 42 de 3f 45 42
       42.594368 80.75045 57.947144 49.31237
000100 0f 1d 46 42 37 0d a6 42 21 dc 9f 42 83 88 3b 42
       49.528378 83.02581 79.92994 46.883312
000110 62 08 1d 42 f3 e4 42 42 46 e7 70 42 94 d9 44 42
       39.258186 48.723583 60.225853 49.21248
000120 68 0a 53 42 64 38 55 42 2a cf 3c 42 00 14 43 42
       52.760162 53.30507 47.20231 48.76953
000130 1d 97 5b 42 30 40 3a 42 08 b4 4e 42 2d 3e 66 42
       54.89757 46.562683 51.67581 57.56072
000140 d0 2f 40 42 e6 ad 61 42 18 66 79 42 7e b5 76 42
       48.04669 56.419823 62.3497 61.67724
000150 cc 75 4d 42 e1 22 2c 42 e2 ca 72 42 5e 62 63 42
       51.365036 43.03406 60.698128 56.84606
000160 ef 7e a2 42 a7 c8 b4 42 b8 0b 62 42 6b 9f 22 42
       81.24792 90.3919 56.511444 40.65568
000170 5e 50 71 42 94 0b 5d 42 86 76 6a 42 cc 37 22 42
       60.328484 55.261307 58.615746 40.55449
000180 c3 16 5d 42 f2 c5 66 42 c4 54 44 42 3c 4f 02 42
       55.27223 57.693306 49.08278 32.577377
000190 d8 3d 64 42 e5 2d 4c 42 a2 be 60 42 24 2d 7f 42
       57.060394 51.04482 56.186165 63.794083
0001a0 5b c1 4b 42 28 a4 34 42 a9 7a 59 42 14 c2 33 42
       50.938824 45.16031 54.369785 44.93953
0001b0 3b 29 82 42 54 ca 64 42 95 9c 5f 42 95 07 5f 42
       65.08053 57.197586 55.902912 55.757404
0001c0 41 80 29 42 62 d2 0c 42 74 ff 10 42 05 ff 1b 42
       42.375248 35.205452 36.249466 38.999043
0001d0 07 e2 51 42 f8 60 43 42 47 fd 72 42 be 86 60 42
       52.47073 48.844696 60.74734 56.131584
0001e0 99 1d 30 42 c3 52 3d 42 3d 17 5f 42 0c cf 42 42
       44.028904 47.330822 55.772694 48.702194
0001f0 ad 44 63 42 77 06 6a 42 1b 09 63 42 63 bc 62 42
       56.817066 58.506313 56.758892 56.68397
000200 42 1b 5c 42 b3 5a 2b 42 3f f4 4d 42 e6 de 79 42
       55.02662 42.838573 51.48852 62.467674
000210 8e 52 45 42 5f 48 ed 41 6a 4a c2 41 34 b9 ef 41
       49.33062 29.660337 24.286335 29.965431
000220 01 ab 5e 41 3a 22 7b 42 99 90 45 42 0b 24 54 42
       13.916749 62.783424 49.39121 53.0352
000230 00 cb 4f 42 6e e9 6d 42 b4 83 5d 42 85 b0 49 42
       51.948242 59.47796 55.378616 50.422382
000240 cf 82 26 42 c2 14 1e 42 fb 14 4e 42 9b a9 42 42
       41.627743 39.52027 51.52049 48.66563
000250 4e 4b 48 42 f9 0b 66 42 35 92 1e 42 51 d1 72 42
       50.07354 57.511692 39.64278 60.70441
000260 15 10 7a 42 b5 4a 73 42 1b 07 9b 41 e1 07 51 42
       62.515705 60.822956 19.37847 52.257694
000270 1c c0 4e 42 b9 a6 64 42 7a 48 3f 42 f6 54 55 42
       51.687607 57.162815 47.820778 53.33297
000280 38 04 10 42 85 a6 2d 42 91 93 3e 42 ce 97 79 42
       36.00412 43.412617 47.644108 62.398247
000290 39 0c 25 42 29 71 5a 42 24 c6 5c 42 3d 25 28 42
       41.261936 54.610508 55.193497 42.036366
0002a0 5a 89 81 42 15 f1 96 42 4d ee 5c 42 c2 eb 46 42
       64.768265 75.47086 55.232716 49.730232
0002b0 f9 03 8b 42 ec 68 6e 42 a5 c5 3e 42 b7 89 81 42
       69.50776 59.602463 47.693012 64.768974
0002c0 6e 58 4b 42 ae 55 50 42 ed 00 3d 42 22 0f 24 42
       50.836357 52.08367 47.250904 41.01478
0002d0 de db 83 42 7d 5e 6b 42 8c 04 f5 41 78 be 68 42
       65.92943 58.842274 30.62722 58.186005
0002e0 c6 22 61 42 a3 47 3d 42 61 fc 5e 42 a6 75 45 42
       56.28396 47.319958 55.746464 49.36489
0002f0 2b b3 5f 42 8d a6 6f 42 95 38 63 42 03 be 53 42
       55.92497 59.912647 56.805256 52.93556
000300 52 ac 1a 42 8c a2 59 42 ca 1d 23 42 8b cc 7a 42
       38.66828 54.408737 40.77909 62.69975
000310 af 6b 4c 42 45 6f 3c 42 e2 37 5e 42 8e 4e 5c 42
       51.10516 47.10866 55.554573 55.076714
000320 c7 cc 29 42 db f3 59 42 51 42 64 42 55 e4 23 42
       42.449978 54.48814 57.064762 40.97298
000330 02 51 7a 42 93 8b 92 42 fe e5 64 42 f2 19 38 42
       62.57911 73.272606 57.2246 46.025337
000340 24 40 67 42 3a 25 69 42 bb b2 f5 41 0c f8 0f 42
       57.812637 58.286354 30.71227 35.992233
000350 27 48 51 42 43 ac 3e 42 81 a7 2d 42 40 2d 46 42
       52.32046 47.668224 43.413578 49.54419
000360 45 0c 65 42 a4 e5 5b 42 4e ac 54 42 88 3a 5d 42
       57.261982 54.97426 53.168266 55.30716
000370 19 c4 e3 41 8c a7 56 42 49 43 65 42 14 2d 63 42
       28.47075 53.66362 57.31571 56.79402
000380 4e 2f 56 42 24 97 37 42 13 a8 58 42 ce 4d 59 42
       53.546196 45.8976 54.164135 54.32598
000390 40 24 69 42 0c e3 24 42 02 d4 5a 42 ca c8 31 42
       58.2854 41.221725 54.70704 44.446083
0003a0 35 e6 68 42 a8 41 4d 42 a6 1b 58 42 05 cd 21 42
       58.22481 51.314117 54.027 40.450214
0003b0 7e f4 37 42 32 7f 43 42 34 f7 5e 42 c9 7c bd 42
       45.98876 48.874214 55.74141 94.74372
0003c0 18 4e 7f 42 7a 02 4a 42 ff a7 64 42 f6 a8 62 42
       63.826263 50.50242 57.16406 56.665
0003d0 90 e7 6e 42 ef 26 33 42 a7 c3 66 42 5c 23 36 42
       59.726135 44.78802 57.691067 45.53453
0003e0 99 97 14 42 4d b8 78 42 71 1c 38 42 39 17 a3 42
       37.148045 62.17998 46.027775 81.54536
0003f0 ad 59 2c 42 8a e0 46 42 4c ec 7a 42 e5 cb 78 42
       43.087574 49.719276 62.73076 62.199116

l4/b f4 [64]
000000 22 78 c3 c2 c7 85 c3 c2 ff 80 c3 c2 b6 80 c3 c2
       -97.734634 -97.761284 -97.751945 -97.75139
000010 20 81 c3 c2 c1 88 c3 c2 59 82 c3 c2 f1 81 c3 c2
       -97.7522 -97.7671 -97.754585 -97.75379
000020 28 7c c3 c2 a9 81 c3 c2 28 7a c3 c2 46 86 c3 c2
       -97.74249 -97.75324 -97.73859 -97.76225
000030 e5 8f c3 c2 88 7e c3 c2 a9 82 c3 c2 5e 81 c3 c2
       -97.781044 -97.74713 -97.755196 -97.75267
000040 72 88 c3 c2 b3 90 c3 c2 28 7f c3 c2 f9 7d c3 c2
       -97.766495 -97.782616 -97.74835 -97.74604
000050 04 80 c3 c2 fe 80 c3 c2 77 92 c3 c2 f1 87 c3 c2
       -97.75003 -97.75194 -97.786064 -97.76551
000060 2b 81 c3 c2 2a 82 c3 c2 b8 81 c3 c2 0d 8b c3 c2
       -97.75228 -97.75423 -97.75336 -97.77158
000070 9a 8b c3 c2 72 7d c3 c2 07 82 c3 c2 0d 7f c3 c2
       -97.77266 -97.74501 -97.75396 -97.748146
000080 43 7c c3 c2 f0 87 c3 c2 ad 82 c3 c2 c4 82 c3 c2
       -97.7427 -97.7655 -97.755226 -97.7554
000090 30 86 c3 c2 53 83 c3 c2 03 83 c3 c2 83 7b c3 c2
       -97.762085 -97.75649 -97.75588 -97.741234
0000a0 48 81 c3 c2 d2 a1 c3 c2 38 c3 c3 c2 df 7d c3 c2
       -97.7525 -97.816055 -97.88129 -97.74584
0000b0 19 82 c3 c2 18 8c c3 c2 f7 82 c3 c2 b6 88 c3 c2
       -97.7541 -97.77362 -97.75579 -97.76701
0000c0 a3 81 c3 c2 e7 7d c3 c2 c6 8d c3 c2 16 91 c3 c2
       -97.7532 -97.7459 -97.7769 -97.78337
0000d0 ab 8d c3 c2 d0 87 c3 c2 c3 8f c3 c2 24 82 c3 c2
       -97.776695 -97.76526 -97.780785 -97.75418
0000e0 5f 81 c3 c2 9a 7c c3 c2 76 80 c3 c2 a7 7e c3 c2
       -97.75268 -97.74336 -97.7509 -97.74737
0000f0 99 8c c3 c2 58 7e c3 c2 96 80 c3 c2 29 7e c3 c2
       -97.774605 -97.746765 -97.751144 -97.74641

l3/W f4 [256, 256]
000000 07 11 dc 40 36 30 8e c1 fd 52 28 c2 8b 19 97 bf
       6.8770785 -17.77354 -42.081043 -1.180467
000010 5a de a8 41 11 2f f2 41 7f 68 84 40 34 17 1f 40
       21.10857 30.272982 4.137756 2.4857912
000020 80 95 70 c0 9c 8a 59 c0 f3 89 bf 41 5b 6e 96 41
       -3.7591248 -3.399085 23.942358 18.803885
000030 9b 45 47 c0 bb 83 87 40 0d 0c db 3f 84 3d b8 c0
       -3.1136234 4.2348304 1.7113053 -5.757509
000040 7e 8a 5a 41 2b e0 a9 c1 cc 44 98 c1 2d 81 01 c1
       13.658812 -21.234457 -19.033592 -8.094037
000050 56 37 0c c2 3f 80 b0 c1 10 3e 9c 41 1b bb 05 c1
       -35.05404 -22.06262 19.530304 -8.35818
000060 ec 4e e6 bc 92 bd 51 41 fa 86 78 40 9b ff fa c1
       -0.028113805 13.108782 3.8832383 -31.374807
000070 9c a7 8b c0 f6 a9 82 3f 94 d5 9a c1 b0 db 23 41
       -4.36421 1.0208118 -19.354286 10.241135
000080 8d c9 b7 41 ef 29 85 3f 9f 47 1c c1 6b a2 f5 40
       22.973413 1.0403422 -9.767486 7.6760764
000090 41 f9 d1 c1 01 a2 26 c1 a5 96 f3 c1 76 8b 01 3f
       -26.246706 -10.414552 -30.448557 0.50603426
0000a0 13 2e 38 41 ae 35 40 40 c9 21 72 c1 93 cb 9d 41
       11.511249 3.0032763 -15.133248 19.724401
0000b0 5e f8 80 41 02 c2 84 41 6b 86 90 40 04 df 91 41
       16.121273 16.59473 4.5164084 18.233894
0000c0 2c 67 80 c0 7e c8 84 40 32 53 b4 c0 4f 73 1f c2
       -4.012594 4.149474 -5.6351557 -39.862606
0000d0 0c fe 14 c1 33 bd a1 41 bc 67 cd c1 50 aa 62 c2
       -9.312023 20.217382 -25.675652 -56.66632
0000e0 19 35 ac 41 72 6b cf c0 04 39 12 c2 a7 54 9d 41
       21.525927 -6.481866 -36.55568 19.666334
0000f0 1e 72 6a 41 e9 32 ca c1 28 b2 e1 c1 b0 1a 68 c1
       14.652861 -25.274858 -28.21199 -14.5065155
000100 e3 31 f7 c0 ff 5d 4b 41 92 55 f3 c1 97 28 93 41
       -7.7248397 12.710448 -30.416782 18.39482
000110 9e 4f 42 40 6e 83 af c0 60 d1 3d c1 8c 0d eb 41
       3.0361094 -5.4847937 -11.863617 29.381615
000120 f6 fa 3c 41 b1 68 bc c0 62 6f 15 c2 00 4c 43 c1
       11.81127 -5.8877797 -37.358772 -12.206055
000130 51 f9 76 3f f7 c1 c0 c0 49 34 33 c1 38 e9 3f 41
       0.96474177 -6.0236773 -11.200265 11.994438
000140 43 4b 83 41 c6 dc fd c1 7f 10 f2 c1 e3 7b 89 c1
       16.411749 -31.7328 -30.258055 -17.185492
000150 ed 94 bc c1 55 a4 e8 bf 05 48 ca c1 dd 2c 45 41
       -23.572718 -1.817515 -25.285166 12.323453
000160 87 14 a4 c1 89 20 c1 c0 c4 8b 26 41 c0 78 2f 42
       -20.510023 -6.0352216 10.409122 43.86792
000170 67 51 0d 41 c3 b5 bb c0 07 7d 1a 41 59 4b 82 c1
       8.832374 -5.8659377 9.655524 -16.28679
000180 ec e3 78 41 0c 04 9b c0 ab ee 25 c2 b9 cc 21 41
       15.555645 -4.844244 -41.483074 10.112481
000190 8d 1a d2 c0 c3 7f 2b c2 33 06 d7 41 7f 47 83 41
       -6.565741 -42.874767 26.878027 16.40991
0001a0 98 c7 c9 c0 5e 54 52 c1 40 cf f2 41 e6 61 c5 40
       -6.3056145 -13.145597 30.351196 6.1682005
0001b0 90 33 1e c1 bf 58 c8 c0 4d d9 3b 40 2f 55 d3 c0
       -9.8875885 -6.2608333 2.935138 -6.6041484
0001c0 55 11 d3 c1 fc 15 06 c2 56 42 71 41 2d c5 03 c2
       -26.383463 -33.52147 15.078695 -32.942554
0001d0 36 13 33 42 48 b4 73 c0 6d 63 71 40 e3 f0 9a c1
       44.76876 -3.8078785 3.7716935 -19.36762
0001e0 bd 55 8d c1 cd 7b 9b 40 30 7a 55 c1 0e ab b0 c1
       -17.666864 4.8588624 -13.342331 -22.083523
0001f0 b7 07 a9 41 2d 20 35 c2 70 c1 51 40 8f f5 ae 41
       21.128767 -45.28142 3.2774315 21.869902
000200 19 19 dd 41 35 5a 45 c2 87 db 03 41 2c b5 dd c1
       27.637255 -49.338093 8.241096 -27.713463
000210 d4 3f 8f c1 db 48 15 42 60 fb f8 c1 3e ac 02 41
       -17.906166 37.321148 -31.122742 8.167051
000220 c1 9e d4 41 e5 13 78 41 02 b9 ea c1 bb 65 aa c1
       26.577517 15.504857 -29.340336 -21.299673
000230 16 45 f8 40 57 f7 3c c1 81 56 aa c0 e0 0c d2 c0
       7.7584333 -11.810386 -5.3230596 -6.5640717
000240 a1 c0 05 c2 67 57 8c c1 b6 2b f8 3f 6d 9f f0 c1
       -33.438114 -17.542677 1.938834 -30.077845
000250 42 b9 72 41 85 90 fe 40 67 95 13 c0 09 5a 61 c1
       15.170229 7.9551415 -2.3059938 -14.084481
000260 68 c1 c0 c1 7e 35 01 bf db 18 e7 c1 8f 7d 82 c1
       -24.094437 -0.5047225 -28.887136 -16.311308
000270 8c ae 0a c2 ba b6 59 c0 8f d6 bc c0 67 5c 8e 3f
       -34.670456 -3.4017777 -5.901191 1.1121949
000280 6e e4 f8 c1 55 f8 ac c1 b6 02 66 c2 8b 64 66 41
       -31.111538 -21.621256 -57.502647 14.399547
000290 1a 49 70 c2 a4 17 92 c1 1e c5 ac c1 18 fd 14 c1
       -60.07139 -18.261543 -21.596249 -9.31179
0002a0 35 e0 84 c2 7f 65 84 40 5e 69 04 c2 05 53 84 c0
       -66.437904 4.1373897 -33.102898 -4.135134
0002b0 be c5 96 41 f1 06 43 c1 a4 ae 46 c1 ca 5e d2 c0
       18.846554 -12.189195 -12.417637 -6.574071
0002c0 10 bd b6 40 86 ee af 41 b6 7e 2e 41 59 7b 1c c2
       5.710579 21.991467 10.905935 -39.120457
0002d0 26 8b 81 c2 82 93 82 c1 29 ea 9f 40 ee b2 0b c2
       -64.771774 -16.322025 4.997334 -34.924736
0002e0 ee f9 0b 42 b1 fc c7 c1 a4 00 e5 40 40 c5 10 41
       34.994072 -24.998384 7.156328 9.048157
0002f0 6f 76 73 40 c3 1c c9 c1 52 d1 8a c0 5d d5 44 41
       3.8041036 -25.139044 -4.338052 12.302091
000300 59 73 90 c0 2d c4 d4 41 82 ef 55 41 7e 4a a3 3f
       -4.5140805 26.595789 13.370974 1.2757108
000310 59 16 54 c1 60 6f 29 41 ed 32 21 c2 8b 87 d3 41
       -13.255456 10.589691 -40.299732 26.441183
000320 b2 c2 72 41 b6 d9 8f c0 c0 9f 84 41 03 28 da 41
       15.172533 -4.495326 16.578003 27.269537
000330 b9 92 bc c1 43 62 bb 41 67 3c 91 41 f8 da 0a c1
       -23.571642 23.42298 18.154493 -8.678459
000340 c9 ea 84 c1 39 43 11 c2 3d aa 09 c2 ff 26 87 40
       -16.614641 -36.315647 -34.41625 4.2235103
000350 8f 90 09 42 00 c8 90 41 1e 64 87 41 67 b2 79 c1
       34.39117 18.097656 16.923885 -15.606055
000360 03 96 e6 40 61 84 18 c1 af 91 a5 3f 6a c8 23 c1
       7.205812 -9.532319 1.2935084 -10.236429
000370 f7 c5 e5 c1 e6 a2 5e c2 b4 29 9b c0 41 61 fd c1
       -28.721663 -55.65908 -4.8488407 -31.672487
000380 94 7c fe c1 80 7c f5 c1 f9 d7 ad c1 8c a6 a0 41
       -31.81083 -30.685791 -21.730455 20.081322
000390 c0 70 8e 41 7f 50 93 41 a9 07 2e 41 87 f7 cd 40
       17.805054 18.414305 10.87687 6.4364657
0003a0 af 27 61 41 e0 42 01 41 f9 d6 cc c1 d2 42 16 41
       14.072188 8.078827 -25.604967 9.391314
0003b0 12 96 be 40 62 92 0c c1 eb f4 19 c2 47 d5 5c c1
       5.955819 -8.785738 -38.489178 -13.80207
0003c0 2c ce 86 c1 9e 22 a9 c0 09 06 24 c2 35 74 2e 42
       -16.85067 -5.2854757 -41.005894 43.613483
0003d0 6e 32 43 41 40 fa 73 be c4 c6 fe 40 db a3 9c bf
       12.199812 -0.23825932 7.9617634 -1.2237505
0003e0 30 c0 7d c2 64 12 22 41 82 ba da c0 dc ae ef c1
       -63.437683 10.12949 -6.835267 -29.96038
0003f0 d4 dc 33 41 f8 80 0d c1 d2 91 b3 41 a7 68 06 41
       11.241413 -8.8439865 22.446201 8.40055

l3/b f4 [256]
000000 19 64 cd 40 f9 35 02 3f 4a 1a 4f 40 b2 b4 18 c0
       6.418469 0.50863606 3.2359796 -2.3860288
000010 de d1 a1 41 b4 17 b9 41 dc 55 87 41 53 b0 63 41
       20.227474 23.136574 16.916924 14.230548
000020 e6 03 2a 41 31 31 92 40 9f fe 88 bf 27 29 1c 41
       10.625952 4.568505 -1.0702704 9.760047
000030 6d 14 d1 3f c2 5a 13 c0 09 c5 b8 40 c3 35 48 41
       1.6334358 -2.3024144 5.774052 12.513125
000040 80 7a 20 bf 4b b0 f4 40 8c c5 58 41 6b 79 e8 40
       -0.6268692 7.64652 13.548229 7.2648215
000050 df 66 5f 40 9e 04 3f c0 e4 37 ef 41 96 3e a0 40
       3.4906538 -2.9846568 29.90229 5.00764
000060 ee 62 d6 40 11 c6 11 40 eb af 26 bd b4 2b 92 40
       6.6995764 2.277714 -0.040695112 4.567835
000070 5f 8d 94 bc a5 95 db 40 28 5a a3 c0 21 44 33 41
       -0.018133817 6.862017 -5.1047554 11.204133
000080 66 6a 4b c0 4b 42 05 41 71 38 65 40 eb 18 77 42
       -3.178369 8.328685 3.58157 61.774334
000090 af 92 93 40 a8 9b ef bf 56 30 4d 40 91 20 36 c0
       4.6116557 -1.8719378 3.2060752 -2.8457377
0000a0 2e 71 a9 40 0c 69 3b 41 d4 e5 2b 41 89 8e f9 40
       5.295066 11.713146 10.74361 7.7986493
0000b0 54 53 fd c0 f1 70 c5 40 c5 56 ff 41 f9 1c 02 41
       -7.916422 6.170037 31.917368 8.132073
0000c0 2c 1a dd 3e 9a 5b 5a c0 b3 91 5b 41 f8 ca e3 c0
       0.4318403 -3.411841 13.723071 -7.1185265
0000d0 fc c5 84 3f 71 34 35 c0 c0 05 45 c0 78 72 48 40
       1.037292 -2.8313258 -3.078476 3.1319866
0000e0 ec bc 68 40 22 b5 be c0 98 79 32 41 c5 65 aa 40
       3.6365309 -5.959611 11.154686 5.324923
0000f0 cb 72 b7 41 8e 94 d3 bf 90 f6 35 c0 7b 23 f5 40
       22.931051 -1.652971 -2.843174 7.660581
000100 ae 84 50 40 c1 6d 1b c0 e8 60 4d c0 81 8a 0f 41
       3.2580981 -2.4285738 -3.2090397 8.971314
000110 94 64 05 41 7d 06 32 41 e5 5d 41 41 54 da 24 41
       8.337055 11.126584 12.085423 10.303303
000120 aa a6 95 bf 74 28 58 41 26 ba 63 40 68 e9 87 40
       -1.1691487 13.509876 3.5582366 4.247242
000130 45 fa 89 3f 81 e5 d5 3f 71 d1 84 41 43 28 d6 3f
       1.0779501 1.6710664 16.602266 1.6731037
000140 17 c3 ab 3f 9d 12 a6 40 3f 5b 5a 3f 45 23 9a 3f
       1.3418912 5.189772 0.8529548 1.2042013
000150 9a 84 0e 41 d8 93 c9 41 9d 70 20 41 a3 eb 03 40
       8.907373 25.19719 10.0274935 2.0612571
000160 43 1c b2 c0 7c e1 2b c1 31 75 24 41 76 ae f3 40
       -5.56595 -10.74255 10.278611 7.6150465
000170 92 27 83 40 9c e6 49 41 8b e2 d1 40 b5 75 21 41
       4.0985804 12.618801 6.558904 10.091237
000180 32 08 bb 41 d8 5c 23 c0 cd 42 85 41 fc 85 04 41
       23.379002 -2.5525417 16.657618 8.282711
000190 79 28 01 41 1a 9e 49 41 11 51 97 40 53 42 10 41
       8.072381 12.601099 4.728646 9.016192
0001a0 dd 8b 3d 3f af ab bf 40 98 14 95 3f bd 34 c3 41
       0.7404154 5.9897075 1.164691 24.400751
0001b0 ad 18 fe 3f ea 8d 1a c0 6e 52 a5 c0 fa 21 ec 40
       1.985128 -2.4149117 -5.166312 7.3791475
0001c0 b6 68 07 41 7e 70 e8 40 77 de 15 42 39 7c f0 40
       8.463064 7.263732 37.46725 7.515164
0001d0 10 33 ad 41 26 d0 60 41 eb 2d 47 c0 0b 20 2c bf
       21.649933 14.0508175 -3.1121776 -0.67236394
0001e0 a3 92 56 41 e2 ec f3 40 9a f8 63 c0 d7 9b c1 40
       13.4108 7.6226664 -3.5620484 6.0502734
0001f0 26 5f 22 c0 3a 70 e6 be c5 29 c9 be 24 57 6d 3e
       -2.5370574 -0.45007497 -0.3928968 0.23177773
000200 3e 8a 21 41 93 ec 58 41 6b f8 46 3f 5a 39 c0 40
       10.096251 13.557757 0.77722806 6.007001
000210 c9 9d 90 40 e7 6a 43 41 0a c0 12 42 b6 a6 b7 41
       4.519261 12.213599 36.68754 22.956402
000220 be 47 c6 40 13 c7 f3 be e3 cd 23 41 31 c7 20 bf
       6.1962576 -0.4761282 10.237765 -0.6280394
000230 0e f1 0b 41 38 60 bb 3f 47 dc 89 40 ce 4f 1c 41
       8.746351 1.4638739 4.3081393 9.769484
000240 9c 35 95 41 10 3a 2e 40 64 c5 a9 c0 8c d8 75 bf
       18.651176 2.7222939 -5.3053455 -0.9603355
000250 16 4b 40 41 10 85 80 bf 08 fe 48 41 14 4a fb 40
       12.018332 -1.0040607 12.562019 7.8527927
000260 bc 91 3d 41 f0 46 fa 3e 4e ed b7 41 a9 2c 2b c0
       11.84808 0.48882246 22.990871 -2.6746008
000270 d8 bd c7 40 23 e5 31 41 c9 80 c5 3e f2 8d b1 3f
       6.2419243 11.118442 0.38574818 1.3871443
000280 b4 f1 50 41 52 3f de 41 e9 3f c2 40 5d 5f 22 41
       13.05901 27.780918 6.0703015 10.148282
000290 d2 7c 6b 41 9c 0a b9 40 65 4a f9 40 6e 9a 2f 41
       14.717974 5.782545 7.7903314 10.975203
0002a0 31 25 b6 c0 ab aa 99 41 0e d7 cd 3f 20 9e 1d 41
       -5.69204 19.208334 1.6081254 9.851105
0002b0 24 c5 00 41 99 d2 c0 c0 bc 0e a6 40 a3 50 80 41
       8.04813 -6.0257077 5.1892986 16.039373
0002c0 d9 0f 82 40 07 77 df 40 19 66 28 41 83 15 e1 40
       4.0644345 6.9832797 10.524926 7.033876
0002d0 a2 5b e5 40 2a 19 83 41 f7 24 f1 41 b6 71 d6 3f
       7.1674356 16.387287 30.14305 1.6753452
0002e0 37 4a 08 41 b8 d0 c2 40 be cf b3 40 8e 84 94 40
       8.518119 6.0879784 5.619109 4.641181
0002f0 dc 88 4d 41 a8 68 e9 be e5 e5 0a 40 36 2b 78 40
       12.845913 -0.4558766 2.1702816 3.8776374
000300 e1 17 f2 40 7d 93 24 c0 2d ac c8 41 01 cb 5b bd
       7.565415 -2.571502 25.08407 -0.053660396
000310 79 3f af 40 d1 c8 80 41 99 c0 2f c0 cf 8c fb 40
       5.476498 16.098055 -2.7461302 7.8609385
000320 8f 79 d3 3f d8 ab d5 bf 09 22 5d 40 ab 6e 1b 41
       1.6521472 -1.6693068 3.4552023 9.714519
000330 c0 1a 86 40 fe 2c 13 c0 6c 1d 55 41 82 54 c7 41
       4.1907654 -2.299621 13.319683 24.916264
000340 ea 0d c4 3f 7d 5a 19 41 48 b1 e1 41 0b 50 2c 41
       1.5316746 9.584592 28.211563 10.769542
000350 4b 4d 1d 41 5c d4 f0 40 ed f2 9b 40 41 21 07 42
       9.83137 7.525923 4.873404 33.782475
000360 84 0b 02 41 94 c4 f6 3f 9a f9 67 40 7b 76 54 41
       8.127811 1.9278741 3.6246095 13.278926
000370 62 7c 66 42 ee 5b 9a 41 46 aa 84 3f 24 67 21 40
       57.621468 19.294888 1.0364463 2.5219202
000380 96 c8 3c 41 d5 e3 bd 3f c4 0b 21 41 76 bb 4a 41
       11.798971 1.4835154 10.065372 12.670767
000390 8a 5b 98 bf f3 90 46 3f b2 a9 25 3f 84 b4 98 3e
       -1.1902936 0.77564925 0.6471206 0.29825222
0003a0 e6 6a 9e 3f f1 f3 2d 41 45 1c cf 40 17 70 54 3f
       1.2376373 10.872056 6.472201 0.82983536
0003b0 18 26 6c 40 ff 55 94 40 fc a0 dc 40 f0 c8 c4 3d
       3.689825 4.6354976 6.8946514 0.09608638
0003c0 25 a8 0b 40 a4 2c 06 c1 4f 4b c2 40 98 e5 bf 40
       2.1821377 -8.385899 6.071693 5.9967766
0003d0 e8 83 58 41 70 cb e9 40 50 bb c7 c0 c5 d6 6b 41
       13.532204 7.3060837 -6.2416153 14.739934
0003e0 60 44 e7 41 fa d7 ca 40 1f e5 30 41 2a d5 f2 41
       28.908386 6.3388643 11.055938 30.354084
0003f0 4a f4 1d 41 81 b2 0e c0 da cd 8b 40 e3 93 09 c0
       9.872141 -2.229645 4.3688784 -2.1496513
