size8/agent_black_29000/model.npz (npz, 607948 bytes, 8 tensors)

l2/W f4 [256, 256]
9.719483 -9.104342 -17.756466 -9.041225 -6.708751 0.46977082 13.993019 -3.7012866
1.0893259 -5.7963963 -4.0108566 2.9626243 0.9162245 -10.593127 -6.747139 -7.16929
0.64444983 -8.150175 -19.416592 -2.3444793 -6.7604737 -1.0696974 6.3350058 -2.9172308
2.0877583 -5.467047 -13.015551 -1.1773309 11.157349 9.006519 4.9327397 -2.0029204
-3.4598958 -2.6271493 -4.6414485 1.703421 1.6532401 8.049262 -15.877629 4.768171
-7.1828046 -10.561355 -3.1238194 -5.657115 -3.128524 -3.5777235 5.633474 7.727821
8.625352 -2.6781025 -8.830064 4.9075 -11.501175 -4.363618 -6.5087013 12.579442
-9.518729 0.06403873 -2.0521975 -3.5912967 -10.220722 -0.9430176 0.07291877 3.3978052
0.11661477 -8.828982 -8.634403 -3.3811743 -2.1583319 6.175948 -0.63078576 7.7788005
-1.5641431 -2.4017699 -2.3132968 7.407509 -8.960334 2.413207 -6.1121492 5.508686
-8.602846 -1.9574007 7.044904 -2.6725318 -5.315105 6.047582 -10.123894 8.44658
-5.3743005 3.6946127 -3.2444375 2.1013503 -1.226881 4.517318 4.8984165 4.81803
-0.2766864 -1.0016637 8.609681 -2.134503 1.5671061 -8.15536 -1.4293052 5.663979
3.6962051 -14.9711275 -7.738753 1.1897005 3.0696895 -28.089273 -9.786254 2.483581
-2.2281353 -1.431013 -2.7712095 -11.110503 5.314407 -8.620734 -8.03645 8.825661
2.1285129 -11.4772005 -2.4547477 -18.520596 1.7990813 1.1498721 -3.6012936 -1.8616136
-3.5761657 -20.711147 1.8376172 0.62623566 -7.3980055 -1.0117329 -0.58426857 6.704524
-10.942638 -2.5581365 -2.6508641 -5.0754085 -1.8143464 7.593752 -3.2066367 -1.5856073
-6.667073 -1.531711 8.6314 4.5614557 0.18459386 -2.3296964 0.5284245 -3.0157254
1.9281408 3.0753045 1.3613254 -1.9357805 -0.6754545 -4.120611 4.5123806 -16.538616
-12.335108 2.7909129 -2.5364223 8.009307 -6.11758 -8.223853 -3.0713193 1.8397864
-9.850579 -18.271898 2.7078397 2.8815773 -15.05535 -2.0645978 -23.752615 -4.357056
1.227391 3.8079655 11.070461 -8.257668 -4.3296075 18.206001 -2.6358047 -5.981404
-6.6646886 1.0546262 0.7834617 -3.114976 -17.236406 -2.4858902 -1.2227037 8.447378
-2.1365523 3.986097 -3.3984182 1.2800831 2.7676306 2.8072524 7.5636306 8.565563
1.2549344 -5.957872 -26.10825 -14.209218 -4.0008807 -22.367912 0.099339515 -0.12001331
1.2891293 0.4450114 -15.74678 0.11615761 -7.585876 -11.311037 -14.952872 -6.9548573
6.749858 -0.23096998 -4.108102 -10.710925 -3.2497678 -4.157263 -0.8809362 6.922009
-19.980984 -9.638124 4.356605 -1.3845526 4.5944505 -12.319361 10.304655 8.222303
-4.7575974 -9.985549 0.35642973 0.26238567 2.6032066 3.694234 -10.515961 1.7057916
2.2454336 1.1566312 -1.3374425 1.9967507 -6.4382133 -4.1178803 0.9235149 2.2445867
4.1836786 6.111279 5.651849 7.946197 -6.721719 -5.867584 -1.6117449 -5.6817317
00000000: 0183 1b41 63ab 11c1 3e0d 8ec1 dca8 10c1
00000010: 17ae d6c0 cd85 f03e 68e3 5f41 e1e1 6cc0
00000020: 086f 8b3f 147c b9c0 f058 80c0 a39b 3d40
00000030: b08d 6a3f 737d 29c1 90e8 d7c0 d36a e5c0
00000040: aafa 243f 1e67 02c1 2e55 9bc1 f30b 16c0
00000050: cd55 d8c0 d8eb 88bf 5eb8 ca40 e9b3 3ac0
00000060: d59d 0540 0df2 aec0 b23f 50c1 c7b2 96bf
00000070: 8084 3241 b41a 1041 01d9 9d40 d92f 00c0
00000080: ef6e 5dc0 3723 28c0 bf86 94c0 b309 da3f
00000090: 5f9d d33f c7c9 0041 c50a 7ec1 db94 9840
000000a0: 89d9 e5c0 4ffb 28c1 a8ec 47c0 1607 b5c0
000000b0: bd39 48c0 6cf9 64c0 6b45 b440 4f4a f740
000000c0: 7101 0a41 0866 2bc0 f147 0dc1 3d0a 9d40
000000d0: d004 38c1 c2a2 8bc0 4847 d0c0 6545 4941
000000e0: b74c 18c1 bd26 833d 3457 03c0 ced7 65c0
000000f0: 1488 23c1 9a69 71bf 7056 953d a475 5940
00000100: b9d3 ee3d 8343 0dc1 8426 0ac1 2965 58c0
00000110: 1c22 0ac0 5ea1 c540 2d7b 21bf efeb f840
00000120: d735 c8bf 99b6 19c0 0e0d 14c0 500a ed40
00000130: 875d 0fc1 fc71 1a40 ba96 c3c0 2847 b040
00000140: 42a5 09c1 1b8c fabf db6f e140 c30a 2bc0
00000150: 5715 aac0 cb85 c140 78fb 21c1 3125 0741
00000160: 45fa abc0 8974 6c40 dda4 4fc0 867c 0640
00000170: 700a 9dbf de8d 9040 d4bf 9c40 4d2d 9a40
00000180: d7a9 8dbe 8436 80bf 41c1 0941 b29b 08c0
00000190: ef96 c83f 5b7c 02c1 79f3 b6bf 513f b540
000001a0: a08e 6c40 bd89 6fc1 dda3 f7c0 1b48 983f
000001b0: cb75 4440 d5b6 e0c1 7f94 1cc1 fef2 1e40
000001c0: c599 0ec0 6f2b b7bf 7f5b 31c0 9fc4 31c1
000001d0: 9f0f aa40 87ee 09c1 4d95 00c1 e835 0d41
000001e0: 8e39 0840 9da2 37c1 961a 1dc0 2e2a 94c1
000001f0: 4c48 e63f 022f 933f 987b 66c0 5b49 eebf
00000200: e6df 64c0 6eb0 a5c1 0a37 eb3f fb50 203f
00000210: 76bc ecc0 7780 81bf a092 15bf 768b d640
00000220: 0c15 2fc1 82b8 23c0 c2a7 29c0 bf69 a2c0
00000230: 813c e8bf 0400 f340 8939 4dc0 2ef5 cabf
00000240: a958 d5c0 1b0f c4bf 371a 0a41 72f7 9140
00000250: 2c06 3d3e bf19 15c0 d446 073f a501 41c0
00000260: 51cd f63f cad1 4440 e93f ae3f a8c7 f7bf
00000270: 96ea 2cbf 0cdc 83c0 6c65 9040 164f 84c1
00000280: 9a5c 45c1 519e 3240 be54 22c0 1f26 0041
00000290: 37c3 c3c0 e794 03c1 7f90 44c0 1f7e eb3f
000002a0: f99b 1dc1 d92c 92c1 3f4d 2d40 c36b 3840
000002b0: b7e2 70c1 5f22 04c0 5b05 bec1 016d 8bc0
000002c0: 261b 9d3f b5b5 7340 9c20 3141 681f 04c1
000002d0: 258c 8ac0 e4a5 9141 06b1 28c0 a967 bfc0
000002e0: 2145 d5c0 fefd 863f f290 483f c45b 47c0
000002f0: 29e4 89c1 d318 1fc0 8e81 9cbf 7628 0741
00000300: 46bd 08c0 371c 7f40 af7f 59c0 c3d9 a33f
00000310: dc20 3140 06aa 3340 4309 f240 8c0c 0941
00000320: b1a1 a03f e3a6 bec0 b2dd d0c1 f558 63c1
00000330: 3707 80c0 7cf1 b2c1 8472 cb3d 8ac9 f5bd
00000340: 3002 a53f 89d8 e33e d0f2 7bc1 0be4 ed3d
00000350: 7fbf f2c0 02fa 34c1 f73e 6fc1 318e dec0
00000360: d6fe d740 6583 6cbe 9275 83c0 f35f 2bc1
00000370: 32fc 4fc0 4c08 85c0 0985 61bf 1981 dd40
00000380: 0ed9 9fc1 c235 1ac1 4f69 8b40 0539 b1bf
00000390: bd05 9340 1a1c 45c1 dedf 2441 8e8e 0341
000003a0: 3d3e 98c0 cfc4 1fc1 f57d b63e 6a57 863e
000003b0: f09a 2640 546e 6c40 6041 28c1 6157 da3f
000003c0: 2fb5 0f40 7e0c 943f 5131 abbf 8795 ff3f
000003d0: d805 cec0 adc5 83c0 796b 6c3f 4fa7 0f40
000003e0: b2e0 8540 998f c340 f2db b440 3f47 fe40
000003f0: 5218 d7c0 40c3 bbc0 a84d cebf bfd0 b5c0

l2/b f4 [256]
2.6910784 0.5251189 1.2546889 1.0545617 1.6156 4.628687 0.2618789 0.44421124
0.036703553 10.879412 3.7251234 1.0982707 2.1926775 2.8347964 2.8093407 -1.1251259
-0.039473083 -0.2349733 1.6530718 2.1760652 0.9368505 2.225864 21.999012 1.1797369
1.717169 2.4289136 8.524637 5.5119557 0.2827091 -1.0547782 2.5728636 -0.5652646
2.8310404 -2.7626872 6.1312695 0.67982066 3.8913915 0.13432698 -1.855647 1.3206185
1.9294986 1.7990631 2.8587396 3.3958492 2.9450908 2.5404835 1.8600157 2.7447238
-1.0147165 4.6344395 1.6859853 3.502043 2.5897398 3.5143735 0.36693478 2.0982337
1.5596796 2.1104033 5.430696 5.374575 1.141482 1.2104893 -0.34313577 -0.44057304
5.9836497 -0.28748244 9.348205 1.2533822 -2.3412032 0.5012271 -1.6169057 1.5985082
3.9849958 2.8749478 -2.278147 1.5787601 5.76524 0.73343855 -0.5523028 2.2941067
0.8724628 2.6969595 1.0294385 2.9199753 0.26843384 4.2017145 1.5732869 -0.27936894
-1.8850625 4.0687714 -1.5072107 1.035062 0.066356085 -0.114707895 -0.93204814 0.4442092
1.2094548 8.320348 4.793141 -0.52294695 -0.44916102 -1.2336879 1.1904163 1.7586224
-1.7174094 0.9262672 4.782362 -1.2636263 2.5178456 0.8880326 0.9337922 -0.6414291
4.0278716 0.26721668 -0.12235817 2.9526088 1.8616323 0.81281203 0.8823771 1.29196
6.1245756 6.480047 0.13123907 7.464995 5.25845 0.7804713 1.2523357 1.2392765
1.218866 0.79628956 1.2149898 1.5706311 1.9817318 3.3825223 0.58796537 -0.670957
0.9891789 0.8347217 3.6731658 2.0402906 -1.6867127 1.8076189 2.450538 4.457168
4.1596465 0.36220264 -1.6464396 0.16741014 0.1752076 -2.40969 -0.6714789 2.7650528
3.5224106 5.258176 -0.7538965 2.7490363 -2.2632787 2.7225237 -0.42812166 -1.8259735
1.2695841 1.8254137 -0.32574227 2.0839052 -0.6241636 -1.5771579 4.308696 1.9197613
0.9249281 3.842989 4.600036 1.7168492 2.773433 -1.5019633 1.4718653 6.404133
1.0413961 -0.9433372 1.0040054 2.3178983 -0.29618797 3.4393702 -0.99963874 -0.14764874
-0.592442 -1.9907457 1.5219285 1.4071372 -0.48577964 2.1009088 1.079032 0.06352921
4.971441 1.0528594 2.7322898 -0.70408654 1.1548575 0.82573515 3.0679286 2.82696
-0.36646894 5.1659765 3.7138414 0.0032575172 0.82218754 5.173238 1.3503335 -0.4812002
2.64722 2.3072553 1.305746 5.30804 2.5473719 -0.21700053 1.9488178 1.5313686
-2.0152657 1.0633845 2.3430774 -0.87806726 0.01795338 3.0153184 1.1069883 1.858637
1.6514243 1.4189582 2.2745087 3.4505897 1.3651732 3.1421907 2.7752512 1.6835234
-0.36585823 -0.8670448 -0.19365941 0.61322457 4.2733603 3.6240683 -0.29196796 2.7314484
-1.4738086 0.6062211 0.15987553 1.9752187 0.14963502 1.0689781 8.933669 -0.5311238
0.95618904 1.7446991 3.2298641 2.4832735 1.3534845 1.5456853 0.10133187 0.3403208
00000000: a13a 2c40 316e 063f a599 a03f e1fb 863f
00000010: fbcb ce3f 341e 9440 fe14 863e a86f e33e
00000020: 7756 163d 1212 2e41 6c68 6e40 2294 8c3f
00000030: d454 0c40 4e6d 3540 3dcc 3340 2004 90bf
00000040: 87ae 21bd d79c 70be db97 d33f a744 0b40
00000050: 6fd5 6f3f 8e74 0e40 fafd af41 9e01 973f
00000060: 32cc db3f 5273 1b40 ea64 0841 f161 b040
00000070: 3fbf 903e f902 87bf cca9 2440 2eb5 10bf
00000080: c42f 3540 decf 30c0 5c33 c440 ba08 2e3f
00000090: 8f0c 7940 038d 093e d785 edbf 070a a93f
000000a0: cff9 f63f b347 e63f 97f5 3640 9855 5940
000000b0: 5e7c 3c40 4897 2240 ff14 ee3f 8ea9 2f40
000000c0: 3be2 81bf 544d 9440 5ece d73f 7921 6040
000000d0: 4cbe 2540 7feb 6040 e0de bb3e 7649 0640
000000e0: 95a3 c73f d910 0740 43c8 ad40 85fc ab40
000000f0: 151c 923f 50f1 9a3f 7eaf afbe ca92 e1be
00000100: 0f7a bf40 e630 93be 3f92 1541 d46e a03f
00000110: 46d6 15c0 6b50 003f c4f6 cebf eb9b cc3f
00000120: 2c0a 7f40 25ff 3740 29cd 11c0 d014 ca3f
00000130: d97c b840 a1c2 3b3f b763 0dbf a5d2 1240
00000140: b959 5f3f fc9a 2c40 a4c4 833f e0e0 3a40
00000150: 2970 893e 7274 8640 7761 c93f 7209 8fbe
00000160: ba49 f1bf 6033 8240 48ec c0bf e97c 843f
00000170: b3e5 873d f9eb eabd b59a 6ebf 636f e33e
00000180: 6acf 9a3f 2520 0541 6961 9940 dadf 05bf
00000190: 6ff8 e5be 7ce9 9dbf 905f 983f 8a1a e13f
000001a0: 12d4 dbbf d91f 6d3f 1c09 9940 82be a1bf
000001b0: 6224 2140 1b56 633f 010d 6f3f b334 24bf
000001c0: 53e4 8040 a0d0 883e ec96 fabd 8bf7 3c40
000001d0: f849 ee3f 7314 503f 77e3 613f f25e a53f
000001e0: 86fc c340 8c5c cf40 8963 063e 3de1 ee40
000001f0: 3945 a840 f8cc 473f 894c a03f 9da0 9e3f
00000200: cd03 9c3f a2d9 4b3f c984 9b3f 710a c93f
00000210: 63a9 fd3f 3f7b 5840 e684 163f d7c3 2bbf
00000220: d43a 7d3f 52b0 553f 2615 6b40 1f94 0240
00000230: 34e6 d7bf 0e60 e73f 9dd5 1c40 1fa1 8e40
00000240: d31b 8540 a072 b93e 88be d2bf 906d 2b3e
00000250: 9f69 333e 5c38 1ac0 0be6 2bbf a0f6 3040
00000260: 2d6f 6140 fa42 a840 5cff 40bf 36f0 2f40
00000270: 8fd9 10c0 d43d 2e40 c332 dbbe 80b9 e9bf
00000280: bb81 a23f 28a7 e93f b1c7 a6be b45e 0540
00000290: 30c9 1fbf 4fe0 c9bf d6e0 8940 bdba f53f
000002a0: 17c8 6c3f 88f3 7540 7f33 9340 b7c1 db3f
000002b0: ed7f 3140 5540 c0bf 1566 bc3f a8ee cc40
000002c0: 784c 853f 8c7e 71bf 4083 803f 7258 1440
000002d0: f3a5 97be a41e 5c40 53e8 7fbf 3b31 17be
000002e0: 47aa 17bf c1d0 febf 8ece c23f 121d b43f
000002f0: 1cb8 f8be 4a75 0640 b81d 8a3f 9a1b 823d
00000300: 0b16 9f40 19c4 863f d6dd 2e40 043f 34bf
00000310: 5fd2 933f 6163 533f f158 4440 eaec 3440
00000320: d1a1 bbbe ae4f a540 94af 6d40 127c 553b
00000330: e27a 523f 2a8b a540 bad7 ac3f df5f f6be
00000340: 0d6c 2940 12aa 1340 af22 a73f 77db a940
00000350: 2408 2340 6335 5ebe dd72 f93f e303 c43f
00000360: 1dfa 00c0 fc1c 883f fbf4 1540 04c9 60bf
00000370: f712 933c fafa 4040 cbb1 8d3f d1e7 ed3f
00000380: df61 d33f 6ca0 b53f 8d91 1140 76d6 5c40
00000390: ffbd ae3f a719 4940 b79d 3140 b27d d73f
000003a0: c551 bbbe a6f6 5dbf a74e 46be 49fc 1c3f
000003b0: 5ebf 8840 bcf0 6740 d37c 95be 0dd0 2e40
000003c0: c3a5 bcbf 4e31 1b3f 69b6 233e f7d3 fc3f
000003d0: ec39 193e 46d4 883f 4ff0 0e41 bbf7 07bf
000003e0: cec8 743f 4d52 df3f 18b6 4e40 f4ed 1e40
000003f0: fb3e ad3f 04d9 c53f 1587 cf3d 873e ae3e

l1/W f4 [256, 64]
19.880188 -21.020615 -14.520107 15.581939 1.2073795 -6.349786 -7.0202503 4.882843
1.3536278 2.7632377 1.570489 1.0167077 -4.112633 2.8366115 1.9854599 -4.048448
2.1717334 4.365767 0.23794292 -3.2103539 -2.6639009 -0.99487305 5.6349025 2.6218247
8.729432 -6.078883 2.6718278 -5.2602696 3.7346988 3.0933995 7.942726 1.9966642
-5.5929766 -5.692373 5.7835097 -2.9191604 -1.1202643 -0.9513941 -4.3472147 -1.7415335
12.337672 3.703455 -1.2599671 0.27108577 -0.6170827 3.2660763 -0.61594456 -10.467172
5.3081303 2.7870677 -0.36690268 7.8481827 5.599098 -4.811965 -1.630518 2.207011
23.5998 3.2620807 -8.126619 7.4868903 -0.6013921 -3.5260592 -11.464421 -9.587747
12.823228 -9.537616 3.2868402 -12.060578 -6.542851 -10.506586 8.842349 -4.6985164
-5.9120755 4.2206197 -2.1070132 3.7872105 -4.593032 -2.684403 6.7782955 5.4205937
7.384044 -6.9906917 0.38677043 0.26423287 1.7628355 1.0401499 6.264334 -5.929277
-0.048532702 4.638144 -0.6386738 3.0236638 2.6332996 -0.12964468 -12.070602 -5.2804413
4.02259 2.120178 0.327649 -2.351822 -0.13651447 -3.8042507 3.0305421 -5.4140697
-6.7525167 -22.390804 2.4620883 2.9688134 -1.4167387 1.3830221 6.7598896 1.0908667
3.3419447 -0.32545117 -0.94397634 -11.546108 -2.8275304 0.6619976 10.61689 -2.8065112
5.841909 -1.7451138 -5.6177053 -25.43082 10.616264 4.0060186 1.218528 8.382315
-9.759118 5.903249 7.441968 15.948047 -0.7616886 4.5260286 3.7682412 1.1652384
9.721553 1.6830455 -2.4425776 -0.87782913 -0.5409192 3.780509 7.1082525 -3.9955964
-4.0720415 8.217178 -11.453968 -2.6462257 -2.7376955 -0.5736608 6.114117 3.880076
13.183583 -6.2143517 -0.36271036 3.4311972 -0.08392689 1.3523684 -1.7388371 -4.271635
-4.713887 3.422205 -9.868004 1.9084673 3.1793787 -1.9639282 -4.0886073 -5.6182947
6.924506 -7.9353247 -0.6909559 4.4352574 5.699477 -1.1353943 -0.56333995 -10.904983
-4.0628176 -11.925499 -10.878093 -1.4162393 0.54039395 -13.68036 -2.63805 -8.938181
-4.5821185 0.11679682 0.19814801 10.4286175 -8.842121 -17.736372 -1.3152755 -4.714782
-1.7472225 11.886233 0.7977033 4.5322185 -6.768009 -1.2939765 5.631444 10.400596
-3.8708377 -10.877783 2.0601952 6.187 -11.220922 0.8844966 5.414273 4.1603208
6.0588446 -2.317108 2.58386 -4.0442386 5.2231264 -0.17956527 4.2884884 -3.712265
-6.1368284 1.1112404 6.713722 0.19267541 -1.5878491 3.4546964 -1.4353619 3.7321105
-4.4684477 3.8975382 3.8705196 -3.410256 -0.95625204 -0.18666376 -2.6194 -10.75584
-7.5838447 3.1711817 -7.557619 -2.232681 -2.0697918 5.1439195 0.872394 -15.440509
4.5358086 -8.212618 1.9026254 -11.365796 3.960385 12.26838 7.6450768 1.5944778
-16.704906 -3.7520113 -11.859512 0.9453098 -7.7942157 13.338556 9.802475 0.22375408
00000000: a00a 9f41 382a a8c1 5c52 68c1 9f4f 7941
00000010: 698b 9a3f 7231 cbc0 e4a5 e0c0 4040 9c40
00000020: ad43 ad3f e3d8 3040 c905 c93f 7a23 823f
00000030: b19a 83c0 0b8b 3540 8d23 fe3f e38c 81c0
00000040: aefd 0a40 5db4 8b40 4fa7 733e 7076 4dc0
00000050: 5a7d 2ac0 00b0 7ebf 1f51 b440 facb 2740
00000060: c1ab 0b41 3686 c2c0 3aff 2a40 2154 a8c0
00000070: 4e05 6f40 42fa 4540 d02a fe40 b192 ff3f
00000080: aaf9 b2c0 eb27 b6c0 8312 b940 86d3 3ac0
00000090: d264 8fbf 908e 73bf 621c 8bc0 92ea debf
000000a0: 1b67 4541 6805 6d40 9a46 a1bf c1cb 8a3e
000000b0: 22f9 1dbf 6507 5140 8bae 1dbf 8979 27c1
000000c0: 34dc a940 515f 3240 abda bbbe 5024 fb40
000000d0: d02b b340 9efb 99c0 d0b4 d0bf ab3f 0d40
000000e0: 64cc bc41 eec5 5040 a206 02c1 9b94 ef40
000000f0: d5f4 19bf f4aa 61c0 456e 37c1 6967 19c1
00000100: f12b 4d41 139a 18c1 975b 5240 21f8 40c1
00000110: 095f d1c0 fa1a 28c1 437a 0d41 3f5a 96c0
00000120: b92f bdc0 510f 8740 4ed9 06c0 a861 7240
00000130: 1efa 92c0 42cd 2bc0 cce7 d840 8175 ad40
00000140: 174a ec40 bfb3 dfc0 c606 c63e 8849 873e
00000150: 98a4 e13f a223 853f 6d75 c840 a3bc bdc0
00000160: 3aca 46bd ad6b 9440 2080 23bf b583 4140
00000170: fb87 2840 93c1 04be 3021 41c1 60f9 a8c0
00000180: 0fb9 8040 ffb0 0740 9cc1 a73e 4084 16c0
00000190: 73ca 0bbe d878 73c0 67f4 4140 0f40 adc0
000001a0: 9e14 d8c0 5e20 b3c1 db92 1d40 0a01 3e40
000001b0: b257 b5bf de06 b13f 0451 d840 85a1 8b3f
000001c0: 6ce2 5540 89a1 a6be 6fa8 71bf dcbc 38c1
000001d0: 42f6 34c0 ad78 293f c8de 2941 e19d 33c0
000001e0: ebf0 ba40 e45f dfbf 3ec4 b3c0 5272 cbc1
000001f0: 38dc 2941 4e31 8040 baf8 9b3f f61d 0641
00000200: 5925 1cc1 6ae7 bc40 9a24 ee40 332b 7f41
00000210: 06fe 42bf 3ad5 9040 dd2a 7140 8826 953f
00000220: 7b8b 1b41 096e d73f 3153 1cc0 69b9 60bf
00000230: ae79 0abf dcf3 7140 ce76 e340 dab7 7fc0
00000240: 2a4e 82c0 9079 0341 7443 37c1 c35b 29c0
00000250: 6736 2fc0 6fdb 12bf d9a6 c340 2a53 7840
00000260: f5ef 5241 f8db c6c0 2cb5 b9be bc98 5b40
00000270: dce1 abbd 681a ad3f 3792 debf 3cb1 88c0
00000280: 2ad8 96c0 6805 5b40 58e3 1dc1 a848 f43f
00000290: f17a 4b40 0062 fbbf dfd5 82c0 12c9 b3c0
000002a0: 8e95 dd40 2eee fdc0 7ce2 30bf a1ed 8d40
000002b0: 1e62 b640 9a54 91bf 0c37 10bf cf7a 2ec1
000002c0: 9a02 82c0 d8ce 3ec1 ab0c 2ec1 5447 b5bf
000002d0: 4257 0a3f c1e2 5ac1 d0d5 28c0 ca02 0fc1
000002e0: b7a0 92c0 2c33 ef3d 50e7 4a3e 9edb 2641
000002f0: 5479 0dc1 17e4 8dc1 f35a a8bf 7fdf 96c0
00000300: fda4 dfbf 032e 3e41 4936 4c3f ef07 9140
00000310: 8893 d8c0 06a1 a5bf ca34 b440 d768 2641
00000320: cebb 77c0 660b 2ec1 3dda 0340 e7fb c540
00000330: e688 33c1 5f6e 623f b941 ad40 5921 8540
00000340: 0ee2 c140 7f4b 14c0 f65d 2540 676a 81c0
00000350: da23 a740 f5df 37be 4c3b 8940 c095 6dc0
00000360: e660 c4c0 203d 8e3f d0d6 d640 b44c 453e
00000370: a43e cbbf bf19 5d40 f0b9 b7bf e6da 6e40
00000380: 86fd 8ec0 4471 7940 98b6 7740 a241 5ac0
00000390: efcc 74bf c924 3fbe 40a4 27c0 ec17 2cc1
000003a0: dbae f2c0 a4f4 4a40 04d8 f1c0 3fe4 0ec0
000003b0: 7877 04c0 fd9a a440 3755 5f3f 530c 77c1
000003c0: 5825 9140 e266 03c1 3b89 f33f 4dda 35c1
000003d0: f376 7d40 494b 4441 78a4 f440 d917 cc3f
000003e0: a6a3 85c1 f420 70c0 90c0 3dc1 d3ff 713f
000003f0: 376a f9c0 ba6a 5541 f0d6 1c41 ca1f 653e

l1/b f4 [256]
-0.75765467 0.79199886 2.5060763 -0.39993006 -1.1425631 0.14994916 0.5615092 1.0163599
-0.2803982 -0.16928472 -6.859145 -0.1318946 -4.1964445 -2.6128166 -0.29545045 -2.9921324
-0.03735375 -1.4710125 1.4670719 1.0368885 0.7131246 1.0714123 4.9145913 0.36843002
-2.3874874 -7.4324203 1.2549438 -1.5866807 3.9434843 -3.6288893 -0.9856337 2.5991259
2.118286 0.6194856 -9.538065 2.9211364 3.5558455 4.579129 0.5416828 2.033866
-0.6998733 -1.4190136 -1.903086 -6.885198 -1.7642114 -0.9732211 -3.9704444 -3.2401013
-5.400479 4.8666573 1.1349075 5.1223116 3.6476924 -2.984499 2.766412 0.6316758
-1.7235568 0.7192528 4.390557 0.81406736 3.9542766 -3.346527 4.7088194 -1.7369131
-3.5301561 2.7912767 -3.5849009 -0.59751475 -3.298551 3.271441 -0.49177 -0.48186994
0.5651586 -0.5606849 1.7312376 -2.6365566 1.4158123 -1.3671567 2.0320873 11.909965
0.4002012 -10.378956 -0.4208054 0.5965829 -0.018031726 -2.332542 -0.48033705 2.840078
2.3286257 3.920759 -2.5002105 1.7385951 2.7372055 -2.8807907 2.3419144 0.8952467
-10.246023 -10.027311 1.781704 -3.5938942 1.8003485 -0.79402155 -2.84329 1.0369169
3.0798397 -1.4934593 -1.5648879 0.33783904 -1.6272243 5.842581 -4.8071632 3.3187788
4.137974 1.7317652 -4.759631 -0.12008015 -0.11735834 5.312593 1.859801 -0.1313441
5.755577 -6.694892 -3.3636637 -0.91518897 -2.370694 1.2423121 -0.09784888 -0.94109654
-4.793993 -8.227287 6.5812664 -1.2666312 3.00633 -1.2404969 -0.10050218 6.3885775
-5.9074717 -4.006122 -0.029607803 -0.050810155 -8.220355 -1.9185426 1.9460557 -2.2805712
-5.553663 -0.44671088 0.6661574 4.273758 4.0214496 -5.3241134 -2.3677013 2.7633538
0.9131506 -2.3170383 -3.0430212 0.46394268 -0.8203734 4.6699758 -10.461505 8.19961
3.2928226 -0.75059575 0.87002766 2.0949986 4.84407 -7.3604817 5.165691 -4.8184285
-6.2055864 -11.464413 -4.5724354 2.3715267 1.5673076 2.6232057 3.6760418 -6.475268
-1.4131233 -1.2611194 2.464895 -2.8500907 2.676219 0.7251336 1.2839797 0.94854933
0.015440795 2.0765667 -6.424052 1.8049846 -1.5945978 1.829383 -1.0461853 2.9857583
-1.1498061 0.970142 -3.7714272 0.15096132 3.342149 -1.788821 -1.2129682 4.0855694
-2.4533827 -1.1429299 -3.384404 0.43499207 1.249028 -4.344686 -4.397124 -7.443447
-2.945263 -0.75493467 -9.1382675 -1.4685564 -3.7919884 3.1821358 -1.2822087 -1.7348967
0.622089 -0.6892503 -0.30916667 -1.0195907 -2.7189739 -1.3487346 -1.2449886 -9.712839
3.3634257 -3.3488312 -0.44074762 -2.3607926 -1.0868461 2.2547193 1.6205133 -5.176799
1.862291 -3.737804 4.2260966 -3.1249673 2.3444386 6.5442557 -11.483114 2.251072
-3.470671 -6.886598 -4.3420615 -3.902412 -12.673986 -15.57387 -4.7122307 -1.7854317
5.6592407 1.0291529 -0.36990383 4.907068 -5.1535416 1.6038054 -2.4417384 -5.3757114
00000000: a8f5 41bf 70c0 4a3f 8e63 2040 a2c3 ccbe
00000010: 823f 92bf 468c 193e 11bf 0f3f 1518 823f
00000020: 5a90 8fbe f958 2dbe 1e7e dbc0 610f 07be
00000030: 4649 86c0 6338 27c0 4845 97be 197f 3fc0
00000040: 3f00 19bd 234a bcbf 03c9 bb3f c3b8 843f
00000050: 558f 363f 0a24 893f 5544 9d40 dca2 bc3e
00000060: 98cc 18c0 63d6 edc0 00a2 a03f 5a18 cbbf
00000070: 0c62 7c40 b93f 68c0 7d52 7cbf 1458 2640
00000080: ff91 0740 9c96 1e3f ea9b 18c1 e6f3 3a40
00000090: f992 6340 3a88 9240 b9ab 0a3f dc2a 0240
000000a0: e62a 33bf 3da2 b5bf 5298 f3bf 8b53 dcc0
000000b0: aed1 e1bf 0525 79bf c31b 7ec0 d25d 4fc0
000000c0: b9d0 acc0 a8bb 9b40 a644 913f fae9 a340
000000d0: cb73 6940 0802 3fc0 e50c 3140 81b5 213f
000000e0: 829d dcbf f420 383f 717f 8c40 b866 503f
000000f0: de12 7d40 802d 56c0 a6ae 9640 2b53 debf
00000100: 14ee 61c0 47a4 3240 046f 65c0 baf6 18bf
00000110: 761b 53c0 4a5f 5140 47c9 fbbe a8b7 f6be
00000120: 3cae 103f 0c89 0fbf 3299 dd3f 58bd 28c0
00000130: 5639 b53f fefe aebf b80d 0240 378f 3e41
00000140: 2ce7 cc3e 3410 26c1 ce73 d7be a8b9 183f
00000150: 45b7 93bc 5e48 15c0 bdee f5be d7c3 3540
00000160: 3408 1540 b7ed 7a40 7303 20c0 498a de3f
00000170: 602e 2f40 e05e 38c0 ede1 1540 e32e 653f
00000180: b6ef 23c1 de6f 20c1 e00e e43f 5d02 66c0
00000190: d271 e63f ff44 4bbf 77f8 35c0 b1b9 843f
000001a0: 181c 4540 ad29 bfbf 3f4e c8bf 3df9 ac3e
000001b0: e348 d0bf 6cf6 ba40 48d4 99c0 df66 5440
000001c0: 486a 8440 7baa dd3f e64e 98c0 95ec f5bd
000001d0: 9259 f0bd c300 aa40 f60d ee3f 117f 06be
000001e0: b02d b840 8e3c d6c0 4446 57c0 d349 6abf
000001f0: 73b9 17c0 1504 9f3f fe64 c8bd b4eb 70bf
00000200: 6468 99c0 f8a2 03c1 bc99 d240 f920 a2bf
00000210: b667 4040 9ac8 9ebf 16d4 cdbd 3a6f cc40
00000220: 020a bdc0 2732 80c0 108c f2bc 4f1e 50bd
00000230: 9386 03c1 ce92 f5bf 5a18 f93f e1f4 11c0
00000240: 9bb7 b1c0 4ab7 e4be 4b89 2a3f a0c2 8840
00000250: b7af 8040 235f aac0 6b88 17c0 cada 3040
00000260: 3dc4 693f 5b4a 14c0 dcc0 42c0 e589 ed3e
00000270: fe03 52bf 7170 9540 5362 27c1 9a31 0341
00000280: 9bbd 5240 0b27 40bf 22ba 5e3f 7514 0640
00000290: 9f02 9b40 1189 ebc0 574d a540 9130 9ac0
000002a0: 2a94 c6c0 3c6e 37c1 6451 92c0 18c7 1740
000002b0: 899d c83f 9ae2 2740 4544 6b40 6535 cfc0
000002c0: 39e1 b4bf 5c6c a1bf d7c0 1d40 e367 36c0
000002d0: 2c47 2b40 5ba2 393f 7259 a43f 21d4 723f
000002e0: 63fb 7c3c 78e6 0440 d591 cdc0 bc09 e73f
000002f0: c81b ccbf 3929 ea3f 66e9 85bf aa16 3f40
00000300: d92c 93bf 3a5b 783f 105f 71c0 9b95 1a3e
00000310: c5e5 5540 16f8 e4bf 8b42 9bbf fcbc 8240
00000320: 3904 1dc0 874b 92bf 139a 58c0 48b7 de3e
00000330: 26e0 9f3f ab07 8bc0 3db5 8cc0 b830 eec0
00000340: 307f 3cc0 6643 41bf 5836 12c1 a8f9 bbbf
00000350: f0af 72c0 1da8 4b40 6a1f a4bf 1811 debf
00000360: 3a41 1f3f b572 30bf 184b 9ebe f381 82bf
00000370: ab03 2ec0 56a3 acbf c95b 9fbf ca67 1bc1
00000380: 5e42 5740 4053 56c0 aca9 e1be 3a17 17c0
00000390: c61d 8bbf 524d 1040 fb6c cf3f 56a8 a5c0
000003a0: 8d5f ee3f 2e38 6fc0 2f3c 8740 77ff 47c0
000003b0: 480b 1640 8b6a d140 d6ba 37c1 9011 1040
000003c0: 791f 5ec0 035f dcc0 2bf2 8ac0 1ec1 79c0
000003d0: a6c8 4ac1 922e 79c1 98ca 96c0 0789 e4bf
000003e0: 8018 b540 48bb 833f 0964 bdbe b306 9d40
000003f0: d0e9 a4c0 7f49 cd3f 7145 1cc0 d405 acc0

l4/W f4 [64, 256]
19.920084 19.755545 15.998744 27.771032 7.1558127 9.590717 20.061634 18.663734
14.058776 18.678898 22.28061 20.625652 19.544067 23.731955 17.49248 19.005589
22.31654 17.135769 19.07564 19.681593 17.978802 18.215324 13.654536 17.386375
17.694279 19.31671 20.575172 24.814823 24.451937 24.355995 24.27571 20.80525
23.67516 16.698124 25.293999 1.7341062 24.813145 21.113827 20.119097 15.380955
13.146952 18.317638 26.558254 18.625626 19.39446 18.40701 10.648629 20.132675
20.265295 27.411211 16.118673 25.152048 25.402143 23.582212 20.79757 27.412638
21.919151 22.801514 21.55504 26.324167 14.315215 26.60254 25.006306 22.324047
17.864613 22.81891 24.144632 17.726034 23.225618 16.586136 22.393625 21.063763
19.453976 18.840918 19.537603 20.886044 20.5443 16.680796 20.080753 17.39891
17.867655 27.239103 23.829103 23.107536 13.101888 7.5146785 18.513184 21.742981
24.560291 24.179945 23.582651 19.277908 22.88843 14.365646 21.260519 17.186995
12.355077 22.259172 12.603219 11.644274 23.252586 17.53213 16.153563 25.158552
14.740527 17.720556 18.351538 9.693542 23.636446 22.814335 19.262613 19.827822
16.75238 19.936865 8.917298 21.485415 13.510169 12.037148 22.798414 15.99396
18.668774 17.949938 17.90883 18.484617 21.973763 20.992672 26.980946 19.620136
22.149664 11.03566 15.350336 21.067566 17.379772 2.7245715 7.1406727 10.011149
9.766697 24.64734 20.789692 22.888514 20.314817 20.642069 16.588982 18.333172
18.536098 19.397709 22.7165 16.87037 21.714823 23.403397 13.430301 23.020597
24.975388 25.485924 0.0015990012 19.833239 24.999216 20.995626 20.330278 19.784225
16.263046 9.789519 17.65923 17.168005 14.023789 24.594267 19.45178 19.431877
27.206768 9.508672 20.463396 17.693172 25.70871 23.448105 18.525993 15.35743
21.81838 20.51948 18.092478 15.830917 15.681388 21.345911 9.657356 23.868765
20.98969 19.355188 21.501448 16.74409 19.29931 23.584925 20.999949 18.87028
20.65358 19.03208 11.290407 24.476664 22.504654 15.638941 18.053984 24.306757
16.574753 19.286133 20.15251 12.638161 23.214687 25.090614 19.846193 14.3105545
23.022512 20.139557 9.727187 18.299467 21.048397 19.8447 19.459286 9.751769
23.885992 20.748728 18.514847 18.162914 3.456499 15.087595 20.57784 16.512608
23.846315 18.64143 20.6044 20.243544 20.253746 17.660778 21.831345 20.19716
21.158087 17.584585 18.985409 17.237581 18.737602 22.601242 25.780138 29.1638
23.67091 23.39801 20.173004 23.893955 23.79481 18.836458 23.511356 15.820773
9.025556 19.135841 17.668997 6.2115765 15.267314 23.039125 24.408257 24.964695
00000000: 555c 9f41 5b0b 9e41 dbfa 7f41 132b de41
00000010: 6bfc e440 9473 1941 3a7e a041 544f 9541
00000020: bff0 6041 626e 9541 b03e b241 5601 a541
00000030: 405a 9c41 0bdb bd41 99f0 8b41 720b 9841
00000040: 4688 b241 0e16 8941 e99a 9841 e773 9d41
00000050: 96d4 8f41 fcb8 9141 fb78 5a41 4c17 8b41
00000060: e28d 8d41 9f88 9a41 f499 a441 c284 c641
00000070: 919d c341 14d9 c241 a734 c241 2771 a641
00000080: ba66 bd41 c295 8541 1c5a ca41 31f7 dd3f
00000090: 5281 c641 1ee9 a841 e9f3 a041 6418 7641
000000a0: ea59 5241 868a 9241 4e77 d441 4801 9541
000000b0: db27 9b41 8e41 9341 c960 2a41 b80f a141
000000c0: 531f a241 294a db41 0bf3 8041 6537 c941
000000d0: 9737 cb41 5fa8 bc41 6c61 a641 154d db41
000000e0: 6c5a af41 8069 b641 b970 ac41 e597 d241
000000f0: 1f0b 6541 00d2 d441 ea0c c841 a697 b241
00000100: baea 8e41 218d b641 3528 c141 ebce 8d41
00000110: 11ce b941 68b0 8441 2526 b341 9682 a841
00000120: bea1 9b41 33ba 9641 034d 9c41 9e16 a741
00000130: ba5a a441 4572 8541 62a5 a041 f830 8b41
00000140: f5f0 8e41 afe9 d941 01a2 be41 3cdc b841
00000150: 55a1 5141 3f78 f040 001b 9441 a0f1 ad41
00000160: 7a7b c441 8770 c141 45a9 bc41 2839 9a41
00000170: 811b b741 b0d9 6541 8b15 aa41 f77e 8941
00000180: 65ae 4541 c912 b241 c9a6 4941 f24e 3a41
00000190: 4c05 ba41 cd41 8c41 7f3a 8141 b744 c941
000001a0: 33d9 6b41 b3c3 8d41 f3cf 9241 bf18 1b41
000001b0: 7117 bd41 c283 b641 d519 9a41 619f 9e41
000001c0: e004 8641 b37e 9f41 41ad 0e41 21e2 ab41
000001d0: a729 5841 2998 4041 2763 b641 43e7 7f41
000001e0: a659 9541 7999 8f41 4945 8f41 7fe0 9341
000001f0: 44ca af41 fef0 a741 fad8 d741 0af6 9c41
00000200: 8332 b141 1092 3041 fa9a 7541 608a a841
00000210: c609 8b41 615f 2e40 6480 e440 ab2d 2041
00000220: 6444 1c41 c12d c541 4a51 a641 ad1b b741
00000230: bf84 a241 f522 a541 3cb6 8441 56aa 9241
00000240: ee49 9441 822e 9b41 64bb b541 85f6 8641
00000250: f5b7 ad41 283a bb41 83e2 5641 2f2a b841
00000260: 98cd c741 2ce3 cb41 9495 d13a 79aa 9e41
00000270: 65fe c741 0bf7 a741 69a4 a241 1846 9e41
00000280: b81a 8241 dfa1 1c41 1a46 8d41 1358 8941
00000290: 7161 6041 0fc1 c441 3f9d 9b41 7c74 9b41
000002a0: 76a7 d941 8523 1841 09b5 a341 9e8b 8d41
000002b0: 70ab cd41 b895 bb41 3c35 9441 09b8 7541
000002c0: 0b8c ae41 e527 a441 65bd 9041 704b 7d41
000002d0: f7e6 7a41 6dc4 aa41 8884 1a41 3bf3 be41
000002e0: e3ea a741 6dd7 9a41 f702 ac41 e5f3 8541
000002f0: fd64 9a41 edad bc41 e5ff a741 55f6 9641
00000300: 883a a541 b341 9841 82a5 3441 35d0 c341
00000310: 8809 b441 1a39 7a41 8f6e 9041 3d74 c241
00000320: 1899 8441 004a 9a41 5738 a141 e835 4a41
00000330: aeb7 b941 94b9 c841 01c5 9e41 08f8 6441
00000340: 1b2e b841 d01d a141 8fa2 1b41 4f65 9241
00000350: 1e63 a841 f2c1 9e41 9eac 9b41 3f07 1c41
00000360: 8316 bf41 65fd a541 681e 9441 a64d 9141
00000370: 4837 5d40 ca66 7141 6b9f a441 d219 8441
00000380: 41c5 be41 a621 9541 d0d5 a441 c7f2 a141
00000390: ac07 a241 4649 8d41 98a6 ae41 c993 a141
000003a0: c343 a941 3bad 8c41 1ee2 9741 91e6 8941
000003b0: 9ce6 9541 58cf b441 b93d ce41 764f e941
000003c0: 065e bd41 202f bb41 5062 a141 d226 bf41
000003d0: c55b be41 11b1 9641 4217 bc41 e321 7d41
000003e0: ad68 1041 3416 9941 1b5a 8d41 3cc5 c640
000003f0: eb46 7441 2150 b841 1c44 c341 b2b7 c741

l4/b f4 [64]
-94.029076 -94.033806 -94.01389 -94.04275 -94.03611 -94.04641 -94.029106 -94.03504
-94.03103 -94.02822 -94.02834 -94.04179 -94.04362 -94.04245 -94.05876 -94.0359
-94.04243 -94.022995 -94.048965 -94.08881 -94.03379 -94.02547 -94.02548 -94.02525
-94.02932 -94.042404 -94.09209 -94.02074 -94.0527 -94.04056 -94.03118 -94.05717
-94.0611 -94.02417 -94.0526 -94.04399 -94.056366 -94.031425 -94.04515 -94.02278
-94.03769 -94.05668 -94.058044 -94.04829 -94.06686 -94.02328 -94.082405 -94.04939
-94.044914 -94.06381 -94.07538 -94.04976 -94.0649 -94.062645 -94.05315 -94.04436
-94.02621 -94.04368 -94.04572 -94.05915 -94.048195 -94.0672 -94.03925 -94.00964
00000000: e30e bcc2 4f11 bcc2 1d07 bcc2 e315 bcc2
00000010: 7d12 bcc2 c317 bcc2 e70e bcc2 f111 bcc2
00000020: e30f bcc2 730e bcc2 830e bcc2 6515 bcc2
00000030: 5516 bcc2 bc15 bcc2 161e bcc2 6112 bcc2
00000040: b915 bcc2 c60b bcc2 1219 bcc2 792d bcc2
00000050: 4d11 bcc2 0a0d bcc2 0c0d bcc2 ee0c bcc2
00000060: 030f bcc2 b615 bcc2 262f bcc2 9e0a bcc2
00000070: fb1a bcc2 c414 bcc2 f70f bcc2 451d bcc2
00000080: 481f bcc2 600c bcc2 ee1a bcc2 8616 bcc2
00000090: dc1c bcc2 1710 bcc2 1e17 bcc2 aa0b bcc2
000000a0: 4c13 bcc2 051d bcc2 b81d bcc2 b918 bcc2
000000b0: 3b22 bcc2 eb0b bcc2 312a bcc2 4a19 bcc2
000000c0: ff16 bcc2 ac20 bcc2 9826 bcc2 7a19 bcc2
000000d0: 3b21 bcc2 1320 bcc2 361b bcc2 b616 bcc2
000000e0: 6b0d bcc2 5d16 bcc2 6917 bcc2 491e bcc2
000000f0: ad18 bcc2 6822 bcc2 1914 bcc2 f004 bcc2

l3/W f4 [256, 256]
5.0352316 3.9690855 6.389283 16.19938 11.617616 4.083441 4.137756 -4.2868576
-8.929395 -11.357622 1.8536013 -2.6350443 -7.7451253 -4.1667037 6.8458595 -4.5820265
13.658812 17.167856 7.18425 6.5539002 0.50081515 10.19203 8.776509 0.75919425
-12.050362 1.9007021 2.45469 -13.879048 3.7974741 1.1824795 0.54397774 9.421841
0.07076281 8.297719 -0.099253915 7.6760764 5.858208 -8.591609 -0.14242175 19.015062
-6.385189 7.4518604 -0.3672178 3.5195818 0.38808507 18.107634 -0.6750829 3.3732822
-10.88903 0.81485444 10.886147 -6.6973357 -0.25808033 10.006822 -11.0555 -21.046719
-6.159436 9.65174 -4.7114215 -14.190591 16.62333 -0.7236317 2.1113577 -19.858183
0.95866394 6.590467 -9.398824 6.7158685 -2.2457752 -28.937008 3.157627 7.849705
6.5757456 -8.760387 -6.5923405 6.7990856 -4.551336 -5.9301596 5.0566506 0.6286502
2.1519358 7.072784 10.007929 10.365789 4.916036 -6.9516134 -19.383022 1.2316613
-10.444597 -0.7675299 10.409122 9.811696 -11.068621 0.42826328 9.655524 -0.36410517
-3.3385727 -3.838362 -11.496882 10.112481 4.0319314 -8.584497 8.376242 3.808784
6.1990795 5.7180114 26.249409 6.1682005 -2.714016 -3.494004 4.420916 3.6951594
-5.2200522 0.34623277 -0.07865827 -6.517681 5.380183 7.1925287 5.1009855 5.4139028
-12.887717 -17.1974 -0.17509246 0.26230538 9.972812 7.2882986 3.0126374 1.3745692
2.066787 -8.875713 -1.6638482 7.9282055 7.699217 -4.7314105 0.9470429 8.167051
13.368257 -1.9942205 -18.933073 -3.0521367 9.268434 -7.0100684 9.550134 5.309773
4.3032966 -6.431003 0.79277736 -8.936069 3.2550771 7.9551415 12.831138 -14.428171
10.115552 -13.93575 1.1967372 -11.666228 4.0853353 15.470322 5.0707297 1.6774894
-0.6306778 -7.7044177 -10.915285 21.642834 9.495193 8.315725 -13.246412 7.6230955
7.3779407 3.197805 -1.8355157 6.5644083 -0.18784651 5.126632 16.166004 -9.542714
-3.1476934 6.725071 3.4517734 -13.5282 -0.6850685 17.820457 0.15042512 -2.0826
6.713239 7.1705313 7.156328 13.170087 0.05067126 5.76692 11.601438 6.73748
6.2348022 21.831299 8.160714 -1.9576555 -4.892444 7.5408783 -10.363457 13.957499
6.065993 -11.990565 5.0829544 19.454977 9.485049 6.2988534 11.744861 4.001683
-5.6078677 -5.8117957 -15.099644 -1.2952683 19.392769 3.4274547 15.426336 6.4307203
7.205812 6.5926285 4.3431363 6.7483473 2.1024542 -1.4062114 9.179287 5.0430965
5.2879243 -10.234762 -10.311143 -7.787766 5.90896 5.1791563 -1.9071112 1.52213
-0.85010266 8.078827 1.0338092 9.391314 6.0751204 -9.124047 -5.781511 -22.403633
-9.557029 6.351623 7.715898 21.521326 12.199812 3.5411131 0.6840895 -1.2237505
-8.897077 15.622613 4.120438 -10.029406 12.264676 13.306009 11.76533 6.9912944
00000000: 9e20 a140 7f05 7e40 0275 cc40 5598 8141
00000010: c1e1 3941 8cab 8240 7f68 8440 f02d 89c0
00000020: cdde 0ec1 d2b8 35c1 cf42 ed3f 91a4 28c0
00000030: 11d8 f7c0 a355 85c0 4811 db40 f69f 92c0
00000040: 7e8a 5a41 c557 8941 60e5 e540 8db9 d140
00000050: 6c35 003f 8e12 2341 956c 0c41 8e5a 423f
00000060: 48ce 40c1 354a f33f a419 1d40 9510 5ec1
00000070: d109 7340 7d5b 973f 2042 0b3f dcbf 1641
00000080: 18ec 903d 75c3 0441 a345 cbbd 6ba2 f540
00000090: 7176 bb40 3b77 09c1 02d7 11be d91e 9841
000000a0: 7853 ccc0 a475 ee40 f903 bcbe d440 6140
000000b0: 16b3 c63e 6fdc 9041 3cd2 2cbf dbe3 5740
000000c0: 7839 2ec1 4d9a 503f a82d 2e41 9350 d6c0
000000d0: 1b23 84be f11b 2041 54e3 30c1 ae5f a8c1
000000e0: 1a1a c5c0 876d 1a41 f7c3 96c0 a90c 63c1
000000f0: 94fc 8441 ed3f 39bf 7c20 0740 8fdd 9ec1
00000100: 006b 753f 1be5 d240 9561 16c1 65e8 d640
00000110: c8ba 0fc0 fe7e e7c1 9016 4a40 c930 fb40
00000120: 826c d240 8c2a 0cc1 74f4 d2c0 1c92 d940
00000130: 8ba4 91c0 dec3 bdc0 15d0 a140 38ef 203f
00000140: 51b9 0940 3f54 e240 7a20 2041 46da 2541
00000150: 2b50 9d40 9e73 dec0 6e10 9bc1 14a7 9d3f
00000160: 121d 27c1 d77c 44bf c48b 2641 b5fc 1c41
00000170: 1219 31c1 5345 db3e 077d 1a41 fe6b babe
00000180: 2dab 55c0 b9a7 75c0 3bf3 37c1 b9cc 2141
00000190: 9505 8140 1a5a 09c1 1605 0641 1ec3 7340
000001a0: dc5e c640 f3f9 b640 cafe d141 e661 c540
000001b0: 70b2 2dc0 c39d 5fc0 2578 8d40 7e7d 6c40
000001c0: ab0a a7c0 6c45 b13e 9617 a1bd d890 d0c0
000001d0: 762a ac40 3229 e640 463b a340 b13e ad40
000001e0: 1734 4ec1 4694 89c1 704b 33be e44c 863e
000001f0: a390 1f41 be39 e940 0dcf 4040 e2f1 af3f
00000200: 3d46 0440 ec02 0ec1 faf8 d4bf dcb3 fd40
00000210: fc5f f640 b767 97c0 6771 723f 3eac 0241
00000220: 61e4 5541 9e42 ffbf ef76 97c1 3556 43c0
00000230: 814b 1441 7b52 e0c0 59cd 1841 a9e9 a940
00000240: 9bb4 8940 c7ca cdc0 75f3 4a3f 23fa 0ec1
00000250: 2f53 5040 8590 fe40 574c 4d41 cad9 66c1
00000260: 4dd9 2141 d5f8 5ec1 af2e 993f dfa8 3ac1
00000270: 11bb 8240 7086 7741 6b43 a240 f9b7 d63f
00000280: 1a74 21bf 978a f6c0 02a5 2ec1 8624 ad41
00000290: 4fec 1741 360d 0541 4ef1 53c1 66f0 f340
000002a0: 1718 ec40 d6a8 4c40 2ef2 eabf a20f d240
000002b0: d65a 40be 5f0d a440 fa53 8141 f5ae 18c1
000002c0: cf73 49c0 c833 d740 dbe9 5c40 8273 58c1
000002d0: a660 2fbf 4c90 8e41 0b09 1a3e 5249 05c0
000002e0: dbd2 d640 fe74 e540 a400 e540 adb8 5241
000002f0: ab8c 4f3d 9c8a b840 7d9f 3941 7099 d740
00000300: 8083 c740 80a6 ae41 4992 0241 7594 fabf
00000310: e78e 9cc0 e04e f140 b8d0 25c1 ea51 5f41
00000320: 9d1c c240 5bd9 3fc1 90a7 a240 cba3 9b41
00000330: c3c2 1741 3590 c940 f3ea 3b41 ca0d 8040
00000340: a773 b3c0 3bfa b9c0 2498 71c1 5acb a5bf
00000350: 6424 9b41 6b5b 5b40 46d2 7641 76c8 cd40
00000360: 0396 e640 d0f6 d240 f9fa 8a40 76f2 d740
00000370: 9c8e 0640 bcfe b3bf 5cde 1241 0c61 a140
00000380: ad36 a940 96c1 23c1 71fa 24c1 6135 f9c0
00000390: 3316 bd40 a6bb a540 381c f4bf 28d5 c23f
000003a0: 54a0 59bf e042 0141 dc53 843f d242 1641
000003b0: 6367 c240 19fc 11c1 2302 b9c0 a43a b3c1
000003c0: 97e9 18c1 7f40 cb40 a3e8 f640 ad2b ac41
000003d0: 6e32 4341 99a1 6240 7d20 2f3f dba3 9cbf
000003e0: 6d5a 0ec1 39f6 7941 a1da 8340 7278 20c1
000003f0: 1d3c 4441 6ae5 5441 cb3e 3c41 afb8 df40

l3/b f4 [256]
1.5425897 3.4880412 0.8175112 3.6601198 12.107911 10.51206 -0.41653034 3.4418283
1.2704331 -5.646718 -3.7981815 8.223996 -2.1414273 -5.276263 -0.4075456 7.3384485
3.3470623 -1.4881687 2.2905858 2.121254 -1.4994972 -3.306169 17.198107 4.4409156
-2.903286 5.256877 0.6472691 4.7719502 -2.387075 -0.26920187 2.6028106 1.5357265
-1.2815279 3.5864124 5.735168 47.76481 -0.12819864 -1.37661 -0.8553586 2.0587707
9.95299 2.0964108 3.6801887 7.762305 0.37177157 6.5402484 19.156149 5.946372
1.8352143 1.7975317 3.0037656 0.1655988 -0.40659967 0.89251935 2.4501488 4.3253016
-3.1575375 -0.27648592 0.9628716 1.8199047 13.918775 1.7184798 -0.106695585 2.0316825
-1.7542316 3.0832965 4.0740657 2.748003 4.726684 6.506243 4.302328 -1.7874577
-4.054229 4.884188 6.340651 4.4795055 3.5441163 -4.1375794 5.076394 -2.5294633
3.3253255 3.267737 -0.43833897 5.632656 4.5583706 20.210497 4.9577317 0.7591587
3.9804468 0.019505633 3.9810178 4.49021 2.4487822 2.6434762 6.768472 7.567719
12.886761 3.7885175 -3.1042557 -7.4758134 0.7248844 0.57184386 0.5037902 3.7235339
-7.64472 1.1953249 2.8154511 20.571308 -0.18036634 4.2640905 -4.274266 -0.024269955
8.153779 1.6820954 17.591396 7.1014576 17.373127 3.1216192 1.3459458 -3.9082055
0.5925398 5.079899 -2.9914176 5.8320584 -0.10134589 -4.5661244 -0.2506286 6.6820145
2.4784858 4.112991 0.84381074 -3.5992982 5.196156 -6.068724 6.3516717 19.036928
-1.3691069 2.835753 3.0303876 -2.2675562 -2.2628043 2.04586 -2.3856728 4.6020274
7.4786634 -1.8068848 2.6011274 -4.971846 2.8226595 3.614135 7.5541134 2.1907938
4.4838905 -1.8602742 10.532278 6.457521 -0.3365506 -1.3574097 -1.9086467 4.165166
2.668783 22.778572 -1.3176558 7.9131546 5.332947 2.385792 5.9582825 0.72861785
3.6093307 24.023975 8.086103 2.4434977 2.3352437 0.15636897 6.9343743 10.558517
5.369248 6.623425 0.9396078 4.460125 7.887286 5.3177614 16.118414 3.8289776
-0.2366356 5.8143396 4.240699 -3.331638 2.3640828 -0.58085185 3.7282572 2.4842117
6.127637 -5.3226986 19.39249 3.7411678 -0.902782 9.683041 1.701328 5.0563636
-3.8638697 -3.6348858 0.5602421 8.193052 1.455883 2.3023067 6.003268 18.97242
1.9118947 4.521302 19.477268 6.5373707 6.992603 4.3949256 2.8549585 17.0518
6.489374 -1.4353796 1.2752856 2.723878 42.65821 4.100595 0.31340614 -4.387076
6.5846534 1.7471101 1.6801274 8.52838 -3.8444598 -0.7674259 3.1860287 -3.0480244
4.3177433 0.8883756 0.9612537 -1.2256316 5.3737035 -1.565378 1.9191581 5.4022956
-3.520489 5.770403 4.4641294 6.2177796 0.11957172 2.5096 -0.607839 4.7385764
17.797413 1.7968056 1.471543 39.18856 7.8138633 -0.025470296 5.3169956 1.5657432
00000000: 9473 c53f 113c 5f40 6a48 513f 673f 6a40
00000010: 01ba 4141 6631 2841 7743 d5be ea46 5c40
00000020: 8d9d a23f eab1 b4c0 6815 73c0 7d95 0341
00000030: 250d 09c0 26d7 a8c0 d1a9 d0be 92d4 ea40
00000040: 4536 5640 507c bebf f598 1240 a0c2 0740
00000050: 86ef bfbf 4698 53c0 b995 8941 fb1b 8e40
00000060: 70cf 39c0 5638 a840 6eb3 253f d1b3 9840
00000070: d6c5 18c0 d4d4 89be 7394 2640 b092 c43f
00000080: 1b09 a4bf c887 6540 7f86 b740 2a0f 3f42
00000090: 8146 03be c234 b0bf c8f8 5abf e6c2 0340
000000a0: 723f 1f41 982b 0640 3688 6b40 cd64 f840
000000b0: d858 be3e b749 d140 cb3f 9941 ae48 be40
000000c0: 4de8 ea3f 8515 e63f b23d 4040 bb92 293e
000000d0: d52d d0be 267c 643f 3dcf 1c40 df68 8a40
000000e0: 1815 4ac0 908f 8dbe c17e 763f a3f2 e83f
000000f0: 4db3 5e41 25f7 db3f 3783 dabd 1607 0240
00000100: a98a e0bf bb54 4540 bf5e 8240 48df 2f40
00000110: ff40 9740 2533 d040 acac 8940 6acb e4bf
00000120: 3ebc 81c0 454b 9c40 9de6 ca40 1c58 8f40
00000130: cdd2 6240 0d67 84c0 d271 a240 bae2 21c0
00000140: 22d2 5440 9a22 5140 f76d e0be b83e b440
00000150: 2cde 9140 19af a141 bda5 9e40 3958 423f
00000160: a4bf 7e40 47ca 9f3c ffc8 7e40 cdaf 8f40
00000170: d9b8 1c40 b72e 2940 5397 d840 c12a f240
00000180: 2c30 4e41 1277 7240 20ac 46c0 dd39 efc0
00000190: 0692 393f 5c64 123f 65f8 003f 614e 6e40
000001a0: 8ca1 f4c0 6800 993f 5a30 3440 0a92 a441
000001b0: f4b1 38be 6e73 8840 c9c6 88c0 c9d1 c6bc
000001c0: e175 0241 e74e d73f 2ebb 8c41 243f e340
000001d0: 2afc 8a41 9cc8 4740 f447 ac3f 0a20 7ac0
000001e0: b0b0 173f 888e a240 6373 3fc0 39a0 ba40
000001f0: 6f8e cfbd b11d 92c0 6452 80be 10d3 d540
00000200: 839f 1e40 9f9d 8340 fb03 583f e75a 66c0
00000210: e946 a640 fd32 c2c0 e540 cb40 a14b 9841
00000220: e53e afbf fa7c 3540 dff1 4140 a41f 11c0
00000230: c9d1 10c0 5fef 0240 ddae 18c0 cf43 9340
00000240: 3651 ef40 0048 e7bf df78 2640 5d19 9fc0
00000250: 74a6 3440 fd4d 6740 4cbb f140 f735 0c40
00000260: 087c 8f40 771d eebf 3684 2841 03a4 ce40
00000270: 5c50 acbe 9abf adbf 894e f4bf 0a49 8540
00000280: 57cd 2a40 843a b641 f2a8 a8bf 9038 fd40
00000290: 80a7 aa40 d1b0 1840 40aa be40 b386 3a3f
000002a0: 46ff 6640 1a31 c041 ae60 0141 4462 1c40
000002b0: a274 1540 301f 203e 65e6 dd40 b0ef 2841
000002c0: e1d0 ab40 19f3 d340 238a 703f 58b9 8e40
000002d0: a664 fc40 1a2b aa40 83f2 8041 f80d 7540
000002e0: 9a50 72be 120f ba40 ceb3 8740 8f39 55c0
000002f0: 224d 1740 b5b2 14bf c49b 6e40 53fd 1e40
00000300: 9a15 c440 8c53 aac0 d223 9b41 4b6f 6f40
00000310: b91c 67bf bced 1a41 1ec5 d93f bbcd a140
00000320: a449 77c0 f8a1 68c0 076c 0f3f be16 0341
00000330: 605a ba3f fe58 1340 c51a c040 84c7 9741
00000340: f7b8 f43f 82ae 9040 72d1 9b41 2432 d140
00000350: 67c3 df40 3ba3 8c40 a4b7 3640 166a 8841
00000360: f4a8 cf40 85ba b7bf 8f3c a33f 0454 2e40
00000370: 02a2 2a42 1338 8340 c576 a03e ed62 8cc0
00000380: 7bb5 d240 4ea1 df3f 6a0e d73f 3f74 0841
00000390: a10b 76c0 0676 44bf e5e7 4b40 d512 43c0
000003a0: f42a 8a40 956c 633f b914 763f 7fe1 9cbf
000003b0: 61f5 ab40 4e5e c8bf f9a6 f53f 9bdf ac40
000003c0: b14f 61c0 24a7 b840 26da 8e40 0df8 c640
000003d0: 05e2 f43d 499d 2040 569b 1bbf 6ba2 9740
000003e0: 1a61 8e41 bafd e53f 855b bc3f 16c1 1c42
000003f0: 2b0b fa40 15a7 d0bc d424 aa40 466a c83f
