size8/agent_black_64000/target_model.npz (npz, 609514 bytes, 8 tensors)

l2/W f4 [256, 256]
00000000: 058a 1141 734a 01c1 1901 a9c1 3d22 d1c0
00000010: f02d 7640 27ea 3241 bcb1 a741 a734 67c0
00000020: 1b95 7241 c017 1341 5e66 9abf 1577 6341
00000030: 7d2d 54c0 27fa 3d40 40ec dfc1 7440 0340
00000040: 2608 0241 8f38 59bf 7e0d adc1 10cd c8c0
00000050: cbd2 a5c1 bf33 5440 a847 f940 5dcc b2c0
00000060: 168c 99c0 ba6d bdbf 62e2 9ec1 87bd 38c1
00000070: 8522 cb41 e495 c941 62f3 f2bf b24f 83c0
00000080: 862c 36c1 8b99 5dc1 640c 8440 93de 0941
00000090: 119c 3041 2017 6b41 e8e2 b6c1 7a4d 9c41
000000a0: c8d4 6dc1 90e6 5ac1 f025 cf40 a650 a9c1
000000b0: 3c69 cec0 a2e4 8041 6abf 5d41 55f4 8e40
000000c0: 9d72 46c0 1e1d cac1 6a6b a83f 9e44 f240
000000d0: 92a8 8c40 9a8c aac1 9f9b e7bf 197b e13f
000000e0: 4797 11c1 42a4 5940 60b6 cd40 b610 cac0
000000f0: bccf 74c1 4b72 8c40 7468 0ac1 3055 5fc0
00000100: 4cf7 8c40 0711 2bc1 728a 06c2 a664 21c1
00000110: 13e3 b9bf cc17 1d41 6923 1f41 3865 2541
00000120: 2cc7 5941 fc5a d440 d4f4 26c1 1687 3741
00000130: e45e e6c0 3aba 51c0 da6a 2841 0b15 de40
00000140: 0e36 4ac0 bb0f cfc0 d93f ba40 73d6 d4c0
00000150: 9943 883f ed89 1441 1c82 e6c0 099c 0541
00000160: 37e4 2d41 a585 52c1 5037 483f b84a 0740
00000170: e263 c9c1 192f 6141 cb28 d140 e7cf d540
00000180: 1697 75c1 fc46 b63f d021 8040 af44 e7c0
00000190: 1daa 72c1 ab73 e5c1 a695 adc0 db60 03c1
000001a0: d1d9 07c1 9c89 73c1 c305 c6c0 1c46 03c2
000001b0: 6779 1d41 4728 0fc2 38fe abc0 a455 4140
000001c0: 8343 92c0 5e75 4fc1 e685 45c0 6b61 6ac1
000001d0: 15f3 2d40 d262 45c1 7eb0 12c1 e0e2 a3c0
000001e0: 7feb 7bc0 439b 9cc1 b88b 49c0 1c73 2ec2
000001f0: b428 7440 1215 35c1 e275 5ebf 1879 2cc1
00000200: 9a7d 9c3f 99c7 f6c1 2a8f b53f b586 2941
00000210: 4ae4 a140 3c04 0a41 0c4b 0e40 8ccc 7a41
00000220: 14ef e2c1 2793 7ac1 a412 2241 6046 25c1
00000230: 5e48 2ec0 ae47 3340 9121 9ac0 a494 2541
00000240: 145f f1c0 0c23 40c1 288d a841 6b6a d3be
00000250: b7b0 1441 9209 e540 1abf 93c0 f378 45be
00000260: 803a 4240 8e87 eabf 549c 8d3f 2f06 7f40
00000270: b6f7 f6c0 89b2 d3c0 e436 25bf d91d 55bf
00000280: 22b4 d7bf 1ecb d0c0 60b0 c940 b3a5 3d41
00000290: bad8 01c1 43ea 11c2 efea f840 605e 9c40
000002a0: b82c 3ec1 4265 49c0 0a09 98c1 2074 86c0
000002b0: b71a 99c0 cdb3 e03f 7ee9 f5c1 e8fb 77c1
000002c0: 1ef8 8bc0 db1f 4840 165c 5041 df7e 1341
000002d0: 2fba 57c1 d40d bc41 5542 89c1 dcc7 6940
000002e0: d501 6440 b302 93c1 554e 943d 9461 4a40
000002f0: 38bc 48c1 aa76 3841 68e3 3741 874c 7e41
00000300: 17dc 2f3f 3fee 6f41 56f8 2f40 2627 e7c0
00000310: 3cf0 3141 28a1 f340 14d5 8d40 7aa2 8041
00000320: 22a1 04c1 5acc 8ac1 1b4b 1cc2 4577 acc1
00000330: b94c c7c0 dffd b1c1 d6a8 dbc0 fd90 18c1
00000340: f7bc 3941 2b36 1ac1 0bca 0ec2 89e2 433e
00000350: 2f21 6bbf 9173 f3bf 00b5 dac1 7e34 83c1
00000360: e7f0 2b41 d20c 21c0 4968 e9c1 75be 70c1
00000370: bb57 f43f df7a a2c0 e475 313f 5dea 08c1
00000380: e734 31c1 445d efc1 3af4 1b40 b1cd 7ec1
00000390: 9a33 0341 1e7e e5c1 8da0 6341 a715 b840
000003a0: 26c9 a140 95aa 8ac1 c54e b040 619c 1cc1
000003b0: 9a80 75c0 36f1 4740 772e 4dc1 b4cf 93bf
000003c0: 7780 63c0 a588 0d40 8d0f c13f df16 9fc0
000003d0: fd22 adc1 4d23 a9c1 8db3 cbbe 32fd cdc1
000003e0: 804c b141 963d b341 d30b c940 6000 0b40
000003f0: 93ea 633f e37e 5cc1 8f09 2541 f26f 7841
9.096196 -8.080676 -21.125536 -6.5354295 3.8465538 11.182166 20.961784 -3.6125886
15.161403 9.193298 -1.206249 14.216573 -3.3152764 2.968393 -27.990356 2.050809
8.126989 -0.84851927 -21.631588 -6.275032 -20.727926 3.3156583 7.789997 -5.5874467
-4.7983503 -1.4799111 -19.860538 -11.546271 25.391855 25.198189 -1.8980525 -4.1034784
-11.38587 -13.849986 4.1265125 8.616839 11.038102 14.693146 -22.860794 19.53783
-14.864449 -13.68129 6.473381 -21.16438 -6.450346 16.111637 13.859232 4.4673257
-3.1007454 -25.264217 1.315778 7.570876 4.3955774 -21.318653 -1.8094367 1.7615691
-9.099433 3.4006505 6.4285126 -6.31454 -15.300716 4.388952 -8.650501 -3.4895744
4.4051876 -10.691657 -33.6352 -10.087072 -1.4522423 9.81831 9.946145 10.337212
13.611126 6.6361065 -10.4347725 11.47048 -7.1990833 -3.2769914 10.526087 6.9400687
-3.1595492 -6.47067 5.820294 -6.651178 1.0645629 9.283673 -7.2033825 8.3505945
10.8682165 -13.157628 0.782094 2.1139355 -25.17377 14.073998 6.5362296 6.6816287
-15.349386 1.4240413 4.0041275 -7.227134 -15.166532 -28.681479 -5.4245176 -8.211146
-8.490678 -15.221096 -6.1882033 -32.818466 9.842139 -35.789333 -5.3747826 3.020852
-4.570741 -12.966154 -3.0862975 -14.648784 2.7179615 -12.336626 -9.168089 -5.1214447
-3.9362485 -19.575811 -3.1491528 -43.61241 3.8149843 -11.317644 -0.86898625 -10.779564
1.222583 -30.84746 1.4184315 10.595387 5.0591173 8.626034 2.2233305 15.674938
-28.366737 -15.660926 10.129551 -10.329681 -2.723167 2.80125 -4.8165975 10.348789
-7.542856 -12.008556 21.068924 -0.41292128 9.293143 7.1574183 -4.617078 -0.1928442
3.0348206 -1.8322618 1.1063333 3.9847524 -7.717738 -6.615544 -0.6453688 -0.8324867
-1.6851847 -6.5247946 6.30278 11.852954 -8.115412 -36.47877 7.7786784 4.8865204
-11.885918 -3.1468053 -19.004414 -4.2016754 -4.784511 1.7554871 -30.73901 -15.499001
-4.3740377 3.1269443 13.022482 9.218474 -13.482955 23.506752 -17.157389 3.6528234
3.5626118 -18.376318 0.07241503 3.1622057 -12.545952 11.528971 11.493019 15.893683
0.68695205 14.995666 2.7495322 -7.223529 11.121151 7.6134224 4.4322605 16.079334
-8.289339 -17.349781 -39.073345 -21.558237 -6.2281156 -22.24896 -6.86436 -9.535398
11.608634 -9.638225 -35.697308 0.19129385 -0.9184751 -1.9019643 -27.338379 -16.40063
10.746314 -2.5164075 -29.17592 -15.046498 1.9089273 -5.077499 0.6932051 -8.557218
-11.075416 -29.92054 2.4367814 -15.925218 8.200098 -28.68658 14.226697 5.752643
5.0558043 -17.333292 5.5096154 -9.788178 -3.8359742 3.1240973 -12.823844 -1.1547761
-3.5547159 2.2114651 1.5082871 -4.971542 -21.642084 -21.142237 -0.39785424 -25.74863
22.162354 22.405071 6.2826934 2.171898 0.89029807 -13.780978 10.314834 15.52733

l2/b f4 [256]
00000000: 5bec 3341 2dce 5740 2df3 7440 2206 5241
00000010: ebc8 c540 1804 4d41 fe14 863e 1e85 bc3f
00000020: 9d62 1341 4316 be40 0cc1 a240 b035 1041
00000030: 0a44 9240 042b 8340 658b 8f40 7504 1f3e
00000040: 87ae 21bd 9bf8 a840 9f2f a740 0b3f bfbf
00000050: 7f47 9940 04ec 2741 5eae 8b41 361b bb40
00000060: a579 92bb 23ce 4cbf a648 9740 b5fb 6e40
00000070: 7261 4e40 dc9b c7bf 9f48 4a41 ba13 a340
00000080: 6d8f 0d41 0909 6940 e525 e240 ba08 2e3f
00000090: 1c6d 13bd c63d 8840 901c dfbf f758 e040
000000a0: 335f 9e40 7f1a 9a40 155f fd40 b76a a7be
000000b0: 1bc8 1a41 3b9d 3241 43d7 19c0 4f24 f340
000000c0: d260 73c0 db75 4a40 824c 2741 7a11 debf
000000d0: cf94 1a41 221c 0241 1b7a aa40 9121 963f
000000e0: 0e71 38c0 c518 0641 420e c040 6b07 ae40
000000f0: 2b9e 3540 444d 2fbf 246e 6140 2dc1 b63e
00000100: 010f dc40 7949 2dbf 650b c240 bf8f 1341
00000110: 6f9a 40c0 0d76 51c0 5ceb 3440 3ede ab40
00000120: a8c9 c340 6965 1140 6f6d 9dc0 b902 1241
00000130: 8958 0440 3277 18c0 addf 1341 4a5d cf40
00000140: 54b7 d540 ba6f c540 b69c 1341 c7c1 f240
00000150: 4283 e340 3e38 59bf bdbc 2340 fea7 60c0
00000160: afa1 b3c0 fe18 c640 0048 12c0 dc5a 9c40
00000170: 6ef0 d6c0 98ca 1941 b59a 6ebf f6a6 c8bf
00000180: 48fc ac3f 3c00 6e40 ba6c 2440 dadf 05bf
00000190: a3d3 0a41 a680 c240 428b 9940 0286 b440
000001a0: a19c 993e d015 b840 4212 053f 82be a1bf
000001b0: 3d35 4641 ebbe 2241 51c0 9040 97eb 0141
000001c0: 6e3b fe40 ba8f 1f41 e4c6 98be f8ed 0e41
000001d0: e8e7 bf40 40db b140 b21f 233d 49d1 fb40
000001e0: 2925 2241 188f 5a41 1378 d83f eabf 1241
000001f0: 7bc1 4041 e021 c240 bbe0 2341 0569 a340
00000200: 9db9 cebf c423 a640 720b 8cbf fdc3 bc40
00000210: 9990 c440 a7e4 3541 0564 4a40 d7c3 2bbf
00000220: 0d7a 1041 24da e040 a0ba 2740 7092 2441
00000230: df79 8140 c8c4 33c0 bf02 0b41 3a50 1e41
00000240: f2a5 b340 161d 6fc0 3c63 adc0 1123 9640
00000250: e727 1c40 5c38 1ac0 2465 2a41 ad2a b73f
00000260: 8eb1 0741 42e6 6a40 0628 7e40 0165 733e
00000270: bc46 db40 4d90 f540 2e8b 9640 9276 cfc0
00000280: c0c3 b740 61b2 c440 c392 bdc0 9741 2640
00000290: 4704 4940 bcbe 523e a615 a9bf 5840 2541
000002a0: 95a7 1941 57e0 9f40 3d95 5841 9d00 e840
000002b0: 388f fa40 a6f7 2740 5d2f 6ac0 9577 8640
000002c0: e9cd da3e d6fd 9340 9df6 4f3f ca32 aa40
000002d0: 7c64 8540 cde5 ff40 8027 26c0 13e9 f93f
000002e0: 638c a840 2baf 2540 72a7 883f caf1 cf40
000002f0: f6cb a140 9848 2241 401c 0740 a945 7c40
00000300: c906 fa40 1e02 3040 f386 fc40 a358 4f40
00000310: 1b49 3d40 592c 0641 3e95 843f f412 d040
00000320: 0cff f540 f993 ec40 aa2e 2f41 c4fa d540
00000330: 333f eb40 5a83 3741 e457 563e 379b 0fbf
00000340: 2715 e03f 4923 4e41 3681 1441 d12e c340
00000350: 8847 c240 e9c0 a040 0878 0941 3caa fe40
00000360: 1dfa 00c0 4c83 2a41 9b07 e840 3e40 b240
00000370: 68bc a540 7d23 3041 88e7 a240 0c69 d640
00000380: ec12 fe40 0c7b a440 dd2d 2f40 6a3e 3841
00000390: 7546 b8bf f09c 5b41 f256 cb40 963b eb40
000003a0: 81b8 4cc0 a6f6 5dbf 676f 54bf 8e3f 093f
000003b0: 54df 2141 3ce0 bd3f ec35 7e40 a5bb fcbf
000003c0: a020 89c0 c5f2 203f a4a5 8c40 949f 3e41
000003d0: ec39 193e ae85 e2bf 51c3 ac40 bbf7 07bf
000003e0: dd59 ca40 a277 d840 fa04 3841 b514 2541
000003f0: d9d1 bd40 b38d 1741 ca01 2441 0470 d740
11.245204 3.371959 3.8273423 13.126497 6.180776 12.813499 0.2618789 1.4728124
9.2115755 5.9402175 5.0860653 9.013107 4.5708055 4.099001 4.485766 0.15529044
-0.039473083 5.2803473 5.224563 -1.4941114 4.7899776 10.495121 17.46014 5.8470716
-0.0044700676 -0.8000204 4.727618 3.734113 3.2246976 -1.559444 12.64273 5.096158
8.847516 3.6411765 7.067126 0.67982066 -0.035992727 4.2575407 -1.7430592 7.01086
4.949121 4.8157344 7.9178567 -0.32698604 9.673854 11.163386 -2.4037635 7.598182
-3.8027844 3.1634433 10.456179 -1.7349083 9.66133 8.131868 5.3274055 1.1728994
-2.8819003 8.381047 6.0017405 5.4384055 2.8377788 -0.68477273 3.5223475 0.35694256
6.8768315 -0.67690235 6.063891 9.222594 -3.0094259 -3.2728302 2.8268652 5.370879
6.1183662 2.2718146 -4.9196086 9.125665 2.0679038 -2.382275 9.242108 6.480138
6.678629 6.1698885 9.2257595 7.5861545 7.1097727 -0.84851444 2.5583947 -3.5102534
-5.613487 6.190551 -2.2856445 4.886091 -6.7168493 9.611961 -0.93204814 -1.5675952
1.351449 3.7187643 2.5691361 -0.52294695 8.676669 6.078204 4.7982492 5.6413584
0.3000231 5.7526627 0.51980984 -1.2636263 12.387998 10.171611 4.523476 8.120017
7.9447546 9.9725895 -0.29839242 8.933098 5.997059 5.558014 0.03982515 7.8692975
10.134072 13.659935 1.6911644 9.171854 12.047236 6.066635 10.242366 5.10657
-1.6150395 5.191866 -1.0940993 5.8989244 6.142651 11.368323 3.1623547 -0.670957
9.029798 7.0266285 2.6207657 10.285751 4.046127 -2.8088856 8.68817 9.894587
5.614007 -3.7361503 -5.4183636 4.6917806 2.4399354 -2.40969 10.649693 1.4309899
8.480848 3.6703038 3.9711928 0.23768999 6.8523846 7.673865 4.7044897 -6.483224
5.7426453 6.146775 -5.9241652 2.5977533 3.140886 0.20580572 -1.3209732 10.328209
9.603414 4.996135 13.536435 7.250075 7.8299828 2.6244903 -3.6591408 4.2020974
0.42735222 4.624736 0.81235677 5.3187 4.168516 7.996802 -2.596161 1.9524254
5.267137 2.5888164 1.06761 6.4982653 5.0561476 10.142723 2.1110992 3.9417517
7.8133283 2.7501292 7.8914733 3.239785 2.957587 8.385827 1.0358045 6.5023136
7.6873837 7.393063 10.948893 6.686861 7.3514647 11.469568 0.20931965 -0.56096214
1.7506455 12.883615 9.281546 6.099465 6.071232 5.0235486 8.5918045 7.9582806
-2.0152657 10.657055 7.2509284 5.570342 5.179249 11.008664 5.090763 6.700323
7.93981 5.1400204 2.7371743 11.515238 -1.4396502 13.725815 6.3543634 7.3510237
-3.1987612 -0.8670448 -0.82982486 0.536126 10.117023 1.4834056 3.9720411 -1.9744765
-4.2852325 0.62870437 4.39522 11.9139595 0.14963502 -1.7697046 5.3988423 -0.5311238
6.3234696 6.7646036 11.501215 10.317555 5.931866 9.472095 10.250437 6.732424

l1/W f4 [256, 64]
00000000: 6a23 4d42 25a7 1fc1 ec76 fac1 a512 3a41
00000010: 5d24 5141 c7ea 6140 962a 1bc1 3ba4 8abf
00000020: 8780 7bbf 5101 7a41 bea3 4ec1 6ab7 c140
00000030: b572 3dc1 0832 9e41 3969 9940 73b2 4dc1
00000040: 5a37 243f e8ec 3e41 6d8b 293f ac06 d6c0
00000050: 4567 60c0 412e c63f 9aef b741 a19f 613f
00000060: e5ef f740 b1d6 b53f 16a6 7c41 5e28 08c1
00000070: 0533 d4c0 2465 4841 3909 f840 d536 d740
00000080: 4af3 a1c0 bf46 cbbe e132 3441 7f35 1ec1
00000090: 2145 1f40 89e0 acc0 2ee9 99c0 634b 3041
000000a0: d2a6 1040 a51b 2d41 463a b83f 287e 5441
000000b0: 193c a140 da75 24bf 2c3c a2c0 079a 5dc1
000000c0: 7cff 1241 c5ab a141 5c06 0841 7e5e 1d41
000000d0: 9161 2941 ed05 61c0 7b35 9a3f f069 5c40
000000e0: 6a8e e241 021c 0940 2f34 15c1 5089 6c40
000000f0: d423 ea3f 9a0c 7b40 7b5e abc1 a278 b7c1
00000100: 9b6f 0a42 2cb1 19c1 34a8 d541 a58b 52be
00000110: 61eb 8840 f9f9 86c1 3f20 8841 9c47 fb40
00000120: bcd1 b4c1 3790 4c41 24dc 0f41 573e d4c0
00000130: e8df cf3f df56 8dc1 33d0 0a41 b2ad 6dc1
00000140: 0879 b241 4932 97c1 9368 bd40 c796 e3c0
00000150: 6324 ca40 fd78 a740 de34 6a41 ebf9 98c1
00000160: a5be e940 683e 3c40 20ad 4a3d c50c 6bc0
00000170: 3d54 3f40 f0e4 30c1 312b 3bc1 691e afc0
00000180: 3efe 0a41 09c0 ca3e a72c 0441 fc9a 4ec0
00000190: 41a9 09bf 70fc 1bc1 b9fa 9e41 83ce c0bf
000001a0: a64c 6b40 de65 a2c1 504d 6a41 ce9c 0940
000001b0: a398 d0c0 94bb 2a41 4bfd 0941 58c0 9ec0
000001c0: a474 4fc1 a511 ffc0 e3ca ad3f be98 f4c1
000001d0: 0b1e 8cc0 e625 b1c0 c7af 9d41 be16 6bc1
000001e0: 54a3 a941 ff5d 9d40 78da f2c1 43dd d0c1
000001f0: 655d 1342 f321 80c0 5910 cfc0 3499 cfbf
00000200: 32bd 95bf d3f7 7a41 1938 7641 7d0f 8b41
00000210: 0649 0740 a05b 8941 b56d 4441 fe60 b6c0
00000220: 8e15 2241 626c fc3f d42a 8040 2ed0 dbbe
00000230: 5bdc 1a40 1e67 c441 a929 6041 9280 9940
00000240: 8e91 14c1 383f 6440 d9a3 84c1 fa66 6ebe
00000250: e7dd c8bf 00eb 2541 818f 3f41 a7d5 5cc1
00000260: 3761 bb41 1eb0 95c1 48f6 c140 7570 ba40
00000270: d142 3140 846a 3641 c7d2 e4c0 7e15 3bc1
00000280: f828 92c1 c923 f83f 226f cac1 bc96 0540
00000290: b4b9 0f41 c1b3 bd3f 8eef 5ac1 153c b6c1
000002a0: 2ac6 7cc0 e89b eec0 1cb7 fdc0 57ac 0b40
000002b0: 4e3d 8240 9121 a0c0 3b81 d23f 1047 aac1
000002c0: 084d 06c1 01fd 9dc1 8367 1ac1 7726 bd40
000002d0: 419f 9041 7ce5 63c1 3961 9040 a031 ebc1
000002e0: 4dc4 a43f 8918 09c1 ba47 f1c0 06e1 4641
000002f0: 1d07 a4c1 1aff aac1 4861 e0c0 fd0a 3fc1
00000300: aaa3 27c1 210f f740 9d85 c4bf f8dd 3c41
00000310: a35e bbbf 9dc6 863f 994c 2541 c594 8fc0
00000320: edf9 02bf df8d 19c2 956b 7fbf a604 8440
00000330: 11f8 56c1 0b05 2a40 2ac0 da40 01af b1c0
00000340: d84a 7240 fbe8 90c1 e950 00bf 2e05 adc0
00000350: 6233 8241 8bce 4fc0 709f 8141 6807 15c0
00000360: 7c0e cb40 b125 f340 83e1 2141 e4ed 3440
00000370: 1b11 02c0 720c 8e40 4133 a040 8ad3 aac0
00000380: f137 5cc1 70ea 6c41 0df8 6d41 a45a 2dc0
00000390: 99b4 b0bf c852 1ec0 3da1 c1bd 788a 25c1
000003a0: ff85 ab41 5809 c9be 5552 3cc1 bfdb 63c1
000003b0: ed49 5cc0 dc30 6841 26ab 2dc0 808f bbc1
000003c0: 55cf 0fc1 fe14 bec1 bb9b 36c0 b0e1 e7c1
000003d0: 43b8 823f b0b1 c941 410b 5841 1b47 89c0
000003e0: 0b57 bec1 96d3 4141 02d3 3bc2 b1eb 26c0
000003f0: 5a81 05c2 7f92 273e 6d2f f941 259b 84bf
51.284584 -9.978307 -31.308067 11.629552 13.071378 3.5299547 -9.697897 -1.0831369
-0.9824299 15.625321 -12.914976 6.0536394 -11.840505 19.77443 4.7940946 -12.856067
0.6414696 11.932838 0.6622837 -6.6883144 -3.506303 1.5482866 22.991993 0.881342
7.748034 1.4206144 15.790548 -8.509855 -6.631228 12.524693 7.751126 6.7254434
-5.0609484 -0.39702412 11.262422 -9.888061 2.4885943 -5.402409 -4.8097143 11.018405
2.260182 10.819249 1.4392784 13.2808 5.038586 -0.6424233 -5.069845 -13.850104
9.187374 20.208872 8.501553 9.835569 10.58632 -3.5159867 1.2047571 3.443966
28.319538 2.1423345 -9.32524 3.695881 1.8292184 3.9226441 -21.421133 -22.933903
34.60899 -9.605755 26.70713 -0.20561083 4.278733 -16.872057 17.015745 7.8524914
-22.60241 12.785209 8.991245 -6.63261 1.6240206 -17.667418 8.67583 -14.854906
22.309097 -18.899553 5.9190154 -7.1121554 6.3169417 5.233519 14.637907 -19.12203
7.304522 2.941309 0.04948151 -3.6726544 2.9895165 -11.055893 -11.698045 -5.472462
8.687071 0.39599636 8.260901 -3.2282095 -0.53773886 -9.74913 19.872423 -1.5063022
3.6765532 -20.29974 14.643875 2.1501956 -6.5186324 10.670795 8.624339 -4.9609795
-12.965977 -7.970904 1.3577541 -30.574581 -4.3786674 -5.5358763 19.710829 -14.693052
21.20475 4.917724 -30.356674 -26.108038 36.841206 -4.004144 -6.4707456 -1.6218629
-1.1698363 15.685504 15.388696 17.382563 2.113832 17.169739 12.276784 -5.69934
10.130262 1.9720576 4.005228 -0.42932266 2.4196994 24.55035 14.010171 4.7969446
-9.285536 3.5663586 -16.580004 -0.2328147 -1.5692719 10.369873 11.972535 -13.802161
23.422468 -18.710995 6.0613136 5.8262277 2.7697031 11.401005 -7.1507297 -11.692747
-18.270004 1.9385921 -25.304264 2.087325 8.982838 1.4820482 -13.683485 -22.779337
-3.949595 -7.4565315 -7.928602 2.1823938 4.0699835 -5.0040975 1.6445688 -21.284698
-8.393806 -19.748537 -9.650271 5.9109454 18.07776 -14.243526 4.511868 -29.399231
1.2872406 -8.56849 -7.5400057 12.429937 -20.503473 -21.374561 -7.011875 -11.940183
-10.477457 7.720597 -1.5353276 11.804192 -1.4638256 1.0529362 10.331201 -4.4869103
-0.51162606 -38.388546 -0.9977353 4.1255674 -13.435563 2.6565578 6.8359575 -5.552613
3.785818 -18.11376 -0.5012346 -5.4068823 16.27509 -3.2469814 16.20285 -2.328577
6.345518 7.598351 10.117557 2.8270197 -2.032294 4.439019 5.0062566 -5.3383226
-13.763658 14.807236 14.873059 -2.7086573 -1.3805114 -2.4738026 -0.09454582 -10.346306
21.440428 -0.3926494 -11.770101 -14.241149 -3.442012 14.511929 -2.713571 -23.445068
-8.988118 -23.76025 -2.853255 -28.985199 1.0212482 25.211761 13.502748 -4.28993
-23.792501 12.114157 -46.956062 -2.6081355 -33.37632 0.16364478 31.148157 -1.0359846

l1/b f4 [256]
00000000: 9ba7 b0c0 5f7f 0f3d 8a9f 2141 0a58 2540
00000010: edca 1bc0 a402 51bf db7f 093f cce3 e340
00000020: 8e66 67bf 21da ba40 7387 8fc1 a317 de3f
00000030: 4d6a 02c0 231a e5c0 37de b1bf 53b5 0ec0
00000040: 7aca 1f40 53c9 953f 7d3b 5340 2022 3840
00000050: da05 b440 dd7e 2b40 0cbc ee40 eb9c 0341
00000060: 214e 0ebe 121b 94c1 1e13 b540 5584 6d3f
00000070: 6579 1641 3e5a 9c3f 3c57 0bc0 0843 88bf
00000080: e8ab 1140 ed21 f740 1031 9cc1 7a0c ed40
00000090: 583c 8e41 af26 4a40 ce66 1440 a7e4 7640
000000a0: 5a44 ea40 d4ca 84c0 952b 3940 2c43 5bc1
000000b0: 0289 5bc0 7f5a a640 ca59 15c0 3728 9ebf
000000c0: 20de 21c1 db08 7840 1b07 3ec0 3b14 a540
000000d0: ef84 f040 644a a6c0 e60a a340 f3d1 80bd
000000e0: 51f6 82c0 46bf a5c0 cfc9 3141 a197 8fbe
000000f0: 213f c740 bef4 35c0 8c8f 3941 7a43 00c1
00000100: 8187 87c0 8181 1d41 9350 03c1 4b15 0040
00000110: e80e 8abf 89d9 ccbe bd83 2c3f fc13 5140
00000120: b15e 2e40 afc1 3d40 05d1 4bbe abfd c3c0
00000130: 1c2a 1241 92d1 bcbf 9b05 e53f 87c5 c841
00000140: 2bfe 7b3f a966 c2c1 75ee 0dc1 104b 873f
00000150: b4e2 09bf 32f9 3d3f cecf 0040 d72d 8e40
00000160: 7f89 1141 62db a240 960f b0bf 7aa5 a740
00000170: 6ef5 f340 0d98 06c1 28ef 1bc0 a785 d53e
00000180: 091b 9dc1 d802 9fc1 55f4 9f40 6313 15c0
00000190: 2a43 d140 e0ba e140 4a7a 4ac0 59b9 1740
000001a0: 18ca 1641 8d6b 65bf 2cbb 4e3f 297a 0240
000001b0: 190e 1bc1 b83d 1341 4a7c 0dc1 c3c1 6640
000001c0: d2f9 4b41 8f3a 3740 2ecf d6c0 0f6b bb3e
000001d0: bd36 48bd 4775 9240 c1fe 2840 a4f0 8ebf
000001e0: 86a3 0941 c856 05c1 930f 21c1 1829 e4be
000001f0: 9885 24c0 b116 eb3f 5dc0 87c0 db84 af3e
00000200: c2f4 9ac1 e453 34c1 9a51 5741 af30 b4bf
00000210: d059 0341 cbf8 0cc0 5d78 42c0 a488 1441
00000220: 8a0a 5cc1 e487 7fc0 be9b 27be b3f1 97c0
00000230: 13b9 84c1 596c 54bc e7f3 0741 4d7b 7bc0
00000240: cdf1 bcc0 a1e4 1f40 9cc3 9740 87cd ab3f
00000250: b33d ba40 7f90 4ac1 560e 57c0 d085 0441
00000260: 28b5 b640 f906 473f 992c ccc0 a575 b740
00000270: f979 e1c0 b171 7140 7867 b5c1 778b 2341
00000280: 3c21 5540 47a0 42c0 57bb 1440 e074 eb40
00000290: 640f 0841 d115 86c1 e068 5441 5d3c d3c0
000002a0: a919 45c0 46fa d8c1 53c6 1cc1 0d9a e33f
000002b0: f5e3 213f 4a9c c240 6085 2a41 2764 28c1
000002c0: 3491 01c1 df99 1a3f 1e6a 0ec0 7340 fabb
000002d0: e635 f83f 6e85 a3bf d944 4740 31f6 59c0
000002e0: fa28 b03f dda2 fc40 bbc6 60c1 dcea 3b40
000002f0: 450b bb3d 079f aa40 435f 80c0 c0cc d840
00000300: 2efc 703f f2c6 9e40 955e d5c0 0268 1440
00000310: 7272 1d41 7416 12c1 0a96 c8be 17bc 3341
00000320: 958b acc0 4648 18bf 17cc 19c0 2ee8 a83f
00000330: 4125 e940 4fbd 36c1 5bcd 85bf 8a1a 83c1
00000340: 510e 0d40 01ee b5bf 289f b3c1 d5d2 13c0
00000350: b89e 7bc0 3b44 0f41 e276 853c e0c2 d83e
00000360: d4dd 4e40 4a78 08c1 86f8 31c0 167f 11c1
00000370: cc87 d4c0 cffc 473e 4fac 1fc0 06a1 e2c1
00000380: df58 e340 08a7 b5be 0a33 b23f 5c1d 1bc0
00000390: bbe4 4c3f 30be d940 3bb4 0841 c918 c2c0
000003a0: ea52 ab40 b09f 82bf 9b0c 3441 d072 98c0
000003b0: f6c4 f3bf c989 1141 3ed5 cec1 0d07 2540
000003c0: a9af d6bf 502f 31c1 8ef3 1dc1 e5d3 f3bf
000003d0: 7697 e4c1 06e2 07c2 7ffd cec0 021c 14c1
000003e0: ea01 1441 3e2e ac40 4ab9 00c1 09ce ac40
000003f0: 5e57 39c1 0161 9a40 0b9f 52c0 9e42 15c1
-5.5204597 0.03503358 10.10145 2.5834985 -2.4342606 -0.81644654 0.53710717 7.121557
-0.9039086 5.839127 -17.941137 1.7350963 -2.037738 -7.1594405 -1.389594 -2.2298172
2.4967332 1.1702064 3.3005059 2.8770828 5.6257143 2.6796181 7.460455 8.22581
-0.13896991 -18.513218 5.6585836 0.9278005 9.404637 1.221504 -2.1771994 -1.0645456
2.2761173 7.7228913 -19.523956 7.407773 17.779465 3.158611 2.3187747 3.8577058
7.3208437 -4.1497593 2.893285 -13.703899 -3.4302373 5.198547 -2.3336053 -1.2356023
-10.11673 3.8755405 -2.9691837 5.1587195 7.5162272 -5.196581 5.0950804 -0.06290045
-4.092568 -5.179599 11.11177 -0.2804537 6.226456 -2.8430629 11.597546 -8.016474
-4.235291 9.844117 -8.207171 2.0012996 -1.0785799 -0.40009716 0.67388517 3.2668447
2.7245295 2.9649465 -0.19903953 -6.1247153 9.135281 -1.4751456 1.7892336 25.096449
0.98434705 -24.300127 -8.870717 1.0569782 -0.53861547 0.74208367 2.0126834 4.4430957
9.096068 5.08928 -1.3754756 5.23895 7.6237097 -8.412122 -2.436472 0.4170353
-19.6382 -19.876389 4.9985757 -2.3293083 6.5394487 7.054062 -3.163714 2.3706877
9.424339 -0.89617234 0.8075435 2.038706 -9.690942 9.202568 -8.842844 3.6055763
12.748491 2.8629491 -6.7127905 0.36605117 -0.048880327 4.576816 2.640549 -1.1167188
8.602423 -8.333687 -10.066302 -0.44562602 -2.570654 1.83663 -4.242232 0.34281048
-19.36951 -11.270481 13.457422 -1.4077357 8.209427 -2.202685 -3.0385964 9.28336
-13.752573 -3.992669 -0.16368005 -4.7482543 -16.590368 -0.012965285 8.497046 -3.9294007
-5.9045167 2.4983294 4.742628 1.3422097 5.8200316 -12.660277 -3.36025 8.282669
5.709614 0.77745014 -6.380444 5.733111 -7.0461392 3.7725642 -22.675522 10.221549
3.3301535 -3.0410326 2.3239343 7.358017 8.503757 -16.760653 13.275604 -6.6011186
-3.0796912 -27.122204 -9.798419 1.7781388 0.6323846 6.0815783 10.657562 -10.524451
-8.09795 0.6039104 -2.2252269 -0.0076370775 1.9391448 -1.2775095 3.1135771 -3.4056513
1.3762505 7.894881 -14.048518 2.9362097 0.09133009 5.3319125 -4.0116286 6.774994
0.94134796 4.9617853 -6.6677957 2.3188481 9.840441 -9.130482 -0.3917697 11.23342
-5.392039 -0.5948528 -2.4030817 1.3195856 7.2857976 -11.421218 -1.0453295 -16.387959
2.2039988 -1.4213258 -22.452713 -2.3097432 -3.9315624 8.954158 0.01629204 0.42336178
3.2322893 -8.529367 -2.7807937 -9.093527 -6.641577 0.19530033 -2.494892 -28.328625
7.1045985 -0.35478997 1.3921826 -2.423667 0.80036515 6.8044662 8.544002 -6.0655255
5.3538713 -1.0204983 11.2530775 -4.764015 -1.9044483 9.096139 -25.854122 2.5785553
-1.6772357 -11.074051 -9.871962 -1.904904 -28.573956 -33.970726 -6.4684443 -9.256838
9.250467 5.380645 -8.045237 5.400151 -11.58383 4.8243413 -3.2909572 -9.328764

l4/W f4 [64, 256]
00000000: 9cbb 0b42 e341 0442 a5ee e641 6cdc 6342
00000010: e5af ba41 f91e 1342 cc85 1542 6514 fa41
00000020: e59b 0842 9c02 1542 6280 1342 e0af 1d42
00000030: fa6e 0d42 7fcc 3542 da06 0642 1b03 0a42
00000040: 4ea4 1d42 427a f041 aeff 0d42 2a2d 0c42
00000050: 1701 0542 02e9 0a42 cfbc fe41 31b9 ca41
00000060: efa8 1642 b7bc 0242 41ee 1442 3a5d 3a42
00000070: 08cc 3042 b8e1 0742 355e 3e42 b908 0d42
00000080: 1ce1 2b42 f8ae 0642 f79c 2a42 3c07 9c40
00000090: fbac 2a42 f9da ee41 c565 1d42 f7bf f141
000000a0: c332 d141 c2d4 fb41 800e 3a42 60b6 0342
000000b0: 3af7 1a42 6881 e641 d211 c541 123e 0642
000000c0: 5a1e 0e42 388b 6642 51f4 fd41 e741 3b42
000000d0: a5e2 c541 e71d 2b42 bafa 1342 82b6 5442
000000e0: d064 1242 9a19 4642 c53a 1542 f7f7 3d42
000000f0: 783e bf41 2430 3942 1216 2d42 23fa 1942
00000100: 9f4b 0542 360e 4e42 25de 3f42 f140 de41
00000110: aa73 e641 3f06 0042 eb1e 2c42 fa85 1342
00000120: 1aac c841 6610 1342 7d7a f141 7b56 e841
00000130: 0def 1342 9013 1342 87d8 0e42 c26e 0342
00000140: 909f 0342 457f 1e42 87a0 3e42 3c98 2e42
00000150: b68d d441 81f3 b641 1b7b 0342 c6b8 0c42
00000160: c778 5542 c1d6 5342 bb8b 2142 1ccb ec41
00000170: 8670 2b42 c9aa f241 b041 2642 bd18 d741
00000180: 5101 0142 d629 1d42 37e5 ec41 af8b b041
00000190: 42c2 1842 acc8 0b42 2126 0942 25b3 3342
000001a0: b89f 0542 4aa1 f141 ede7 fa41 1c71 ca41
000001b0: 8e76 4b42 f4bd 1842 d8e1 1042 7051 1042
000001c0: 53a7 d041 e662 1c42 1e74 a041 e7ac f841
000001d0: 466c 0342 4c52 d141 5cc9 2542 cb3e f241
000001e0: acba 0442 fc49 e541 8ccc 1442 d121 0c42
000001f0: b3a0 0d42 d1d0 1742 fb28 3642 85e0 0842
00000200: 5b2d 2a42 9b6e ac41 bc74 0042 27ad 0e42
00000210: 5c66 0742 a6fd 9c41 198a 8c41 9fb1 be41
00000220: 6444 1c41 edb8 2942 7e9a 2f42 d9ed 1242
00000230: 0fae 0f42 8049 2742 721b 1f42 11bc 1542
00000240: 1ff8 d341 5423 0142 254c 3742 f814 f941
00000250: 07ca 1842 363f 2342 d7ea d241 5d6b 4642
00000260: 1df3 3042 937b 3d42 774d 4e41 ef67 f741
00000270: 8596 3442 bcfe 2842 af7a 0642 bac7 0942
00000280: ac69 d241 b3c3 d641 bb77 0042 4a45 c541
00000290: dd8a eb41 2f49 2a42 46a2 1e42 951a fc41
000002a0: 9ea7 3e42 ac4c 2042 fd31 1742 dea5 1442
000002b0: 187c 3c42 0f2e 2042 0541 0a42 8b24 1642
000002c0: 5963 1542 c011 0442 cd53 0242 f26c d841
000002d0: 0c3f 2942 1c51 4642 a921 a141 5636 2c42
000002e0: b02d 1142 0c28 0142 358a 1742 4307 0b42
000002f0: 2a4c 1742 58c6 1842 2c44 2042 bc1d 0842
00000300: c62c 0d42 e70f 1242 0a39 be41 8e7d 4942
00000310: 6299 3542 c1ac eb41 d7f9 fb41 d2dd 1242
00000320: 7168 f541 eeae 0b42 0823 1442 4c55 e841
00000330: e518 1c42 4908 2942 115e 3b42 1b01 0a42
00000340: 04db 0642 5a89 1742 3492 c041 8a1e cd41
00000350: 0236 0642 bd72 1442 e195 0142 afa7 dd41
00000360: 946e 2942 bb00 1742 fd7c 0042 7b7e 1242
00000370: 35e4 6541 9948 0442 7b39 2b42 c22d 0c42
00000380: 9536 2242 37b4 0142 95a0 1d42 1a28 1b42
00000390: 767a 2b42 9a1b e641 56e9 1342 af75 0042
000003a0: 5585 1242 725d 0042 c9a1 1542 00b5 f541
000003b0: 0c08 eb41 413c 2742 b911 4042 81fa 7142
000003c0: 4bf0 2e42 06c8 1342 763f 1742 2275 2142
000003d0: 1ff6 3242 a09e 1142 bb01 2b42 9667 e941
000003e0: 620e ba41 a4bb 0942 c3c3 dd41 af44 2142
000003f0: d489 c541 a55a 2442 0e8d 3342 dc71 2e42
34.933212 33.064342 28.866526 56.965256 23.335886 36.780247 37.38066 31.259958
34.15224 37.25255 36.875374 39.421753 35.358376 45.449703 33.50669 34.503033
39.410454 30.059696 35.499687 35.044106 33.251064 34.727547 31.842192 25.340425
37.664974 32.68429 37.23267 46.59104 44.19925 33.97043 47.592 35.25852
42.969833 33.670868 42.653286 4.875883 42.668926 29.85692 39.349384 30.218733
26.149786 31.478886 46.51416 32.9281 38.741432 28.813187 24.633701 33.560616
35.52964 57.635956 31.744295 46.814358 24.735666 42.7792 36.99485 53.17823
36.59845 49.525 37.307392 47.492153 23.905502 46.297012 43.271553 38.494274
33.32385 51.513878 47.966938 27.78171 28.806477 32.0061 43.030193 36.880836
25.084034 36.766014 30.184809 29.042227 36.983448 36.769104 35.711452 32.858162
32.905823 39.624287 47.656765 43.648666 26.569195 22.868898 32.87022 35.180443
53.367947 52.95972 40.386456 29.599174 42.859886 30.333391 41.564148 26.88708
32.251286 39.290855 29.611921 22.068205 38.189705 34.94597 34.287235 44.924946
33.405975 30.203754 31.363245 25.30523 50.865776 38.1855 36.22055 36.07953
26.081701 39.09658 20.056698 31.084425 32.855736 26.165184 41.44664 30.28066
33.182297 28.661125 37.199753 35.033024 35.406933 37.953922 45.54002 34.219257
42.544292 21.554007 32.114 35.669094 33.84996 19.623852 17.56743 23.83673
9.766697 42.43059 43.90087 36.732273 35.91998 41.821777 39.776802 37.43366
26.496153 32.2845 45.82436 31.135239 38.197292 40.81173 26.364668 49.604847
44.237415 47.370678 12.893912 30.925749 45.14699 42.248764 33.61981 34.445045
26.301598 26.845556 32.116924 24.658833 29.442804 42.57147 39.65847 31.51298
47.66369 40.074875 37.798817 37.16198 47.121185 40.04498 34.563496 37.535686
37.34702 33.017334 32.581837 27.053196 42.31157 49.57921 20.141436 43.053062
36.294617 32.28911 37.884968 34.75709 37.82438 38.193695 40.066574 34.029037
35.293724 36.51553 23.777851 50.372612 45.399788 29.459352 31.496992 36.71662
30.675997 34.92083 37.03421 29.041649 39.02431 42.25809 46.84186 34.50108
33.713882 37.884132 24.071388 25.639912 33.552742 37.11205 32.396366 27.706877
42.357986 37.750713 32.12206 36.623516 14.368215 33.070896 42.806133 35.044685
40.553303 32.42599 39.40682 38.78916 42.86959 28.763477 36.977867 32.114925
36.630207 32.091255 37.407993 30.713379 29.37893 41.80884 48.017307 60.494633
43.73466 36.945335 37.811974 40.364388 44.740353 36.404907 42.75169 29.17558
23.257023 34.433243 27.720587 40.317074 24.692299 41.08852 44.88775 43.61119

l4/b f4 [64]
00000000: cba6 c1c2 e7ad c1c2 dcb2 c1c2 cfad c1c2
00000010: aba4 c1c2 62ab c1c2 a1ac c1c2 2fab c1c2
00000020: 84b0 c1c2 1ca9 c1c2 80b4 c1c2 6af2 c1c2
00000030: 91af c1c2 92b1 c1c2 20af c1c2 aaac c1c2
00000040: 85ba c1c2 a2b7 c1c2 6baa c1c2 93ba c1c2
00000050: 03b1 c1c2 efb3 c1c2 37ab c1c2 f9b2 c1c2
00000060: b7b4 c1c2 4bb0 c1c2 68b7 c1c2 26b6 c1c2
00000070: 4bbc c1c2 fdaa c1c2 a5a7 c1c2 7aa8 c1c2
00000080: 3fac c1c2 43b6 c1c2 81aa c1c2 32b1 c1c2
00000090: 81b2 c1c2 a2ac c1c2 c6a9 c1c2 acad c1c2
000000a0: 90b0 c1c2 95a6 c1c2 5fb1 c1c2 51a6 c1c2
000000b0: e1b1 c1c2 efa6 c1c2 41aa c1c2 00a8 c1c2
000000c0: d8a9 c1c2 7fab c1c2 81ab c1c2 11b0 c1c2
000000d0: 05a9 c1c2 5aaf c1c2 9bb5 c1c2 d2b0 c1c2
000000e0: d6aa c1c2 ebae c1c2 e7a8 c1c2 f6b2 c1c2
000000f0: 3daf c1c2 02b1 c1c2 15a7 c1c2 12ae c1c2
-96.82577 -96.83965 -96.849335 -96.83947 -96.82162 -96.83473 -96.837166 -96.83434
-96.84476 -96.83029 -96.85254 -96.973465 -96.8429 -96.84682 -96.84204 -96.837234
-96.864296 -96.85866 -96.83285 -96.8644 -96.845726 -96.85143 -96.834404 -96.849556
-96.85296 -96.84432 -96.858215 -96.85576 -96.86776 -96.83396 -96.82743 -96.829056
-96.83642 -96.85598 -96.833015 -96.846085 -96.84864 -96.83717 -96.83159 -96.8392
-96.84485 -96.825356 -96.84643 -96.82484 -96.84742 -96.82604 -96.83253 -96.828125
-96.831726 -96.83495 -96.83497 -96.84388 -96.83012 -96.84248 -96.8547 -96.84535
-96.833664 -96.84164 -96.82989 -96.84953 -96.84226 -96.84572 -96.82633 -96.83998

l3/W f4 [256, 256]
00000000: 9b55 91bf e91d 34c1 b69f e4c1 115b 8340
00000010: 98f6 d641 e3e8 c4c0 7f68 8440 91ba 90c0
00000020: 75eb abc0 19bc 07c1 a3fe d841 bb36 8341
00000030: 57b7 55c1 d095 af3f 0d0c db3f 9681 1dc1
00000040: 7e8a 5a41 ebbe c5c1 4c29 a141 e0f4 8841
00000050: 010d 1e41 8d30 3c41 425d 4b41 989c 4a40
00000060: 7704 61c0 14f0 4740 9daf aa40 b3d0 56c1
00000070: ad5d 4ec0 30c4 da40 30a7 b1bf ee52 b040
00000080: 84fc 88c1 3fb2 0b41 87da 8bc0 6ba2 f540
00000090: c1c9 36c1 8eca 9ec1 ae2c 16c1 b161 5641
000000a0: e527 94c0 7b8e 72bf bee0 d640 e1b9 8841
000000b0: 3b1f 26c1 d85b 9b41 b3bd 1f41 d731 7b41
000000c0: ddee 5cc1 e2a3 24c0 764c 8841 0d1b abc1
000000d0: a362 0f3f 3ac0 5941 0782 8dbd 0b41 0cc2
000000e0: 63fb 5b40 c202 afbf 0126 69c1 1a3f 43c1
000000f0: 399b c741 fabd fdc0 6cba 9fc1 24b9 a5c1
00000100: 4db3 1dc1 1e81 2441 fb94 71c1 8298 b341
00000110: 2038 3cc0 b9c7 06c1 4919 58c1 97d6 e640
00000120: 120e 6d3f ce5a cac0 c89c b9c0 90cb 0d41
00000130: 504d 3cc0 eb27 01c1 ef97 4cc1 866d 6a40
00000140: 29b5 d840 7f20 e3c1 f32e 30c1 62dc f2c0
00000150: cc97 40c1 2e27 02c2 f3ff fcc1 0d38 c941
00000160: 240c e8c1 cb6c 8bc0 c48b 2641 638d 1342
00000170: 1696 24c1 24b3 823f 077d 1a41 2fcb b2c0
00000180: 7203 6641 9d2b 18c0 bbc3 e7c0 b9cc 2141
00000190: c2c4 7a3f 2fd3 a8c1 524c c941 ed45 38c1
000001a0: e855 a1c0 71c4 3b41 66a5 c341 e661 c540
000001b0: de31 e83f e1ce 8cc1 4dd9 3b40 1ad0 e5c0
000001c0: ea67 ca3f e500 c1bf 9a01 ec40 ede1 7ec1
000001d0: ccdb 2e41 e348 afc0 f1e9 e73f b349 50c1
000001e0: c592 59c1 922e 4140 0014 93c1 be9c 87c1
000001f0: b7e6 87bf d263 a440 89e5 1041 3043 3f41
00000200: c7f0 3141 5233 25c2 cacb 1541 148b 4f41
00000210: 8370 803f af24 ac41 0704 ca3d 3eac 0241
00000220: c76a a741 d317 1ec1 179b dec1 37ae 0bc1
00000230: 0e80 bd41 4dd0 b9bf 3d64 c141 9b60 d640
00000240: 53f5 38c1 1063 a9c1 82da 28bf 9f2f e0c1
00000250: eea3 0b41 8590 fe40 3942 a5c1 443c 9ac1
00000260: b1bd 5fc0 37d6 7ac1 918c ce41 5fb7 d53f
00000270: 95e8 51c1 2770 a341 dbaf cc40 d649 a33f
00000280: a09c 7340 b984 1cc2 ec4f 32c2 8b64 6641
00000290: 3b31 1ec1 bcc2 e140 a18f 87c1 313e c2bf
000002a0: 011e 94c1 f932 7a41 49ac 7ec1 ad60 0dc1
000002b0: f1c8 23c1 6fcd a840 bd79 2641 0378 0ec1
000002c0: 15fa 75c1 1055 39be 6d90 a440 128f 73c1
000002d0: 6e54 dec1 bfa7 4a41 4e12 d740 ab3c 9fc1
000002e0: 4d19 1f41 3072 a4c1 a400 e540 946e b7c0
000002f0: 7bf5 98c0 04c6 a040 4e9a 6fc1 8608 d740
00000300: 9b5d c140 087c b841 dd37 8f41 12f9 2340
00000310: 9c2a b0c0 7d70 ed40 561d b9c1 08b1 bd3f
00000320: 04c9 093f 13c5 80c0 bbe5 a440 f4ae 8f41
00000330: 096e e0c0 6d64 d040 2d7a 8240 88d2 71c0
00000340: 1c17 c5c0 36cf 80c1 6533 01c2 9ec5 16c0
00000350: fe0c 0842 aaf3 a241 b3c6 0c42 e3fd b2c0
00000360: 0396 e640 7d52 8341 f9fa 8a40 d1a0 b440
00000370: 8c4f 3fc1 68d8 99c1 ebb5 8abf f3ed 1fc2
00000380: f61f 25c1 33a2 bfc1 a4e0 6ec1 bbbe 12c1
00000390: 5370 d840 1e03 0042 1a9a a341 5a84 f140
000003a0: 06de 4540 e042 0141 d6c3 8f40 d242 1641
000003b0: 4eee 2b40 848f 2341 2d0b 85c1 4f6e d3c1
000003c0: a7a5 86c1 1dae 8c41 a38d ac40 b788 cc41
000003d0: 6e32 4341 2f2f 7740 6a1a cbc0 dba3 9cbf
000003e0: ede3 18c2 b44d 7641 1c41 ca40 c315 a1c1
000003f0: 2242 fe40 2159 9241 931b 1b41 a768 0641
-1.135425 -11.257302 -28.577984 4.1048665 26.870407 -6.1534286 4.137756 -4.522774
-5.3724923 -8.483422 27.124334 16.401724 -13.357261 1.3717594 1.7113053 -9.844137
13.658812 -24.718222 20.145164 17.119568 9.878175 11.761853 12.710268 3.1658077
-3.5158975 3.1240282 5.333937 -13.425952 -3.2244675 6.8364487 -1.3879147 5.5101233
-17.123299 8.731017 -4.3704257 7.6760764 -11.424256 -19.848904 -9.385908 13.39885
-4.62987 -0.9474866 6.7149343 17.090761 -10.382625 19.419846 9.983813 15.699668
-13.808316 -2.5725026 17.037334 -21.388208 0.5600988 13.60943 -0.069095664 -35.06352
3.4372184 -1.3672717 -14.571778 -12.202906 24.950792 -7.9294405 -19.966026 -20.7154
-9.856275 10.281523 -15.098872 22.449467 -2.9409256 -8.42376 -13.506173 7.213695
0.92599595 -6.3235846 -5.8003883 8.862198 -2.9422188 -8.072246 -12.787093 3.6629348
6.7721143 -28.390867 -11.011462 -7.589402 -12.03706 -32.53826 -31.624975 25.152369
-29.005928 -4.3570304 10.409122 36.888073 -10.286642 1.0210919 9.655524 -5.5873027
14.375841 -2.377662 -7.242643 10.112481 0.9795648 -21.103117 25.162266 -11.517072
-5.0417366 11.735459 24.455761 6.1682005 1.8140218 -17.601015 2.935138 -7.181653
1.5812962 -1.5078398 7.3751955 -15.930158 10.928661 -5.4776473 1.8118268 -13.017993
-13.598332 3.0184674 -18.384766 -16.951534 -1.0617284 5.137185 9.056039 11.953903
11.121284 -41.300117 9.362253 12.971455 1.0034336 21.517912 0.098640494 8.167051
20.927137 -9.880816 -27.825727 -8.730033 23.687527 -1.4516693 24.173944 6.6992927
-11.559894 -21.17337 -0.65958416 -28.023252 8.727522 7.9551415 -20.657335 -19.279427
-3.4959528 -15.677299 25.818636 1.6696585 -13.119283 20.429762 6.3964667 1.2756908
3.8064346 -39.129612 -44.57805 14.399547 -9.887019 7.0550213 -16.945131 -1.5175229
-18.51465 15.6374445 -15.917062 -8.8361025 -10.236558 5.2750773 10.404721 -8.9043
-15.373555 -0.18098855 5.14263 -15.222429 -27.791225 12.665954 6.7209845 -19.904623
9.943677 -20.555756 7.156328 -5.7322483 -4.779966 5.024172 -14.975172 6.7197905
6.0426764 23.060562 17.902277 2.562077 -5.5052013 7.4199815 -23.139324 1.4819651
0.5382235 -4.024057 5.1530433 17.960426 -7.013432 6.512259 4.077414 -3.7784748
-6.159071 -16.101177 -32.30019 -2.3558116 34.012688 20.368977 35.194042 -5.593492
7.205812 16.415277 4.3431363 5.644631 -11.956921 -19.230667 -1.0836767 -39.982372
-10.320303 -23.954199 -14.929844 -9.171565 6.7637115 32.003044 20.450245 7.547406
3.0916762 8.078827 4.4926558 9.391314 2.68642 10.222538 -16.630457 -26.428862
-16.830885 17.585016 5.3922896 25.566755 12.199812 3.8622549 -6.3469744 -1.2237505
-38.222584 15.3939705 6.320448 -20.135626 7.945573 18.29352 9.694232 8.40055

l3/b f4 [256]
00000000: c5af 6a40 1665 3d40 b901 a4bd 7d36 e3bf
00000010: 0811 9541 14e7 8641 c7e7 0b40 0180 3041
00000020: 4e67 f93f 7d2d 4740 4b55 7ebf 7e27 f240
00000030: 11e2 cdbe 0646 77c0 7c62 f240 6168 0a41
00000040: c757 d040 83a8 e43f f5c1 cb40 db3e 0741
00000050: 8144 b23f f6dc f83f a771 bf41 4aa7 f240
00000060: 9c7c 0b40 c942 a840 1b3b 06c0 6c31 7a40
00000070: b837 f93f b919 8f40 04c6 9abf 1601 8f40
00000080: 8006 1abc 39b5 b540 6359 3f40 b5af 5b42
00000090: a50c bdbd e4a6 33c0 4015 adbf d40a 0b40
000000a0: b059 bb40 ee2b 0141 5964 3641 1a49 e940
000000b0: b89a 74c0 a246 e440 c36a d941 d9a6 8c40
000000c0: 486a 1140 66f9 52bf 4aa4 9040 eeab 92c0
000000d0: 4295 58c0 a1b8 7840 4a7f 20c0 1cfc e440
000000e0: 72d4 46bf 2633 ba3f 53c6 2840 510d b540
000000f0: 1ad7 8241 c1c4 15c0 9d5e f7c0 6252 fc3f
00000100: 9ad9 86bf 29d1 afbf 271a dbbe 7ee1 cc40
00000110: 7317 1140 0fb5 3f40 0a95 f140 1980 9840
00000120: f00f 41bf eba6 1740 743b 3041 6fa4 4340
00000130: ed78 9440 f666 ae3f 12e6 9e40 96ee 01c0
00000140: cf10 9c40 f715 8240 019c 393f 104b 7a40
00000150: e72c 0f41 2e33 b241 8671 af40 014f 8540
00000160: b96b 9b3f b900 b6c0 a1a9 5b40 6904 b240
00000170: bc4c b23f 4515 0241 1b64 8a40 b227 2341
00000180: 44b1 9741 d89f 1640 280a 1d41 a0d8 0dbe
00000190: fdb4 c240 3fdb 9440 7600 a63f a3cb 7340
000001a0: 37b3 90c0 4620 bc40 e122 7340 aa18 c241
000001b0: 9ad6 3a40 8824 9a40 a9ee 9ebf 360e 4240
000001c0: 19b0 b640 f8be 6140 5e84 c341 ee83 b340
000001d0: 932e 8941 f5c3 ab40 bd76 3840 ba40 f33e
000001e0: 1f17 1441 5b76 1e41 1fe1 e3bf 4fdb 2b40
000001f0: d5af 073f 424d 80c0 1073 013e 5831 2d40
00000200: 7a55 5040 cc17 5341 9d43 0abf 3b2d b9bf
00000210: 3e49 b540 034e 9f40 fb7c 8a41 cf1e 9f41
00000220: 38d6 b1bf cb49 0341 8602 0fc0 f755 82bf
00000230: 45d5 a140 4379 543f 7039 0a3e 8a51 1841
00000240: 18b2 cb40 48b5 6cc0 358f 4940 5628 b2c0
00000250: 33c9 ae40 d4bd 9b40 a7d1 2041 a68a 7c40
00000260: 5916 e440 9b94 2640 708b 6441 3afa e340
00000270: 0a2d b840 6e5a e93f a527 b3c0 476f 5740
00000280: 0efe cf40 8e19 d641 df28 9e40 047c 3241
00000290: 283c 0a41 1362 4a40 ea94 1140 8220 f940
000002a0: 2b1f bb40 07f8 9641 98a6 d540 e7bc 4e40
000002b0: 6d81 c43f fc0f 27c0 96b4 2f41 f305 7541
000002c0: 9f0b e53e 63f9 c940 4dac 663f 0bbe d240
000002d0: 12f9 ff40 1fe4 fc40 09a3 a541 4957 f13f
000002e0: 0180 813f 8741 ea40 81f8 d73f 488c 5140
000002f0: d868 d040 69df 57c0 e713 1fc0 a6f7 d540
00000300: e890 dc40 61ff 10c0 906a af41 81a2 93be
00000310: 7d7d c63f 63ae 7a41 7779 79bf 0a11 a940
00000320: 9fdc a1c0 7836 e9bf f334 95bf 0c5f 1f41
00000330: 9a85 8e40 2db2 b940 76c9 b940 6cb4 bb41
00000340: 071a 6f40 8763 e140 b231 ac41 eccb 3841
00000350: aabe a040 8e5d 153f da0e 9040 907c a441
00000360: 5637 1d41 3d6c 0c3f 374c 5a40 f25d 0141
00000370: 8855 4942 1804 7441 7da2 1940 46a2 df3e
00000380: fb77 7c40 9a93 af40 e6b4 8940 ec1c 5f41
00000390: ded6 f1bf 4de6 5d3f 2a15 2340 69b8 ffbf
000003a0: e429 de3f 4f5e 3840 a2a7 9b40 97fb dbc0
000003b0: 4b1e 0340 c34a 6940 8f59 d340 343f 39bf
000003c0: 6634 d6bf 6666 6a40 8e2c 8a40 2da1 a740
000003d0: 42c8 d53e 17f6 8a40 a9a7 213e 7a49 b640
000003e0: 5e0e b841 deae 8040 b47e 0941 90e0 0542
000003f0: db0b 0141 3c46 73c0 92c8 bc40 8594 6d3f
3.6669781 2.9592948 -0.08008141 -1.7751004 18.633316 16.862831 2.1860216 11.031251
1.9484651 3.1121514 -0.99348897 7.567321 -0.40211537 -3.863649 7.574522 8.650483
6.510715 1.7863926 6.3674264 8.452846 1.3927156 1.9442432 23.930494 7.582921
2.1794806 5.2581525 -2.0973575 3.9092665 1.9470129 4.47189 -1.209168 4.4688826
-0.009400964 5.678372 2.9898307 54.92159 -0.092309274 -2.8070612 -1.352211 2.172536
5.854698 8.073225 11.399499 7.2901735 -3.8219433 7.133622 27.17713 4.395367
2.272112 -0.824118 4.520055 -4.5834875 -3.38411 3.8862689 -2.507769 7.155775
-0.77667916 1.4546859 2.6371047 5.6578755 16.35503 -2.340134 -7.7302995 1.9712641
-1.0535157 -1.3735706 -0.4279339 6.402526 2.2670562 2.995426 7.5494432 4.765637
-0.75414944 2.3695629 11.014515 3.0569112 4.6397614 1.3625171 4.9655848 -2.0301871
4.877052 4.0651813 0.7250367 3.9108315 8.9484625 22.27499 5.482608 4.165894
1.2142249 -5.687588 3.4322283 5.5630383 1.3929667 8.130193 4.32472 10.197191
18.961555 2.353506 9.81498 -0.13852167 6.0845933 4.6517634 1.2968891 3.809304
-4.521877 5.8789396 3.7990038 24.262043 2.9193482 4.8169594 -1.2416583 3.0321174
5.7089963 3.5272808 24.439632 5.6098547 17.147741 5.3676705 2.8822472 0.4751032
9.255645 9.903895 -1.7803077 2.6852605 0.53002673 -4.009431 0.12641549 2.7061367
3.255217 13.19331 -0.5400942 -1.4466928 5.6651907 4.978273 17.311026 19.890043
-1.3893499 8.205516 -2.234529 -1.0182484 5.057284 0.8299753 0.13498473 9.519907
6.36549 -3.6985645 3.1493657 -5.567424 5.4620605 4.8669224 10.051185 3.9459624
7.127728 2.6028202 14.284042 7.124295 5.755498 1.8230722 -5.5985894 3.3661668
6.4997625 26.762478 4.942489 11.155277 8.639687 3.162236 2.274714 7.7852182
5.8475547 18.871107 6.676586 3.2302797 1.5351998 -2.6103506 10.981588 15.313952
0.4473543 6.3116927 0.9010666 6.5856986 7.999154 7.902847 20.704607 1.8854762
1.0117189 7.320499 1.6872712 3.274187 6.5127983 -3.3730109 -2.4855897 6.6864805
6.8926888 -2.265587 21.927032 -0.28834918 1.5507046 15.667575 -0.97450966 5.28333
-5.0581813 -1.8219748 -1.1656784 9.960705 4.453809 5.803 5.8058424 23.463097
3.7359636 7.0433993 21.524265 11.549786 5.0232744 0.5834588 4.501813 20.560822
9.82601 0.5485266 3.4109018 8.085436 50.333527 15.250999 2.4005425 0.43678492
3.944823 5.486768 4.3033323 13.944561 -1.8893697 0.86679536 2.5481668 -1.9978153
1.7356534 2.8807561 4.864213 -6.8744617 2.048724 3.645188 6.6046824 -0.72362065
-1.6734741 3.6625 4.317939 5.238425 0.41754347 4.3425403 0.15786614 5.6964693
23.007015 4.021346 8.593433 33.4693 8.065394 -3.8011618 5.8994837 0.9280475
