size8/agent_black_86000/model.npz (npz, 608365 bytes, 8 tensors)

l2/W f4 [256, 256]
13.6088705 -17.652464 -12.126487 -5.2008 -15.371807 7.792926 18.819647 10.813213
9.755487 0.4112016 9.015442 17.733978 2.746338 10.7154 -27.461815 1.1165187
13.072238 -6.5761814 -19.551949 -7.476055 -14.388914 2.2008183 6.4718504 -14.083619
-10.865894 -2.9215312 -11.847424 -13.704599 26.494135 29.546787 -0.6680712 2.4860451
-15.31124 -16.546904 -10.708889 1.4384422 18.117102 21.483522 -23.892206 20.41377
-15.958781 -8.22437 -6.5304503 -20.677212 -3.1507974 9.888301 18.30706 6.669088
-6.156067 -25.836102 -2.318788 10.731477 9.554236 -17.613703 -16.012424 13.403723
-16.52214 0.6269026 12.344047 4.9719486 -24.635376 6.2596617 6.707515 -7.3926253
-14.184744 -14.373282 -41.964706 -12.785382 -6.726121 10.859787 4.027055 19.664469
14.843215 11.80134 -9.739812 6.479121 2.9972334 -10.341745 17.471292 12.310654
5.855321 -9.958885 2.7515328 -8.994612 13.010867 14.854203 -11.966423 12.6558
14.761742 -18.99189 -4.6539993 16.196486 -23.447798 12.361089 4.155752 5.727722
-17.470284 -1.6504779 3.5472713 0.36395884 -5.861851 -38.317345 -7.648597 -16.845634
-9.016633 -15.104367 -19.364664 -41.938686 17.06404 -51.93222 -0.8143496 6.930505
-4.5524545 -10.773905 0.59490734 -17.334927 3.035481 -9.192494 -2.1367607 -2.3593786
-5.9155674 -22.501593 -2.9737413 -46.97337 -1.1361464 1.1668313 1.5182343 -4.1047845
7.52613 -39.00497 9.129932 -5.139873 12.447094 15.615434 7.325245 18.62096
-48.402466 -6.2851496 19.138594 -17.837494 -14.221225 3.2567403 -8.932329 16.653137
-14.101689 -20.553917 33.91985 -1.3384619 20.949636 -4.137798 -4.959345 3.1948256
3.4795432 -13.96623 13.005277 5.2834134 -3.2624207 -9.133181 0.13541971 -15.662413
0.14693095 -12.352731 13.005178 16.04171 -5.8614345 -33.331802 16.148489 7.146082
-3.345263 4.219873 -23.660769 -8.656999 -2.172101 9.964553 -33.398327 -0.11040358
-7.150566 11.307669 -0.28071132 3.983791 -7.2764525 37.932835 -27.344093 14.346769
15.370758 -35.746754 7.019746 3.3650742 -22.935987 13.998878 22.77252 14.794577
5.0093884 4.0004964 5.4551373 -4.702808 17.132282 5.577314 9.727328 18.610085
-9.417238 -19.989412 -46.397133 -10.848418 -14.436811 -19.724796 -11.431885 -9.657001
-7.635556 -16.804617 -22.986475 1.6127802 -11.905376 3.0053365 -40.660007 -17.915073
4.367566 3.303045 -8.437891 -11.776738 -1.6784806 3.8513258 -1.4999769 -8.191519
-16.140003 -18.775597 -0.19685087 -30.57349 -5.2024736 -21.889097 13.734059 10.984284
12.203354 -22.96916 15.377837 -4.7676835 -4.6379104 6.626901 -12.537633 -6.6945257
0.02870159 -3.621404 -14.517319 8.64406 -23.849031 -21.482683 9.387484 -35.994583
27.197844 28.137451 12.060087 8.414732 -13.850634 -38.314964 0.6183955 24.354465
00000000: efbd 5941 3f38 8dc1 1706 42c1 f46c a6c0
00000010: ecf2 75c1 a65f f940 a38e 9641 ec02 2d41
00000020: 7a16 1c41 0489 d23e 403f 1041 30df 8d41
00000030: 00c4 2f40 4772 2b41 ccb1 dbc1 16ea 8e3f
00000040: e327 5141 1470 d2c0 646a 9cc1 d83b efc0
00000050: fe38 66c1 35da 0c40 6619 cf40 8156 61c1
00000060: b4da 2dc1 5efa 3ac0 0c8f 3dc1 0a46 5bc1
00000070: fdf3 d341 d25f ec41 b706 2bbf 5d1b 1f40
00000080: d7fa 74c1 0f60 84c1 9c57 2bc1 e01e b83f
00000090: d3ef 9041 41de ab41 3d23 bfc1 674f a341
000000a0: 2b57 7fc1 0597 03c1 73f9 d0c0 ee6a a5c1
000000b0: aaa6 49c0 7b36 1e41 dc74 9241 2b69 d540
000000c0: 80fe c4c0 56b0 cec1 0667 14c0 21b4 2b41
000000d0: 27de 1841 dde8 8cc1 7219 80c1 a675 5641
000000e0: 582d 84c1 b07c 203f 3781 4541 341a 9f40
000000f0: 4015 c5c1 264f c840 f6a3 d640 6390 ecc0
00000100: b6f4 62c1 f7f8 65c1 dcdb 27c2 ed90 4cc1
00000110: 623c d7c0 b0c1 2d41 a2dd 8040 d550 9d41
00000120: cf7d 6d41 4ad2 3c41 45d6 1bc1 f654 cf40
00000130: acd2 3f40 ca77 25c1 35c5 8b41 70f8 4441
00000140: ca5e bb40 9857 1fc1 1d19 3040 eee9 0fc1
00000150: 832c 5041 d1aa 6d41 7876 3fc1 287e 4a41
00000160: 1830 6c41 64ef 97c1 90ed 94c0 6792 8141
00000170: 1795 bbc1 05c7 4541 ecfb 8440 8049 b740
00000180: 24c3 8bc1 dc42 d3bf 7e06 6340 d058 ba3e
00000190: 4994 bbc0 f644 19c2 4ec1 f4c0 dcc3 86c1
000001a0: 2144 10c1 7dab 71c1 d5ea 9ac1 37c1 27c2
000001b0: 2783 8841 98ba 4fc2 3779 50bf b2c6 dd40
000001c0: b5ad 91c0 ea61 2cc1 d94b 183f eead 8ac1
000001d0: 5245 4240 7514 13c1 b0c0 08c0 0f00 17c0
000001e0: 544c bdc0 4303 b4c1 c751 3ec0 bbe4 3bc2
000001f0: 3f6d 91bf ba5a 953f 8055 c23f 655a 83c0
00000200: 0fd6 f040 1705 1cc2 3414 1241 d779 a4c0
00000210: 4c27 4741 d1d8 7941 6868 ea40 baf7 9441
00000220: 209c 41c2 f21f c9c0 d71b 9941 30b3 8ec1
00000230: 238a 63c1 6f6e 5040 d2ea 0ec1 a039 8541
00000240: 85a0 61c1 6c6e a4c1 edad 0742 b852 abbf
00000250: db98 a741 d768 84c0 f4b2 9ec0 0678 4c40
00000260: d6b0 5e40 ae75 5fc1 9d15 5041 b911 a940
00000270: 80cb 50c0 8221 12c1 77ab 0a3e 3e99 7ac1
00000280: 1175 163e c9a4 45c1 3615 5041 6c55 8041
00000290: df90 bbc0 c453 05c2 1b30 8141 b4ac e440
000002a0: ca18 56c0 3309 8740 4149 bdc1 1183 0ac1
000002b0: b403 0bc0 cf6e 1f41 e397 05c2 461b e2bd
000002c0: 70d1 e4c0 36ec 3441 65b9 8fbe 6ff6 7e40
000002d0: b3d8 e8c0 39bb 1742 b4c0 dac1 5e8c 6541
000002e0: a0ee 7541 adfc 0ec2 c2a1 e040 605d 5740
000002f0: e77c b7c1 67fb 5f41 1f2e b641 96b6 6c41
00000300: e94c a040 1104 8040 7c90 ae40 677d 96c0
00000310: ea0e 8941 5b79 b240 23a3 1b41 74e1 9441
00000320: 02ad 16c1 51ea 9fc1 aa96 39c2 1f93 2dc1
00000330: 2efd 66c1 62cc 9dc1 00e9 36c1 1383 1ac1
00000340: 7a56 f4c0 db6f 86c1 4de4 b7c1 956f ce3f
00000350: 6c7c 3ec1 6f57 4040 d9a3 22c2 1252 8fc1
00000360: 1ac3 8b40 1765 5340 9a01 07c1 856d 3cc1
00000370: 74d8 d6bf 1f7c 7640 3eff bfbf 7610 03c1
00000380: ba1e 81c1 6c34 96c1 4693 49be 8296 f4c1
00000390: aa7a a6c0 df1c afc1 b5be 5b41 a1bf 2f41
000003a0: f040 4341 d7c0 b7c1 9f0b 7641 dd90 98c0
000003b0: c369 94c0 930f d440 259a 48c1 8e39 d6c0
000003c0: 991f eb3c 15c5 67c0 f046 68c1 124e 0a41
000003d0: d1ca bec1 89dc abc1 2233 1641 74fa 0fc2
000003e0: 2f95 d941 8019 e141 1ef6 4041 bea2 0641
000003f0: 329c 5dc1 8642 19c2 2b4f 1e3f f2d5 c241

l2/b f4 [256]
16.946466 8.289067 4.6988215 16.91469 7.7886114 16.28578 0.2618789 -0.5741785
13.912335 0.7546687 1.0155268 9.625293 3.141317 0.2643505 4.485766 -2.9957438
-0.039473083 6.3954945 7.723539 -5.481133 6.4251485 19.353514 13.323854 3.8201156
0.4853441 -1.4422481 4.0305686 5.5141387 8.015462 -1.9085996 15.217339 6.585689
15.502946 4.811523 12.444382 0.67982066 -4.785825 8.965159 -4.6154847 10.989326
9.612186 8.163177 11.92681 -2.9756026 11.245356 16.065939 -9.892857 14.138999
-4.9090242 1.8221494 19.229443 -7.291613 12.928384 12.150187 9.7465 -5.040319
-1.9330662 9.438212 3.8347802 1.6189479 5.498886 -2.082646 -0.49128935 -1.9167039
4.143752 -3.5673873 2.8895109 14.878674 -6.453753 -7.29263 4.3263626 10.695493
7.9041753 -2.5176537 -9.450758 11.435461 -0.896589 -6.8583655 11.647646 9.384898
13.979957 12.049952 13.490727 16.311241 13.632127 -4.356574 1.7741851 -7.2010627
-10.3844385 1.6733909 -2.2856445 9.839133 -11.59218 15.692248 -0.93204814 -7.682913
-2.2561147 4.442094 5.2804074 -0.52294695 15.802549 5.279989 7.20545 7.565311
2.3093994 11.434769 -2.5828297 -1.2636263 17.406433 14.12065 3.1396153 12.906592
12.188414 13.670574 -5.1353498 15.877437 10.163037 10.594959 2.0997062 12.043464
12.847789 19.938988 2.4502296 13.498424 15.363081 8.84135 12.19012 11.216793
1.0275327 13.502129 -5.4353786 10.577829 11.002201 16.286266 4.6350985 -0.670957
16.154905 12.661769 1.127889 16.00955 5.632973 -6.911631 10.960332 12.01191
12.190268 -9.136661 -10.049315 8.2750435 9.511058 -2.40969 14.789841 -2.5264995
13.205698 0.43790266 4.5433445 -2.067084 9.509607 12.143516 15.4434595 -8.236752
13.242258 10.032501 -8.166304 2.5977533 9.031165 -2.06701 -8.999484 15.91789
14.972344 1.9473062 16.973534 11.588059 8.253503 0.49732417 -9.502802 5.419448
0.22263461 12.532047 -1.3258265 9.340458 4.7099404 13.085075 -4.261736 3.6760142
11.3007345 7.2277374 1.06761 12.911629 9.494326 11.122622 6.040451 2.252801
5.389886 8.620562 13.60753 12.524206 0.7785266 9.422462 -3.5208745 9.454135
15.493846 8.125012 15.197327 12.098838 13.711309 18.051268 -6.298914 -1.4150505
1.2066561 21.891167 11.654906 2.1013 11.508193 8.172974 12.406473 11.777138
-2.0152657 18.212917 12.054693 6.0374975 10.87831 15.70363 9.622549 10.222768
12.544507 9.639229 -1.0506347 12.555343 -8.702232 19.410835 9.935158 11.964108
-5.809947 -0.8670448 -3.0019026 0.536126 15.054843 -2.345085 10.623666 -4.340129
-5.0030107 -5.3474784 8.672148 19.463076 0.14963502 -4.0283747 4.442604 -0.5311238
10.529006 9.356419 15.154166 14.541018 9.103705 13.175521 15.240777 4.8690104
00000000: 5d92 8741 05a0 0441 bf5c 9640 4951 8741
00000010: 4e3c f940 4749 8241 fe14 863e 5dfd 12bf
00000020: ed98 5e41 f831 413f c8fc 813f 3301 1a41
00000030: 560b 4940 f358 873e 658b 8f40 44ba 3fc0
00000040: 87ae 21bd e4a7 cc40 3b27 f740 7165 afc0
00000050: d19a cd40 ffd3 9a41 822e 5541 c67c 7440
00000060: 067f f83e 969b b8bf 6bfa 8040 d373 b040
00000070: 553f 0041 fe4c f4bf 387a 7341 f7bd d240
00000080: 110c 7841 fff7 9940 301c 4741 ba08 2e3f
00000090: 7a25 99c0 4b71 0f41 0db2 93c0 47d4 2f41
000000a0: 84cb 1941 5f9c 0241 37d4 3e41 4670 3ec0
000000b0: faec 3341 0b87 8041 2449 1ec1 5739 6241
000000c0: ba16 9dc0 313c e93f e6d5 9941 e554 e9c0
000000d0: a9da 4e41 2a67 4241 aaf1 1b41 4b4a a1c0
000000e0: b76e f7bf eb02 1741 0a6d 7540 af39 cf3f
000000f0: e0f6 af40 124a 05c0 478a fbbe 8e56 f5bf
00000100: 9e99 8440 1350 64c0 bfed 3840 0c0f 6e41
00000110: 2585 cec0 3a5d e9c0 9071 8a40 bd20 2b41
00000120: 01ef fc40 3d21 21c0 4e36 17c1 a6f7 3641
00000130: db86 65bf bb77 dbc0 c25c 3a41 8b28 1641
00000140: e7ad 5f41 9acc 4041 05da 5741 6c7d 8241
00000150: 311d 5a41 0e69 8bc0 7f18 e33f 1b6f e6c0
00000160: a926 26c1 ac31 d63f 0048 12c0 176d 1d41
00000170: 9279 39c1 7313 7b41 b59a 6ebf 6cda f5c0
00000180: 2f64 10c0 a225 8e40 19f9 a840 dadf 05bf
00000190: 3ed7 7c41 abf5 a840 0c93 e640 0717 f240
000001a0: 33cd 1340 d0f4 3641 154d 25c0 82be a1bf
000001b0: 6040 8b41 2fee 6141 75ef 4840 6781 4e41
000001c0: be03 4341 acba 5a41 c954 a4c0 fb09 7e41
000001d0: cd9b 2241 f484 2941 9661 0640 07b2 4041
000001e0: 8b90 4d41 0c83 9f41 90d0 1c40 8bf9 5741
000001f0: 2ecf 7541 2b76 0d41 bb0a 4341 fc77 3341
00000200: 3186 833f b808 5841 9fee adc0 ca3e 2941
00000210: 0409 3041 464a 8241 ba52 9440 d7c3 2bbf
00000220: 3f3d 8141 9b96 4a41 ab5e 903f 8f13 8041
00000230: 5141 b440 152c ddc0 855d 2f41 c930 4041
00000240: 560b 4341 c32f 12c1 ffc9 20c1 9466 0441
00000250: 4b2d 1841 5c38 1ac0 30a3 6c41 2bb2 21c0
00000260: 8a4a 5341 c734 e03e 1463 9140 1b4b 04c0
00000270: 5a27 1841 d74b 4241 6918 7741 bcc9 03c1
00000280: 4ae0 5341 2085 2041 2ea9 02c1 9741 2640
00000290: a77f 1041 e449 04c0 e3fd 0fc1 adaf 7e41
000002a0: b98e 6f41 5441 f93f ccc9 8741 b168 3941
000002b0: 590e 0441 46a1 fe3e 7a0b 18c1 1e6c ad40
000002c0: 54fa 633e 4483 4841 afb4 a9bf 8472 1541
000002d0: d5b7 9640 785c 5141 2460 88c0 d143 6b40
000002e0: cfcf 3441 a049 e740 72a7 883f 0896 4e41
000002f0: c2e8 1741 42f6 3141 604b c140 e42d 1040
00000300: f279 ac40 d2ed 0941 71b8 5941 2663 4841
00000310: 854d 473f 68c2 1641 0256 61c0 2344 1741
00000320: cbe6 7741 0d00 0241 4028 7341 d794 4141
00000330: 8661 5b41 ff68 9041 b490 c9c0 6020 b5bf
00000340: b573 9a3f 1c21 af41 7f7a 3a41 b37b 0640
00000350: 8f21 3841 80c4 0241 ea80 4641 286f 3c41
00000360: 1dfa 00c0 0eb4 9141 06e0 4041 2e33 c140
00000370: 8f0d 2e41 1242 7b41 f6f5 1941 7590 2341
00000380: 4db6 4841 483a 1a41 337b 86bf afe2 4841
00000390: 583c 0bc1 6449 9b41 68f6 1e41 fd6c 3f41
000003a0: 16eb b9c0 a6f6 5dbf 2c1f 40c0 8e3f 093f
000003b0: a3e0 7041 df15 16c0 89fa 2941 56e2 8ac0
000003c0: aa18 a0c0 8b1e abc0 1ec1 0a41 61b4 9b41
000003d0: ec39 193e 72e8 80c0 d029 8e40 bbf7 07bf
000003e0: cf76 2841 e4b3 1541 7777 7241 02a8 6841
000003f0: c7a8 1141 efce 5241 39da 7341 efce 9b40

l1/W f4 [256, 64]
59.464462 -22.074316 -30.994692 19.808474 20.989904 -5.7946944 8.567883 -18.221254
-0.8296635 13.708931 -21.853073 3.5340843 -20.17916 23.579824 -5.223807 -15.610593
-11.391877 2.5279448 2.463739 -8.679598 3.6798027 -3.597308 28.221767 8.491679
11.569205 -10.855623 21.11815 -9.537812 -10.979673 17.42567 12.404678 6.64083
-5.739392 2.285267 6.339469 -14.153403 -0.8825096 -5.8845396 -0.9305215 17.269384
-4.04073 8.560819 -0.28770366 23.906574 7.546467 0.7824902 -2.2859318 -14.91675
7.5501995 19.061806 -0.40073237 7.093305 10.056559 -2.7180939 3.839901 13.747356
30.762272 -3.4163377 -7.329084 -8.757795 10.814811 9.844456 -18.612106 -30.914602
26.740438 -6.429397 20.118324 -7.1430407 -2.6595407 -32.50424 6.7721143 2.8109894
-17.646227 7.899341 18.18813 -13.72617 -9.677822 -26.633974 10.513522 -17.570002
23.97842 -20.94594 -0.07353133 -3.044261 4.4213014 -1.3730742 23.764912 -27.086472
13.845281 -6.248099 1.7163172 -6.914116 0.5799798 -10.085254 -11.514821 -26.044407
7.0839934 5.1470194 15.432543 -5.3680224 0.3009617 -4.019787 25.400013 -3.6842182
0.38975286 -32.067307 21.162006 0.3827351 -1.4218409 16.43267 17.599083 -11.824137
-0.1366552 -6.856927 5.2198224 -44.788647 -2.2140899 4.886215 19.591255 -17.488743
-3.153392 -13.1993685 -9.926758 -25.210514 37.524258 6.9590344 -0.8448429 15.946801
-1.312988 21.394684 16.574718 9.915127 1.1485276 20.895855 5.171391 4.825266
22.260645 3.8620052 0.5573207 -2.7429793 0.447071 34.613316 9.994371 3.445105
11.476264 3.4594736 -5.4090624 3.3406816 -1.1757854 5.380295 21.045424 -22.055437
45.047787 -19.056202 5.922674 9.327567 0.51268 12.49373 -10.88186 -7.023981
-19.746292 12.8214245 -25.46889 2.8843203 7.8624773 0.71119326 -19.065145 -25.712215
-23.350752 -17.037872 -3.4441967 2.7314703 2.040722 -6.580855 1.1894094 -33.11024
-25.72658 -30.3176 -6.697091 10.705217 24.379946 -6.4529576 9.672301 -44.28796
8.192649 -9.710414 -7.5938344 22.131058 -22.9882 -6.7932386 -3.6818075 3.972722
-20.695314 21.530483 -19.093206 10.507166 5.572125 8.589512 14.7861 -20.869907
5.6360865 -34.581696 1.0861901 10.979645 -12.041557 7.522168 9.315914 5.250306
0.2839328 -15.2662735 -6.114659 -3.1263857 21.900188 -0.48820037 18.385426 -17.22863
6.399156 -4.69883 9.211741 2.548244 0.4373931 9.630607 -2.854571 -8.374285
-13.259731 21.1906 20.02551 -2.9667919 2.9257762 -5.08572 -19.688692 -6.413331
13.746744 -8.071104 -16.07322 -7.4844594 0.6042503 18.197962 3.5999503 -31.71676
-6.1590805 -12.63968 6.6374593 -34.860893 6.208187 28.637 20.262264 -12.55834
-25.435705 32.979782 -26.8472 -4.505197 -37.844185 8.155567 43.803417 4.3453736
00000000: 9cdb 6d42 3398 b0c1 21f5 f7c1 c177 9e41
00000010: 53eb a741 236e b9c0 0c16 0941 21c5 91c1
00000020: d464 54bf c857 5b41 18d3 aec1 702e 6240
00000030: eb6e a1c1 7ba3 bc41 6d29 a7c0 fdc4 79c1
00000040: 2145 36c1 d9c9 2140 e6ad 1d40 a2df 0ac1
00000050: e381 6b40 4b3a 66c0 2ec6 e141 ebdd 0741
00000060: 771b 3941 a2b0 2dc1 f9f1 a841 e19a 18c1
00000070: beac 2fc1 c667 8b41 9079 4641 ae81 d440
00000080: 19a9 b7c0 d141 1240 eedc ca40 5774 62c1
00000090: 26ec 61bf 264e bcc0 a836 6ebf b327 8a41
000000a0: a94d 81c0 1df9 0841 e54d 93be aa40 bf41
000000b0: a87c f140 4751 483f b54c 12c0 02ab 6ec1
000000c0: 3c9b f140 947e 9841 cb2c cdbe 5bfc e240
000000d0: aae7 2041 40f5 2dc0 f0c0 7540 2cf5 5b41
000000e0: 2219 f641 47a5 5ac0 db87 eac0 ee1f 0cc1
000000f0: 7709 2d41 e482 1d41 98e5 94c1 1b51 f7c1
00000100: 6bec d541 9fbd cdc0 54f2 a041 ca93 e4c0
00000110: ea35 2ac0 5704 02c2 29b5 d840 40e7 3340
00000120: 792b 8dc1 67c7 fc40 4a81 9141 649e 5bc1
00000130: 5cd8 1ac1 6112 d5c1 6337 2841 5d8f 8cc1
00000140: ced3 bf41 4991 a7c1 9897 96bd 2cd5 42c0
00000150: 4d7b 8d40 e5c0 afbf 8a1e be41 18b1 d8c1
00000160: 4586 5d41 6df0 c7c0 48b0 db3f 7040 ddc0
00000170: 8e79 143f 335d 21c1 b53c 38c1 f25a d0c1
00000180: 13b0 e240 62b4 a440 b2eb 7641 d7c6 abc0
00000190: a717 9a3e 18a2 80c0 3a33 cb41 3bca 6bc0
000001a0: b08d c73e ec44 00c2 ca4b a941 dbf5 c33e
000001b0: e2fe b5bf 1c76 8341 ecca 8c41 aa2f 3dc1
000001c0: 57ef 0bbe f26b dbc0 c908 a740 9327 33c2
000001d0: a6b3 0dc0 e05b 9c40 e4ba 9c41 f2e8 8bc1
000001e0: 2dd1 49c0 9d30 53c1 00d4 1ec1 22af c9c1
000001f0: d718 1642 69b0 de40 a047 58bf 1926 7f41
00000200: fe0f a8bf 5028 ab41 0699 8441 5ca4 1e41
00000210: f402 933f b62a a741 097c a540 9468 9a40
00000220: cd15 b241 182b 7740 92ac 0e3f f98c 2fc0
00000230: 7de6 e43e 0974 0a42 f2e8 1f41 9a7c 5c40
00000240: c79e 3741 0468 5d40 0a17 adc0 bacd 5540
00000250: 2380 96bf 602b ac40 075d a841 8971 b0c1
00000260: ef30 3442 1a73 98c1 8c86 bd40 b73d 1541
00000270: ff3e 033f 51e6 4741 191c 2ec1 74c4 e0c0
00000280: 68f8 9dc1 8e24 4d41 49c0 cbc1 b498 3840
00000290: 6a99 fb40 c310 363f 6b85 98c1 9eb2 cdc1
000002a0: 57ce bac1 904d 88c1 b86d 5cc0 69d0 2e40
000002b0: 309b 0240 5d96 d2c0 913e 983f e370 04c2
000002c0: 09d0 cdc1 728a f2c1 924e d6c0 9248 2b41
000002d0: 210a c341 a17e cec0 bfc1 1a41 df26 31c2
000002e0: 1715 0341 db5d 1bc1 b100 f3c0 680c b141
000002f0: d5e7 b7c1 3662 d9c0 bca2 6bc0 1441 7e40
00000300: 0190 a5c1 6e3e ac41 e3be 98c1 5a1d 2841
00000310: d94e b240 a46e 0941 de93 6c41 92f5 a6c1
00000320: d25a b440 a853 0ac2 4708 8b3f a0ac 2f41
00000330: 38aa 40c1 9ab5 f040 fc0d 1541 8202 a840
00000340: a45f 913e a842 74c1 49ab c3c0 b416 48c0
00000350: 9633 af41 66f5 f9be 5a15 9341 3cd4 89c1
00000360: e3c5 cc40 d15c 96c0 4b63 1341 6e16 2340
00000370: fdf1 df3e f716 1a41 4bb1 36c0 12fd 05c1
00000380: dc27 54c1 5986 a941 3f34 a041 ebdf 3dc0
00000390: eb3f 3b40 38be a2c0 7182 9dc1 023a cdc0
000003a0: aaf2 5b41 3e23 01c1 f495 80c1 b180 efc0
000003b0: 26b0 1a3f 6d95 9141 9665 6640 edbb fdc1
000003c0: 3017 c5c0 213c 4ac1 1166 d440 8e71 0bc2
000003d0: 78a9 c640 9318 e541 1e19 a241 f6ee 48c1
000003e0: 537c cbc1 4ceb 0342 11c7 d6c1 932a 90c0
000003f0: 7260 17c2 347d 0241 b336 2f42 4d0d 8b40

l1/b f4 [256]
-9.752018 -1.6151613 11.020739 2.0573895 -2.6328282 3.5866978 -1.712647 7.629388
-1.6365393 7.0355606 -27.734636 10.087261 0.3001981 -9.53838 -4.5128884 -4.0987606
1.7378646 2.9489508 8.91272 4.1522603 7.797508 1.7778687 8.870596 9.331631
-3.0718894 -29.266195 6.1519327 3.3840063 6.8160443 0.4695684 1.0567309 1.7005881
2.9833944 9.774195 -23.815165 8.519046 22.832235 10.9748125 5.1583624 9.189276
9.198608 -10.437984 -1.532147 -19.357828 -8.154977 6.123271 -8.223296 -2.843526
-13.865781 5.8670387 -7.870951 9.66886 9.93848 -8.595151 2.8720534 2.1698217
-8.670544 -6.384171 10.620157 1.5246123 8.457298 -1.6497761 10.31238 -13.62264
-2.321611 11.221977 -12.558287 0.77576506 -1.4224594 0.4663016 2.140932 0.3221122
8.069925 6.0347776 -3.515691 -11.046319 9.992065 -4.814803 1.0106109 27.148712
1.9523114 -32.810593 -9.605099 3.691691 2.8037124 -1.1522784 3.0096295 2.3191106
9.7476225 9.746503 -1.576312 4.324492 9.061006 -9.7478285 -0.6473546 -5.041816
-31.46812 -27.290203 9.64008 -5.207438 5.1360188 10.63471 0.9391631 3.2504768
10.890717 1.6208023 0.6619354 -0.5781897 -11.6152 16.296284 -3.185355 3.7598438
14.901197 5.5647526 -7.1021357 -1.4919857 6.3034215 2.686013 1.9206697 -2.6598017
13.288514 -12.445355 -11.07502 1.8769975 -0.81934845 2.240571 -7.575339 -3.2134416
-25.813795 -8.285361 15.762999 0.12325866 14.29807 3.136775 -5.610929 5.5201
-17.818953 -13.566381 -1.947996 -3.691964 -20.966286 -1.8155762 10.347181 -7.610892
-7.366664 8.26497 5.8267117 -1.5488096 8.91372 -19.263008 -8.623995 6.9697123
17.706598 -5.4851255 -9.623247 6.920982 -10.116567 5.233034 -31.658827 10.224327
6.27666 -3.812911 2.815882 12.54832 6.5911484 -21.618027 12.336109 -8.634981
-0.7058487 -36.18877 -7.8282156 -1.4896734 -1.9998606 5.8236413 17.998236 -13.519449
0.2966203 2.9387984 -2.5888426 2.7430377 7.3421865 -1.7664877 6.08567 -5.7984
4.7140517 7.8984914 -13.521086 8.419604 3.5095735 2.2294164 -0.6199676 5.304349
4.594614 3.4647465 -6.9453664 6.619519 13.380254 -9.770691 -0.5708445 12.598023
-8.632107 -0.10464192 -4.952104 2.776689 9.143179 -13.895938 -4.3960586 -21.877945
5.0253716 -2.652059 -33.523018 -1.9998776 -3.8713596 11.833987 -1.392736 -4.495769
-2.7067778 -14.055244 -4.9581895 -13.035316 -13.867397 8.902802 -0.38311163 -40.073257
14.474223 6.1507273 2.510559 -2.6465187 2.3677917 13.4242735 11.323363 -6.6719217
6.840068 -2.644347 12.893927 -4.5766506 -3.6318216 4.160181 -34.706596 0.3954991
-0.7821382 -15.125266 -14.939429 -4.4826193 -37.302906 -47.15972 -9.450396 -13.2366705
9.726486 7.527964 -11.1750145 6.8281965 -17.66223 8.605057 -3.7230017 -12.315048
00000000: 4408 1cc1 9bbd cebf f254 3041 45ac 0340
00000010: 4280 28c0 758c 6540 0438 dbbf f223 f440
00000020: 1f7a d1bf 5023 e140 89e0 ddc1 6c65 2141
00000030: 91b3 993e 349d 18c1 9569 90c0 0c29 83c0
00000040: 5972 de3f 9cbb 3c40 809a 0e41 51df 8440
00000050: 2f85 f940 3491 e33f f6ed 0d41 5c4e 1541
00000060: d699 44c0 2b21 eac1 a2dc c440 8f93 5840
00000070: 091d da40 456b f03e f542 873f dfac d93f
00000080: efef 3e40 1a63 1c41 7585 bec1 034e 0841
00000090: 6ba8 b641 d598 2f41 4e11 a540 4607 1341
000000a0: 802d 1341 fc01 27c1 651d c4bf d5dc 9ac1
000000b0: c97a 02c1 d6f1 c340 9f92 03c1 54fc 35c0
000000c0: 3dda 5dc1 c8be bb40 d5de fbc0 a7b3 1a41
000000d0: 0404 1f41 bd85 09c1 b9cf 3740 5cde 0a40
000000e0: 8cba 0ac1 214b ccc0 2aec 2941 7f26 c33f
000000f0: 1851 0741 dd2b d3bf 82ff 2441 55f6 59c1
00000100: 4695 14c0 388d 3341 beee 48c1 8a98 463f
00000110: 2613 b6bf 15bf ee3e 0805 0940 e4eb a43e
00000120: 6a1e 0141 e61c c140 1501 61c0 b9bd 30c1
00000130: 80df 1f41 de12 9ac0 b35b 813f 9030 d941
00000140: 57e5 f93f 0c3e 03c2 7cae 19c1 aa44 6c40
00000150: 0670 3340 dc7d 93bf c59d 4040 4f6c 1440
00000160: 43f6 1b41 adf1 1b41 97c4 c9bf 3d62 8a40
00000170: e1f9 1041 1bf7 1bc1 08b9 25bf 8f56 a1c0
00000180: b6be fbc1 5652 dac1 c53d 1a41 55a3 a6c0
00000190: 445a a440 c627 2a41 fe6c 703f d007 5040
000001a0: 6040 2e41 7376 cf3f 9974 293f 3d04 14bf
000001b0: dcd7 39c1 ca5e 8241 dbdc 4bc0 48a1 7040
000001c0: 4e6b 6e41 7412 b240 b244 e3c0 63f9 bebf
000001d0: a1b5 c940 a3e7 2b40 81d8 f53f 313a 2ac0
000001e0: c19d 5441 2d20 47c1 4833 31c1 7441 f03f
000001f0: d2c0 51bf 8465 0f40 2d69 f2c0 07a9 4dc0
00000200: a782 cec1 d790 04c1 3e35 7c41 096f fc3d
00000210: e5c4 6441 ecc0 4840 bb8c b3c0 a9a4 b040
00000220: 378d 8ec1 e60f 59c1 ef57 f9bf 2349 6cc0
00000230: f4ba a7c1 cd64 e8bf 0e8e 2541 6d8c f3c0
00000240: b6bb ebc0 513d 0441 6c74 ba40 653f c6bf
00000250: 999e 0e41 a41a 9ac1 e2fb 09c1 e207 df40
00000260: 1da7 8d41 2686 afc0 d2f8 19c1 af78 dd40
00000270: 75dd 21c1 0475 a740 4745 fdc1 d896 2341
00000280: 66da c840 bc06 74c0 6937 3440 ebc5 4841
00000290: b0ea d240 b8f1 acc1 b460 4541 e228 0ac1
000002a0: 80b2 34bf 4dc1 10c2 be80 fac0 9ead bebf
000002b0: 6ffb ffbf 455b ba40 63fc 8f41 aa4f 58c1
000002c0: 9ede 973e 4615 3c40 99af 25c0 ee8d 2f40
000002d0: 31f3 ea40 451c e2bf cfbd c240 7e8c b9c0
000002e0: 83d9 9640 71c0 fc40 5e56 58c1 b3b6 0641
000002f0: da9c 6040 c2ae 0e40 32b6 1ebf 3abd a940
00000300: 1407 9340 68be 5d40 7140 dec0 1ad3 d340
00000310: 8515 5641 c054 1cc1 dd22 12bf 8191 4941
00000320: 1c1d 0ac1 814e d6bd a377 9ec0 46b5 3140
00000330: 764a 1241 c355 5ec1 83ac 8cc0 0806 afc1
00000340: d8cf a040 56bb 29c0 9217 06c2 fdfb ffbf
00000350: 5bc4 77c0 0358 3d41 2c45 b2bf 57dd 8fc0
00000360: d93b 2dc0 48e2 60c1 7da9 9ec0 a890 50c1
00000370: dce0 5dc1 e171 0e41 3527 c4be 044b 20c2
00000380: 6b96 6741 c2d2 c440 00ad 2040 9060 29c0
00000390: e689 1740 d3c9 5641 7f2c 3541 6280 d5c0
000003a0: d6e1 da40 fb3c 29c0 864d 4e41 ec73 92c0
000003b0: c46f 68c0 3420 8540 8ed3 0ac2 dc7e ca3e
000003c0: 363a 48bf 1701 72c1 e707 6fc1 9e71 8fc0
000003d0: 2d36 15c2 8ea3 3cc2 d234 17c1 67c9 53c1
000003e0: b09f 1b41 15e5 f040 dccc 32c1 9680 da40
000003f0: 3f4c 8dc1 50ae 0941 a945 6ec0 700a 45c1

l4/W f4 [64, 256]
41.3951 41.78133 35.64944 73.25416 30.17634 43.021896 44.119724 39.392796
41.496685 47.776154 46.267685 48.365982 44.4986 53.378292 44.56598 41.267017
48.044853 37.282 37.573875 43.88995 43.588974 39.300213 41.73622 31.245287
44.342453 38.062473 47.2008 58.944595 55.449955 45.570896 67.146835 46.971428
46.862614 42.647366 48.162704 5.63335 49.484993 35.956127 48.77499 40.191277
31.186876 40.098034 53.185047 44.59392 49.458565 38.164547 30.704643 42.216366
44.369434 75.99978 40.491173 60.838093 43.83768 55.173275 51.882797 70.837524
44.6724 65.36452 52.228447 54.133644 34.11105 60.50028 49.100838 44.6485
39.816746 66.51426 62.30457 35.086826 28.806477 35.897633 50.88331 43.39336
45.367912 45.87586 40.548763 35.05103 46.755253 45.32181 44.334824 42.40865
40.048737 41.972477 52.411106 53.156754 39.61267 31.240074 43.96907 45.142536
70.00021 66.12015 48.837364 35.64904 50.247486 38.77094 47.540787 30.931883
40.59673 45.54646 38.870502 27.373945 49.95791 42.134407 42.731255 55.892494
40.126568 36.801838 38.297016 35.518013 58.001236 45.26593 44.712395 41.657932
33.6427 46.045856 25.05424 33.5753 37.77544 35.023083 48.810287 42.693428
40.443928 36.250725 43.543816 43.121933 47.212242 45.58112 50.89987 43.26273
51.757694 31.54672 40.177025 48.10368 38.335884 20.751862 19.835293 28.412363
9.766697 52.672497 48.19001 42.60678 42.915215 49.30564 45.976955 42.299564
30.785778 35.11794 52.655174 41.60272 46.958466 48.299118 32.546326 57.124043
52.094097 54.0219 18.950125 41.760307 49.97787 51.635784 38.7143 40.777355
37.094936 35.414703 39.25396 48.30142 38.163982 46.850864 47.39988 35.569195
58.662914 59.673103 44.533085 44.859142 55.076904 48.424446 38.432777 46.892326
43.504932 36.42515 39.261894 32.404068 60.552425 51.044727 25.974676 52.050545
46.471756 39.14711 45.171055 45.655125 45.352066 45.201828 50.330864 42.768326
39.621563 45.940506 30.539597 58.65042 48.205486 40.220116 45.676968 47.623917
39.30161 45.035553 43.556313 39.308937 48.48787 58.462814 51.730904 36.57341
42.945175 46.747627 30.752085 26.86414 45.628407 43.636074 40.61856 35.438004
46.268948 45.307606 41.077225 43.604393 20.751122 44.692543 52.13968 40.193317
48.813583 39.72396 47.453735 48.195854 51.178345 32.745255 42.400227 39.539948
47.485336 38.40454 43.019485 41.695267 36.41879 46.512856 51.645435 75.31831
52.2856 44.831787 46.825356 47.45046 49.132423 44.39405 53.640476 32.80587
29.171825 42.6862 36.07871 57.282707 33.050938 47.676483 51.013355 50.069122
00000000: 9594 2542 1520 2742 0799 0e42 2182 9242
00000010: 2569 f141 6c16 2c42 997a 3042 3992 1d42
00000020: 9bfc 2542 c81a 3f42 1c12 3942 c476 4142
00000030: 91fe 3142 5f83 5542 9043 3242 6d11 2542
00000040: ee2d 4042 c520 1542 a64b 1642 4f8f 2f42
00000050: 1c5b 2e42 6b33 1d42 e4f1 2642 59f6 f941
00000060: ac5e 3142 f93f 1842 9fcd 3c42 44c7 6b42
00000070: c1cc 5d42 9948 3642 2e4b 8642 bee2 3b42
00000080: 5173 3b42 e796 2a42 9ca6 4042 6744 b440
00000090: a2f0 4542 13d3 0f42 9719 4342 dec3 2042
000000a0: b97e f941 6364 2042 7dbd 5442 2d60 3242
000000b0: 92d5 4542 7fa8 1842 1ca3 f541 8fdd 2842
000000c0: 4d7a 3142 e3ff 9742 f6f6 2142 355a 7342
000000d0: c959 2f42 6fb1 5c42 fc87 4f42 d0ac 8d42
000000e0: 8ab0 3242 a2ba 8242 eee9 5042 da88 5842
000000f0: b771 0842 4900 7242 4267 4442 1098 3242
00000100: 5944 1f42 4d07 8542 e137 7942 e958 0c42
00000110: aa73 e641 2d97 0f42 8288 4b42 cd92 2d42
00000120: be78 3542 e180 3742 ef31 2242 4134 0c42
00000130: 6105 3b42 8949 3542 dc56 3142 75a2 2942
00000140: e831 2042 d1e3 2742 f9a4 5142 84a0 5442
00000150: 6073 1e42 aceb f941 54e0 2f42 f591 3442
00000160: 1c00 8c42 843d 8442 7659 4342 9e98 0e42
00000170: 6dfd 4842 7115 1b42 c429 3e42 7f74 f741
00000180: 0d63 2242 932f 3642 657b 1b42 d7fd da41
00000190: e6d4 4742 a289 2842 ceec 2a42 ea91 5f42
000001a0: 9b81 2042 1535 1342 2530 1942 7212 0e42
000001b0: 4401 6842 5010 3542 7ed9 3242 b9a1 2642
000001c0: 2092 0642 f52e 3842 156f c841 1b4d 0642
000001d0: 0d1a 1742 a317 0c42 bc3d 4342 12c6 2a42
000001e0: 95c6 2142 be00 1142 de2c 2e42 dc7c 2c42
000001f0: 56d9 3c42 1153 3642 7899 4b42 090d 2d42
00000200: e107 4f42 af5f fc41 46b5 2042 2b6a 4042
00000210: f257 1942 d003 a641 aeae 9e41 854c e341
00000220: 6444 1c41 a3b0 5242 92c2 4042 586d 2a42
00000230: 2ea9 2b42 fa38 4542 67e8 3742 c132 2942
00000240: 4649 f641 c578 0c42 e69e 5242 2f69 2642
00000250: 78d5 3b42 4c32 4142 702f 0242 057f 6442
00000260: 5b60 5042 6d16 5842 db99 9741 8e0a 2742
00000270: 57e9 4742 0b8b 4e42 71db 1a42 031c 2342
00000280: 3761 1442 a8a8 0d42 0e04 1d42 a734 4142
00000290: eba7 1842 4967 3b42 7a99 3d42 db46 0e42
000002a0: d3a6 6a42 42b1 6e42 e121 3242 c36f 3342
000002b0: c04e 5c42 a2b2 4142 2abb 1942 be91 3b42
000002c0: 0d05 2e42 5bb3 1142 2e0c 1d42 c49d 0142
000002d0: af35 7242 cd2d 4c42 23cc cf41 c233 5042
000002e0: 14e3 3942 a496 1c42 29af 3442 d99e 3642
000002f0: 8468 3542 acce 3442 ce52 4942 c412 2b42
00000300: 7b7c 1e42 14c3 3742 1851 f441 089a 6a42
00000310: 6bd2 4042 66e1 2042 37b5 3642 e47e 3e42
00000320: d934 1d42 6824 3442 aa39 2e42 5a3c 1d42
00000330: 94f3 4142 ecd9 6942 72ec 4e42 2c4b 1242
00000340: dcc7 2b42 92fd 3a42 4504 f641 c2e9 d641
00000350: 7d83 3642 578b 2e42 6879 2242 84c0 0d42
00000360: 6713 3942 fd3a 3542 144f 2442 e66a 2e42
00000370: 4c02 a641 2ac5 3242 088f 5042 f5c5 2042
00000380: 1c41 4342 56e5 1e42 a0d0 3d42 8ec8 4042
00000390: a0b6 4c42 24fb 0242 d599 2942 e828 1e42
000003a0: fcf0 3d42 409e 1942 f413 2c42 f4c7 2642
000003b0: d7ac 1142 2a0d 3a42 ed94 4e42 faa2 9642
000003c0: 7424 5142 c053 3342 2a4d 3b42 45cd 3d42
000003d0: 9a87 4442 8293 3142 d98f 5642 3639 0342
000003e0: e65f e941 abbe 2a42 9950 1042 7e21 6542
000003f0: 2934 0442 b8b4 3e42 ad0d 4c42 c846 4842

l4/b f4 [64]
-96.46359 -96.465706 -96.47599 -96.465996 -96.46755 -96.46175 -96.47252 -96.46196
-96.455765 -96.46817 -96.48012 -96.476524 -96.477264 -96.49062 -96.489296 -96.46829
-96.460594 -96.47775 -96.46724 -96.47365 -96.47506 -96.491264 -96.47061 -96.47736
-96.46587 -96.45523 -96.46931 -96.46398 -96.45794 -96.458984 -96.48822 -96.47817
-96.4772 -96.47725 -96.4716 -96.470505 -96.45343 -96.45961 -96.49537 -96.48141
-96.483574 -96.498825 -96.4692 -96.465775 -96.46656 -96.46231 -96.471436 -96.47041
-96.46905 -96.46751 -96.4688 -96.473404 -96.463165 -96.48106 -96.46993 -96.45959
-96.46243 -96.45086 -96.45861 -96.47242 -96.47038 -96.469185 -96.47874 -96.4646
00000000: 5ced c0c2 71ee c0c2 b5f3 c0c2 97ee c0c2
00000010: 63ef c0c2 6aec c0c2 eef1 c0c2 86ec c0c2
00000020: 5ae9 c0c2 b4ef c0c2 d2f5 c0c2 fbf3 c0c2
00000030: 5cf4 c0c2 33fb c0c2 85fa c0c2 c4ef c0c2
00000040: d3eb c0c2 9cf4 c0c2 3aef c0c2 82f2 c0c2
00000050: 3bf3 c0c2 87fb c0c2 f4f0 c0c2 69f4 c0c2
00000060: 87ee c0c2 14e9 c0c2 49f0 c0c2 8fed c0c2
00000070: 77ea c0c2 00eb c0c2 f8f9 c0c2 d3f4 c0c2
00000080: 54f4 c0c2 5af4 c0c2 76f1 c0c2 e6f0 c0c2
00000090: 28e8 c0c2 52eb c0c2 a1fd c0c2 7bf6 c0c2
000000a0: 97f7 c0c2 66ff c0c2 3bf0 c0c2 7aee c0c2
000000b0: e1ee c0c2 b4ec c0c2 60f1 c0c2 daf0 c0c2
000000c0: 27f0 c0c2 5def c0c2 07f0 c0c2 62f2 c0c2
000000d0: 24ed c0c2 4df6 c0c2 9bf0 c0c2 4feb c0c2
000000e0: c4ec c0c2 d7e6 c0c2 cfea c0c2 e1f1 c0c2
000000f0: d6f0 c0c2 39f0 c0c2 1df5 c0c2 e0ed c0c2

l3/W f4 [256, 256]
-8.420636 -4.1560807 -21.56739 -5.555162 26.14529 1.491895 4.137756 2.9988477
-15.178838 -6.8994513 27.24967 13.962387 -5.3716784 10.617268 1.7113053 -7.562057
13.658812 -7.030404 -4.2540746 9.033422 -27.36334 -1.5030533 14.928663 -0.45428622
-1.3781991 10.109372 5.060022 -34.297226 0.39178365 -0.9232163 -3.0218313 9.220382
-5.466532 14.018257 -12.207661 7.6760764 -22.508875 -19.874653 -15.296573 5.013655
-1.2952033 20.950085 7.5729604 14.9665165 0.7946534 31.362104 9.206141 25.130648
-2.4353278 3.417597 8.023719 -32.8654 -5.199298 22.370018 -17.03482 -28.124945
14.056326 2.502494 -21.53215 -13.522817 18.713856 -21.678091 -12.751998 -10.817264
-6.4940367 14.422432 -26.276478 6.586994 0.7884907 -10.628381 -21.85544 14.272571
-0.154386 -4.100988 -28.586805 -6.6314535 -9.312877 -9.459901 -0.7598126 11.033798
-3.3619666 -34.40494 -12.338646 -3.776272 -3.8156023 -32.97286 -29.54739 0.6361374
-30.815096 4.8231215 10.409122 27.149963 -10.299228 -20.00364 9.655524 -24.5369
16.342592 3.6812608 -5.3887463 10.112481 -7.7147813 -23.027042 24.491144 -1.6483043
0.7902051 0.27485976 23.854654 6.1682005 5.5695667 -26.633995 2.935138 -10.815448
-8.44715 -19.764154 11.970106 -10.400658 16.976665 -1.7531518 2.7869856 -25.841698
-22.502966 8.424863 -21.04834 -24.385311 6.9188566 4.740395 -0.010404404 22.788977
11.57375 -27.918943 14.5950365 15.244477 -6.4406624 31.351547 -23.552048 8.167051
15.862254 18.142097 -31.265732 -13.47966 16.99003 -15.485301 17.07165 6.02893
-21.737888 -14.707329 0.44172335 -40.684452 11.935115 7.9551415 -21.156828 -15.868087
-8.120867 -9.786074 5.305669 -4.868632 -25.595797 30.43792 0.3012373 -1.4596686
-3.8148866 -47.27615 -37.163147 14.399547 -24.913155 -6.740944 -3.7803483 2.3641295
-55.372917 15.849127 -24.049042 -9.578687 -2.3881106 0.4670395 8.988208 -7.364717
-12.921207 -2.671086 8.691253 -13.782925 -27.727928 17.88755 -4.6550426 -15.794292
16.840034 -38.310677 7.156328 19.405485 5.896083 -11.463285 -10.998885 15.683545
3.4631636 27.360836 11.074847 -7.9621296 -9.910317 18.412258 -35.713303 -16.318808
5.792664 -6.253391 2.3519104 20.095903 -10.883969 10.111432 14.112969 -15.963149
-3.9692678 -34.843407 -44.574505 7.3671107 27.674316 19.460861 28.645288 -21.095201
7.205812 3.690781 4.314422 -1.9284948 -21.742275 -15.540227 -14.2991905 -41.88461
-18.324621 -22.223991 -15.724707 4.675156 11.37771 24.726994 28.92957 10.718447
5.1693854 8.078827 -12.195703 9.391314 7.3951097 5.2626457 -39.453094 -25.043592
-15.366325 21.168455 -15.3751545 18.065338 12.199812 2.6109443 2.0017512 -1.2237505
-59.37629 17.53554 -5.357946 -14.0201435 5.490279 -12.158272 18.225044 8.40055
00000000: edba 06c1 9dfe 84c0 048a acc1 e3c3 b1c0
00000010: 8e29 d141 6af6 be3f 7f68 8440 1fed 3f40
00000020: 85dc 72c1 4ec8 dcc0 53ff d941 f065 5f41
00000030: cae4 abc0 54e0 2941 0d0c db3f 5ffc f1c0
00000040: 7e8a 5a41 12f9 e0c0 6121 88c0 e688 1041
00000050: 1fe8 dac1 0d64 c0bf cedb 6e41 3498 e8be
00000060: d468 b0bf fdbf 2141 b3eb a140 5c30 09c2
00000070: de97 c83e e757 6cbf af65 41c0 af86 1341
00000080: d5ed aec0 c84a 6041 9452 43c1 6ba2 f540
00000090: 2d12 b4c1 4aff 9ec1 c3be 74c1 dd6f a040
000000a0: 39c9 a5bf c699 a741 b155 f240 da76 6f41
000000b0: 686e 4b3f 97e5 fa41 5b4c 1341 910b c941
000000c0: 69dc 1bc0 e9b9 5a40 2761 0041 2b76 03c2
000000d0: a660 a6c0 ccf5 b241 5047 88c1 e3ff e0c1
000000e0: b6e6 6041 dd28 2040 d841 acc1 755d 58c1
000000f0: fab5 9541 bb6c adc1 2f08 4cc1 8313 2dc1
00000100: 26cf cfc0 48c2 6641 3a36 d2c1 a8c8 d240
00000110: 87da 493f d90d 2ac1 f1d7 aec1 735c 6441
00000120: 5d17 1ebe 4b3b 83c0 c7b1 e4c1 de34 d4c0
00000130: 8b01 15c1 c15b 17c1 1483 42bf 708a 3041
00000140: 762a 57c0 a99e 09c2 186b 45c1 71ae 71c0
00000150: d432 74c0 35e4 03c2 0e61 ecc1 e7d9 223f
00000160: 5185 f6c1 0357 9a40 c48b 2641 2033 d941
00000170: a3c9 24c1 7407 a0c1 077d 1a41 924b c4c1
00000180: a1bd 8241 c799 6b40 9c70 acc0 b9cc 2141
00000190: 7ddf f6c0 6237 b8c1 dded c341 a3fb d2bf
000001a0: e24a 4a3f 6bba 8c3e 55d6 be41 e661 c540
000001b0: e439 b240 6c12 d5c1 4dd9 3b40 130c 2dc1
000001c0: 8727 07c1 fd1c 9ec1 8e85 3f41 1869 26c1
000001d0: 36d0 8741 4767 e0bf f95d 3240 ccbb cec1
000001e0: 1306 b4c1 3dcc 0641 0063 a8c1 1e15 c3c1
000001f0: 4667 dd40 51b1 9740 3c77 2abc d34f b641
00000200: 142e 3941 ff59 dfc1 4585 6941 61e9 7341
00000210: e819 cec0 f8cf fa41 986a bcc1 3eac 0241
00000220: cbcb 7d41 0423 9141 3820 fac1 b0ac 57c1
00000230: 95eb 8741 cbc3 77c1 bd92 8841 ffec c040
00000240: 32e7 adc1 3851 6bc1 9029 e23e e1bc 22c2
00000250: 3bf6 3e41 8590 fe40 2f41 a9c1 afe3 7dc1
00000260: 12ef 01c1 c293 1cc1 0ac8 a940 d5cb 9bc0
00000270: 31c4 ccc1 dc80 f341 c63b 9a3e 6cd6 babf
00000280: 1a27 74c0 c71a 3dc2 10a7 14c2 8b64 6641
00000290: 244e c7c1 d0b5 d7c0 3af1 71c0 e64d 1740
000002a0: de7d 5dc2 0696 7d41 7064 c0c1 4d42 19c1
000002b0: ced6 18c0 cd1f ef3e b3cf 0f41 c3ab ebc0
000002c0: 44bd 4ec1 13f3 2ac0 5f0f 0b41 dc86 5cc1
000002d0: ccd2 ddc1 b419 8f41 1cf6 94c0 6cb5 7cc1
000002e0: 64b8 8641 223e 19c2 a400 e540 6f3e 9b41
000002f0: b6ac bc40 9e69 37c1 6ffb 2fc1 cdef 7a41
00000300: 79a4 5d40 fee2 da41 9332 3141 c4c9 fec0
00000310: a990 1ec1 4e4c 9341 6cda 0ec2 eb8c 82c1
00000320: 815d b940 c71b c8c0 b385 1640 69c4 a041
00000330: bd24 2ec1 6dc8 2141 b9ce 6141 0f69 7fc1
00000340: 7c08 7ec0 a65f 0bc2 4b4c 32c2 5fbf eb40
00000350: 0065 dd41 d8af 9b41 8d29 e541 f9c2 a8c1
00000360: 0396 e640 c235 6c40 bf0f 8a40 ebd8 f6bf
00000370: 2ef0 adc1 c5a4 78c1 7cc9 64c1 d789 27c2
00000380: d398 92c1 bcca b1c1 6698 7bc1 e19a 9540
00000390: 1a0b 3641 e2d0 c541 c26f e741 c27e 2b41
000003a0: 9b6b a540 e042 0141 9921 43c1 d242 1641
000003b0: bda4 ec40 9867 a840 f8cf 1dc2 4759 c8c1
000003c0: 78dc 75c1 ff58 a941 a200 76c1 d085 9041
000003d0: 6e32 4341 b619 2740 b11c 0040 dba3 9cbf
000003e0: 5281 6dc2 c948 8c41 4b74 abc0 8252 60c1
000003f0: 5eb0 af40 4888 42c1 e4cc 9141 a768 0641

l3/b f4 [256]
5.7530804 5.2597284 3.168196 -1.3926786 20.349043 20.82077 10.156926 10.964718
6.9247274 3.485887 0.2683627 15.865368 -0.7119911 -2.0650785 8.918549 9.0131445
4.5580697 4.2465043 8.632355 5.3482347 1.8075695 1.5830935 30.235704 7.8621473
8.383516 4.63531 0.4351376 1.1932353 -1.0366021 7.0817547 1.732426 6.2208285
-1.788182 8.157016 4.2508283 47.183437 -0.7241168 -2.131527 -0.41874978 2.0652647
7.425859 2.4896753 10.415341 6.9467654 -4.7242875 6.276135 25.503471 4.869225
2.0916917 -4.163308 7.7274075 -2.9305258 -0.11406896 -2.5511403 -1.5042018 3.0861497
-1.4523576 0.41903803 10.897795 5.043374 20.696873 -4.6065397 -10.6509695 3.365474
-2.6945357 -0.6845547 -1.4583086 7.105811 2.0801554 3.7663221 8.466438 10.408289
-2.0282469 8.361061 7.110982 0.6918792 3.7773676 1.0222609 7.9895077 -4.911767
3.0951686 5.749438 -0.5267442 6.9889665 10.42965 25.906206 6.90716 4.117764
-2.7705626 -4.6562243 10.017564 5.3242106 -0.44710827 10.869829 6.7882137 13.349237
20.916866 0.46801382 16.15333 5.6213036 5.665301 4.138212 4.394159 -1.4051554
-2.0326388 3.9594033 3.9000025 26.78089 -1.9540405 5.029735 -0.6388498 5.2432027
2.5397916 8.133709 30.732466 5.094299 17.479574 11.97638 3.9902852 2.1341343
11.923716 9.72349 -2.6464 2.2754648 0.862314 -3.1177762 0.12501787 3.75076
5.5664716 13.987878 -2.4293115 -0.6876699 5.1137567 9.686449 23.765577 19.895378
-1.4953454 3.9363096 2.9268746 -1.3834727 8.222626 4.0020313 5.413186 10.259306
9.408323 -5.197297 -3.9092588 1.585708 6.154727 3.1026402 13.605168 5.5380263
7.9400373 4.9323487 16.576895 6.382181 8.418929 2.0006766 -6.030876 2.4263158
6.7610726 25.372566 3.840631 9.031409 10.412977 0.82603216 4.3364205 8.561564
3.4547641 20.282661 6.028222 4.632762 0.95687515 -4.8453712 8.56816 16.031994
2.1292164 5.947478 3.671632 5.451463 5.4602275 14.02857 24.294569 -1.211236
3.0921438 9.460562 2.4240654 6.341285 8.821718 -3.070632 0.7910917 4.8979316
3.408475 -5.7393975 21.468122 3.9012516 -5.384972 13.934039 -4.3475566 7.1444654
-1.1294069 0.5341237 -1.5207146 11.541854 4.8866315 4.2930875 9.268943 25.123516
3.4683096 12.174534 22.15624 11.306161 6.776505 2.247342 6.5779257 26.126383
10.741271 0.28237665 2.6715941 10.753175 52.593777 20.596548 4.6140122 2.3687565
8.997526 4.633877 6.106859 13.917577 -5.037789 -2.1656294 3.4844925 1.3488984
-0.855575 9.659814 6.2295914 -5.1274433 -1.381058 2.5831888 8.928521 0.74450785
-0.84102875 -0.60095906 1.8048594 8.937915 4.403478 2.69602 -1.9386077 8.762235
24.090057 5.04139 11.440146 32.685688 6.3471704 -4.6156025 1.8714999 3.8196907
00000000: 3c19 b840 b24f a840 b9c3 4a40 4b43 b2bf
00000010: d7ca a241 f090 a641 c582 2241 7c6f 2f41
00000020: 5e97 dd40 c618 5f40 d666 893e 8cd8 7d41
00000030: 0c45 36bf 3f2a 04c0 60b2 0e41 d735 1041
00000040: b5db 9140 5de3 8740 201e 0a41 bd24 ab40
00000050: 705e e73f cfa2 ca3f b9e2 f141 b696 fb40
00000060: e222 0641 7654 9440 5bca de3e efbb 983f
00000070: 61af 84bf bc9d e240 23c0 dd3f 0711 c740
00000080: 26e3 e4bf 2383 0241 c906 8840 d7bb 3c42
00000090: b85f 39bf f06a 08c0 5f66 d6be 4c2d 0440
000000a0: a3a0 ed40 d756 1f40 3da5 2641 e74b de40
000000b0: 5d2d 97c0 19d6 c840 1c07 cc41 b1d0 9b40
000000c0: 47de 0540 d239 85c0 ec46 f740 bc8d 3bc0
000000d0: fd9c e9bd e245 23c0 af89 c0bf 7a83 4540
000000e0: dbe6 b9bf 278c d63e 5e5d 2e41 5263 a140
000000f0: 3293 a541 c668 93c0 5f6a 2ac1 ed63 5740
00000100: 4673 2cc0 fa3e 2fbf dba9 babf ce62 e340
00000110: 4421 0540 6c0b 7140 8876 0741 5a88 2641
00000120: ccce 01c0 e8c6 0541 2a8d e340 ff1e 313f
00000130: 64c0 7140 72d9 823f 0caa ff40 322d 9dc0
00000140: 3e17 4640 65fb b740 b5d8 06bf 9da5 df40
00000150: d9df 2641 e93f cf41 7407 dd40 b9c4 8340
00000160: e650 31c0 caff 94c0 f147 2041 ef5f aa40
00000170: 60eb e4be d2ea 2d41 0c39 d940 7a96 5541
00000180: be55 a741 829f ef3e 053a 8141 b8e1 b340
00000190: 254a b540 3c6c 8440 f39c 8c40 22dc b3bf
000001a0: c116 02c0 dd66 7d40 a499 7940 433f d641
000001b0: 001e fabf 97f3 a040 a98b 23bf 51c8 a740
000001c0: f28b 2240 ac23 0241 17dc f541 7f04 a340
000001d0: 2bd6 8b41 419f 3f41 d560 7f40 a895 0840
000001e0: 8ac7 3e41 6a93 1b41 9e5e 29c0 37a1 1140
000001f0: 9cc0 5c3f a589 47c0 af04 003e 740c 7040
00000200: 8920 b240 59ce 5f41 d779 1bc0 220b 30bf
00000210: e5a3 a340 b2fb 1a41 e71f be41 bc29 9f41
00000220: 7a67 bfbf 7fec 7b40 ea51 3b40 a215 b1bf
00000230: e08f 0341 a410 8040 d238 ad40 1e26 2441
00000240: 7e88 1641 4250 a6c0 4c31 7ac0 7bf8 ca3f
00000250: 86f3 c440 a891 4640 c5ae 5941 8337 b140
00000260: c914 fe40 cdd5 9d40 7b9d 8441 d43a cc40
00000270: efb3 0641 160b 0040 f0fc c0c0 c248 1b40
00000280: b55a d840 04fb ca41 e6cc 7540 a780 1041
00000290: 8e9b 2641 d876 533f f5c3 8a40 2bfc 0841
000002a0: db1a 5d40 e442 a241 32e7 c040 963f 9440
000002b0: c5f5 743f 480d 9bc0 2f17 0941 8641 8041
000002c0: 1545 0840 bd51 be40 05fc 6a40 6372 ae40
000002d0: 2fba ae40 0675 6041 475b c241 c809 9bbf
000002e0: afe5 4540 765e 1741 e323 1b40 cfeb ca40
000002f0: c225 0d41 3c85 44c0 fc84 4a3f dbbb 9c40
00000300: 7424 5a40 25a9 b7c0 b7be ab41 1bae 7940
00000310: b151 acc0 d3f1 5e41 2f1f 8bc0 769f e440
00000320: 6890 90bf 55bc 083f c7a6 c2bf 6fab 3841
00000330: 495f 9c40 f960 8940 974d 1441 f6fc c841
00000340: c9f8 5d40 e4ca 4241 fb3f b141 09e6 3441
00000350: 21d9 d840 74d4 0f40 5e7e d240 d502 d141
00000360: 3fdc 2b41 ac93 903e 66fb 2a40 010d 2c41
00000370: 0760 5242 bbc5 a441 fda5 9340 b599 1740
00000380: def5 0f41 b848 9440 646b c340 65ae 5e41
00000390: 9135 a1c0 ac99 0ac0 ed01 5f40 b4a8 ac3f
000003a0: f706 5bbf 998e 1a41 d058 c740 0414 a4c0
000003b0: 82c6 b0bf f752 2540 39db 0e41 1198 3e3f
000003c0: a94d 57bf 74d8 19bf a205 e73f b301 0f41
000003d0: 4be9 8c40 978b 2c40 4c24 f8bf 1d32 0c41
000003e0: 70b8 c041 1153 a140 d70a 3741 25be 0242
000003f0: 051c cb40 04b3 93c0 4f8d ef3f d075 7440
