size8/agent_white_136000/target_model.npz (npz, 608680 bytes, 8 tensors)

l2/W f4 [256, 256]
7.828297 -21.881205 -30.493793 -9.014969 -36.970398 16.637115 0.6636222 14.42068
15.717241 -20.154222 11.362318 20.337221 -0.39429885 -3.8873646 -23.018631 -0.058091283
12.810392 -10.9127035 -17.822502 -12.244566 -14.221614 14.014923 5.51226 -4.230173
-1.4469302 -17.552452 7.722811 -11.327614 28.456806 42.146873 4.985825 3.753743
-9.40376 6.722946 -18.25863 -1.8386436 26.92016 14.161957 -28.785133 14.018376
-15.593254 -7.895545 -12.105358 -11.5132065 -4.4859443 28.293104 14.305803 8.36475
-6.4464593 -26.706219 4.5390987 1.96872 16.038227 -32.567074 9.864118 13.172744
-13.838993 -10.378099 16.7692 11.841887 -14.751449 5.7873645 5.4267025 -16.122995
-16.836784 -27.081669 -25.45191 -15.623541 7.228772 4.0061812 -5.487975 11.185884
31.454222 22.886065 -9.189179 6.261801 4.1414337 -20.950686 26.039963 10.468822
7.766847 -5.6432776 7.314134 -15.79142 5.085556 17.05913 -1.1473154 24.587072
15.872014 -18.503693 -9.665439 4.840885 -16.370205 -0.13618672 5.777317 21.006979
-26.859287 1.6879379 16.19709 -2.0384948 1.2579015 -53.39475 -12.346471 -8.513744
-15.989995 -35.95133 -29.473087 -53.65175 21.725456 -44.73081 7.557726 2.4028606
3.1981184 -3.2177427 4.9162526 -31.589771 -9.454352 -6.7479467 -5.248637 -6.3308377
-4.347522 -30.875616 1.4540123 -46.86954 4.1070957 -20.665154 -10.035709 0.2046808
22.862206 -29.522255 1.4049889 -55.66523 10.653148 29.155905 6.6042857 18.03812
-61.26623 -13.663611 9.771493 -0.8903223 -35.007435 -18.259012 -9.306229 22.189266
-14.005929 -59.558365 35.888424 7.230576 34.645065 9.702193 -4.8576283 11.363517
15.661145 -12.824818 18.873226 2.4911373 -28.175905 -12.10845 3.438359 -31.14646
-4.3637505 -30.63744 16.370447 22.07882 -24.858604 -23.18549 -8.044767 18.725273
-27.72115 8.1994705 -7.057436 -11.461396 -10.046769 22.774359 -48.63951 -3.9924219
-25.677162 22.313528 6.438165 10.815124 4.990424 55.01526 -13.921581 7.1973195
9.885032 -38.398266 0.3387933 -1.1661202 -44.216545 29.629456 26.910374 16.733412
31.17099 -8.450595 19.808872 8.168969 26.211481 11.351896 25.732758 14.161132
-12.836952 -29.3067 -30.552698 -13.757554 -22.708893 -23.969337 -25.401546 -29.693476
-29.93199 -3.5287647 -39.03876 3.0900648 -13.215752 -12.298185 -31.56233 -15.700945
-10.255719 2.9391236 -17.841707 -13.836226 -1.8025736 2.1501613 -17.909609 -7.818371
-26.768116 -6.3197017 -0.049712736 -33.000195 -34.487545 -25.075876 13.285327 6.8334823
17.455894 -20.503368 18.482954 -11.857069 -14.322979 30.241865 -4.9651704 12.417034
6.2236953 -15.222877 -7.6612363 1.2963648 -40.017696 -26.918034 28.934809 -17.016409
33.000774 30.324804 28.381111 2.6976664 -28.912092 -34.879322 -6.8396873 6.3752937
00000000: 6981 fa40 b50c afc1 4af3 f3c1 503d 10c1
00000010: b0e1 13c2 d018 8541 25e3 293f 1bbb 6641
00000020: d279 7b41 d93b a1c1 0ecc 3541 a1b2 a241
00000030: 8ae1 c9be 95ca 78c0 2826 b8c1 20f1 6dbd
00000040: 5ef7 4c41 6f9a 2ec1 7c94 8ec1 bee9 43c1
00000050: bb8b 63c1 203d 6041 6f64 b040 945d 87c0
00000060: 0235 b9bf 6c6b 8cc1 4521 f740 e83d 35c1
00000070: 8aa7 e341 6696 2842 e18b 9f40 533d 7040
00000080: cd75 16c1 6022 d740 ad11 92c1 ac58 ebbf
00000090: 7d5c d741 6097 6241 f447 e6c1 454b 6041
000000a0: f87d 79c1 4ea8 fcc0 8caf 41c1 1836 38c1
000000b0: db8c 8fc0 4758 e241 92e4 6441 04d6 0541
000000c0: 6549 cec0 56a6 d5c1 4c40 9140 04ff fb3f
000000d0: 4a4e 8041 af44 02c2 6dd3 1d41 8fc3 5241
000000e0: 846c 5dc1 b20c 26c1 5227 8641 5f78 3d41
000000f0: ef05 6cc1 1732 b940 8ca7 ad40 e5fb 80c1
00000100: bcb1 86c1 42a7 d8c1 839d cbc1 06fa 79c1
00000110: 1a52 e740 a332 8040 7e9d afc0 62f9 3241
00000120: 3fa2 fb41 a916 b741 e106 13c1 ac60 c840
00000130: a086 8440 019b a7c1 d851 d041 4b80 2741
00000140: 038a f840 bb95 b4c0 630d ea40 a8a9 7cc1
00000150: e0bc a240 1979 8841 3bdb 92bf 53b2 c441
00000160: c5f3 7d41 9007 94c1 a3a5 1ac1 88e8 9a40
00000170: 2ef6 82c1 8874 0bbe c8df b840 4b0e a841
00000180: d2df d6c1 590e d83f a493 8141 b376 02c0
00000190: eb02 a13f 3994 55c2 258b 45c1 4c38 08c1
000001a0: 05d7 7fc1 29ce 0fc2 e2c8 ebc1 649b 56c2
000001b0: bccd ad41 59ec 32c2 e4d8 f140 78c8 1940
000001c0: f9ad 4c40 7fef 4dc0 f151 9d40 dab7 fcc1
000001d0: 0745 17c1 2eef d7c0 d6f4 a7c0 3996 cac0
000001e0: e61e 8bc0 4301 f7c1 131d ba3f 697a 3bc2
000001f0: 546d 8340 3c52 a5c1 4492 20c1 d897 513e
00000200: cce5 b641 942d ecc1 add6 b33f 32a9 5ec2
00000210: 4b73 2a41 4b3f e941 4f56 d340 124e 9041
00000220: 9f10 75c2 279e 5ac1 0958 1c41 2aec 63bf
00000230: 9d07 0cc2 7512 92c1 50e6 14c1 9e83 b141
00000240: 4918 60c1 c43b 6ec2 bf8d 0f42 e160 e740
00000250: 8c94 0a42 2f3c 1b41 b171 9bc0 f7d0 3541
00000260: 0d94 7a41 7432 4dc1 5efc 9641 cb6e 1f40
00000270: 4168 e1c1 36bc 41c1 130e 5c40 f32b f9c1
00000280: d8a3 8bc0 7a19 f5c1 adf6 8241 6ca1 b041
00000290: 6cde c6c1 e27b b9c1 5eb7 00c1 5ccd 9541
000002a0: eac4 ddc1 0831 0341 84d6 e1c0 e161 37c1
000002b0: 91bf 20c1 e331 b641 dc8e 42c2 d783 7fc0
000002c0: d46a cdc1 1b82 b241 7305 ce40 bf0a 2d41
000002d0: 8eb1 9f40 a00f 5c42 ccbe 5ec1 7150 e640
000002e0: 1729 1e41 d397 19c2 5176 ad3e 6d43 95bf
000002f0: bedd 30c2 2009 ed41 7248 d741 07de 8541
00000300: 305e f941 a335 07c1 9278 9e41 19b4 0241
00000310: 1db1 d141 5ea1 3541 b0dc cd41 ff93 6241
00000320: 2864 4dc1 1f74 eac1 ed6b f4c1 f11e 5cc1
00000330: d0ab b5c1 34c1 bfc1 5e36 cbc1 3d8c edc1
00000340: b774 efc1 48d7 61c0 b127 1cc2 9fc3 4540
00000350: b873 53c1 5ec5 44c1 a77f fcc1 1237 7bc1
00000360: 6d17 24c1 9a1a 3c40 d1bb 8ec1 2f61 5dc1
00000370: bbba e6bf 3e9c 0940 e146 8fc1 1830 fac0
00000380: 1a25 d6c1 ff3a cac0 959f 4bbd 3300 04c2
00000390: 3ff3 09c2 659b c8c1 b390 5441 e3ab da40
000003a0: aca5 8b41 e606 a4c1 17dd 9341 8eb6 3dc1
000003b0: ec2a 65c1 57ef f141 ade2 9ec0 2cac 4641
000003c0: 8328 c740 e790 73c1 d928 f5c0 48ef a53f
000003d0: 1f12 20c2 2258 d7c1 7d7a e741 9b21 88c1
000003e0: cb00 0442 3399 f241 840c e341 91a6 2c40
000003f0: f74b e7c1 6d84 0bc2 b8de dac0 6802 cc40

l2/b f4 [256]
16.744238 11.383231 10.752958 25.569471 14.487573 20.422739 0.2618789 -2.433649
16.131947 -5.067719 2.522731 8.877756 -4.585798 -3.733119 4.485766 1.3396934
-0.039473083 15.652656 12.329328 -14.585039 8.938432 32.14644 16.84722 -0.957084
3.0678432 -3.8173144 6.944449 6.5454073 15.973735 -3.1540828 25.205029 15.392736
20.621517 18.96119 16.460415 0.67982066 -15.599929 16.72383 -2.6977181 14.796073
10.325848 14.921562 18.367416 -3.4228973 13.798911 18.684872 -19.497335 17.71909
-11.493718 -10.354283 33.439625 -23.58376 19.052185 21.291424 16.306425 -16.30607
-3.6455157 13.86751 2.5612633 -1.5949891 12.876184 -6.8008523 -6.651046 -7.4578238
1.7087557 -8.389382 1.8345941 26.045832 -5.281145 -10.174967 4.8127723 8.285017
2.895846 -9.624599 -12.738225 18.374308 -10.705726 -11.915784 15.229921 9.279056
25.050602 20.286558 20.599527 16.75986 17.061579 -12.118867 2.067421 -14.531112
-17.032454 -6.017816 -2.2856445 9.382751 -11.370888 20.336132 -0.93204814 -11.64242
-10.478247 1.8695934 5.5433493 -0.52294695 23.84169 2.2410285 9.70495 12.378168
-2.6213155 13.946075 -8.637627 -1.2636263 25.501669 21.648947 3.1396153 22.432041
21.877205 17.820904 -8.441586 20.849957 14.898931 20.337471 2.3085232 21.920444
17.425205 21.974123 6.950036 11.993005 15.267517 19.065496 18.531992 19.09981
-0.82785404 12.730207 -16.483034 12.87949 20.055405 23.339844 7.868634 -0.670957
27.15614 18.290693 -3.9681942 21.25534 8.317036 -9.64937 21.896067 18.378992
19.95067 -14.316096 -15.952118 6.742048 18.561798 -2.40969 19.533398 -12.927884
11.539518 -5.17249 8.88054 -8.48239 13.369466 16.302124 23.031853 -17.172857
16.931517 11.439002 -15.007847 2.5977533 15.172938 -13.852692 -15.994863 15.499066
24.594526 -4.2823043 20.153566 18.70842 10.490682 0.31860292 -24.341625 1.7340516
5.666314 17.162481 0.7878978 14.548596 12.309113 17.248339 -0.19901134 4.516791
16.240166 15.504762 1.06761 14.012511 15.161463 15.302606 10.86682 1.7406306
-1.1394973 15.160895 20.059948 22.074026 -1.570516 15.640473 -4.3873024 12.218838
21.34856 -2.6571114 18.069328 17.304462 22.189308 26.136345 -14.814396 4.6364694
-3.8312976 28.461903 19.56459 2.339522 16.43142 10.740896 19.53419 16.30288
-2.0152657 22.840883 14.124318 7.9638166 19.126495 17.717468 17.372967 19.82731
18.63478 16.014088 -3.4851022 12.167956 -16.38681 27.126106 18.953789 21.958162
-7.046387 -0.8670448 -3.707299 0.536126 22.898983 -1.3249239 12.3930435 -17.394156
-10.4630785 -13.3128195 18.69859 28.962671 0.14963502 -6.826938 5.1438136 -0.5311238
20.722254 16.934229 27.95468 20.212189 13.591679 15.996444 20.760233 4.8690104
00000000: 33f4 8541 b721 3641 1e0c 2c41 478e cc41
00000010: 19cd 6741 c561 a341 fe14 863e e8c0 1bc0
00000020: 3a0e 8141 c12a a2c0 6d74 2140 4a0b 0e41
00000030: dbbe 92c0 6ceb 6ec0 658b 8f40 137b ab3f
00000040: 87ae 21bd 4771 7a41 ed44 4541 525c 69c1
00000050: d103 0f41 f495 0042 1bc7 8641 7503 75bf
00000060: 8b57 4440 e14e 74c0 ed38 de40 fa73 d140
00000070: 6b94 7f41 7edc 49c0 e6a3 c941 a648 7641
00000080: def8 a441 84b0 9741 eeae 8341 ba08 2e3f
00000090: 4f99 79c1 67ca 8541 6aa7 2cc0 b7bc 6c41
000000a0: ac36 2541 b8be 6e41 78f0 9241 c010 5bc0
000000b0: 57c8 5c41 9e7a 9541 8bfa 9bc1 b2c0 8d41
000000c0: 45e6 37c1 25ab 25c1 2dc2 0542 8aab bcc1
000000d0: e06a 9841 d654 aa41 8f73 8241 d572 82c1
000000e0: 2150 69c0 52e1 5d41 bdeb 2340 9a28 ccbf
000000f0: da04 4e41 95a0 d9c0 5ed5 d4c0 7ea6 eec0
00000100: 82b8 da3f e93a 06c1 fbd3 ea3f dd5d d041
00000110: 24ff a8c0 aacc 22c1 3b02 9a40 6e8f 0441
00000120: 8a55 3940 5cfe 19c1 c5cf 4bc1 95fe 9241
00000130: a74a 2bc1 0da7 3ec1 c2ad 7341 0377 1441
00000140: a267 c841 df4a a241 d5cb a441 3114 8641
00000150: 1d7e 8841 e1e6 41c1 a050 0440 6f7f 68c1
00000160: 7742 88c1 f391 c0c0 0048 12c0 c01f 1641
00000170: 28ef 35c1 66b0 a241 b59a 6ebf 5a47 3ac1
00000180: e6a6 27c1 d64e ef3f 1e63 b140 dadf 05bf
00000190: c8bb be41 036d 0f40 7a47 1b41 fa0c 4641
000001a0: a2c3 27c0 2023 5f41 b833 0ac1 82be a1bf
000001b0: 6b03 cc41 0b31 ad41 75ef 4840 d274 b341
000001c0: 8404 af41 3691 8e41 bc10 07c1 b6cc a641
000001d0: 0562 6e41 24b3 a241 d8be 1340 125d af41
000001e0: d266 8b41 01cb af41 b266 de40 59e3 3f41
000001f0: c047 7441 2386 9841 8541 9441 69cc 9841
00000200: 3eee 53bf eeae 4b41 41dd 83c1 6412 4e41
00000210: 7871 a041 00b8 ba41 dacb fb40 d7c3 2bbf
00000220: c63f d941 5753 9241 e5f6 7dc0 f00a aa41
00000230: 9412 0541 d263 1ac1 252b af41 2d08 9341
00000240: f99a 9f41 bb0e 65c1 e03b 7fc1 dbbe d740
00000250: 907e 9441 5c38 1ac0 6644 9c41 9dd8 4ec1
00000260: dea1 3841 0a85 a5c0 b116 0e41 dfb7 07c1
00000270: 55e9 5541 c06a 8241 3c41 b841 0362 89c1
00000280: bf73 8741 2706 3741 2420 70c1 9741 2640
00000290: 5bc4 7241 a0a4 5dc1 f5ea 7fc1 2dfc 7741
000002a0: 97c1 c441 a308 89c0 813a a141 d8aa 9541
000002b0: d5d9 2741 ec1f a33e a6bb c2c1 67f5 dd3f
000002c0: 7252 b540 c34c 8941 acb3 493f 0dc7 6841
000002d0: 20f2 4441 99fc 8941 a1c9 4bbe 8d89 9040
000002e0: dceb 8141 8113 7841 72a7 883f 3f33 6041
000002f0: 5a95 7241 79d7 7441 7fde 2d41 fccc de3f
00000300: 0cdb 91bf 0793 7241 c67a a041 9b97 b041
00000310: ab06 c9bf 613f 7a41 c864 8cc0 5c80 4341
00000320: dac9 aa41 1d0e 2ac0 fc8d 9041 8a6f 8a41
00000330: b483 b141 3c17 d141 c407 6dc1 f55d 9440
00000340: fb33 75c0 fab1 e341 4884 9c41 baba 1540
00000350: 8c73 8341 b6da 2b41 0546 9c41 4c6c 8241
00000360: 1dfa 00c0 21ba b641 35fd 6141 96d7 fe40
00000370: 1003 9941 60bd 8d41 d6fb 8a41 559e 9e41
00000380: 0814 9541 da1c 8041 ea0b 5fc0 f3af 4241
00000390: 3018 83c1 4402 d941 5ca1 9741 51aa af41
000003a0: 017c e1c0 a6f6 5dbf 6344 6dc0 8e3f 093f
000003b0: 1e31 b741 1b97 a9bf e849 4641 3b27 8bc1
000003c0: c568 27c1 4f01 55c1 b696 9541 8db3 e741
000003d0: ec39 193e 4776 dac0 1f9a a440 bbf7 07bf
000003e0: 2dc7 a541 4d79 8741 2fa3 df41 90b2 a141
000003f0: 8477 5941 6ff1 7f41 f514 a641 efce 9b40

l1/W f4 [256, 64]
60.099125 -3.2193916 7.003538 3.4244778 7.080782 7.113729 6.66868 12.255119
-17.222609 16.552282 -23.793238 16.624659 -45.15083 0.2817992 -0.86322504 -32.420025
-2.6325886 24.670313 15.125755 -7.3557744 17.69866 -10.351861 33.95351 7.3939657
25.76189 -1.0365354 22.565763 -20.684578 -11.00257 19.350836 9.441309 12.480095
0.045310877 7.2357516 2.9372108 -19.762808 2.4867141 -11.412273 -6.4995427 8.191907
13.558658 16.099152 -16.073729 25.959742 4.2111626 -0.30161345 13.659397 -23.18047
5.8699164 12.053306 -4.183637 -9.87474 6.498823 5.5519547 -5.304977 40.73891
13.839686 -9.000894 -14.905039 -18.371609 12.017289 -15.373698 0.5095164 -26.212454
23.830341 -0.66315645 39.907375 -13.217278 -1.3701619 -44.821537 12.090618 16.787586
-9.435879 -0.7590823 22.581396 -18.498419 -7.897687 -32.43551 7.8757324 -20.170214
17.359407 -22.770605 4.346381 -5.2403836 13.353199 0.09672371 13.923568 -21.839806
9.271376 -3.8884745 -3.0463386 -8.422264 -3.8241208 -11.534314 -15.932932 -26.832314
-5.5988193 -18.158298 18.611252 1.2291013 2.2947407 -13.681233 22.85208 -16.037485
-0.03474842 -31.598991 20.262651 11.543799 -8.076473 18.819794 39.460846 -22.34726
-42.589455 -13.307905 -12.3406925 -46.54722 7.758679 15.073983 3.3604813 -4.745143
-15.854452 -23.412226 -56.020382 -14.225541 40.15311 19.250822 -1.2897605 -1.3757267
23.880985 30.489618 -2.8814769 23.572758 -10.033484 11.987594 -14.789259 11.614196
22.226019 -0.37594113 -34.087677 10.682585 20.129395 30.549736 18.42787 6.831602
-11.568949 28.724386 -30.029444 9.445733 3.7294984 8.144238 25.58724 5.786962
52.44257 -29.440018 11.079817 6.6865244 -3.4788127 9.807129 4.170735 3.5316453
-19.99584 14.747627 -42.486984 5.903218 -0.6614247 9.639805 -5.6098914 -15.503919
-31.943813 -10.186528 -2.9366174 -15.040952 8.84909 5.8711853 -13.753111 -24.539116
-13.227994 -33.182407 -14.552056 2.5104654 21.560051 -19.7506 7.84774 -26.958035
20.70042 22.351051 -25.06367 31.322939 -0.06128191 -0.30186403 22.54155 15.045038
-32.48114 32.52516 -20.6096 1.847981 -9.0346985 20.059536 20.154802 -40.514217
3.4058194 -59.63587 -11.970158 5.42042 -24.145647 27.502499 13.869616 -5.9774923
-25.740458 -29.042557 2.6690998 7.5317264 38.98539 -4.344355 15.290751 -0.00050497625
7.86379 -5.174284 12.906697 -3.1098502 -6.116227 13.18073 8.124745 -9.296258
-19.39896 33.72938 18.271624 2.2090545 0.715189 -2.2797046 -3.9683309 21.382221
1.3852156 -31.128754 -23.23545 -11.582203 1.7497956 28.495306 20.218267 -36.64645
-23.506207 -19.230923 0.072335534 -41.363945 -8.301081 39.315224 35.170025 -35.87757
-67.98638 16.122747 -70.58513 8.285975 -32.08095 -4.0869584 45.820827 -22.256374
00000000: 8165 7042 830a 4ec0 fc1c e040 a52a 5b40
00000010: c495 e240 aba3 e340 d465 d540 f814 4441
00000020: e7c7 89c1 136b 8441 8d58 bec1 4dff 8441
00000030: 739a 34c2 fc47 903e 51fc 5cbf 1bae 01c2
00000040: 557c 28c0 cd5c c541 1803 7241 8162 ebc0
00000050: db96 8d41 39a1 25c1 65d0 0742 5e9b ec40
00000060: 5a18 ce41 31ad 84bf af86 b441 047a a5c1
00000070: 870a 30c1 83ce 9a41 9a0f 1741 78ae 4741
00000080: e697 393d 478b e740 43fb 3b40 3b1a 9ec1
00000090: 5326 1f40 ac98 36c1 41fc cfc0 0d12 0341
000000a0: 43f0 5841 10cb 8041 ff96 80c1 8dad cf41
000000b0: d8c1 8640 146d 9abe e48c 5a41 9a71 b9c1
000000c0: 5bd6 bb40 57da 4041 5be0 85c0 effe 1dc1
000000d0: 5cf6 cf40 9da9 b140 5fc2 a9c0 a5f4 2242
000000e0: 5b6f 5d41 a903 10c1 0a7b 6ec1 0ef9 92c1
000000f0: d146 4041 abfa 75c1 ab6f 023f 1bb3 d1c1
00000100: 8aa4 be41 9fc4 29bf 27a1 1f42 f879 53c1
00000110: 7761 afbf 4149 33c2 2c73 4141 fa4c 8641
00000120: 5cf9 16c1 3853 42bf b3a6 b441 c3fc 93c1
00000130: dab9 fcc0 f6bd 01c2 0006 fc40 995c a1c1
00000140: 11e0 8a41 332a b6c1 8e15 8b40 39b1 a7c0
00000150: b4a6 5541 1517 c63d efc6 5e41 ecb7 aec1
00000160: 8e57 1441 c4dc 78c0 36f7 42c0 98c1 06c1
00000170: 65be 74c0 8d8c 38c1 4aed 7ec1 94a8 d6c1
00000180: 8729 b3c0 3244 91c1 d8e3 9441 3153 9d3f
00000190: 08dd 1240 55e6 5ac1 0fd1 b641 c54c 80c1
000001a0: 5c54 0ebd bcca fcc1 e919 a241 67b3 3841
000001b0: 3c39 01c1 f08e 9641 e8d7 1d42 30c7 b2c1
000001c0: 9a5b 2ac2 2eed 54c1 7a73 45c1 5a30 3ac2
000001d0: 1947 f840 092f 7141 2012 5740 36d8 97c0
000001e0: d6ab 7dc1 3d4c bbc1 df14 60c2 d19b 63c1
000001f0: c99c 2042 af01 9a41 df16 a5bf d017 b0bf
00000200: 420c bf41 bdea f341 1e6a 38c0 0295 bc41
00000210: 2789 20c1 2fcd 3f41 cea0 6cc1 bfd3 3941
00000220: e3ce b141 5b7b c0be c859 08c2 deeb 2a41
00000230: 0009 a141 dc65 f441 476c 9341 7c9c da40
00000240: 6a1a 39c1 8bcb e541 4d3c f0c1 b921 1741
00000250: 1ab0 6e40 cd4e 0241 abb2 cc41 cb2e b940
00000260: 31c5 5142 2885 ebc1 ee46 3141 02f8 d540
00000270: dea4 5ec0 00ea 1c41 a976 8540 7a06 6240
00000280: 7bf7 9fc1 48f6 6b41 acf2 29c2 29e7 bc40
00000290: 2153 29bf a43c 1a41 3b84 b3c0 0d10 78c1
000002a0: ee8c ffc1 05fc 22c1 8af1 3bc0 bda7 70c1
000002b0: df95 0d41 c0e0 bb40 be0c 5cc1 1c50 c4c1
000002c0: dda5 53c1 c9ba 04c2 39d5 68c1 77ab 2040
000002d0: fc7a ac41 3b01 9ec1 b020 fb40 0eaa d7c1
000002e0: 769a a541 f4ce b241 6582 c8c1 6195 fa41
000002f0: bd02 7bbd ec8d 9abe 1855 b441 7ab8 7041
00000300: b0ec 01c2 c419 0242 76e0 a4c1 a48a ec3f
00000310: 208e 10c1 ee79 a041 093d a141 8f0e 22c2
00000320: f2f8 5940 228b 6ec2 c485 3fc1 1574 ad40
00000330: 492a c1c1 1e05 dc41 f2e9 5d41 9e47 bfc0
00000340: 75ec cdc1 2857 e8c1 88d2 2a40 e703 f140
00000350: 0af1 1b42 f504 8bc0 eba6 7441 6260 04ba
00000360: 2ba4 fb40 bc93 a5c0 d581 4e41 c907 47c0
00000370: 22b8 c3c0 45e4 5241 f5fe 0141 79bd 14c1
00000380: 1231 9bc1 e3ea 0642 492c 9241 2661 0d40
00000390: a016 373f aee6 11c0 22f9 7dc0 ca0e ab41
000003a0: bf4e b13f b007 f9c1 34e2 b9c1 b450 39c1
000003b0: 4df9 df3f 63f6 e341 03bf a141 f795 12c2
000003c0: b60c bcc1 eed8 99c1 a724 943d ae74 25c2
000003d0: 3ad1 04c1 ca42 1d42 1bae 0c42 a282 0fc2
000003e0: 07f9 87c2 63fb 8041 962b 8dc2 5b93 0441
000003f0: e552 00c2 5dc8 82c0 8748 3742 0e0d b2c1

l1/b f4 [256]
-21.172085 2.5538921 8.501631 4.968364 0.4016146 8.866687 -7.1138496 5.7946544
-0.94065136 4.1386743 -39.89064 15.057225 -3.7175088 -10.054373 10.323808 2.5094993
8.743486 8.090367 11.78136 9.173207 13.83489 0.48808122 4.955318 13.617561
-5.089937 -44.668938 5.846918 -0.45922357 10.60821 4.0360756 7.97978 1.4794829
8.244684 10.485412 -36.390656 9.860487 30.802385 12.146686 7.3415856 18.35288
10.275381 -23.460245 -11.381469 -21.46799 -9.977532 12.070504 -11.671235 -4.0623507
-16.21216 12.955826 -21.342161 18.275824 12.993064 -9.014616 8.610846 9.935298
-17.317768 -10.455676 18.660337 6.0543776 13.279833 -0.012909815 15.275394 -25.84657
2.2345395 18.225447 -22.647745 -2.7932804 -2.8919413 -7.349775 1.5647398 -9.113026
11.316929 4.252743 -0.84119076 -19.693703 17.747374 -9.293196 -5.0561724 29.822624
-2.0980065 -42.43026 -8.197315 8.760489 13.857337 2.6417725 0.148831 -2.8604343
13.456996 12.298116 -1.114661 0.78027725 19.652874 -4.8942137 0.9078603 -10.361679
-45.355038 -34.817345 3.1044261 -13.289997 4.7474203 11.699665 3.3928027 -1.2548265
11.17392 0.574401 -1.5112113 -7.606335 -22.401354 22.011078 -6.623036 -4.433281
19.55399 9.0725355 -5.476861 6.4707294 5.8516083 -0.7102201 1.0446436 2.8127272
16.095852 -19.07636 -20.887133 1.7342197 1.0422896 1.1913407 -3.0185075 -5.2837014
-38.55879 -4.59265 24.551453 -11.417737 21.925003 10.85463 -3.354116 -0.17408788
-24.5539 -10.836877 -7.4659305 -12.292596 -34.291313 -5.504807 16.777966 -17.172886
-1.9394969 8.350466 14.469393 -0.18591626 2.2389574 -28.03482 -17.163822 10.665256
32.114746 -16.435698 -12.767432 10.895921 -18.187803 -0.40282324 -51.38931 11.108041
0.12827492 -0.5199071 -2.7094996 8.892065 8.721193 -36.727295 15.805818 -11.998817
-6.280382 -48.33473 -14.5637865 -8.888276 3.9043162 11.21896 19.54746 -13.325139
2.02808 -1.7864896 -10.4055395 4.7806263 4.359493 -1.624753 6.4547925 -5.4902015
1.7986928 6.0749016 -23.084805 14.861525 1.4939817 2.2665303 -0.92347324 6.0419703
5.360889 -5.265111 -14.107129 13.064281 17.06273 -13.150366 10.130926 9.168784
-13.90371 3.0185642 -7.378544 1.44627 3.6249702 -9.794431 -3.6905565 -24.670906
3.4131258 -1.2606329 -46.499233 -0.4094241 -5.453401 15.319689 -11.055426 2.609507
2.2253716 -31.30667 -9.301878 -13.500197 -24.592106 16.78893 2.8571954 -59.124973
17.760883 8.052202 -0.37014425 -1.879998 -2.746008 23.49961 14.169595 -8.308692
6.8772016 -6.153175 15.687669 -13.179242 -2.4330704 -0.40268126 -43.43428 6.036246
1.8484148 -24.173918 -19.720783 -6.6744094 -51.3093 -63.339466 -4.6759515 -26.104893
7.8048654 9.815268 -8.840695 -3.9398172 -23.425356 12.913488 -5.5584803 -24.358625
00000000: 6e60 a9c1 f872 2340 ae06 0841 d6fc 9e40
00000010: 6ea0 cd3e f3dd 0d41 a8a4 e3c0 cf6d b940
00000020: 87ce 70bf 0570 8440 0490 1fc2 65ea 7041
00000030: aaeb 6dc0 b6de 20c1 512e 2541 a39b 2040
00000040: 52e5 0b41 2572 0141 7380 3c41 75c5 1241
00000050: b65b 5d41 c8e5 f93e f791 9e40 88e1 5941
00000060: c4e0 a2c0 feac 32c2 f419 bb40 5a1f ebbe
00000070: 3abb 2941 8827 8140 5c5a ff40 b25f bd3f
00000080: 3aea 0341 3fc4 2741 0890 11c2 8ec4 1d41
00000090: 496b f641 d358 4241 45ee ea40 b3d2 9241
000000a0: f667 2441 95ae bbc1 7f1a 36c1 72be abc1
000000b0: f9a3 1fc1 c920 4141 61bd 3ac1 c7fe 81c0
000000c0: 81b2 81c1 104b 4f41 bfbc aac1 e334 9241
000000d0: 97e3 4f41 de3b 10c1 06c6 0941 fbf6 1e41
000000e0: ca8a 8ac1 734a 27c1 5f48 9541 76bd c140
000000f0: 327a 5441 b083 53bc 0468 7441 c6c5 cec1
00000100: b202 0f40 b7cd 9141 952e b5c1 1bc5 32c0
00000110: 9115 39c0 5b31 ebc0 6549 c83f f4ce 11c1
00000120: 2412 3541 7816 8840 4758 57bf b48c 9dc1
00000130: 9ffa 8d41 eeb0 14c1 2acc a1c0 bc94 ee41
00000140: bd45 06c0 96b8 29c2 3428 03c1 f72a 0c41
00000150: a7b7 5d41 cd12 2940 2767 183e 5b11 37c0
00000160: db4f 5741 15c5 4441 36ad 8ebf 40c0 473f
00000170: 1639 9d41 669d 9cc0 8869 683f 70c9 25c1
00000180: 8f6b 35c2 f644 0bc2 ebae 4640 d4a3 54c1
00000190: deea 9740 d431 3b41 ae23 5940 289e a0bf
000001a0: 60c8 3241 f20b 133f 5f6f c1bf 1967 f3c0
000001b0: f935 b3c1 b016 b041 e9ef d3c0 70dd 8dc0
000001c0: 926e 9c41 1b29 1141 7242 afc0 3710 cf40
000001d0: 6040 bb40 fcd0 35bf e2b6 853f b903 3440
000001e0: 4ec4 8041 639c 98c1 d918 a7c1 e9fa dd3f
000001f0: bf69 853f da7d 983f 3a2f 41c0 1514 a9c0
00000200: 333c 1ac2 fdf6 92c0 6069 c441 0daf 36c1
00000210: 6866 af41 91ac 2d41 d6a9 56c0 1844 32be
00000220: 636e c4c1 d963 2dc1 e7e8 eec0 79ae 44c1
00000230: 4e2a 09c2 6127 b0c0 4639 8641 1262 89c1
00000240: 6f41 f8bf 829b 0541 a282 6741 d560 3ebe
00000250: 144b 0f40 5047 e0c1 824f 89c1 e3a4 2a41
00000260: 8075 0042 4f7c 83c1 6747 4cc1 b155 2e41
00000270: 9f80 91c1 d93e cebe a78e 4dc2 89ba 3141
00000280: 805a 033e a218 05bf 7168 2dc0 e645 0e41
00000290: 028a 0b41 c0e8 12c2 a1e4 7c41 28fb 3fc1
000002a0: e4f8 c8c0 c356 41c2 4505 69c1 6136 0ec1
000002b0: 51e0 7940 dc80 3341 3361 9c41 c533 55c1
000002c0: 10cc 0140 b1ab e4bf 177d 26c1 e4fa 9840
000002d0: f780 8b40 e8f7 cfbf a98d ce40 bbaf afc0
000002e0: 913b e63f 9865 c240 aead b8c1 cec8 6d41
000002f0: cb3a bf3f d50e 1140 be68 6cbf d257 c140
00000300: 678c ab40 ca7b a8c0 cdb6 61c1 4c07 5141
00000310: 7980 8841 e667 52c1 4618 2241 57b3 1241
00000320: 9975 5ec1 2830 4140 081d ecc0 601f b93f
00000330: 83ff 6740 fdb5 1cc1 1432 6cc0 045e c5c1
00000340: a770 5a40 6b5c a1bf 37ff 39c2 09a0 d1be
00000350: 4382 aec0 721d 7541 06e3 30c1 2a02 2740
00000360: 7d6c 0e40 0f74 fac1 7ed4 14c1 cf00 58c1
00000370: a2bc c4c1 bb4f 8641 4adc 3640 f97f 6cc2
00000380: 4a16 8e41 d2d5 0041 8c83 bdbe c6a3 f0bf
00000390: 98be 2fc0 34ff bb41 a9b6 6241 67f0 04c1
000003a0: 0912 dc40 cfe6 c4c0 b100 7b41 2dde 52c1
000003b0: 6db7 1bc0 3d2c cebe b4bc 2dc2 ed28 c140
000003c0: db98 ec3f 2f64 c1c1 2ac4 9dc1 c394 d5c0
000003d0: b93c 4dc2 9d5b 7dc2 65a1 95c0 d2d6 d0c1
000003e0: 75c1 f940 560b 1d41 7d73 0dc1 f725 7cc0
000003f0: 2167 bbc1 a69d 4e41 12df b1c0 77de c2c1

l4/W f4 [64, 256]
55.770653 53.695858 49.03443 92.96288 37.87681 55.61567 63.06406 52.337868
50.017616 59.540592 56.996876 56.773815 58.386898 61.394764 56.012535 48.765717
55.93804 50.493523 54.969772 59.069218 53.758762 46.290855 54.553093 38.440376
56.297813 48.490005 60.28032 65.635254 63.03872 52.333466 87.62352 59.78846
58.786404 52.67345 60.94504 2.599486 58.064014 43.32825 62.34186 49.85442
40.601887 49.753796 66.099335 57.612934 63.66791 51.70059 37.907764 49.052303
58.77155 95.909 50.902027 68.5342 45.478783 53.384422 64.37391 95.703224
51.041073 88.58674 61.658478 62.716866 42.80359 82.279655 60.46338 50.52357
51.8844 90.25645 79.2888 47.576786 40.259518 46.864727 59.960125 50.52608
52.760162 49.790264 47.20231 48.76953 56.118134 40.942616 53.650555 57.19277
48.04669 58.39898 62.3497 65.31526 52.4338 42.45464 61.94891 53.389385
87.17702 89.903564 59.1639 42.061142 60.328484 55.4204 60.078968 42.236126
55.27223 59.176956 49.015587 35.403763 57.060394 51.795475 56.487755 62.504612
53.535774 37.824623 57.50683 45.874813 66.28151 58.21388 58.63814 55.757404
44.214844 35.205452 31.383163 40.332558 54.983173 48.844696 60.59414 56.61941
50.148647 48.513725 55.772694 46.611324 56.817066 58.506313 56.758892 53.689655
55.02662 43.909164 52.560764 68.49459 48.43269 28.39716 25.822607 31.926594
13.984706 64.30831 51.833668 52.142826 51.948242 57.828484 55.378616 50.422382
42.49222 42.582016 54.027725 49.843975 50.07354 57.511692 39.64278 62.638836
61.335915 60.822956 19.97925 54.8247 51.687607 59.51653 47.559864 52.38552
36.00412 43.412617 47.644108 67.365005 40.76636 53.684616 56.463154 43.745518
64.768265 78.61255 55.38603 50.849 71.8754 61.163307 47.74107 69.75894
53.28444 52.294773 47.250904 39.82028 68.89332 62.35326 30.502733 58.186005
57.9133 47.319958 56.132935 49.36489 56.821747 62.398262 55.097305 52.93556
38.66828 54.325344 43.23594 61.674286 53.149197 52.291862 55.554573 55.00373
42.449978 53.241844 58.388824 40.97298 62.883026 76.57528 59.026115 46.025337
59.70404 58.286354 25.70183 38.992443 54.38306 49.163914 53.675594 50.687927
57.261982 57.845646 52.56974 54.81181 28.122705 56.689842 57.31571 58.571175
55.504444 45.8976 55.27809 54.22722 58.2854 43.179764 52.260494 44.446083
58.22481 50.870632 57.449898 40.450214 44.232185 52.45234 55.74141 98.05037
66.3711 50.50242 60.489033 56.665 61.410725 43.45541 57.691067 47.225998
37.148045 60.941364 46.86009 82.697975 41.79931 49.719276 62.308495 62.199116
00000000: 2615 5f42 8fc8 5642 4223 4442 ffec b942
00000010: da81 1742 7276 5e42 9941 7c42 fa59 5142
00000020: 0a12 4842 9129 6e42 cdfc 6342 6318 6342
00000030: 2f8c 6942 3d94 7542 d60c 6042 1810 4342
00000040: 8ec0 5f42 5ef9 4942 0ce1 5b42 e146 6c42
00000050: f908 5742 d629 3942 5e36 5a42 f2c2 1942
00000060: f630 6142 c4f5 4142 0c1f 7142 4045 8342
00000070: a627 7c42 7855 5142 3e3f af42 6227 6f42
00000080: 4725 6b42 9db1 5242 b9c7 7342 fb5d 2640
00000090: 8d41 6842 2150 2d42 115e 7942 ed6a 4742
000000a0: 5568 2242 e303 4742 dc32 8442 a573 6642
000000b0: f1ab 7e42 67cd 4e42 8da1 1742 8f35 4442
000000c0: 1116 6b42 68d1 bf42 ad9b 4b42 8311 8942
000000d0: 46ea 3542 a689 5542 71bf 8042 0d68 bf42
000000e0: 0f2a 4c42 692c b142 48a2 7642 12de 7a42
000000f0: e036 2b42 2f8f a442 80da 7142 2318 4a42
00000100: a089 4f42 4d83 b442 de93 9e42 a14e 3e42
00000110: bf09 2142 7b75 3b42 2bd7 6f42 b51a 4a42
00000120: 680a 5342 3b29 4742 2acf 3c42 0014 4342
00000130: f878 6042 3dc5 2342 2b9a 5642 65c5 6442
00000140: d02f 4042 8e98 6942 1866 7942 6aa1 8242
00000150: 36bc 5142 8dd1 2942 afcb 7742 bb8e 5542
00000160: a25a ae42 a0ce b342 d5a7 6c42 9c3e 2842
00000170: 5e50 7142 7dae 5d42 dd50 7042 cbf1 2842
00000180: c316 5d42 34b5 6c42 f60f 4442 749d 0d42
00000190: d83d 6442 912e 4f42 76f3 6142 b904 7a42
000001a0: a224 5642 6a4c 1742 fe06 6642 cf7f 3742
000001b0: 2290 8442 03db 6842 758d 6a42 9507 5f42
000001c0: 00dc 3042 62d2 0c42 b810 fb41 8a54 2142
000001d0: c5ee 5b42 f860 4342 6660 7242 477a 6242
000001e0: 3798 4842 0e0e 4242 3d17 5f42 ff71 3a42
000001f0: ad44 6342 7706 6a42 1b09 6342 35c2 5642
00000200: 421b 5c42 fca2 2f42 393e 5242 3bfd 8842
00000210: 13bb 4142 622d e341 b394 ce41 aa69 ff41
00000220: 5bc1 5f41 db9d 8042 ad55 4f42 4192 5042
00000230: 00cb 4f42 5e50 6742 b483 5d42 85b0 4942
00000240: 09f8 2942 fc53 2a42 641c 5842 3b60 4742
00000250: 4e4b 4842 f90b 6642 3592 1e42 2b8e 7a42
00000260: fa57 7542 b54a 7342 81d5 9f41 7e4c 5b42
00000270: 1cc0 4e42 ed10 6e42 4d3d 3e42 c68a 5142
00000280: 3804 1042 85a6 2d42 9193 3e42 e2ba 8642
00000290: c110 2342 0cbd 5642 45da 6142 69fb 2e42
000002a0: 5a89 8142 a039 9d42 4b8b 5d42 6065 4b42
000002b0: 34c0 8f42 3aa7 7442 dbf6 3e42 9484 8b42
000002c0: 4423 5542 d92d 5142 ed00 3d42 f747 1f42
000002d0: 61c9 8942 bd69 7942 9905 f441 78be 6842
000002e0: 38a7 6742 a347 3d42 2088 6042 a675 4542
000002f0: 7849 6342 d297 7942 a463 5c42 03be 5342
00000300: 52ac 1a42 274d 5942 9af1 2c42 78b2 7642
00000310: c798 5442 de2a 5142 e237 5e42 d203 5c42
00000320: c7cc 2942 a6f7 5442 288e 6942 55e4 2342
00000330: 3888 7b42 8b26 9942 be1a 6c42 f219 3842
00000340: f0d0 6e42 3a25 6942 599d cd41 43f8 1b42
00000350: 4188 5942 d9a7 4442 cfb3 5642 70c0 4a42
00000360: 450c 6542 f161 6742 6a47 5242 4b3f 5b42
00000370: 4dfb e041 66c2 6242 4943 6542 e248 6a42
00000380: 8d04 5e42 2497 3742 c41c 5d42 ace8 5842
00000390: 4024 6942 14b8 2c42 bf0a 5142 cac8 3142
000003a0: 35e6 6842 877b 4b42 b2cc 6542 05cd 2142
000003b0: c2ed 3042 32cf 5142 34f7 5e42 ca19 c442
000003c0: 01be 8442 7a02 4a42 c5f4 7142 f6a8 6242
000003d0: 95a4 7542 57d2 2d42 a7c3 6642 6ce7 3c42
000003e0: 9997 1442 f5c3 7342 bb70 3b42 5d65 a542
000003f0: 7e32 2742 8ae0 4642 e63b 7942 e5cb 7842

l4/b f4 [64]
-97.158844 -97.16929 -97.17947 -97.187 -97.15732 -97.15632 -97.15491 -97.17673
-97.1672 -97.18167 -97.165436 -97.168526 -97.163475 -97.168915 -97.15748 -97.17018
-97.16828 -97.17657 -97.15174 -97.15985 -97.15676 -97.1691 -97.15057 -97.15408
-97.1519 -97.153175 -97.170906 -97.180695 -97.16805 -97.16709 -97.16444 -97.18083
-97.168724 -97.1857 -97.16043 -97.17818 -97.17999 -97.162224 -97.18065 -97.16925
-97.165764 -97.17651 -97.16365 -97.16349 -97.16006 -97.16174 -97.17258 -97.15982
-97.16223 -97.156944 -97.175644 -97.15695 -97.15897 -97.191086 -97.16033 -97.17088
-97.171616 -97.16629 -97.1742 -97.17156 -97.18674 -97.154594 -97.16248 -97.162865
00000000: 5451 c2c2 ad56 c2c2 e35b c2c2 be5f c2c2
00000010: 8c50 c2c2 0950 c2c2 504f c2c2 7c5a c2c2
00000020: 9b55 c2c2 045d c2c2 b454 c2c2 4956 c2c2
00000030: b353 c2c2 7c56 c2c2 a150 c2c2 2257 c2c2
00000040: 2956 c2c2 675a c2c2 b14d c2c2 d851 c2c2
00000050: 4350 c2c2 9456 c2c2 184d c2c2 e44e c2c2
00000060: c64d c2c2 6d4e c2c2 8157 c2c2 845c c2c2
00000070: 0b56 c2c2 8d55 c2c2 3154 c2c2 965c c2c2
00000080: 6356 c2c2 145f c2c2 2452 c2c2 3a5b c2c2
00000090: 285c c2c2 0f53 c2c2 7e5c c2c2 a856 c2c2
000000a0: df54 c2c2 605a c2c2 ca53 c2c2 b553 c2c2
000000b0: f351 c2c2 d052 c2c2 5c58 c2c2 d451 c2c2
000000c0: 1053 c2c2 5b50 c2c2 ee59 c2c2 5c50 c2c2
000000d0: 6551 c2c2 d661 c2c2 1752 c2c2 7e57 c2c2
000000e0: de57 c2c2 2455 c2c2 3159 c2c2 d757 c2c2
000000f0: 9c5f c2c2 274f c2c2 3153 c2c2 6353 c2c2

l3/W f4 [256, 256]
6.024776 -24.559921 -45.595165 2.752117 24.373276 31.861359 4.137756 -8.267251
0.49276832 -2.2548358 30.94525 17.09655 -0.5247421 6.1334243 1.7113053 -2.673598
13.658812 -21.984045 -13.260494 -11.330983 -39.893982 -24.750406 22.97561 -9.769789
2.9119456 16.397375 6.3805346 -31.157928 -8.858391 3.4163003 -16.044804 5.386173
19.738766 -4.3502 -7.2960434 7.6760764 -28.871904 -4.0353413 -24.661303 -9.9304285
13.687275 -2.8972025 -33.673798 23.178886 16.688194 15.7384815 4.274707 19.48675
-1.3074023 3.0470922 3.6827996 -40.971863 -3.268665 17.418457 -19.95439 -66.86897
24.436764 -4.7863493 -33.655365 22.326843 14.652861 -26.212088 -36.643055 -13.257561
-5.5897264 7.2763247 -28.333416 16.808836 1.995948 -10.740736 -12.053303 34.543655
12.787434 -4.462506 -36.882626 -15.181477 -6.857303 -2.5721872 -18.190308 7.8288565
10.300802 -34.1662 -25.282032 -24.307756 -32.71166 -5.405958 -22.579115 13.039267
-19.127037 -8.522008 10.409122 37.965904 11.622427 -6.746064 9.655524 -18.287798
22.252197 -3.3789608 -35.335655 10.112481 -4.6686234 -39.473835 29.817858 17.349833
-8.29968 -24.763865 36.56958 6.1682005 -11.37154 -13.277007 2.935138 -3.7876925
-24.121063 -37.996445 18.476477 -32.942554 51.504856 -3.176368 3.8757572 -12.3607855
-14.589688 -0.39715517 -10.8062935 -18.936209 23.449806 -49.438133 2.8794549 21.861116
23.38051 -45.480343 10.83163 -24.419184 -19.374144 43.815678 -29.776 8.167051
24.394415 12.072373 -25.86308 -18.356743 6.294481 -13.404361 -2.8650584 -16.211292
-48.602512 -18.97625 5.192765 -39.914898 8.062936 7.9551415 -1.6118739 -18.990936
-19.946014 3.730956 -30.462044 -21.325329 -33.561203 1.0000552 -1.5344661 -5.955233
-45.553143 -16.425508 -54.319786 14.399547 -62.406727 -19.991594 -29.01544 -9.567055
-63.006924 1.5445 -27.353632 5.417466 21.658407 -17.715237 -22.765009 -1.6218013
-4.6547456 21.019754 13.846715 -36.459843 -67.636284 -21.100574 11.811873 -43.25299
45.157967 -25.577856 7.156328 3.9613347 -5.0900097 -25.689177 -0.28567997 11.440519
3.0909164 24.888584 15.0655 -1.9154278 -11.861748 15.733585 -44.37343 29.54219
5.84185 -5.7434134 17.09485 28.742891 -19.285461 20.160254 23.690481 -9.047119
-16.974747 -33.179047 -45.189785 6.5123863 26.713818 15.097885 16.987118 -17.154215
7.205812 -22.046616 -2.7056518 -9.777094 -29.209167 -49.613636 -13.311603 -44.85367
-31.54926 -24.72963 -16.271585 15.421591 14.579991 23.149069 10.006252 -2.958778
15.16919 8.078827 -22.027359 9.391314 -3.5758452 -9.138676 -39.309845 -19.589111
-14.752668 -10.53692 -42.7358 43.613483 12.199812 2.0976071 8.703579 -1.2237505
-60.014008 10.544627 -15.444528 -25.890423 12.649877 -14.565235 25.103731 8.40055
00000000: f7ca c040 b87a c4c1 7361 36c2 af22 3040
00000010: 78fc c241 10e4 fe41 7f68 8440 a946 04c1
00000020: 214c fc3e 3b4f 10c0 df8f f741 bcc5 8841
00000030: 8055 06bf 0345 c440 0d0c db3f 3b1c 2bc0
00000040: 7e8a 5a41 53df afc1 fc2a 54c1 b54b 35c1
00000050: 7093 1fc2 d500 c6c1 0dce b741 0e51 1cc1
00000060: 515d 3a40 d32d 8341 572d cc40 7043 f9c1
00000070: f8bb 0dc1 aaa4 5a40 c25b 80c1 875b ac40
00000080: fee8 9d41 d734 8bc0 3079 e9c0 6ba2 f540
00000090: a9f9 e6c1 8421 81c0 594a c5c1 09e3 1ec1
000000a0: 14ff 5a41 c46b 39c0 f8b1 06c2 5c6e b941
000000b0: 6c81 8541 d2d0 7b41 66ca 8840 dde4 9b41
000000c0: f558 a7bf 8f03 4340 fdb2 6b40 30e3 23c2
000000d0: cf31 51c0 0059 8b41 97a2 9fc1 eabc 85c2
000000e0: 7e7e c341 c629 99c0 189f 06c2 609d b241
000000f0: 1e72 6a41 5bb2 d1c1 7d92 12c2 f81e 54c1
00000100: 0adf b2c0 a7d7 e840 d6aa e2c1 7f78 8641
00000110: 397b ff3f 0eda 2bc1 54da 40c1 b42c 0a42
00000120: 5499 4c41 d9cc 8ec0 cf87 13c2 54e7 72c1
00000130: 076f dbc0 b79e 24c0 c085 91c1 fe85 fa40
00000140: 16d0 2441 30aa 08c2 9a41 cac1 4976 c2c1
00000150: bdd8 02c2 9cfd acc0 07a2 b4c1 d6a0 5041
00000160: 2c04 99c1 255a 08c1 c48b 2641 16dd 1742
00000170: 76f5 3941 c2df d7c0 077d 1a41 694d 92c1
00000180: 8004 b241 e540 58c0 b657 0dc2 b9cc 2141
00000190: 5d65 95c0 35e5 1dc2 f98a ee41 75cc 8a41
000001a0: 7dcb 04c1 651c c6c1 4047 1242 e661 c540
000001b0: d4f1 35c1 9f6e 54c1 4dd9 3b40 8e69 72c0
000001c0: f0f7 c0c1 5cfc 17c2 d3cf 9341 2dc5 03c2
000001d0: f904 4e42 9d49 4bc0 680c 7840 c7c5 45c1
000001e0: 5d6f 69c1 ec57 cbbe 94e6 2cc1 5b7d 97c1
000001f0: 3499 bb41 a6c0 45c2 fd48 3840 91e3 ae41
00000200: 490b bb41 dfeb 35c2 5b4e 2d41 7d5a c3c1
00000210: 3ffe 9ac1 4143 2f42 3f35 eec1 3eac 0241
00000220: c327 c341 7128 4141 96e7 cec1 9cda 92c1
00000230: 636c c940 4378 56c1 1e5d 37c0 bab0 81c1
00000240: f968 42c2 5ccf 97c1 222b a640 dba8 1fc2
00000250: c901 0141 8590 fe40 e251 cebf 70ed 97c1
00000260: 7091 9fc1 fcc7 6e40 44b2 f3c1 469a aac1
00000270: ac3e 06c2 cf01 803f 6369 c4bf 4591 bec0
00000280: 6b36 36c2 7167 83c1 7647 59c2 8b64 6641
00000290: 7da0 79c2 c9ee 9fc1 9f1f e8c1 a812 19c1
000002a0: 1707 7cc2 2db2 c53f 3dd4 dac1 e25b ad40
000002b0: 6b44 ad41 ceb8 8dc1 bd1e b6c1 2f97 cfbf
000002c0: adf3 94c0 7528 a841 258c 5d41 e1d6 11c2
000002d0: c745 87c2 facd a8c1 6ffd 3c41 1003 2dc2
000002e0: c2a1 3442 739f ccc1 a400 e540 8286 7d40
000002f0: 5ce1 a2c0 6f83 cdc1 a544 92be 5e0c 3741
00000300: 93d1 4540 d21b c741 4a0c 7141 bd2c f5bf
00000310: b8c9 3dc1 c4bc 7b41 647e 31c2 6856 ec41
00000320: 6ff0 ba40 0bca b7c0 41c2 8841 71f1 e541
00000330: a048 9ac1 3348 a141 1b86 bd41 00c1 10c1
00000340: 48cc 87c1 58b7 04c2 57c2 34c2 7865 d040
00000350: e6b5 d541 f090 7141 9ee5 8741 d53b 89c1
00000360: 0396 e640 785f b0c1 6629 2dc0 fa6e 1cc1
00000370: 60ac e9c1 5d74 46c2 53fc 54c1 286a 33c2
00000380: e264 fcc1 48d6 c5c1 352c 82c1 d6be 7641
00000390: a547 6941 4b31 b941 9c19 2041 9e5c 3dc0
000003a0: 01b5 7241 e042 0141 0838 b0c1 d242 1641
000003b0: a6da 64c0 0438 12c1 483d 1dc2 80b6 9cc1
000003c0: ee0a 6cc1 3997 28c1 76f1 2ac2 3574 2e42
000003d0: 6e32 4341 323f 0640 dc41 0b41 dba3 9cbf
000003e0: 580e 70c2 cbb6 2841 c91c 77c1 961f cfc1
000003f0: e565 4a41 340b 69c1 71d4 c841 a768 0641

l3/b f4 [256]
8.197475 -0.19971114 1.5236411 -3.269623 20.00815 24.707417 16.4495 12.452522
10.49557 4.238457 -0.46149033 9.470606 1.3184919 -2.3024144 3.6190083 11.743579
1.6463478 7.0119567 13.434941 7.2648215 3.44257 -2.9846568 29.658821 3.6434128
8.214761 2.277714 2.0128534 11.289838 -0.031587653 6.26509 -4.479332 10.491835
-2.0813627 9.566394 0.61127377 61.532085 3.3038814 -3.401442 1.7949971 -2.8457377
5.295066 12.51925 9.582051 8.73046 -7.916422 8.25524 32.682102 8.703713
1.0774971 -5.4443355 14.9331045 -4.5418553 -0.19754189 -2.8313258 -3.2042203 1.1831992
4.660236 -7.606473 11.297777 5.0245156 23.033836 -1.4077984 -2.8678663 7.477376
4.4714627 -2.41446 -4.2471056 8.686455 10.145208 12.992801 12.906219 10.0985565
-1.1691487 14.403186 3.5582366 3.3911574 1.3885456 4.074651 18.62351 2.6897333
1.3298475 4.2966714 0.8529548 2.7050433 7.5511026 26.7506 9.734109 1.6655011
-5.198317 -11.139226 10.105754 9.273664 3.279267 11.221852 8.021024 8.997151
23.379002 -1.4688549 17.22164 9.652777 8.072381 13.025318 6.500491 12.022292
-0.78730464 6.810688 2.0020423 25.329922 3.0082445 -1.4083003 -6.0810533 7.250981
4.3531604 7.263732 36.597534 5.8136578 23.522924 14.0508175 -2.454822 -1.8113132
15.110211 8.997287 -3.5620484 6.8960605 -2.850355 -0.7285766 -0.55735445 1.5904646
10.039873 13.882892 0.5897737 6.4208817 5.2293825 12.435679 36.916508 26.929697
4.100273 1.0614659 8.711082 1.3962349 8.584636 -1.2321912 4.048111 9.769484
18.299046 2.0817394 -3.6283536 -0.8137812 11.239322 -0.9539753 12.562019 8.344608
10.64292 0.48882246 25.458395 -3.4530945 6.2419243 11.538282 -2.6411276 1.1542957
13.05901 27.780918 6.0703015 9.57791 17.167524 8.986965 5.2409196 10.057034
-7.560065 17.413265 2.6053345 8.7857065 7.204074 -5.0448966 6.799107 16.141151
3.4321043 7.7860208 10.524926 8.228732 10.555736 18.430288 31.52257 1.5659162
8.711522 6.0879784 5.3609467 4.6077065 9.193802 -4.9812155 2.6229386 3.8776374
7.565415 -2.0981574 25.807335 -0.40117764 2.4111745 16.885035 -2.7461302 6.1599884
1.1575769 -1.3169376 2.244011 9.714519 4.3890157 3.1125765 15.066282 24.916264
2.1743546 9.584592 29.96382 10.744927 9.149706 7.5639124 5.7780223 33.94284
7.620683 3.7143729 3.6686008 16.283499 58.982483 21.870708 -0.16672894 1.5930387
14.299798 1.4908371 8.900437 12.344755 -1.1902936 3.4461627 1.0106192 0.29825222
0.24328575 12.481977 6.626766 0.82983536 1.1549543 5.8499985 6.8946514 -1.9125965
0.5063837 -8.385899 8.057076 5.9967766 15.625261 9.711443 -6.2416153 15.378016
28.908386 5.8138905 12.023943 31.123283 10.195924 -2.229645 4.8858333 -2.1496513
00000000: dc28 0341 1481 4cbe ac06 c33f 8141 51c0
00000010: b110 a041 caa8 c541 9398 8341 883d 4741
00000020: dbed 2741 71a1 8740 7648 ecbe 9a87 1741
00000030: 58c4 a83f c25a 13c0 d59d 6740 b3e5 3b41
00000040: 86bb d23f f361 e040 85f5 5641 6b79 e840
00000050: 1153 5c40 9e04 3fc0 4445 ed41 ad2d 6940
00000060: a96f 0341 11c6 1140 97d2 0040 2da3 3441
00000070: 0e62 01bd 9e7b c840 b056 8fc0 8ede 2741
00000080: 0c35 05c0 f30f 1941 707c 1c3f db20 7642
00000090: cb72 5340 3ab1 59c0 77c2 e53f 9120 36c0
000000a0: 2e71 a940 d94e 4841 1550 1941 f7af 0b41
000000b0: 5453 fdc0 7715 0441 79ba 0242 6942 0b41
000000c0: 6deb 893f ff37 aec0 ffed 6e41 e156 91c0
000000d0: 6c48 4abe 7134 35c0 f211 4dc0 1273 973f
000000e0: a720 9540 3a68 f3c0 b2c3 3441 d5c8 a040
000000f0: 4c45 b841 bd32 b4bf 1f8b 37c0 aa46 ef40
00000100: 3916 8f40 8386 1ac0 4ae8 87c0 b8fb 0a41
00000110: c652 2241 83e2 4f41 df7f 4e41 b093 2141
00000120: aaa6 95bf 7373 6641 26ba 6340 b908 5940
00000130: ddbb b13f 8a63 8240 f3fc 9441 9724 2c40
00000140: 7138 aa3f 557e 8940 3f5b 5a3f 6e1f 2d40
00000150: a2a2 f140 3b01 d641 e9be 1b41 242f d53f
00000160: 9d58 a6c0 453a 32c1 2bb1 2141 ee60 1441
00000170: 83df 5140 b58c 3341 1d56 0041 55f4 0f41
00000180: 3208 bb41 7003 bcbf ebc5 8941 c671 1a41
00000190: 7928 0141 b467 5041 0604 d040 4f5b 4041
000001a0: cc8c 49bf 28f1 d940 7621 0040 aea3 ca41
000001b0: 1487 4040 2f43 b4bf fd97 c2c0 0908 e840
000001c0: 174d 8b40 7e70 e840 e063 1242 7c09 ba40
000001d0: f32e bc41 26d0 6041 ce1b 1dc0 1cd9 e7bf
000001e0: 6dc3 7141 e3f4 0f41 9af8 63c0 87ac dc40
000001f0: 376c 36c0 ff83 3abf c8ae 0ebf 5894 cb3f
00000200: 52a3 2041 5320 5e41 69fb 163f dd77 cd40
00000210: 1a57 a740 8bf8 4641 81aa 1342 0570 d741
00000220: 7035 8340 1dde 873f 9860 0b41 d3b7 b23f
00000230: ab5a 0941 71b8 9dbf 208a 8140 ce4f 1c41
00000240: 7264 9241 383b 0540 f236 68c0 f753 50bf
00000250: 43d4 3341 ba37 74bf 08fe 4841 8483 0541
00000260: 6649 2a41 f046 fa3e cbaa cb41 80ff 5cc0
00000270: d8bd c740 ce9c 3841 3c08 29c0 f6bf 933f
00000280: b4f1 5041 523f de41 e93f c240 1f3f 1941
00000290: 1757 8941 9cca 0f41 9db5 a740 9ce9 2041
000002a0: 0dec f1c0 5e4e 8b41 cdbd 2640 4192 0c41
000002b0: c687 e640 cb6f a1c0 4992 d940 1421 8141
000002c0: 99a7 5b40 1527 f940 1966 2841 e3a8 0341
000002d0: 4be4 2841 3b71 9341 392e fc41 f16f c83f
000002e0: 6562 0b41 b8d0 c240 e08c ab40 5572 9340
000002f0: d019 1341 1e66 9fc0 3ade 2740 362b 7840
00000300: e117 f240 3648 06c0 6c75 ce41 2867 cdbe
00000310: af50 1a40 8d14 8741 99c0 2fc0 a01e c540
00000320: 7b2b 943f 6991 a8bf e09d 0f40 ab6e 1b41
00000330: d172 8c40 7434 4740 7e0f 7141 8254 c741
00000340: a028 0b40 7d5a 1941 e7b5 ef41 39eb 2b41
00000350: 3265 1241 920b f240 8fe5 b840 78c5 0742
00000360: a3dc f340 49b8 6d40 5bca 6a40 9b44 8241
00000370: 10ee 6b42 36f7 ae41 feba 2abe b1e8 cb3f
00000380: f9cb 6441 c0d3 be3f 3168 0e41 1e84 4541
00000390: 8a5b 98bf ee8d 5c40 f85b 813f 84b4 983e
000003a0: e61f 793e 2eb6 4741 780e d440 1770 543f
000003b0: 8bd5 933f 3033 bb40 fca0 dc40 f6cf f4bf
000003c0: 5da2 013f a42c 06c1 c9e9 0041 98e5 bf40
000003d0: 1201 7a41 1262 1b41 50bb c7c0 5b0c 7641
000003e0: 6044 e741 640b ba40 1262 4041 7cfc f841
000003f0: 8122 2341 81b2 0ec0 bf58 9c40 e393 09c0
