size8/agent_black_17000/target_model.npz (npz, 608086 bytes, 8 tensors)

l2/W f4 [256, 256]
00000000: 6c23 c140 8184 d8bf c4ce 1dc1 7e08 35c0
00000010: c12c 72c0 0cfe 4540 6445 f840 ec8a 6f3f
00000020: 5967 c53f b172 31c1 88f0 2cc0 b914 8fbf
00000030: 8f99 80c0 baff a9c0 92a3 f2bf f82c 163f
00000040: 0c55 c73f fc06 b5c0 e4e0 67c1 e1d4 b5c0
00000050: ef0a 54be d646 2140 a3cf a740 29e2 7940
00000060: f557 873b 465e ec3f f4e4 31c1 40af aabf
00000070: 6bb7 5640 2c33 243e 7a98 2640 038a b9be
00000080: 0661 6bc0 f576 4cc0 edd0 91be 5f58 8a40
00000090: 9af4 6540 8a11 25bf fcb2 0ac1 8384 b4bf
000000a0: bfce 58c1 99f9 08c1 45f1 8bc0 51ca 4340
000000b0: 234a 95c0 5f5a 3d40 e0e4 55c0 99fb 5640
000000c0: 729c 7840 221a b2c0 5d0b 15c1 9637 5440
000000d0: 566d e8c0 fd15 dabf 01a7 9cc0 0955 9240
000000e0: 889f a3c0 ec2b dfbc e1d8 37bf c5a3 15c0
000000f0: 6da3 01c1 665c f93f cc94 6e40 1102 0d40
00000100: 5826 fcbf 0889 f9be e61b 393f df69 1f3f
00000110: 6661 1abe 9412 9340 fb49 0940 94a1 e83f
00000120: fd5f 40bf ce2e 41c0 edb4 17c0 d08b ee3f
00000130: ede6 a8bf e50e 893f 2a42 a8c0 0867 00bf
00000140: 79ee 1d40 325e 05c0 a784 8a40 4d1e 34c0
00000150: 6130 0bc1 18a5 9e3f 7dc8 5ac1 f642 00c0
00000160: f953 41c0 f21f e5bf d789 01c1 d711 b63e
00000170: d4d7 77c0 f80c 5b3e b02f 7f40 ddf0 a140
00000180: 1e7a d53f 3fa8 cabf 58e2 0240 2da3 b4c0
00000190: 55c3 0dc1 c26c 4c3f efa0 5cbf cc96 8f3f
000001a0: 7b92 9bbf f9ee f6c0 e04c 3cbf a3cd b740
000001b0: 019d 7340 f865 54c1 a160 d2c0 ecd7 4640
000001c0: 7a3a 723f e07a 833e 3948 1c40 dc3c fec0
000001d0: c8e5 1f40 d193 93bf 710d 95c0 091b 3340
000001e0: 39c3 a8bf 3e97 c8c0 1423 553f da7f f2c0
000001f0: 7dfc 6fc0 e2e7 35c0 bae1 2c40 7379 a1c0
00000200: 0561 f2bf a514 d0c0 38d3 8ac0 b4fd 3640
00000210: 9360 65c0 3c3d 0240 39d0 d53e 0ba9 1a40
00000220: 8e03 43c0 f877 47c1 3353 c9bf d090 8c40
00000230: 8429 3e40 d74e 3840 7671 0940 6787 2f3e
00000240: 76f3 ffc0 9164 633f 5f38 7d40 f726 0cc0
00000250: dbb4 4dbf 6322 c2bf 6cad bd40 800c 823e
00000260: 06a6 473f e37d a93f f674 fc3e 326c 09c1
00000270: f31c 413f 00f0 15c0 95ee ab40 ed09 adc0
00000280: 5364 38c0 1c94 95be 2906 d0c0 9db4 6840
00000290: 2bf3 f9c0 6abf 99c0 e26e 4bbf 9266 b93f
000002a0: a8b9 0ec0 c8be 44c1 d0d0 1940 b2c2 a9c0
000002b0: 9cff 31bf 1e52 d83f 5161 17c1 8e65 97c0
000002c0: 95de 2d3f e1ad 4040 8d05 8540 4a83 8ac0
000002d0: 7e10 aa3f 7611 9e40 a3c8 2ac1 aad0 d7c0
000002e0: a4b6 e9c0 a2ff 5240 459b 9240 4b11 1dc1
000002f0: 93a0 a6c0 fdad be3e c5c8 babe ad8f d740
00000300: 9bc5 e3c0 9caa a8bf f23c 163e b459 c43f
00000310: 39c2 163f 40ff f23d c9d1 b3bf 728b 0a41
00000320: 023e 3fc0 81db a2c0 f4c7 5fc1 5e8f aac0
00000330: a3ab 803f 8262 1cc1 b621 dac0 393d 8f3f
00000340: c181 bc40 8f80 12bf 96b0 0cc1 0c79 cbbe
00000350: b47a 98c0 0d1a 8bc0 b781 eebf 5cfb cac0
00000360: 0fd6 453f caef debf dbaf ebbe 657e a2c0
00000370: 1ca0 3bc0 36dd f4c0 0365 8c40 8f49 4040
00000380: d7ae 53c0 5439 e23f 5751 9540 ac6e a4bd
00000390: 3fa3 4ebf 3766 00c1 b879 4340 4e93 d73f
000003a0: d05e 28c1 6779 d1c0 1f16 193e 1670 4140
000003b0: ef88 ba3f 9b15 e53f f9f1 05c1 294f d3bf
000003c0: ac00 813e 9b09 fd3e 4793 b43f 8c74 4cc0
000003d0: 2075 c2c0 3a09 93c0 0849 4840 23d7 bc3f
000003e0: 9d63 f140 7211 af3f 72af 9240 f437 1241
000003f0: aad7 0ac0 d79d 32c0 1ac0 4c3f f278 59c0
6.035574 -1.6915437 -9.86298 -2.8286433 -3.7839816 3.0936308 7.7584705 0.9357135
1.5422164 -11.090501 -2.7021809 -1.1178199 -4.018745 -5.3124666 -1.8956168 0.58662367
1.5572829 -5.6571026 -14.492405 -5.682236 -0.20707296 2.5199485 5.2440963 3.9044287
0.0041303583 1.846627 -11.118397 -1.3334732 3.354945 0.16035146 2.6030564 -0.36238107
-3.6777968 -3.1947606 -0.2847971 4.3232875 3.5930543 -0.6447989 -8.668697 -1.4102939
-13.550475 -8.560937 -4.373202 3.0592234 -4.6653 2.9586408 -3.3420944 3.3591063
3.8845487 -5.56569 -9.315274 3.3158927 -7.2633467 -1.703796 -4.895386 4.5728803
-5.113224 -0.027242623 -0.71815306 -2.3381207 -8.102399 1.9481323 3.7278318 2.2032511
-1.9699202 -0.4873736 0.72308195 0.6227092 -0.15076217 4.596018 2.1451404 1.817431
-0.75146466 -3.0184817 -2.3704178 1.8636417 -1.3195473 1.070767 -5.2580767 -0.50157213
2.4676802 -2.0838742 4.328693 -2.8143494 -8.699311 1.2394133 -13.673947 -2.004087
-3.0207503 -1.7900374 -8.096152 0.35560486 -3.872548 0.21391666 3.9872856 5.0606523
1.6677892 -1.5832595 2.045065 -5.644919 -8.8601885 0.7985345 -0.86183065 1.1217895
-1.2154077 -7.7166715 -0.735548 5.743852 3.8064578 -13.274895 -6.5742955 3.1069288
0.9462048 0.25679684 2.4419081 -7.944929 2.4983997 -1.1529485 -4.657891 2.798525
-1.3184577 -6.268462 0.8325665 -7.578107 -3.7497857 -2.842278 2.7012773 -5.0460753
-1.8935858 -6.50252 -4.3382835 2.8592348 -3.5840194 2.0349874 0.41760424 2.4165676
-3.047092 -12.466789 -1.5728515 4.3926773 2.971284 2.879812 2.14755 0.17141496
-7.9984694 0.8882533 3.9565656 -2.1898782 -0.8035409 -1.5166744 5.9274197 0.25400162
0.77987707 1.3241543 0.49307984 -8.588915 0.754348 -2.3427734 5.372874 -5.4074616
-2.8811233 -0.2921456 -6.500752 3.6360238 -7.8109336 -4.804616 -0.7946607 1.4484427
-2.2300816 -12.296577 2.40337 -5.3050165 -0.69530654 1.690006 -9.461259 -4.731147
0.6791776 3.0106127 4.1569276 -4.3285265 1.3286283 4.9396315 -10.673984 -6.7442217
-7.303545 3.2968526 4.581454 -9.816722 -5.2071013 0.37242118 -0.364813 6.7362885
-7.1178718 -1.3177066 0.14671686 1.5339875 0.5889011 0.11865091 -1.4048396 8.659044
-2.9881597 -5.089295 -13.986317 -5.330001 1.0052379 -9.77405 -6.816615 1.1190559
5.890839 -0.57227415 -8.793112 -0.3974079 -4.7649784 -4.34693 -1.8633336 -6.3431835
0.7727975 -1.7416928 -0.46032605 -5.077929 -2.9316473 -7.6520033 4.3873305 3.0044897
-3.3075464 1.7673745 4.666179 -0.080289215 -0.80717844 -8.024955 3.0543041 1.6841829
-10.523148 -6.5460696 0.14949845 3.0224662 1.4573039 1.7897218 -8.371575 -1.6508533
0.25195825 0.4942139 1.4107445 -3.1946135 -6.0767975 -4.5948763 3.1294575 1.4753155
7.54341 1.3677199 4.5839167 9.13866 -2.169413 -2.7908838 0.79980624 -3.398007

l2/b f4 [256]
00000000: efa0 a53e f155 37c0 1a74 5c3e 1b46 9bbf
00000010: d432 453f f34e 3f3f a96b 71bf ccb7 66be
00000020: 1d69 c8bf 80ee 0841 cce0 8040 7b44 6ebf
00000030: 98c6 74be 36df 5740 b026 b1bf 9cc4 66bf
00000040: 8cd1 a9be 86f0 31bf 2d93 983e 74a0 fe3f
00000050: b3e6 f0be 40b8 5b3f b9b2 9741 82f4 e3bf
00000060: 9d0c fa3f 643a 3140 b08a ad40 f783 7740
00000070: a49c f9be de25 2dbf 7416 9f3f 1915 c4bf
00000080: 360b ccbf ca41 21c0 bf0e 3d3f ba08 2e3f
00000090: 2d31 9440 6303 0bbf 45e8 36c0 3132 30bf
000000a0: 38e0 8dbe 005a a7bd d1f2 053f a3b0 8140
000000b0: 282e ca3f b37a c5bc f2e7 0f40 31bc 243f
000000c0: 43cd 9dbf 6b6e c540 afc7 89bf d3d1 1440
000000d0: ab2a 9c3f 7ac9 1a3f 7501 4fbf 9378 0940
000000e0: 2b72 c13f 63e2 76bb 2311 4c40 7648 8f40
000000f0: 5592 5bbe 2064 3340 1e51 6cbe 6628 063e
00000100: f7dd 6740 96ef be3f 92db 0641 55d1 33bf
00000110: 2839 09c0 f481 943e 19a6 92bf becd d53f
00000120: 3db7 e03f dd89 5c40 e95f 05c0 298a 2abf
00000130: 4778 be40 e73b f43f 1f7e f4bf 2652 34bf
00000140: 4574 853f 4309 0d3f 8f31 cfbf d84a 223f
00000150: 0ce2 78bf c66c 3b40 973c 2140 4fff 4a3f
00000160: 71e9 89bf bc00 bf40 c3f1 80bf 093a e13e
00000170: 7dbe a53f 090b 07c0 b59a 6ebf 0ccc 973f
00000180: e5c4 203f 9dcb f440 f4d3 8540 af52 abbe
00000190: 0c7d cfbf d4a9 96bf 7852 bebf ca73 393e
000001a0: 245a 3dc0 a3b8 5abf 3569 6140 ed99 d9bf
000001b0: e945 d0be 987e 6fbf e8f5 30bf 42b7 eabf
000001c0: df46 e13f 969e 1fbf 24fd 89be cff6 e73e
000001d0: 368d bb3d 337f ff3d d90e a03f 4402 243a
000001e0: 83dd bc40 ac03 8140 4154 9f3e 2ab4 0141
000001f0: 0a69 923f 4be4 4dbe 27e1 8abf 0e7b 693f
00000200: a282 bf3e 4090 fabe 2ec2 1e3f 959a 123f
00000210: 382f 88be 003d 233f 8d2b 2dbf d7c3 2bbf
00000220: d7ce b8be 1917 b8be 9426 0f40 a62c d13d
00000230: 86c3 38c0 db4b fc3f 671b b93c 23eb 7e3f
00000240: 024b 3c40 741c 9b3e ffd6 d53d 6b87 27bf
00000250: f2ed 97bf 5c38 1ac0 8f14 a7bf ae7d 3340
00000260: 3c9e acbd 9695 5340 3446 81bf d877 e83f
00000270: 1329 42c0 e409 143f 0ca9 64c0 eed9 1dc0
00000280: 9b21 493f 600c d9bf 45fa cfbe 5bc8 22be
00000290: f613 b6bf 986e 04bf 32ff 8440 c19b 0d3f
000002a0: 03ab dcbf 27b9 6940 eed4 a03f b766 afbe
000002b0: 6d94 3ebf cd94 43c0 fd85 853f 9b2f c540
000002c0: e86c abbd d279 8dbf 8594 453f cf74 83bf
000002d0: bb6f c7bf 4efc d43f 92f7 00c0 dbcb a5be
000002e0: 5f7f afbf 934c 74c0 78f8 cabe 40de 26be
000002f0: d941 0bc0 0ed1 953e ef6a 94bf ab04 823e
00000300: 3140 8640 9952 6abf a94f 07bf 710f 64c0
00000310: 288a 0840 48a7 81bf 1eff 4f40 5f91 f33d
00000320: 7157 1dc0 73d9 aa40 b327 0a40 9f9e 853f
00000330: 76d4 e4bf 35ed 3040 b30f bf3f 146c d8bf
00000340: e297 0c40 41c4 b63f adaa 8ebf 5a3b 8b40
00000350: 0009 233f d306 803e c408 833f 4736 d43e
00000360: 1dfa 00c0 3d28 12bf c0bf bd3f b174 23c0
00000370: b1ff 0fc0 8cbf 313f e327 5ebf 0d1b 613f
00000380: 3fcb 97bd 8585 77be 6e7f 2640 da94 483f
00000390: 90df 3d40 5e6c 583f 56d0 513e fb31 c3bf
000003a0: 8e94 4cbf 249c a5be d167 7d3e 6a53 b03e
000003b0: 8b82 563f b687 4040 064b 9cbe afdb 3440
000003c0: 7bec fabe b948 af3e 4597 9dbf 1e51 cc3e
000003d0: ec39 193e c6f0 51bf fdd2 0741 7944 933c
000003e0: b611 1b3f 8b62 0c3f 5208 2d3f 1244 d13f
000003f0: 6130 ad3f 3a20 2ec0 0078 02c0 76fd e7be
0.32349345 -2.8646204 0.21528664 -1.213077 0.7703068 0.7472984 -0.943049 -0.2253105
-1.5657078 8.558228 4.027441 -0.9307324 -0.23903883 3.3729987 -1.3839931 -0.9014375
-0.33167684 -0.69507635 0.29799786 1.9892716 -0.4705101 0.8582802 18.962267 -1.7808993
1.9535099 2.769189 5.4231796 3.8674295 -0.4875232 -0.67635906 1.2428727 -1.5318938
-1.5940921 -2.5196404 0.73850626 0.67982066 4.631003 -0.5430204 -2.8579266 -0.68826586
-0.27710128 -0.08171463 0.52323633 4.052812 1.5795336 -0.02410636 2.2485318 0.6434966
-1.2328266 6.1697288 -1.0764064 2.3253067 1.2200521 0.6046368 -0.808616 2.1479843
1.5112966 -0.0037671558 3.188546 4.4775953 -0.2144254 2.8029861 -0.23077819 0.13101348
3.6229227 1.4916866 8.428606 -0.7024129 -2.1441135 0.29005396 -1.1456939 1.6703413
1.755592 3.4459145 -2.083979 -0.66617066 5.9521823 1.9080781 -1.9100989 -0.7043785
1.0426108 0.5509226 -1.6186999 0.6339545 -0.9721992 2.928514 2.519323 0.7929582
-1.0774366 5.9688396 -1.007378 0.4398959 1.2948757 -2.1100485 -0.93204814 1.1859145
0.6280044 7.649855 4.182123 -0.3346152 -1.6210036 -1.1770577 -1.4868917 0.18110576
-2.9586267 -0.85437983 3.5220463 -1.70001 -0.40678337 -0.9355254 -0.69125223 -1.8337176
1.7599753 -0.6235136 -0.26950943 0.45305488 0.09157793 0.12475433 1.2504531 0.0006256441
5.90204 4.031698 0.31118968 8.106485 1.1438305 -0.20106618 -1.0849961 0.9120339
0.37404352 -0.4893818 0.62015045 0.57267123 -0.26598525 0.63764954 -0.6764458 -0.670957
-0.36095306 -0.35955122 2.2367296 0.10213594 -2.8869338 1.9710649 0.022596074 0.9957754
2.942078 0.30295146 0.10441398 -0.65441006 -1.186949 -2.40969 -1.3053149 2.8045459
-0.08428618 3.306005 -1.0099549 1.8161573 -3.033757 0.5782759 -3.5728178 -2.4664264
0.785669 -1.6956902 -0.40620628 -0.15896742 -1.4224842 -0.5173125 4.156152 0.55315787
-1.7239689 3.6519258 1.2564981 -0.34258053 -0.7444523 -3.055957 1.0431515 6.162061
-0.083703816 -1.1052802 0.7717975 -1.0270022 -1.5580972 1.6639497 -2.0151105 -0.32382092
-1.3710746 -3.8171737 -0.39642692 -0.16295719 -2.175894 0.2926106 -1.1595134 0.25394186
4.195336 -0.91532284 -0.52855927 -3.5634425 2.1334324 -1.0129175 3.249946 0.11892962
-2.458462 5.339044 2.158673 1.0439032 -1.7877338 2.764478 1.4926666 -1.6907983
2.1967702 1.4278642 -1.1145836 4.350995 0.6368561 0.25005206 1.023705 0.4144766
-2.0152657 -0.5709265 1.4824142 -2.5539973 -2.2499812 0.694329 -0.8677961 0.879319
-0.07411813 -0.24172027 2.6015277 0.7835213 2.9667702 0.84540355 0.2048963 -1.5249628
-0.79914176 -0.32345688 0.24746634 0.3443864 0.8379294 3.0082831 -0.30525988 2.8259084
-0.49008545 0.3423517 -1.2311789 0.39905638 0.14963502 -0.82008016 8.489011 0.017976986
0.605739 0.54837865 0.6759082 1.6348898 1.3530389 -2.720717 -2.0385742 -0.45310563

l1/W f4 [256, 64]
00000000: 119a 2f41 2937 8dc1 3bd9 1ac1 2f28 af40
00000010: e3a5 0540 d9e1 9dc0 3006 81c0 3d6b 9f40
00000020: 631f eabf c49e 8ebf 85a2 0b3c 2c75 313f
00000030: dca5 adc0 83a8 f9bf 9f7f aebf 1864 38c0
00000040: be38 18c0 27ca b540 ae7a f3bf ff9f ce3e
00000050: 391d ec3e ee9c c4bf 8e88 6a3f 4077 783f
00000060: c379 c840 35f8 84c0 46e6 ed3f 6448 04c0
00000070: cb93 883f c859 a23f 0525 a640 5f99 8b40
00000080: 6c44 f13f 9d67 873e c329 7240 64b6 3ac0
00000090: 8606 99bf 9995 0bc0 301e 9dc0 4c57 993f
000000a0: 8e14 7840 2240 ec3f 001b 29be d44b 94bf
000000b0: 900e 193f edb0 2e40 c6d6 e8be b528 acbf
000000c0: 4a8b ce40 16af 26c0 238b fdbf e476 9640
000000d0: 6d2d 9240 1837 1ec0 dd1e ac3f 18ae 5cbf
000000e0: be2c 4941 5518 9840 a1e5 7ec0 1d62 0841
000000f0: 9d1b 993e f379 1fc0 1694 bbc0 995f 12c0
00000100: db47 9640 462f f2c0 0abf 6fc0 e7b4 90c0
00000110: df6e 353f 441e b8c0 7c43 0340 bc42 6c40
00000120: 24e5 a93f 6b79 11c0 94e0 15bf 351b 0840
00000130: 0cd6 45c0 aa42 983f 25a0 9d40 63be a040
00000140: d07b ab40 38df afbf 363b fa3d 9dcb 703e
00000150: 679e c7be ed46 a43f 6327 5c3f d2be b2bf
00000160: 7b04 e83f d4df e83f 2fa5 e33e e278 2a3f
00000170: 7331 cf3f 9148 2840 bf8f 15c1 b195 3ec0
00000180: d913 ce40 af9d 95bf 958a b83f bbb9 11bf
00000190: 9a64 1ec0 78e6 a3c0 7e18 5940 585b 67c0
000001a0: 48e0 d0bf ec02 5cc1 0c47 44be d84b 0140
000001b0: 8b19 45c0 9b7e 833f 5599 b140 b811 2540
000001c0: 0d81 3740 2f9b 69bf b867 e7be e278 4dc0
000001d0: 9832 03c0 8fb6 0dbe c885 b140 22d0 d6bf
000001e0: 386f a63f 0df9 8340 87b9 e4c0 9bb8 9dc1
000001f0: eb46 6a40 30f7 dfbf 65e0 4f3e 2ea6 a73f
00000200: d61f dfc0 9679 9b40 246d 833f d041 2641
00000210: 4187 7ebf 5c02 38bf b2d9 a440 43f8 0fc0
00000220: 3754 2640 7311 3cc0 75d5 04c0 38e5 213f
00000230: dee6 233f b598 703f 23ff 8040 f3fd 113f
00000240: ee81 d03d 5401 0240 be4b cdc0 8568 2c3f
00000250: 460a ddbf 4fb6 06bf 47c3 2a40 a716 7b40
00000260: d0b7 d040 dca6 26c0 57d7 57c0 3f55 1240
00000270: ff85 eb3e 9cb1 143f 2b1e d8bf 50cf 0cbf
00000280: f102 94c0 b4ff efbf 3b4e 97c0 773a cb3e
00000290: c918 df3f 3f4f 293f 0986 34c0 d56b 803f
000002a0: b9bd 95bf 798f e6c0 b0db f6bf 0e81 6b40
000002b0: 51a1 2840 f58c eebf 1488 e3bf e6a8 1cc1
000002c0: f219 27bf 28c6 2fc1 4246 04c1 9100 60bf
000002d0: f8a5 3d40 0d6b 08c1 b05d ddbf 59d5 fcbf
000002e0: 005c 46c0 b513 a63f 4cda 99c0 cbe6 0a41
000002f0: a5ec 2ec1 8cca 0bc1 dfa2 8240 48ce 8540
00000300: 5aa5 aebf 75ca b440 055c 29c0 262e 493e
00000310: 99b3 67c0 f669 1340 c3a7 0d3f 1775 0241
00000320: b39a f0bf 3d94 b5c0 301c 2940 d376 3640
00000330: 354f d7c0 4563 883e c9cc 7bbe 5380 f9bf
00000340: e857 6140 2646 41c0 947a 773f e564 3bc0
00000350: c391 eb40 7671 f83f df3b 453f 3fa8 94c0
00000360: 38f7 42c0 4a0c 6640 01b9 5d40 4cbb 41bf
00000370: 1282 2ac0 3849 1140 db21 a5c0 2a72 02bf
00000380: 8e2e 4ec0 c5df 993f 9fe1 383f ccd0 ffbf
00000390: e1d6 d0bf 5926 bcbe c950 76bf 0b42 eec0
000003a0: 5743 92c0 75a6 933f 26a0 c1bf f6f5 c83f
000003b0: 56a5 bebe 33b2 5e40 7842 5440 e050 1fc1
000003c0: c020 d240 0beb e3c0 90b4 4e40 a5f0 adc0
000003d0: c324 4740 b2fc 7140 4805 9440 d15b 4c40
000003e0: f308 3bc1 bf89 82c0 079b 36c0 a9d2 39c0
000003f0: 7b7e 6bc0 5c44 0241 421b c840 7a18 2f40
10.975114 -17.651934 -9.678035 5.473655 2.08825 -4.9338193 -4.0320053 4.9818406
-1.8290828 -1.1142201 0.008522634 0.69319415 -5.4264965 -1.9504551 -1.3632697 -2.8811092
-2.3784633 5.680927 -1.9021814 0.40356442 0.46116045 -1.5360391 0.91614616 0.9705696
6.2648635 -4.1552987 1.8585899 -2.0669184 1.0670103 1.2683649 5.192019 4.362472
1.8849006 0.26446238 3.783799 -2.9173822 -1.1955116 -2.1810057 -4.909935 1.1979766
3.8762546 1.8457072 -0.16514206 -1.1585641 0.59787846 2.7295487 -0.4547636 -1.3449923
6.454503 -2.6044364 -1.9808086 4.702013 4.568045 -2.4721127 1.3446919 -0.86203146
12.573423 4.75297 -3.9827654 8.523953 0.2990388 -2.4918182 -5.861827 -2.2870848
4.6962714 -7.5682707 -3.746035 -4.522083 0.708723 -5.7536945 2.050994 3.6915731
1.3273053 -2.2730358 -0.58545804 2.1266606 -3.0911894 1.1895344 4.925799 5.0232406
5.358864 -1.3739996 0.12218325 0.23515172 -0.3898804 1.2834145 0.859976 -1.3964484
1.8126367 1.8193307 0.44461963 0.665907 1.6186966 2.629429 -9.347594 -2.9778864
6.439923 -1.1688746 1.4417292 -0.5692403 -2.4748902 -5.1218834 3.39212 -3.6149502
-1.6318445 -13.750713 -0.19167727 2.0202541 -3.079684 1.0273012 5.5499673 2.5792065
2.8672516 -0.91252416 -0.4519632 -3.210503 -2.049963 -0.13839172 5.5475807 -1.6782267
1.3002691 4.1241517 -7.1476474 -19.71514 3.6605785 -1.7497311 0.20300443 1.3097589
-6.972636 4.858592 1.0267682 10.3910675 -0.9942513 -0.718786 5.151574 -2.2495277
2.59889 -2.938565 -2.0755284 0.63240385 0.6402415 0.9398301 4.0311446 0.5702812
0.10181032 2.031331 -6.415496 0.67346984 -1.726876 -0.5262193 2.6681688 3.9232576
6.522438 -2.6039343 -3.3725183 2.286453 0.46000668 0.5808351 -1.6884207 -0.55003834
-4.625359 -1.8749909 -4.7282996 0.39693043 1.7429439 0.66136545 -2.8206809 1.0032908
-1.1698524 -7.2050138 -1.9285793 3.6797519 2.634846 -1.8636767 -1.7775903 -9.791235
-0.65273964 -10.985878 -8.267153 -0.87500864 2.963255 -8.526135 -1.7294216 -1.9752609
-3.0993652 1.2974764 -4.8078976 8.681346 -10.932775 -8.73695 4.0823817 4.181431
-1.3644211 5.649714 -2.6462414 0.1964651 -3.6203368 2.3033423 0.5533411 8.153586
-1.879721 -5.6743455 2.6423454 2.8510025 -6.728419 0.26638237 -0.24589838 -1.9492286
3.5209904 -3.0199065 0.96671414 -2.928033 7.361543 1.9409626 0.7704448 -4.645538
-3.046339 3.5945 3.4644167 -0.7567642 -2.6641889 2.270094 -5.1603827 -0.5095545
-3.2215915 1.2021414 0.7221927 -1.9985595 -1.6315576 -0.36748007 -0.9621702 -7.445562
-4.57072 1.1535174 -1.5126998 1.5700061 -0.37235516 3.4796264 3.316557 -9.957245
6.566498 -7.122442 3.2297707 -5.4356256 3.1116188 3.7810483 4.6256447 3.193104
-11.689685 -4.0793147 -2.853212 -2.9034827 -3.6795948 8.141689 6.2533274 2.735869

l1/b f4 [256]
00000000: 39ab 55bf e645 913e 9fbb b63f 48f6 23c0
00000010: 2b9f 8d3f 8596 b0bf d503 e2bd 7f43 243f
00000020: bc3f ccbf 4515 60bf 542a a8c0 a392 77bf
00000030: 1ee6 06c0 b7ee 4abf b0be 753e 19e2 0dbf
00000040: 1b08 d73d ba04 b7bf d14b 853f b836 6f3f
00000050: 2834 2e40 3121 30be 4731 2340 e310 5fbf
00000060: 5c5b 1fc0 0130 a2c0 6430 6d3f afc9 51bf
00000070: 0172 b23f ac96 53c0 2133 e1bf 6369 363f
00000080: e4cb 573d 258a 383e e4a9 f9c0 7b79 2240
00000090: 5768 a63f 729a 2a40 47a6 143f 68b5 b13f
000000a0: 4cff 78bf 54fd 0c3f 6e3b 0dc0 8958 6ec0
000000b0: deae dbbf c850 cebf ffc8 42c0 064e d6be
000000c0: 7141 a3c0 43ee 8740 d891 963f 5e39 0440
000000d0: faf3 3540 b122 c2bf 6098 be3f d99d 043f
000000e0: 7c96 a1bf 1916 cfbf 757b 0640 5e20 823f
000000f0: c959 3c3e a9fa 09c0 0138 0140 130e f6bf
00000100: f058 75c0 27f4 0940 c2b8 46c0 d40b 21bf
00000110: 0a2a 69c0 c905 973f 78d2 3cc0 2fba cdbf
00000120: e5ad 3a3f 37cb dcbf 93d7 2a40 5578 bcbf
00000130: 162c 4bbe 7be4 20bf 074e d23f f92e c940
00000140: 134f 7fbe 6504 e2c0 2b8f 85bf 9838 a83f
00000150: a04f 53bf aa97 1dc0 93f5 ec3e a422 2040
00000160: 0439 ba3f 4f76 20be b977 a9bf 6a60 1abe
00000170: 4d5b ea3f f824 36c0 616c e73f 6e34 1f3e
00000180: 28ad b4c0 91fd ecc0 785a ef3f 9481 0abf
00000190: 6258 3340 b9f1 93bd ab2d f9bf 33d7 5ebf
000001a0: 9a50 433f 8936 22c0 385c 62bf 8144 62bf
000001b0: 4f82 edbe c93d 3e40 3952 80c0 af5b 4d40
000001c0: 5f09 fc3f 97dc 513f c292 2cc0 f9db 4f3f
000001d0: 901a ca3e e82c 3f40 0419 2840 f5d4 0d40
000001e0: d10c 6940 53a1 4fc0 ed77 f9bf 4ecb 2d3f
000001f0: e23d 5fc0 de33 373f d32f a23e 8406 8d3f
00000200: 2e37 f0bf 53a4 95c0 9084 7140 e246 25c0
00000210: 7b00 5ebe 6917 783d 84be 47be 303d 5b40
00000220: f536 44c0 5716 01c0 7d29 4a3f 0569 f53e
00000230: f18c 5cc0 395c 0cc0 6be1 0a3f 1783 9bbf
00000240: 7967 5bc0 c0c9 7dbf 5381 743f 8227 3a40
00000250: fea9 2540 e36d 2ec0 55de 0ebf 8c49 ea3f
00000260: f076 993e 9450 9d3c e22d 35c0 31ba b63e
00000270: 23bd f7be acf0 4240 6cba e0c0 18ad 9c40
00000280: 0d17 1c40 25e3 d5be fa81 613e 06f3 d13e
00000290: 7a82 3840 8a66 72c0 c48b 8340 928b 91c0
000002a0: 97c3 75c0 f804 53c0 eea5 0ac0 510a 163f
000002b0: e924 e23f cf38 c83f 53b3 4840 2969 7ac0
000002c0: a8f5 07c0 a6d7 13c0 d7ad 1a40 df44 28c0
000002d0: fcfc 5940 f8ed 1ebf 1264 fe3f 47a7 a43e
000002e0: ac1b 913f 81c2 af3e be82 a5c0 f96e 1140
000002f0: 635d d7bb d74d e53f ed11 8bbf 481d 2140
00000300: 08ac 24bf 32bd 0340 d30c 7bc0 0ec3 a3bf
00000310: 123e 2340 e7ce 13c0 bd19 afbf 28bb 8240
00000320: 1605 a1bf 19ce 03bf 3df2 f4bf 7604 1d3e
00000330: 408f c83f b5f5 30c0 1c25 7ec0 bdbd 5fc0
00000340: a8c4 a3bf b44c a7bf 7b06 a1c0 c364 1ec0
00000350: 5eaf 94bf 9825 4e40 6e8c c6bf 2275 dabe
00000360: 35b6 29bf d5c0 e4bf 1306 e3bf 98ac 073e
00000370: 83fc 9ebf 1c13 19c0 bf44 dbbf f865 97c0
00000380: 0aee 0c40 20eb 08c0 6ec1 813f 5ea6 cdbf
00000390: 1110 62bf 9bde 4440 d560 183f dda5 7fc0
000003a0: beb2 e13f 173b 07c0 4114 0340 0a7f 4fc0
000003b0: dbbb a43e 2e25 8340 c5b2 01c1 a2ec 2e3e
000003c0: b018 fcbe 18b3 06c0 038e 0bc0 c7ae 17c0
000003d0: b905 c2c0 10cd fdc0 fcd9 2ac0 6839 a9bf
000003e0: e13a 5640 02e8 303d dd2f 903e d0a9 4940
000003f0: 3cea 94c0 01be 473d 7804 6fbe 7316 aac0
-0.8346439 0.2837364 1.4276007 -2.5619068 1.1064199 -1.3795935 -0.11035887 0.6416549
-1.595695 -0.87532455 -5.255167 -0.96708125 -2.1077952 -0.792705 0.23998523 -0.5542312
0.10499593 -1.4298317 1.0413762 0.9344287 2.7219334 -0.17200162 2.5498827 -0.8713514
-2.4899511 -5.06836 0.92651963 -0.8194837 1.3941041 -3.3060713 -1.7593728 0.7125456
0.05268468 0.18021448 -7.8019886 2.5386646 1.3000592 2.6656766 0.5806622 1.3883486
-0.9726455 0.5507405 -2.2067523 -3.7241538 -1.716274 -1.6118402 -3.0435178 -0.41856402
-5.1017385 4.2478347 1.1763258 2.0660014 2.8430161 -1.5166837 1.4890251 0.51803356
-1.2624049 -1.6178619 2.1012852 1.0166128 0.18393625 -2.155924 2.0190432 -1.9223045
-3.8335533 2.1555269 -3.1050267 -0.62908673 -3.6431909 1.179864 -2.950346 -1.6072444
0.7292159 -1.7249516 2.6694076 -1.4724222 -0.19841036 -0.62848634 1.6430062 6.286984
-0.24932508 -7.0630364 -1.0434316 1.3142271 -0.82543373 -2.4623818 0.46281108 2.5021143
1.454865 -0.15670131 -1.3239661 -0.15075842 1.8309113 -2.8460064 1.807995 0.15547344
-5.646137 -7.405953 1.8699484 -0.5410397 2.8022695 -0.07223839 -1.9467062 -0.8704712
0.76294863 -2.5345786 -0.88421965 -0.8838578 -0.4638848 2.972521 -4.010037 3.208721
1.969036 0.8197722 -2.6964574 0.81195027 0.3947339 2.9871159 2.6265268 2.2161229
3.6414073 -3.2442214 -1.9489723 0.67888343 -3.488152 0.7156352 0.31677112 1.1017613
-1.876684 -4.676309 3.773716 -2.5824513 -0.21679871 0.0605692 -0.1950627 3.4256096
-3.0658543 -2.0169885 0.78969556 0.47931686 -3.4461024 -2.1931288 0.5425021 -1.214938
-3.4281905 -0.9913597 0.95509833 2.9086614 2.5885005 -2.725457 -0.55808 1.8303695
0.29973555 0.019203462 -2.8309255 0.35688928 -0.48386487 3.0459394 -7.0227566 4.8961296
2.438907 -0.4177486 0.22022238 0.41005725 2.8829637 -3.7875085 4.110811 -4.5482874
-3.8400629 -3.2971783 -2.1663775 0.5860949 1.7667514 1.5642337 3.135945 -3.9126685
-2.1243687 -2.3100371 2.4168603 -2.6292036 3.406066 -0.6208186 1.9874289 0.32158872
1.133657 0.34328082 -5.1722097 2.2723982 -0.006572412 1.791438 -1.0864846 2.5174122
-0.64325 2.0584226 -3.9226577 -1.2793901 2.5506635 -2.3095033 -1.367973 4.085346
-1.2579677 -0.51486355 -1.9136425 0.15333733 1.5668716 -2.7649968 -3.971015 -3.4959557
-1.279439 -1.3070283 -5.032041 -2.4749 -1.1616018 3.2210445 -1.5511606 -0.4266749
-0.6629365 -1.7871348 -1.7736229 0.13249433 -1.242081 -2.3917913 -1.7130355 -4.7311974
2.2020288 -2.139351 1.0137155 -1.6066396 -0.88305765 3.0760868 0.59522754 -3.9944985
1.7632673 -2.1129816 2.0481112 -3.2421288 0.32174572 4.0982885 -8.106145 0.17082456
-0.49237585 -2.104681 -2.1805427 -2.3700426 -6.0631986 -7.931282 -2.6695547 -1.3220644
3.3473437 0.04319001 0.28161517 3.1509895 -4.653593 0.048765186 -0.23341548 -5.3152404

l4/W f4 [64, 256]
00000000: 4016 7341 f0fd 4e41 5aab 3b41 d0cc 8441
00000010: cde1 883f 2d0e e840 499e 7641 bed1 4f41
00000020: 7788 b840 0247 4441 2f0a 6d41 da4a 2641
00000030: 4771 4f41 a30f 5a41 4b78 8d40 f375 3c41
00000040: 154a 3c41 8be6 3941 e457 1b41 0b3b 5241
00000050: 9981 3b41 d27c 1441 7d47 d640 f99b 5a41
00000060: 3af4 2841 dfd4 2041 cbb1 4341 c672 5d41
00000070: 5293 6f41 bee4 8941 ad87 7c41 78d1 4c41
00000080: ecdf 7441 e6a9 3141 5314 6b41 dc1e b13f
00000090: 4efc 7441 4a18 6041 2461 5241 3283 2f41
000000a0: cd69 1141 917f 4d41 fe8d 7f41 f1d2 3d41
000000b0: 0e2d 5741 6c1d 5041 ce84 b640 aff7 4e41
000000c0: de99 7141 e47f 7b41 703a 3641 3fec 8541
000000d0: 2e41 7f41 48b4 6e41 36a3 8041 e7d6 8b41
000000e0: 3c66 6341 9d53 7241 1a14 0341 17c4 8241
000000f0: a959 0641 3e62 7b41 e42b 7241 eaf5 8141
00000100: 54ed 3841 a364 7e41 2cb9 7741 0d30 4741
00000110: 189e 5741 e37e 4541 ca9c 7441 f298 5c41
00000120: 8b05 2841 484b 6541 f6d8 3341 c218 6b41
00000130: 6f9f 6541 5864 4341 4146 5941 f44c 3841
00000140: 2537 4941 a549 8f41 f326 6d41 d550 7341
00000150: ee47 2441 f93b 5f40 11fd 5041 4330 6141
00000160: 3222 5741 7ea7 6c41 1518 7441 8997 3e41
00000170: 473e 7441 1de4 1941 da6d 6141 da58 4e41
00000180: a293 b83f ea46 5e41 ba51 5540 1201 0b41
00000190: 10bc 4b41 7a84 2d41 1c47 3d41 4b0a 7841
000001a0: 19f8 3141 8df7 4e41 445c 5a41 a6c9 8b40
000001b0: 993b 6e41 6380 8041 655a 5141 9969 6041
000001c0: 7e86 3f41 f19e 4c41 f5cb 8a40 f311 4741
000001d0: 705e d240 2444 1d41 22db 7441 bd10 2c41
000001e0: 8e9d 4241 13a4 4141 ae97 5f41 a584 4b41
000001f0: 682c 6a41 c658 4d41 bfbe 8041 9f24 4b41
00000200: 6597 6d41 bbc6 c240 6b20 4641 4dff 7741
00000210: a8da 4e41 b0d0 bc40 b64c b040 2f11 9040
00000220: 6444 1c41 f623 7c41 6af1 7941 c3ba 6c41
00000230: 86c7 5841 d79d 5041 94d7 3d41 343e 6341
00000240: 1f66 5441 04a5 4f41 174a 4b41 27da 1b41
00000250: b1b6 7241 fbfb 7b41 f628 0d41 3c96 6b41
00000260: 4e43 b540 5198 8041 5508 86bc 6a90 4341
00000270: 5867 8441 42a6 7341 c15b 5241 eb44 7a41
00000280: 67a1 4c41 4ff4 3240 5bb6 4841 bf77 3641
00000290: 820a 1041 120f 6d41 591e 5b41 578d 5841
000002a0: 5b11 8941 46e5 2240 7a65 4f41 39e7 2041
000002b0: 58c1 6f41 a686 7041 f970 4741 78d6 e640
000002c0: a399 7641 a8da 6f41 debc 4541 13f8 4341
000002d0: 703e 0e41 f19f 6541 eecf ac40 59f9 7b41
000002e0: 11c5 6541 9a0e 5041 2147 6741 0d14 2f41
000002f0: fac1 3c41 319e 8441 8a4b 6341 af0f 4c41
00000300: c6e0 4f41 b5e0 5041 ce9d 8540 022d 7141
00000310: 2083 6341 1c9d 1341 8195 5241 d026 7e41
00000320: 8d74 4a41 2ccd 5341 fb84 5541 5811 2b41
00000330: d487 7441 4c88 7741 484c c140 594a b540
00000340: 8792 7541 77cc 3841 0324 8840 9693 3741
00000350: 3012 5741 f390 5541 1dfb 0941 f38c 9b40
00000360: 6c08 7441 6a5d 6441 75c5 6841 5b82 1e41
00000370: b7ae 8d3f a403 0241 7455 6241 9693 1b41
00000380: b28b 6b41 dd3e 5141 7024 6841 fa47 5141
00000390: c451 4841 9f48 4641 4e16 7741 3837 3f41
000003a0: a9d8 4941 bbf3 3f41 8364 6a41 0759 4c41
000003b0: 518e 4a41 13dc 6241 ad9c 7541 9a55 8441
000003c0: b304 5841 e0d9 5d41 1bb6 4d41 caf1 5e41
000003d0: fa24 7741 d1a2 6441 2343 8341 8486 3141
000003e0: b4fa 7240 ef47 4d41 776b 5741 8687 ec3f
000003f0: 4152 4041 2732 8041 1393 8041 16df 5a41
15.192932 12.936996 11.729334 16.600006 1.0693909 7.2517304 15.413644 12.988707
5.7666583 12.267336 14.814986 10.393274 12.965156 13.628818 4.420934 11.778796
11.768086 11.618785 9.708958 13.139415 11.71914 9.280474 6.6962266 13.663079
10.559626 10.0519705 12.2309065 13.840521 14.973467 17.23669 15.783124 12.80114
15.304668 11.103979 14.692462 1.3837543 15.311598 14.00593 13.148716 10.96953
9.08833 12.843644 15.972166 11.863999 13.4485 13.007183 5.7037115 12.93547
15.100065 15.718723 11.389267 16.740355 15.953413 14.919014 16.079693 17.479933
14.21246 15.145413 8.192408 16.345747 8.39689 15.711485 15.1357155 16.245075
11.557941 15.8995695 15.482708 12.449231 13.476097 12.343478 15.288279 13.78734
10.501353 14.330879 11.240469 14.693544 14.351424 12.211998 13.579652 11.518787
12.575963 17.91096 14.822009 15.207234 10.267561 3.4880354 13.061784 14.074283
13.445848 14.790892 15.255879 11.911996 15.265204 9.618192 14.089319 12.896692
1.4420054 13.892313 3.3331132 8.687761 12.733414 10.844843 11.829861 15.502513
11.123071 12.935437 13.647526 4.3683653 14.88955 16.062689 13.084569 14.025781
11.970335 12.788804 4.337397 12.441882 6.574028 9.829136 15.303499 10.7540865
12.1634655 12.102557 13.974531 12.719884 14.635841 12.834173 16.093138 12.696441
14.849462 6.086759 12.382915 15.499829 12.928383 5.9004745 5.509364 4.5020976
9.766697 15.75878 15.621439 14.795596 13.548712 13.038535 11.865131 14.202686
13.274932 12.977787 12.705588 9.74076 15.169602 15.749019 8.8225 14.724178
5.664466 16.074373 -0.016361395 12.222757 16.55046 15.22809 13.147401 15.641826
12.789405 2.7961614 12.54452 11.404235 9.002565 14.816179 13.694909 13.534507
17.133474 2.5452437 12.962275 10.056451 14.984703 15.032873 12.465081 7.2136803
15.412509 14.990883 12.35861 12.248065 8.890244 14.351548 5.400382 15.748376
14.360612 13.003565 14.454865 10.942395 11.797358 16.577242 14.205942 12.753829
12.992376 13.05486 4.1755133 15.073488 14.219513 9.225857 13.1615 15.884476
12.653455 13.237591 13.344966 10.691734 15.283161 15.470776 6.0405617 5.6653256
15.348273 11.549918 4.254396 11.473532 13.44194 13.347888 8.623807 4.8609557
15.252056 14.272806 14.548207 9.906825 1.1068944 8.125889 14.145863 9.723532
14.721605 13.0778475 14.508896 13.080072 12.519962 12.39273 15.4429455 11.950981
12.615396 11.9970045 14.649539 12.771735 12.659745 14.178729 15.350751 16.541798
13.501147 13.865692 12.856959 13.934031 15.4465275 14.28975 16.407782 11.095341
3.7965517 12.830062 13.463737 1.8478858 12.0200815 16.024488 16.071814 13.679464

l4/b f4 [64]
00000000: 8b8b c5be 2d2b ccbe 9ab7 1640 02a2 e43f
00000010: 82f9 9340 b5f1 4cc0 1ea9 8d3e 9d4b b4bf
00000020: 7695 0e40 5b08 d140 985a 2c41 3f0e 7b41
00000030: 4a74 1241 9e18 7a41 ad83 9440 21fe b13f
00000040: b5a9 cac0 0989 6141 e232 7e41 296a 8141
00000050: 3c5d 7e41 ff03 8241 d963 8241 0e5f f240
00000060: 3a02 febf fd80 4441 5116 8441 7ed9 3241
00000070: 0022 2041 2823 8041 8905 5441 dccb db3e
00000080: bb6c 22c0 6056 1f41 824e 8041 f882 3841
00000090: 59f3 3341 d14b 8541 53a3 8241 ae88 9140
000000a0: 6e9f 0fc0 9c5a 8041 9c27 8141 6a8f 7e41
000000b0: e73e 8541 44df 7f41 cfe5 7441 beb0 363f
000000c0: 7877 0dc1 3f93 8cbf 105e 1a41 391f 7f41
000000d0: 8159 8141 230d 5141 8231 4e41 145f 0bc0
000000e0: 1f8d 04c1 1663 e13f 54f3 bcbf cc0e c13f
000000f0: 9a1e 89be d56d 92c0 1241 2c3f 8544 6ebf
-0.38583025 -0.3987669 2.3549562 1.7861941 4.6242075 -3.2022526 0.2766809 -1.4085575
2.2278724 6.53227 10.772118 15.690978 9.153391 15.63101 4.6410737 1.3905679
-6.333216 14.095956 15.887423 16.176836 15.897762 16.251951 16.298754 7.5741034
-1.984443 12.281491 16.510897 11.178099 10.008301 16.017166 13.251351 0.4292897
-2.5378864 9.958588 16.038334 11.531975 11.246911 16.66202 16.329748 4.5479345
-2.2441058 16.044243 16.14434 15.910013 16.655714 15.992008 15.306106 0.7136344
-8.841667 -1.0982436 9.6479645 15.945123 16.168703 13.065707 12.887087 -2.177678
-8.284453 1.7608364 -1.4761758 1.5082641 -0.2678116 -4.575907 0.6728679 -0.930733

l3/W f4 [256, 256]
00000000: 6b9e b740 8f0c 6740 f5ca de3f 7c62 9241
00000010: 330a 2341 a988 1940 7f68 8440 6e05 9bc0
00000020: e15b 2541 d776 d1bf 9f61 99c0 efc9 04c1
00000030: 23c6 fcbf d877 20c1 d4bd 1a41 d899 98c0
00000040: 5396 5c41 f5b6 8641 81e0 f1bd f8c6 ff3f
00000050: 11a7 8bc0 e438 2f41 75f9 7d40 3abe cb40
00000060: dc22 46c1 2ef6 14bf 6a6c 0a40 f550 11c1
00000070: d109 7340 1505 5bbf 9c08 e340 b9dc c340
00000080: 9e74 763f c492 0d41 8f4b f7bf 6ba2 f540
00000090: 6b76 0e40 23ec 5f40 6f17 c63f dd12 4341
000000a0: 6c98 12c0 cbfa d740 29f0 0441 44d9 e7bf
000000b0: 92cf dd40 3326 2c41 8624 c3bd 22c5 3a3f
000000c0: 7b7d a5c0 549f f6bf abf3 3741 009f 96c0
000000d0: 206d 1840 5a1e 2341 5981 853f a788 84c1
000000e0: 6fe2 8bc0 558e 1341 58d9 70c0 1f26 fbc0
000000f0: 161f e140 0b90 45bf a66c e7bf b0e7 7ac1
00000100: d027 babf 3385 3241 6095 2ec1 745e 1a40
00000110: 8465 86c0 0da1 a5c1 add9 4e40 1657 db40
00000120: 1e7e 5a3f 20b7 1cc1 f691 ebc0 3d12 1641
00000130: 42c4 32c1 919b 61bf efdc 8f40 4916 af40
00000140: 6a15 9e40 56ef ba40 d10e 3c41 86cf 2741
00000150: 5f13 50c0 f4d4 4bc0 67b5 c0c0 2ead bc40
00000160: f942 0dc0 0ad2 323e 18fa 2441 d353 9240
00000170: ae25 e5c0 d4c2 3440 077d 1a41 c9db 2540
00000180: c16e de40 7a02 53c0 4f2a 76c1 b9cc 2141
00000190: 3586 fb3d 5ea6 d540 cf6f e140 64b5 1940
000001a0: e593 f040 057c 2a41 1535 9a41 e661 c540
000001b0: ed48 fb3d 28e2 5cbe 16f9 8c40 3964 cebf
000001c0: 4932 e7bf 5ffe 0740 c9ac b0c0 3684 bd40
000001d0: 7587 7641 c346 2541 38bd 03c0 4552 fa40
000001e0: fde3 1ac1 cff0 adc0 778b f93e fc4b 5f3f
000001f0: a5f8 4b3e 82a2 ea40 b255 b040 fed5 ed3f
00000200: acfa aebe 5fab c5c0 b368 b5bf e407 3441
00000210: d75c 1941 bc30 7d40 147b c040 3eac 0241
00000220: 51ad 1441 8296 1740 0ae6 83c1 87d7 64c0
00000230: d9b0 3a41 45e7 fdc0 06d3 e940 8934 ba40
00000240: c0fe cd40 2b33 a4c0 0ed2 f9bf 3791 abc0
00000250: 864a f3bc 8590 fe40 45e4 3b41 ca2a 6ac1
00000260: 1d56 1b41 5218 5dc1 abb5 a440 42cc 07c1
00000270: cc7b 3341 dc65 c640 ad9c 5741 3d45 f83e
00000280: 0a32 1240 656d 5a40 68d3 09c1 be05 8641
00000290: 0f18 0e41 1741 893d edb4 96c0 a0e9 c940
000002a0: 1dcb 3c40 c86a b0bf b567 8fbf 2e53 fd40
000002b0: 8823 5a40 fc16 e440 1ad7 5941 b10f 74c1
000002c0: 639a 6b40 061a fb40 8823 06c0 654c ea3f
000002d0: f795 ff3e 625f 3d41 f46d aebf dab5 cb3e
000002e0: dbd2 d640 7540 8040 c0e6 1041 4ada fc40
000002f0: 4ad2 2c41 7ca0 2641 3f62 a940 a8be d13f
00000300: ae29 ad40 3817 a641 0847 0741 e080 4640
00000310: 68e4 8ac0 ca55 df40 ff0c c1c0 c6eb 0a41
00000320: e0d5 d540 17fe d5c0 5d25 4041 658d 7041
00000330: e53f fc40 19eb f740 194a c140 5066 0641
00000340: 1492 d7bf 4345 8ebf 9418 31c1 6182 d0bf
00000350: 1df1 5841 6279 933f 976a f640 3deb 1241
00000360: 0396 e640 a910 f640 9106 b640 ef17 8f40
00000370: a3a5 7fc0 3adf 27be d60d 0fc0 c8e1 ae40
00000380: 77a6 1441 df56 04bf 2d06 a13f 1136 73c0
00000390: 203f 983f 6305 9c40 89e7 be40 4b3c af3f
000003a0: 8968 99c0 9e38 f340 659a 6cc0 85e9 1240
000003b0: f667 e440 f65b b9c0 6a29 d7c0 7553 a5c1
000003c0: 5db7 f2c0 6ba3 8f40 6b27 0841 cd73 7e41
000003d0: 6e32 4341 c057 71c0 065f 6d40 dba3 9cbf
000003e0: 0fe5 edbd fc58 5441 a1da 8340 e204 1ac0
000003f0: 7fbb 9e3f 68d1 5441 0ad4 3541 d0d7 f040
5.738088 3.6101415 1.7405688 18.298088 10.18999 2.398966 4.137756 -4.844413
10.334931 -1.6364392 -4.7931666 -8.2993 -1.9747967 -10.029259 9.671345 -4.7687798
13.7867 16.839334 -0.11810399 1.9982595 -4.364144 10.951389 3.9683506 6.366971
-12.383511 -0.5818814 2.162867 -9.082265 3.7974741 -0.8555463 7.094801 6.1206937
0.96271694 8.848331 -1.9319934 7.6760764 2.2259777 3.4987876 1.5475901 12.192105
-2.290553 6.7493644 8.308633 -1.8113179 6.931588 10.759326 -0.09528451 0.7295705
-5.1715674 -1.9267373 11.496989 -4.706909 2.3816605 10.19491 1.0430099 -16.566725
-4.371391 9.222249 -3.7632656 -7.8484035 7.0350447 -0.7717292 -1.8080032 -15.681564
-1.45434 11.157519 -10.9114685 2.412015 -4.199892 -20.703638 3.2320359 6.8543806
0.8534869 -9.794708 -7.3615675 9.379453 -11.1729145 -0.88128 4.4957194 5.4714704
4.940114 5.841716 11.753617 10.488165 -3.2511823 -3.1848726 -6.022144 5.89614
-2.2072127 0.17462936 10.311058 4.5727324 -7.1608496 2.8243914 9.655524 2.5915396
6.95102 -3.2970262 -15.385329 10.112481 0.12281457 6.6765585 7.0448985 2.4016962
7.5180535 10.655278 19.275919 6.1682005 0.12269769 -0.21570647 4.405406 -1.6124336
-1.8062221 2.1249006 -5.521092 5.922389 15.408071 10.329776 -2.058424 7.8225427
-9.680661 -5.4356456 0.48739216 0.8722532 0.19919069 7.3323374 5.510461 1.858093
-0.34175622 -6.1771693 -1.4172577 11.251926 9.585166 3.9560995 6.015024 8.167051
9.292314 2.3685613 -16.487324 -3.5756547 11.668176 -7.934481 7.3070097 5.818913
6.4373474 -5.131246 -1.9517229 -5.3614764 -0.029698621 7.9551415 11.74323 -14.635447
9.708524 -13.818438 5.1471763 -8.487368 11.217724 6.199934 13.475751 0.48490325
2.2843041 3.412927 -8.614113 16.752804 8.880874 0.06701868 -4.7095857 6.3097687
2.949897 -1.3782587 -1.1203524 7.916404 3.4084187 7.1278057 13.615015 -15.253831
3.681298 7.8469267 -2.0959187 1.8304564 0.49919102 11.835787 -1.3627305 0.3978718
6.713239 4.0078683 9.056335 7.9016466 10.80134 10.414181 5.293243 1.6386309
5.411338 20.761337 8.454842 3.101616 -4.3403816 6.9792223 -6.0328364 8.682562
6.682358 -6.687267 12.009122 15.03452 7.8827996 7.7474484 6.040295 8.399979
-1.6841455 -1.1114887 -11.0685005 -1.6289788 13.558866 1.1521418 7.7005115 9.182431
7.205812 7.6895337 5.6883016 4.4716716 -3.9944847 -0.16393748 -2.2352195 5.465061
9.290641 -0.51695055 1.258001 -3.800175 1.1894264 4.8756576 5.9657636 1.3690275
-4.7940106 7.6006613 -3.6969235 2.295503 7.1376905 -5.7924757 -6.7238054 -20.66575
-7.584883 4.4886985 8.509624 15.903272 12.199812 -3.7709808 3.7089248 -1.2237505
-0.11615955 13.271725 4.120438 -2.406548 1.2400969 13.301125 11.364267 7.5263443

l3/b f4 [256]
00000000: 0aa5 1ac0 2b77 8940 c103 6dbf e5c6 0540
00000010: bac9 4041 fecd 0c41 1b07 3340 f951 3040
00000020: deca ed3f 59ce 75c0 9b6e 0ec0 f699 f640
00000030: 9d18 4ec0 efbf debf 1136 00c0 0d7e a840
00000040: 03b4 8e3f c885 40bf 793a 813f 7adc 93be
00000050: 1c84 c3bf 30d3 e5bf 692d 5941 1859 8c40
00000060: c7fa 49c0 0960 fc3f c121 24bf 38b3 b73f
00000070: 44d5 fabf 484b 43c0 5d1e 183f 6a67 5a40
00000080: d8fb 9bbf 0dd0 5d40 e628 9740 cf33 e641
00000090: bdd1 8abf 3d0e 52c0 1624 58bf 8631 39bf
000000a0: 3998 2141 be1b 6e40 9193 e13e d2a9 9740
000000b0: 5175 0ac0 543d 9940 709f 8941 8087 9540
000000c0: ddd6 a33e ef6c c73f 4f3e 74be f7b7 1abe
000000d0: 4b8e 9b3f 659e 253f 913b 973f 56bf 5740
000000e0: 1b8f 3dc0 d27f 73bf b2a1 febf 603a ef3f
000000f0: e1b6 6941 d78b fbbd 9322 8abf b2f5 de3e
00000100: 1f11 22c0 7d3c 6b3f acd2 7c3f e0e0 c23f
00000110: 62cd 9240 990b a040 59bc 7940 eaa5 70c0
00000120: e074 80c0 2bd1 8840 6a1e b240 3231 4c40
00000130: b2df 8140 348f 9ec0 3d73 b240 af44 09c0
00000140: 4f4f 1a40 a74d 2940 4769 fabf 0f80 9640
00000150: 4426 4040 099b ba41 64ae 2d40 237c 26bf
00000160: 3ad0 0a40 d01b 83bf ce5a 0840 7169 8f40
00000170: 866e 2840 573b 8d40 0164 0041 2e2f 9040
00000180: 3b90 6841 56a5 9b40 6ee4 d7be d4a9 c7c0
00000190: bf75 e1be f4ef dd3e fbef bfbe f2f0 5c40
000001a0: 89a1 afc0 695c 62bf d0ed abbf 76e0 a541
000001b0: 71a8 25bf ee74 323f b1d9 bec0 1ad6 10c0
000001c0: f1b2 ab40 8f2a bdbf ccce 9541 09a7 9c40
000001d0: 5dc0 6041 3624 7c40 82c7 debf 95d9 4ec0
000001e0: 16b2 84bf 84af 8040 cafa 15c0 d23d 5f40
000001f0: 1054 a3bf f9ce cdc0 e7f5 83bf 8507 4d40
00000200: bcb8 7d3f 405f 2a40 bbad 8c3e 9fac 66c0
00000210: f4ab 8a40 5472 61c0 ed2d f640 5a97 9341
00000220: 09db abbf bcd9 2e3f 171d d63f e648 c6be
00000230: b45b 88c0 fd7d 9140 95fa 4ac0 8c4b 0d40
00000240: 29fa cb40 5ceb 4dc0 b413 0c3e 4112 82c0
00000250: 81f2 7d40 883f c43e 33be cb40 024c 1f40
00000260: 0169 973f d4e4 08bf d7b3 4341 5ec0 8640
00000270: 588c 29c0 c847 00c0 8078 42c0 7d7d 0540
00000280: 3c17 3a40 5ade a941 20d2 83bf 8c9a aa40
00000290: a707 2d40 8132 0a40 b768 ab40 f570 1dbf
000002a0: 6d67 cdbe 5e3e cf41 85a4 d140 3613 9d3e
000002b0: 47f0 e03f dd86 c6be 4b8f ac40 534e 0541
000002c0: 4b96 4240 bcec c440 8500 62bf b9c7 ab3f
000002d0: 198f b140 d90e 3a40 0c34 7441 15ca 933f
000002e0: cd44 66c0 4bbb 2640 6e2e a740 7e0f 01c0
000002f0: 4308 abbf 5c5a e8bd 48e4 8b40 08be c3bf
00000300: f20f 8f40 097f 8dc0 70ed 9241 e06a b53f
00000310: 1c0f 19bf d646 ce40 e083 473f 10c4 9440
00000320: 9ca2 8ebf 9fc7 81c0 a691 0ec0 8671 d340
00000330: cd7d 4ebf 6cb6 d43e 75a1 fc3f 6e28 9441
00000340: 825f 0bbe cc2f a940 4fc3 8e41 8c94 a840
00000350: 81e7 aa40 169e 3840 cea2 023f 8010 8c41
00000360: 53c7 8140 d248 d8bf baa7 2740 5e63 9d40
00000370: 433d de41 7c6a 4540 4076 00c0 6db0 cfc0
00000380: 09d9 8940 f017 5ebd f024 7f40 a362 8540
00000390: 0e51 88c0 363f edbf 8da3 9f3f cce2 3ac0
000003a0: a5b4 7a40 21c6 d33e baeb a9bf 9f8f 36bc
000003b0: a459 cc40 cd9a 7bbf f9d1 0a3f f9f0 0d40
000003c0: 2ec7 9bc0 43dd a940 b949 a940 58db b540
000003d0: 6075 e23e a576 fe3f c0f0 f7be 7e3a 0a40
000003e0: 11fb 9a41 56aa ae3f 1386 9bbf 1518 e641
000003f0: 63ef cf40 f526 f1bf 201c 2940 c264 da3e
-2.4163232 4.295797 -0.92583853 2.0902646 12.04925 8.800291 2.7973087 2.7550032
1.8577535 -3.8407195 -2.2255008 7.706294 -3.2202523 -1.7402323 -2.0033 5.265387
1.1148685 -0.75204134 1.009597 -0.28879148 -1.5274692 -1.7955074 13.573586 4.3858757
-3.1559312 1.9716808 -0.64114004 1.4351568 -1.9596334 -3.0514698 0.5942133 3.412562
-1.2186232 3.4658234 4.7237425 28.775297 -1.0845257 -3.282119 -0.8443006 -0.7234119
10.099664 3.7204432 0.44057897 4.73948 -2.1634104 4.7887363 17.20285 4.6727905
0.31999865 1.5580119 -0.23851894 -0.1510924 1.2152799 0.64694816 1.1815053 3.3710532
-2.9618595 -0.95116913 -1.9893095 1.868969 14.607148 -0.12282532 -1.0791801 0.43546826
-2.532295 0.9188917 0.9875896 1.5224876 4.587571 5.0014157 3.9021208 -3.7601266
-4.014267 4.275533 5.5662127 3.1905026 4.0585566 -4.954981 5.576567 -2.144817
2.4110906 2.6453645 -1.9563378 4.703132 3.0023355 23.3257 2.713769 -0.6503317
2.1689591 -1.0242863 2.1305423 4.4816213 2.6317458 4.4134936 8.024415 4.5057592
14.5352125 4.8639326 -0.42166466 -6.239481 -0.44035146 0.43347132 -0.37487778 3.4522061
-5.4884686 -0.88422257 -1.343195 20.7346 -0.64710146 0.6970967 -5.9640737 -2.2630677
5.3655934 -1.4778613 18.725975 4.89539 14.046964 3.9397101 -1.7404635 -3.2320302
-1.0366848 4.0214252 -2.343432 3.4881482 -1.2760029 -6.431515 -1.0309418 3.203584
0.9911001 2.6620636 0.27476296 -3.604286 4.3334904 -3.522603 7.693106 18.448902
-1.3426219 0.68300986 1.6727628 -0.38727492 -4.261194 4.5466294 -3.1715443 2.207736
6.374287 -3.2174902 0.13679391 -4.0647283 3.9679263 0.3832972 6.3669677 2.4890141
1.182892 -0.53474164 12.231406 4.2109823 -2.649191 -2.0043812 -3.0386047 2.0857842
2.907668 21.23357 -1.02985 5.3313656 2.703592 2.1593325 5.3565326 -0.61500484
-0.4011797 25.905453 6.551333 0.3067872 1.7573327 -0.38774768 5.392492 8.331622
3.0404232 6.1538982 -0.8828204 1.3420326 5.548718 2.9071562 15.262707 1.1546046
-3.5979493 2.6051815 5.2244177 -2.0165706 -1.3361896 -0.1134536 4.3716164 -1.5292368
4.4706964 -4.421757 18.365936 1.4173241 -0.5978868 6.446147 0.779356 4.6489334
-1.1143374 -4.055618 -2.2276397 6.607608 -0.80660707 0.41545427 1.9736773 18.519741
-0.13610652 5.2870846 17.845366 5.268133 5.3407598 2.8846488 0.5102967 17.508057
4.0555816 -1.6897223 2.6196122 4.91838 27.779913 3.0846243 -2.0072174 -6.4902864
4.3077435 -0.054222047 3.9866295 4.1682906 -4.2598944 -1.8534915 1.2471787 -2.9200926
3.9172757 0.41362098 -1.3275063 -0.01114264 6.3859425 -0.9828308 0.5422664 2.2178328
-4.868064 5.3082595 5.2902493 5.6830254 0.44230175 1.9879957 -0.48425865 2.15982
19.372591 1.3645732 -1.2150291 28.761759 6.497972 -1.8840014 2.6423416 0.42654997
