size8/agent_black_120000/target_model.npz (npz, 608332 bytes, 8 tensors)

l2/W f4 [256, 256]
000000 ef 83 31 41 8f 2a 63 c1 3a 12 b7 c1 b6 2f 04 c1
       11.09471 -14.19789 -22.8839 -8.261648
000010 fe a1 f6 c1 e4 6c 6b 41 22 26 00 41 c5 3f 36 41
       -30.829098 14.714085 8.00931 11.390569
000020 4f bf fb 40 84 df de c0 70 32 81 41 7a 83 92 41
       7.867103 -6.9647846 16.149628 18.314198
000030 54 41 3f 40 be dc d4 3f 8a 6c f3 c1 e5 99 69 bf
       2.9883623 1.6629865 -30.427998 -0.9125045
000040 e4 bb 90 41 96 28 24 c1 5f 17 98 c1 be 0b 1c c1
       18.091743 -10.259909 -19.011412 -9.752867
000050 81 09 9b c1 9d 3f 38 41 a3 12 9d 40 53 6f 18 3e
       -19.37964 11.515531 4.908525 0.14886217
000060 f7 db e8 c0 4e a7 06 c1 1e 56 02 40 9d 3f 11 c1
       -7.276851 -8.415846 2.0365062 -9.078031
000070 fe 98 04 42 30 f1 20 42 ab 0e ed 40 a0 0d fe 3d
       33.149406 40.235535 7.4080405 0.124049425
000080 91 74 bf c0 0b 1f b1 40 4a 85 5e c1 bd b1 c4 3f
       -5.9829793 5.5350394 -13.907541 1.5366741
000090 ff 73 c1 41 29 ee 99 41 c0 c4 ba c1 17 43 83 41
       24.181639 19.24129 -23.34607 16.407759
0000a0 0c d2 4c c1 c1 c8 19 c1 49 46 05 c1 ab b3 1e c1
       -12.801281 -9.611512 -8.329659 -9.918864
0000b0 5b 5d 0e 3f 7a 65 f1 41 10 ad 83 41 b2 2b b5 40
       0.556112 30.17455 16.459503 5.661584
0000c0 76 52 1b c1 13 2b d8 c1 9b da a5 40 68 b6 45 40
       -9.707632 -27.021032 5.182935 3.0892582
0000d0 57 45 11 41 5c 55 ab c1 3d 5a a8 40 8b fd 27 41
       9.079429 -21.41668 5.2610154 10.4994
0000e0 fe 44 91 c1 aa db 63 c1 cb d0 70 41 47 a4 03 41
       -18.158688 -14.241129 15.050975 8.227607
0000f0 3c 65 f7 c1 30 12 28 3e c2 be 1e 40 be 1e 1d c1
       -30.92443 0.16413188 2.480393 -9.820005
000100 d0 b5 37 c1 ee b9 c8 c1 ba ac cc c1 cf f2 43 c1
       -11.481888 -25.090786 -25.58434 -12.246779
000110 a6 1f ad c0 59 90 5c 41 93 44 3c c1 78 59 90 41
       -5.4101133 13.785241 -11.766742 18.043686
000120 2e 42 bf 41 22 e4 67 41 1d 65 d9 c0 b7 6e 39 41
       23.907314 14.4931965 -6.793593 11.58953
000130 63 9f 5f 40 2b 9b 8d c1 45 6a c7 41 be 08 d4 40
       3.4941032 -17.700766 24.92689 6.626067
000140 5e 3b 51 41 93 54 a7 40 b6 da a4 40 6a 7d 37 c1
       13.076994 5.229074 5.151698 -11.468119
000150 08 ee bc 3f ea 9c 3f 41 7b 83 f2 bf 23 50 ea 41
       1.4760141 11.975809 -1.8946375 29.28913
000160 82 25 c5 40 fb 27 92 c1 11 22 c3 c0 20 e5 77 c0
       6.1608286 -18.269522 -6.0979085 -3.8733597
000170 3f 00 f2 c1 b3 05 82 bf 76 a5 93 40 35 65 75 41
       -30.25012 -1.0157989 4.613948 15.337209
000180 b3 92 fb c1 e2 d8 01 c0 b7 80 80 41 fd 79 d1 c0
       -31.44663 -2.0288625 16.062849 -6.546141
000190 4a 02 b4 c0 4c 0f 73 c2 e9 a6 45 c1 23 bb 6e c0
       -5.6252794 -60.76494 -12.35325 -3.730172
0001a0 8b fb d5 c1 b5 09 5b c1 36 6f af c1 f2 1f 25 c2
       -26.747824 -13.68987 -21.929302 -41.281197
0001b0 23 f0 7e 41 0c 9b 60 c2 70 38 24 41 11 a3 73 40
       15.933627 -56.151413 10.263779 3.8068278
0001c0 f5 9c e8 40 81 f5 1b c1 b2 31 8d c0 5a 94 06 c2
       7.26916 -9.7474375 -4.4123163 -33.644875
0001d0 6a 8c 77 bf 4c d1 3e c1 f0 d2 91 c0 30 d6 dc c0
       -0.9669863 -11.926098 -4.556999 -6.901146
0001e0 01 9a 25 c1 02 2f e6 c1 ee e7 eb 3f 56 20 3c c2
       -10.350099 -28.772953 1.8430154 -47.031578
0001f0 c6 a9 7c 40 87 76 bc c1 06 64 98 c0 3f 38 b5 40
       3.9478621 -23.557875 -4.76221 5.663116
000200 b2 7a ce 41 98 14 99 c1 96 49 ac be f1 06 f2 c1
       25.80991 -19.135056 -0.33649892 -30.25339
000210 62 3b 86 41 24 34 b6 41 d7 4d 13 41 ce 83 9e 41
       16.778996 22.77546 9.206504 19.814358
000220 a3 54 4b c2 83 cc 52 c1 06 cf 87 41 97 6e a1 c0
       -50.832653 -13.17493 16.976086 -5.0447497
000230 4d 76 df c1 83 30 46 c1 78 17 d6 c0 4c 4e c6 41
       -27.932764 -12.386844 -6.690365 24.78823
000240 3d 54 96 c1 13 d7 3e c2 08 67 13 42 78 23 3c 41
       -18.791132 -47.710033 36.850616 11.758659
000250 d2 7c d8 41 78 f0 39 41 f7 d1 f4 c0 62 4b 79 41
       27.060947 11.621208 -7.6506305 15.580904
000260 f6 84 cc 40 c2 39 3a c1 a8 ec 7f 41 8c f0 a0 40
       6.3912306 -11.639101 15.995277 5.0293636
000270 78 30 08 c1 7a cd 91 c0 64 82 15 40 37 2f 9a c1
       -8.511833 -4.5563326 2.3360834 -19.273054
000280 8f 84 9b c0 ef 01 d2 c1 80 d7 a9 41 09 80 9d 41
       -4.8599315 -26.250944 21.230225 19.687517
000290 60 a6 84 c1 e0 d9 96 c1 b7 a6 26 c0 15 b6 44 41
       -16.581238 -18.856384 -2.6039255 12.294454
0002a0 5d 8c 27 c1 12 a1 46 41 52 f7 47 c1 38 f1 c4 c0
       -10.471768 12.414324 -12.497881 -6.1544456
0002b0 19 13 17 c0 54 ea b2 41 19 c2 3f c2 43 6f 5d 40
       -2.3605406 22.364418 -47.93955 3.4599159
0002c0 fd aa 82 c1 08 e7 81 41 55 8a c6 40 19 65 21 41
       -16.33349 16.237808 6.204386 10.087182
0002d0 30 46 d6 40 2f 9b 30 42 80 90 75 c1 71 00 31 41
       6.696068 44.151546 -15.347778 11.062608
0002e0 3e 30 91 41 85 d3 2a c2 50 53 6f c0 c4 3e 99 40
       18.148556 -42.706562 -3.73946 4.788912
0002f0 40 18 da c1 b5 41 db 41 64 a7 91 41 e8 50 a3 41
       -27.26184 27.407084 18.206734 20.414505
000300 d1 54 a2 41 8e e5 77 40 d3 d9 37 41 e9 16 e1 40
       20.291414 3.873386 11.49068 7.0340466
000310 56 b6 c8 41 22 bd 80 41 92 cd 8d 41 c0 28 7f 41
       25.089031 16.09235 17.725376 15.947449
000320 a9 15 02 c1 5a 57 d4 c1 2a b2 de c1 46 29 b8 c0
       -8.130288 -26.542652 -27.836994 -5.7550383
000330 dd 33 0e c1 93 55 b2 c1 aa 5e bb c1 a2 1c ba c1
       -8.887662 -22.291784 -23.421223 -23.26398
000340 0b 75 9c c1 67 20 22 c1 7e f7 a8 c1 31 d7 57 bf
       -19.55715 -10.132911 -21.120846 -0.8431273
000350 70 37 38 c1 80 26 ec c0 57 1c 12 c2 42 c7 be c1
       -11.513535 -7.3796997 -36.527676 -23.847294
000360 a4 2b 11 be f6 77 94 40 1a a2 8f c1 b7 74 59 c1
       -0.14176804 4.6396437 -17.954151 -13.590995
000370 a0 81 d8 c0 4e 2e ad 3f 2e 43 91 c1 d1 df 0b c1
       -6.7658234 1.3529756 -18.157803 -8.742143
000380 7e dd 49 c1 ee 8f b6 c1 00 5f 9a be 5d a5 02 c2
       -12.616575 -22.820278 -0.30150604 -32.661488
000390 ff 79 f1 c1 a3 d2 92 c1 04 92 8f 41 2f 93 3a 41
       -30.184568 -18.35285 17.946297 11.6609335
0003a0 c1 1c 98 41 5c 7d 90 c1 88 a1 24 41 24 39 06 c1
       19.01404 -18.06121 10.289436 -8.38895
0003b0 01 17 2b c1 30 b3 79 41 84 e1 97 bf 7b d0 06 c1
       -10.693116 15.606247 -1.1865697 -8.425899
0003c0 05 8f 43 40 17 02 e8 c0 0b ea 4a c1 81 c9 a4 40
       3.0556042 -7.250255 -12.682139 5.1495976
0003d0 78 dd 0e c2 a3 49 8b c1 c8 4e 0b 42 33 49 0b c2
       -35.716278 -17.410955 34.826935 -34.821484
0003e0 c5 d6 09 42 1f d2 00 42 3d e4 a1 41 bd 89 58 c0
       34.459736 32.205196 20.236444 -3.3834069
0003f0 13 af 81 c1 1e 3c 25 c2 90 2d b5 40 d7 40 5d 41
       -16.210485 -41.30871 5.661812 13.82833

l2/b f4 [256]
000000 00 05 79 41 90 37 6a 41 ae 82 0c 41 ff 41 b9 41
       15.563721 14.638565 8.781904 23.157225
000010 cd 63 0f 41 17 8d b1 41 fe 14 86 3e 8d 9d 7e c0
       8.961865 22.193892 0.2618789 -3.9783661
000020 55 a7 77 41 00 3c d2 bf 82 67 c9 3f 5c 3a 29 41
       15.478353 -1.642456 1.5734713 10.576748
000030 fe 8f 84 3f 5b c6 ec bf 65 8b 8f 40 eb 2c 01 bf
       1.0356443 -1.8498033 4.485766 -0.50459164
000040 87 ae 21 bd 17 f5 6d 41 a5 f9 3a 41 6e d1 52 c1
       -0.039473083 14.872336 11.685948 -13.17613
000050 33 85 be 40 ee 95 ed 41 42 ac 90 41 34 9d 1b c0
       5.9537597 29.698208 18.08411 -2.43147
000060 cc ee 32 40 01 9d aa bf 2b a0 76 40 c9 46 0b 41
       2.795825 -1.3329164 3.8535259 8.704782
000070 0f cd 36 41 4e 19 1b c0 6d f0 b9 41 53 18 33 41
       11.425063 -2.4234195 23.242395 11.193439
000080 fb da ab 41 fc bd 7b 41 5f cf 79 41 ba 08 2e 3f
       21.481924 15.733883 15.613128 0.67982066
000090 41 8e 40 c1 da d3 49 41 5c 83 94 c0 9f 84 63 41
       -12.03473 12.614222 -4.641035 14.219878
0000a0 18 aa f6 40 e5 fa 6c 41 1b 7a 82 41 9d b5 65 c0
       7.7082634 14.811254 16.309622 -3.5892098
0000b0 58 2e 4e 41 b0 fa 9d 41 d5 55 76 c1 36 97 6d 41
       12.886314 19.747406 -15.395955 14.849417
0000c0 c6 af 0e c1 0a c9 d6 c0 b0 22 f4 41 a7 01 7b c1
       -8.917913 -6.712041 30.516937 -15.687903
0000d0 fa 87 7e 41 bf 7e 92 41 84 2d 6e 41 6d b1 39 c1
       15.908197 18.311888 14.886112 -11.605817
0000e0 aa c9 30 c0 9b d9 66 41 c0 7d 57 40 d0 ec d9 be
       -2.7623086 14.428126 3.3670502 -0.42563486
0000f0 09 00 30 41 d9 00 01 c1 3f b0 bd c0 48 64 2c c0
       11.000009 -8.062707 -5.9277644 -2.6936207
000100 c7 53 0f 40 29 6e 93 c0 63 42 4a 40 d2 97 ad 41
       2.2394884 -4.6071973 3.160302 21.699131
000110 b8 16 a3 c0 53 89 ff c0 2e fa e3 40 27 36 e8 40
       -5.0965233 -7.985513 7.1242895 7.2566104
000120 cf 43 21 41 e2 27 31 c1 59 09 42 c1 e3 78 8d 41
       10.079055 -11.072237 -12.127282 17.684027
000130 ca a9 e1 c0 ef fe 18 c1 e9 ab 5f 41 69 7d 3d 41
       -7.051976 -9.56224 13.97947 11.843118
000140 da bc b8 41 7d a9 96 41 56 a4 91 41 2b f2 73 41
       23.092213 18.832758 18.205242 15.246623
000150 ac be 78 41 75 70 e3 c0 ce 2a f4 3f a8 54 0a c1
       15.546551 -7.1074777 1.9075563 -8.645668
000160 c5 eb 70 c1 fd f1 28 c0 00 48 12 c0 cf d9 da 40
       -15.057561 -2.6397698 -2.2856445 6.839088
000170 7b 35 51 c1 39 e4 91 41 b5 9a 6e bf 0e 17 2c c1
       -13.075557 18.236437 -0.93204814 -10.755629
000180 8b d1 1a c1 99 82 c9 3f 4d 33 a7 40 da df 05 bf
       -9.676158 1.574298 5.2250123 -0.52294695
000190 50 d8 cc 41 db a2 d4 3f 53 b4 11 41 c4 a1 4b 41
       25.605621 1.66122 9.106524 12.726994
0001a0 d7 96 79 bf b1 b0 4a 41 a2 89 e6 c0 82 be a1 bf
       -0.9749579 12.668138 -7.204301 -1.2636263
0001b0 4d d1 d0 41 28 9a a1 41 75 ef 48 40 de c2 9c 41
       26.102198 20.200272 3.1396153 19.59515
0001c0 74 f4 9f 41 20 d0 89 41 2c 25 0f c1 d6 4a a9 41
       19.994362 17.226624 -8.946575 21.161541
0001d0 08 7c 8a 41 93 35 9f 41 18 f0 44 40 80 75 9d 41
       17.310562 19.90116 3.0771542 19.682373
0001e0 30 85 5a 41 cf db b3 41 2f 81 e4 40 89 9b 57 41
       13.6575165 22.482328 7.1407695 13.475472
0001f0 3e f9 6a 41 31 86 83 41 4f 92 96 41 39 50 52 41
       14.68585 16.440523 18.82144 13.144586
000200 31 44 70 40 98 bc 3c 41 92 05 41 c1 d3 8c 6d 41
       3.754162 11.796043 -12.06386 14.846881
000210 35 56 8a 41 09 ca b2 41 67 18 f9 40 d7 c3 2b bf
       17.292093 22.34865 7.784229 -0.670957
000220 a3 cb d1 41 3a 04 96 41 b2 b8 54 c0 6d 9a 8c 41
       26.224432 18.752064 -3.323773 17.575403
000230 e4 10 be 40 61 df 32 c1 5a 45 87 41 e0 7e 8c 41
       5.939562 -11.179536 16.908863 17.56195
000240 35 68 8a 41 39 0f 41 c1 ad 23 70 c1 4c f5 26 41
       17.300882 -12.066216 -15.00871 10.434887
000250 11 a6 79 41 5c 38 1a c0 8d fc a8 41 3e 7e 14 c1
       15.603044 -2.40969 21.123316 -9.280821
000260 53 b9 44 41 e8 83 71 c0 01 0b 11 41 1e 68 b7 c0
       12.295245 -3.773676 9.0651865 -5.7314596
000270 f3 08 4c 41 e8 a0 66 41 b9 99 ad 41 a0 cb 51 c1
       12.752185 14.414284 21.70006 -13.112213
000280 89 85 89 41 61 f0 22 41 25 ca 57 c1 97 41 26 40
       17.190203 10.183686 -13.486852 2.5977533
000290 f9 7f 74 41 9c be 2e c1 61 52 64 c1 9b d9 7e 41
       15.281243 -10.9215355 -14.270112 15.928126
0002a0 97 57 b0 41 eb 20 83 be a1 8d 99 41 56 f6 64 41
       22.042768 -0.25611052 19.194155 14.310141
0002b0 61 14 29 41 96 61 2c 40 cf be ae c1 e4 81 ad 3f
       10.567475 2.6934562 -21.843168 1.3555264
0002c0 12 6c a3 40 87 90 5d 41 cc 13 59 bf 3f 4d 50 41
       5.106942 13.847785 -0.8479583 13.018859
0002d0 05 b7 2e 41 e6 e2 86 41 5e fb 6e bf 99 8b e9 3f
       10.9196825 16.86079 -0.93352306 1.8245727
0002e0 c8 bd 72 41 eb d3 65 41 72 a7 88 3f cc cd 5c 41
       15.171333 14.364238 1.06761 13.800243
0002f0 a3 5b 3e 41 77 23 70 41 ed 3e 49 41 3f 48 56 40
       11.897372 15.008658 12.577863 3.3481596
000300 7e 49 1b bf 35 8f 4c 41 94 ca 8e 41 d4 0d 7b 41
       -0.60659015 12.784963 17.848915 15.690876
000310 91 9e 81 3f 4d 4a 3f 41 0e 59 bd c0 e8 72 32 41
       1.0126516 11.95564 -5.917121 11.153053
000320 a7 d3 81 41 e6 83 08 40 6c 34 97 41 6c 41 85 41
       16.228346 2.1330504 18.900597 16.656944
000330 28 73 a7 41 47 cd d3 41 51 74 41 c1 e1 f4 82 40
       20.931229 26.475233 -12.090898 4.0923924
000340 5c c3 96 bf 15 09 cd 41 fd 44 97 41 ef a1 8c 40
       -1.1778369 25.629435 18.908686 4.3947673
000350 88 8c 82 41 21 8b 2c 41 d2 5f 90 41 f1 28 71 41
       16.318619 10.783967 18.046787 15.072495
000360 1d fa 00 c0 78 d1 a3 41 e8 5f 85 41 41 12 1d 41
       -2.0152657 20.47728 16.67183 9.8169565
000370 0c 1f 96 41 9c a0 83 41 7f a4 4f 41 5e 0d a3 41
       18.76516 16.453423 12.97766 20.381527
000380 99 dc 90 41 fc 87 5d 41 b9 e9 d6 bf 6c 82 27 41
       18.107714 13.845699 -1.6790076 10.469341
000390 5a 4d 7c c1 5d fa af 41 3e 61 84 41 ce 69 b0 41
       -15.768885 21.997248 16.547482 22.051662
0003a0 25 57 da c0 a6 f6 5d bf f6 ec 3e c0 8e 3f 09 3f
       -6.8231378 -0.8670448 -2.983213 0.536126
0003b0 8c 70 a9 41 4f d4 48 bf 2f b4 2f 41 01 fe 3e c1
       21.179955 -0.7844896 10.98149 -11.937013
0003c0 3e 97 0c c1 fd 4c 06 c1 3d 6e 69 41 55 a8 df 41
       -8.786924 -8.393796 14.589414 27.957193
0003d0 ec 39 19 3e cc 08 67 c0 6b 0e 0d 41 bb f7 07 bf
       0.14963502 -3.609912 8.81602 -0.5311238
0003e0 78 1d 92 41 b7 72 84 41 6a ee c5 41 94 a3 94 41
       18.264389 16.556013 24.741413 18.579872
0003f0 c6 e9 69 41 9a eb 6f 41 87 7d a3 41 ef ce 9b 40
       14.619574 14.99502 20.436293 4.8690104

l1/W f4 [256, 64]
000000 cd 55 71 42 c2 4b aa c0 52 a3 d3 c0 14 3b 3a 41
       60.33379 -5.321748 -6.6136866 11.639423
000010 4f d4 47 41 02 2a 79 41 7f c5 4a 41 f5 18 4c 3e
       12.489333 15.572756 12.673217 0.19931395
000020 7e 9d 4a c1 37 01 61 41 93 3b 0a c2 53 e4 a5 41
       -12.66345 14.062797 -34.558178 20.736486
000030 5e 3a c3 c1 08 1e 3b 41 3f c7 f1 40 17 92 f0 c1
       -24.4035 11.694832 7.555572 -30.071333
000040 4b 01 0a c1 85 1b 2a 41 78 e7 e2 3f a3 b8 9d c0
       -8.625316 10.631719 1.7726889 -4.9287887
000050 1c a3 47 41 3c a5 ec bf 21 4a 17 42 9c d4 6e 3f
       12.477322 -1.8487926 37.82239 0.93293166
000060 fb 9f 5a 41 8e 07 6d bf af 64 a6 41 0d e4 96 c1
       13.664058 -0.9258965 20.799162 -18.861353
000070 29 31 38 c1 6c 9c c2 41 67 d0 2f 41 29 05 36 40
       -11.512002 24.326378 10.9883795 2.844065
000080 f7 e1 c6 3f 0c d2 26 41 ab 77 f6 40 39 e5 89 c1
       1.5537709 10.426281 7.702108 -17.236925
000090 c8 b2 91 3f 55 be 24 c1 e3 40 a1 3f db 7b 89 41
       1.1382685 -10.296468 1.2597927 17.185476
0000a0 43 c2 82 41 4b cc 07 41 2e fe 3a c1 e9 66 df 41
       16.344854 8.487376 -11.687056 27.92525
0000b0 4a 81 54 40 fc 9f a0 3f ad a6 d7 40 ff c0 92 c1
       3.3203912 1.2548823 6.739096 -18.344236
0000c0 42 51 24 41 8f 3a 9c 41 ae 45 96 c0 8e 3b 88 c0
       10.269838 19.528593 -4.696006 -4.25727
0000d0 0e d3 31 41 5e 74 fb 40 02 dd e5 c0 ba cb ce 41
       11.114027 7.857955 -7.1832285 25.849476
0000e0 c7 a7 be 41 a1 d3 52 c1 48 d7 f3 c0 4d f9 6c c1
       23.831923 -13.176667 -7.6200294 -14.810864
0000f0 a9 27 90 40 9e e8 38 c1 44 81 66 c1 5f ab 09 c2
       4.5048413 -11.556791 -14.406559 -34.417355
000100 a6 3e b0 41 12 a1 1d c1 72 86 0a 42 b1 f1 43 c1
       22.03059 -9.851824 34.631294 -12.246507
000110 93 5d a8 40 cc 0b 34 c2 dc 2d 9f 41 35 ae f7 40
       5.2614226 -45.01152 19.897392 7.7400155
000120 d5 6b 8d c1 21 9a a4 c0 68 f9 99 41 72 51 9e c1
       -17.677652 -5.1438146 19.24678 -19.789768
000130 3b ec 37 c1 b0 42 21 c2 bc ef 20 41 46 f6 66 c1
       -11.495173 -40.315125 10.058529 -14.435125
000140 06 cf c6 41 02 e3 e8 c1 b1 bc 40 40 96 ad ab c0
       24.851086 -29.110844 3.0115168 -5.3649397
000150 27 d1 34 41 5f 7b 0f 3f 7d 5e 8b 41 74 78 20 c2
       11.301063 0.56047624 17.421137 -40.11763
000160 af 1e 25 41 74 0b 88 c0 d8 17 92 bf 78 f6 e4 c0
       10.319991 -4.251398 -1.1413527 -7.1550865
000170 fa 96 1a c0 a1 86 77 c1 a5 1a 56 c1 fc 1e cd c1
       -2.4154649 -15.470368 -13.381505 -25.64013
000180 87 10 df c0 02 0e 7c c1 b1 8f 6a 41 7f 17 a7 c0
       -6.9707675 -15.75342 14.660081 -5.221618
000190 16 58 9b 3f 25 68 1d c1 0f 6f f2 41 bc 10 9f c0
       1.2136257 -9.837926 30.304228 -4.970793
0001a0 dd 06 96 3f 2d 93 a3 c1 15 ec 6e 41 2d 18 e7 40
       1.1720845 -20.446863 14.932637 7.221701
0001b0 69 e4 c8 bf 05 74 92 41 37 8d 11 42 96 91 87 c1
       -1.5694705 18.30665 36.387905 -16.946087
0001c0 a3 1f 0d c1 b4 27 82 c1 ce 28 b0 c0 30 a5 38 c2
       -8.820224 -16.269386 -5.504981 -46.161316
0001d0 c8 f1 17 41 d5 4f 40 41 25 b7 92 40 51 bb 07 c1
       9.496529 12.01949 4.5848565 -8.483232
0001e0 a5 47 4b c1 92 da cc c1 1a e3 10 c2 3f cd c6 c0
       -12.704991 -25.606724 -36.22178 -6.2125545
0001f0 dd 88 2a 42 d6 75 61 41 37 3d 85 3f ec 97 c6 3f
       42.633656 14.091269 1.0409306 1.5515113
000200 93 23 78 41 7c 78 c4 41 4e 38 53 be 37 f9 5e 41
       15.508685 24.55883 -0.20626947 13.935843
000210 7a 41 f0 c0 d7 b5 b2 41 f8 0c 25 c0 ec 89 c6 41
       -7.5079927 22.338789 -2.5789165 24.817345
000220 b3 e7 a6 41 2d 9b 8a bf f1 1f c3 c1 96 84 0b 41
       20.863134 -1.0828606 -24.390596 8.71987
000230 3e 18 42 41 be 2f e4 41 28 f1 a5 41 1a 4b 84 40
       12.1309185 28.523312 20.742752 4.1341677
000240 5f 2e 86 c1 2e ac b1 41 b4 76 95 c1 2b 15 aa 40
       -16.772642 22.209072 -18.68296 5.315084
000250 98 61 a1 c0 44 78 22 41 40 40 d3 41 67 96 9a c0
       -5.0431633 10.154362 26.406372 -4.8308597
000260 de 24 6f 42 4e 55 ca c1 37 2b 2a 41 71 05 06 41
       59.786003 -25.291653 10.6355505 8.376328
000270 e5 3a da bf b9 8b 50 41 e2 fe a1 bf c1 07 d9 c0
       -1.7049223 13.034112 -1.2655909 -6.7821965
000280 99 5d ad c1 07 44 83 41 4f 90 24 c2 b3 3f 0c bf
       -21.670702 16.408216 -41.140926 -0.547847
000290 52 ac 65 bf 41 50 54 41 04 1f 58 c1 cb 7c 8b c1
       -0.89716065 13.269593 -13.507572 -17.435934
0002a0 6b 7d c9 c1 ae 37 b1 c1 a0 2c 60 c0 14 70 10 3f
       -25.18624 -22.152187 -3.5027237 0.5642102
0002b0 83 1b bd 40 bf eb f5 40 b3 63 5c 3f 42 83 95 c1
       5.9096084 7.6850276 0.8608963 -18.68909
0002c0 41 1e 02 c2 a0 3d 0c c2 ab 11 96 c1 d9 17 fe 40
       -32.529545 -35.06018 -18.758627 7.940411
0002d0 d0 c7 ca 41 f7 74 15 c1 25 67 88 41 0c 90 bc c1
       25.347565 -9.341056 17.050364 -23.570335
0002e0 5e 13 e3 41 a4 66 5a 41 64 bd 72 c1 7a 57 12 42
       28.384457 13.650059 -15.171238 36.585426
0002f0 cc fd db bf 6b 88 b9 c0 18 4f 98 40 98 26 aa 41
       -1.7186828 -5.7979026 4.759655 21.268845
000300 2e 5a 16 c2 43 7d e1 41 cf 23 2a c1 c7 7a 31 3f
       -37.588066 28.186163 -10.633742 0.6932797
000310 32 0d d0 40 95 ec be 41 78 6a ec 41 76 62 0e c2
       6.5016108 23.865519 29.551987 -35.596153
000320 0a d9 ea 40 ec 69 48 c2 13 cd 84 c1 a3 94 d8 3f
       7.338994 -50.10344 -16.600134 1.692036
000330 79 9e ae c1 e6 96 ce 41 b6 e6 2b 41 91 a6 0f c1
       -21.82738 25.82368 10.743826 -8.978166
000340 77 5d 3e c0 1f 31 9a c1 d3 2d 2f 40 92 bc fb 3f
       -2.9744546 -19.273985 2.737172 1.9666922
000350 7f 51 08 42 a0 84 61 bf 45 73 d1 40 a6 d0 d5 c0
       34.079586 -0.88092995 6.545321 -6.68172
000360 11 55 ce 40 ce d2 50 c0 7d a3 67 41 5f 6f 20 c0
       6.447884 -3.2628665 14.477414 -2.5067976
000370 50 43 08 c0 d3 e3 39 41 ef 7b c1 bf a2 cd 68 c1
       -2.1291084 11.618121 -1.5115947 -14.550203
000380 7c 13 ae c1 da 36 dc 41 bb bf 93 41 c1 5b b9 40
       -21.759514 27.526783 18.468618 5.7924504
000390 02 92 15 40 b1 04 e6 c0 7e 8f 9f c1 00 3b 02 bf
       2.3370366 -7.1880727 -19.945065 -0.50871277
0003a0 a2 3c d4 3f ac fa fe c1 b0 a9 a6 c1 73 85 68 c1
       1.6581004 -31.872398 -20.832855 -14.53258
0003b0 11 08 ec 40 98 bc b7 41 48 6b ca 41 b5 d5 0e c2
       7.3759847 22.967087 25.302383 -35.7087
0003c0 43 d2 c3 c1 6e d1 ae c1 71 60 de c0 f7 70 3a c2
       -24.477667 -21.85226 -6.9492726 -46.610317
0003d0 66 92 1d c1 48 48 08 42 ac 9a 08 42 dc 40 ba c1
       -9.848242 34.070587 34.151047 -23.28167
0003e0 de d8 45 c2 d5 2a 47 41 86 2b 7a c2 a9 c3 27 41
       -49.461784 12.447957 -62.542503 10.485269
0003f0 b9 d9 28 c2 79 d6 97 3f a8 4a 14 42 58 ff 48 c0
       -42.21262 1.1862327 37.072906 -3.140585

l1/b f4 [256]
000000 b0 c3 83 c1 eb 91 82 3e 8d 89 08 41 48 4d 93 40
       -16.47055 0.25501952 8.533582 4.6031837
000010 f6 bf d0 bf ed 61 09 41 2b e6 d4 c0 6a f6 c2 3f
       -1.6308582 8.586408 -6.6530967 1.523145
000020 f4 13 08 c0 ed 80 a7 40 26 2e 12 c2 7c 70 73 41
       -2.1262178 5.234488 -36.545067 15.214962
000030 b8 55 13 c0 07 58 0d c1 09 67 b3 40 54 78 a2 3f
       -2.3021069 -8.833991 5.6063275 1.2692971
000040 8a da ea 40 f5 ba fe 40 df 2f 43 41 cc f3 a2 40
       7.339177 7.960322 12.199187 5.0922604
000050 42 a5 77 41 1a 08 39 40 6a e0 84 40 d4 96 3e 41
       15.477846 2.8911195 4.1523943 11.911823
000060 f6 a5 57 c0 2d 28 2f c2 90 ce 8f 40 04 33 73 40
       -3.3695045 -43.789234 4.493965 3.7999887
000070 1c 78 20 41 77 63 dd 3f 08 7e ee 40 d7 24 76 40
       10.029324 1.7295979 7.4528847 3.8459985
000080 c1 a3 00 41 fb 08 19 41 e7 72 0a c2 5a 49 18 41
       8.039979 9.5646925 -34.61221 9.517908
000090 c6 1e fc 41 36 12 31 41 63 4b 02 41 69 b9 82 41
       31.515026 11.066946 8.143405 16.340532
0000a0 6e b4 41 41 7e a3 7d c1 88 b7 3d c1 88 b8 8c c1
       12.10655 -15.852415 -11.857307 -17.590103
0000b0 49 6a ef c0 34 7c 4c 41 4a 56 05 c1 43 95 fa bf
       -7.4817243 12.780323 -8.333567 -1.9576801
0000c0 d9 f6 47 c1 29 af 29 41 3c 11 8a c1 ea e3 8b 41
       -12.497766 10.605264 -17.258415 17.486286
0000d0 90 d1 3c 41 19 2f c6 c0 16 4b f8 40 9a b5 60 40
       11.801163 -6.193249 7.759166 3.511084
0000e0 8f cd 93 c1 1a d0 00 c1 17 da 87 41 05 ee 5d 40
       -18.47537 -8.050806 16.98149 3.4676526
0000f0 b7 c9 76 41 b2 cf 25 c0 b5 4f 76 41 d6 f9 95 c1
       15.424247 -2.5908017 15.39446 -18.74699
000100 7b 3b a6 3f 17 7c 67 41 1d be 90 c1 0c 9e 81 be
       1.2986902 14.467795 -18.092829 -0.25315893
000110 97 12 b9 bf 13 7a ab c0 66 a3 7e 40 7c e5 aa c0
       -1.4458798 -5.3586516 3.978723 -5.340513
000120 58 b0 45 41 54 fd b0 40 d5 8a a8 bf b4 72 a0 c1
       12.355553 5.530924 -1.3167368 -20.056007
000130 e9 62 7d 41 33 c3 cb c0 9e 2e 83 bf 51 cc f8 41
       15.836648 -6.367578 -1.0248601 31.099764
000140 c5 b3 28 3f 74 a3 1c c2 00 ee db c0 0e ab ca 40
       0.65899307 -39.159622 -6.8728027 6.3333807
000150 21 40 21 41 e9 54 04 40 c1 7d 06 3f 59 1d a5 bf
       10.078156 2.0676825 0.52535635 -1.2899581
000160 65 62 50 41 cf 23 6a 41 9d a1 38 3f 70 36 87 3f
       13.024022 14.633742 0.721216 1.0563488
000170 97 c5 93 41 1f b1 92 c0 79 47 d7 3e 95 63 b7 c0
       18.47148 -4.584121 0.42046717 -5.730906
000180 83 f7 1e c2 26 c9 02 c2 ef 03 00 41 96 21 21 c1
       -39.74171 -32.696434 8.00096 -10.0707
000190 71 86 ab 40 2e 1e 53 41 45 45 a6 40 a7 14 ff bf
       5.3601613 13.194868 5.1959558 -1.9928178
0001a0 5a 42 24 41 2a ef c7 3f 7d 05 c2 be 3b 51 20 c0
       10.266199 1.5619862 -0.37894812 -2.504958
0001b0 81 9e 77 c1 97 7c 9e 41 e2 71 8b c0 5e e4 67 3e
       -15.476197 19.810835 -4.3576517 0.22645709
0001c0 2c 28 b2 41 80 61 5f 41 63 04 5a c0 61 88 b0 3e
       22.269615 13.961304 -3.4065177 0.3447905
0001d0 c0 89 dd 40 ba c9 1a 40 4e 31 47 40 f6 21 9d 3f
       6.923065 2.4185624 3.1123843 1.2275989
0001e0 f0 95 9c 41 0f 0b a1 c1 01 59 9b c1 03 0a 72 40
       19.573212 -20.1304 -19.418459 3.781861
0001f0 44 c3 02 c0 c9 96 13 bf 7a d5 2c c0 ae 15 c2 c0
       -2.043168 -0.57651955 -2.7005296 -6.0651464
000200 9a 4f fb c1 a4 4e f8 c0 ba 8a 8e 41 17 8f 14 c1
       -31.413868 -7.7595997 17.817738 -9.284934
000210 e6 a7 9e 41 9c 7a 0d 41 d3 85 c4 c0 d9 a8 6e 40
       19.831982 8.842434 -6.141336 3.7290556
000220 34 d2 c7 c1 e2 1d 73 c1 12 fa 03 c1 87 aa 1a c1
       -24.977638 -15.194796 -8.248552 -9.666633
000230 18 a4 f4 c1 cf ab 9c 3e 3b 0f 93 41 0b 8d 88 c1
       -30.580124 0.3059983 18.382437 -17.068869
000240 5e c0 74 c0 ed 1e 5a 41 fe 3c 54 41 9f 8c b2 be
       -3.8242412 13.63255 13.264891 -0.3487291
000250 44 1f b4 40 93 ac ce c1 c2 15 87 c1 18 1e d5 40
       5.6288166 -25.834265 -16.885624 6.6599236
000260 d0 78 e4 41 c2 48 96 c1 5e aa 35 c1 7b bd 3d 41
       28.55899 -18.785526 -11.354094 11.85876
000270 4b d5 74 c1 72 e5 a2 40 4f 42 31 c2 06 65 7d 41
       -15.3020735 5.0905085 -44.314754 15.837164
000280 96 b7 81 3f 0a 8a 26 c0 50 2f 1d c0 e5 17 25 41
       1.0134151 -2.6021752 -2.4560127 10.318334
000290 ee ec f1 40 51 cd 02 c2 38 25 5c 41 b0 58 4c c1
       7.560172 -32.700504 13.759087 -12.771652
0002a0 b3 a0 c1 bf 32 3d 22 c2 d8 36 47 c1 bb a4 42 c1
       -1.5127167 -40.55976 -12.45089 -12.165217
0002b0 d0 95 fe 3f 0b 00 10 41 c8 65 a5 41 88 00 40 c1
       1.9889469 9.0000105 20.674698 -12.00013
0002c0 3a 51 84 40 92 eb 1f 40 42 73 ed c0 0b 5b f3 3f
       4.1349154 2.498753 -7.4203196 1.9012159
0002d0 64 37 d0 40 03 5e eb bf a6 a2 12 41 b0 1e 58 c0
       6.5067616 -1.8388065 9.164709 -3.376873
0002e0 ac c2 b7 40 8d 8e b4 40 9f 6f 8c c1 43 44 68 41
       5.7425137 5.642401 -17.554502 14.516665
0002f0 74 0d a2 40 56 1e 70 3f 4d 9b 52 c0 ba 2d de 40
       5.064142 0.9379629 -3.2907288 6.943082
000300 14 30 ea 40 f4 fb 1f 3f 5c f9 5c c1 ec e2 43 41
       7.318369 0.62493825 -13.810879 12.242901
000310 5e 1f 8a 41 70 50 4a c1 ec 28 ef 40 74 01 07 41
       17.265316 -12.644638 7.4737453 8.437855
000320 c7 9a 2b c1 0f b1 42 40 ed 37 3d c0 67 77 87 40
       -10.725287 3.0420568 -2.9565384 4.2333255
000330 7c 08 d4 40 c9 e6 1f c1 d7 1b c8 c0 04 67 d7 c1
       6.6260357 -9.993844 -6.2533984 -26.9253
000340 50 c9 b7 40 4b e3 b5 be 2e 4a 2f c2 27 8c 3b 3e
       5.7433243 -0.35524973 -43.82244 0.18315183
000350 b4 41 82 c0 dc 92 48 41 55 76 d3 c0 3a 54 26 40
       -4.0705204 12.535854 -6.608195 2.5988908
000360 46 69 cf 3f f7 86 c6 c1 ca 0d e2 c0 17 4b 68 c1
       1.6204002 -24.8159 -7.064183 -14.5183325
000370 6f d9 b3 c1 da 46 8f 41 de 06 ce 3f 8f ed 53 c2
       -22.481169 17.909595 1.6095846 -52.98199
000380 76 ce 8d 41 b1 32 22 40 76 78 4f 40 64 a1 b7 3f
       17.725811 2.534344 3.2417274 1.4346128
000390 a9 90 9b 3f 4b 95 ac 41 c6 a2 28 41 ab ab 0b c1
       1.2153522 21.572897 10.53974 -8.729411
0003a0 0c c6 9b 40 e3 df b8 c0 4a ae 79 41 66 57 09 c1
       4.8679256 -5.77733 15.605051 -8.5838375
0003b0 2e 02 4e bf 6e 47 a8 bf 7a 21 14 c2 96 87 0e 41
       -0.80472076 -1.3146799 -37.032692 8.908102
0003c0 b6 bf fc 3e f2 62 b4 c1 3d 1e a6 c1 49 08 0c c1
       0.49365014 -22.548313 -20.764765 -8.752023
0003d0 e6 ba 47 c2 3d 90 63 c2 dc 3d fa c0 82 71 bb c1
       -49.932518 -56.890858 -7.820051 -23.430424
0003e0 c7 28 3c 41 3b 11 28 41 e9 0e 1a c1 7c 31 b6 3f
       11.759955 10.504207 -9.62864 1.4233851
0003f0 1e 69 9a c1 e4 4a 55 41 55 ef f2 bf 24 1f ac c1
       -19.301327 13.330784 -1.8979288 -21.515205

l4/W f4 [64, 256]
000000 8f 45 58 42 2b 3a 51 42 bf d4 3c 42 8a 42 ad 42
       54.06793 52.306805 47.20776 86.62996
000010 5e 63 1e 42 dd f8 61 42 c1 88 64 42 3e c3 49 42
       39.59704 56.49303 57.13355 50.440666
000020 c7 26 38 42 e4 d3 6d 42 26 84 5b 42 b3 5b 5f 42
       46.03787 59.456924 54.87905 55.83955
000030 ce 43 63 42 f2 04 79 42 15 37 5a 42 44 2e 22 42
       56.816216 62.25483 54.55379 40.54518
000040 b5 1e 65 42 b0 21 43 42 84 79 54 42 e1 46 6c 42
       57.279987 48.782898 53.118668 59.069218
000050 4e 05 51 42 60 0d 48 42 da c6 61 42 11 94 14 42
       52.25518 50.01306 56.44419 37.144596
000060 c8 ef 52 42 b6 34 40 42 29 99 68 42 3f 02 83 42
       52.73416 48.051476 58.14957 65.50439
000070 9d 19 7f 42 36 d6 59 42 c6 59 a6 42 38 28 65 42
       63.775013 54.45919 83.17534 57.289276
000080 16 7e 43 42 fe 8e 56 42 6f 24 5e 42 06 95 c7 40
       48.87313 53.63964 55.53558 6.2369413
000090 dc 3f 65 42 7e 34 39 42 e4 a7 72 42 c2 46 48 42
       57.312363 46.30126 60.663956 50.0691
0000a0 81 50 22 42 bc 51 36 42 93 ba 82 42 4d c9 5b 42
       40.578617 45.57982 65.3644 54.946583
0000b0 d7 85 7f 42 e9 c3 51 42 e4 2a 0d 42 07 51 53 42
       63.880703 52.44132 35.291885 52.82913
0000c0 ba fa 61 42 43 aa b0 42 f6 0c 3e 42 0e 80 84 42
       56.49485 88.33254 47.512657 66.25011
0000d0 88 51 55 42 a6 89 55 42 26 ad 7c 42 2d b4 b7 42
       53.32962 53.384422 63.16909 91.851906
0000e0 e3 68 4c 42 f6 77 97 42 b5 16 78 42 e2 68 7a 42
       51.10243 75.7343 62.022175 62.602425
0000f0 64 bd 33 42 f2 30 9f 42 43 ef 67 42 d5 2e 44 42
       44.93495 79.5956 57.983654 49.045734
000100 46 6a 4e 42 fd b9 a7 42 f1 a9 99 42 1b 9e 37 42
       51.603783 83.86326 76.83192 45.9044
000110 49 62 1a 42 f6 37 38 42 e5 0b 72 42 94 d9 44 42
       38.59598 46.05465 60.511616 49.21248
000120 68 0a 53 42 b5 3e 58 42 af 75 2d 42 b9 48 41 42
       52.760162 54.061237 43.364925 48.32102
000130 10 70 59 42 ec d1 35 42 e1 9a 54 42 6a 1e 5e 42
       54.359436 45.455 53.15125 55.5297
000140 f9 6b 46 42 5c dc 63 42 0a 51 76 42 e5 8d 84 42
       49.605442 56.965195 61.57914 66.27714
000150 2a a4 3e 42 2e 27 2c 42 e9 33 78 42 a0 f6 5d 42
       47.660316 43.03826 62.050694 55.490845
000160 57 7e a3 42 b6 68 ab 42 e9 d2 64 42 f2 e3 26 42
       81.74676 85.70451 57.205967 41.722603
000170 23 18 75 42 f3 69 5d 42 7d 1f 65 42 12 a9 28 42
       61.27357 55.353466 57.28075 42.165108
000180 3f 14 5d 42 b5 42 6c 42 18 dd 42 42 77 dc 11 42
       55.26977 59.065144 48.71591 36.465298
000190 47 a0 63 42 9f c7 3e 42 0c 86 58 42 5d 19 84 42
       56.90652 47.694942 54.130905 66.04954
0001a0 e8 af 4a 42 3d 9a 3d 42 38 07 60 42 b3 83 35 42
       50.671783 47.400623 56.00705 45.378613
0001b0 cb 5a 81 42 89 e6 63 42 94 d0 62 42 9f af 67 42
       64.67733 56.975132 56.70369 57.921505
0001c0 cf cf 23 42 be 9e 33 42 39 ee 0a 42 e3 f4 1f 42
       40.952938 44.90502 34.73264 39.989147
0001d0 d9 e2 49 42 25 93 41 42 ce 7b 73 42 2d 5e 5c 42
       50.47153 48.393696 60.870903 55.09197
0001e0 01 b6 3c 42 81 6f 45 42 f1 77 5b 42 35 e7 3e 42
       47.17774 49.35889 54.86713 47.72579
0001f0 49 15 61 42 96 2d 66 42 9b c8 63 42 09 95 5f 42
       56.270786 57.544518 56.945904 55.895542
000200 55 38 64 42 a3 75 27 42 cd d2 49 42 8b 42 84 42
       57.05501 41.86488 50.45586 66.12997
000210 68 9e 46 42 b7 3a ec 41 0f 87 d0 41 ac c5 09 42
       49.654694 29.52867 26.065947 34.44304
000220 cd 8f 4b 41 58 35 7d 42 b3 57 3f 42 11 88 55 42
       12.722608 63.302094 47.835644 53.382877
000230 7e 78 54 42 ce 01 6d 42 7f c8 6a 42 85 b0 49 42
       53.11767 59.251762 58.695797 50.422382
000240 97 d4 22 42 7f 11 28 42 a3 fa 59 42 46 9e 47 42
       40.707607 42.017086 54.494762 49.904564
000250 24 1f 55 42 f9 0b 66 42 35 92 1e 42 46 a5 70 42
       53.28041 57.511692 39.64278 60.1614
000260 13 1b 73 42 bd 2f 76 42 cf c0 a1 41 77 eb 56 42
       60.77644 61.54662 20.219145 53.729946
000270 1c c0 4e 42 c2 51 67 42 02 3f 40 42 ee 2c 54 42
       51.687607 57.82984 48.06153 53.043877
000280 38 04 10 42 32 1a 2c 42 ba 56 42 42 a8 19 7c 42
       36.00412 43.02558 48.584694 63.025055
000290 80 a1 20 42 f8 e1 5c 42 81 98 5f 42 62 4b 30 42
       40.157715 55.220673 55.89893 44.073616
0002a0 97 11 85 42 77 8b 95 42 dc 6e 69 42 9d 20 5e 42
       66.534355 74.77239 58.35826 55.53185
0002b0 b5 17 86 42 8b 7c 72 42 e2 0b 42 42 9c a7 6d 42
       67.0463 60.621624 48.511604 59.41368
0002c0 e7 21 49 42 97 61 4e 42 94 df 40 42 ce 79 28 42
       50.283108 51.595303 48.218338 42.11895
0002d0 7b c0 86 42 c7 cd 73 42 b1 c0 00 42 f5 1f 5f 42
       67.37594 60.950954 32.188175 55.781208
0002e0 f0 c9 5a 42 37 5c 40 42 68 14 61 42 9f cf 4c 42
       54.697205 48.090054 56.269928 51.202755
0002f0 1b 80 59 42 48 52 60 42 bc 06 59 42 87 7a 54 42
       54.375103 56.080353 54.256577 53.119656
000300 80 f8 21 42 8e aa 58 42 3a 76 22 42 52 ea 79 42
       40.492676 54.166557 40.615456 62.47883
000310 a9 d2 42 42 dc ef 4d 42 e2 37 5e 42 13 94 5a 42
       48.705723 51.484238 55.554573 54.644604
000320 ae 74 3e 42 26 52 56 42 76 53 5f 42 55 e4 23 42
       47.613945 53.580223 55.831505 40.97298
000330 dc 4c 78 42 29 fa 8f 42 20 48 56 42 51 4b 18 42
       62.075058 71.988594 53.570435 38.07355
000340 b6 be 70 42 13 3e 6a 42 c6 d6 1d 42 e3 f6 14 42
       60.18624 58.56062 39.45974 37.2411
000350 3c 06 5a 42 64 97 4a 42 fc c3 42 42 be ed 3e 42
       54.50609 50.647842 48.69139 47.73217
000360 cc b2 60 42 93 a7 59 42 bd 7d 59 42 b5 bf 67 42
       56.174606 54.413647 54.37279 57.937214
000370 19 72 d9 41 0a af 59 42 20 d1 6a 42 07 4f 58 42
       27.180712 54.420937 58.704224 54.077175
000380 bd 79 60 42 ee ef 3b 42 ee a4 59 42 17 6c 65 42
       56.118885 46.984306 54.411064 57.355556
000390 af 5c 5b 42 f2 28 1e 42 a6 b5 4a 42 9e 87 34 42
       54.84051 39.539986 50.67739 45.13244
0003a0 96 62 6c 42 ce 37 44 42 5a ad 53 42 93 0e 38 42
       59.096275 49.054497 52.91929 46.014233
0003b0 db 82 31 42 a8 de 45 42 f3 dd 47 42 ea 70 b9 42
       44.37779 49.467438 49.966747 92.720535
0003c0 1b 1d 81 42 20 41 59 42 8e c5 65 42 18 54 5b 42
       64.55685 54.3136 57.442924 54.832123
0003d0 99 c4 6f 42 32 dc 3a 42 a7 c3 66 42 37 1d 34 42
       59.94199 46.715034 57.691067 45.02853
0003e0 6f 59 19 42 b2 1d 6e 42 84 9a 42 42 53 10 96 42
       38.337337 59.529 48.650894 75.03188
0003f0 5b 07 28 42 49 cc 44 42 77 2d 74 42 a2 46 75 42
       42.007183 49.199497 61.0444 61.318977

l4/b f4 [64]
000000 a0 8c c0 c2 fd 8c c0 c2 77 92 c0 c2 82 82 c0 c2
       -96.27466 -96.27537 -96.286064 -96.2549
000010 50 92 c0 c2 ed 98 c0 c2 95 8a c0 c2 12 87 c0 c2
       -96.28577 -96.29868 -96.27067 -96.26381
000020 94 8b c0 c2 1e 84 c0 c2 ac 85 c0 c2 34 94 c0 c2
       -96.27261 -96.25804 -96.26108 -96.28946
000030 25 90 c0 c2 cb 8a c0 c2 48 88 c0 c2 f0 87 c0 c2
       -96.28153 -96.27108 -96.266174 -96.2655
000040 f2 91 c0 c2 27 98 c0 c2 01 8d c0 c2 4d 8e c0 c2
       -96.28505 -96.29717 -96.2754 -96.27793
000050 35 8b c0 c2 98 a0 c0 c2 56 91 c0 c2 27 8d c0 c2
       -96.27189 -96.31366 -96.28386 -96.27569
000060 b2 88 c0 c2 05 8d c0 c2 14 96 c0 c2 0d 88 c0 c2
       -96.26698 -96.27543 -96.29312 -96.265724
000070 ae 95 c0 c2 92 90 c0 c2 c1 8d c0 c2 2b 91 c0 c2
       -96.29234 -96.282364 -96.27686 -96.28353
000080 1a 8e c0 c2 84 8e c0 c2 08 8c c0 c2 9d 92 c0 c2
       -96.27754 -96.27835 -96.2735 -96.286354
000090 23 92 c0 c2 57 8a c0 c2 8d 8d c0 c2 35 91 c0 c2
       -96.28542 -96.270195 -96.27647 -96.28361
0000a0 66 9a c0 c2 8f 9a c0 c2 49 8e c0 c2 91 91 c0 c2
       -96.30156 -96.30187 -96.2779 -96.28431
0000b0 7b 91 c0 c2 1e 8d c0 c2 73 8c c0 c2 3d 8c c0 c2
       -96.28414 -96.27562 -96.274315 -96.2739
0000c0 e1 89 c0 c2 45 8c c0 c2 fb 81 c0 c2 e9 91 c0 c2
       -96.269295 -96.273964 -96.25387 -96.28498
0000d0 c6 94 c0 c2 0b 8a c0 c2 5e 95 c0 c2 97 8d c0 c2
       -96.29057 -96.269615 -96.29173 -96.27654
0000e0 3f 88 c0 c2 d4 8a c0 c2 7d 8a c0 c2 34 96 c0 c2
       -96.266106 -96.27115 -96.270485 -96.293365
0000f0 e2 90 c0 c2 78 83 c0 c2 ba 85 c0 c2 d5 8d c0 c2
       -96.282974 -96.256775 -96.261185 -96.277016

l3/W f4 [256, 256]
000000 26 4b 90 41 b7 da 98 c1 77 4b 1e c2 85 3b 17 40
       18.036694 -19.106794 -39.573696 2.3630078
000010 01 c0 c7 41 bd ff cb 41 7f 68 84 40 30 b9 fe 40
       24.968752 25.499872 4.137756 7.960106
000020 b3 81 11 c1 ed 74 4c c1 2e b8 cc 41 8d 29 97 41
       -9.094165 -12.778546 25.589931 18.895288
000030 14 ee 7f 40 48 7b 6a 40 0d 0c db 3f 4a 4d 8f c0
       3.9989061 3.6637745 1.7113053 -4.4781847
000040 7e 8a 5a 41 f4 ad c5 c1 9a 4e 47 c1 ca e4 17 3f
       13.658812 -24.709938 -12.45669 0.5933348
000050 57 6f 46 c2 44 f5 a7 c1 9b ba 9a 41 6b 5e 8b 40
       -49.60873 -20.994759 19.341116 4.3552756
000060 8f 42 2d 3f 81 d2 4b 41 43 b2 48 40 68 d2 0b c2
       0.67679685 12.738893 3.1358802 -34.955475
000070 2c a3 91 40 83 69 1a c0 02 42 c9 c1 7b 1c 22 41
       4.5511684 -2.41269 -25.15723 10.131953
000080 ec 1e 5a 41 6c 0a 2d 41 70 8b 5c c1 6b a2 f5 40
       13.632549 10.815044 -13.784042 7.6760764
000090 6f 4d 87 c1 71 3a b5 40 ae b7 c3 c1 15 ee ad 40
       -16.91281 5.663384 -24.464687 5.4353127
0000a0 f9 a7 21 41 c5 44 66 41 16 5d 46 c1 97 36 a5 41
       10.103509 14.391789 -12.397726 20.651655
0000b0 bb 83 88 41 48 a8 f4 41 06 1c 39 41 5e ac 8f 41
       17.064322 30.582169 11.569342 17.959164
0000c0 15 71 f6 3f 1e 01 07 41 ed fe 25 c1 c8 2f f2 c1
       1.925326 8.437773 -10.374738 -30.27333
0000d0 f4 d0 78 c1 1f a7 a2 41 b7 aa 50 c1 5b 9c 42 c2
       -15.551014 20.331602 -13.041678 -48.65269
0000e0 04 4d b0 41 82 f3 bb c0 0e 78 12 c2 15 9a 93 41
       22.037605 -5.873475 -36.61724 18.450235
0000f0 46 76 92 41 bf 19 9c c1 c6 86 94 c1 fe 9f b5 c1
       18.30775 -19.512571 -18.565807 -22.703121
000100 fe e1 97 c1 a5 8f 5a 41 05 d8 e9 c1 f5 5f 29 41
       -18.985348 13.660069 -29.230478 10.585927
000110 f3 47 c7 40 e5 1c 90 c0 97 83 80 c1 07 c4 ee 41
       6.227533 -4.503527 -16.064253 29.845716
000120 9f 9f 89 40 62 e8 b8 c0 9b 6b fa c1 02 b8 33 c1
       4.300735 -5.778367 -31.302542 -11.232424
000130 88 1d 8e c0 ec d7 9d c1 aa ce db c0 f8 5c 79 41
       -4.441105 -19.73043 -6.8689775 15.585197
000140 35 87 25 41 a4 51 ab c1 dc cb e6 c1 60 4f 8d c1
       10.34551 -21.414864 -28.84954 -17.663757
000150 a8 a7 80 c1 3f 61 12 c1 65 48 d0 c1 49 c8 7d 41
       -16.081863 -9.148742 -26.035349 15.861398
000160 d0 71 c8 c1 54 bc b0 40 c4 8b 26 41 68 c7 33 42
       -25.055573 5.5229893 10.409122 44.944733
000170 ea 2b 1b 41 9a a8 44 c0 07 7d 1a 41 7b ac a9 c1
       9.698221 -3.0727906 9.655524 -21.209219
000180 a2 17 1d 41 24 82 9c c0 e3 13 0c c2 b9 cc 21 41
       9.81827 -4.8908863 -35.01942 10.112481
000190 3d c7 2f c1 32 43 13 c2 52 98 f1 41 b2 3f 5a 41
       -10.986142 -36.81562 30.199375 13.640551
0001a0 ae 2e b0 bf 47 25 31 c1 45 ed e7 41 e6 61 c5 40
       -1.3764246 -11.071601 28.990854 6.1682005
0001b0 8b 94 59 bf 9f 6a cb c1 4d d9 3b 40 f6 5c 7d c1
       -0.84992284 -25.427061 2.935138 -15.835196
0001c0 c1 e4 d5 c1 ca f9 ba c1 b3 8c 61 41 d0 78 cb c1
       -26.736696 -23.371967 14.09685 -25.43399
0001d0 e9 24 36 42 42 18 3f c1 7c b8 21 41 ec 9a 07 c2
       45.536045 -11.943422 10.10754 -33.90129
0001e0 45 00 8c c1 b4 06 57 3e 03 bc 30 c1 25 9d fd c1
       -17.500132 0.20998651 -11.045901 -31.70173
0001f0 9e ea c4 41 92 f9 05 c2 4e 65 63 40 b2 2a c1 41
       24.61456 -33.49372 3.5530581 24.145847
000200 dd de be 41 66 ba 25 c2 e8 2a 4e 41 60 9e e5 c1
       23.85882 -41.43203 12.885475 -28.702332
000210 03 c2 50 c1 5f 78 20 42 4a a5 11 c2 3e ac 02 41
       -13.047366 40.11755 -36.411415 8.167051
000220 a9 d2 af 41 83 5a 2e 41 2f f1 c3 c1 e9 b2 73 c1
       21.977861 10.897098 -24.492765 -15.231179
000230 f8 69 77 40 47 e9 9c c1 2f 20 c8 bf 3a 88 83 3e
       3.8658428 -19.613905 -1.5634822 0.2568987
000240 af 84 25 c2 04 c9 86 c1 58 a3 6a 40 a0 88 21 c2
       -41.379574 -16.848152 3.6662197 -40.383423
000250 ef 1f 3a 41 85 90 fe 40 99 a2 4c c0 4d 2f 53 c1
       11.632796 7.9551415 -3.1974242 -13.199048
000260 3c 1d e3 c1 e5 f4 05 c0 14 da fd c1 a2 9f a8 c1
       -28.389275 -2.0930722 -31.731483 -21.077946
000270 5c 88 03 c2 f5 d2 23 40 c7 0b f6 40 eb 3d 10 c1
       -32.883163 2.5597508 7.6889377 -9.015117
000280 bf 52 71 c1 0a c8 92 c1 c3 aa 65 c2 8b 64 66 41
       -15.082702 -18.347675 -57.41676 14.399547
000290 29 2a 5e c2 cf f8 f5 c0 ea 6c 90 c1 96 4a 3e c0
       -55.541172 -7.686622 -18.05318 -2.9733024
0002a0 58 51 8f c2 fa 4e 01 41 ee 12 d9 c1 a3 ef b4 40
       -71.658875 8.081781 -27.134243 5.6542525
0002b0 da bf 78 41 81 24 f0 c0 45 8b 9c 3f a5 49 39 c1
       15.546839 -7.504456 1.2230002 -11.58048
0002c0 cc 1b 5c c0 df 17 4c 41 47 ac 38 41 5f 0f 91 c1
       -3.4391966 12.755828 11.54206 -18.132505
0002d0 72 31 89 c2 e3 13 3e c1 e4 64 87 40 88 15 a7 c1
       -68.59657 -11.879855 4.2310658 -20.885513
0002e0 3e c9 b3 41 40 9e c7 c1 a4 00 e5 40 41 2e a4 41
       22.473263 -24.95227 7.156328 20.522585
0002f0 b8 dc 59 41 64 a0 96 c1 dd da d1 c0 55 1c 84 41
       13.616386 -18.828316 -6.5579667 16.513834
000300 c5 a5 0e be ea 0a c5 41 35 f2 7c 41 c4 6e 38 41
       -0.13930424 24.63033 15.809133 11.527042
000310 a9 a2 36 c1 0e 42 4d 41 52 b5 17 c2 80 fa cd 41
       -11.414712 12.828627 -37.92707 25.747314
000320 e2 d0 9a 41 b0 ba 21 c1 f7 98 d2 40 1e 6b e9 41
       19.351994 -10.108078 6.5811725 29.177303
000330 15 2d 05 c2 2f 2d 09 42 a1 69 b5 41 83 8e 25 c1
       -33.294025 34.294125 22.676577 -10.347293
000340 4c 28 93 c1 9c c8 09 c2 71 74 b6 c1 7f 22 d1 3f
       -18.394676 -34.445908 -22.806856 1.6338652
000350 92 de 04 42 a3 df 58 41 02 7b 99 41 5c 51 73 c1
       33.217354 13.554599 19.185062 -15.207363
000360 03 96 e6 40 1b 6f 61 c1 75 9e cb c0 10 5d 74 c1
       7.205812 -14.089625 -6.363093 -15.27272
000370 9f 2e 09 c2 8d ba 2f c2 4d 24 3e c0 37 6c 40 c2
       -34.29553 -43.93218 -2.9709656 -48.10568
000380 3b ee 09 c2 e8 da 07 c2 9e 77 de c1 6a d0 e0 40
       -34.482647 -33.963776 -27.808407 7.025441
000390 45 df 9c 41 9d 98 5f 41 e0 d8 63 41 aa 81 e4 c0
       19.609018 13.974759 14.240448 -7.140828
0003a0 24 df 49 41 e0 42 01 41 3a 3b c2 c1 d2 42 16 41
       12.616978 8.078827 -24.27892 9.391314
0003b0 96 ca 86 41 a7 4d c9 bf 23 ea 14 c2 3f 96 96 c1
       16.848919 -1.5726823 -37.22865 -18.823362
0003c0 2e 7e 80 c1 aa 73 bb 40 4f 1f 41 c2 50 1e 2d 42
       -16.061611 5.857869 -48.280575 43.279602
0003d0 6e 32 43 41 16 f4 c3 bf 88 5b ef 40 db a3 9c bf
       12.199812 -1.5308864 7.4799232 -1.2237505
0003e0 59 ab 61 c2 c2 9f c2 40 9a 4f b0 c0 f3 4c d0 c1
       -56.41733 6.0820017 -5.509717 -26.037573
0003f0 ac 4a 80 41 20 c2 44 c0 a4 56 e6 41 a7 68 06 41
       16.03646 -3.0743484 28.792305 8.40055

l3/b f4 [256]
000000 36 97 c4 40 2e b4 46 3f ec 2f 5a 40 f2 cb 9f c0
       6.1434584 0.7761868 3.409175 -4.9936457
000010 c3 91 ad 41 19 8b c4 41 47 ad 6f 41 0f 4d 72 41
       21.696173 24.567919 14.979804 15.143813
000020 1c 8e 26 41 76 47 c9 40 cc 75 de be fb 65 4c 41
       10.409695 6.2899733 -0.43449247 12.774898
000030 9f 5f 6e 40 ac d0 b2 3e 28 c2 e2 40 73 09 4f 41
       3.7245862 0.3492483 7.0862007 12.939807
000040 f3 14 0b c0 36 04 e8 40 9e 8e 62 41 6b 79 e8 40
       -2.1731536 7.250514 14.159819 7.2648215
000050 10 65 99 3f db 45 87 bf 0b 14 00 42 05 cc a2 40
       1.1983967 -1.0568193 32.019573 5.0874047
000060 2d 4b 06 41 42 7b 89 40 b2 cc 72 3f e2 29 fc 40
       8.393353 4.296296 0.9484359 7.8801126
000070 22 ef 90 40 db ed f5 40 f2 cb d2 c0 a8 08 1d 41
       4.529191 7.685285 -6.5873957 9.814613
000080 67 2c 3d c0 ec 43 f8 40 2a d9 8c 40 cd f6 5b 42
       -2.955835 7.7582912 4.4015093 54.991016
000090 a6 22 f6 3f fa 8e 4e c0 3b 17 32 40 39 cc 9f bf
       1.9229324 -3.2274766 2.7826679 -1.2484199
0000a0 43 e0 c9 40 40 f6 29 41 10 07 19 41 54 3d 13 41
       6.3086257 10.62262 9.564224 9.202473
0000b0 fb f5 ef c0 b3 0e f9 40 c7 60 f3 41 ce f4 ab 40
       -7.498777 7.7830443 30.422255 5.3736334
0000c0 60 47 ec 3f eb 61 af c0 d2 50 65 41 f0 48 cc c0
       1.8459282 -5.480703 14.3322315 -6.3839035
0000d0 63 12 a8 3f 71 34 35 c0 5a 6e bb bf de aa c8 3e
       1.3130611 -2.8313258 -1.4643052 0.3919286
0000e0 c4 df 5e 40 9d 64 e2 c0 97 4e 1c 41 52 cb a4 40
       3.4824076 -7.074782 9.769187 5.1498194
0000f0 b7 68 b9 41 eb 9e a2 bf 17 37 83 c0 7e 4a 09 41
       23.17613 -1.2704748 -4.100475 8.580687
000100 4c 95 b7 3f aa 27 22 c0 6e c1 df bf 7e 15 fe 40
       1.4342437 -2.533671 -1.7480905 7.9401236
000110 ef 59 b1 40 fd d9 43 41 8d d7 1e 41 54 da 24 41
       5.542228 12.24072 9.927625 10.303303
000120 52 d6 6a bf 32 e1 56 41 70 9c a7 40 00 18 1e 40
       -0.91733277 13.429979 5.2378464 2.4702148
000130 71 85 0d 3f 92 68 89 be 06 74 84 41 17 90 ae 3f
       0.5528174 -0.26837593 16.556652 1.3637723
000140 a6 81 6d 40 af 2f be 40 23 d0 6b 40 cd bf 9f 40
       3.711038 5.9433208 3.6845787 4.992163
000150 e8 a8 06 41 a2 90 cb 41 6c 2a 1d 41 90 1b 8b 3f
       8.416237 25.445621 9.822857 1.0867786
000160 55 54 89 c0 c0 1b f9 c0 33 1b 2d 41 7b 77 d5 40
       -4.2915444 -7.7846375 10.81914 6.670835
000170 d0 fa 8f 40 c1 98 2d 41 26 bb b4 40 81 13 37 41
       4.4993668 10.849793 5.6478453 11.442262
000180 ff 1b bc 41 c1 c9 0a 3e 5d e3 75 41 21 96 1a 41
       23.51367 0.13553526 15.368009 9.661653
000190 1e 76 1b 41 d6 ae 1f 41 c7 12 ae 40 61 5e be 40
       9.716337 9.980185 5.439792 5.949021
0001a0 5a b3 c1 3f cc 1f db 40 57 6b fb 3f d0 63 ce 41
       1.5132859 6.8476315 1.9642133 25.798737
0001b0 86 6c 83 3f bf c9 d7 3e 5d 15 8b c0 ac 86 06 41
       1.0267494 0.42146108 -4.346358 8.407879
0001c0 8a c6 9d 40 0f a2 13 41 c5 af 09 42 8a 28 30 41
       4.9304857 9.227065 34.42165 11.009897
0001d0 9c a7 a7 41 71 47 8a 41 ed e9 c7 3e 17 fd cd 3d
       20.95684 17.284883 0.3904566 0.10058039
0001e0 c3 24 54 41 34 e5 e9 40 a9 53 f0 bf b1 1c f0 40
       13.258975 7.309229 -1.8775531 7.5035024
0001f0 6a d0 13 c0 1c be c6 3f 83 e7 60 3f c3 c4 b4 bf
       -2.3095956 1.5526767 0.8785326 -1.4122547
000200 f6 a9 2a 41 16 96 64 41 8c bc 1d 40 16 27 02 40
       10.666494 14.286642 2.464633 2.0336356
000210 e9 e1 b2 40 4a 0d 28 41 7f 8a 11 42 95 50 bd 41
       5.590077 10.503244 36.38525 23.664347
000220 54 1c fa 3f 35 fe cc 3f ce df b9 40 08 50 0d c0
       1.9539895 1.6015078 5.80857 -2.2080097
000230 c5 e5 27 41 df 93 1a 40 e3 43 da 40 ef 28 1d 41
       10.493596 2.4152753 6.820787 9.822494
000240 cb 3e 99 41 76 9d 2d 3f bc 91 5e c0 8d 3a db bf
       19.15566 0.6781839 -3.477645 -1.7127243
000250 a2 50 34 41 9e fe 46 bf ee 7f 4b 41 34 13 09 41
       11.269686 -0.77732265 12.718733 8.567188
000260 ed 85 1f 41 e8 08 f3 3f cd ac bd 41 81 c7 ce bf
       9.970197 1.8987093 23.709375 -1.6154634
000270 d8 bd c7 40 c9 59 36 41 42 93 8b bf 4b 7f 4a bf
       6.2419243 11.39692 -1.0904315 -0.79100484
000280 7f c5 54 41 6a be df 41 8a d6 09 41 af d4 15 41
       13.298217 27.967976 8.614878 9.364425
000290 59 4d 3c 41 bd d1 f2 40 47 90 c5 40 8a 3c 40 41
       11.768884 7.588103 6.173862 12.01478
0002a0 d6 33 8d be 02 91 8e 41 20 fc 34 40 a9 09 05 41
       -0.2757861 17.820805 2.8278885 8.314858
0002b0 df cb dd 40 cf a4 e8 c0 45 7d d7 40 cb a9 8e 41
       6.9311366 -7.270118 6.7340417 17.832907
0002c0 6a 93 5b 40 c3 69 d9 40 c8 3f 4c 41 23 b1 00 41
       3.4308724 6.7941604 12.765572 8.043246
0002d0 29 7e 1b 41 c9 26 85 41 f4 15 f2 41 fd 0d 94 40
       9.718301 16.643938 30.26072 4.6267076
0002e0 cb f9 e4 40 f2 8e 0a 41 ba cb 8f 40 d3 40 b7 40
       7.1554923 8.659899 4.493619 5.726663
0002f0 67 20 32 41 93 3a 11 c0 29 b0 a1 3f 94 8f 99 40
       11.132911 -2.2692 1.2631885 4.7987766
000300 96 ad 10 41 aa c1 04 bf 78 6a c1 41 c0 03 76 40
       9.042379 -0.5185801 24.176987 3.843979
000310 18 d4 76 40 22 e0 7e 41 65 91 25 c0 f2 cb f8 40
       3.8566952 15.92972 -2.5869992 7.7748957
000320 31 f3 49 bf 02 06 a8 3f d0 e8 96 3f ab 6e 1b 41
       -0.78886706 1.3126833 1.1789799 9.714519
000330 6e 82 e8 40 8a 67 10 c0 38 b9 6c 41 24 de cb 41
       7.2659216 -2.2563195 14.795219 25.483467
000340 48 38 58 40 c4 5e 3a 41 74 66 d2 41 bc f7 5e 41
       3.3784351 11.648136 26.300026 13.935482
000350 a5 0e 14 41 5d 8e b8 40 dd 50 c7 40 ce c8 06 42
       9.253575 5.7673783 6.228621 33.6961
000360 1c 9c 0f 41 9d 1b 28 bf 6c e9 13 40 ce 35 5b 41
       8.975613 -0.65667135 2.311122 13.700636
000370 42 12 61 42 3e 48 ae 41 76 69 45 40 35 7e 54 40
       56.26783 21.785275 3.0845618 3.320203
000380 2e 42 15 41 46 8c fe 3f fb 3d 02 41 8b 19 6b 41
       9.328657 1.9886558 8.140132 14.693736
000390 e8 9c 29 bf 25 39 0f bf 02 8a 77 40 2c 59 09 3f
       -0.66255045 -0.5594657 3.8677983 0.5365169
0003a0 f1 ae 3a 40 e7 51 05 41 7e c6 c5 40 12 e0 14 40
       2.9169276 8.332496 6.18048 2.3261762
0003b0 d5 f8 f9 be 17 df f2 40 da 0d e5 40 b5 ba 25 c0
       -0.48822656 7.5897326 7.157941 -2.5895207
0003c0 45 6e eb 3f a3 56 d3 c0 8e 48 c0 3f 9b 62 ff 40
       1.8393027 -6.604326 1.5022142 7.980787
0003d0 5c 63 43 41 af a7 fa 40 50 bb c7 c0 1d 33 8f 41
       12.211758 7.832969 -6.2416153 17.899958
0003e0 09 79 fb 41 48 8f d9 40 00 50 24 41 b9 ca fe 41
       31.4341 6.7987404 10.269531 31.848986
0003f0 00 b9 08 41 19 e2 75 bf 1e eb cb 40 29 74 70 3d
       8.545166 -0.9604812 6.372451 0.05870453
