size8/agent_white_166000/model.npz (npz, 609069 bytes, 8 tensors)

l2/W f4 [256, 256]
00000000: d370 f3c0 1097 83c1 8b08 d3c1 d41e e8c0
00000010: 9d4f 26c2 74d9 6f41 d826 8a41 0093 0042
00000020: df97 a140 e5b9 d1c1 d903 c641 a186 a141
00000030: 2c18 1641 4d3d 2ec1 db54 96c1 6c24 97c0
00000040: 91a3 bb41 d5fc b7c0 cb7e 1cc0 6032 32c1
00000050: 73f4 0fc2 6501 5641 a019 9a40 67df 8ac1
00000060: 2611 bac1 ebfd 3c40 8942 0740 fbc5 93c1
00000070: d6aa 2a42 adb2 3742 3d06 4841 b9bf e340
00000080: 746f e6c1 230f 15c1 b998 2fc1 5427 a740
00000090: d97c 7641 f088 8d41 c287 bdc1 4199 7241
000000a0: b955 6641 f80a 7d40 195b 8bc1 9cdd f440
000000b0: 867b e640 3b77 0642 3146 1f41 de9d e041
000000c0: 07fb 9140 8757 a6c1 ec04 9f41 c234 0440
000000d0: 1e0e 5bbf ad7a dac1 2ba5 b240 746a 8d41
000000e0: b273 c7c0 422b adc0 0bfa a641 dd7c 0b41
000000f0: c77e 04c2 af9e 983f cfdd c641 a1b2 15c1
00000100: 17f4 f1c0 64c8 18c2 3ab5 11c2 8453 8ec1
00000110: 0fcf 3641 429e 3041 5142 8440 8c8a 9841
00000120: b80f fe41 6f08 d941 6d89 93c1 2bd6 9341
00000130: e7ed 0d41 a01f 84c1 2de6 cf41 f679 8941
00000140: 1364 ba41 3f27 9840 e8b0 4a41 115e 45c1
00000150: 113b 1f41 0de6 8d41 6141 3940 6109 d141
00000160: 868c a441 2e21 a7c1 bd36 d541 5537 6e3e
00000170: c267 aac1 0d2c 0441 ba1a 3e41 9aae 6341
00000180: 0549 24c2 b9ba 1041 aee8 1b41 4898 5340
00000190: affa 9940 1e79 29c2 0907 d9c0 2edb aac0
000001a0: c117 b440 588e 24c2 5dc8 ccc1 7760 7bc2
000001b0: 2272 de41 30a0 34c2 e7c0 bc40 7604 f0c0
000001c0: 2707 5741 5693 c141 5aba 6541 d9df 25c2
000001d0: ef72 4ec1 daf7 dac0 8c8b 96be 8a20 b2c1
000001e0: 9385 1fc0 a175 0ec2 3919 5e41 26e1 35c2
000001f0: ec80 3c41 d814 2dc2 eff4 0fc1 ce2b 0641
00000200: 4a70 c641 cac6 19c2 d7d5 0041 ea9d 2ec2
00000210: 8b08 8c41 4ae5 1142 7019 4741 ca15 a641
00000220: f267 85c2 1e49 9ec1 2b9a 9740 f1a4 8e40
00000230: d739 8cc0 b0a7 3c40 fd47 85c0 9156 ed41
00000240: 7164 7fc1 addb 80c2 acfa 2242 4062 2241
00000250: 026f 1242 dceb d640 81c3 0ec0 2e28 8b41
00000260: 7e56 9541 9a4d a6c0 ef6c 8241 994c bf40
00000270: b80a c7c1 23ff adc1 a588 d140 142f 90c1
00000280: 0e9f 66c1 622b 90c1 1642 3f41 ce84 c541
00000290: a54b 93c1 28c1 3cc1 d0e5 aec0 2c0d b9c0
000002a0: aac6 f3c1 bc19 5441 87c4 9cc1 60ad 2fc1
000002b0: df77 28bf 4fd9 2f41 8751 60c2 6460 9f3d
000002c0: a708 b9c1 8143 9141 6214 9441 291c c63f
000002d0: 3ee7 3e41 5290 4842 5029 50c1 217d 1741
000002e0: 3468 e441 8221 ccc1 c378 8641 dacb 5641
000002f0: 33d0 5ac2 2383 0e42 717b 0a42 4585 4541
00000300: 3290 e441 5a46 a4c1 a36e e341 3faf 2d41
00000310: 5785 d041 96aa de40 b99c a341 f81e 3d41
00000320: 68cb 02c1 0290 cbc1 97bc 42c1 a937 0bc2
00000330: 9ed3 3ec2 ae30 1dc1 fb9f a9c1 811f bdc1
00000340: 2f28 e3c1 34f9 fcc0 6d47 0dc2 5d15 0fc1
00000350: c1de 84c1 5ebe 55c1 6eca d3c1 00d1 c6c1
00000360: 84e2 0ec1 a673 4f41 96f4 b2c1 d585 42c1
00000370: 085e a040 6c7d f440 bf28 8ac1 816f 26c0
00000380: 9a53 93c1 88d1 87c1 c6da 7ac0 9b9e 06c2
00000390: 03f2 ebc1 5903 8dc1 7966 a941 bacc 3b40
000003a0: 89ad c941 ec52 59c1 ea35 a041 3478 8bc1
000003b0: e4c0 a7c1 1671 2142 c5c0 5141 2f37 0241
000003c0: 28a8 5f41 0bd9 7ac1 744a 8ac1 348b 1941
000003d0: 019f 1fc2 723f e1c1 f64f 0142 48db 70c1
000003e0: 947e 1d42 96f1 0142 53d3 0a42 c96c 2bc1
000003f0: bf30 d2c1 9607 27c2 39ef aebf 3656 6e41
-7.6075225 -16.448761 -26.379171 -7.253763 -41.577747 14.990589 17.268967 32.143555
5.049789 -26.215769 24.751879 20.190737 9.380901 -10.889966 -18.791433 -4.723196
23.454866 -5.7496133 -2.4452388 -11.137299 -35.98872 13.37534 4.815628 -17.359083
-23.258373 2.952998 2.113436 -18.47167 42.666832 45.924488 12.501523 7.1171536
-28.80442 -9.3161955 -10.974786 5.223551 15.40548 17.691864 -23.691288 15.1624155
14.395928 3.9537945 -17.419481 7.652052 7.2025785 33.616436 9.954637 28.077084
4.561893 -20.792738 19.877403 2.06572 -0.85568416 -27.3099 5.582662 17.67698
-6.232873 -5.4115305 20.872091 8.717984 -33.123806 1.1923426 24.858305 -9.356111
-7.561046 -38.195694 -36.42698 -17.79078 11.425551 11.038637 4.1330953 19.06765
31.757675 27.129118 -18.442102 18.479574 8.870582 -16.515442 25.98739 17.184551
23.298864 4.754791 12.66819 -12.335465 9.9519205 17.73733 2.8946154 26.12958
20.568615 -20.891201 26.651728 0.23263295 -21.300663 8.260755 11.881525 14.230127
-41.07131 9.045587 9.744307 3.3061695 4.811851 -42.36828 -6.782109 -5.3392553
5.6278996 -41.139008 -25.597834 -62.844204 27.805729 -45.156433 5.8985476 -7.5005445
13.439246 24.196941 14.357996 -41.4686 -12.90306 -6.8427553 -0.2940334 -22.265888
-2.4925277 -35.614872 13.881158 -45.46987 11.781475 -43.270355 -8.997298 8.3856945
24.804829 -38.44413 8.052207 -43.654213 17.504171 36.473915 12.44371 20.76064
-66.70302 -19.785702 4.7375693 4.4576344 -4.3820605 2.9477348 -4.1650376 29.667269
-15.962022 -64.429054 40.744797 10.148987 36.608406 6.7162914 -2.2306826 17.394619
18.667233 -5.196973 16.30319 5.9781003 -24.880234 -21.749578 6.5479302 -18.022987
-14.413832 -18.021183 11.953634 24.689846 -18.411936 -11.797157 -5.4655533 -5.782858
-30.472004 13.256283 -19.59596 -10.979828 -0.6580791 10.990554 -56.079617 0.07782057
-23.129225 18.15796 18.509953 1.5477344 11.931456 50.140938 -13.010086 9.468049
28.55088 -25.516361 16.808966 13.424768 -54.70332 35.628063 34.62055 12.3450365
28.570408 -20.534351 28.429022 10.855285 26.065107 6.9583235 20.451525 11.820061
-8.17466 -25.445316 -12.171042 -34.804356 -47.706657 -9.824385 -21.203115 -23.640383
-28.39462 -7.9054203 -35.31975 -8.942716 -16.608767 -13.358976 -26.473843 -24.85205
-8.930302 12.9657345 -22.369427 -12.157674 5.0114784 7.6403103 -17.269896 -2.6005557
-18.415821 -16.97731 -3.9196029 -33.65489 -29.49317 -17.626635 21.175035 2.9343705
25.209734 -13.582745 20.026325 -17.433693 -20.969185 40.360435 13.109563 8.138473
13.978554 -15.677989 -17.286354 9.596485 -39.905277 -28.15598 32.328087 -15.053535
39.37361 32.485924 34.70637 -10.714059 -26.273802 -41.75741 -1.3666755 14.896048

l2/b f4 [256]
00000000: 54b8 b541 7464 2d41 cf2c 5441 0c70 ee41
00000010: 6c04 5841 b20d e541 fe14 863e 0986 40bf
00000020: cdb5 8941 7425 8ac0 6c10 a2bf 1588 1641
00000030: 4ee0 8ac0 2b81 86c0 658b 8f40 8932 34bf
00000040: 87ae 21bd 7b7c 2341 c5d9 8f41 8f04 82c1
00000050: 142b 3941 76a3 f241 f19b 8041 cf33 e33f
00000060: fba1 823f 5759 d6c0 d4b5 7540 698e 6140
00000070: 5b72 b541 189b a0c0 5b67 e041 0ad7 9141
00000080: e25d b841 f8de c041 5be0 8d41 ba08 2e3f
00000090: b48e 9ac1 fd83 9241 5929 e83f e1ea 6841
000000a0: 4b37 3941 4597 9e41 e5f7 ac41 c9c8 97c0
000000b0: f61a 7c41 dad3 a641 d27e adc1 4ba4 7641
000000c0: bbeb 31c1 e6b4 3dc1 8cd1 0342 342f dfc1
000000d0: 5eb7 a841 1f6c ca41 0029 6c41 6a11 31c1
000000e0: 3a6c 89bd 4707 5141 099d 363e c6de 973d
000000f0: 9f96 a741 3d45 10c1 cc24 0ec1 08bb 03c1
00000100: 2490 3940 6c7c 12c1 d6be 1e3f 4e8d ed41
00000110: 37df e0c0 db03 4fc1 4250 0540 2b52 de40
00000120: 0685 ecbf 0c0f 50c1 f700 67c1 18fd d441
00000130: 3489 2bc1 6ff8 5dc1 0484 8141 fd89 0f41
00000140: 24c7 0a42 f337 9841 5f76 ba41 03b6 8741
00000150: ad04 c041 9422 93c1 1aa3 823f cb67 60c1
00000160: ecfa 9cc1 4247 f6c0 0048 12c0 a2e5 fa40
00000170: b0a5 31c1 4cb3 9541 b59a 6ebf ce23 d9c0
00000180: 7dde 1fc1 9525 0640 6842 9e40 dadf 05bf
00000190: a5fb b541 f910 7f40 8361 2a41 5efc 2241
000001a0: 51e3 ed3f 082e 6841 bed2 22c1 82be a1bf
000001b0: 08fe f041 f377 c441 75ef 4840 b771 bf41
000001c0: d39c f241 f9c0 ad41 65bc 2dc1 f6b3 bc41
000001d0: f1bf 8841 0b41 ad41 7f2b 7b40 d776 b241
000001e0: 2761 2941 4d9a 9b41 f534 b340 904d 4941
000001f0: 1b6b b441 3588 ba41 7ece a941 a02a ad41
00000200: 6f79 3ac0 79be 1d41 f576 b1c1 0075 8b41
00000210: f87b ae41 7295 fe41 8b1c 2341 d7c3 2bbf
00000220: dabb f441 a5f9 a741 aa99 dfc0 63bb ad41
00000230: 1ed6 2e41 ae4d 13c1 c40e d741 547d b241
00000240: 685e b441 2bce 99c1 0515 7ac1 a802 5340
00000250: 6ac1 a941 5c38 1ac0 6eb5 ba41 90f1 8cc1
00000260: 07f9 4e41 c669 2cc1 bd49 0d41 4d39 64c1
00000270: be20 6141 7eb6 9941 9a8e bd41 8938 a4c1
00000280: e3b0 2841 dce4 4a41 364c 74c1 9741 2640
00000290: 05e5 4c41 b38e b0c1 8508 b5c1 06aa 9141
000002a0: 72be b541 4e13 15c1 a6e3 d341 4f41 de41
000002b0: 862b 5341 7d49 60c0 714a dbc1 f535 57bf
000002c0: 107e 0b41 a8d3 9341 d234 abbf 22e4 8241
000002d0: 1bb9 9341 48b7 8f41 9f48 68c0 e0f7 f540
000002e0: 7227 8f41 2f2d 7541 72a7 883f 6a2d a841
000002f0: 12b2 9941 5efc 5d41 7844 6641 d2a0 da40
00000300: 233d d3c0 3751 9c41 9c39 9441 3d54 ee41
00000310: 9855 9bc0 bba8 f740 44f9 2ac1 532c 3241
00000320: e8a0 b641 c7ad c2c0 cc34 b841 3c47 6b41
00000330: 8463 9e41 6130 0a42 ba1d a3c1 7a26 ab40
00000340: 7286 b8c0 daee e041 4ca5 c041 f912 abbe
00000350: 90fa 7641 3c6c 3d41 4ba9 cb41 0191 7c41
00000360: 1dfa 00c0 9ab7 ee41 8b25 a441 89b2 0141
00000370: 8bee c941 d7ff bf41 86eb c041 d38e c741
00000380: 98c5 2e41 4b56 ce41 8cff d4c0 17be 8841
00000390: 6654 c2c1 ff4b 0442 0541 b041 2377 d941
000003a0: ae8c 60c1 a6f6 5dbf dff8 15c1 8e3f 093f
000003b0: 7eac be41 2b9a 3bbd e314 1d41 8fc1 cbc1
000003c0: 55da 68c1 ec92 4dc1 d577 c941 0f04 1942
000003d0: ec39 193e 0fee e1c0 983b f83f bbf7 07bf
000003e0: 0106 9e41 b0a2 9341 280f 0042 9a64 b841
000003f0: 507d 2241 ae38 b041 176d 9841 efce 9b40
22.715004 10.837025 13.26094 29.80471 13.50108 28.631687 0.2618789 -0.7520452
17.21377 -4.317072 -1.2661262 9.408223 -4.339881 -4.2032676 4.485766 -0.7038961
-0.039473083 10.217891 17.981333 -16.252226 11.573017 30.329815 16.076143 1.7750186
1.0205683 -6.6984057 3.839223 3.524317 22.680838 -5.0189323 28.050467 18.23
23.045841 24.108871 17.734549 0.67982066 -19.31968 18.314447 1.8137618 14.5573435
11.575999 19.823862 21.621042 -4.74326 15.756582 20.853443 -21.686924 15.415111
-11.120051 -11.856665 32.954636 -27.898048 21.089535 25.302794 14.76001 -11.0667515
-0.06710096 13.064277 0.17833342 0.074155375 20.948545 -9.016904 -8.883984 -8.233162
2.8994226 -9.155376 0.6200994 29.693996 -7.027248 -12.938441 2.0830235 6.9475303
-1.8478096 -13.003674 -14.437736 26.62358 -10.720997 -13.873153 16.18946 8.971189
34.694473 19.027319 23.307798 16.963873 24.002283 -18.391884 1.0206025 -14.02534
-19.62252 -7.6961985 -2.2856445 7.8405313 -11.102951 18.712547 -0.93204814 -6.7856207
-9.991818 2.0960438 4.945606 -0.52294695 22.747873 3.985411 10.648807 10.186613
1.8584996 14.511238 -10.176451 -1.2636263 30.124039 24.558569 3.1396153 23.930525
30.326574 21.719225 -10.858495 23.587872 17.093721 21.65676 3.9245298 22.308027
10.586219 19.450342 5.6002145 12.581436 22.552298 23.316507 21.225826 21.645813
-2.9136617 9.859002 -22.183084 17.432129 21.810532 31.822971 10.1944685 -0.670957
30.591724 20.996897 -6.987508 21.716497 10.927275 -9.206465 26.88221 22.311195
22.546097 -19.225668 -15.630132 3.2970371 21.21944 -2.40969 23.338589 -17.61795
12.935798 -10.775824 8.8305025 -14.263989 14.070494 19.214108 23.69463 -20.527605
10.543185 12.680874 -15.268606 2.5977533 12.805913 -22.069677 -22.62916 18.20802
22.71799 -9.317213 26.486156 27.781889 13.198126 -3.5044854 -27.411348 -0.84066707
8.718277 18.478348 -1.3375494 16.361393 18.465384 17.964493 -3.6294324 7.686508
17.89426 15.323531 1.06761 21.022175 19.211948 13.874113 14.391716 6.8321314
-6.601213 19.539656 18.52813 29.791132 -4.8541985 7.739347 -10.685856 11.135821
22.828568 -6.083713 23.02578 14.704891 19.798592 34.547245 -20.389515 5.348447
-5.766412 28.116627 24.080711 -0.33412912 15.4361725 11.838924 25.457663 15.785401
-2.0152657 29.83965 20.518332 8.106088 25.241476 23.999922 24.115002 24.944738
10.923241 25.792135 -6.6561947 17.092817 -24.29121 33.074215 22.031748 27.183172
-14.034346 -0.8670448 -9.37326 0.536126 23.834225 -0.045801323 9.817599 -25.469511
-14.553304 -12.84837 25.183512 38.253963 0.14963502 -7.06031 1.9393187 -0.5311238
19.752932 18.454437 32.0148 23.049122 10.155594 22.027676 19.053267 4.8690104

l1/W f4 [256, 64]
00000000: 698b 4e42 c2e4 1cc0 d747 c441 be19 9c3f
00000010: a9a6 e040 787f 1042 cb01 f93f 0fff 53bf
00000020: fcf2 7fc1 a260 80c0 737e b8c1 8750 ff41
00000030: 07f2 16c2 1bd6 5941 c32e 1841 f4c7 eec0
00000040: 7898 2bc0 4f7c b741 cb65 81c0 1c7c c6c0
00000050: 8085 9b41 1ef6 68bf 9fe9 3842 3acf cd40
00000060: 51e7 dc41 808c 1dc0 ebb1 e041 a57f 8fc1
00000070: c49b ffc0 b627 b641 9a34 9541 57d3 1741
00000080: 9777 99c1 4102 3cc1 0849 753f 56d4 88c1
00000090: 37a4 aa3f 5523 10c1 2821 95c0 6c0a 9c3f
000000a0: 5a4f cf41 2205 4541 4c0c ddc0 1e69 c041
000000b0: 3cfb afbf b713 ebc0 cc1f f140 9d4d 0bc2
000000c0: 6a13 1541 c70e 0242 3dfd aebf 7eaf b9c1
000000d0: 76a0 e440 f50b 0a41 c29a 91c1 799d d041
000000e0: ac04 1c42 c8b2 96c0 ac8f 8ac1 a720 eac1
000000f0: 4ef0 4441 2ebc f540 bc29 c3c1 1660 96c1
00000100: ea5c 7141 218b ca40 0174 5842 2d9b 493f
00000110: 9262 69c1 0915 0ec2 e594 3f41 f448 0c41
00000120: c791 1ec1 6bb0 41c1 753e ba41 30c0 8bc1
00000130: 5ed4 85c1 5fe9 95c1 bcde 0941 46c6 4dc2
00000140: 602d 82c0 8786 f2c1 ad92 68c0 354a bec0
00000150: 2812 3a41 9a4d 1b41 b189 fdbf 5c3c d7c0
00000160: 2bbb d83f 753c bec0 18df 13c1 6862 05c1
00000170: 383b 2cc0 ae2e 3fc1 43dc 63c1 0091 0dc2
00000180: 6690 10c1 40ab cfc0 83e9 6e41 815a 9640
00000190: 3d2e 6f40 8f2e 3dc0 4779 d941 5b1f 7240
000001a0: 0601 3c41 4291 0cc2 1c13 c241 27a9 9341
000001b0: dcc7 d7c0 1a4d 8e41 5715 6742 d222 e4c0
000001c0: 6d25 0ac2 dea7 c140 567e 83c0 1ff1 8bc1
000001d0: 2289 4641 20c0 aa41 981b 86c0 d3d5 ea40
000001e0: 7cec 47bf 653a f0c0 7022 9cc2 6f27 19c1
000001f0: c7ac 0f42 c38b 0d42 560f a140 2688 67c1
00000200: 89f6 9441 91d8 0842 599d 46c1 8da6 fc41
00000210: 4019 25c0 e8ce b741 94e0 6e40 a79d 9a3f
00000220: e249 1642 6c78 75c1 7a17 11c2 8736 9841
00000230: f4f3 4741 83f6 f541 d855 2741 7527 7741
00000240: e2fd 1ac0 6e30 0d42 4d02 1fc1 00ba 0c41
00000250: e731 d4c0 9f12 0441 6ab0 f441 162c 5341
00000260: 96e8 6042 4f4c 03c2 8879 b241 e47a 6341
00000270: 1bca d93f 4dd5 8b41 4233 1c40 fb3a d5bf
00000280: c98b 8d3f 3fdb e341 5377 11c2 fd70 2241
00000290: f37d a2c0 9ed5 c740 0ebe c4c0 7605 8fc1
000002a0: a969 63c2 8fe3 24c1 ea16 9241 c06c ebc0
000002b0: 8610 7441 345e 3341 dd3b 7ec0 3bdf 1dc2
000002c0: a990 aac1 be9a 59c2 a084 1dc1 6779 f2c0
000002d0: bfbe 5041 3202 80c1 e788 0a41 e410 b3c1
000002e0: a721 db41 7238 8841 b415 4fc2 2296 e241
000002f0: 5dea 0cc0 70c5 0dc1 8d30 1d42 8a36 69bf
00000300: 69dd c3c1 301b 1641 ef87 17c2 7b81 b3c1
00000310: a5b6 6fc1 d586 6a41 f46f d841 3ddb ffc1
00000320: e8aa b540 9f5d 8bc2 3458 c0c1 c936 c9c0
00000330: 24b7 bac1 087b 9d41 9aee 6641 d306 08c0
00000340: 23f6 e7c1 7161 c1c1 c5aa ac3f e59c 0d41
00000350: 23ba 1a42 d227 e3c0 4820 9e41 a087 e8c0
00000360: cc15 4840 78bc efc0 1426 8141 396b 5ac0
00000370: dcac d5c0 2c88 6241 085c 2941 3659 88c0
00000380: 17ef 24c1 5cf1 0f42 2160 a541 0c5c c43f
00000390: 32f1 4440 f7d1 c1bf 5238 65bf 795c 6541
000003a0: 55f8 88c1 340d dbc1 841c a9c1 3ab6 1ec1
000003b0: 56b2 a1bf 41fb ec41 f2e3 8f41 3e0a 14c2
000003c0: 23dc 21c2 dd54 60c2 2928 09be 91c6 33c2
000003d0: 46a6 30c1 7643 2142 4b63 1242 f009 25c2
000003e0: b60e 9cc2 fceb 7441 ca4f 8fc2 11fa b941
000003f0: 5ba3 03c2 a7aa 79c1 9ccc 2142 3606 6ac1
51.636143 -2.4514623 24.535078 1.2195356 7.0203443 36.12448 1.9453672 -0.82811064
-15.996822 -4.011796 -23.061743 31.91432 -37.736355 13.614772 9.511416 -7.4619083
-2.681181 22.935698 -4.043676 -6.20265 19.440186 -0.91000545 46.228146 6.431546
27.612947 -2.4617004 28.086874 -17.937326 -7.9877644 22.76939 18.650684 9.489097
-19.183393 -11.75055 0.9581456 -17.10368 1.3331364 -9.008626 -4.6602974 1.219068
25.913746 12.313753 -6.907751 24.051327 -1.3748546 -7.3461566 7.5351315 -34.825794
9.31724 32.51443 -1.3671032 -23.21069 7.1445875 8.627919 -18.200565 26.07689
39.004562 -4.709324 -17.320152 -29.265944 12.308668 7.679221 -24.395378 -18.796917
15.085184 6.3294835 54.113285 0.78752404 -14.586565 -35.520542 11.973851 8.767811
-9.91059 -12.105571 23.280497 -17.468842 -16.728695 -18.73895 8.6168785 -51.443626
-4.068039 -30.315687 -3.6339524 -5.9465585 11.629433 9.706446 -1.9807645 -6.726118
1.6932119 -5.94488 -9.241966 -8.336525 -2.6911144 -11.948896 -14.241275 -35.3916
-9.035254 -6.4896545 14.93201 4.698548 3.7371972 -2.9559667 27.184217 3.7831638
11.75025 -35.141853 24.25933 18.457594 -6.743147 17.787647 57.77084 -7.1292505
-34.53655 6.0517416 -4.109172 -17.492735 12.40848 21.343811 -4.1908684 7.3386016
-0.7809522 -7.5071282 -78.06726 -9.572127 35.918728 35.386486 5.033122 -14.470739
18.620378 34.21149 -12.413415 31.581324 -2.5796661 22.976028 3.7324572 1.2079362
37.57215 -15.3419 -36.272926 19.026625 12.497059 30.745367 10.458458 15.447133
-2.4217458 35.297295 -9.938062 8.79541 -6.6310916 8.254546 30.58614 13.198263
56.227135 -32.82452 22.309341 14.217503 1.7014803 17.47915 2.4406285 -1.6658624
1.1058284 28.482054 -36.366528 10.152585 -5.0778747 6.2448263 -6.1482 -17.877666
-56.853184 -10.305556 18.261189 -7.357025 15.254034 11.210499 -3.9724038 -39.468
-21.320635 -54.401115 -9.844879 -7.5773196 13.046569 -16.001072 8.658423 -22.383247
27.391432 17.027561 -51.771194 28.323307 -2.2018044 -8.8607025 39.297413 -0.91098845
-24.48311 9.381638 -37.882748 -22.438223 -14.982091 14.657918 27.054665 -31.98205
5.6771126 -69.68285 -24.043068 -6.2879376 -23.339424 19.685074 14.433252 -2.1254165
-28.995184 -24.172579 1.3489615 8.850804 38.681774 -7.098611 19.765762 -7.266556
3.1263304 -7.4917564 16.143593 -3.4127944 -6.677351 14.158245 10.584969 -4.26089
-10.308372 35.985703 20.671938 1.534059 3.0772214 -1.5142201 -0.8953906 14.335076
-17.121256 -27.381447 -21.138924 -9.919489 -1.2632549 29.622683 17.986301 -37.010002
-40.464977 -56.082874 -0.13394226 -44.943913 -11.040594 40.31588 36.596966 -41.259705
-78.02873 15.307613 -71.65584 23.247103 -32.909527 -15.604163 40.449814 -14.626516

l1/b f4 [256]
00000000: 783f afc1 dcf4 4440 9ffe 5e41 203c c540
00000010: 82b2 4640 eed5 9f40 d7d8 3ec1 1f97 953e
00000020: 58b9 29bf 545b 0941 3956 19c2 8216 8c41
00000030: b865 0dc1 050f 0ebf 4252 8b41 5134 9440
00000040: e627 a340 74f1 0e41 da9a f740 1c6f d540
00000050: 0c5b 4c41 d9d5 e83f 84ac 6a40 05f9 3941
00000060: 5028 e6c0 5484 2ac2 c45c 7940 1847 aac0
00000070: f867 0f41 af8d c63f faf3 8140 1066 9a3c
00000080: 30e5 1041 1a09 fa40 a2c2 09c2 5c07 1b41
00000090: 17c3 e941 eed9 6e41 08fe c440 6119 a741
000000a0: fb3e a640 9335 8fc1 31f1 e9c0 6adc a8c1
000000b0: 96f9 b0c0 b1c5 5541 03b6 8cc1 3921 8840
000000c0: c7ec a2c1 f181 7b41 04e9 edc1 8ced b441
000000d0: e85f 7541 2828 51c1 c9a0 6a40 0eed 2941
000000e0: 2afc 89c1 b646 51c1 48fb b641 f0bb 2941
000000f0: 5a95 0241 dfb9 4cbf 6012 0f41 0976 06c2
00000100: 072a cac0 768d a841 d63e e0c1 e7b1 d4bf
00000110: 9b8e 0cc1 d4b3 3ec1 2289 1c3f 44e8 19c1
00000120: 891f 1741 9013 df40 62f9 ffc0 9961 acc1
00000130: 4267 8d41 739b e3c0 8995 c6c0 eaf4 b541
00000140: e132 bac0 01a2 1dc2 e07a 13c1 bf30 af40
00000150: 49f0 a241 f675 3940 8535 df40 edcd f0c0
00000160: d5cd 8a41 1e1b 4041 da3a 81c0 e86a afc0
00000170: b030 a941 53a9 0fc1 2407 3040 0b95 1dc1
00000180: a3b4 5ac2 3b3f 02c2 d5e2 0dbf 8152 60c1
00000190: 6812 c940 c70c 0641 b5d6 5b40 eb9f 84c0
000001a0: 5f6d c640 4dcb 5e3f 2a80 a440 87a0 03c1
000001b0: 8236 abc1 bd66 d141 a862 34c1 34e3 59bf
000001c0: f8c1 2441 9540 2f41 513d f4bf f4e1 2a41
000001d0: 00db 3d41 5d82 a1bf 2f07 e7c0 a24c d6bf
000001e0: 32eb 9b41 5c92 c8c1 e9bb 94c1 fdb2 60bf
000001f0: ca07 8440 e3ef 0441 26f1 a1c0 e741 62bf
00000200: 4603 00c2 144d 45c1 792e a741 82b0 57c1
00000210: 714c bb41 578f 2441 9209 6cc0 333e 0441
00000220: beba cec1 c319 a2c1 0b02 e8c0 f8f2 8bc1
00000230: 35f3 2bc2 0552 22c0 ea2a 9141 15cc 88c1
00000240: e5c9 21c0 4a62 4941 42d9 9e41 1281 00bf
00000250: eef9 b83f 6074 08c2 ab05 95c1 5475 1d41
00000260: f493 1642 091d afc1 ea8b 95c1 1314 8541
00000270: e0cb 99c1 da7d 13c1 e7c0 53c2 a2e7 2241
00000280: 5f04 913d 44aa 26c0 cf97 5e3f e2f8 1641
00000290: 80d8 eb40 027a 3bc2 fd40 8141 ce63 acc1
000002a0: a14d 5bc0 97f1 4ac2 244d adc1 8d09 71c1
000002b0: 9fec 3340 d202 f640 cf27 9b41 65bb 05c1
000002c0: cb86 1540 f156 83c0 040a 89c0 9913 acc0
000002d0: 905e 5440 c570 c4be 19cd ed40 7904 5cc0
000002e0: c296 98bf bf92 2040 7a2f afc1 fd6b a741
000002f0: bed4 a240 42de 04c0 3805 bec0 1b01 2041
00000300: c6c7 7140 e65a 11c1 82ac 15c1 59f0 8441
00000310: 349e 9641 4691 45c1 c32c c540 47de 0141
00000320: 131c f4c0 e9ab 85c0 bf70 cdc0 2c7a 8040
00000330: 1da0 c940 6b24 eec0 85c2 20c1 3a6a c5c1
00000340: aad0 0841 2f28 57bf 75a2 57c2 4b62 97c0
00000350: 926a 96c0 d4a1 f540 2d84 9ac1 67f0 adbf
00000360: 4ffd 4d40 1920 04c2 8ff9 50c1 fad3 84c1
00000370: b3fe a2c1 c244 8f41 d52a 11c0 cc32 68c2
00000380: cd7f 9a41 0ee9 3341 0fba 93c0 d3fd d8c0
00000390: 2e1b 81c0 56c9 cf41 8d48 8641 5b93 0ac1
000003a0: 2790 6f40 b7e3 9dc0 f0ec 9e41 91d3 6bc1
000003b0: 7b48 42c0 c15b 0a40 f101 26c2 4b68 a13e
000003c0: 9dee fcbe 6531 e4c1 3742 d8c1 add1 24c1
000003d0: 3e7c 52c2 1189 80c2 839f 87c0 cd41 0dc2
000003e0: 3b5d 2241 4572 0b41 25bc bbc0 1360 1340
000003f0: 48c7 b5c1 5288 8241 1a75 d5c0 e048 b6c1
-21.90599 3.077445 13.937163 6.1635895 3.1046453 4.9948645 -11.927939 0.2921686
-0.6629844 8.584797 -38.3342 17.51099 -8.837334 -0.5549167 17.415165 4.6313863
5.0986204 8.9339485 7.737653 6.669813 12.772228 1.8190261 3.6667795 11.623296
-7.192421 -42.629227 3.896287 -5.3211784 8.962883 1.5511988 4.0610323 0.018847495
9.055954 7.813611 -34.44007 9.689297 29.220259 14.9282055 6.1560097 20.887392
5.195188 -17.90116 -7.3106923 -21.107624 -5.530467 13.3607645 -17.588873 4.2540555
-20.365614 15.719224 -29.738777 22.61599 15.335915 -13.072304 3.6660635 10.620375
-17.248127 -13.079763 22.872696 10.608383 8.161463 -0.79971117 8.941986 -33.61527
-6.3176303 21.069073 -28.030682 -1.6616791 -8.784816 -11.918903 0.6114675 -9.619205
9.445199 6.971138 -7.999192 -21.547655 17.675419 -7.1127257 -6.205754 22.744587
-5.818711 -39.408207 -9.217499 5.4747005 20.367327 2.8978248 6.975283 -7.5251374
17.350504 12.00662 -4.038434 -5.4818 21.148773 -8.978839 2.7504358 -9.848887
-54.676403 -32.56175 -0.55424243 -14.020143 6.283497 8.378119 3.4349797 -4.144521
6.200851 0.8702896 5.140645 -8.226691 -21.401615 26.175165 -11.274086 -0.8511231
10.297356 10.953267 -1.9081212 10.680164 11.865967 -1.2617909 -7.219627 -1.6742136
19.489841 -25.071465 -18.591753 -0.87773114 4.125951 8.308566 -5.060687 -0.8838181
-32.003197 -12.331318 20.897692 -13.480593 23.412325 10.284995 -3.6880841 8.265185
-25.841183 -20.262579 -7.2502494 -17.493637 -42.987507 -2.536256 18.145954 -17.09965
-2.5279477 12.586496 19.856083 -0.50196946 1.4451272 -34.113647 -18.627768 9.841145
37.644485 -21.889177 -18.693317 16.634802 -19.224548 -9.2182255 -52.93838 10.181551
0.07080912 -2.6041422 0.8695039 9.435762 7.370178 -46.86915 16.156733 -21.548733
-3.426613 -50.735928 -21.662666 -15.064832 2.8113172 7.6878443 19.394438 -8.358251
2.336352 -4.104363 -4.2824726 -5.3773923 3.3182716 -0.38367286 7.4312863 -3.437773
-1.1921008 2.5089567 -21.898182 20.927729 5.0884695 -2.0760655 -5.938137 10.00027
3.7778182 -9.084692 -9.354616 16.617357 18.827248 -12.347967 6.161714 8.116767
-7.628427 -4.177235 -6.420013 4.0149136 6.300795 -7.4419456 -10.04749 -24.676868
8.550943 -0.8404569 -53.90865 -4.7307487 -4.700509 7.6760044 -19.314539 -1.358899
3.2185857 -33.031345 -13.060927 -16.603504 -20.374365 17.908573 -2.2682393 -58.049606
19.312403 11.244398 -4.616462 -6.7809844 -4.034568 25.973309 16.785425 -8.660975
3.7431734 -4.934047 19.865692 -14.739152 -3.0356739 2.1618502 -41.501896 0.31524882
-0.49400797 -28.524118 -27.032331 -10.30119 -52.62133 -64.26771 -4.2382216 -35.31426
10.147761 8.715398 -5.866717 2.302739 -22.722305 16.316563 -6.6705446 -22.785583

l4/W f4 [64, 256]
00000000: 3ada 6a42 f61b 5e42 6cbd 4342 a358 c542
00000010: da81 1742 d962 6542 eb88 7d42 d9c3 5742
00000020: 0a12 4842 9129 6e42 8d62 6d42 6318 6342
00000030: 2f8c 6942 9bf9 7f42 2f69 5a42 e6c2 5a42
00000040: d805 7c42 cf69 5a42 f89a 4942 e146 6c42
00000050: e5b1 6042 d629 3942 2ffe 5742 276e 3742
00000060: 51fc 6342 c4f5 4142 43b2 8242 296f 8442
00000070: a627 7c42 7855 5142 8228 b242 8ee2 6f42
00000080: ed3b 6442 44a3 5442 d1e6 7142 9340 2240
00000090: 3c09 6642 56a7 3742 b283 7b42 ed6a 4742
000000a0: 5568 2242 049e 4c42 6322 9442 291c 7042
000000b0: d7b2 8242 1a10 5542 441a 2a42 176f 4542
000000c0: 3774 7d42 24c1 bd42 15b8 3542 0b8a 9342
000000d0: d6a2 5742 a689 5542 de66 8442 5026 ca42
000000e0: 940e 6842 80f0 af42 48a2 7642 5456 8942
000000f0: f647 4642 c00e bc42 2492 7742 4c17 4b42
00000100: 31e7 5642 a64e cb42 b8c5 b542 06e3 4a42
00000110: d3d6 2c42 6833 4d42 586e 7a42 b51a 4a42
00000120: 680a 5342 cffe 5442 2acf 3c42 0014 4342
00000130: fa01 6442 4a9f 3842 37d7 4d42 7419 6442
00000140: 1170 4242 ac3e 6f42 1866 7942 4a7b 8d42
00000150: ee1c 3f42 1cb9 2e42 9ecd 7342 efcc 6e42
00000160: 6834 ba42 5796 bf42 1115 7142 3bf8 3642
00000170: 5e50 7142 c487 5f42 905d 7042 8867 3742
00000180: c316 5d42 53c3 6842 77bf 4342 2975 1c42
00000190: d83d 6442 4827 5142 87b0 6442 0e6a 8842
000001a0: 88a6 5842 5b1f 4342 4d8b 4942 aa05 2f42
000001b0: 8ac9 9342 634c 6742 ad17 8342 9507 5f42
000001c0: 488d 3342 62d2 0c42 a0a4 0a42 b6e6 2842
000001d0: 3569 6e42 1d9a 4442 561a 7842 0aa0 6042
000001e0: 2551 4d42 9875 3c42 3d17 5f42 af84 3742
000001f0: ad44 6342 7706 6a42 ff79 6142 3219 5942
00000200: 123c 6342 6b9d 4042 ac67 5342 04fb 8542
00000210: 7bc6 4e42 d12c fd41 c7bc d641 b31e 0942
00000220: f92d 6241 278a 8942 f886 5942 4820 5642
00000230: 00cb 4f42 11e2 7f42 3639 6742 85b0 4942
00000240: 062e 4042 656c 3142 fea2 5042 d8bc 4a42
00000250: 7e74 4f42 e787 7242 3592 1e42 a9aa 7c42
00000260: a28a 8042 b54a 7342 913d c041 5d76 3842
00000270: 8f11 5e42 34af 8242 6205 4642 154a 5442
00000280: 3804 1042 85a6 2d42 64a9 4842 351f 8842
00000290: 8c7f 2d42 8cad 5d42 45da 6142 54e1 3042
000002a0: 5a89 8142 5aa7 b442 c6d8 6942 fa13 5942
000002b0: 20b9 9a42 dbd4 7a42 8013 4542 9484 8b42
000002c0: 20ef 5f42 92b5 5942 ed00 3d42 50a6 2242
000002d0: ba3e a342 46d9 7e42 4be0 0742 78be 6842
000002e0: 3b8e 8842 a347 3d42 91b4 7142 e76c 4442
000002f0: 670c 7942 f095 6b42 50f1 7742 03be 5342
00000300: 52ac 1a42 0fce 4e42 42f3 3142 b034 7042
00000310: c1b2 6342 e11d 4d42 e237 5e42 1baf 6442
00000320: 9e80 3e42 be98 7842 7c59 7642 55e4 2342
00000330: 4f4f 8342 9e42 a342 b420 7f42 ed6a 2c42
00000340: 4f1f 8542 3a25 6942 9e3c 4942 f56b 2a42
00000350: d39a 5742 d8b7 6f42 8837 7742 99da 5142
00000360: 450c 6542 c35e 6d42 6e15 5742 815a 7942
00000370: 34c5 d041 38cc 6542 4943 6542 9529 6942
00000380: 68d5 6742 d443 3242 b48b 6b42 80d7 6642
00000390: 4024 6942 3c05 2842 f13e 4e42 97bd 3a42
000003a0: 06a5 6742 7c15 4842 329f 6c42 05cd 2142
000003b0: f831 1d42 4b72 6e42 65dd 7542 bf57 cf42
000003c0: 3045 8142 7a02 4a42 13b6 8242 f6a8 6242
000003d0: 5ffb 8042 4b1d 3842 a7c3 6642 43e1 4042
000003e0: 9997 1442 1312 7642 ef8b 2d42 49b4 bc42
000003f0: fe4a 3e42 4e03 4942 d50e 7542 e5cb 7842
58.71311 55.527306 48.934982 98.67312 37.87681 57.34653 63.38371 53.941257
50.017616 59.540592 59.34624 56.773815 58.386898 63.993755 54.60272 54.69033
63.005707 54.60333 50.401337 59.069218 56.173725 46.290855 53.998226 45.85757
56.996403 48.490005 65.34817 66.21711 63.03872 52.333466 89.07912 59.971245
57.05852 53.15944 60.475407 2.5351913 57.509018 45.913414 62.87861 49.85442
40.601887 51.154312 74.06716 60.0275 65.3493 53.265724 42.52565 49.358486
63.36349 94.87723 45.429768 73.769615 53.90902 53.384422 66.20091 101.07483
58.014236 87.96973 61.658478 68.66861 49.570274 94.02881 61.892715 50.77275
53.725773 101.65361 90.88617 50.721703 43.20979 51.3002 62.607758 50.52608
52.760162 53.248837 47.20231 48.76953 57.00193 46.155556 51.46017 57.024857
48.60944 59.811203 62.3497 70.7408 47.77825 43.68077 60.950798 59.70013
93.102356 95.79363 60.270573 45.742413 60.328484 55.882584 60.09137 45.851105
55.27223 58.190746 48.936977 39.114414 57.060394 52.28836 57.17239 68.20714
54.16263 48.78062 50.386036 43.75553 73.89363 57.824596 65.54624 55.757404
44.88797 35.205452 34.660767 42.225304 59.60274 49.1505 62.02572 56.15629
51.329243 47.114838 55.772694 45.879574 56.817066 58.506313 56.369137 54.274605
56.808662 48.15373 52.851242 66.990265 51.69383 31.646883 26.842176 34.27998
14.136224 68.76983 54.381805 53.531525 51.948242 63.970768 57.80587 50.422382
48.044945 44.355854 52.159172 50.684418 51.86376 60.632717 39.64278 63.16666
64.27077 60.822956 24.030062 46.11559 55.517147 65.34219 49.505257 53.072346
36.00412 43.412617 50.16542 68.06095 43.374557 55.41948 56.463154 44.220047
64.768265 90.32686 58.461693 54.26951 77.36157 62.707867 49.269043 69.75894
55.98352 54.427315 47.250904 40.662415 81.62251 63.71218 33.969036 58.186005
68.277794 47.319958 60.426334 49.10635 62.26211 58.896423 61.985657 52.93556
38.66828 51.70123 44.487556 60.051453 56.924564 51.27918 55.554573 57.171
47.625603 62.149162 61.587387 40.97298 65.6549 81.63011 63.781937 43.10442
66.56115 58.286354 50.309196 42.605427 53.901196 59.929535 61.80423 52.463474
57.261982 59.34254 53.770927 62.338383 26.09629 57.449432 57.31571 58.290607
57.958405 44.56624 58.88643 57.71045 58.2854 42.00511 51.561466 46.685146
57.911156 50.02098 59.155464 40.450214 39.298798 59.611614 61.466206 103.67138
64.63513 50.50242 65.35561 56.665 64.49096 46.028606 57.691067 48.219982
37.148045 61.51765 43.386654 94.35212 47.573235 50.253227 61.264484 62.199116

l4/b f4 [64]
00000000: e0f9 c3c2 34fd c3c2 a6fb c3c2 8cf9 c3c2
00000010: e7fb c3c2 d3fa c3c2 22fc c3c2 08f9 c3c2
00000020: 0ffd c3c2 6dfb c3c2 97fa c3c2 d200 c4c2
00000030: d712 c4c2 c200 c4c2 4bfd c3c2 c3f9 c3c2
00000040: 2ef9 c3c2 160a c4c2 f100 c4c2 e0f8 c3c2
00000050: 9d02 c4c2 57fc c3c2 dc01 c4c2 2aff c3c2
00000060: 93fb c3c2 8ff8 c3c2 2cfc c3c2 c6f8 c3c2
00000070: 78fb c3c2 87f7 c3c2 81fe c3c2 79fd c3c2
00000080: 4dfa c3c2 aefa c3c2 bbfe c3c2 2cff c3c2
00000090: 21ff c3c2 7dfe c3c2 dbfe c3c2 bcfb c3c2
000000a0: 2cfd c3c2 fc01 c4c2 24f7 c3c2 7a02 c4c2
000000b0: cf00 c4c2 6ffc c3c2 7ff6 c3c2 3bfd c3c2
000000c0: 3900 c4c2 9df8 c3c2 76ff c3c2 c1fd c3c2
000000d0: 5cfd c3c2 1003 c4c2 84ff c3c2 bcfb c3c2
000000e0: 91f9 c3c2 c6fa c3c2 5efa c3c2 adfd c3c2
000000f0: baff c3c2 abf8 c3c2 1ffd c3c2 26fc c3c2
-97.98804 -97.99454 -97.9915 -97.9874 -97.992 -97.98989 -97.99245 -97.98639
-97.994255 -97.991066 -97.98943 -98.0016 -98.0368 -98.00148 -97.99471 -97.987816
-97.98668 -98.0197 -98.00184 -97.986084 -98.005104 -97.99285 -98.00363 -97.99837
-97.991356 -97.985466 -97.99252 -97.985886 -97.99115 -97.98345 -97.99708 -97.99506
-97.98887 -97.98961 -97.99752 -97.99838 -97.9983 -97.99705 -97.997765 -97.99167
-97.99448 -98.003876 -97.9827 -98.00484 -98.00158 -97.993034 -97.98144 -97.99459
-98.000435 -97.98557 -97.99895 -97.99561 -97.99484 -98.00598 -97.999054 -97.99167
-97.987434 -97.98979 -97.989 -97.99546 -97.999466 -97.98568 -97.99438 -97.99248

l3/W f4 [256, 256]
00000000: d6d6 5fc0 a5f4 2cc2 49e9 10c1 1109 8ac0
00000010: e1db bd40 5611 2342 7f68 8440 8688 6c3e
00000020: cddf 6741 a16a 6e40 fde6 df41 831d 8741
00000030: 8b0f 343e 3a30 a941 0d0c db3f 4a2d 79c0
00000040: 7e8a 5a41 6341 02c2 55c9 25c1 6ac2 17c2
00000050: 6e07 74c2 0b1a e4c1 eb9b 7d41 4d7e e240
00000060: ac8a 31c0 564e 7c41 6ef1 0b41 bc7f 5bc2
00000070: b108 6641 c13c f9c0 89ca 87c1 2fca 2f3f
00000080: faf5 ae40 d21e c040 5f69 eac1 6ba2 f540
00000090: d2c3 80c2 e021 8e40 1911 9ec1 355e 7e40
000000a0: 22aa 2541 e692 d4c0 1aa2 aac1 9dc4 ab41
000000b0: 1edb 0041 f31d ed41 094a 5cbf 0a28 c641
000000c0: c4a5 c1c0 3e0b 2b41 6fdf 0c41 b864 a4c1
000000d0: 6323 9ac1 0189 5441 44ec 30c0 f156 54c2
000000e0: 4f8c b841 33da 71c1 3c7a a2c1 5a70 c441
000000f0: c06d bf41 813e d5c1 2fed fdc1 616a cec1
00000100: 3a6e 33c1 7435 4041 288b 19c2 91ba 69c0
00000110: b46d af3f 9a39 acc0 0457 96c1 5523 d041
00000120: 710b a341 b70a e93f 72e7 11c2 aa3e 66c1
00000130: d54f b2c0 27c9 a0c0 abe4 d4c1 f8ed 8c41
00000140: a086 d7c0 c689 96c1 3b23 acc1 c39a 09c2
00000150: e16f bbc1 ee71 e440 e7d7 bcc1 e18d 1441
00000160: 45c0 3bc1 f5e5 73be c48b 2641 7a87 d841
00000170: fd88 3441 0fa9 c3bf 077d 1a41 25fc 71c1
00000180: 5f49 2941 e40c c33f 2b1b 33c2 b9cc 2141
00000190: f319 90c1 47b9 a8c1 7302 4242 b27b 73bf
000001a0: ab5b a3c0 e668 73c1 f5ba 2b42 e661 c540
000001b0: 7059 afc1 af1f 04c2 4dd9 3b40 716f 8b41
000001c0: b56c b5c1 f6a8 67c2 b99a 8541 09e2 04c2
000001d0: 52da 6e41 2d9b 1642 22f4 6541 134e 3bc1
000001e0: 31e1 86c1 9a46 18c1 788d c0c0 edeb 69c1
000001f0: 699f aa41 5f7a f0c1 4a69 abc1 0bfd 6641
00000200: 33a0 f641 fc2d 92c2 c682 5c41 667f 4cc1
00000210: d949 2cc2 b8ac b141 c88b 43c2 3eac 0241
00000220: ab51 e840 b7d4 6941 d4bb d5c1 6c95 43c1
00000230: 8935 3f41 4294 6bc1 152f a4c0 cea5 e7c1
00000240: a53b 45c2 fc36 ebc0 ae1f 3240 9b5f 8ac2
00000250: acde c340 8590 fe40 0807 f2c1 2547 76c0
00000260: e4fe a9c1 6908 7041 407e dfc1 9ce0 12c1
00000270: 0780 cf3f 61e2 10c1 64f6 bb41 262e 03c1
00000280: 6675 24c2 0d00 08c1 3da4 38c2 8b64 6641
00000290: aa91 8bc2 abc2 9ec1 5d95 1cc2 7a06 1dc0
000002a0: a37a a0c2 84d4 2ac2 655c 00c2 f5bb ad40
000002b0: 0057 0c42 2ed6 f2c1 f2a6 8c40 d88e 18c1
000002c0: bc5c cb3f e627 2bc1 828a 6e41 5c43 39c2
000002d0: a7ef 89c2 1f65 ebc1 bc13 e041 82d8 0bc2
000002e0: 796e 3942 9985 ecc1 a400 e540 b592 8ec0
000002f0: 48eb 76c1 0df0 a1c1 415d 01c0 9b26 b841
00000300: 37e7 58c0 31d9 0c40 7756 d440 ba63 8840
00000310: 7333 58c1 4895 8941 97b4 88c2 7663 0842
00000320: f8fb 78c1 1195 e7c0 e28e cb40 53e9 f341
00000330: 00ab 3bc2 f710 8b41 2af8 8541 252e edbc
00000340: a70f 1dc1 32ef dbc1 c1b1 2bc2 2277 0ec0
00000350: 0c7f 4e40 cdfa f641 90f8 f541 7c7e 3b40
00000360: 0396 e640 5c8a 75c2 4b5c a0c0 f83a 10c1
00000370: af36 0ec2 19fa 52c2 ea1b 52c1 af07 80c1
00000380: 69c3 2cc2 5b3a b4c0 ed8f a5c1 b4bd a840
00000390: cf7b 3141 3a0a 6b41 a5ba 7a41 6cf3 5cc1
000003a0: 070c 8141 e042 0141 0378 c0c1 d242 1641
000003b0: 45cb 1a40 8d42 1bc1 86c4 15c2 9b60 94c1
000003c0: 223c b4c1 48bf 05c1 6de1 69c2 7d2b 6142
000003d0: 6e32 4341 4ba7 f7be ec90 4a41 dba3 9cbf
000003e0: 9e3e 29c2 f2b7 3341 4483 4a41 d869 35c2
000003f0: c1fe ca41 e5ab 5ec1 ce28 2742 a768 0641
-3.4974875 -43.23891 -9.056954 -4.3136067 5.9330907 40.76693 4.137756 0.23098955
14.492139 3.725258 27.987787 16.88941 0.17584054 21.148548 1.7113053 -3.8933892
13.658812 -32.563854 -10.361653 -37.939857 -61.007256 -28.512716 15.850566 7.0779176
-2.7740889 15.769125 8.746443 -54.87474 14.377122 -7.7886662 -16.973894 0.6866788
5.4675264 6.0037622 -29.30145 7.6760764 -64.38246 4.441635 -19.758348 3.9745
10.354036 -6.642932 -21.329151 21.471003 8.053495 29.639624 -0.8605047 24.76955
-6.051485 10.690245 8.804549 -20.54918 -19.267279 13.283448 -2.7644205 -53.084904
23.06851 -15.115771 -20.309685 24.55486 23.928589 -26.65552 -31.740812 -25.801943
-11.214411 12.01305 -38.385895 -3.652012 1.3705354 -5.3820314 -18.792488 26.017252
20.380587 1.8206395 -36.47602 -14.390299 -5.572245 -5.0245547 -26.611654 17.616196
-6.7351837 -18.817272 -21.517202 -34.401134 -23.429628 7.1389074 -23.605421 9.284638
-11.734441 -0.2381819 10.409122 27.06615 11.283444 -1.5285968 9.655524 -15.124059
10.580413 1.5238309 -44.77653 10.112481 -18.01267 -21.090467 48.50239 -0.9511062
-5.10494 -15.21311 42.932575 6.1682005 -21.91867 -33.03094 2.935138 17.429415
-22.67808 -57.915 16.700548 -33.220737 14.928301 37.65154 14.372103 -11.706561
-16.859957 -9.517237 -6.017269 -14.620099 21.327837 -30.059752 -21.42641 14.436778
30.828222 -73.08981 13.781927 -12.781103 -43.072117 22.209335 -48.886505 8.167051
7.259969 14.614432 -26.716713 -12.22398 11.95057 -14.723696 -5.1307473 -28.95596
-49.308247 -7.350462 2.7831836 -69.18673 6.1209316 7.9551415 -30.253433 -3.8480923
-21.249458 15.002053 -27.936646 -9.179836 1.6210946 -9.055268 23.495308 -8.198767
-41.114647 -8.500012 -46.16039 14.399547 -69.7845 -19.845053 -39.145863 -2.4535203
-80.239525 -42.707535 -32.09023 5.429194 35.08496 -30.35458 4.395379 -9.534874
1.5887675 -10.697241 14.908815 -46.31578 -68.96807 -29.424376 28.009636 -34.961433
46.357883 -29.565233 7.156328 -4.4554086 -15.432442 -20.242212 -2.0213168 23.01885
-3.3891122 2.2007563 6.635555 4.2621737 -13.512561 17.197891 -68.352715 34.09713
-15.561516 -7.2369466 6.3611917 30.488928 -46.916992 17.383284 16.746174 -0.028952667
-9.816321 -27.491795 -42.923588 -2.2260213 3.2265043 30.872461 30.746368 2.929595
7.205812 -61.385117 -5.011266 -9.014397 -35.553402 -52.744236 -13.131815 -16.003752
-43.19083 -5.6321235 -20.695276 5.273157 11.092727 14.689997 15.6705675 -13.809429
16.130873 8.078827 -24.0586 9.391314 2.4186566 -9.703748 -37.441917 -18.54717
-22.529362 -8.3592 -58.470142 56.29247 12.199812 -0.48369822 12.660381 -1.2237505
-42.31115 11.232409 12.657047 -45.353363 25.374392 -13.916966 41.78985 8.40055

l3/b f4 [256]
00000000: 9783 1240 31da e2bf 9577 a63e 83e4 9ac0
00000010: 62cc 9c41 c1ca d741 61f2 6e41 db1e dc40
00000020: dc43 2841 738d 8040 7f65 93c0 5af0 1641
00000030: c13c 9a3f 49c7 4240 a59a 8040 2012 5541
00000040: 80dc e1be 17fe 1741 03e0 3341 8b69 da40
00000050: 5315 8b40 60db 58c0 91d1 ec41 afd1 0941
00000060: 76f2 d240 11c6 1140 b557 8d3f 07b3 6d41
00000070: 8747 0d3f 9e7b c840 2e30 2040 41ee 3b41
00000080: 1bff c1c0 0e30 f840 779a 9b3e 5d2c 9242
00000090: e288 8c40 c120 88c0 dbf7 3f3e 9120 36c0
000000a0: 2e71 a940 a2a3 1a41 9860 1d41 b70c 1f41
000000b0: d0dc b9c0 1534 2c41 d42f fc41 daef 1e41
000000c0: a8ac ff3e 7024 98c0 ccc8 5641 55a4 4bc0
000000d0: 02b6 21c0 7134 35c0 ae09 01c0 5015 cd40
000000e0: 7d1d cb40 46e6 efc0 bcea 2e41 b880 0441
000000f0: 90e1 b641 51bf 893f ba7d 28bf f826 0f40
00000100: e474 6640 6bf1 82bf 1d8f 6040 db7e 3641
00000110: d24b 8d40 c948 5341 818f 2441 d879 1a41
00000120: aaa6 95bf 2cad 6b41 26ba 6340 b1cc 4240
00000130: 30a3 e6bd 5207 9940 c041 9641 8da5 1740
00000140: 0ee5 9c40 e8da 8b3f 3f5b 5a3f 3776 08c0
00000150: 57ba ab40 52d5 bb41 6935 0a41 cb91 3e40
00000160: f9f1 8140 8fd9 0ec1 f9a4 e940 0434 7141
00000170: 83df 5140 8e14 4a41 9581 ca40 f1fb 1a41
00000180: 9bbe ba41 c25c fdbe 05f2 4641 45f9 b940
00000190: 7928 0141 145a 6741 1795 5340 4212 3941
000001a0: a83d 11c0 e119 a940 dbfe 6b40 3f5d e541
000001b0: dd10 3941 f16e 0dc0 c2b1 03c1 0908 e840
000001c0: 3cab 6a3f 5ca8 cc40 9958 0f42 3621 0741
000001d0: 8af9 9641 afe7 8341 8088 5ac0 48d0 9640
000001e0: 652e 5c41 4d91 da40 9af8 63c0 4c8e 4440
000001f0: 8f13 41c0 002e 3fbf f1e9 643f 2e93 e03e
00000200: bab4 4e41 4c30 8641 74d7 5540 ab67 a540
00000210: a111 3c3f 5ef0 4a41 1987 2642 5310 e741
00000220: 88f7 a03e 7765 42c0 db5d f640 3bc0 24bf
00000230: 8625 0541 4d6f 1fc0 ac17 c740 4807 1241
00000240: 102f 5f41 1c33 7240 4c59 4140 33ee 63c0
00000250: 9dd7 8e41 f443 bf3f 08fe 4841 8dc1 1641
00000260: 0932 6741 f046 fa3e 076f f241 b4ba 10c0
00000270: 3d5f aa40 331a 5041 613d 21c0 0abf 083f
00000280: b4f1 5041 37f8 d841 4747 5440 abc2 2541
00000290: 2666 9541 e2ec fe40 211a 9240 9edf 3441
000002a0: cedb a5c0 1793 8541 bb48 0ebf 1d95 6841
000002b0: be66 1441 3bb9 e8c0 3f94 0841 c703 7041
000002c0: 7357 8340 6502 1241 1966 2841 9e1e 0b41
000002d0: ea39 5441 bc8f 9e41 b053 e341 f149 af3f
000002e0: 1768 fa40 d995 b740 f59d b840 2148 ba40
000002f0: 941f 8140 d4f9 98c0 4a12 b23e 362b 7840
00000300: e117 f240 016b 66c0 7965 df41 bc47 1bc0
00000310: 4b8d 4341 dd41 7a41 99c0 2fc0 085e a740
00000320: 1b87 7740 fc33 aa40 e2fb f93d c7b5 2341
00000330: 54d5 4b40 1ee3 8a40 0038 9841 c5b6 f441
00000340: 7028 3c40 7d5a 1941 3863 ef41 81dd 3a41
00000350: 22fd be40 0c1c 5441 f632 3bbf 5bda 0842
00000360: 620d e040 2859 9f40 a4b3 9a3f a57a 8941
00000370: 739d 7142 0eed a541 60c8 e1be e4ce 2dbf
00000380: a463 7d41 7bcf 31c0 5ac6 8341 5abe 4841
00000390: 5dde a2bf 3dbf b740 d833 0dbf 2d13 283f
000003a0: b21e 4d40 7f8a 1641 ed01 0641 1770 543f
000003b0: 716f 21bf 0008 9e40 75ef 0941 ca1c 553f
000003c0: 9a63 acc0 a42c 06c1 40d8 0041 98e5 bf40
000003d0: b697 6341 9d87 4641 50bb c7c0 cd5f 4041
000003e0: 1b06 e641 9b7b 7c40 5910 2841 750a f141
000003f0: e7a7 1541 1cb8 23c0 6511 f040 e393 09c0
2.2892816 -1.7722837 0.3251311 -4.8403945 19.599796 26.974 14.934175 6.8787665
10.516567 4.0172668 -4.6061397 9.43368 1.2049791 3.0434134 4.0188775 13.316925
-0.4411354 9.499534 11.24219 6.8253837 4.346353 -3.3883896 29.602327 8.613692
6.5920973 2.277714 1.1042391 14.856208 0.5518727 6.26509 2.5029407 11.745667
-6.062391 7.755866 0.30391285 73.08665 4.3917093 -4.2539983 0.18746893 -2.8457377
5.295066 9.664949 9.836082 9.940604 -5.8082047 10.762715 31.523354 9.9335575
0.49936414 -4.754448 13.424023 -3.181905 -2.5267339 -2.8313258 -2.0162158 6.4088516
6.3473496 -7.4968596 10.932308 8.281425 22.860138 1.076151 -0.65816844 2.2367535
3.6008844 -1.0229925 3.508735 11.405971 4.4155054 13.20527 10.285035 9.654747
-1.1691487 14.729778 3.5582366 3.0437434 -0.11261594 4.7821436 18.782104 2.3694794
4.902961 1.092618 0.8529548 -2.1322153 5.3664966 23.47916 8.63804 2.9776485
4.0607877 -8.928115 7.3013883 15.075199 3.279267 12.630018 6.328318 9.686509
23.34307 -0.4948483 12.434087 5.8116784 8.072381 14.459492 3.3059747 11.566957
-2.2693882 5.284409 3.6874301 28.67053 11.566617 -2.2098963 -8.230898 7.250981
0.9166753 6.3955517 35.83652 8.445608 18.871845 16.488127 -3.4145813 4.712925
13.761327 6.830237 -3.5620484 3.071185 -3.0168188 -0.74679565 0.89419466 0.4386229
12.919123 16.773582 3.3412752 5.168905 0.734644 12.683683 41.63193 28.88297
0.3143885 -3.037443 7.698957 -0.6435582 8.321661 -2.4911683 6.2216396 9.126778
13.94899 3.7843695 3.0210752 -3.5614135 17.85528 1.4942613 12.562019 9.422254
14.449716 0.48882246 30.304213 -2.2613955 5.324126 13.006396 -2.5193713 0.534165
13.05901 27.121199 3.3168504 10.360026 18.674877 7.9664164 4.5656896 11.304594
-5.1830816 16.696821 -0.5557973 14.536405 9.275084 -7.272611 8.536193 15.000922
4.104425 9.125585 10.524926 8.694975 13.264139 19.820183 28.415863 1.369444
7.8252063 5.737042 5.769282 5.821305 4.0351048 -4.7804966 0.34779578 3.8776374
7.565415 -3.600281 27.924547 -2.4262533 12.221995 15.64108 -2.7461302 5.2302284
3.8676212 5.3188457 0.12206246 10.231879 3.1848955 4.3402243 19.027344 30.589243
2.939968 9.584592 29.923447 11.679078 5.9684 13.256847 -0.73124635 34.213238
7.0016336 4.9796333 1.2086072 17.184885 60.40376 20.74075 -0.44098186 -0.67893815
15.836826 -2.7782886 16.471851 12.546473 -1.272411 5.7420945 -0.5515723 0.6565426
3.2049985 9.4088125 8.37547 0.82983536 -0.6306067 4.9384766 8.620961 0.83247054
-5.3871584 -8.385899 8.052795 5.9967766 14.224539 12.408109 -6.2416153 12.023389
28.752981 3.9450443 10.503991 30.130106 9.353492 -2.5581121 7.5021234 -2.1496513
