size8/agent_white_122000/model.npz (npz, 608304 bytes, 8 tensors)

l2/W f4 [256, 256]
00000000: 3ce5 1c41 c383 46c1 ffef dcc1 ca85 13c1
00000010: 2171 ecc1 c3ca 8941 6b86 f340 9b52 0841
00000020: 0040 1b41 bdb8 07c1 5433 8841 771f 9a41
00000030: 9dea 94be 0390 05c0 85c2 edc1 d81a cbbf
00000040: 9532 8241 6d80 2cc1 5257 8cc1 5f28 21c1
00000050: de83 9bc1 e98c 1f41 ff70 3c40 8c6d e63f
00000060: df32 93bf ed7d 2ec1 55b7 2440 ba1e 43c1
00000070: 6725 ec41 fa53 1b42 18c7 2841 8786 55c0
00000080: a721 eec0 8753 3340 7dc3 38c1 987a c8bd
00000090: c2e8 ba41 e665 7841 eeae c6c1 2e15 7141
000000a0: f844 83c1 10a8 19c1 0ed8 dec0 8ce8 0ac1
000000b0: 403c d73f c1b9 ed41 624b 8841 f59a a63f
000000c0: 5e24 12c1 ea80 d8c1 a1ab fc40 a93c 173b
000000d0: 126b a540 4a7c c9c1 2a61 8a40 b4d7 4641
000000e0: 97ce 8fc1 276c 88c1 2d4c 6341 c176 0941
000000f0: dd57 02c2 625d 143f 78fb 8440 25a6 22c1
00000100: b171 5cc1 e6ad d4c1 6fe1 bac1 d596 70c1
00000110: 093b 61bf 9b43 ec40 a679 4cc1 c16d 8c41
00000120: b1f0 b341 ba6d 5441 74c1 d0c0 23da 3441
00000130: 043e 893f fae8 a9c1 0e5f c041 2c74 ca40
00000140: f56e 1541 f438 c640 7dc2 a540 4107 41c1
00000150: 3a81 1e40 fab2 5d41 a95b 04c0 f923 ca41
00000160: f1cd c540 e109 88c1 cc83 bebf af23 b8bf
00000170: 3c9a ffc1 8af7 68be e43e 5f40 b12d 7141
00000180: 56d2 eec1 351f b0bf 98b7 9441 5d6e d0c0
00000190: ea3d d7c0 8651 70c2 219e 42c1 946f 17c1
000001a0: 3583 02c2 ee7f 46c1 938c acc1 4799 33c2
000001b0: 7d1d 5241 ff0d 58c2 0474 fd40 569f 9b40
000001c0: 957c b140 4f51 09c1 4597 97c0 c753 0cc2
000001d0: a8a2 abc0 9099 6ac1 3c0d f0c0 26c3 32c1
000001e0: 7eff 27c1 7e8d ebc1 40e9 2740 4761 3cc2
000001f0: afac 5740 2079 c4c1 ba26 ffc0 ced4 5340
00000200: b670 c041 d04d a9c1 6409 e53e 361f e4c1
00000210: c33e 7241 4211 bb41 780c 1341 607f a341
00000220: a9ea 54c2 f918 3ac1 326e 5a41 2416 b8c0
00000230: 7cd6 ffc1 1827 20c1 66eb 21c1 bbf6 cd41
00000240: 7081 a2c1 8e98 51c2 ca9c 1442 8b7a 3b41
00000250: a858 ca41 a700 1341 511c c9c0 1676 6441
00000260: 06c5 db40 ce94 65c1 97cb 8041 ec03 8340
00000270: 53bd ecc0 ae65 08c1 afb3 9a3f 22a8 62c1
00000280: e8a2 08c1 f217 dfc1 afd1 9b41 ab90 9841
00000290: 4c9d 9fc1 42ca 93c1 d072 bfc0 dc54 3841
000002a0: 7380 3bc1 e646 8041 9e20 54c1 a2bd 053f
000002b0: 536d 50bf f76f a741 d223 43c2 b3d9 4240
000002c0: 72f8 8fc1 b2cc 8741 ae38 b640 4b3a 1f41
000002d0: c667 d240 620c 3442 b0a6 77c1 03d8 f440
000002e0: 58fb 6a41 715b 2ac2 a4d9 9dc0 7811 8b40
000002f0: c9ac f7c1 6e5c d441 d47f 8441 5677 a441
00000300: a6f5 ab41 ff43 2940 a77f 4d41 6c99 b040
00000310: c944 ad41 6c53 7641 f6d9 8c41 6458 7041
00000320: 4c12 14c1 8d4f eac1 80a3 e9c1 dd6b f5c0
00000330: 69ec 49c1 79dc b8c1 e3be c6c1 deaf afc1
00000340: 7289 9bc1 2cd4 23c1 9a65 bdc1 34c1 abbf
00000350: 42b4 4ec1 f5c3 36c1 35f5 05c2 32d3 c0c1
00000360: cf01 92bf 3203 913f 7017 8cc1 f2ee 41c1
00000370: fe8d cac0 6aed 0340 3605 96c1 35c3 25c1
00000380: 7eed 65c1 d9fb adc1 f30d 92bf 8861 06c2
00000390: 4477 e3c1 3a08 91c1 949a 9341 e046 4841
000003a0: 0b49 3541 98a1 87c1 9d1b 3641 ec9d 0cc1
000003b0: 3aef 16c1 59bc 9c41 091b 34c0 59cb e4c0
000003c0: 83b5 ff3f 4e88 edc0 08c3 3fc1 ca7a 0541
000003d0: 4c17 08c2 57dc 91c1 bf54 fc41 c3a3 f1c1
000003e0: abf9 fb41 c2b0 f941 a6c3 a141 4456 c3c0
000003f0: a028 a2c1 d8a0 2ac2 99b0 3e40 94b3 3241
9.805965 -12.407168 -27.617186 -9.220163 -29.555239 17.224005 7.6101584 8.520167
9.703125 -8.482602 17.025063 19.265364 -0.29085246 -2.0869148 -29.71998 -1.5867567
16.274698 -10.781354 -17.542637 -10.072356 -19.439388 9.971902 2.9443967 1.8002181
-1.14999 -10.905744 2.5736897 -12.195002 29.518263 38.83201 10.548607 -3.336336
-7.441608 2.801973 -11.547727 -0.09789008 23.363651 15.524878 -24.835415 15.067671
-16.408676 -9.603531 -6.963874 -8.681774 1.6815262 29.7157 17.036808 1.3016039
-9.133879 -27.062946 7.895951 0.0023076928 5.16932 -25.185688 4.324361 12.427662
-17.975874 -17.052809 14.206098 8.591493 -32.585804 0.5795499 4.155697 -10.165563
-13.777757 -26.584911 -23.360075 -15.036824 -0.87980705 7.3832526 -12.779699 17.55359
22.492525 13.276789 -6.523615 11.303256 1.0722051 -21.238758 24.046413 6.326681
9.339589 6.1944523 5.1799912 -12.064271 2.4766374 13.856195 -2.0680945 25.267565
6.1813893 -17.004824 -1.4883971 -1.438589 -31.95031 -0.22750679 3.4882135 15.073655
-29.852703 -1.3759524 18.589645 -6.513472 -6.726308 -60.079613 -12.163606 -9.464741
-32.62813 -12.406233 -21.56864 -44.899685 13.132199 -54.013668 7.920412 4.8632
5.546458 -8.582351 -4.7372155 -35.081814 -5.3636055 -14.662491 -7.5016155 -11.172644
-10.499876 -29.444088 2.6236115 -47.094997 3.3699148 -24.559143 -7.9734774 3.3098636
24.055035 -21.162994 0.44733727 -28.51524 15.140323 23.383427 9.190544 20.437195
-53.22916 -11.631097 13.651903 -5.7527027 -31.979729 -10.009544 -10.11997 25.745474
-20.313202 -52.39898 37.153114 11.717418 25.29329 9.187659 -6.2847066 14.27883
6.8678007 -14.348829 16.09941 4.0942287 -7.398111 -8.524824 1.2086085 -14.166048
-8.539772 -27.886692 19.477385 19.070639 -19.951805 -18.473759 -5.982765 11.520718
-11.71886 16.034618 -13.257963 0.5224248 -0.81416816 20.92967 -48.78498 3.0445373
-17.996311 16.974949 5.694419 9.951732 6.5751677 45.012093 -15.478195 7.6513686
14.686363 -42.5893 -4.9328175 4.3458824 -30.959368 26.545132 16.562416 20.55827
21.494946 2.6447752 12.843665 5.5187283 21.658587 15.395367 17.606426 15.02158
-9.254467 -29.288843 -29.204834 -7.669417 -12.620217 -23.107653 -24.843206 -21.960873
-19.442112 -10.2393 -23.67461 -1.3418336 -12.919008 -11.422841 -33.48946 -24.103123
-1.1406802 1.13291 -17.511444 -12.120836 -6.329833 2.0613656 -18.752544 -10.360158
-14.3704815 -21.747972 -1.1410507 -33.595245 -28.433235 -18.129017 18.450478 12.517303
11.330333 -16.953903 11.381742 -8.788555 -9.433405 19.591967 -2.81415 -7.1498227
1.9977268 -7.4228888 -11.985115 8.342478 -34.02275 -18.232588 31.54138 -30.204962
31.496908 31.211308 20.220531 -6.1042805 -20.269836 -42.657074 2.9795287 11.168842

l2/b f4 [256]
00000000: b372 6441 0a01 6341 fe1a 1041 bc45 bb41
00000010: 548b fd40 4e03 ae41 fe14 863e eaf5 82c0
00000020: 55eb 6b41 10d0 65bf 6a70 cb3f e4e5 1e41
00000030: 090e e13e 1de8 abbf 658b 8f40 a427 2e3c
00000040: 87ae 21bd 6873 6e41 2353 4041 4694 56c1
00000050: 602d d740 59f0 e741 3886 8f41 fc5a cabf
00000060: e73a 2f40 cffb bdbf 0425 5140 87c7 f440
00000070: 4eab 3a41 4664 31c0 3fcc b841 483c 3241
00000080: 96fd a841 e06c 8541 dd85 6c41 ba08 2e3f
00000090: 53c9 47c1 f799 5641 f643 90c0 6896 6741
000000a0: 3d2f ff40 23d6 7341 3d16 8441 8d2d 67c0
000000b0: 091c 5841 8823 9e41 113a 75c1 a843 6941
000000c0: 1213 1ac1 ad5e ecc0 ec2b f741 a083 7dc1
000000d0: 721f 7f41 3e4b 9241 0693 6a41 1995 4bc1
000000e0: 0cdf 3ac0 3367 6541 f9da 6240 f72f 273e
000000f0: 9aac 3541 733e f3c0 1522 ddc0 82f1 22c0
00000100: 030f 3a40 65ba bfc0 dd79 7840 5203 ab41
00000110: a183 a7c0 cf8b 03c1 aac0 eb40 5c32 e140
00000120: ac17 0e41 b2c4 38c1 be61 36c1 66b2 9041
00000130: 3aee f1c0 6a8e 28c1 070b 6d41 c312 3241
00000140: acc8 b841 2881 9441 f4ca 8f41 9a81 7a41
00000150: eea1 7141 fecc e4c0 04e6 1d40 f7a3 0ac1
00000160: eaae 6fc1 2bc9 3fc0 0048 12c0 7f1c db40
00000170: 1180 4bc1 044f 9741 b59a 6ebf 6fb3 2cc1
00000180: d374 20c1 4727 763f cb5e c640 dadf 05bf
00000190: e303 b641 03ac 873f 572b 1941 4b1a 5441
000001a0: 0313 76be 28e1 4d41 1b36 dac0 82be a1bf
000001b0: 2dc1 da41 fd6f a441 75ef 4840 2a5f a541
000001c0: ebc1 a241 5e6e 8c41 e316 f1c0 8b6e a341
000001d0: 932e 8a41 52f4 a141 4ace 8e40 6e14 9b41
000001e0: 26aa 5941 86ed ab41 6719 f740 c3f1 5b41
000001f0: 511c 6c41 34fd 8541 1783 9441 57b5 4f41
00000200: f8cc 3c40 10b1 3241 4e63 4ac1 fb3d 6d41
00000210: 2ca7 6d41 0b37 b541 a63d 0241 d7c3 2bbf
00000220: cccd d041 785f 9741 737f 81c0 d723 8f41
00000230: b10b b740 19df 2ac1 6764 8441 cec9 8741
00000240: 9655 8c41 f086 43c1 c18f 6dc1 82bf 1541
00000250: 673f 7841 5c38 1ac0 dc37 aa41 c3e8 22c1
00000260: cb15 3141 4c6a 4dc0 4f03 1341 64a4 bec0
00000270: 29b4 4a41 bbff 6d41 f008 a941 4349 58c1
00000280: 3c08 8741 611f 1041 3111 55c1 9741 2640
00000290: 61a2 7141 f5dd 22c1 9125 59c1 c68e 7341
000002a0: ea51 b041 fb48 71bf e1b9 9241 f495 6741
000002b0: ea5d 2941 d7d7 f33f 45e2 b1c1 470c 6a3f
000002c0: 7e09 9840 1469 6541 3ecf c5be 5729 5341
000002d0: 86fb 3241 a63a 8841 04d4 b5be c0fc 1740
000002e0: 9c7f 6441 b0a0 6b41 72a7 883f 865c 4a41
000002f0: 6718 4141 ef49 5d41 5ddf 4641 053e 4740
00000300: 633f c0bf dd44 5241 e881 9141 2edf 8041
00000310: fff6 493f c988 3741 ddab bac0 da76 3141
00000320: 326a 8341 f5e8 a03f 2ced 9541 e191 8641
00000330: dc01 a341 6a90 d641 ff5e 4dc1 b1e5 8540
00000340: d973 9dbf 6703 cd41 7b39 9941 c4c5 7940
00000350: 04b6 7b41 9557 2a41 1b6c 9141 5461 7241
00000360: 1dfa 00c0 4b95 9a41 979d 8241 ed1e 1441
00000370: 930c 9441 da7c 8241 9926 5a41 c6a9 a241
00000380: 5ab5 9041 3d35 5741 bef6 b4bf 14ba 2341
00000390: 0643 80c1 ba38 b641 d097 8341 a09c ae41
000003a0: 94c6 c9c0 a6f6 5dbf 1a93 42c0 8e3f 093f
000003b0: 2365 a941 34f3 54bf ed31 3f41 a6ea 45c1
000003c0: 53c4 01c1 c811 09c1 97da 5941 3a98 e041
000003d0: ec39 193e 6274 5cc0 07a8 f040 bbf7 07bf
000003e0: 22f2 9641 00cb 8041 f4e1 c041 e91b 9441
000003f0: dc27 6e41 1048 7041 c2b0 a041 efce 9b40
14.278003 14.187754 9.00659 23.40905 7.923258 21.751614 0.2618789 -4.092519
14.744954 -0.89770603 1.5893681 9.931126 0.4395602 -1.343021 4.485766 0.010629568
-0.039473083 14.903175 12.020297 -13.4112 6.724289 28.992357 17.940536 -1.5809016
2.73797 -1.4842471 3.2678843 7.6493564 11.666822 -2.7717452 23.09973 11.139717
21.123821 16.678162 14.782681 0.67982066 -12.486651 13.412589 -4.508296 14.47422
7.9745164 15.239779 16.510859 -3.6121552 13.5068445 19.76735 -15.326676 14.579018
-9.629656 -7.386557 30.896446 -15.844635 15.945177 18.28674 14.660894 -12.723901
-2.9198637 14.337695 3.544615 0.16326891 11.354639 -7.601373 -6.9104104 -2.5459905
2.9071662 -5.9915032 3.882438 21.376621 -5.234818 -8.221633 7.3672686 7.0373974
8.880779 -11.548021 -11.398863 18.087109 -7.5603304 -10.534769 14.815192 11.1295805
23.097984 18.563065 17.974098 15.656641 15.102034 -7.1500235 2.467164 -8.6650305
-14.980204 -2.9966533 -2.2856445 6.8472285 -12.718766 18.913582 -0.93204814 -10.793807
-10.028522 0.9615368 6.1990714 -0.52294695 22.751898 1.0599369 9.573081 13.256419
-0.2403069 12.86747 -6.8191047 -1.2636263 27.344324 20.554682 3.1396153 20.671467
20.344687 17.55389 -7.534044 20.428976 17.272741 20.244297 4.462682 19.384975
13.60404 21.490978 7.721851 13.746524 14.756913 16.748634 18.564009 12.981772
2.9500103 11.168228 -12.649244 14.827632 14.853313 22.651876 8.140051 -0.670957
26.100487 18.921616 -4.046808 17.8925 5.720177 -10.679467 16.549025 16.973537
17.54179 -12.220444 -14.847596 9.359255 15.515479 -2.40969 21.277275 -10.181827
11.067821 -3.2096128 9.188308 -5.957567 12.668984 14.874934 21.129364 -13.517886
16.87902 9.007661 -13.316697 2.5977533 15.102143 -10.179189 -13.5716715 15.222357
22.039997 -0.94251984 18.340761 14.47411 10.585428 1.9050244 -22.235483 0.91424984
4.7511587 14.338154 -0.38634676 13.197593 11.186407 17.028637 -0.35513318 2.3748016
14.281155 14.72673 1.06761 12.647589 12.068458 13.83055 12.429532 3.1131604
-1.5019344 13.141812 18.18843 16.108974 0.7889251 11.470895 -5.8334794 11.0915165
16.426853 1.2571093 18.740807 16.82123 20.375908 26.820515 -12.835692 4.1842885
-1.2300979 25.626661 19.153067 3.9026957 15.731937 10.646382 18.177786 15.148762
-2.0152657 19.322897 16.326948 9.25755 18.50614 16.310963 13.634423 20.332897
18.08855 13.450498 -1.41378 10.232929 -16.032726 22.777699 16.449127 21.826477
-6.3054905 -0.8670448 -3.0402284 0.536126 21.174383 -0.831836 11.949689 -12.369787
-8.110431 -8.566841 13.615867 28.07433 0.14963502 -3.4446034 7.520511 -0.5311238
18.868229 16.099121 24.110329 18.513628 14.884731 15.017593 20.086308 4.8690104

l1/W f4 [256, 64]
00000000: 9299 7742 d9d2 8bc0 9cb6 05c1 6492 3d41
00000010: 8183 4941 5598 8641 8c0e 5e41 ec9a 643f
00000020: 3e89 88c1 5ce8 5f41 435e 06c2 53cc 9c41
00000030: 78ae dfc1 c9d0 2d41 07d1 cb40 3208 f6c1
00000040: c798 0cc1 dc24 1341 9d3c 0640 455e d5c0
00000050: 29ca 3441 22b8 01c0 9212 1342 f0a0 c73f
00000060: 3ea1 5641 eddd 79c0 1515 8a41 6563 90c1
00000070: 6c1a 44c1 a69d c241 0e2c 2241 6033 4740
00000080: 8d7b 273f 3a06 1e41 157f e840 01fc 90c1
00000090: fe1e 973f 1782 35c1 ea3f c6bf c5b8 6f41
000000a0: 65a6 5041 4e6f 0941 9439 24c1 1dd5 cd41
000000b0: 338f 0d40 0a0c 9b3d 047f b240 3636 a1c1
000000c0: 374c eb40 484e 9141 580d d7c0 b38b f9c0
000000d0: 7c53 2241 0341 8f40 b4cb a7c0 7695 c341
000000e0: 2204 c341 0d07 69c1 4837 04c1 a827 5dc1
000000f0: af1f c540 d7be 68c1 ec73 69c1 f60c 09c2
00000100: cd4a 9441 309a d0c0 b57e 0d42 79b9 55c1
00000110: 522c 5a40 8696 38c2 f6ea a741 985a 2541
00000120: ebef 82c1 fcd6 b9c0 cfed b541 26ab 9ac1
00000130: 74d2 0fc1 4533 24c2 dfb4 3541 8627 85c1
00000140: d3a0 b641 c6aa d5c1 a04d 8240 5cc9 b0c0
00000150: fb0e 3c41 4936 15bf a0d0 9d41 ec0c 25c2
00000160: b2e0 3041 7d48 96c0 7c45 93be 43e5 fec0
00000170: 0c6a 4fc0 0913 5bc1 71c0 38c1 234e c7c1
00000180: 2b76 b1c0 062c 58c1 0aa2 4f41 bfd8 90c0
00000190: bde7 443f 8343 f2c0 c423 f941 f24a bec0
000001a0: 76f0 a7bf 0918 a3c1 88c2 8241 f10c a640
000001b0: 8dd4 b7c0 2583 7341 0dbf 0f42 4c42 85c1
000001c0: 8d1a 78c1 7836 5ac1 0cd1 b4c0 e4e0 3cc2
000001d0: e94b 0241 02cf 5e41 9d2a 3640 6ae3 ecc0
000001e0: d4f9 57c1 5a10 c7c1 4528 11c2 ce88 fcc0
000001f0: 95d3 2e42 9f2f 5c41 9bf9 12be f8e6 a23f
00000200: 8dd9 8741 1db5 cb41 fcdf 973f af94 3041
00000210: 715b 0bc0 53d7 ac41 3102 7dc0 2af1 be41
00000220: 1891 ad41 00be 0040 5bcd cec1 75d6 4740
00000230: b60b 2c41 aebf e841 9f60 8f41 828b 8240
00000240: 9bf9 68c1 4a56 c941 dc4d 96c1 bd29 9d40
00000250: caaa bac0 0198 2541 e619 d041 0789 26c0
00000260: 1ce0 5f42 7e52 cec1 5706 3841 0e6f f240
00000270: baae 05c0 89b5 5441 5498 ebbd c6f1 8ac0
00000280: 8d74 99c1 27e7 8841 990d 27c2 1f5e 503f
00000290: 9779 debe 9158 5041 4379 5cc1 187a a6c1
000002a0: 319e c2c1 f5f5 97c1 0269 5ec0 d53a 39c0
000002b0: 3af6 b440 883a fa40 ebf5 5dbe 2d0c 98c1
000002c0: 417a 04c2 936e 01c2 4ebf 9dc1 5ec4 b340
000002d0: f579 dc41 a8ff 00c1 6fe6 9141 4186 c4c1
000002e0: 56f6 f141 b7d5 4c41 4f28 72c1 5384 0e42
000002f0: 137b 44bb 80b4 cec0 7b76 1141 570b a741
00000300: 6941 01c2 5880 e641 91ae f7c0 fc04 e640
00000310: 2b84 a340 4318 ab41 cd01 d741 b87a 1dc2
00000320: 40d6 1f41 0cec 4dc2 32a9 6fc1 d1dd 0140
00000330: a75c b4c1 5bc8 c841 22ac 1741 815b d9c0
00000340: d9a8 e1c0 420c a9c1 f3a9 5d40 1e35 afbf
00000350: f0b2 0642 614b 0ec0 28da a340 2c7c 31c1
00000360: f6b0 0d41 3549 32c0 d37a 7541 8cfa 86c0
00000370: 1b70 3bc0 ffc4 2041 daf1 9ac0 27ed 8cc1
00000380: 9958 afc1 fba6 e041 df95 9341 f82f 9c40
00000390: 2a5a 0f3f f52a cac0 e6b5 75c1 51a6 7d40
000003a0: 9fcf 0e40 d0fd f6c1 dc8a a1c1 8527 6dc1
000003b0: 5858 a740 1bb8 bb41 aa27 c841 5ecd fcc1
000003c0: b900 bdc1 3ae1 9ec1 7bd2 01c1 41c6 33c2
000003d0: 6a5c 0bc1 09f9 0a42 c5a5 0842 5f1a c1c1
000003e0: b5cb 2fc2 183c 5041 f185 7ec2 dc50 0c41
000003f0: f441 38c2 e5cf a03f d8a0 1942 6be0 85c0
61.89997 -4.3694882 -8.357082 11.84824 12.594605 16.82438 13.8785515 0.8929889
-17.067013 13.994228 -33.592052 19.599768 -27.96019 10.863473 6.369266 -30.754002
-8.787299 9.196499 2.0974495 -6.6677575 11.2993555 -2.0268636 36.768135 1.5595989
13.414366 -3.9041703 17.260294 -18.048532 -12.256451 24.326977 10.135756 3.1125107
0.654229 9.87652 7.265513 -18.123049 1.1806333 -11.34426 -1.5488255 14.98261
13.040624 8.589674 -10.264057 25.72906 2.2118652 0.07570656 5.578005 -20.15147
7.3530536 18.163223 -6.720379 -7.798303 10.145382 4.476686 -5.243616 24.447979
24.377018 -14.564221 -8.263496 -13.822182 6.1601176 -14.546592 -14.590801 -34.262657
18.536524 -6.5188217 35.373737 -13.357781 3.408955 -46.146996 20.989727 10.334618
-16.367147 -5.807493 22.741117 -19.333569 -8.98888 -41.050068 11.356658 -16.644299
22.828527 -26.708385 4.0719757 -5.52458 11.753657 -0.5828596 19.726868 -41.26262
11.054857 -4.6963487 -0.2876395 -7.965486 -3.2408476 -13.692147 -11.546983 -24.913153
-5.545675 -13.510748 12.97706 -4.5264583 0.76916105 -7.570741 31.142464 -5.9466486
-1.3120258 -20.386736 16.344986 5.1890798 -5.744696 15.219518 35.936573 -16.657372
-15.506482 -13.638298 -5.6505184 -47.21962 8.143533 13.925539 2.846351 -7.4027605
-13.498493 -24.882984 -36.289326 -7.8917 43.706623 13.761626 -0.1435303 1.2726736
16.981226 25.463434 1.186523 11.0363 -2.1774561 21.605139 -3.9532588 23.867756
21.695847 2.0115967 -25.850271 3.1224644 10.752859 29.093594 17.922178 4.07953
-14.560939 25.167133 -18.788017 4.911345 -5.8333483 10.34961 26.012646 -2.6021135
55.968857 -25.79028 11.501548 7.5760565 -2.0887895 13.29432 -0.11503664 -4.3420134
-19.18191 17.112867 -41.76328 0.8139362 -0.4345214 13.021623 -13.779605 -20.809616
-24.327242 -18.995096 -3.4751592 -2.8942158 5.655057 7.819645 -0.21675842 -19.005945
-33.11939 -32.357983 -19.71841 5.6177206 27.55955 -8.062416 18.237516 -24.565554
30.245281 12.802176 -15.134841 35.629223 -0.0029980585 -6.4595337 9.091426 20.880537
-32.313877 28.812668 -7.7400594 7.1881084 5.109884 21.386847 26.87588 -39.369843
9.989807 -51.480515 -14.978807 2.0291636 -22.54524 25.09783 9.479525 -6.79242
-7.0518613 -21.130985 3.4634979 -1.3688085 33.674744 -2.2233508 5.1203804 -11.092815
8.855703 -2.7857182 15.342486 -4.2180843 -2.9287174 10.048095 -4.842023 -17.615797
-21.91826 28.081533 18.44818 4.8808556 0.55996954 -6.317744 -15.356909 3.9632761
2.2314222 -30.873932 -20.192802 -14.822148 5.229534 23.464895 25.019367 -31.600277
-23.625353 -19.859974 -8.113887 -44.943607 -8.710062 34.7432 34.161884 -24.137877
-43.948933 13.014671 -63.630802 8.769741 -46.064407 1.2563444 38.407074 -4.183645

l1/b f4 [256]
00000000: b5eb 8bc1 302f e63e 070b 1541 0bcb 5d40
00000010: f259 d6bf 1c3d 0a41 8c0c e0c0 adde 8b3e
00000020: 030d 16c0 b2a3 5a40 f7d3 10c2 77fd 6c41
00000030: ffff fbbf 59c4 09c1 0ece a340 5a71 063f
00000040: 19c8 cf40 a628 fa40 7c00 3d41 e9ca c740
00000050: 2820 6741 feaa 2040 a83d b640 cd90 4641
00000060: e51e 84c0 f6c1 29c2 8657 9a40 9008 8940
00000070: 2fec 2141 78f6 3740 1409 e940 d923 9240
00000080: 5c38 ef40 4f9f 1841 69c6 0fc2 5a3a 0e41
00000090: 445e f641 4fb4 3841 afbe df40 0c7c 8541
000000a0: 3bc7 3b41 d67c 83c1 e3cd 41c1 705f 99c1
000000b0: 77a8 ecc0 1a99 6241 cc29 15c1 708f 26c0
000000c0: 3766 62c1 adbe 2941 f18f 8dc1 6f16 8c41
000000d0: c6b8 3a41 7dda abc0 4c07 fc40 1fe6 7640
000000e0: 9372 90c1 cff3 0ac1 0c78 8541 5a93 8940
000000f0: 0631 7d41 6468 1dc0 36f3 8341 7816 97c1
00000100: 56c8 2440 0c02 5b41 275a 8ec1 7719 24be
00000110: ffe6 1cc0 8950 bcc0 a627 2940 fc32 a9c0
00000120: 2652 4541 17e8 8740 39b7 a9bf e600 9ac1
00000130: 705c 7841 191f ecc0 1455 95bf a4e5 ef41
00000140: 50ce f4be 7ee6 1cc2 6445 03c1 2dd5 c840
00000150: f1f9 1941 8063 2940 14f0 8b3f fe9d 1ec0
00000160: 19df 5441 9d2a 5941 6669 38be 2fee 853e
00000170: d4ed 9741 8900 a5c0 0ae5 a23e 3504 c2c0
00000180: 3b58 22c2 efe7 01c2 e343 fa40 c281 46c1
00000190: ffa1 9240 b290 5341 0655 a740 59d2 31bf
000001a0: d929 1a41 b212 86bd b3fe c3bf 4c2a 4fc0
000001b0: 6f7a 8fc1 80b6 9d41 9d67 a3c0 883a 2abf
000001c0: 3358 b641 31e4 4b41 25ae 91c0 503c 8d3f
000001d0: a82c cb40 a324 983f 22e7 0440 b6ab 173e
000001e0: 5380 9b41 de90 9dc1 f707 a2c1 b6e3 6740
000001f0: 3634 39c0 87d9 d2bf 505b 44c0 eadf bbc0
00000200: f055 02c2 980f fdc0 f840 9041 3326 08c1
00000210: 8ece 9c41 ab98 0e41 8320 cdc0 9a62 5540
00000220: cce5 c4c1 b00d 72c1 13e9 21c1 8518 0fc1
00000230: fc51 f4c1 1e1b 7b3d 7061 9541 e72b 89c1
00000240: 5894 66c0 377e 4341 b54a 3b41 bff1 4cbf
00000250: a89a b740 711d d2c1 bc95 8bc1 8d21 d140
00000260: acdd eb41 e4b9 97c1 9725 3ec1 c307 3041
00000270: e2ad 85c1 d428 ad40 0612 3dc2 1ef1 7541
00000280: 59c9 a33f 44f4 51c0 9fc6 6ec0 c7f9 1f41
00000290: c282 d940 a040 01c2 4184 6241 d527 58c1
000002a0: 30aa bbbf dc7c 23c2 c030 5dc1 a9e3 3fc1
000002b0: 2aa1 5b40 cdf7 0c41 49dc a341 47c7 33c1
000002c0: 2b98 6d40 5638 a03f c005 03c1 c14f 8a3f
000002d0: 3a2e ce40 5e8d ebbf 56b8 0341 c529 79c0
000002e0: f1fc c240 2bec ae40 c929 91c1 6bce 6041
000002f0: 5aa2 a540 cdd1 293f 0ce0 7fc0 1955 dd40
00000300: 8ecb da40 eea7 70bf 1d97 5dc1 81fe 3841
00000310: 2a3b 8841 f9ed 5ec1 a659 dd40 7f59 eb40
00000320: a230 38c1 2bbd 6940 6559 60c0 f79c 8040
00000330: 7543 c240 7270 2cc1 a276 e0c0 eaef e3c1
00000340: 68dc c840 36c7 243f bb58 2ec2 7318 4ebd
00000350: f53a 47c0 6e3b 4e41 a68b edc0 1503 1a40
00000360: 0cb6 8c3f 24f7 cec1 3cd0 f2c0 40a4 7ac1
00000370: cf9f b4c1 9aea 8841 9327 ab3f ab6b 55c2
00000380: 6b70 9041 4b8e 1340 0b36 0040 a746 883f
00000390: 491a 5e3f acdf a741 554e 2141 ffb2 1bc1
000003a0: 7a1a 8240 6283 fbc0 c28e 7241 ecc6 11c1
000003b0: f9c9 84bf 831f aabf 483d 15c2 ff81 0b41
000003c0: ccfa 8b3e 4e4b bdc1 a369 b5c1 c7ff 0ec1
000003d0: 1e88 48c2 720b 68c2 a383 f9c0 2c17 b7c1
000003e0: 3841 3541 0bd1 2041 7523 1cc1 7adc 7ebd
000003f0: 1ab2 98c1 ee72 5841 7897 11c0 40dc aec1
-17.490091 0.44957876 9.315192 3.4655178 -1.6746199 8.639919 -7.0015316 0.27318326
-2.3445442 3.4162412 -36.206997 14.811881 -1.9687499 -8.610436 5.118903 0.5251671
6.493176 7.817462 11.812618 6.2435193 14.445351 2.5104365 5.6950264 12.410352
-4.1287713 -42.439415 4.823184 4.282295 10.120162 2.8744183 7.282358 4.566876
7.47563 9.538894 -35.94376 8.889246 30.796028 11.544021 6.992027 16.68557
11.73614 -16.435955 -12.112765 -19.1716 -7.3955646 14.162378 -9.322704 -2.6025047
-14.149955 10.609052 -17.695284 17.510954 11.670111 -5.370421 7.8758907 3.8577955
-18.055944 -8.684524 16.683617 4.2992373 15.824469 -2.4594965 16.493755 -18.885971
2.5747275 13.688 -17.79402 -0.16025339 -2.451599 -5.884831 2.643045 -5.2874737
12.332556 4.2470813 -1.325904 -19.250439 15.522568 -7.378796 -1.1666589 29.98713
-0.47813654 -39.22509 -8.204441 6.2760224 9.623521 2.646698 1.0932641 -2.478393
13.304467 13.572904 -0.18008956 0.26158282 18.991127 -5.1563153 0.31815368 -6.0630136
-40.586163 -32.476498 7.820787 -12.406679 4.582275 13.222826 5.229129 -0.6946159
9.635217 -0.065465346 -1.5312103 -3.2369566 -17.934782 19.714111 -5.106398 -0.6649556
22.793066 12.743211 -4.552508 1.1034031 6.349201 1.1886181 2.0766072 0.14811596
19.437658 -19.695736 -20.25389 3.6232734 -2.8938117 -1.6472634 -3.0680733 -5.8710833
-32.583923 -7.9081535 18.031723 -8.509326 19.600857 8.912272 -6.4102187 3.3341432
-24.612206 -15.128342 -10.119403 -8.943486 -30.540031 0.061305158 18.672577 -17.146437
-3.6028042 12.218314 11.705739 -0.80056375 5.737629 -26.264376 -17.448112 6.5353456
29.483238 -18.965767 -11.884177 11.001895 -16.709904 5.411234 -47.2676 15.3713665
1.2795821 -3.2805338 -3.7308729 9.998481 6.7972116 -32.31311 14.157289 -13.509725
-1.4661312 -40.871933 -13.824402 -11.993081 3.4317117 8.810498 20.482561 -11.236152
3.7124126 1.2517192 -8.188904 1.0805589 6.443143 -1.8402517 8.232504 -3.8931744
6.0933766 5.466329 -18.145403 14.050395 5.1760683 0.66335756 -3.9980497 6.916638
6.837348 -0.9400624 -13.849393 11.562135 17.028889 -13.933099 6.9171934 7.354675
-11.511873 3.652171 -3.5054562 4.0191607 6.0707345 -10.777452 -7.0144815 -28.492146
6.276905 0.6436647 -43.58665 -0.050316285 -3.1129735 12.889509 -7.423297 2.406438
1.0993056 -25.870674 -7.587919 -15.6651 -22.578032 17.114552 1.3371452 -53.355145
18.054892 2.3055599 2.0032985 1.0646561 0.8675886 20.984215 10.081624 -9.7312
4.065732 -7.859788 15.159853 -9.111065 -1.0374137 -1.3290867 -37.309845 8.719237
0.2733978 -23.66177 -22.67658 -8.937446 -50.132927 -58.011177 -7.797319 -22.886314
11.328423 10.051036 -9.7586565 -0.06222198 -19.086964 13.528059 -2.27487 -21.857544

l4/W f4 [64, 256]
00000000: 3454 5742 55bd 4e42 0a05 3c42 7858 b242
00000010: 9406 1e42 0414 5d42 423b 6c42 4281 4742
00000020: ead8 3b42 7a6a 6e42 7517 5942 5708 6242
00000030: d5d3 6a42 43df 7542 60e7 5842 6483 2a42
00000040: b8ea 6342 1863 4242 48c3 4c42 e146 6c42
00000050: 032c 5142 b910 3c42 6724 5742 9498 0f42
00000060: 9530 4e42 5015 4042 fc1b 6e42 70b5 8242
00000070: 152b 7d42 cb8e 4f42 0a39 a842 cd80 6642
00000080: 6a27 3c42 ffee 5342 db3b 5e42 d765 2c40
00000090: adfa 5e42 e0c6 3542 47cd 7542 a1cc 4742
000000a0: 3ffd 2142 6f64 3342 f513 8442 2b94 5842
000000b0: 79a9 7e42 6c11 4e42 7aa7 0642 eb2d 5342
000000c0: 1b1a 6242 8273 b442 7eb2 3d42 dcbe 8642
000000d0: e76f 5142 a689 5542 c81f 8042 a77b b642
000000e0: d73f 4c42 e9b4 a442 65d8 7742 d5cb 7d42
000000f0: 0d25 2c42 8721 9d42 9772 5e42 6793 4742
00000100: 5ffc 4842 7f93 a642 f25b 9a42 b91a 3342
00000110: 55ea 1042 d29e 3942 cec5 7142 94d9 4442
00000120: 680a 5342 88f6 5242 d770 3b42 0252 3c42
00000130: 92ab 5742 ecd1 3542 fd84 5042 6aba 6042
00000140: 36ae 3f42 dc0a 6042 ac1c 7642 9380 7d42
00000150: b28d 2742 94b3 2842 42dc 7542 4da5 5142
00000160: 156a a042 a482 ae42 28a1 5b42 e886 1b42
00000170: bc37 6b42 ade3 5242 c947 6a42 e1fc 2742
00000180: ea5c 5d42 0ca9 6b42 3d69 3f42 98ca 0642
00000190: 01f1 6242 138f 4342 5684 5b42 0363 7c42
000001a0: 87df 4942 7477 3b42 3305 6042 81c0 3242
000001b0: ec2d 7e42 ad70 5d42 d0dd 5f42 8352 5e42
000001c0: b7de 2a42 46d7 1242 dd53 0842 8d6c 1742
000001d0: e4cb 4842 3940 4342 0926 6a42 e39b 5b42
000001e0: 1ed6 3d42 3842 4142 d6ef 5b42 6563 4142
000001f0: 9494 6142 ab67 6242 d36f 6742 e519 6042
00000200: 2ddd 5c42 b324 2642 a19e 4642 0494 7d42
00000210: 26e7 4142 2171 dc41 9ea3 bf41 a8ad 0742
00000220: c315 2c41 208d 7142 70b1 3b42 61e6 5742
00000230: 1bb7 5142 181b 6942 0a22 6042 85b0 4942
00000240: 89da 2442 000f 1d42 3cb3 4d42 deb2 4342
00000250: f45d 5142 f90b 6642 3592 1e42 7bd9 6b42
00000260: e844 7442 ee42 7442 9ad3 9141 8d25 5942
00000270: 1cc0 4e42 eeca 5e42 6420 3e42 4fd9 5142
00000280: 3804 1042 e5a7 2d42 5799 4042 4635 7942
00000290: 3f46 1b42 93b4 5a42 49c8 6142 e571 2e42
000002a0: 2ed3 8042 d5fe 9842 22a6 6542 cca0 5142
000002b0: 2247 8642 ecaa 7342 22dc 3c42 2f13 7442
000002c0: dfd9 4942 6064 4942 31a3 3e42 c011 2642
000002d0: 60ef 8442 7865 7442 545f eb41 8a6f 6942
000002e0: dcdc 5342 d525 3d42 a922 6242 c7de 4742
000002f0: 5127 5942 13b7 5e42 ffe1 5742 03be 5342
00000300: daec 2042 0025 5942 6b83 1d42 54f0 7942
00000310: b173 3b42 8142 4442 e237 5e42 dd20 5d42
00000320: dc02 3f42 525b 5942 9d61 5d42 55e4 2342
00000330: ff17 7c42 145d 9042 550f 6442 5001 3742
00000340: 20c7 6642 2702 6a42 6c96 2142 a323 1542
00000350: 9ab5 5742 fa89 3942 327e 4d42 b123 4242
00000360: ae8b 6142 b764 5242 0147 5642 89dc 6142
00000370: 7b3d d741 a0e0 5a42 a943 7042 ad73 5642
00000380: e7ad 5a42 06ba 3642 d19c 5742 0023 6042
00000390: 4024 6942 afb9 1b42 d8c0 4842 627f 3442
000003a0: c159 6442 f4d2 4042 525c 5242 e68c 3842
000003b0: 7a36 2b42 ea97 3e42 00db 5d42 9f68 bd42
000003c0: 97b4 7e42 ac02 4b42 5413 6042 fff8 6342
000003d0: 2d68 7242 f2e5 3642 a7c3 6642 ce1e 3142
000003e0: 4186 1342 2ccf 7542 5377 3d42 2c20 9542
000003f0: 29b7 2442 bab1 4542 ee72 7a42 4382 7842
53.83223 51.684895 47.00492 89.17279 39.506424 55.269547 59.05787 49.87623
46.96183 59.60398 54.272907 56.508144 58.706867 61.46803 54.225952 42.62831
56.979218 48.59677 51.190704 59.069218 52.29298 47.01633 53.78555 35.899002
51.547443 48.020813 59.52733 65.35437 63.292072 51.889446 84.111404 57.625782
47.03849 52.983395 55.558453 2.6937158 55.7448 45.444214 61.450466 49.949833
40.49731 44.84808 66.03898 54.144695 63.6655 51.517014 33.66355 52.79484
56.525494 90.2256 47.42431 67.37277 52.35928 53.384422 64.06207 91.24151
51.062344 82.35334 61.961323 63.449055 43.036182 78.56548 55.611904 49.893948
50.246456 83.28808 77.17958 44.776096 36.22884 46.405098 60.44317 49.21248
52.760162 52.740753 46.860195 47.080086 53.91755 45.455 52.12987 56.182045
47.920128 56.010605 61.528 63.37556 41.888374 42.17537 61.465096 52.411427
80.20719 87.25516 54.90738 38.881744 58.80443 52.72234 58.570103 41.996952
55.340736 58.915085 47.85277 33.697845 56.735355 48.88972 54.879234 63.09669
50.46829 46.866653 56.005077 44.687992 63.544846 55.360035 55.966614 55.580578
42.717495 36.710228 34.081898 37.856007 50.199112 48.812717 58.537144 54.902233
47.4591 48.314667 54.984215 48.347065 56.395096 56.60124 57.859203 56.025288
55.215992 41.53584 49.65491 63.394547 48.47573 27.555239 23.954891 33.919586
10.755313 60.387817 46.92328 53.97498 52.428814 58.27646 56.03324 50.422382
41.213413 39.26465 51.425034 48.924675 52.34175 57.511692 39.64278 58.962383
61.06729 61.06536 18.228321 54.28667 51.687607 55.698174 47.53163 52.462215
36.00412 43.41396 48.149746 62.302025 38.8186 54.676342 56.44559 43.611225
64.41246 76.49772 57.41224 52.40703 67.13893 60.916916 47.214973 61.018734
50.462765 50.348022 47.659367 41.517334 66.46753 61.09909 29.421547 58.358925
52.965683 47.286945 56.533848 49.967556 54.288395 55.678783 53.9707 52.93556
40.2313 54.286133 39.378338 62.484695 46.86298 49.064945 55.554573 55.282093
47.752792 54.33918 55.345325 40.97298 63.023434 72.18179 57.014973 45.75128
57.694458 58.5021 40.396896 37.2848 53.927345 46.384743 51.373238 48.534855
56.386406 52.598354 53.56934 56.465366 26.90502 54.71936 60.066074 53.612965
54.669827 45.681664 53.90314 56.03418 58.2854 38.93133 50.188324 45.124397
57.08765 48.20601 52.590157 46.137596 42.8032 47.648354 55.463867 94.70434
63.676357 50.75261 56.018875 56.99316 60.601734 45.724556 57.691067 44.280083
36.881107 61.452316 47.366528 74.562836 41.178867 49.42356 62.612236 62.12721

l4/b f4 [64]
00000000: 3d37 c2c2 5c3c c2c2 423b c2c2 db3c c2c2
00000010: b23c c2c2 c03c c2c2 db39 c2c2 6a3c c2c2
00000020: 3a3e c2c2 2243 c2c2 6d47 c2c2 1a3d c2c2
00000030: bf3c c2c2 833d c2c2 193f c2c2 a83e c2c2
00000040: b03b c2c2 a638 c2c2 d143 c2c2 4b44 c2c2
00000050: df3e c2c2 d942 c2c2 ac41 c2c2 2340 c2c2
00000060: aa3e c2c2 9040 c2c2 903e c2c2 443b c2c2
00000070: ce3d c2c2 1737 c2c2 4539 c2c2 d43b c2c2
00000080: 193f c2c2 5f3a c2c2 0544 c2c2 7c42 c2c2
00000090: b744 c2c2 173b c2c2 0c43 c2c2 b03c c2c2
000000a0: c842 c2c2 993c c2c2 9136 c2c2 643c c2c2
000000b0: 4241 c2c2 8f3b c2c2 ae3d c2c2 823a c2c2
000000c0: 6639 c2c2 a342 c2c2 0e3f c2c2 e73d c2c2
000000d0: ba41 c2c2 1b36 c2c2 733a c2c2 c83a c2c2
000000e0: 8e37 c2c2 b635 c2c2 1b3a c2c2 773c c2c2
000000f0: aa37 c2c2 4e3e c2c2 c43b c2c2 af35 c2c2
-97.10789 -97.11789 -97.11574 -97.11886 -97.118546 -97.11865 -97.113 -97.118
-97.12154 -97.13112 -97.1395 -97.11934 -97.118645 -97.12014 -97.12324 -97.122375
-97.11658 -97.11064 -97.132454 -97.133385 -97.122795 -97.13056 -97.128265 -97.12527
-97.12239 -97.1261 -97.12219 -97.11575 -97.12071 -97.1076 -97.111855 -97.11685
-97.12324 -97.114006 -97.13285 -97.12985 -97.13421 -97.11541 -97.13095 -97.11853
-97.13043 -97.118355 -97.106575 -97.11795 -97.12746 -97.116325 -97.12047 -97.11427
-97.11211 -97.13015 -97.12315 -97.1209 -97.12837 -97.105675 -97.11416 -97.11481
-97.108505 -97.104904 -97.11349 -97.118095 -97.10872 -97.12169 -97.11673 -97.10485

l3/W f4 [256, 256]
00000000: cde4 8b41 09b4 b0c1 d914 12c2 3b43 7740
00000010: cb49 a641 d840 f241 7f68 8440 b12e d940
00000020: 1d38 4fc0 093f 45c1 0bb3 b241 951b 9f41
00000030: b471 0240 88e4 5a40 0d0c db3f 290a b0c0
00000040: 7e8a 5a41 02e6 a6c1 2b1c 78c1 d80f 17c0
00000050: 6217 3cc2 84cd 80c1 fe38 9941 5ce6 923f
00000060: 9754 fc3e 6d0a 3341 db1b e83f 7591 09c2
00000070: bccb 24bf ccf9 01c0 183a a1c1 8f35 5241
00000080: d35d 6441 d7cf f040 e932 44c1 6ba2 f540
00000090: 9832 8bc1 aefc 0540 2a3f d4c1 4339 0b41
000000a0: 49f4 3a41 144b 6241 b259 43c1 eb05 9d41
000000b0: 44b3 7941 7011 e741 ee2e 1b41 62db 7041
000000c0: be54 22bf 00a4 bb40 d783 2ac1 6395 eac1
000000d0: 196a 45c1 263b 9441 21cf 8fc1 c5ec 53c2
000000e0: bde9 a841 a6b9 2fc0 145c 06c2 6b58 a941
000000f0: ff4f 8141 cbb5 afc1 9c00 bbc1 062b 96c1
00000100: 9adf 74c1 bca7 3f41 cd36 e3c1 026b 6c41
00000110: 869d 8e40 a5f7 c6c0 2cad 7dc1 40f0 f141
00000120: 063a ed3f be8e b0c0 baa2 02c2 c8b0 17c1
00000130: 2a7a 9cc0 3a99 4ac1 176e 2ec1 eb69 4041
00000140: fa10 1b41 b441 bac1 19df fac1 23c5 1ac1
00000150: 009c a3c1 dcc0 d8c0 0b65 d1c1 3c3f 4441
00000160: 4804 edc1 cf85 f8bf c48b 2641 5b40 2a42
00000170: 1fa9 1e41 c863 b9c0 077d 1a41 4816 b3c1
00000180: 5cbf 7c41 09f2 d0c0 9d5c 04c2 b9cc 2141
00000190: dcc3 eac0 18f0 28c2 b935 f841 d9ad 5841
000001a0: 6d62 85c0 ee1b 7fc1 cd9f f041 e661 c540
000001b0: 7eb3 72c0 56b4 b0c1 4dd9 3b40 2455 05c1
000001c0: 4dc0 dac1 688c b4c1 3878 6c41 aa73 d4c1
000001d0: 8dee 3742 7933 82c1 6cb8 e640 f403 b7c1
000001e0: a8fe 91c1 aef3 0541 f7f4 40c1 3818 f2c1
000001f0: 2bd7 a141 a64b 1ec2 ae58 b040 b22a c141
00000200: f13d ca41 008c 46c2 a9ff 4441 8a2f efc1
00000210: 9314 1bc1 5e2a 0d42 bf0d 06c2 3eac 0241
00000220: a9bf c441 6a9f 2a41 35b0 d4c1 39d1 19c1
00000230: faf9 0541 98b6 9ec1 3971 693f bfec 96bd
00000240: daad 20c2 fa06 8dc1 1d06 1940 0999 24c2
00000250: 2ac9 4b41 8590 fe40 4b84 26c1 1fb5 69c1
00000260: 373a f3c1 75f8 e1bf 9cf7 f8c1 7cab a9c1
00000270: 2f17 c2c1 0a98 8a3f 50f8 6b40 50ed f7c0
00000280: 1702 a8c1 5229 87c1 6a41 75c2 8b64 6641
00000290: a072 55c2 1903 18c1 55e7 92c1 0af0 c2c0
000002a0: 659e 88c2 d35b e740 3b15 d7c1 0861 6f40
000002b0: 445e 6741 9d50 2dc1 d4fa 98bf db45 7ec1
000002c0: af01 0040 704c 4341 8bda 2c41 0e0a b3c1
000002d0: 7d7c 89c2 d9fa 42c1 0111 1540 d7b3 b1c1
000002e0: 39bf b741 a532 d5c1 a400 e540 4c51 8041
000002f0: ac41 0c41 e043 c4c1 42e6 e7c0 4f4c 8141
00000300: 257f edbf 22f3 bd41 7fbb 5041 24a4 3241
00000310: 3bec 3fc1 e11c 8641 bed6 33c2 96e6 b941
00000320: a5e8 8d41 7619 05c1 08f8 d640 864d d641
00000330: 460c 09c2 fee6 fa41 9035 ab41 22b0 34c1
00000340: 15a9 a4c1 cf35 0ac2 a28a e1c1 7657 8840
00000350: 2810 0642 39f3 6641 a501 8741 2d0c 71c1
00000360: 0396 e640 0804 4ec1 0a87 00c1 41e3 72c1
00000370: fae0 06c2 edef 4bc2 4992 7bc0 4cf8 0cc2
00000380: 4f7d 0bc2 653e fdc1 40c5 bac1 a16b 3141
00000390: da2a 8c41 556e 8141 ba34 3541 7c97 c6c0
000003a0: eb47 3641 e042 0141 0226 c1c1 d242 1641
000003b0: 03af 9b41 2435 90c0 e07b 1dc2 68c7 70c1
000003c0: b4b6 87c1 92a0 9a40 c54e 28c2 e074 1e42
000003d0: 6e32 4341 13eb 4ac0 497a d640 dba3 9cbf
000003e0: 25f4 67c2 ae06 ee40 f4d7 cac0 593c c9c1
000003f0: 02c3 5c41 c149 68c0 9c36 d141 a768 0641
17.48672 -22.087908 -36.52036 3.8634784 20.786032 30.281662 4.137756 6.7869496
-3.2378 -12.327889 22.337423 19.888468 2.03819 3.4201984 1.7113053 -5.5012403
13.658812 -20.862309 -15.506877 -2.360342 -47.022835 -16.10035 19.152828 1.147655
0.49283287 11.190045 1.8133501 -34.392048 -0.64373374 -2.0308714 -20.153366 13.138076
14.272906 7.525371 -12.262429 7.6760764 -17.399704 2.0935473 -26.530842 8.70148
11.68464 14.14333 -12.209398 19.62789 15.606266 28.883514 9.698957 15.05356
-0.63410556 5.8637695 -10.657187 -29.322943 -12.338403 18.528881 -17.976137 -52.98122
21.11413 -2.745706 -33.58992 21.168173 16.16406 -21.963766 -23.375298 -18.771008
-15.30459 11.978451 -28.401758 14.776125 4.456729 -6.21773 -15.854778 30.24231
1.8533332 -5.5174246 -32.658913 -9.4806595 -4.8899126 -12.662409 -10.901877 12.025859
9.691645 -23.282082 -31.358934 -9.673129 -20.451172 -6.7735424 -26.174337 12.265438
-29.62709 -1.9415835 10.409122 42.562847 9.916289 -5.7934303 9.655524 -22.38588
15.796719 -6.5295453 -33.090443 10.112481 -7.3364086 -42.234467 31.026232 13.542443
-4.168265 -15.944319 30.078028 6.1682005 -3.7922053 -22.088055 2.935138 -8.333286
-27.343897 -22.568558 14.77935 -26.556477 45.98296 -16.275133 7.2100124 -22.87693
-18.249344 8.371992 -12.059806 -30.261826 20.230062 -39.573875 5.510825 24.145847
25.280245 -49.63672 12.312417 -29.898212 -9.692523 35.291374 -33.513424 8.167051
24.593584 10.663919 -26.586039 -9.61358 8.373529 -19.839157 0.9118839 -0.073693745
-40.169777 -17.628407 2.3909981 -41.14945 12.736612 7.9551415 -10.407298 -14.606719
-30.403425 -1.7653948 -31.120903 -21.208733 -24.26132 1.0827649 3.6870308 -7.747719
-21.00102 -16.895176 -61.31388 14.399547 -53.36194 -9.500756 -18.362955 -6.0918016
-68.309364 7.229959 -26.885366 3.7402973 14.460514 -10.832181 -1.1951547 -15.892055
2.0001028 12.2061615 10.803355 -22.37991 -68.74314 -12.186242 2.3291628 -22.212812
22.96837 -26.649729 7.156328 16.039696 8.766033 -24.533142 -7.2468576 16.16226
-1.8554426 23.743717 13.045775 11.165073 -11.995173 16.764101 -44.95971 23.23759
17.738596 -8.318716 6.7177773 26.787853 -34.261986 31.36279 21.401154 -11.293001
-20.58256 -34.552547 -28.192692 4.2606764 33.515778 14.434381 16.875803 -15.065473
7.205812 -12.875984 -8.0329685 -15.180482 -33.719704 -50.984303 -3.9308035 -35.242477
-34.87237 -31.655466 -23.346313 11.088777 17.520924 16.178873 11.325373 -6.2059917
11.392558 8.078827 -24.143559 9.391314 19.460455 -4.506487 -39.37097 -15.048683
-16.96421 4.832101 -42.076923 39.614136 12.199812 -3.1705978 6.7024274 -1.2237505
-57.988422 7.4383154 -6.3388615 -25.154467 13.797609 -3.6295016 26.151665 8.40055

l3/b f4 [256]
00000000: f07a c040 f5d1 bd3e 959a 2640 acf2 92c0
00000010: 22ee a641 527a bf41 eebe 7141 6f94 7141
00000020: 432e 3041 1fe6 ab40 d1a7 84bf 77d8 3441
00000030: be2e 5140 9fa1 8dbe f5b3 b440 ae68 4741
00000040: 11ad c6bf 0e90 e740 87c2 5541 6b79 e840
00000050: 8b4f 373f fed6 cfbf 75ef f741 36cf 8040
00000060: 8d88 ef40 4ab4 8b40 44a2 293f f717 c240
00000070: 529b 1340 631e f540 ada7 c4c0 2db5 2f41
00000080: fe03 62c0 c762 eb40 db99 5e40 af6a 5a42
00000090: 7f4c bb3f 8fbc a0c0 78d3 4340 a6cb d5bf
000000a0: 50e9 bc40 b9f4 1a41 cc61 1a41 a160 0441
000000b0: 56bc dbc0 9993 0541 18af f241 f36d af40
000000c0: 403c 853f 7b07 9fc0 d91e 5741 4cd0 ecc0
000000d0: 30ef 6d3f 7134 35c0 5b69 92bf 42d9 af3f
000000e0: 486e 2f40 6fdf e6c0 be31 2841 e244 bd40
000000f0: bcf3 ad41 3b21 d5bf 96b6 a2c0 976d 0c41
00000100: b2af aa3e 46af 50c0 ef49 24c0 66f3 eb40
00000110: fe1f a840 9293 3741 7089 1f41 54da 2441
00000120: aaa6 95bf 9895 5b41 cf5c b640 6571 dd3f
00000130: 0c93 4e3f 756d 92be d6f2 8141 2b8a ce3f
00000140: a708 2240 9f6b b640 ab0e 1d40 0d34 6140
00000150: 0d12 0341 6697 c741 808a 0541 7f62 1740
00000160: 1672 94c0 9203 ecc0 d71f 2741 ceb0 d240
00000170: 9c90 3340 22da 1341 879e a040 eccd 2641
00000180: 3ce3 c041 ea27 00c0 dd18 6c41 c488 0441
00000190: d540 1f41 2e19 1041 2825 9840 ec9b 0d41
000001a0: 06ef a73f 5380 ba40 bbde 083f 2727 c141
000001b0: dbd4 e13f 29d4 0cbf e6a4 b1c0 1a1e ff40
000001c0: c6ce bc40 0992 0541 2f5f 0542 36df 1041
000001d0: 4dd2 a441 3b6c 7741 e7fd ddbf 86d9 42bf
000001e0: cd26 5341 fad0 dc40 365a 16c0 9343 ce40
000001f0: 3610 71bf babe 903f 4990 4c3f b55b f0be
00000200: 4f02 3c41 0ed2 6441 f58e ac3f 811f d93f
00000210: 5983 8740 69ab 1f41 d3a8 0b42 9e2e b041
00000220: da7b ff3f 2ecf ed3e 115d ff40 4f4d 3cc0
00000230: 6a1c 1841 6958 a73f ea8b b140 ef28 1d41
00000240: f16f 9641 1986 96bf 570a 89c0 39be 4bc0
00000250: 0f96 2141 1085 80bf ee7f 4b41 4ee0 f640
00000260: 6293 1f41 7a06 513f b873 ba41 e770 23bf
00000270: d8bd c740 5abe 2541 59af 47c0 1f8c 83bf
00000280: ac74 5141 ef93 e341 0900 f340 46c5 f040
00000290: e798 3c41 ac34 ac40 3b8e a440 2d7b 2d41
000002a0: 710a 37c0 26fc 8841 44c5 0040 62b2 0441
000002b0: e881 b140 caa4 c2c0 a16b ae40 7cb1 8441
000002c0: f8d3 5e40 cf43 c240 dccf 4941 5953 eb40
000002d0: d912 d940 d6c7 8541 8415 e841 c879 8340
000002e0: 4fd9 c640 e619 f940 cd6f 9c40 9860 9d40
000002f0: 1cf4 3241 09e7 52c0 a07d 0240 c41d 8340
00000300: 5b77 0f41 85cd 1cc0 2a43 c141 e413 8140
00000310: a2f8 7040 a60e 7a41 6591 25c0 229d e840
00000320: bdf8 29bf 5e3c 2c3f 576e 083f ab6e 1b41
00000330: 05ac c440 ef8e 44c0 1612 5041 7435 cd41
00000340: 3b66 f73f 4771 2141 701d d841 69e9 5941
00000350: d689 0141 300a c540 4f82 bc40 e7e8 0642
00000360: 8925 1341 b608 d9bf 584d f03f a0cc 5b41
00000370: d378 6142 b7a7 9941 0854 0e40 3499 f23f
00000380: 23c2 1941 833b 0040 1090 2841 3410 5141
00000390: ccae 2bbf da03 9fbf 0aa0 2940 2a70 7a3f
000003a0: 840e 1f40 5b80 f940 9817 be40 2e4a 1340
000003b0: a965 dabf c372 cf40 0aac 0041 79fe 89bf
000003c0: 5f05 f43f 8972 dec0 ea71 8c3f 581b de40
000003d0: b6ff 3d41 32ec 0141 50bb c7c0 71b7 8341
000003e0: e068 f041 f270 a640 d8bb 1141 a0dd fd41
000003f0: 58d0 0d41 4a11 15bf f978 b040 348b 39be
6.015007 0.37074247 2.603185 -4.592123 20.866276 23.934727 15.109114 15.098739
11.011294 5.371841 -1.0363714 11.302848 3.268478 -0.2766237 5.6469674 12.463057
-1.5521566 7.236335 13.359992 7.2648215 0.7160575 -1.6237485 30.991922 4.0252943
7.485419 4.365758 0.6626322 6.0654254 2.306355 7.6599593 -6.145468 10.981732
-3.5314937 7.355808 3.4781406 54.604183 1.463272 -5.0230174 3.059782 -1.6702774
5.9034805 9.684747 9.648876 8.273591 -6.86674 8.348535 30.335495 5.4821715
1.0409012 -4.969663 13.445031 -7.400427 0.92943096 -2.8313258 -1.1438402 1.3738177
2.741106 -7.2147746 10.512144 5.9146585 21.74401 -1.6650766 -5.0847883 8.776755
0.3333717 -3.2606978 -2.5670125 7.3734617 5.2539053 11.473528 9.971054 10.303303
-1.1691487 13.724022 5.698829 1.730023 0.80693126 -0.28599134 16.243572 1.6135916
2.531778 5.7006373 2.4540203 3.518802 8.191907 24.948925 8.346313 2.3653867
-4.6389265 -7.375436 10.445273 6.5840826 2.8057013 9.240755 5.0193515 10.425274
24.110954 -2.0024362 14.75607 8.28339 9.953328 9.006147 4.7545357 8.850567
1.3119819 5.8281646 0.5346486 24.144117 1.7643083 -0.5501123 -5.551379 7.9724245
5.900241 8.348153 33.342953 9.054495 20.602686 15.463923 -1.734311 -0.76113164
13.196973 6.90051 -2.349256 6.445749 -0.9416536 1.1308205 0.7990766 -0.46944967
11.750564 14.301283 1.3481127 1.6962739 4.2347836 9.979348 34.914867 22.022762
1.9959671 0.46447128 7.9801106 -2.9422185 9.506937 1.3073856 5.5483294 9.822494
18.804659 -1.1759673 -4.282512 -3.1834853 10.099135 -1.0040607 12.718733 7.714881
9.973482 0.8165051 23.306503 -0.6384415 6.2419243 10.358973 -3.1200774 -1.0277137
13.090984 28.447233 7.5937543 7.524081 11.78733 5.3814297 5.142362 10.842572
-2.8600123 17.12312 2.0120401 8.2935505 5.5471077 -6.082616 5.4506383 16.586662
3.4816875 6.0707774 12.613247 7.3539243 6.7835507 16.722576 29.010506 4.108616
6.214027 7.7844114 4.8886476 4.918041 11.184597 -3.2953513 2.0389175 4.0973835
8.9666395 -2.450044 24.157795 4.033678 3.7651753 15.628576 -2.5869992 7.2691813
-0.6639517 0.67279613 0.53293365 9.714519 6.1459985 -3.071224 13.0044155 25.6511
1.9328073 10.090156 27.014374 13.619485 8.096151 6.1574936 5.890907 33.727444
9.196664 -1.6955783 1.8773603 13.737457 56.367992 19.206892 2.2238789 1.8953004
9.609897 2.0036323 10.5351715 13.066456 -0.67063594 -1.242305 2.650393 0.978274
2.485261 7.7969184 5.94038 2.3014026 -1.7062274 6.482759 8.042002 -1.0780784
1.9064139 -6.9514813 1.0972264 6.940838 11.874929 8.120165 -6.2416153 16.464571
30.051208 5.2012873 9.10836 31.733215 8.863365 -0.58229506 5.514767 -0.18119508
