size8/agent_black_143000/target_model.npz (npz, 608740 bytes, 8 tensors)

l2/W f4 [256, 256]
00000000: 4147 25c0 3594 88c1 138e 03c2 c55e 6ec1
00000010: c954 33c2 9425 4a41 9343 cec0 2c93 8741
00000020: 683f 5441 e141 c6c1 f7fe 5341 1899 9e41
00000030: 82a4 853f 07c2 dec0 b492 b7c1 3eca fcbf
00000040: 758d 8d41 2118 22c1 0470 89c1 009f 4dc1
00000050: 8168 f6c1 e6c6 4441 d6c1 4040 666b e6c0
00000060: a5bd 62c1 9e05 15c1 eb2e 4b41 8efc 15c1
00000070: 4ac0 d941 8242 2a42 11d0 f540 4590 0e41
00000080: 4b93 4ec1 367b 5940 5ddd b6c1 6a74 8c40
00000090: e65c c141 dad6 4941 2482 01c2 ccfc 4741
000000a0: 6fb0 82c0 6f12 5540 0b36 9dc1 11d9 e1c0
000000b0: 6c14 8cc0 0989 ff41 3c82 4141 9166 bd41
000000c0: a872 a9c0 8a90 ccc1 5aba f13f 9b6f 3e40
000000d0: b445 b1bf a372 d8c1 8588 2241 10e2 5041
000000e0: 106a 61c1 c8fe 12c1 1aef 8a41 27f5 3941
000000f0: 0ff5 b6c1 b1d0 0941 16b8 ee40 de01 8bc1
00000100: ef89 8cc1 ac49 02c2 cd8b 9cc1 d22d a7c1
00000110: 9d87 0a41 be7e 4c40 bc3d 9fbf bb37 1341
00000120: 830e d441 b604 9141 ede1 32c1 9489 1941
00000130: 566b 5040 ebed 98c1 80dc a441 203f 2d41
00000140: 096e 9941 394b 89c0 ac1a 5240 4f86 a7c1
00000150: a8d7 0240 f478 8e41 ec91 f9bf cd6f f841
00000160: 37b3 3e41 f2b8 a1c1 61bb 0640 9207 5640
00000170: 16f0 b0c1 f7b9 e63e 2f26 e240 10cb a641
00000180: 1198 1bc2 5889 36c0 b8b9 b440 266c 18c0
00000190: 2c78 bcc0 74d8 45c2 6be8 18c1 a0f3 9bc1
000001a0: 4313 4bc1 99e3 0ec2 dd30 e4c1 e0b8 7cc2
000001b0: 2d04 9d41 14d7 3ac2 40bb 0e41 bcbf cac0
000001c0: 97f8 b440 33ab 0641 a65a 4740 f168 18c2
000001d0: 2324 68c1 5e33 a4c1 50ed 99c0 4f7a 6bc1
000001e0: bb50 dbc0 fbc7 01c2 7cdb 0541 f27d 47c2
000001f0: 05ec c140 db57 0fc2 7844 64c1 4a72 3340
00000200: 41eb 9c41 cd30 e8c1 a316 9c3f 6a72 5ac2
00000210: 9e59 6641 868d b941 1703 8140 319e 8b41
00000220: 5ab1 7dc2 6a45 7cc1 5f71 c140 fd90 723f
00000230: 3e07 03c2 8e84 70c1 e281 84c1 6b64 c041
00000240: 6de4 68c1 44f2 89c2 40f4 f141 ab0c 1b41
00000250: 226f 0442 0d26 2641 7c50 31c0 7a62 4141
00000260: b612 9641 52f4 78c0 d9e9 8341 9882 31c0
00000270: 38f4 efc1 872a 72c1 c2d2 c43f c711 f6c1
00000280: 1b8d fcc0 3a70 e7c1 b65a 9741 1e39 ad41
00000290: ed47 a7c1 9ec1 84c1 75d3 a6c0 d582 8141
000002a0: 58d5 08c2 6573 d840 cff0 1fc1 c1e5 0dc1
000002b0: 317e c6c0 4955 9341 ff8a 61c2 3deb f7bf
000002c0: 2945 f0c1 3e5d 7341 846e 3c41 fe96 1641
000002d0: ca2e f840 4d15 5842 9ada a0c1 2a0e 6f40
000002e0: 26c3 6541 1ea8 12c2 bd30 1440 807c b940
000002f0: 45e7 2fc2 2c32 f941 e0cc b141 6fb2 4741
00000300: c4f3 e641 685c 82c1 284e 9141 dd09 1941
00000310: 9030 cb41 1b3c 4a41 927e ab41 11d6 4a41
00000320: 202b 5ac1 5eb6 d2c1 88ef 96c1 1e2e 9bc1
00000330: 0142 91c1 c876 b3c1 eb36 b7c1 55b8 d8c1
00000340: a3e3 0ac2 57b5 8ec0 4120 e7c1 1f27 3a40
00000350: 3580 4ac1 d684 30c1 82d4 11c2 6e42 c1c1
00000360: eeff 15c1 c9ad f13f 165a c9c1 5803 82c1
00000370: 3790 efc0 6721 0d41 3cc5 c0c1 29a5 a3c0
00000380: fcd0 95c1 dead 18c1 c9a5 bbbf 7945 15c2
00000390: 255b 07c2 6cda afc1 90fb fa40 6579 f140
000003a0: 3ce9 6541 89ce aac1 4e8d 9341 ffa2 91c1
000003b0: 555c a1c1 8b3b 0a42 0d90 8bc0 4e07 2e41
000003c0: 30a2 a540 4cf3 9fc1 a31e 21c1 9f10 933f
000003d0: 74ca 3bc2 2c97 0ac2 e444 f241 a8cc b6c1
000003e0: 1903 0642 ffa3 fa41 4a02 f341 52d4 35c0
000003f0: b6ba c7c1 8b77 36c2 5e77 18c0 dfd2 1941
-2.582474 -17.072367 -32.888744 -14.898137 -44.832798 12.634174 -6.445749 16.946861
13.26548 -24.782167 13.249747 19.824753 1.0440829 -6.961185 -22.946632 -1.974922
17.69407 -10.130891 -17.179695 -12.851318 -30.801027 12.298559 3.0118308 -7.20061
-14.1713 -9.313871 12.698955 -9.374159 27.218891 42.56495 7.6816487 8.910222
-12.91096 3.3981452 -22.858088 4.3892107 24.17036 12.614954 -32.37709 12.499218
-4.0840373 3.32925 -19.651388 -7.0577474 -4.377493 31.941912 12.0942955 23.675081
-5.295246 -25.570576 1.8884995 2.9755619 -1.3849397 -27.055975 10.15833 13.055191
-14.088394 -9.187202 17.366749 11.622352 -22.869658 8.61345 7.4599714 -17.375912
-17.56735 -32.571945 -19.568262 -20.897373 8.658109 3.1952357 -1.2440715 9.201106
26.507086 18.1273 -11.180158 9.596088 3.2565513 -19.11617 20.607666 10.827911
19.178728 -4.2904325 3.282878 -20.94058 2.0444126 17.80906 -1.9497657 31.05459
11.918754 -20.215305 2.1051867 3.344212 -22.11723 0.45063755 7.067161 20.849152
-38.898502 -2.8521328 5.6476707 -2.3816009 -5.8896694 -49.46138 -9.556743 -19.493958
-12.692203 -35.722263 -28.523859 -63.180542 19.627039 -46.710037 8.920715 -6.335905
5.6553454 8.416797 3.1149077 -38.10248 -14.508822 -20.525082 -4.810219 -14.7173605
-6.853605 -32.445293 8.366085 -49.872993 6.060061 -35.835796 -14.266716 2.8038507
19.61487 -29.023829 1.2194408 -54.611732 14.396879 23.194103 4.031627 17.452242
-63.423195 -15.766947 6.0450892 0.94752485 -32.757072 -15.032362 -16.56342 24.049032
-14.555768 -68.973175 30.244263 9.690593 33.10853 10.38429 -2.7705374 12.086542
18.759136 -3.8899121 16.489183 -2.7735958 -29.994247 -15.135383 1.5376818 -30.75868
-7.892225 -28.929798 18.919292 21.65289 -20.91012 -16.59454 -5.2133126 16.188883
-34.208344 6.7640862 -9.996291 -8.868592 -6.202904 18.416643 -56.38574 -1.9368664
-30.03377 15.210264 11.776981 9.411863 7.7557116 54.0208 -20.106739 3.7352395
14.360144 -36.664177 2.3154747 5.7964478 -43.97585 31.149498 22.225037 12.481063
28.869026 -16.29512 18.163162 9.564908 25.398712 12.639674 21.436802 12.677262
-13.635529 -26.339046 -18.866959 -19.397518 -18.157228 -22.432999 -22.901815 -27.090006
-34.7223 -4.459636 -28.890749 2.9086378 -12.656301 -11.032431 -36.457527 -24.157436
-9.374983 1.888116 -25.168987 -16.251633 -7.4863544 8.820655 -24.096306 -5.113911
-18.727043 -9.542448 -1.4659969 -37.317844 -33.83901 -21.981651 7.8432083 7.5460687
14.369442 -21.350847 18.443996 -18.204588 -20.170084 34.558147 -4.3613343 10.876783
5.1760483 -19.993797 -10.06998 1.1489447 -46.94771 -34.64763 30.283638 -22.84993
33.503025 31.330076 30.376118 -2.841084 -24.966167 -45.61674 -2.3822856 9.613982

l2/b f4 [256]
00000000: 9c5c 8141 fd32 f340 55bc 4141 719d c541
00000010: 81a9 4841 c908 ac41 fe14 863e 90fb 60c0
00000020: 2cd0 8341 d602 a4c0 eea6 2e40 07b6 3441
00000030: 0994 6dc0 ea7f 66c0 658b 8f40 147b 3340
00000040: 87ae 21bd 39e0 8a41 c4f0 4341 d2bb 60c1
00000050: bdd0 1e41 ac8b f541 e3a4 8c41 4617 ebbf
00000060: b32d 8d40 005d 1ebf 150a 0841 26c9 a540
00000070: 8b3a 7c41 df1b 0cc0 eab4 d441 735a 7941
00000080: cc23 a441 d977 ac41 d8b8 6041 ba08 2e3f
00000090: b5b3 7ec1 cf37 8641 c613 50c0 d214 5241
000000a0: 46f9 1341 4eb2 7341 0082 9441 d52f aabf
000000b0: bc6e 5a41 6b69 9d41 9ba2 9bc1 16e0 8741
000000c0: 117f 57c1 2d50 0dc1 9bed fe41 6bf8 c8c1
000000d0: f8d4 9341 647e 9d41 68c8 7041 951e 77c1
000000e0: 417c 82c0 8236 7241 8ca6 9b3f 820a 64bf
000000f0: dfbd 8541 9db9 e8c0 77a8 e2c0 6907 b1c0
00000100: bbb4 ae3f 279e 03c1 23e5 2440 43c8 d241
00000110: 5c92 3dc0 71a9 0fc1 b127 a240 33cf 0141
00000120: 5f8c 823e 7982 17c1 f8ae 38c1 79c7 a641
00000130: 4865 13c1 57ea 10c1 582e 6141 e81e eb40
00000140: b850 cd41 9035 8941 a3d9 a941 4ec0 8941
00000150: fccd 8f41 5605 55c1 0046 4140 957f 7bc1
00000160: 0436 83c1 e624 95c0 0048 12c0 717d f740
00000170: 6661 16c1 7c0c a441 b59a 6ebf d3be 17c1
00000180: b711 1ec1 63fc 5a40 49b4 a240 dadf 05bf
00000190: b005 b541 1dba c03f ff30 0c41 3582 4141
000001a0: 197e 7fc0 f75e 4d41 ad6b 02c1 82be a1bf
000001b0: 36ef c841 b6aa b441 75ef 4840 6b35 b441
000001c0: e240 be41 e7b2 8341 77e3 cdc0 c46e aa41
000001d0: d414 7341 9d4f 9441 eddb 963f 773e ab41
000001e0: e1ed 9841 0a8b aa41 e7c8 c140 c300 3141
000001f0: 7968 8141 5dc8 9641 e7b2 9741 3550 ac41
00000200: cfb0 463d b478 4641 48bb 8fc1 4e7d 7a41
00000210: 81cc a841 7ed2 d241 7cbe fc40 d7c3 2bbf
00000220: 0a6c e141 b11d 9441 df35 60c0 1399 a641
00000230: b5e3 f340 0204 bac0 af9e b141 b704 9941
00000240: 9be5 a541 ac0e 68c1 7e1b 85c1 3caf b540
00000250: e227 9b41 5c38 1ac0 b47f 9a41 f48e 5ac1
00000260: ff73 3c41 5cab e1c0 e5f5 1541 17a7 0ec1
00000270: eafc 5541 dfaa 8f41 34b1 b841 cfc9 9dc1
00000280: 6485 7941 3da8 3d41 ddc1 61c1 9741 2640
00000290: ec3d 5541 6266 4fc1 60d9 5ec1 bd6a 6841
000002a0: 39fe bc41 fa45 debf 0446 a241 4e64 9541
000002b0: f4a3 ff40 cf3f c7bf af51 c5c1 91cc 8c40
000002c0: a2d4 b240 5cec 8c41 413b 0340 f333 6641
000002d0: 1be6 4c41 d0a1 7741 cda3 24bf dac0 2140
000002e0: 6182 6f41 967e 5f41 72a7 883f d2e7 4d41
000002f0: 1277 7341 d52d 6b41 d30b 2941 4bf3 6e40
00000300: d658 b4bf fbb1 6341 8f3d 9141 7bb2 bc41
00000310: a443 fabf 1364 7b41 2984 92c0 d799 1f41
00000320: bce6 a941 4cb6 23c0 2180 9741 ce4e 8341
00000330: 4f74 a641 e33e de41 984a 6bc1 3669 9240
00000340: 5744 97bf 5c6e e841 e0a0 9e41 2c4d d73f
00000350: 3c0f 6c41 b432 3c41 fa34 8e41 77b6 8041
00000360: 1dfa 00c0 d494 c041 0d46 5f41 21ef 1a41
00000370: 0690 9a41 acdb 9141 ac3a 8d41 33ad a141
00000380: 06c2 9441 a742 8b41 959e 48c0 8a96 4541
00000390: b662 95c1 8521 d741 036c 8241 d06f ab41
000003a0: f6d1 fbc0 a6f6 5dbf b6c7 00c0 8e3f 093f
000003b0: fb70 bb41 9838 da3e cff7 2a41 827e a3c1
000003c0: b249 05c1 ed51 54c1 4d48 9241 f9b2 ff41
000003d0: ec39 193e fa5f fec0 678f e540 bbf7 07bf
000003e0: 995b 9941 92e1 8441 7c8f ec41 accb a841
000003f0: 5d1b 4641 abbc 8c41 e9b9 9f41 efce 9b40
16.17022 7.599974 12.1084795 24.701876 12.541383 21.50429 0.2618789 -3.5153542
16.476646 -5.125346 2.7289386 11.29444 -3.7121603 -3.6015573 4.485766 2.804387
-0.039473083 17.359484 12.246281 -14.045855 9.9259615 30.6932 17.580511 -1.8366477
4.4118285 -0.61860657 8.502461 5.1808043 15.764293 -2.189201 26.588337 15.584582
20.517479 21.55852 14.045128 0.67982066 -15.918874 16.77725 -3.2512069 13.130083
9.248358 15.231031 18.563477 -1.3295847 13.652035 19.676474 -19.454397 16.984417
-13.468522 -8.832074 31.866018 -25.121298 18.478989 19.686714 15.048927 -15.444966
-4.0776677 15.138308 1.2160201 -0.89078534 16.71771 -7.272658 -7.0830646 -5.5321546
1.3648905 -8.226111 2.5764854 26.347784 -2.962058 -8.978868 5.067345 8.113086
0.2549772 -9.469354 -11.542717 20.847399 -9.212227 -9.057212 14.073814 7.3475227
25.664413 17.151154 21.231268 17.218899 17.975578 -13.313803 3.0198975 -15.718648
-16.401375 -4.660754 -2.2856445 7.7340627 -9.398779 20.506096 -0.93204814 -9.484088
-9.879325 3.4216545 5.0845075 -0.52294695 22.627777 1.5056797 8.761962 12.094289
-3.9920714 12.835685 -8.151288 -1.2636263 25.116802 22.583355 3.1396153 22.526083
23.781681 16.462355 -6.4340167 21.304085 15.192585 18.538874 1.1785866 21.4055
19.116152 21.31789 6.055774 11.062686 16.176012 18.847834 18.962355 21.539164
0.04850846 12.404469 -17.966446 15.655592 21.099855 26.35278 7.8982525 -0.670957
28.177753 18.514498 -3.503288 20.824743 7.6215463 -5.812989 22.202482 19.127302
20.737112 -14.503582 -16.638424 5.677641 19.394474 -2.40969 19.312355 -13.659901
11.778319 -7.052168 9.372533 -8.915793 13.374247 17.958433 23.086525 -19.72354
15.595066 11.853574 -14.10983 2.5977533 13.327618 -12.962496 -13.92807 14.526059
23.624132 -1.7365105 20.284187 18.673977 7.988764 -1.5566348 -24.664885 4.3999715
5.588456 17.61541 2.0504916 14.387683 12.806178 15.477005 -0.6431244 2.5273957
14.969331 13.968405 1.06761 12.869097 15.21657 14.698689 10.565387 3.7335994
-1.408961 14.230952 18.155058 23.587149 -1.9551892 15.711932 -4.578633 9.975059
21.237663 -2.5580015 18.937563 16.413479 20.806791 27.780706 -14.705711 4.575343
-1.1817731 29.053886 19.828552 1.6820426 14.753719 11.762379 17.775867 16.089094
-2.0152657 24.07267 13.954602 9.683381 19.320324 18.232262 17.653648 20.20957
18.594738 17.407545 -3.134679 12.349253 -18.673199 26.891367 16.30274 21.429596
-7.86938 -0.8670448 -2.0121894 0.536126 23.430166 0.42621303 10.6855 -20.436771
-8.330492 -13.270001 18.285303 31.962389 0.14963502 -7.949216 7.173755 -0.5311238
19.169725 16.610142 29.57006 21.09945 12.3816805 17.592123 19.965776 4.8690104

l1/W f4 [256, 64]
00000000: b136 7442 7792 90bf 963e 9dbf 394e 6f40
00000010: 7416 aa41 abce 7141 6b5c 9140 1a8c f940
00000020: bf8b bdc1 859c 9e40 2ac0 d4c1 5084 ab41
00000030: 48cc 11c2 4426 e740 cae2 cbbf 845b a0c1
00000040: 3bae a8c0 be9b e341 96b1 1241 0068 e0c0
00000050: d71c 9b41 b692 a5c0 32ae 1442 0d88 9241
00000060: dc51 ba41 4893 9fbf b6da ab41 84d3 c2c1
00000070: 80af 1bc1 2c86 a941 d5d6 6641 4720 9a41
00000080: f834 cfc0 274e bc3e 29d5 bc40 e0b8 9ec1
00000090: 855b 1140 2ac0 50c1 b52c a2c0 9682 7541
000000a0: 42ea 8e41 ce77 8641 8d2e 53c1 dec9 c041
000000b0: 0fb2 f040 c1b8 97c0 1f2d 2b41 dfa5 9ec1
000000c0: fa92 6ebf c46d 4741 f6ab 9dc0 6c79 5ec1
000000d0: d20b 9340 b9a2 fa40 b1c2 69c1 b004 1d42
000000e0: c482 9041 2633 6fc1 a113 75c1 66dd bec1
000000f0: 6f38 2c41 e5fa 33c1 a931 54c1 815c 9fc1
00000100: 7e33 ca41 7866 bdc0 9254 1e42 6258 afc1
00000110: 53bb 2ac1 f381 1bc2 9550 0541 e6f7 4241
00000120: f3e2 19c1 0add 82c0 4bf0 ca41 2107 95c1
00000130: 1713 34c1 d712 ecc1 de87 bc40 2454 b0c1
00000140: 385a 7c41 1774 61c1 f94c 833f 4754 76c0
00000150: b891 8841 4664 5540 6ec1 7641 83da 50c1
00000160: f6db 5d41 cfc1 95c0 5ee1 75c0 4145 0ac1
00000170: e846 9dc0 d8d8 61c1 7de3 79c1 1daa 10c2
00000180: 1919 edbf f260 26c1 6291 9e41 c2b6 923f
00000190: 6f2c 643f 507c 87c1 cdb8 b841 15c2 94c1
000001a0: 0575 f8be 15cb f2c1 3965 c641 576f 2d41
000001b0: 2554 59c0 f7cd 9041 e615 1942 9210 89c1
000001c0: 336f 29c2 5d16 2dc1 749b 52c1 6f33 2dc2
000001d0: 497b 2e41 51fc 7a41 3fb2 8e40 f3e0 d9c0
000001e0: 3098 fbc0 042d 84c1 9e8e 79c2 dbf4 32c1
000001f0: 1e73 0c42 5c10 9041 b7dd 4540 674e d13f
00000200: b431 9c41 fc2c ed41 9d18 0ec0 9eda f241
00000210: a3ea f0bf e274 0a41 4409 98c1 1447 fb40
00000220: b2b9 e941 6ad1 f7c0 0124 00c2 6cac 2941
00000230: e5f4 6641 ef6c f841 a7b4 8f41 bed9 fa40
00000240: b5dc 4dbf 38eb f941 ef77 c9c1 2890 c540
00000250: a5f6 1bc0 46ad ca40 eac2 c241 6056 3541
00000260: ae67 6942 c26b 03c2 3536 4b41 a454 0a41
00000270: 5e1b 6ac0 bae3 1341 e03b a540 92f6 b640
00000280: 2f1f 97c1 31ad 6441 5a8e 49c2 6e2e 8140
00000290: c52f 89c0 5799 a140 591c 3ec0 8234 98c1
000002a0: a4e4 c7c1 0eb1 82c1 e2be 273f 5464 8cc1
000002b0: 0706 2541 8d5e 9540 8aac 33c1 5ef5 ddc1
000002c0: f825 31c1 e160 12c2 67ff 66c1 0b4f ecbf
000002d0: 1952 cd41 f80e b4c1 9306 99be 4a8e cac1
000002e0: 68ae a641 4a3e dc41 f173 02c2 563b ec41
000002f0: ae40 efbf e22e 00bf 87e8 cb41 1e36 d840
00000300: 475b dbc1 0b56 e841 a4d3 bcc1 acd1 63c0
00000310: 457b 81c1 b0e6 b041 c057 8d41 0439 0dc2
00000320: 4c6f 8941 75a3 62c2 51b2 8dc1 916b 77be
00000330: 5546 a5c1 1646 d241 e0dc 5b41 a1be 20c1
00000340: 2e1c 69c1 e486 d2c1 93c7 7640 7f95 0041
00000350: ee2d 2042 6964 8cc0 8adb 8541 5c48 abc0
00000360: 9d55 fb40 92cb e4c0 6b79 5d41 f0d0 d7bf
00000370: a16c 94c0 e17d 3f41 bcc8 4041 77fa 06c1
00000380: 172b aec1 3155 c741 a4fc 9941 e51d 1e40
00000390: eac7 b33f b094 f53f cafd bac0 011e 9d41
000003a0: f7af d440 a4da 03c2 6012 ccc1 534b 30c1
000003b0: 762e d33f 3b8e cc41 6eef 8341 34f2 12c2
000003c0: 008d c5c1 9c77 bdc1 b819 5440 ae47 2cc2
000003d0: 27b0 d2c0 7aba 2542 61b5 1c42 f2e0 01c2
000003e0: 5fe6 86c2 7f3e 5841 c707 6bc2 ec03 4841
000003f0: 4816 d1c1 a1e4 07c1 7b55 3b42 3fdc e3c1
61.05341 -1.1294698 -1.2284725 3.7391493 21.260963 15.112956 4.5425315 7.7983522
-23.693235 4.9566064 -26.59383 21.439606 -36.449493 7.223421 -1.5928586 -20.044685
-5.2712684 28.451046 9.168356 -7.0126953 19.389082 -5.174159 37.170113 18.316431
23.28997 -1.2466822 21.481792 -24.35328 -9.730347 21.190514 14.427449 19.26576
-6.475216 0.36778376 5.9010205 -19.840271 2.271211 -13.046915 -5.0679574 15.344381
17.864384 16.808498 -13.198865 24.098568 7.5217357 -4.741303 10.698516 -19.830992
-0.9319302 12.464298 -4.9272413 -13.904644 4.595193 7.8323636 -14.610032 39.254578
18.06385 -14.949987 -15.317292 -23.858105 10.763778 -11.248754 -13.262124 -19.920168
25.275143 -5.9187584 39.58259 -21.918156 -10.670733 -38.876904 8.332173 12.185522
-9.617908 -4.0894823 25.36733 -18.62848 -11.254661 -29.5092 5.8915854 -22.041084
15.772026 -14.090842 1.0257865 -3.848894 17.071152 3.3342452 15.422224 -13.053348
13.866201 -4.6799083 -3.8418803 -8.641908 -4.9149055 -14.11544 -15.618039 -36.166126
-1.8523284 -10.398668 19.820988 1.1462023 0.891303 -16.9357 23.090235 -18.594767
-0.4852678 -30.349161 24.799425 10.839683 -3.3957608 18.100569 38.271385 -17.133091
-42.358593 -10.81796 -13.162952 -43.30023 10.905099 15.686601 4.4592586 -6.8087096
-7.8623276 -16.52198 -62.389275 -11.184779 35.11242 18.007988 3.0916574 1.6352051
19.52427 29.646965 -2.2202523 30.356747 -1.8821605 8.653536 -19.004524 7.8524265
29.215672 -7.7443132 -32.03516 10.604595 14.434789 31.05319 17.96321 7.83908
-0.804149 31.239853 -25.183561 6.173847 -2.436929 6.3336515 24.345173 11.333588
58.35125 -32.855232 12.700734 8.645664 -3.6579204 9.243097 5.163559 5.717599
-18.890226 14.292283 -50.389015 4.0369177 -4.2870812 5.0499682 -2.9704802 -19.025639
-24.98664 -16.336452 0.6552564 -17.548988 10.3139715 4.667792 -11.229624 -27.744808
-11.07177 -36.59461 -14.437354 -1.8461622 25.665087 -22.507309 -0.29887828 -25.319477
20.83516 27.530415 -32.613224 29.528973 -1.8691614 -0.5007154 25.488539 6.756606
-27.419569 29.042013 -23.60334 -3.5596724 -16.18519 22.11264 17.667847 -35.30568
17.179344 -56.659626 -17.712069 -0.24162127 -20.659342 26.284222 13.741425 -10.04654
-14.56938 -26.315865 3.855931 8.036498 40.044853 -4.387257 16.732197 -5.352583
7.854201 -7.14985 13.842143 -1.6860638 -4.6382604 11.968232 12.049007 -8.436149
-21.77104 24.916597 19.24836 2.4705746 1.4045384 1.9186001 -5.84348 19.63965
6.64648 -32.963516 -25.508972 -11.01839 1.6498554 25.569448 16.491909 -36.736526
-24.693848 -23.683403 3.3140697 -43.07 -6.584003 41.432106 39.177128 -32.469673
-67.44994 13.515258 -58.757595 12.5009575 -26.13588 -8.493318 46.833477 -28.482542

l1/b f4 [256]
00000000: 5dfe b1c1 feaf 4240 dd0d e140 be18 b140
00000010: 6a6a 8f3f a222 0341 cb83 0bc1 3e83 883f
00000020: 3537 1cbf 7e91 3040 3fac 23c2 c1a1 5e41
00000030: fe7f 9bc0 7102 0bc1 34b6 4b41 eeb2 563f
00000040: 6ac1 2441 80b5 2741 0e65 1b41 3bd8 3a41
00000050: d370 5f41 d8ae 3940 da3b 8140 0c8e 5d41
00000060: 8f68 92c0 d721 2dc2 88c5 ba40 ecb5 99bf
00000070: 355f 2441 5af7 263d 9da6 0241 fddc 5e40
00000080: cf54 1b41 319d 0641 515d 09c2 5c2d 1e41
00000090: 600c ee41 b5ec 5541 454c d240 d563 8d41
000000a0: 5ba5 1b41 e493 a6c1 4aa3 2cc1 1ce7 bfc1
000000b0: 1667 0ac1 6810 8241 bc54 22c1 658d 04c0
000000c0: 2361 95c1 2350 3341 c0e9 bac1 c0ba 8c41
000000d0: a438 2141 8c27 13c1 58aa 4a41 aa36 ed40
000000e0: 89ea 7cc1 222d 60c1 810b 8c41 0e8b f440
000000f0: 5f1f 3a41 8f45 703f e99a 4e41 4a07 d9c1
00000100: 9bf0 2840 f3ed a741 03b5 b0c1 6ec0 c5bf
00000110: a3c9 b8bf cf3b 42c0 3e2d b2be 8fb9 3fc1
00000120: c57f 0841 9d9c 8740 709d 88c0 4a3e 9cc1
00000130: 35c6 8e41 5f3f cbc0 6ac0 c2c0 84e4 ec41
00000140: bac4 3dc0 9fc6 30c2 cf73 22c1 b284 fc40
00000150: 30b0 9041 6085 143e 8372 a73f adbf 8ec0
00000160: b238 7041 9d3b 2a41 d42a 65c0 15db 163f
00000170: f2ac b441 f526 81c0 8589 aa3f 274d 16c1
00000180: 1e33 43c2 12c3 09c2 483e d8bf e219 51c1
00000190: 8963 2b40 0eff 3c41 0bde 2d40 a308 b13d
000001a0: ddf1 1d41 e1ae 9a3f 555a 23bf 078e 99c0
000001b0: 07fb bdc1 7cb9 c341 a8a6 ecc0 1c30 32c0
000001c0: 1533 a441 5ca8 1a41 ae25 52c0 7199 9c40
000001d0: 54e5 a740 ab64 a33f 35cc 4e3f 9556 1040
000001e0: 8bff aa41 650e 86c1 2f2f a7c1 9bf1 22bf
000001f0: dcc1 3640 f7e5 2b40 8863 c1c0 e510 b0c0
00000200: 576e 12c2 0f93 5fc0 8227 d141 861d 36c1
00000210: e1dc 9e41 5bb6 1641 26e3 9dc0 e747 0140
00000220: ddbb d0c1 667f 4bc1 81ca dbc0 d8ae 25c1
00000230: 590a 0dc2 6136 01c1 2f21 8d41 d5ce 8fc1
00000240: d5a4 1dc0 f4a4 1d41 7e11 7841 1cab 05c0
00000250: 228a 4440 6ad7 fbc1 7d4c 8dc1 67eb 0541
00000260: 96ce fb41 6e9c 80c1 9ed6 63c1 b226 4d41
00000270: 37d3 92c1 f388 9fbf 7072 4fc2 236b 3141
00000280: a51a 243f aabd e2bf 7151 54c0 eb98 0841
00000290: 7c64 1641 1249 18c2 7fbf 7141 ef07 34c1
000002a0: fddc 6ec0 9f04 45c2 38e3 78c1 2054 10c1
000002b0: 119c a840 35c8 5741 a676 8641 9438 50c1
000002c0: f453 0640 ba67 59c0 a641 29c1 3ddd 203f
000002d0: ee5e a840 ac39 13c0 8edb 1b41 4e9b e1c0
000002e0: fd79 c640 e297 6a40 cb27 bdc1 89fd 5f41
000002f0: 18ff fcbe 2f06 5c40 d1dd 90c0 d239 0e41
00000300: e16c 4f40 202c b2bf d944 82c1 d185 3d41
00000310: c56f 8241 dcad 5fc1 bbb7 1741 9ced 1241
00000320: 11a9 17c1 f3b3 9640 df23 15c1 4529 b83f
00000330: 4575 b340 507c 25c1 2683 91c0 3d11 d8c1
00000340: 1278 6d40 be2a c2bf 42e6 44c2 cf81 71c0
00000350: fe83 acc0 c47d 6e41 7bb0 19c1 fd4b 5840
00000360: f448 5e40 4606 fcc1 b999 31c1 5524 59c1
00000370: c177 b6c1 145d 8841 9c92 1d40 a812 6ec2
00000380: 0761 8141 ea00 2a41 8288 b3bf 8945 8fc0
00000390: 9ad7 82bf 90a8 c241 8a05 5941 6f89 f7c0
000003a0: 8b7d 0541 9c7e 74c0 0ae3 7841 7d7e 28c1
000003b0: 4d0c 5ebf 8b44 1440 2e01 32c2 31a7 a340
000003c0: ba34 aa3f 4a77 dac1 2ea5 b3c1 89d2 e3c0
000003d0: 8e63 4bc2 35cc 7ac2 f813 85c0 97d3 cec1
000003e0: 035f 1141 cb39 0241 ca15 1ec1 e31a 5ec0
000003f0: 0ba2 c3c1 ad7b 8641 6d33 96c0 9660 bec1
-22.2492 3.0419917 7.0329423 5.5342703 1.120435 8.195955 -8.719676 1.0665052
-0.6102174 2.7588801 -40.91821 13.914491 -4.859374 -8.688096 12.731983 0.83866775
10.29722 10.481812 9.712172 11.677791 13.965045 2.9012966 4.038556 13.847179
-4.5752635 -43.283047 5.8366127 -1.2008643 10.273244 0.040763237 8.165677 3.482238
9.708205 8.413377 -34.34113 9.886074 29.756042 13.37029 6.5718102 17.673746
9.72787 -20.822212 -10.7898655 -23.987846 -8.650167 16.25801 -10.145687 -2.07113
-18.67243 11.207065 -23.364136 17.591187 10.076328 -9.197155 12.666588 7.412923
-15.80726 -14.011019 17.505617 7.6419744 11.632659 0.9385614 12.91282 -27.12856
2.6396854 20.991186 -22.088385 -1.544935 -1.4436535 -3.0349004 -0.34800142 -11.982802
8.531194 4.237868 -4.2692184 -19.530415 17.84678 -6.3514857 -6.085988 29.61158
-2.9651322 -44.193966 -10.153274 7.891198 18.08603 0.14504004 1.3081821 -4.460898
15.013842 10.639554 -3.580739 0.5892804 22.584446 -4.0360055 1.3323218 -9.393836
-48.79992 -34.4405 -1.6894007 -13.068819 2.6779501 11.812269 2.7166774 0.086442254
9.871549 1.2084619 -0.6380971 -4.7985873 -23.747572 24.465569 -7.395344 -2.7841864
20.524942 9.666103 -3.2835498 4.8937306 5.246744 1.2765096 0.80780345 2.2552845
21.374777 -16.757029 -20.898039 -0.6364991 2.8555822 2.685911 -6.0434 -5.5020623
-36.607754 -3.4933507 26.14429 -11.382208 19.857851 9.41952 -4.933978 2.0200136
-26.09173 -12.718603 -6.8684697 -10.355186 -35.260105 -8.075776 17.641203 -17.975992
-2.4631855 9.852772 15.504271 -2.0885687 3.070931 -31.480183 -17.662348 8.369971
31.475872 -16.076382 -14.239897 12.821947 -18.353132 -1.2463669 -51.861755 11.088656
0.64103156 -1.7714131 -3.3174708 8.5373335 9.399532 -38.071358 15.109252 -11.251937
-3.732238 -49.254513 -15.555473 -9.020538 5.269051 13.486379 16.807934 -13.013813
2.098874 -3.396956 -10.578527 0.6283758 5.261588 -2.300395 9.741102 -7.050208
6.202391 3.6655202 -23.64443 13.999398 -0.4941337 3.4378774 -4.527077 8.889116
3.2410204 -1.3919716 -16.283617 11.84517 16.304575 -13.979946 9.482356 9.18301
-9.478776 4.7094665 -9.321258 1.4387594 5.608065 -10.34285 -4.5472593 -27.008417
3.7104535 -1.5169294 -49.22486 -3.773548 -5.3911123 14.9057045 -9.605586 3.379638
3.4732027 -31.503063 -11.10003 -13.57137 -22.808474 17.045448 2.4620733 -59.51822
16.172377 10.625223 -1.4026034 -4.477238 -1.0222046 24.332306 13.563852 -7.7355266
8.34315 -3.8202276 15.555429 -10.530881 -0.8673752 2.3166835 -44.501152 5.114159
1.3297341 -27.308247 -22.455654 -7.11945 -50.84722 -62.69942 -4.1586876 -25.853315
9.085696 8.13911 -9.88032 -3.470391 -24.454123 16.810389 -4.6937776 -23.797161

l4/W f4 [64, 256]
00000000: ab9d 6342 f61b 5e42 22f5 4342 4e1e c242
00000010: da81 1742 4a8b 6142 d609 8042 e77a 5c42
00000020: 0a12 4842 9129 6e42 8d62 6d42 6318 6342
00000030: 2f8c 6942 3d94 7542 5046 5e42 9a10 4542
00000040: bd7a 7242 a564 5742 445c 4c42 e146 6c42
00000050: bd8d 6042 d629 3942 2ffe 5742 1ec6 1e42
00000060: 51fc 6342 c4f5 4142 7258 7442 610a 8542
00000070: a627 7c42 7855 5142 49fe b142 8875 7642
00000080: ed3b 6442 9b64 5542 f247 7042 f0ae 653f
00000090: 7ed7 6342 bec3 3342 b283 7b42 ed6a 4742
000000a0: 5568 2242 f010 4c42 434b 8b42 e94a 6842
000000b0: f1ab 7e42 51a6 5442 ea79 1a42 53f7 4642
000000c0: 485d 6942 b3e8 c142 02c0 6142 95eb 8f42
000000d0: 4e94 5a42 a689 5542 04db 8442 66f0 cb42
000000e0: d06c 5142 785c b542 48a2 7642 1f97 7842
000000f0: 6e6a 2842 6f93 ad42 d773 7142 4c17 4b42
00000100: 31e7 5642 ef31 b642 b706 a942 54d6 4342
00000110: 61c0 2142 80d9 4742 0f1a 7842 b51a 4a42
00000120: 680a 5342 d760 5542 2acf 3c42 0014 4342
00000130: 1a76 6442 4a9f 3842 37d7 4d42 7419 6442
00000140: d02f 4042 2757 6542 1866 7942 e9b3 8642
00000150: 72fb 4142 582a 2742 47ac 7442 3b89 6042
00000160: 9f0d ae42 f640 b942 1115 7142 fbfb 3042
00000170: 5e50 7142 b4c7 5f42 d3ff 7042 4ddd 2b42
00000180: c316 5d42 abab 6c42 77bf 4342 ec51 1242
00000190: d83d 6442 4de3 5342 75e5 6642 7ec5 7f42
000001a0: da00 5842 c15b 4042 2c3d 6142 b141 3142
000001b0: a882 8b42 35d4 6d42 b977 7b42 9507 5f42
000001c0: 7af4 3642 62d2 0c42 34b7 0e42 5cd0 2042
000001d0: 89c6 5442 f860 4342 561a 7842 7fcd 6542
000001e0: fdb4 4e42 9900 3f42 3d17 5f42 15ed 3942
000001f0: ad44 6342 7706 6a42 1b09 6342 83a3 5b42
00000200: 421b 5c42 58ca 3342 e9eb 5142 8449 8b42
00000210: 7bc4 4f42 fa49 df41 3053 c241 3082 0b42
00000220: a329 7441 1e8c 8042 48a4 4b42 682c 5e42
00000230: 00cb 4f42 0809 7842 b483 5d42 85b0 4942
00000240: 3e99 3442 559f 2842 7d57 5442 d8bc 4a42
00000250: 4e4b 4842 4341 6e42 3592 1e42 9091 7d42
00000260: fa57 7542 b54a 7342 4627 b041 ffc1 5042
00000270: dd18 5242 1562 7242 bef4 4542 6f4d 5442
00000280: 3804 1042 85a6 2d42 9193 3e42 d86b 8142
00000290: d9f3 2b42 8cad 5d42 45da 6142 9bba 2e42
000002a0: 5a89 8142 b276 aa42 cfc7 6042 0321 4a42
000002b0: 2c55 9042 2a2d 7742 af0c 3d42 9484 8b42
000002c0: 4e7b 5a42 08bf 4842 ed00 3d42 0ee7 1d42
000002d0: cf18 8b42 cb3d 7642 f1c0 f841 78be 6842
000002e0: 2087 6c42 a347 3d42 a7eb 6742 a675 4542
000002f0: b932 6b42 f095 6b42 f29b 6742 03be 5342
00000300: 52ac 1a42 715a 5b42 215b 2e42 b034 7042
00000310: 8c89 5842 0b6d 3542 e237 5e42 f0e3 6342
00000320: c7cc 2942 1400 6442 e7bc 6742 55e4 2342
00000330: 3823 8442 ec58 a042 dd31 6542 3476 3142
00000340: 6683 6b42 3a25 6942 9820 3342 b1b5 2042
00000350: 100f 5b42 0911 2f42 3c4a 5642 1592 4f42
00000360: 450c 6542 1c89 7142 cc4b 5b42 a075 7242
00000370: 6029 e941 38cc 6542 4943 6542 9529 6942
00000380: 7d7a 5e42 dbc8 3142 7938 6242 80d7 6642
00000390: 4024 6942 155f 1c42 f13e 4e42 71a8 3142
000003a0: 35e6 6842 fdb4 4c42 e794 6942 05cd 2142
000003b0: e9ec 3142 18aa 4942 ecd2 6042 ab12 ca42
000003c0: bfcd 8142 7a02 4a42 d6cc 7642 f6a8 6242
000003d0: 777a 8142 704a 2742 a7c3 6642 873f 4042
000003e0: 9997 1442 1312 7642 01a9 3b42 3c2e a942
000003f0: dca8 2c42 8ae0 4642 bb98 7642 e5cb 7842
56.903973 55.527306 48.989388 97.05919 37.87681 56.386024 64.01921 55.12002
50.017616 59.540592 59.34624 56.773815 58.386898 61.394764 55.568665 49.266212
60.61986 53.848286 51.090103 59.069218 56.138416 46.290855 53.998226 39.693474
56.996403 48.490005 61.086372 66.52027 63.03872 52.333466 88.99665 61.614777
57.05852 53.348248 60.07026 0.8972006 56.96044 44.941154 62.87861 49.85442
40.601887 51.01654 69.646996 58.073154 63.66791 53.16242 38.619057 49.741528
58.341095 96.95449 56.437508 71.96012 54.64483 53.384422 66.427765 101.96953
52.356262 90.6806 61.658478 62.14758 42.103935 86.78796 60.363125 50.77275
53.725773 91.09753 84.513115 48.959305 40.43787 49.962402 62.025448 50.52608
52.760162 53.34457 47.20231 48.76953 57.115334 46.155556 51.46017 57.024857
48.04669 57.33511 62.3497 67.35139 48.495552 41.79135 61.16824 56.134014
87.0266 92.62688 60.270573 44.246075 60.328484 55.945023 60.24983 42.966114
55.27223 59.167645 48.936977 36.58 57.060394 52.971973 57.72408 63.942863
54.00083 48.089603 56.30974 44.31415 69.75519 59.457233 62.866917 55.757404
45.738747 35.205452 35.67891 40.203476 53.193882 48.844696 62.02572 57.45068
51.676746 47.750584 55.772694 46.481525 56.817066 58.506313 56.758892 54.90968
55.02662 44.9476 52.48038 69.643585 51.941875 27.911121 24.290619 34.877136
15.260165 64.27367 50.91043 55.543365 51.948242 62.00882 55.378616 50.422382
45.14965 42.155598 53.085438 50.684418 50.07354 59.563732 39.64278 63.39215
61.335915 60.822956 22.019176 52.18945 52.52428 60.595783 49.489006 53.07562
36.00412 43.412617 47.644108 64.71063 42.988132 55.41948 56.463154 43.68223
64.768265 85.23183 56.195126 50.532238 72.16635 61.794106 47.262386 69.75894
54.620415 50.186554 47.250904 39.47564 69.548454 61.560345 31.09421 58.186005
59.131958 47.319958 57.98013 49.36489 58.799534 58.896423 57.90229 52.93556
38.66828 54.83832 43.588993 60.051453 54.134323 45.356487 55.554573 56.972595
42.449978 57.000076 57.934475 40.97298 66.06879 80.173676 57.298695 44.365433
58.87832 58.286354 44.78183 40.177433 54.76471 43.766636 53.572495 51.89266
57.261982 60.383896 54.82402 60.61487 29.145203 57.449432 57.31571 58.290607
55.619617 44.446148 56.55515 57.71045 58.2854 39.092854 51.561466 44.414494
58.22481 51.176746 58.395412 40.450214 44.481358 50.416107 56.20598 101.03646
64.90185 50.50242 61.700035 56.665 64.73919 41.822693 57.691067 48.06204
37.148045 61.51765 46.915043 84.5903 43.1649 49.719276 61.64915 62.199116

l4/b f4 [64]
00000000: c939 c4c2 ee38 c4c2 113a c4c2 383e c4c2
00000010: ca37 c4c2 fe3b c4c2 463a c4c2 3538 c4c2
00000020: 6638 c4c2 0041 c4c2 4d3b c4c2 a540 c4c2
00000030: 8b3f c4c2 673d c4c2 dd37 c4c2 2539 c4c2
00000040: cf3a c4c2 733f c4c2 593a c4c2 1238 c4c2
00000050: b93a c4c2 e142 c4c2 8d41 c4c2 143b c4c2
00000060: 023a c4c2 323f c4c2 b335 c4c2 cf3e c4c2
00000070: 123b c4c2 243e c4c2 3643 c4c2 893a c4c2
00000080: 203a c4c2 4a42 c4c2 6e38 c4c2 c43d c4c2
00000090: 863f c4c2 8e36 c4c2 603c c4c2 a63e c4c2
000000a0: 163c c4c2 df44 c4c2 823c c4c2 2e33 c4c2
000000b0: 1239 c4c2 bb36 c4c2 103b c4c2 c838 c4c2
000000c0: 3139 c4c2 de39 c4c2 a13b c4c2 bb3b c4c2
000000d0: 9c42 c4c2 8b46 c4c2 7e39 c4c2 9437 c4c2
000000e0: 5338 c4c2 2935 c4c2 923a c4c2 713c c4c2
000000f0: ce40 c4c2 8638 c4c2 e03b c4c2 133c c4c2
-98.11286 -98.11119 -98.11341 -98.12152 -98.10896 -98.11717 -98.113815 -98.10978
-98.11015 -98.12695 -98.11582 -98.12626 -98.12411 -98.11993 -98.10911 -98.11161
-98.11486 -98.123924 -98.11396 -98.10951 -98.11469 -98.13062 -98.12803 -98.11539
-98.1133 -98.12343 -98.10488 -98.12267 -98.11537 -98.12137 -98.13127 -98.11433
-98.113525 -98.12947 -98.110214 -98.120636 -98.12407 -98.10655 -98.11792 -98.12236
-98.117355 -98.134514 -98.11818 -98.09996 -98.111465 -98.106895 -98.11536 -98.1109
-98.1117 -98.11302 -98.11646 -98.11666 -98.1301 -98.13778 -98.11229 -98.10855
-98.11001 -98.10383 -98.114395 -98.11805 -98.12657 -98.1104 -98.11694 -98.11733

l3/W f4 [256, 256]
00000000: 76f5 53c0 0a15 d2c1 6350 f8c1 0259 6140
00000010: 59cc a041 1b66 f141 7f68 8440 b42c 52c1
00000020: 9812 4a3f 5edc 5440 80ac 0542 aa63 bf41
00000030: d26c 7c40 013c e040 0d0c db3f 4e6e 3ac0
00000040: 7e8a 5a41 0efe c0c1 b56d 71c1 78ab 00c1
00000050: c73b 38c2 4e13 e6c1 c86d b241 7de9 8ebe
00000060: 7435 9cbe edae 9041 f453 af40 5b8e 12c2
00000070: d0d5 18c1 2282 e23f 4669 36c1 abf0 5941
00000080: 638e b541 3ab9 9bc0 3541 3ac1 6ba2 f540
00000090: 644a 22c2 fe6b f6c0 4336 a6c1 0d3f 16c0
000000a0: 6271 4941 6f03 47c0 b10c 1fc2 f10f b641
000000b0: 5105 8641 883c 7941 086c 9540 0a28 c641
000000c0: 473f 80c0 be16 dd40 ccf6 fb40 395d dfc1
000000d0: 9339 22c1 ebd8 8d41 d2a2 85c1 5d90 89c2
000000e0: de4f b741 f413 82c0 2270 0cc2 e3e8 b941
000000f0: 2dfd b341 0226 b3c1 c63f 1ac2 97b3 9cc1
00000100: 8f6f fdc0 835a 3841 05d8 ebc1 4885 5141
00000110: 440a 4c40 e6e7 94c1 839e e1c0 f5a7 0942
00000120: d170 a641 7790 14c0 3510 13c2 1919 0cc1
00000130: 0468 55c1 50fb 22c1 5421 9bc1 d204 3041
00000140: 2490 e940 3715 cfc1 9307 a0c1 7f9f 90c1
00000150: 951b cac1 cb9f d1bf 359a bcc1 9f96 8740
00000160: 79b1 a4c1 d5d9 aec0 c48b 2641 26dd 0a42
00000170: 03fd 2941 55a8 00be 077d 1a41 34f3 83c1
00000180: 7bb4 c241 d343 adbf e4c2 22c2 b9cc 2141
00000190: 0da2 17c1 b18e 3ec2 fc71 1d42 7518 7541
000001a0: 0dfb 64c0 b8b5 d5c1 ff6f 0e42 e661 c540
000001b0: 43b8 09c1 ff27 9fc1 4dd9 3b40 5ab1 92c0
000001c0: 9283 bbc1 dd55 20c2 575d 9541 dcc8 06c2
000001d0: 3630 2342 d83b a240 0cdc af40 2a53 08c1
000001e0: 2c71 66c1 4ab3 91bf 8594 39c0 a931 3bc1
000001f0: 335c d041 21be 1bc2 03c8 1841 c67d a141
00000200: 56d2 eb41 01ea 35c2 e570 8841 4007 b4c1
00000210: 76b7 c2c1 de3f 2042 e694 11c2 3eac 0241
00000220: 7eb4 c841 b7d4 6941 e8f0 e2c1 7131 ffc0
00000230: bd7f e440 9f5c 80c1 755d 9640 97fe 91c1
00000240: b193 6ac2 fe45 7ec1 80fe 2d41 55b6 4fc2
00000250: 08fd 0941 8590 fe40 3c39 09c0 8f7b 9ec1
00000260: 851e 82c1 05d0 0d41 6706 fbc1 7998 c7c1
00000270: 6171 cdc1 67e4 10c0 d283 3f41 9101 80c1
00000280: fcf9 24c2 8ae1 83c1 71bc 52c2 8b64 6641
00000290: 53e2 78c2 9eaa 09c1 7495 e8c1 19f6 7b40
000002a0: 66e6 88c2 d678 5dc0 55a7 cec1 e6d3 6e40
000002b0: b664 e041 59f9 8bc1 8717 80c1 5550 edc0
000002c0: ff92 42c0 0499 8e41 51b5 5341 14c2 1ac2
000002d0: 0c0a 88c2 7769 c2c1 f3bf 9a41 aef5 17c2
000002e0: dec5 4542 af25 c3c1 a400 e540 b0b1 aa40
000002f0: 90aa 23c1 ef7b cfc1 1041 2ac0 e498 1841
00000300: 5c32 9f40 5cb6 be41 c079 9541 2cbc a6bf
00000310: c262 34c1 39d0 8d41 95d6 40c2 cad8 3642
00000320: 2de9 2dc0 7e3e 7fc0 2d9e be41 b995 ed41
00000330: 7c71 80c1 11b6 9141 3563 9341 6c8c 03c1
00000340: a528 57c1 5551 ffc1 491c 1dc2 7e7e 8140
00000350: 408c 9b41 7f3e b041 f3a3 9041 042a 0ec1
00000360: 0396 e640 e87c 20c2 c1ac 4fbf 73ba 95c1
00000370: 4a68 f3c1 092a 49c2 bcd9 b9c1 1647 4fc2
00000380: fe59 25c2 c2e9 a5c1 fd65 91c1 4ce6 7440
00000390: 3ddf 8441 40df 5f41 13b5 b43f 3417 a9c0
000003a0: 2da8 7841 e042 0141 c71f b7c1 d242 1641
000003b0: 8470 36c0 9351 1bc1 2350 01c2 b673 9bc1
000003c0: 1097 88c1 c92f cdbf 53c9 3ac2 8c8e 3742
000003d0: 6e32 4341 8386 3f3f 8fe3 1041 dba3 9cbf
000003e0: 5b95 3ec2 e5a6 9e41 69b4 e3c0 a250 00c2
000003f0: 5474 bc41 e1e0 3ac1 a16d d341 a768 0641
-3.3118567 -26.260273 -31.039251 3.5210576 20.09978 30.174856 4.137756 -13.135914
0.7893462 3.3259501 33.418457 23.923664 3.9441419 7.0073247 1.7113053 -2.9129825
13.658812 -24.12405 -15.089284 -8.0418625 -46.058376 -28.759426 22.303604 -0.27912512
-0.30509531 18.085413 5.478998 -36.63902 -9.5522 1.7695963 -11.4007015 13.621257
22.694525 -4.8663607 -11.64092 7.6760764 -40.572647 -7.7006826 -20.776495 -2.3475983
12.590181 -3.1095846 -39.762394 22.757784 16.752596 15.577278 4.6694374 24.76955
-4.0077243 6.909026 7.8738766 -27.920519 -10.139056 17.730917 -16.704502 -68.78196
22.913998 -4.0649357 -35.109505 23.238714 22.498621 -22.393559 -38.56228 -19.58769
-7.919868 11.522098 -29.480478 13.095039 3.1881266 -18.613232 -7.0505996 34.41402
20.805086 -2.3213174 -36.765827 -8.756127 -13.337894 -10.186356 -19.391273 11.001177
7.2988453 -25.885359 -20.003698 -18.077879 -25.263468 -1.637689 -23.575296 4.2371364
-20.586657 -5.464091 10.409122 34.715965 10.62427 -0.12564214 9.655524 -16.493752
24.338125 -1.3536323 -40.690323 10.112481 -9.477063 -47.639347 39.361313 15.318471
-3.577823 -26.71373 35.60937 6.1682005 -8.607486 -19.89453 2.935138 -4.5841494
-23.439243 -40.08385 18.670576 -33.69615 40.79708 5.069805 5.495611 -8.520304
-14.40263 -1.138284 -2.89969 -11.699624 26.04502 -38.935673 9.548831 20.186413
29.477703 -45.47852 17.055124 -22.50354 -24.33958 40.06237 -36.39541 8.167051
25.08813 14.614432 -28.36763 -7.9747853 7.140593 -16.045225 4.6989083 -18.249311
-58.64423 -15.892088 10.874634 -51.92806 8.624275 7.9551415 -2.1441183 -19.810331
-16.264902 8.863286 -31.378126 -24.94945 -25.68036 -2.2639406 11.969683 -16.000765
-41.244125 -16.485126 -52.684025 14.399547 -62.22102 -8.604155 -29.072975 3.9368956
-68.45 -3.4605002 -25.831705 3.7316833 28.049175 -17.496752 -16.011488 -7.416056
-3.040222 17.824715 13.231767 -38.68953 -68.01962 -24.301497 19.343725 -37.98992
49.44323 -24.3934 7.156328 5.3341904 -10.229141 -25.935514 -2.660221 9.537327
4.9748974 23.839043 18.684448 -1.3026175 -11.274111 17.726671 -48.209553 45.711708
-2.717357 -3.9881892 23.827234 29.698107 -16.055412 18.2139 18.42344 -8.221783
-13.447423 -31.914713 -39.277622 4.046691 19.443481 22.030516 18.080053 -8.885258
7.205812 -40.12198 -0.81122977 -18.71604 -30.425922 -50.29105 -23.231316 -51.81942
-41.337883 -20.73914 -18.174799 3.8265562 16.609003 13.992004 1.411776 -5.2840824
15.541059 8.078827 -22.890516 9.391314 -2.8506174 -9.707416 -32.32826 -19.4315
-17.073761 -1.6030208 -46.696606 45.889206 12.199812 0.74814624 9.055556 -1.2237505
-47.645855 19.831491 -7.1157727 -32.078743 23.5568 -11.679902 26.42853 8.40055

l3/b f4 [256]
00000000: f372 ec40 598a 91bf 4c0e d33f 0577 adc0
00000010: 4161 9e41 d303 b141 7929 8f41 91d9 3b41
00000020: 1bbf 2341 2f6c 8640 30c5 5cc0 5af0 1641
00000030: 58c4 a83f c25a 13c0 c410 5740 0bd8 2941
00000040: 460e dc3e 0e8b e740 be1c 3a41 6b79 e840
00000050: 4e1d c43f 9e04 3fc0 0399 f041 f651 8d40
00000060: 438d f140 11c6 1140 b8b1 c63f 385c 4641
00000070: 0e62 01bd 9e7b c840 d307 b2c0 218d 1b41
00000080: 5fad a5c0 1728 0941 8136 943f 7fbd 7642
00000090: eed9 4e40 9ace 80c0 dbf7 3f3e 9120 36c0
000000a0: 2e71 a940 10ce 2341 a323 2541 f14c e040
000000b0: 5453 fdc0 a06b bd40 a6cc 0342 8877 2641
000000c0: b392 463f c624 e9c0 d70c 5941 e8b1 03c1
000000d0: 764c 08bf 7134 35c0 0bfc bdbf 8e14 8e3f
000000e0: 01a9 4040 58e9 02c1 74df 3341 0465 9240
000000f0: b9f3 cf41 69e5 c4bf 0698 b9bf 2497 2e40
00000100: 51aa 8240 e151 90c0 a290 49be fb2a 1a41
00000110: 53b8 1241 6631 4741 75cf 3d41 919a 1e41
00000120: aaa6 95bf 5952 6e41 26ba 6340 b908 5940
00000130: 576c d93f 96c9 ba40 c113 9b41 eecd 2d40
00000140: 7138 aa3f 7810 2040 3f5b 5a3f fd1e 30c0
00000150: 4715 d240 64e6 d141 b554 1441 8c51 5440
00000160: 34ad 5fc0 9487 4fc1 ff89 ee40 b281 3041
00000170: 83df 5140 ee1a 5341 6d42 d240 7eff f740
00000180: 3208 bb41 9fc6 9bbf 5d9f 5941 7ede 2d41
00000190: 7928 0141 d4fe 4e41 2482 a740 3b66 3841
000001a0: 6f71 8cc0 e750 d740 24dd fa3f 316b d941
000001b0: 2485 ff3f 2ba4 5fc0 0462 04c1 0908 e840
000001c0: 1299 6440 3a2e e240 ffd1 1242 d1fd f040
000001d0: 41f9 a241 26d0 6041 c39e 23c0 b1bb 15be
000001e0: 0de3 7e41 157a 0841 9af8 63c0 b562 8f40
000001f0: 8f13 41c0 002e 3fbf bb6d 13bf 0740 3f3f
00000200: 52a3 2041 0720 8a41 a1a2 893f 8b64 b940
00000210: 805e 6940 c5be 5f41 f329 1942 fa47 d741
00000220: 6b6f f23f 63e7 07be cac8 f740 0324 353f
00000230: 3edf 0641 1759 1bc0 0522 7d40 7617 1a41
00000240: ff8b 7441 edee b2be 9993 86c0 c5c3 13c0
00000250: fef2 3a41 bd72 41be 08fe 4841 a7e6 1b41
00000260: 5727 4641 f046 fa3e b084 ca41 d3f5 89c0
00000270: 96ac fd40 45d3 5d41 1673 2ac0 75de 6b3f
00000280: b4f1 5041 a7cd da41 e72a c140 e9ca 1241
00000290: 088a 9941 76ed 0a41 74d1 a240 3aca 2141
000002a0: 0dec f1c0 157f 7e41 8100 0140 5cee 3941
000002b0: 0dcc f240 75d7 82c0 4617 d240 4ea2 7041
000002c0: c87a 7740 5c4c 2c41 1966 2841 5b4f 1141
000002d0: 4304 1741 d6e6 8e41 7db3 fa41 f149 af3f
000002e0: 8b63 db40 b8d0 c240 4ed5 8e40 5572 9340
000002f0: 6447 f740 17aa 91c0 75ba c93f 362b 7840
00000300: e117 f240 4bc0 70bf 83ce d741 db1e 7bbf
00000310: d172 b240 d237 8b41 99c0 2fc0 41e0 b640
00000320: 6915 833f 6249 813c e57a 5240 ab6e 1b41
00000330: 2ce5 4140 efb0 04bf 2cf8 2d41 037e ed41
00000340: f13c 5540 7d5a 1941 548a e341 3feb 1a41
00000350: de07 ff40 3788 d940 f84b 8640 2131 0942
00000360: 620d e040 31f7 9640 66e0 f53f e599 8b41
00000370: e820 6c42 16d2 ac41 fcd9 51be df4c 193f
00000380: 99e4 6e41 64ab 3d40 5057 2141 d840 4b41
00000390: 8a5b 98bf 5fff a840 c8da 38be cefb 3a3e
000003a0: e61f 793e 744f 2641 982a f540 1770 543f
000003b0: 68d7 9a3e b73f 2c40 ba08 1941 4aa9 cabf
000003c0: 6376 2bbf a42c 06c1 7337 0f41 98e5 bf40
000003d0: e80a 6841 8854 4341 50bb c7c0 b423 5241
000003e0: 2b74 e641 b083 9e40 0eb9 3541 18b8 f641
000003f0: 92d4 f140 610c 12c0 0158 cb40 e393 09c0
7.389032 -1.1370345 1.6488738 -5.4207788 19.797487 22.126867 17.89525 11.740617
10.234157 4.200706 -3.4495354 9.43368 1.3184919 -2.3024144 3.3603983 10.615245
0.4297964 7.2357244 11.632017 7.2648215 1.5321443 -2.9846568 30.074713 4.416255
7.548494 2.277714 1.5522985 12.397514 -0.031587653 6.26509 -5.563455 9.721955
-5.1774135 8.572288 1.1579133 61.685055 3.2320514 -4.02522 0.18746893 -2.8457377
5.295066 10.237808 10.3212 7.0093923 -7.916422 5.919388 32.949852 10.404182
0.77567595 -7.285739 13.565635 -8.230934 -0.5324167 -2.8313258 -1.4842542 1.1100023
3.0103152 -8.181969 11.242054 4.574831 25.994005 -1.538251 -1.4499519 2.727975
4.0832906 -4.509995 -0.1968408 9.635493 9.170001 12.44956 11.863149 9.912736
-1.1691487 14.895104 3.5582366 3.3911574 1.6986188 5.8371077 19.384645 2.715694
1.3298475 2.5010052 0.8529548 -2.7518914 6.5650973 26.237495 9.27068 3.3174772
-3.4949465 -12.9706 7.454345 11.031664 3.279267 13.194075 6.5706086 7.749938
23.379002 -1.2169989 13.601407 10.866819 8.072381 12.937214 5.2346363 11.524959
-4.388847 6.728626 1.9598737 27.17734 1.9962506 -3.494395 -8.27393 7.250981
3.5718427 7.068143 36.705074 7.5309834 20.371706 14.0508175 -2.556565 -0.1462238
15.930432 8.529805 -3.5620484 4.480799 -3.0168188 -0.74679565 -0.5758931 0.7470707
10.039873 17.265638 1.0752755 5.7935233 3.6463928 13.984075 38.290966 26.910145
1.8940252 -0.13271861 7.7432604 0.70758075 8.4295025 -2.4273126 3.9552014 9.630728
15.284179 -0.3494791 -4.2055173 -2.3088238 11.684324 -0.18891425 12.562019 9.743812
12.384604 0.48882246 25.314789 -4.311258 7.9273176 13.864079 -2.6632743 0.9213632
13.05901 27.350416 6.036487 9.174539 19.192398 8.682974 5.088068 10.111872
-7.560065 15.906026 2.0156558 11.620693 7.5874085 -4.088801 6.565341 15.039625
3.866869 10.768642 10.524926 9.081874 9.43854 17.862713 31.33764 1.369444
6.8559012 6.0879784 4.463538 4.6077065 7.7274647 -4.552013 1.5760027 3.8776374
7.565415 -0.94043416 26.975836 -0.98093957 5.5765157 17.402256 -2.7461302 5.7148747
1.0240909 0.015782062 3.288751 9.714519 3.0296125 -0.5183248 10.873089 29.68653
3.3318446 9.584592 28.442543 9.682433 7.9697104 6.797878 4.1967735 34.297977
7.0016336 4.7176747 1.9209106 17.450144 59.032135 21.602581 -0.2049331 0.5988292
14.93081 2.9635859 10.083817 12.703331 -1.1902936 5.281173 -0.18052208 0.18260118
0.24328575 10.394398 7.6614494 0.82983536 0.30242467 2.6913888 9.5646305 -1.5832913
-0.6697752 -8.385899 8.951037 5.9967766 14.502663 12.2081375 -6.2416153 13.133717
28.806723 4.953575 11.357679 30.83989 7.5571985 -2.2820055 6.3544927 -2.1496513
