size8/agent_black_88000/model.npz (npz, 608528 bytes, 8 tensors)

l2/W f4 [256, 256]
0	0x412def39	10.870904
1	0xc16a0506	-14.626226
2	0xc174c03c	-15.296932
3	0xc0dc519a	-6.884961
4	0xc153a4e3	-13.227756
5	0x409b5296	4.8538313
6	0x4190da7c	18.106682
7	0x4143cdd7	12.237754
8	0x414506ba	12.314142
9	0xbf17f562	-0.593588
10	0x41431bb8	12.194267
11	0x418824b4	17.017921
12	0xbf62fad7	-0.88664
13	0x412458b4	10.271656
14	0xc1fa6273	-31.29807
15	0xbfb2ca83	-1.3968052
16	0x415c8722	13.782991
17	0xc112f552	-9.184893
18	0xc1a3acea	-20.45943
19	0xc110f8ef	-9.060775
20	0xc156edcb	-13.433055
21	0x3f24b49f	0.64338106
22	0x408db0e9	4.4278455
23	0xc17e1efc	-15.882565
24	0xc106c904	-8.424076
25	0xc03b2a7d	-2.9244683
26	0xc12d62be	-10.836607
27	0xc1478509	-12.469979
28	0x41cc14b6	25.510113
29	0x41d1cada	26.224049
30	0xbe647034	-0.22308427
31	0x3eeee8e4	0.46662056
32	0xc18e8a15	-17.817423
33	0xc14fd6d6	-12.98995
34	0xc1295632	-10.583544
35	0x3fdd6dfc	1.729919
36	0x41890319	17.126513
37	0x41944c51	18.537264
38	0xc1be16e0	-23.76117
39	0x418ae992	17.364048
40	0xc165f31b	-14.371852
41	0xc104afc6	-8.292913
42	0xc0d546af	-6.6648784
43	0xc1ba36ff	-23.276854
44	0xc0ab5a66	-5.354785
45	0x4105d437	8.36431
46	0x41a2dde1	20.35834
47	0x40e8468b	7.258611
48	0xbfbb3da0	-1.4628181
49	0xc1c9276a	-25.144245
50	0xbf3f453e	-0.7471503
51	0x40ec1223	7.377214
52	0x4116b364	9.418797
53	0xc193db48	-18.48207
54	0xc18eae86	-17.835217
55	0x415f7987	13.96717
56	0xc1809e83	-16.077398
57	0x409bf6ad	4.873862
58	0x413fe52e	11.993452
59	0x40a68d68	5.2047615
60	0xc1bd7ff7	-23.687483
61	0x4034a919	2.822821
62	0x41034230	8.203659
63	0xc0f63f95	-7.6952615
64	0xc1871c55	-16.888834
65	0xc15d3392	-13.82509
66	0xc23a0b0c	-46.510788
67	0xc0fdc4cb	-7.9302726
68	0xc054e705	-3.3266003
69	0x415f71e7	13.965308
70	0x4097d3cf	4.7446055
71	0x41a700c3	20.875372
72	0x4173a137	15.226859
73	0x413205e2	11.126436
74	0xc0ef5c71	-7.4800344
75	0x41265b7f	10.397338
76	0x404a9c7a	3.1658006
77	0xc0fe2fe6	-7.943347
78	0x4188cb55	17.099283
79	0x413cf12e	11.808882
80	0x404c01ad	3.1876023
81	0xc12139fe	-10.076658
82	0x3fe9cc49	1.8265468
83	0xc115806d	-9.343854
84	0x41242c67	10.26084
85	0x4186d0cd	16.851954
86	0xc1610efd	-14.066159
87	0x41301fbf	11.0077505
88	0x4149c854	12.611408
89	0xc16b5b38	-14.70977
90	0xc00cf9ef	-2.2027547
91	0x41500e7d	13.003537
92	0xc1bb5ecb	-23.421286
93	0x41170871	9.439561
94	0x3ff8dad0	1.9441776
95	0x40a0432c	5.0081997
96	0xc1840dea	-16.506794
97	0x3f9e4287	1.2364053
98	0x40d4081b	6.6259894
99	0x3e676751	0.22598006
100	0xc09cc108	-4.8985634
101	0xc21a17b1	-38.523136
102	0xc0d3326b	-6.5999045
103	0xc1a011b0	-20.008636
104	0xc10b52fd	-8.707761
105	0xc18612fb	-16.759268
106	0xc1c87633	-25.057714
107	0xc220b6f3	-40.17866
108	0x418d8193	17.688269
109	0xc251f18b	-52.48588
110	0xbe94d779	-0.29070643
111	0x40e8b1c6	7.271701
112	0xc0d9fae2	-6.8118753
113	0xc0c726d0	-6.223488
114	0x3fba745c	1.456676
115	0xc1a435fd	-20.526361
116	0x4049fb6a	3.15597
117	0xc0e5572f	-7.1668925
118	0xc0744ab6	-3.81706
119	0xbfa0453b	-1.2521127
120	0xc0e91f86	-7.285098
121	0xc1c0a4b3	-24.08042
122	0x3daea5e6	0.08527736
123	0xc23489b3	-45.13447
124	0xc050f523	-3.264962
125	0x40001ef0	2.0018883
126	0x4071f223	3.7804039
127	0xc039130f	-2.8917882
128	0x41186f23	9.527133
129	0xc2156c40	-37.355713
130	0x40f85db7	7.76144
131	0xc0b22ecd	-5.568213
132	0x411e6f4c	9.902172
133	0x4189e2cb	17.235739
134	0x40cdca67	6.4309573
135	0x4192857f	18.315184
136	0xc24dd62a	-51.459145
137	0xc0a2bd25	-5.085589
138	0x41953b1a	18.653858
139	0xc18b99ef	-17.450163
140	0xc13f94e9	-11.973855
141	0x40e4d9f8	7.1516075
142	0xc0d011eb	-6.5021873
143	0x4153fd21	13.249299
144	0xc15b9bfb	-13.725581
145	0xc1840dcf	-16.506742
146	0x41f82c01	31.021486
147	0x40135b29	2.302439
148	0x41a0e98e	20.11404
149	0xc0d59896	-6.674876
150	0xc0bddc56	-5.9331465
151	0x40719fff	3.7753904
152	0xbf5f39b4	-0.87197423
153	0xc150baee	-13.045637
154	0x4165c972	14.361681
155	0x4103531f	8.207793
156	0xc08357e8	-4.1044807
157	0xc10ea8c6	-8.916204
158	0x3f96d8ce	1.1784914
159	0xc12b7e19	-10.718286
160	0xc015d542	-2.3411412
161	0xc169cebb	-14.612971
162	0x4112d68c	9.17738
163	0x4164eb7f	14.307494
164	0xc0d16b37	-6.5443377
165	0xc205a995	-33.415607
166	0x4182060a	16.252949
167	0x41080b6b	8.502788
168	0xbfb3fd24	-1.4061627
169	0x40a59fad	5.1757417
170	0xc19bdd2f	-19.483
171	0xc0f650e8	-7.6973763
172	0xbf9f5073	-1.2446426
173	0x41098077	8.5938635
174	0xc20f34a9	-35.801426
175	0x3ffbc45c	1.9669299
176	0xc1107772	-9.029161
177	0x411c1e2e	9.757368
178	0x3e9d5f9a	0.30737
179	0x3fecf3eb	1.8511938
180	0xc09fec78	-4.997616
181	0x421bbbe5	38.93349
182	0xc1bc59de	-23.54388
183	0x4146e9f5	12.432118
184	0x4141da43	12.115787
185	0xc2158288	-37.377472
186	0x40a155b8	5.0417137
187	0x4093b6d5	4.6160684
188	0xc1b399f7	-22.450178
189	0x417288d1	15.158402
190	0x41d15ca4	26.170235
191	0x413f3a39	11.9517145
192	0x40d7709f	6.7324977
193	0x404ae046	3.1699386
194	0x40b51ea8	5.659992
195	0xc0a8541f	-5.2602687
196	0x418a6f92	17.304478
197	0x40e2d2af	7.088218
198	0x412e1443	10.879947
199	0x419af1ed	19.368128
200	0xc10c0555	-8.751302
201	0xc19d1532	-19.63535
202	0xc24905e1	-50.25574
203	0xc10db490	-8.856583
204	0xc14a1a4c	-12.63142
205	0xc191729e	-18.180965
206	0xc13da403	-11.852542
207	0xc0dfd1fa	-6.994382
208	0xc0eb0522	-7.3443766
209	0xc1901589	-18.010515
210	0xc18248de	-16.28558
211	0xbff225e0	-1.8917809
212	0xc143511e	-12.207304
213	0xbe962047	-0.293215
214	0xc21d7a69	-39.36954
215	0xc142f565	-12.184911
216	0x40d153a8	6.541462
217	0x4094d086	4.6504545
218	0xc0eeeb91	-7.4662557
219	0xc15ebcbd	-13.921079
220	0xbfaafaa6	-1.3357742
221	0x4031b561	2.7766955
222	0xbfb52068	-1.4150515
223	0xc0bfd7c8	-5.9950905
224	0xc19030cd	-18.023829
225	0xc1a3eede	-20.491634
226	0x3cce240a	0.02516367
227	0xc1fa128e	-31.25906
228	0xc0bbf75e	-5.873946
229	0xc1a8634c	-21.048485
230	0x4148fc8e	12.561659
231	0x4168a3d4	14.539997
232	0x41555751	13.3338175
233	0xc1aa7fae	-21.312344
234	0x417bef45	15.745915
235	0xbeee689b	-0.46564183
236	0xc0184d53	-2.3797195
237	0x40d13b8d	6.5385194
238	0xc0e6ddd8	-7.2145805
239	0xc0610761	-3.5160754
240	0xc015b17b	-2.3389575
241	0xbfa8bacb	-1.3182005
242	0xc112b7f5	-9.169911
243	0x41113ccf	9.077346
244	0xc1b6dfce	-22.85928
245	0xc1b92add	-23.14593
246	0x41280759	10.501794
247	0xc209ba53	-34.431957
248	0x41bb2c9d	23.396784
249	0x41c9867e	25.19067
250	0x415625f2	13.384264
251	0x411b9551	9.723954
252	0xc175a3ac	-15.352459
253	0xc213997c	-36.899887
254	0xbf18fefe	-0.5976409
255	0x41c2715c	24.305351

l2/b f4 [256]
0	0x4184b90b	16.590353
1	0x410dc331	8.860154
2	0x4087cb27	4.243549
3	0x418c2c6d	17.521692
4	0x40f51fc3	7.660127
5	0x418917e7	17.136671
6	0x3e8614fe	0.2618789
7	0x3d547f06	0.05187895
8	0x416c442e	14.766645
9	0x3f81f6b5	1.0153414
10	0x40023224	2.0343103
11	0x411a69c7	9.650825
12	0x4048a1a4	3.1348658
13	0x3d7a5ac5	0.06112172
14	0x408f8b65	4.485766
15	0xc0484bba	-3.129622
16	0xbd21ae87	-0.039473083
17	0x40f23e3f	7.5700984
18	0x40f45fe5	7.636706
19	0xc0c30a9a	-6.095044
20	0x40d25475	6.5728097
21	0x419dea48	19.739395
22	0x4161b8df	14.107635
23	0x402cf0f4	2.7022066
24	0x3ecc25fc	0.3987273
25	0xbfae9f44	-1.3642354
26	0x404dcbb1	3.2155573
27	0x40b7d81f	5.745132
28	0x410c5686	8.771124
29	0xbfe45fa3	-1.7841686
30	0x41831073	16.383032
31	0x40d55a1b	6.667249
32	0x41833edd	16.405695
33	0x40ea5545	7.322909
34	0x4152da16	13.178244
35	0x3f2e08ba	0.67982066
36	0xc0b17997	-5.5460925
37	0x410e3663	8.888278
38	0xc08b0385	-4.3441796
39	0x41359c64	11.350681
40	0x4121d806	10.11524
41	0x41157a84	9.342411
42	0x41404e5f	12.019134
43	0xc072593c	-3.7866964
44	0x412bd165	10.738622
45	0x41814cf2	16.16257
46	0xc12c3ff1	-10.765611
47	0x4168a47d	14.540158
48	0xc0b33846	-5.6006193
49	0x3f683657	0.90707916
50	0x41996c52	19.17789
51	0xc0e385a3	-7.110063
52	0x415fa381	13.977418
53	0x414623fb	12.383784
54	0x41169473	9.4112425
55	0xc0afe215	-5.496348
56	0xbfd19536	-1.637366
57	0x411c17fd	9.7558565
58	0x406bab32	3.682324
59	0x3ff36c96	1.9017513
60	0x40b6cacc	5.7122555
61	0xc03af074	-2.920926
62	0xbe872b83	-0.26400384
63	0xc01af6ac	-2.4213057
64	0x405cd39b	3.4504154
65	0xc079aada	-3.901053
66	0x402746c3	2.613694
67	0x417c6dd1	15.776811
68	0xc0cd37bf	-6.413055
69	0xc105e018	-8.36721
70	0x408bd9e7	4.3703494
71	0x41313288	11.074837
72	0x40f0eebb	7.529142
73	0xc0653082	-3.5810857
74	0xc123e3d5	-10.243123
75	0x413f3eae	11.952803
76	0xbe44aaa3	-0.19205718
77	0xc0efe37d	-7.4965196
78	0x413c3ca7	11.764808
79	0x41105472	9.020617
80	0x416070ff	14.027587
81	0x413b47be	11.705015
82	0x415919c2	13.568789
83	0x41817e2c	16.186607
84	0x415d62d6	13.83663
85	0xc0629908	-3.5405903
86	0x3fc075aa	1.5035908
87	0xc0f5f130	-7.685692
88	0xc12ed317	-10.926536
89	0x402a7624	2.6634607
90	0xc0124800	-2.2856445
91	0x4119f6b4	9.62273
92	0xc12e8c3a	-10.909235
93	0x4183df58	16.484055
94	0xbf6e9ab5	-0.93204814
95	0xc0dd04d8	-6.9068413
96	0xc02c1d9e	-2.6893077
97	0x408f73cd	4.482886
98	0x40bd9792	5.924752
99	0xbf05dfda	-0.52294695
100	0x418221bf	16.266478
101	0x40ab375f	5.350509
102	0x40eff349	7.498448
103	0x40fdb6e2	7.9285746
104	0x3ff17577	1.8863972
105	0x4139f095	11.621236
106	0xc04b476c	-3.1762342
107	0xbfa1be82	-1.2636263
108	0x418cac2e	17.584072
109	0x4174fb53	15.311358
110	0x4048ef75	3.1396153
111	0x414a7d2f	12.655562
112	0x4146aa8b	12.416636
113	0x4151a268	13.10215
114	0xc0b6ff8d	-5.718695
115	0x416eceb4	14.925465
116	0x4121c18f	10.1097555
117	0x412a9119	10.660424
118	0x3fae1885	1.3601233
119	0x413f6654	11.962482
120	0x414cb1f7	12.793448
121	0x419d4cd3	19.662512
122	0x3fdcf48e	1.7262132
123	0x41595988	13.584358
124	0x418419f3	16.51267
125	0x41199413	9.598651
126	0x413ca4c5	11.790227
127	0x412ba077	10.726676
128	0xbe0b1633	-0.13582687
129	0x41535193	13.207416
130	0xc0c8943e	-6.268096
131	0x41300162	11.000338
132	0x414d4752	12.829912
133	0x4183266c	16.39376
134	0x40a55b39	5.1673856
135	0xbf2bc3d7	-0.670957
136	0x4189c35d	17.220392
137	0x415f100d	13.941419
138	0x3f40b6eb	0.7527911
139	0x417dba94	15.858051
140	0x40cfbe14	6.491953
141	0xc0eba688	-7.3640785
142	0x41271128	10.441689
143	0x413d6bb8	11.8387985
144	0x414db4db	12.856654
145	0xc11ef64f	-9.935134
146	0xc12fc9db	-10.986781
147	0x40f81584	7.7526264
148	0x411dba8a	9.858042
149	0xc01a385c	-2.40969
150	0x41833a6b	16.403524
151	0xc0351f92	-2.830052
152	0x41551854	13.3184395
153	0x3fa095c7	1.2545708
154	0x40965c4c	4.6987667
155	0xbff6c920	-1.9280128
156	0x41126bf4	9.151356
157	0x4141273a	12.072077
158	0x4174961b	15.286647
159	0xc0ff28f7	-7.9737506
160	0x4152f63b	13.185115
161	0x41216095	10.08608
162	0xc109c260	-8.609955
163	0x40264197	2.5977533
164	0x4125f7d6	10.373007
165	0xc0102618	-2.252325
166	0xc10d5821	-8.834016
167	0x41817d64	16.186226
168	0x41719e22	15.101107
169	0x3e62897e	0.22122762
170	0x418980a7	17.187819
171	0x4135b840	11.357483
172	0x4102c45a	8.172937
173	0x3e1d5159	0.15363063
174	0xc124f98d	-10.3109255
175	0x40ba8202	5.82837
176	0x3efd8635	0.49516454
177	0x4146c36b	12.422709
178	0xbfe00a58	-1.7503157
179	0x410a0943	8.627261
180	0x409d2540	4.910797
181	0x414e3d9c	12.890041
182	0xc05b29cf	-3.4244268
183	0x40710e97	3.7665155
184	0x4142965b	12.161708
185	0x40f6d9f0	7.7141037
186	0x3f88a772	1.06761
187	0x4155ae1a	13.355005
188	0x41100a01	9.002442
189	0x4141a2ba	12.102228
190	0x40c4794d	6.139807
191	0x400954af	2.1457937
192	0x409ccfae	4.9003515
193	0x4113b93e	9.232725
194	0x4157172f	13.44316
195	0x413ebd07	11.921149
196	0xbdd920cc	-0.10601959
197	0x41122c7d	9.135861
198	0xc0825303	-4.0726333
199	0x410e50da	8.894739
200	0x417641bf	15.391051
201	0x40e873b6	7.264125
202	0x4167ed86	14.495489
203	0x414bb036	12.73052
204	0x415b8754	13.720539
205	0x41963c58	18.779465
206	0xc0d4daf0	-6.651726
207	0xbfd928c4	-1.6965566
208	0x3f5a0cd1	0.85175806
209	0x41b45983	22.543707
210	0x413446d2	11.26729
211	0x4016f535	2.3587162
212	0x413911e1	11.566865
213	0x41040436	8.251028
214	0x41565d74	13.397816
215	0x413dc0c1	11.859559
216	0xc000fa1d	-2.0152657
217	0x418d7c38	17.685654
218	0x415c0506	13.751226
219	0x40c6737f	6.2015986
220	0x41416c46	12.088934
221	0x418671ce	16.805569
222	0x41248fe2	10.285128
223	0x412d666f	10.837508
224	0x4141a680	12.103149
225	0x411c4b5d	9.768399
226	0xbf29535a	-0.6614281
227	0x4144f2d5	12.309285
228	0xc11a2fcd	-9.63667
229	0x419665f6	18.799786
230	0x411cb604	9.794437
231	0x4157d333	13.489062
232	0xc0c88fb9	-6.2675443
233	0xbf5df6a6	-0.8670448
234	0xc02eee77	-2.7333047
235	0x3f093f8e	0.536126
236	0x416cc471	14.797959
237	0xc02b9904	-2.6812143
238	0x41350716	11.31423
239	0xc0a8d29e	-5.27571
240	0xc0c83a05	-6.2570825
241	0xc0bc6465	-5.887255
242	0x410ef12d	8.933881
243	0x4199e70d	19.237818
244	0x3e1939ec	0.14963502
245	0xc059a844	-3.400895
246	0x40a8ec74	5.278864
247	0xbf07f7bb	-0.5311238
248	0x4130c100	11.047119
249	0x411c68c9	9.775582
250	0x418152f3	16.165503
251	0x417d6073	15.836047
252	0x411a1651	9.630448
253	0x415d19b6	13.818777
254	0x417ddd5d	15.866544
255	0x409bceef	4.8690104

l1/W f4 [256, 64]
0	0x42656067	57.344143
1	0xc18b54a2	-17.416325
2	0xc1fdd148	-31.727188
3	0x419b1e71	19.389864
4	0x41a9f8b6	21.24644
5	0xc04113de	-3.0168376
6	0x416a11ec	14.629375
7	0xc16dad53	-14.8548155
8	0xc04c0b27	-3.1881807
9	0x4148fd0b	12.561778
10	0xc1a55503	-20.66651
11	0x3fa4cfe1	1.287594
12	0xc1a8f1cf	-21.11807
13	0x41b7bce4	22.967232
14	0xc0594968	-3.3951054
15	0xc175603f	-15.335998
16	0xc17e3c09	-15.889657
17	0x40424cf9	3.035948
18	0x3fa7deda	1.3114884
19	0xc102d1a8	-8.176186
20	0x4086cc6f	4.2124553
21	0xc027d6f9	-2.622496
22	0x41d6c29d	26.845026
23	0x4114366e	9.2632885
24	0x413fd610	11.989761
25	0xc121d6f9	-10.114984
26	0x41b5bccc	22.717186
27	0xc11f63f4	-9.961903
28	0xc131d754	-11.11507
29	0x41914fa9	18.163897
30	0x413ff746	11.9978695
31	0x40ae8f66	5.4550047
32	0xc0caee6a	-6.3416033
33	0x3fd50314	1.6641564
34	0x4089df16	4.308482
35	0xc1643322	-14.262484
36	0xbf528d7f	-0.82247156
37	0xc0a5ea99	-5.1848874
38	0x3fb62b39	1.423194
39	0x418024f6	16.018047
40	0xc0da2be6	-6.8178587
41	0x411083c1	9.0321665
42	0xbe614c2f	-0.22001718
43	0x41c76e27	24.928785
44	0x406a8bce	3.664783
45	0x3e15f9cb	0.1464607
46	0xbfa7b3a8	-1.3101702
47	0xc1460cf1	-12.3781595
48	0x4085f3c1	4.186005
49	0x4197ad14	18.95951
50	0xbf8b8f37	-1.0903081
51	0x41115efd	9.0856905
52	0x410f3a1e	8.951689
53	0xc082d64d	-4.08866
54	0x40c0b6a3	6.0222945
55	0x4174a7f7	15.291007
56	0x41ef9e39	29.952257
57	0xc09b65b4	-4.856165
58	0xc1216993	-10.088275
59	0xc0eeaf73	-7.458917
60	0x4155be34	13.358936
61	0x41123426	9.137732
62	0xc18e1685	-17.760996
63	0xc1be4692	-23.784458
64	0x41b8aec4	23.085335
65	0xc11f278f	-9.947158
66	0x419f67c9	19.925676
67	0xc14ddf27	-12.866981
68	0xc09bd24f	-4.8694224
69	0xc1ee3bfb	-29.779287
70	0x40570e61	3.3602526
71	0x4012ae45	2.2918866
72	0xc1a60c50	-20.756012
73	0x40c042d5	6.008158
74	0x419143b7	18.158064
75	0xc1788892	-15.533342
76	0xc0b3477c	-5.602476
77	0xc1f5e752	-30.73795
78	0x40ed6429	7.4184766
79	0xc19784a1	-18.93976
80	0x41c7386f	24.902555
81	0xc19dc362	-19.720402
82	0x3f3944e2	0.7237073
83	0xc082d1cd	-4.0881104
84	0x40dc5911	6.8858724
85	0x3d98777f	0.07444667
86	0x41b6663c	22.79992
87	0xc1cdf0f7	-25.742659
88	0x4086cc9e	4.2124777
89	0xc0c1a0cb	-6.050878
90	0x407c16d6	3.9388938
91	0xc0a88eab	-5.2674155
92	0x3f8a40e1	1.080105
93	0xc1234671	-10.204698
94	0xc1504b13	-13.018329
95	0xc193916b	-18.446005
96	0x409ba3f7	4.8637652
97	0x3f1a6c6d	0.60321695
98	0x4160f051	14.058671
99	0xc043bef8	-3.0585308
100	0x400e1276	2.2198768
101	0xc0b5ab71	-5.677178
102	0x41f3c472	30.47092
103	0xc0844799	-4.13374
104	0xbf7f86b1	-0.998149
105	0xc202fafd	-32.745106
106	0x41a463de	20.548763
107	0x403fa147	2.9942186
108	0xbf225875	-0.63416225
109	0x41930e62	18.382023
110	0x41928322	18.31403
111	0xc14de65f	-12.868743
112	0xbf17f78d	-0.5936211
113	0xc0f081ee	-7.5158606
114	0x401ae75d	2.4203713
115	0xc245a376	-49.40963
116	0x40582632	3.3773313
117	0x3eac0478	0.3359716
118	0x41a59fff	20.703123
119	0xc1807f37	-16.062117
120	0xc0efca8c	-7.493475
121	0xc1879c6e	-16.951382
122	0xc135098d	-11.314832
123	0xc199cd2a	-19.225178
124	0x4219b6bf	38.428463
125	0x4104284b	8.259837
126	0xc0012880	-2.018097
127	0x418c5864	17.54316
128	0x40864729	4.1961865
129	0x419b8494	19.439735
130	0x417d6ab9	15.838555
131	0x414afaf1	12.686265
132	0x40971292	4.721017
133	0x419d898d	19.692163
134	0x40762d02	3.846497
135	0x413c8acf	11.783889
136	0x41bde3c8	23.736221
137	0x3f230c0e	0.6369027
138	0xc02cace5	-2.6980526
139	0xc06d77b5	-3.7104313
140	0x3fc499cd	1.5359436
141	0x42025bb3	32.58955
142	0x4158a1d2	13.539507
143	0x40e116dc	7.0340405
144	0x4148e0ae	12.554853
145	0x403472ec	2.8195143
146	0xc0d8e5d9	-6.7780576
147	0x407591de	3.837028
148	0xc03c9c0a	-2.9470239
149	0x40886fbf	4.263641
150	0x41a4e8ae	20.613613
151	0xc1ac189e	-21.51202
152	0x423bfb3b	46.995342
153	0xc1a5dffc	-20.734367
154	0x40a38fda	5.11131
155	0x411524b6	9.321463
156	0x3f3c6a97	0.73600143
157	0x4159c4a1	13.610505
158	0xc11054a4	-9.020664
159	0xc101fad3	-8.123736
160	0xc189623b	-17.172964
161	0x4151e5d5	13.118611
162	0xc1c1f1a3	-24.242987
163	0x402c9668	2.69668
164	0x40d43673	6.6316466
165	0x403da8c7	2.9634264
166	0xc18e640b	-17.79885
167	0xc1c27f1a	-24.312061
168	0xc1bfa0e5	-23.953562
169	0xc190d044	-18.101692
170	0xc01cf97f	-2.452728
171	0x40620fe3	3.5322196
172	0x40745ce4	3.8181696
173	0xc0bae8b3	-5.8409057
174	0x405ec8db	3.4810092
175	0xc1fa3b8b	-31.279074
176	0xc1ad46a2	-21.659489
177	0xc20cdba2	-35.214485
178	0xc130fea1	-11.062165
179	0x410782a1	8.469392
180	0x41bbf538	23.494736
181	0xc02afed6	-2.671804
182	0x41218c9f	10.096831
183	0xc229c179	-42.43894
184	0x4136bae8	11.420631
185	0xc125cefc	-10.363033
186	0xc0d44100	-6.6329346
187	0x41bb9c64	23.451363
188	0xc1b0f836	-22.121197
189	0xc0e1f6cf	-7.061378
190	0x40386dbd	2.881698
191	0x40e31a0f	7.096931
192	0xc19a669c	-19.300102
193	0x41c068a2	24.05109
194	0xc18b2422	-17.392643
195	0x41370709	11.439218
196	0x4108d16a	8.5511265
197	0x414b1328	12.692177
198	0x414b6896	12.713034
199	0xc19b6de3	-19.428656
200	0x40be9f2b	5.9569297
201	0xc20abf09	-34.686558
202	0xbf204cdc	-0.6261728
203	0x4156499d	13.392972
204	0xc168baf8	-14.545647
205	0x41412561	12.071626
206	0x4102749c	8.153469
207	0x40328d8d	2.7898896
208	0x4006a5b6	2.1038642
209	0xc1807e48	-16.06166
210	0xc0a00a08	-5.0012245
211	0xc0866954	-4.2003574
212	0x41a36cae	20.428066
213	0xc01685a6	-2.3519073
214	0x418cfe25	17.624094
215	0xc19b7497	-19.431929
216	0x40bd9266	5.924121
217	0xc0b75e87	-5.730289
218	0x4134ff12	11.312273
219	0x40097610	2.147831
220	0xbfc6bd0e	-1.5526445
221	0x41056a6e	8.338484
222	0xc029ff86	-2.656221
223	0xc1316419	-11.086938
224	0xc11d18b8	-9.818535
225	0x41c661b5	24.797709
226	0x4196dbab	18.85726
227	0xbfbdd5c0	-1.4830856
228	0x3fb9f7bf	1.4528731
229	0xc0d8f68f	-6.7800975
230	0xc1a15e02	-20.170902
231	0xc10af380	-8.684448
232	0x4176099d	15.377347
233	0xc1189f78	-9.538933
234	0xc182b52f	-16.338469
235	0xc10f0607	-8.9389715
236	0x404af9ea	3.1715035
237	0x419971ac	19.180504
238	0x40c19fe2	6.050767
239	0xc200bc55	-32.183918
240	0xc0a772c1	-5.232758
241	0xc0c071f2	-6.0139093
242	0x409b958e	4.862006
243	0xc20548a5	-33.320942
244	0x40dd6bdf	6.919418
245	0x41faabee	31.33395
246	0x41963180	18.77417
247	0xc12ab17c	-10.668331
248	0xc1d3a737	-26.456648
249	0x4203efab	32.98405
250	0xc1c160e5	-24.172312
251	0xc0188c23	-2.3835533
252	0xc21146d7	-36.31918
253	0x40f0ace6	7.521106
254	0x423b3372	46.80024
255	0x4041b058	3.0263882

l1/b f4 [256]
0	0xc14188e7	-12.095923
1	0x3e2592d5	0.16169293
2	0x4123c32f	10.235152
3	0x3fcfe882	1.6242831
4	0xc0906b56	-4.5131025
5	0x409b32e2	4.8499613
6	0xbff08a10	-1.8792133
7	0x40ed568b	7.4168143
8	0xc048ae70	-3.1356468
9	0x40dbe600	6.871826
10	0xc1e3a184	-28.453865
11	0x4122fcc2	10.186708
12	0xbfc6dbd1	-1.5535833
13	0xc11b1981	-9.693727
14	0xc06dd271	-3.7159693
15	0xc0937408	-4.607914
16	0x3f682ea5	0.90696174
17	0x401ebdaa	2.4803262
18	0x40e62a21	7.1926427
19	0x40571401	3.360596
20	0x40f5055a	7.6569033
21	0x3fb2d4b9	1.3971168
22	0x40fb3492	7.8501673
23	0x41258c46	10.346746
24	0xc05f62b1	-3.4903986
25	0xc1ee2a11	-29.77054
26	0x40bb7e01	5.8591313
27	0x40213969	2.519129
28	0x40bcfb75	5.9056954
29	0x3e2ae272	0.16687945
30	0xbe7510d1	-0.23932196
31	0x3fd8ab2e	1.692724
32	0x40636f92	3.5536847
33	0x410ae790	8.681534
34	0xc1c2f5e7	-24.37007
35	0x41183bb7	9.514579
36	0x41bc6752	23.55045
37	0x414526d0	12.321976
38	0x40b253a3	5.5727096
39	0x410e4d63	8.893893
40	0x410928fe	8.572508
41	0xc12db5a2	-10.856844
42	0xc034d233	-2.8253295
43	0xc190b1e3	-18.086859
44	0xc10d2a1d	-8.822782
45	0x40d664c7	6.699802
46	0xc10d8cc8	-8.84687
47	0xc08ef022	-4.466813
48	0xc15bbde4	-13.73386
49	0x409ac14f	4.8360972
50	0xc11737d9	-9.451135
51	0x4124fd2c	10.31181
52	0x4119df07	9.61695
53	0xc11aa7c9	-9.665963
54	0x3ff11c41	1.8836747
55	0x3fd1aaec	1.6380286
56	0xc125f6a3	-10.372714
57	0xc0e73617	-7.225353
58	0x41329626	11.161657
59	0x401eb7d1	2.4799693
60	0x410cc9cf	8.79927
61	0xbfbbc8ff	-1.4670714
62	0x413412da	11.254602
63	0xc1728bcf	-15.159133
64	0xc0185803	-2.3803718
65	0x4136acf5	11.417226
66	0xc13d10fd	-11.816648
67	0x3e06c5e8	0.13161433
68	0xbf967e1a	-1.1757233
69	0xbe64b6a5	-0.22335298
70	0x3ff10f77	1.8832844
71	0x3f98bd85	1.1932837
72	0x41083314	8.51247
73	0x40c11e74	6.0349674
74	0xc052b5dc	-3.2923498
75	0xc13521e9	-11.320779
76	0x4122c4fd	10.173093
77	0xc0cb2885	-6.348696
78	0xbf2bf8d9	-0.67176586
79	0x41d7e652	26.987461
80	0x3faa6f6d	1.3315254
81	0xc202301c	-32.54698
82	0xc1030c86	-8.1905575
83	0x408be8a0	4.3721466
84	0x4083a648	4.114048
85	0xc03e6c43	-2.9753578
86	0x4034ffc5	2.828111
87	0x3fc7fc7c	1.5623927
88	0x41124da8	9.143959
89	0x411efb91	9.936418
90	0xbfe0ada3	-1.755299
91	0x4081aaa7	4.0520816
92	0x410433cb	8.262645
93	0xc122c2a3	-10.172519
94	0x3e98a9ee	0.29817146
95	0xc0a72153	-5.222818
96	0xc1ff0faa	-31.882648
97	0xc1d97902	-27.184086
98	0x410bce92	8.737932
99	0xc0c91917	-6.2843127
100	0x40aea878	5.458065
101	0x412a6140	10.648743
102	0x3f8f0dc6	1.1176078
103	0x404d7d6b	3.21078
104	0x4136205b	11.382899
105	0x3ff03dd9	1.8768874
106	0xbf672321	-0.9028798
107	0xbfce0ae6	-1.6097076
108	0xc14ca64a	-12.790598
109	0x4188c0fe	17.094234
110	0xc04df639	-3.2181532
111	0x40598a52	3.3990674
112	0x4150075a	13.001795
113	0x40d59916	6.6749372
114	0xc103fc06	-8.249029
115	0xbf55d23b	-0.8352391
116	0x40c9b728	6.303608
117	0x3fce3b27	1.6111802
118	0x3f6d5fae	0.9272412
119	0xc0619bca	-3.5251336
120	0x4152e90f	13.181899
121	0xc14dd3fb	-12.864253
122	0xc144fbfc	-12.31152
123	0x3fbc8bd7	1.4730176
124	0xbf8c918e	-1.098192
125	0x3fc05960	1.5027275
126	0xc0d563f0	-6.6684494
127	0xc06a2a02	-3.658814
128	0xc1d0ea8a	-26.114521
129	0xc1147448	-9.278389
130	0x416e21a5	14.883214
131	0xbf06aa78	-0.52603865
132	0x4173a1cb	15.227
133	0x40847e39	4.140408
134	0xc0c6ffc3	-6.218721
135	0x40c520bd	6.1602464
136	0xc19506fd	-18.628412
137	0xc1687276	-14.527945
138	0xc01d9ec5	-2.4628155
139	0xc05a0b23	-3.4069297
140	0xc1ac97cc	-21.57412
141	0xc059f8b1	-3.405804
142	0x41353396	11.325094
143	0xc102de26	-8.179235
144	0xc0fd16b4	-7.9090214
145	0x40eb2eca	7.3494616
146	0x40b45727	5.6356387
147	0xbfa99076	-1.3247211
148	0x4106af95	8.417867
149	0xc19323fe	-18.392574
150	0xc1074295	-8.453755
151	0x40df7d7e	6.984069
152	0x418d81e7	17.688429
153	0xc0aa7d8b	-5.327825
154	0xc1204c5d	-10.018643
155	0x40d86975	6.762873
156	0xc129395d	-10.576505
157	0x40ad5050	5.416054
158	0xc2029a58	-32.650726
159	0x412165c4	10.087345
160	0x40aff5d1	5.498757
161	0xc07909f3	-3.8912323
162	0x4021e1de	2.5294108
163	0x414e45f1	12.892076
164	0x40c018d6	6.0030317
165	0xc1a87529	-21.057207
166	0x414ed68e	12.9273815
167	0xc11f4350	-9.953934
168	0xc0164c02	-2.3483891
169	0xc20dcea3	-35.451794
170	0xc1159ff9	-9.351556
171	0xc01d598e	-2.458591
172	0xc023ac12	-2.5573773
173	0x408821bf	4.2541194
174	0x418d6edd	17.679132
175	0xc158e321	-13.555451
176	0x3ea912b9	0.33022097
177	0x4028d851	2.638203
178	0xc036fca0	-2.859169
179	0x40223821	2.5346758
180	0x40f297eb	7.5810447
181	0xc0683d06	-3.6287246
182	0x40bbeed0	5.872902
183	0xc0b51d44	-5.6598225
184	0x407ad2a0	3.9191055
185	0x40e08611	7.0163655
186	0xc152df3d	-13.179502
187	0x4111a7d1	9.103471
188	0x4090eaca	4.528661
189	0x3fa7e3ec	1.3116431
190	0xbf9a4fdb	-1.205562
191	0x40abd184	5.3693256
192	0x4078a496	3.8850455
193	0x3fa895b2	1.3170683
194	0xc0e52de0	-7.16185
195	0x40ce4d48	6.4469337
196	0x416712fd	14.442136
197	0xc12b07c0	-10.689392
198	0xbeb3b1f3	-0.35096702
199	0x4160ac08	14.042
200	0xc0fd26fd	-7.9110093
201	0xbf319720	-0.69371223
202	0xc0b34e65	-5.6033196
203	0x4013a077	2.306669
204	0x41267c0b	10.405284
205	0xc15a7da5	-13.655675
206	0xc0af1f21	-5.47255
207	0xc1a94f13	-21.16361
208	0x40a63640	5.1941223
209	0xc01107ff	-2.266113
210	0xc20c1ded	-35.029224
211	0xc058f115	-3.3897145
212	0xc057a507	-3.3694475
213	0x4135cb36	11.362112
214	0xc03a07cd	-2.9067261
215	0xc0940b26	-4.626361
216	0xc00def0f	-2.217716
217	0xc16ca1a8	-14.789467
218	0xc0ae3c7c	-5.4448833
219	0xc1517249	-13.090402
220	0xc168dd3b	-14.554011
221	0x41185c63	9.522555
222	0xbe899e13	-0.26878414
223	0xc2241ca6	-41.027977
224	0x416711cb	14.441844
225	0x40ba130e	5.814826
226	0x400caf4f	2.1982
227	0xc0835414	-4.1040134
228	0x3fe53d48	1.7909327
229	0x4161c5dc	14.1108055
230	0x413f1f74	11.945179
231	0xc0e8bae6	-7.2728148
232	0x40e832a0	7.25618
233	0xc034eaff	-2.826843
234	0x414da968	12.853859
235	0xc0ab0939	-5.344876
236	0xc072fbf6	-3.7966285
237	0x406a6b6e	3.662807
238	0xc20f1b09	-35.7764
239	0x3df11514	0.117715985
240	0xbec587e1	-0.3858023
241	0xc18625fe	-16.76855
242	0xc172f5cc	-15.185009
243	0xc08d0187	-4.4064364
244	0xc21d1a04	-39.275406
245	0xc240f683	-48.240734
246	0xc110e341	-9.055482
247	0xc1611256	-14.066977
248	0x41256bcc	10.338818
249	0x410f8292	8.9693775
250	0xc12e4431	-10.891648
251	0x40bdc45d	5.93022
252	0xc19c5ea9	-19.54622
253	0x41111dc0	9.069763
254	0xc0846c58	-4.1382256
255	0xc156e3ce	-13.430616

l4/W f4 [64, 256]
0	0x422a44a1	42.56702
1	0x422a4282	42.56495
2	0x42182952	38.04035
3	0x4294233e	74.06883
4	0x41ee1651	29.760897
5	0x423139c3	44.306408
6	0x422a758b	42.614788
7	0x42203613	40.052807
8	0x422a6619	42.599705
9	0x424239b5	48.556355
10	0x4232df3f	44.718014
11	0x4240938e	48.144096
12	0x42335397	44.83163
13	0x4254b76a	53.179115
14	0x422e9bd4	43.652176
15	0x422260f9	40.5947
16	0x42444ab8	49.072968
17	0x42121ba8	36.527008
18	0x42170614	37.755936
19	0x4235473b	45.31956
20	0x422b016d	42.751392
21	0x421da098	39.40683
22	0x422442b8	41.065155
23	0x41f86d18	31.053268
24	0x42321bbf	44.527096
25	0x42190864	38.258194
26	0x423cd7b4	47.210648
27	0x42708ef9	60.13962
28	0x4256838e	53.62847
29	0x423279fd	44.61913
30	0x42873527	67.60381
31	0x423b20ca	46.78202
32	0x423bf129	46.985508
33	0x422bd9e3	42.96278
34	0x423b5df5	46.841755
35	0x406be7b8	3.686018
36	0x4245e47a	49.47312
37	0x42108559	36.130222
38	0x423f1af6	47.77633
39	0x422442e5	41.065327
40	0x41e7f895	28.996378
41	0x42158bd3	37.386547
42	0x42627e55	56.62337
43	0x4235056d	45.2553
44	0x424d57f7	51.335903
45	0x421840a0	38.06311
46	0x41f97b0e	31.185085
47	0x4224bacd	41.182423
48	0x4235097b	45.25926
49	0x429a37bb	77.10885
50	0x4225e89d	41.47716
51	0x4274159f	61.021114
52	0x420d81fe	35.376945
53	0x42516153	52.345043
54	0x4251bf4c	52.436813
55	0x428c3f00	70.12305
56	0x4232cc04	44.699234
57	0x428373e1	65.726326
58	0x4252d79c	52.710556
59	0x4248a25e	50.15856
60	0x4202fee9	32.748936
61	0x42653ead	57.311207
62	0x42485f8f	50.09332
63	0x42317187	44.360867
64	0x4220e398	40.22226
65	0x42804320	64.1311
66	0x4275fc30	61.496277
67	0x420a87d2	34.632637
68	0x41e673aa	28.806477
69	0x4204feed	33.24895
70	0x424ce9d9	51.228367
71	0x42294ea6	42.326805
72	0x423df7d6	47.492027
73	0x423573d1	45.363102
74	0x42213bab	40.30827
75	0x4210b52e	36.176933
76	0x423de12e	47.469902
77	0x42385e45	46.09206
78	0x422d3081	43.297367
79	0x42231c96	40.777916
80	0x42214768	40.319733
81	0x422c8e90	43.13922
82	0x4258e122	54.219856
83	0x42522227	52.53335
84	0x421e7cb4	39.62178
85	0x41fa28c6	31.269909
86	0x42356a88	45.354034
87	0x4236ca4e	45.697563
88	0x428e154a	71.04158
89	0x428625da	67.07393
90	0x424453ca	49.081825
91	0x420f080e	35.757866
92	0x4250c6f8	52.194305
93	0x42217fdc	40.374863
94	0x423b6395	46.847248
95	0x41fdcaab	31.723959
96	0x422949ec	42.32219
97	0x423b3f1f	46.81164
98	0x4218643f	38.097897
99	0x41d5b6be	26.71423
100	0x4246e09e	49.719353
101	0x4225ebd9	41.48032
102	0x4215e8e3	37.47743
103	0x425f9f06	55.905296
104	0x421e1127	39.51675
105	0x420e14fa	35.520485
106	0x420fa5a6	35.911766
107	0x4214cb36	37.19845
108	0x426d72fd	59.362293
109	0x42385d05	46.09084
110	0x422fdc31	43.96503
111	0x42293655	42.30306
112	0x420bcf4c	34.95244
113	0x42233f3a	40.811745
114	0x41c8acaf	25.084318
115	0x42051fb0	33.280945
116	0x421d0d5b	39.263042
117	0x41d8afc4	27.085823
118	0x4243bdd6	48.935387
119	0x42291046	42.265892
120	0x421db30f	39.424862
121	0x42128b59	36.63608
122	0x4233c76e	44.944756
123	0x423332bb	44.79954
124	0x424080c5	48.12575
125	0x4238c75e	46.194695
126	0x4252981c	52.648544
127	0x422bbdbb	42.935284
128	0x424fbd38	51.934784
129	0x41fc6f65	31.554392
130	0x4222caa7	40.697903
131	0x4241c067	48.437893
132	0x4219e8a5	38.477192
133	0x419c6015	19.546915
134	0x4195d9c3	18.731329
135	0x41dfb831	27.964937
136	0x411c4464	9.766697
137	0x42522bbe	52.542717
138	0x4240c292	48.19001
139	0x421cf1a6	39.235985
140	0x422d8320	43.37805
141	0x4244b1f4	49.173782
142	0x423786b5	45.88155
143	0x422ab907	42.68069
144	0x41f50341	30.626589
145	0x4202b0b6	32.67257
146	0x42529ee6	52.655174
147	0x422c0c2c	43.011887
148	0x423b4cef	46.82513
149	0x4240624c	48.095993
150	0x42006508	32.098663
151	0x425fe627	55.97476
152	0x4250605b	52.094097
153	0x4257ca36	53.94747
154	0x41943905	18.527842
155	0x4223aab3	40.9167
156	0x4247f104	49.985367
157	0x42508129	52.126133
158	0x421696ea	37.647377
159	0x4227df04	41.96779
160	0x42075b1d	33.838978
161	0x420bb352	34.925117
162	0x42152460	37.285522
163	0x42439e39	48.904514
164	0x42120d38	36.51291
165	0x42348baa	45.13639
166	0x423d997a	47.39988
167	0x420f74f8	35.864227
168	0x4268ceae	58.201836
169	0x4267393a	57.805885
170	0x42339519	44.895603
171	0x4236f58a	45.739784
172	0x425f0a1a	55.759865
173	0x4247962b	49.89665
174	0x421dbdf6	39.43551
175	0x423e8b12	47.63581
176	0x42326c19	44.605564
177	0x420b3426	34.800926
178	0x421ac5b0	38.693054
179	0x41fea21e	31.829159
180	0x427ae8d0	62.727356
181	0x424fb47f	51.926266
182	0x41cd9639	25.69835
183	0x424d1bdb	51.277203
184	0x423a23a2	46.534798
185	0x421c95ab	39.14616
186	0x4234a775	45.163532
187	0x423a84a4	46.62953
188	0x42358cbb	45.387432
189	0x42306f0b	44.10844
190	0x4247c8b1	49.945988
191	0x422e4759	43.569675
192	0x421e7c7b	39.621563
193	0x42344777	45.06979
194	0x41f703c2	30.876835
195	0x42669d58	57.653656
196	0x4240d26b	48.205486
197	0x422169bb	40.353252
198	0x4228cce3	42.200085
199	0x42401a30	48.025574
200	0x421bc1b0	38.939148
201	0x423611eb	45.517498
202	0x4230ff84	44.249527
203	0x42242ae0	41.04187
204	0x424c6198	51.095306
205	0x42666aa2	57.604134
206	0x4251f1e9	52.48624
207	0x421a527c	38.58055
208	0x422ef66a	43.74064
209	0x42372d95	45.794514
210	0x41f40508	30.502457
211	0x41e1b002	28.210941
212	0x422f6e57	43.857754
213	0x42157ac5	37.369892
214	0x42267821	41.617313
215	0x420f66fc	35.85057
216	0x422f7312	43.862373
217	0x4237f44b	45.988567
218	0x4222c301	40.690434
219	0x4233503a	44.828346
220	0x4186c928	16.84822
221	0x422bea98	42.979095
222	0x4251908b	52.391155
223	0x422373ae	40.86297
224	0x42452da1	49.29456
225	0x42181a8b	38.02592
226	0x423d77df	47.36706
227	0x423ba42c	46.910324
228	0x424d2506	51.286156
229	0x4206f826	33.742332
230	0x4226f290	41.736877
231	0x421fa9c3	39.915783
232	0x423f6785	47.851093
233	0x421e232e	39.534355
234	0x422c4556	43.06771
235	0x421b5aea	38.838783
236	0x4213bc58	36.93393
237	0x423a0d2a	46.512856
238	0x424a2547	50.536404
239	0x429ca7fb	78.32809
240	0x425412e2	53.01844
241	0x42354d37	45.325405
242	0x423aa87b	46.66453
243	0x4236ff69	45.749424
244	0x42476dc6	49.8572
245	0x42335923	44.837048
246	0x42551d3e	53.278557
247	0x42057222	33.361458
248	0x41de8b2b	27.817953
249	0x422b5228	42.83023
250	0x420f2876	35.789513
251	0x425e4586	55.567894
252	0x4205ffc3	33.499767
253	0x423ef0f6	47.735313
254	0x42506aee	52.104424
255	0x424d2253	51.28352

l4/b f4 [64]
0	0xc2c2687f	-97.204094
1	0xc2c26b6b	-97.2098
2	0xc2c26366	-97.19414
3	0xc2c26d04	-97.21292
4	0xc2c26a0d	-97.20713
5	0xc2c26fa4	-97.21805
6	0xc2c26a20	-97.207275
7	0xc2c2653c	-97.19772
8	0xc2c26951	-97.205696
9	0xc2c27356	-97.225266
10	0xc2c2645f	-97.19604
11	0xc2c26d6b	-97.21371
12	0xc2c27037	-97.21917
13	0xc2c27dcc	-97.2457
14	0xc2c26f41	-97.21729
15	0xc2c26779	-97.202095
16	0xc2c266a7	-97.20049
17	0xc2c27077	-97.21966
18	0xc2c261c7	-97.19097
19	0xc2c27139	-97.22114
20	0xc2c26cb8	-97.21234
21	0xc2c26aa6	-97.2083
22	0xc2c2723e	-97.22313
23	0xc2c26fb0	-97.21814
24	0xc2c27021	-97.219
25	0xc2c272b0	-97.224
26	0xc2c26df2	-97.21474
27	0xc2c26ae5	-97.20878
28	0xc2c26c09	-97.211006
29	0xc2c26a35	-97.207436
30	0xc2c2663a	-97.19966
31	0xc2c26cd1	-97.21253
32	0xc2c26ced	-97.212746
33	0xc2c27b87	-97.241264
34	0xc2c2630a	-97.193436
35	0xc2c26e6d	-97.215675
36	0xc2c26bf5	-97.21085
37	0xc2c271bf	-97.22216
38	0xc2c27383	-97.22561
39	0xc2c26db1	-97.21424
40	0xc2c26ccd	-97.2125
41	0xc2c26cfc	-97.21286
42	0xc2c26ce6	-97.21269
43	0xc2c266c4	-97.200714
44	0xc2c271c7	-97.22222
45	0xc2c26b88	-97.21002
46	0xc2c26e14	-97.215
47	0xc2c26a6c	-97.207855
48	0xc2c26b91	-97.21009
49	0xc2c269e6	-97.20683
50	0xc2c26c39	-97.21137
51	0xc2c26da7	-97.214165
52	0xc2c27246	-97.22319
53	0xc2c27413	-97.22671
54	0xc2c26bca	-97.210526
55	0xc2c26b11	-97.209114
56	0xc2c268d7	-97.204765
57	0xc2c26d2c	-97.21323
58	0xc2c2661e	-97.19945
59	0xc2c26cf7	-97.21282
60	0xc2c26cd9	-97.21259
61	0xc2c269a1	-97.20631
62	0xc2c26711	-97.2013
63	0xc2c2702c	-97.219086

l3/W f4 [256, 256]
0	0xc0a04cb8	-5.009365
1	0xc0bf96a3	-5.9871383
2	0xc1a7ab9d	-20.958796
3	0xc0a272d0	-5.076515
4	0x41db5075	27.414286
5	0x3e1a2af8	0.15055454
6	0x4084687f	4.137756
7	0x40caa1fc	6.3322735
8	0xc1807a2c	-16.059654
9	0xc0be475c	-5.946211
10	0x41e5e5f5	28.737284
11	0x4182671c	16.300346
12	0xc0930e3e	-4.5954885
13	0x412aaf1c	10.667751
14	0x3fdb0c0d	1.7113053
15	0xc10d93e6	-8.848608
16	0x415a8a7e	13.658812
17	0xc115ff16	-9.374777
18	0x400b8580	2.1800232
19	0x4129d2be	10.613951
20	0xc1ec8087	-29.562757
21	0x40aea5b2	5.4577265
22	0x415fa683	13.978152
23	0x40a339de	5.100814
24	0xbfca2467	-1.5792359
25	0x411e1850	9.880936
26	0x40a31b9a	5.0971193
27	0xc210483f	-36.070553
28	0x3f18ab79	0.59636647
29	0xbfa7fd4e	-1.3124177
30	0xc044b318	-3.073431
31	0x40e23b1a	7.0697145
32	0xc09390cd	-4.611426
33	0x4152d22a	13.17631
34	0xc14f2268	-12.9459
35	0x40f5a26b	7.6760764
36	0xc1b158a0	-22.168274
37	0xc1a2365c	-20.276543
38	0xc13ad46a	-11.676859
39	0x4095966e	4.674613
40	0xc0585514	-3.3801928
41	0x41a82342	21.017216
42	0x41041ce9	8.257058
43	0x416f0191	14.937882
44	0xbf4c791b	-0.7987229
45	0x420145d4	32.31819
46	0x413c108d	11.754041
47	0x41b3f8c3	22.496466
48	0xbf899c3b	-1.0750803
49	0x40b49f70	5.6444626
50	0x4166d387	14.426642
51	0xc1db0e3a	-27.381947
52	0xc090baef	-4.522819
53	0x41d34e44	26.413216
54	0xc1a36c4c	-20.42788
55	0xc1ec37c3	-29.527227
56	0x4152386d	13.138776
57	0x407b5673	3.9271514
58	0xc1b3b7fe	-22.46484
59	0xc142d4f1	-12.176988
60	0x41936806	18.425793
61	0xc1b6e4c8	-22.86171
62	0xc14cd97f	-12.8031
63	0xc11001be	-9.000425
64	0xc0e9f085	-7.3106103
65	0x4155b971	13.357774
66	0xc1c1a9ab	-24.207846
67	0x40fe1d45	7.941073
68	0x3f5ae550	0.85506153
69	0xc13cfbf1	-11.811509
70	0xc1b546eb	-22.659628
71	0x415d0e2b	13.815959
72	0xbf6edfc3	-0.93310183
73	0xc0950395	-4.6566873
74	0xc1d48bf2	-26.568333
75	0xc10ef400	-8.93457
76	0xc11f2ce1	-9.948457
77	0xc1284c8e	-10.51869
78	0x3ca6da8e	0.020367887
79	0x41321a3d	11.131406
80	0xbfee6f24	-1.8627667
81	0xc20a068d	-34.506397
82	0xc12a5e3b	-10.6480055
83	0xc094cc5f	-4.6499476
84	0xc0d1edb3	-6.560266
85	0xc1f83d1a	-31.029835
86	0xc1f19bcf	-30.201078
87	0x407696b1	3.8529475
88	0xc203cef6	-32.95211
89	0x40018daa	2.0242715
90	0x41268bc4	10.409122
91	0x41a45e35	20.546
92	0xc11fe247	-9.9927435
93	0xc190e434	-18.111427
94	0x411a7d07	9.655524
95	0xc1c0892f	-24.066984
96	0x4176e707	15.431403
97	0x4039f85f	2.9057844
98	0xc06ee909	-3.7329733
99	0x4121ccb9	10.112481
100	0xc10a52a0	-8.645172
101	0xc1bc2c27	-23.521559
102	0x41db0ebd	27.382196
103	0xc090f03b	-4.529325
104	0x3fe7a519	1.8097259
105	0x409a6961	4.8253636
106	0x41b8e41d	23.111383
107	0x40c561e6	6.1682005
108	0x403d2af2	2.9557462
109	0xc1dae284	-27.360603
110	0x403bd94d	2.935138
111	0xc11abc44	-9.670963
112	0xc114ffe2	-9.312471
113	0xc1aaf5a7	-21.369947
114	0x41346d6f	11.276717
115	0xc10dab77	-8.854362
116	0x41b54a8d	22.661402
117	0xc0166b17	-2.3502862
118	0x3ff9d853	1.9519142
119	0xc207ecae	-33.981133
120	0xc1b6bfa2	-22.84357
121	0x40e9974c	7.299719
122	0xc19a0db7	-19.256697
123	0xc1ac9a38	-21.575302
124	0x410f3656	8.950766
125	0x406f6f17	3.7411554
126	0x3e3e0806	0.18557748
127	0x41a42c8c	20.521751
128	0x40f4a12e	7.6446753
129	0xc1cd49a9	-25.660967
130	0x416cfee4	14.812229
131	0x41722ef2	15.136461
132	0xbf694f68	-0.9113679
133	0x41e4892b	28.566977
134	0xc1ce5671	-25.792208
135	0x4102ac3e	8.167051
136	0x415b0b5f	13.690276
137	0x41a0fd60	20.123718
138	0xc2085161	-34.07947
139	0xc156e038	-13.429741
140	0x418931ad	17.149256
141	0xc181d6b5	-16.229837
142	0x4175726f	15.340438
143	0x41286302	10.524172
144	0xc1a1ec9c	-20.240532
145	0xc169bc9a	-14.608545
146	0x3f1a3ad8	0.6024604
147	0xc2288443	-42.12916
148	0x4169539d	14.582913
149	0x40fe9085	7.9551415
150	0xc1b50636	-22.628033
151	0xc18b7e23	-17.43659
152	0xc0a30dbc	-5.0954266
153	0xc11baf83	-9.73035
154	0x40a9c80a	5.305669
155	0xc0b64a82	-5.696595
156	0xc1ca860b	-25.31545
157	0x41ef976b	29.948935
158	0x3f1e679d	0.6187685
159	0xc02bf569	-2.6868536
160	0xc0209f8b	-2.5097377
161	0xc239e429	-46.472813
162	0xc223c93d	-40.94652
163	0x4166648b	14.399547
164	0xc1b254b9	-22.291368
165	0xc0ae715d	-5.4513383
166	0xc079b3b6	-3.9015937
167	0x404062e8	3.0060368
168	0xc2492d2a	-50.294106
169	0x418ebab2	17.84116
170	0xc1cdbc6a	-25.717
171	0xc1176e40	-9.4644165
172	0xbec09263	-0.37611684
173	0xbd2273ec	-0.039661333
174	0x412a71b1	10.652757
175	0xc101c9ff	-8.111815
176	0xc16cf019	-14.808618
177	0xc0d761c2	-6.7306833
178	0x410ea3d5	8.914998
179	0xc1287cf1	-10.530503
180	0xc201c632	-32.44355
181	0x41980d76	19.006573
182	0xc00bbaf4	-2.1832857
183	0xc161199d	-14.068753
184	0x4182b3d7	16.337812
185	0xc221c6cb	-40.444134
186	0x40e500a4	7.156328
187	0x418c1418	17.509811
188	0x40bb3603	5.850343
189	0xc1387242	-11.527895
190	0xc13e3b2a	-11.889444
191	0x416f9c61	14.975678
192	0x4071339c	3.768775
193	0x41df567b	27.917227
194	0x410b1eb7	8.694999
195	0xc0eb5b6b	-7.3549094
196	0xc1256014	-10.335957
197	0x4169a21f	14.60208
198	0xc20941ef	-34.31439
199	0xc168c59a	-14.548243
200	0x3ff4a67f	1.911331
201	0xc0e7a52d	-7.238913
202	0x4035989b	2.8374393
203	0x419e38df	19.77777
204	0xc169b2f7	-14.606193
205	0x413b0912	11.689714
206	0x418248f6	16.285625
207	0xc16576a4	-14.341465
208	0xc08bb17a	-4.3654146
209	0xc2036a1a	-32.853615
210	0xc2302e89	-44.045444
211	0x40e49fde	7.144515
212	0x41e4ef7e	28.61694
213	0x41a185e5	20.190378
214	0x41d59826	26.699291
215	0xc1a16ab1	-20.177095
216	0x40e69603	7.205812
217	0x40500027	3.2500093
218	0x3f555bfa	0.8334347
219	0xc08edaab	-4.464193
220	0xc1bf10ec	-23.883263
221	0xc1729772	-15.161974
222	0xc159d7e3	-13.615207
223	0xc22c370f	-43.05377
224	0xc173c506	-15.235601
225	0xc1b9fa7a	-23.247303
226	0xc17c8cfb	-15.784419
227	0x3e148185	0.14502533
228	0x411f5d32	9.960253
229	0x41dc5b80	27.544678
230	0x41e6b993	28.840612
231	0x41099fc2	8.601503
232	0x4083ad94	4.1149387
233	0x410142e0	8.078827
234	0xc12ae5a1	-10.681062
235	0x411642d2	9.391314
236	0x40d2d791	6.5888143
237	0x40fae2b2	7.840173
238	0xc20b24ed	-34.78606
239	0xc1cf4b4c	-25.911766
240	0xc174ee26	-15.308142
241	0x41aa4912	21.285679
242	0xc152cb1c	-13.174587
243	0x4182c45a	16.345875
244	0x4143326e	12.199812
245	0xbf7b80e3	-0.9824354
246	0x3fd4dc0f	1.6629657
247	0xbf9ca3db	-1.2237505
248	0xc267078f	-57.75738
249	0x4191b9e4	18.215767
250	0xc0a67903	-5.202272
251	0xc1014000	-8.078125
252	0x40c4ec48	6.153843
253	0xc156824a	-13.406809
254	0x41934e5c	18.413261
255	0x410668a7	8.40055

l3/b f4 [256]
0	0x40a5a392	5.176217
1	0x409703b2	4.719201
2	0x4047b11e	3.1201854
3	0xbf82ed60	-1.0228691
4	0x419f383c	19.902458
5	0x419fdead	19.983728
6	0x411d9f49	9.851388
7	0x413a8b0f	11.65895
8	0x40ef3b8a	7.476018
9	0x402ce2a7	2.7013338
10	0x3de3d289	0.11124141
11	0x4182843b	16.314566
12	0xbf9396d5	-1.1530405
13	0xbffff750	-1.9997349
14	0x4109eb05	8.619878
15	0x410aea6e	8.682234
16	0x4087cd84	4.2438374
17	0x408b4a52	4.3528223
18	0x411b4b16	9.705832
19	0x409900ce	4.781348
20	0x3ff72c5d	1.9310414
21	0x402883bb	2.6330402
22	0x41f3a151	30.453768
23	0x40e830e2	7.255967
24	0x4112af4a	9.167795
25	0x40e42cc4	7.1304646
26	0xbef90241	-0.48634532
27	0x40284883	2.6294258
28	0xbf8202c2	-1.0157092
29	0x40b89539	5.7682157
30	0x3fb19f7d	1.3876797
31	0x40b8213d	5.7540574
32	0xc0562691	-3.346104
33	0x40de0227	6.9377627
34	0x4082c6f1	4.086785
35	0x423c839b	47.12852
36	0xbf403176	-0.7507547
37	0xc00c6e64	-2.1942377
38	0x3e8b9243	0.27260026
39	0x3fd59ce4	1.6688504
40	0x40fe2647	7.9421725
41	0x405c30ac	3.4404707
42	0x41287567	10.528663
43	0x40da935a	6.8304873
44	0xc0791a96	-3.8922477
45	0x40aee3cd	5.4653077
46	0x41c44a83	24.536383
47	0x408266a8	4.0750313
48	0x401a974c	2.4154844
49	0xc07f9ea7	-3.9940584
50	0x40e74b38	7.227932
51	0xc089f980	-4.3117065
52	0xbf4aa118	-0.7915206
53	0xbe75e83e	-0.24014375
54	0xbff33399	-1.9000121
55	0x400cb988	2.198824
56	0xbfd81fdc	-1.6884723
57	0xbe716435	-0.23573382
58	0x41218b6c	10.096539
59	0x408017b6	4.0028944
60	0x419b6112	19.422398
61	0xc04e676d	-3.2250626
62	0xc11f8ce3	-9.971896
63	0x406fd14c	3.7471495
64	0xc046cf01	-3.1063845
65	0xbf90cf7e	-1.1313322
66	0x3fcfef69	1.6244937
67	0x40dd8427	6.922382
68	0x40052144	2.0801554
69	0x4053f3a3	3.3117454
70	0x410ef323	8.93436
71	0x4123fdb9	10.249444
72	0xc07150c1	-3.7705538
73	0x410d573a	8.833796
74	0x40e8c56e	7.2741003
75	0xbec8abd5	-0.39193597
76	0x407dba44	3.9644938
77	0x3fd419d7	1.6570386
78	0x4113e5b1	9.243577
79	0xc0bd6b65	-5.9193597
80	0x3ff2dbbb	1.8973306
81	0x4068d032	3.6377072
82	0xbf9f357e	-1.24382
83	0x40e05fd9	7.0117
84	0x4112b84d	9.169995
85	0x41d0c075	26.093973
86	0x40e7e2b4	7.2464237
87	0x405c62cc	3.44353
88	0xc00e7ba8	-2.2262974
89	0xc09725f4	-4.723383
90	0x411bd5f1	9.739732
91	0x40882b7a	4.255307
92	0xbf74add1	-0.9557772
93	0x412d9c61	10.850678
94	0x40d88eaf	6.7674174
95	0x41540468	13.251076
96	0x419b6e85	19.428965
97	0xbfdc78c4	-1.7224355
98	0x41858fa3	16.695135
99	0x40bec9d3	5.9621367
100	0x40b1ca46	5.5559416
101	0x404d1482	3.2043767
102	0x402d3c7e	2.7068172
103	0xbf0d88cf	-0.5528688
104	0xc027724d	-2.6163514
105	0x409379b1	4.608605
106	0x401ac3e4	2.4182062
107	0x41d6e587	26.862074
108	0xc02f280d	-2.7368195
109	0x406aaae2	3.6666799
110	0xc0097fc2	-2.1484227
111	0x40983197	4.7560534
112	0x4017a6c2	2.369553
113	0x4108f0c1	8.558778
114	0x41f4754e	30.557278
115	0x407bf30f	3.9367101
116	0x41918033	18.187597
117	0x41459446	12.3487
118	0x40373323	2.8624961
119	0x4001901e	2.0244212
120	0x414bf345	12.746892
121	0x412c4c30	10.7686
122	0xc055d5cf	-3.3411748
123	0x3f979a7a	1.1844018
124	0x3f9c095f	1.219036
125	0xc032f6d4	-2.7963152
126	0x3f499e29	0.7875696
127	0x408a81af	4.3283305
128	0x40da91f5	6.830317
129	0x41557c21	13.342805
130	0xbfd9ddeb	-1.7020849
131	0xbe6cd19f	-0.23126839
132	0x408c88de	4.3917074
133	0x411159ac	9.084393
134	0x41c54b26	24.661694
135	0x4199d590	19.229279
136	0xbfbf677a	-1.4953454
137	0x40a5856c	5.172537
138	0x401e0caa	2.469523
139	0xbff8dacc	-1.9441772
140	0x40f3083e	7.594756
141	0x406d2fec	3.70605
142	0x40c1ac3b	6.052274
143	0x411bb134	9.7307625
144	0x411d3d83	9.8275175
145	0xc0b08f90	-5.5175247
146	0xc07a314c	-3.9092588
147	0x3f183e22	0.5946981
148	0x40e64cb8	7.196865
149	0x40827e1c	4.077894
150	0x4160f806	14.060553
151	0x4073f7f4	3.8120089
152	0x41011199	8.066796
153	0x4060ce35	3.5125859
154	0x4184de84	16.60865
155	0x40b0863d	5.5163865
156	0x4102de69	8.179299
157	0x3fcbd332	1.5923827
158	0xc0c4750f	-6.1392894
159	0x3fd43c40	1.6580887
160	0x40bec653	5.9617095
161	0x41cd46d9	25.659594
162	0x4076d8fd	3.856994
163	0x4107bf33	8.4841795
164	0x412ccc96	10.799948
165	0x3ec224d3	0.3791872
166	0x40a75fb0	5.2304306
167	0x410ec61d	8.9233675
168	0x40658946	3.5865035
169	0x419ca7c5	19.581919
170	0x40a7046b	5.2192893
171	0x408b762b	4.358175
172	0x3f2e1aa7	0.6800942
173	0xc095eed5	-4.6854043
174	0x410e0966	8.877295
175	0x417df8c4	15.873234
176	0x40153beb	2.331782
177	0x40c7211c	6.2227917
178	0x4079d477	3.9035928
179	0x40bdf28b	5.9358573
180	0x40b746a4	5.727373
181	0x4166a283	14.414676
182	0x41c50259	24.626146
183	0xbfd25290	-1.6431446
184	0x404cb557	3.198568
185	0x411e32cd	9.887403
186	0x400d013d	2.2032006
187	0x40a69332	5.205468
188	0x41158ddd	9.347135
189	0xc0526aa2	-3.2877584
190	0xbe885ffe	-0.26635736
191	0x40a56ec3	5.1697707
192	0x404fc4e2	3.2463918
193	0xc0c29f93	-6.0819793
194	0x41a5b3b8	20.712753
195	0x4024c76a	2.5746713
196	0xc0ac51b1	-5.384972
197	0x416e2d6b	14.886088
198	0xc0957b04	-4.6712666
199	0x40d308c9	6.5948224
200	0xbfdfe2d5	-1.7491099
201	0x3f2ae3c1	0.66753775
202	0xbf8cc1ec	-1.099668
203	0x413dff3b	11.874812
204	0x40aa3428	5.3188667
205	0x40b68c96	5.7046614
206	0x40fcbc90	7.898018
207	0x41d3f8e0	26.496521
208	0x4034b5ad	2.8235886
209	0x413adda7	11.679114
210	0x41af9c9d	21.951471
211	0x4145b92a	12.357706
212	0x40d542c8	6.664402
213	0x3f89bf0b	1.0761427
214	0x40d4e007	6.652347
215	0x41cba875	25.457254
216	0x41274215	10.453633
217	0x3d78086d	0.06055491
218	0x4025ded0	2.5917244
219	0x4129326d	10.574811
220	0x42510f99	52.265232
221	0x41a687c5	20.816294
222	0x40a07fea	5.0156145
223	0x4031e23d	2.7794335
224	0x40fa8ec6	7.8299284
225	0x4081508d	4.041083
226	0x40ad6947	5.419101
227	0x415280a4	13.156406
228	0xc0b05b29	-5.511128
229	0xc00fd07d	-2.2471
230	0x408fcbf4	4.4936466
231	0x3fb3491f	1.400669
232	0x3e18b678	0.14913356
233	0x412389c1	10.221131
234	0x40d45aef	6.6361003
235	0xc08217cf	-4.0654063
236	0xbfd0e998	-1.6321287
237	0x40220f71	2.5321925
238	0x411789f8	9.471184
239	0x3f9d6829	1.2297412
240	0xbfc1b059	-1.5131942
241	0xbf91a9c6	-1.1379936
242	0x3fc28866	1.5197875
243	0x410103bf	8.063415
244	0x409f9884	4.9873676
245	0x400058a5	2.0054104
246	0xbfca20e1	-1.5791284
247	0x411aeb1d	9.682401
248	0x41bf5583	23.916754
249	0x40868530	4.2037582
250	0x411d01fe	9.812986
251	0x420135ee	32.302666
252	0x40da7512	6.826791
253	0xc01a42d9	-2.41033
254	0x4054c111	3.3242838
255	0x4080294c	4.005041
