size8/agent_white_4000/target_model.npz (npz, 607540 bytes, 8 tensors)

l2/W f4 [256, 256]
1.2625837 -0.19024394 -0.6895551 1.1089734 0.27440634 1.7848763 0.5620413 -0.00051278685
-0.492006 0.5534779 0.46368536 -3.529004 1.872035 0.77405787 -0.42962816 0.6044821
1.4782025 -1.6768545 -1.2975099 -1.1456689 -2.6250849 0.13968009 0.34928647 1.0188342
0.644674 0.08588848 -2.8801992 -2.8995035 1.163248 1.5617352 -0.61241555 -0.5754891
0.7996058 -0.93282986 1.2238594 -0.5063871 -1.977044 0.6360727 -1.5962303 0.10884713
-4.40902 -2.5823798 1.0562545 -1.2992066 -3.8332524 -0.03789556 0.56271607 4.2596707
1.2493522 -3.4208205 -3.7412093 2.1181145 0.4831387 -1.612083 -4.2236505 0.829486
-0.7136672 0.20120329 -3.0616071 -0.91726696 -0.52664 0.9581336 0.6878004 0.24942482
0.5809983 -0.3657487 -3.470994 0.76759475 -1.8832619 -1.6425139 -1.5647908 1.0529256
-0.9318762 0.0051366016 -0.99298376 1.6808208 -0.37364864 1.9806374 -1.2034502 0.6874526
0.25656894 -2.038312 0.81514686 -2.5379605 -5.081344 -0.7288961 1.0012261 3.9203882
0.6509208 0.2516529 -2.0954392 -2.5329454 -2.7328439 -1.0630198 1.0427848 2.5075924
1.8489164 -0.372514 -3.0070221 -0.6973967 1.161562 2.0769672 -0.6221725 1.0363419
-3.9863434 -2.57583 -1.5502206 2.361935 -1.6008617 -4.358797 -0.5398795 -0.9239684
-0.058039915 0.8088632 0.5829394 -1.3073324 0.44421312 -1.48724 -1.4738212 -3.0997283
0.39842865 0.8157599 -0.83441883 -2.1448767 1.494495 1.3568923 0.9175325 -3.11389
-0.48801845 -2.1843448 -1.7616191 2.2979798 -0.27745572 -2.895746 -2.4612937 3.0889742
-2.648736 -2.3004088 -1.85956 -1.4740736 -0.56543416 0.22975773 1.6975093 -0.07196132
-1.5025492 0.057941657 0.9502275 -1.7194346 -1.4100766 1.2615253 0.51661295 1.1966083
-1.6381944 1.5462083 0.42651567 -0.9417954 -2.0688202 0.8399127 0.53272605 -2.2672718
-0.7286381 -3.0109274 -4.862419 0.79938954 -0.9193328 -0.75857145 0.52557886 -0.36023796
0.4898688 -1.8173175 2.152408 -0.58096147 0.26329553 -0.57001823 0.25188386 0.36282235
-0.19810979 1.2651795 0.79215634 -0.6499705 1.7507689 2.900311 -3.1331427 0.73764914
1.1336516 0.18469703 -1.3654857 -2.7433884 0.28464225 0.6483075 -0.29267985 3.1093323
-0.02592833 -0.17009977 0.3382216 1.4274486 -0.1920558 -0.91191393 -2.5591722 1.1022227
1.1831098 0.23699686 -6.5773797 -2.4734714 -1.5886058 -1.8322034 -0.71382195 -2.0965385
-0.35198566 -0.2036956 -2.3720112 -2.7077072 -0.92658734 -1.9489973 -2.085187 0.45473891
1.232141 1.7095304 -1.1022227 -2.5660074 0.3510354 0.29493132 0.24416079 -0.011413997
-3.0130918 0.29207972 3.047666 -1.9081978 2.378613 -3.896191 0.5180312 -0.37666658
-3.7615373 -1.4370484 -0.59118456 2.1158442 0.43148196 -1.9781952 -0.769921 -3.6031055
0.77211696 -0.051241156 -1.5103031 -3.5899808 -0.49790627 0.8703225 1.2616591 0.78645235
1.3882221 0.54493564 -1.5672255 1.6793228 0.75379986 -2.0273442 0.85746026 -0.9401394
00000000: 589c a13f 4fcf 42be af86 30bf d7f2 8d3f
00000010: fd7e 8c3e d476 e43f f0e1 0f3f 8b6c 06ba
00000020: 36e8 fbbe bab0 0d3f 2b68 ed3e 34db 61c0
00000030: d89e ef3f a828 463f 39f8 dbbe 57bf 1a3f
00000040: bd35 bd3f 2ba3 d6bf ce14 a6bf 47a5 92bf
00000050: 6401 28c0 4c08 0f3e add5 b23e 2969 823f
00000060: 5b09 253f 4de6 af3d 2f55 38c0 7791 39c0
00000070: 4fe5 943f f0e6 c73f 44c7 1cbf 4153 13bf
00000080: f7b2 4c3f f0cd 6ebf 6da7 9c3f 96a2 01bf
00000090: c70f fdbf a9d5 223f 4651 ccbf 3eeb de3d
000000a0: b116 8dc0 b645 25c0 5933 873f 674c a6bf
000000b0: 0254 75c0 6038 1bbd 290e 103f 394f 8840
000000c0: c6ea 9f3f b9ee 5ac0 f96f 6fc0 308f 0740
000000d0: f55d f73e bc58 cebf 2528 87c0 3259 543f
000000e0: e5b2 36bf 3c08 4e3e 5ff1 43c0 02d2 6abf
000000f0: e1d1 06bf 3e48 753f b013 303f 3869 7f3e
00000100: 4ebc 143f 6a43 bbbe c424 5ec0 1781 443f
00000110: ba0e f1bf e53d d2bf 114b c8bf 44c6 863f
00000120: 708f 6ebf f050 a83b 2f34 7ebf 2325 d73f
00000130: e04e bfbe 8785 fd3f a80a 9abf e5fc 2f3f
00000140: 015d 833e b473 02c0 77ad 503f f26d 22c0
00000150: 5f9a a2c0 ef98 3abf 2d28 803f a4e7 7a40
00000160: bfa2 263f a6d8 803e ad1b 06c0 c71b 22c0
00000170: eae6 2ec0 0811 88bf f979 853f 657c 2040
00000180: 4ba9 ec3f 28ba bebe 0d73 40c0 9788 32bf
00000190: 10ae 943f 08ed 0440 b246 1fbf daa6 843f
000001a0: 4020 7fc0 66da 24c0 a16d c6bf f129 1740
000001b0: 09e9 ccbf 447b 8bc0 8b35 0abf 3189 6cbf
000001c0: 43bb 6dbd a911 4f3f 843b 153f ab56 a7bf
000001d0: e76f e33e e15d bebf 2ca6 bcbf f361 46c0
000001e0: d7fe cb3e a4d5 503f 799c 55bf a945 09c0
000001f0: 9d4b bf3f a6ae ad3f 69e3 6a3f f949 47c0
00000200: 8edd f9be 4ecc 0bc0 bc7c e1bf 1a12 1340
00000210: ad0e 8ebe e753 39c0 d685 1dc0 c1b1 4540
00000220: e484 29c0 e639 13c0 1006 eebf 72ae bcbf
00000230: 4bc0 10bf 9c45 6b3e fc47 d93f 7560 93bd
00000240: 8853 c0bf 3b54 6d3d 1c42 733f 6f16 dcbf
00000250: 647d b4bf a979 a13f bf40 043f 762a 993f
00000260: 5bb0 d1bf 27ea c53f 4360 da3e 8119 71bf
00000270: 8d67 04c0 8504 573f bc60 083f fb1a 11c0
00000280: 0788 3abf 09b3 40c0 f098 9bc0 cba4 4c3f
00000290: 6559 6bbf bd31 42bf 568c 063f 1c71 b8be
000002a0: 15d0 fa3e dc9d e8bf 0dc1 0940 e4b9 14bf
000002b0: acce 863e b7ec 11bf ecf6 803e dac3 b93e
000002c0: 4bdd 4abe 67f1 a13f c2ca 4a3f 7764 26bf
000002d0: 3219 e03f b29e 3940 6985 48c0 93d6 3c3f
000002e0: 7f1b 913f 3821 3d3e 3cc8 aebf ad93 2fc0
000002f0: a1bc 913e 7bf7 253f 22da 95be 4dff 4640
00000300: a667 d4bc a22e 2ebe 622b ad3e a3b6 b63f
00000310: 47aa 44be 3173 69bf 7ac9 23c0 a215 8d3f
00000320: 2470 973f 4eaf 723e e579 d2c0 5b4d 1ec0
00000330: 6f57 cbbf a485 eabf 09bd 36bf b02d 06c0
00000340: 7737 b4be 9495 50be 08cf 17c0 134b 2dc0
00000350: d434 6dbf be78 f9bf b473 05c0 8ad3 e83e
00000360: ccb6 9d3f e4d1 da3f a215 8dbf 7739 24c0
00000370: e9ba b33e 3d01 973e 4905 7a3e c601 3bbc
00000380: 7fd6 40c0 798b 953e f60c 4340 d33f f4bf
00000390: 323b 1840 315b 79c0 b19d 043f 71da c0be
000003a0: 07bd 70c0 34f1 b7bf df57 17bf fe69 0740
000003b0: 34eb dc3e 8035 fdbf 8b19 45bf 4899 66c0
000003c0: 75a9 453f 3fe2 51bd 9d51 c1bf 3fc2 65c0
000003d0: 92ed febe 75cd 5e3f 0c7e a13f f154 493f
000003e0: 43b1 b13f e780 0b3f d89a c8bf 0df4 d63f
000003f0: 07f9 403f 02c0 01c0 8482 5b3f faac 70bf

l2/b f4 [256]
0.42895314 -1.3314778 0.40107456 -1.6736466 0.34369305 0.07244352 -0.24045 -0.21164349
-1.0098779 4.61671 2.9523365 -0.9975679 -0.74039996 2.2022893 -1.3317599 -0.68083906
-0.17453872 -1.3101918 0.72675824 1.3509687 0.39304167 -0.035431582 7.0099907 -1.9181485
2.7324948 3.0259786 4.5311103 1.2605478 0.3743654 0.5306887 0.708156 -0.6588022
-1.1887243 -0.7929591 -0.78425467 0.7171019 4.1600447 -0.28188995 -1.1368185 -0.2658103
-0.24540262 -0.22673492 -0.51714563 4.500734 0.14570716 0.49476257 1.2725099 0.4465557
-0.8333572 3.580745 -0.11329383 1.8388386 0.8628749 -0.31485957 -0.9935114 1.6759028
0.7745574 0.40762067 2.0286312 3.7556345 -0.18189012 1.4751129 -0.27538782 1.324834
2.8428545 2.8822548 5.105855 0.2675354 -0.45751175 0.44963244 -0.82454747 0.92423224
2.1842268 2.9316056 -0.24723223 -0.4684093 4.275479 -0.3522036 -0.07531962 -1.2731394
0.7346027 1.2415314 -1.7104892 -0.6125193 0.48262957 3.2275443 1.7427945 0.6383649
-0.36086926 5.5521545 0.033393107 0.524665 2.043488 -0.6396183 -0.2821873 0.9889494
-0.16123872 4.659072 3.393328 -0.47689033 -1.043407 -1.8496914 -0.18593718 0.1243677
-1.8490806 -0.30791944 1.6903832 -0.5915757 -0.47107756 -0.70852154 -0.6720697 -1.3896731
0.8255007 0.3869558 -0.25802216 -0.057222635 -0.013953197 0.15959187 1.460843 1.3336637
1.7332634 3.4329798 -0.8743423 2.3737662 0.6769385 0.38055724 0.06663101 0.63418216
-0.0060168393 0.5592717 1.1056443 0.7861806 0.32863477 -0.36981085 -0.6544725 0.6271382
-0.044260763 0.26837113 1.0565175 1.9873377 -1.0014603 1.034891 -0.0735916 0.16362283
1.9208746 0.7077868 0.9865295 -1.1547759 -1.0248849 -0.51621324 -0.20610686 1.9456934
-0.6491878 3.5405617 -0.7519514 1.1141925 -1.5534554 0.32138586 -2.7458625 -1.1805032
0.49063227 -1.032823 0.07804599 -0.28438497 -2.094253 0.48642367 3.3204536 0.64096445
-0.07277888 3.044941 0.09842677 -0.7787965 -1.0313911 -2.6845105 1.2387717 4.3248763
0.6055761 0.34158742 1.4423126 -0.1719107 -0.8927645 0.7767292 -2.4310365 -0.5967575
-0.83511513 -2.498873 -0.4362559 -0.006168011 -2.0844133 0.652515 -1.4509681 -0.90235037
2.326652 -1.0919156 0.15503837 -1.3930408 2.0101857 -0.56961304 3.1680634 -0.3522314
-0.8178641 2.4049056 0.7262121 0.6575499 -0.3994898 1.0060084 0.7799574 -1.6469624
1.131377 0.898484 -0.33915854 4.1681747 0.26547724 0.3672968 0.611427 -0.02864239
-1.1385951 0.20268972 0.7231199 -1.5205283 -0.4800395 1.069766 -0.32430735 0.7932868
-0.50247556 -0.306895 3.042771 0.5532225 3.6431346 0.83116424 0.016033115 -0.7271933
0.3154489 0.41521186 0.4062069 0.38943338 0.8044098 2.1791651 0.9275893 2.7510893
0.921493 1.6126468 -0.36614263 0.67300105 0.71471554 -0.165054 4.0529866 -0.11022061
-0.7564449 0.9602669 -0.112995006 1.2784209 -0.054024924 -1.0160486 -1.2368938 -0.0685248
00000000: bf9f db3e dd6d aabf a559 cd3e 0d3a d6bf
00000010: 89f8 af3e 455d 943d 8638 76be 12b9 58be
00000020: ae43 81bf 17bc 9340 15f3 3c40 9c60 7fbf
00000030: da8a 3dbf 4ff2 0c40 1c77 aabf 784b 2ebf
00000040: 47ba 32be 5db4 a7bf d40c 3a3f 8bec ac3f
00000050: c23c c93e b520 11bd d851 e040 e485 f5bf
00000060: 32e1 2e40 a2a9 4140 dbfe 9040 a159 a13f
00000070: d2ac bf3e 37db 073f b649 353f 43a7 28bf
00000080: 1e28 98bf 5eff 4abf eac4 48bf fd93 373f
00000090: 161f 8540 e153 90be 4583 91bf 4a18 88be
000000a0: d34a 7bbe 332d 68be a863 04bf 0306 9040
000000b0: 4234 153e 8551 fd3e 9be1 a23f f3a2 e43e
000000c0: e656 55bf ed2a 6540 9806 e8bd 105f eb3f
000000d0: 5fe5 5c3f 4635 a1be c356 7ebf fc83 d63f
000000e0: 6549 463f a8b3 d03e 18d5 0140 515c 7040
000000f0: 6741 3abe 80d0 bc3f a2ff 8cbe 2994 a93f
00000100: 54f1 3540 dd76 3840 2a63 a340 66fa 883e
00000110: fb3e eabe 3936 e63e 8b15 53bf 7c9a 6c3f
00000120: 5fca 0b40 6d9f 3b40 722a 7dbe 58d3 efbe
00000130: b9d0 8840 0854 b4be 2c41 9abd 3bf6 a2bf
00000140: ec0e 3c3f 80ea 9e3f 4ff1 dabf 11ce 1cbf
00000150: 391b f73e 1690 4e40 e413 df3f e26b 233f
00000160: dbc3 b8be 40ab b140 36c7 083d 7250 063f
00000170: 82c8 0240 06be 23bf db7a 90be ca2b 7d3f
00000180: c31b 25be 1e17 9540 492c 5940 f82a f4be
00000190: 5c8e 85bf b0c2 ecbf 5166 3ebe 7eb4 fe3d
000001a0: acae ecbf 9ea7 9dbe 7a5e d83f 8171 17bf
000001b0: 1431 f1be ab61 35bf c30c 2cbf cfe0 b1bf
000001c0: 0454 533f 121f c63e 7b1b 84be 4862 6abd
000001d0: f39b 64bc 0d6c 233e e7fc ba3f 7eb5 aa3f
000001e0: 93db dd3f f1b5 5b40 e6d4 5fbf c9eb 1740
000001f0: d74b 2d3f 66d8 c23e d775 883d c359 223f
00000200: e828 c5bb 6e2c 0f3f c185 8d3f 2243 493f
00000210: d142 a83e d957 bdbe 828b 27bf 218c 203f
00000220: c64a 35bd f167 893e f73b 873f 1561 fe3f
00000230: da2f 80bf 4f77 843f 31b7 96bd be8c 273e
00000240: 38df f53f 8431 353f 338d 7c3f b2cf 93bf
00000250: 6e2f 83bf 8d26 04bf ad0d 53be 7b0c f93f
00000260: 2c31 26bf 9098 6240 e37f 40bf dc9d 8e3f
00000270: a0d7 c6bf b08c a43e 36bc 2fc0 bb1a 97bf
00000280: 2734 fb3e 8b33 84bf 93d6 9f3d e89a 91be
00000290: 3e08 06c0 860c f93e 5082 5440 3f16 243f
000002a0: 180d 95bd 50e0 4240 f993 c93d 355f 47bf
000002b0: a004 84bf 05cf 2bc0 1290 9e3f 6365 8a40
000002c0: 0907 1b3f 8ce4 ae3e b39d b83f 5c09 30be
000002d0: 378c 64bf bad7 463f 1a96 1bc0 19c5 18bf
000002e0: 1bca 55bf 89ed 1fc0 ef5c dfbe 071d cabb
000002f0: 0767 05c0 390b 273f 53b9 b9bf 6f00 67bf
00000300: dee7 1440 e4c3 8bbf 61c2 1e3e 294f b2bf
00000310: e2a6 0040 29d2 11bf 8dc1 4a40 ad57 b4be
00000320: 8b5f 51bf f9e9 1940 09e9 393f 3155 283f
00000330: ed89 ccbe e2c4 803f 4aab 473f aacf d2bf
00000340: f6d0 903f 0c03 663f 30a6 adbe b061 8540
00000350: a2ec 873e 530e bc3e 7b86 1c3f 72a3 eabc
00000360: 7cbd 91bf e58d 4f3e 631e 393f aca0 c2bf
00000370: bdc7 f5be 18ee 883f 9d0b a6be d814 4b3f
00000380: 3da2 00bf 5721 9dbe c3bc 4240 fd9f 0d3f
00000390: 1e29 6940 2ec7 543f e157 833c 5729 3abf
000003a0: 8582 a13e a696 d43e 5afa cf3e d063 c73e
000003b0: cded 4d3f 7177 0b40 7e76 6d3f d911 3040
000003c0: f7e6 6b3f 366b ce3f 0c77 bbbe cc49 2c3f
000003d0: 99f7 363f ea03 29be 11b2 8140 58bb e1bd
000003e0: 5fa6 41bf 0dd4 753f ed69 e7bd 4ca3 a33f
000003f0: 3d49 5dbd e10d 82bf 8952 9ebf bb56 8cbd

l1/W f4 [256, 64]
2.3396664 -8.340461 -4.4485145 0.57600933 0.2928023 -0.1590749 -1.6726844 0.5084645
-1.5329629 -0.6347434 0.030610954 0.18549956 -2.0939677 -0.052664813 -0.77103084 0.12138432
-1.7473503 1.470063 -1.4824384 0.9113004 -0.7386693 0.8336405 -0.674444 -0.74576163
2.5516438 -2.5504866 0.94350195 -1.4203752 0.9148743 1.5702702 1.3518742 1.0675242
1.6891259 1.7945868 1.837651 -0.922246 -1.5837461 0.9676226 -1.5871797 0.50721055
1.792389 1.6702034 -0.3722633 -0.2936566 0.2991014 0.43843102 -0.120747134 0.70862263
2.9947555 -3.0914865 0.040183075 0.8756951 1.9436647 -2.141828 -1.0481886 1.1347132
2.5347664 -0.15677847 -1.4270581 2.8261297 -0.19612092 -1.3563836 -2.795501 -0.49750277
2.5864632 -0.06164689 -0.63452 -1.8462409 0.22695255 -2.5638201 1.8252048 1.6706351
1.1209922 0.8390095 -1.5215946 0.9120159 0.20338307 -1.0852242 0.9160193 3.5838993
3.1483676 0.77496517 0.08977032 -0.025204979 -0.15381712 -0.3435902 1.0498728 -0.4446079
0.8709075 -0.58695704 0.11949358 2.0548477 0.32112604 1.7944225 -4.172028 -3.237335
0.58481836 -0.41713807 -0.36742306 0.062368706 0.20220977 -1.9835882 1.7717426 -3.183603
-1.7955859 -3.9029932 -2.0142496 0.85419583 0.025967538 -1.0728129 0.9320038 1.018817
0.6326452 0.8113948 -2.2179697 -0.1131548 0.41930538 0.8201133 2.1863484 -0.59371036
-1.0646607 -0.76118577 -3.4756749 -5.851637 1.4811122 0.93976086 -2.0615947 0.8058435
-1.4242271 2.5527263 0.6761134 2.6878972 0.05438583 -0.16769019 2.7773817 0.726965
3.2762973 -0.03998319 -0.8399955 0.04540336 -0.52642715 0.46244147 1.4846375 -0.05151381
2.5662594 1.9798838 -0.038940057 -0.3772954 -0.309838 -1.5113178 1.0820682 2.627618
1.8056602 1.1616337 -0.9470378 0.7125481 -0.19141476 -1.3728287 -1.9556619 -0.5002199
0.052391205 -2.7588217 -0.21724528 -0.95808554 0.37796018 1.6178454 -0.98382115 0.9484824
-0.3149337 -2.1831818 -0.15454973 0.8422544 2.4658868 -1.4100443 -1.1644173 -8.481265
-1.2772974 -2.561624 -1.9262286 -1.531793 0.75803566 -0.6938809 -1.7508478 -2.8328884
-3.4578009 1.6740762 -2.6966038 1.7938921 -2.2673953 -0.2877603 -1.254616 1.428265
-2.646501 2.3168204 -1.8131611 -0.86438036 -2.0964625 0.25345987 -1.854239 3.177321
0.12918864 -1.9052455 1.1105225 0.8180712 -0.8862492 -0.12328106 -0.29667148 0.8535058
1.3511634 -1.3209207 -0.6227359 -0.8340239 1.3616109 1.2772465 3.1598866 -2.956586
-1.5035756 -0.10431096 1.2077157 -1.592145 -2.3222506 1.2773528 -2.339466 0.96149707
0.95411617 0.6958564 0.6267933 -1.6947033 0.039444532 0.33965975 -1.3542881 -4.149602
-1.1909835 0.86582917 1.0806397 0.35816154 1.1838017 1.8879628 1.7689353 -6.321977
2.1501067 -4.2206435 -0.9582935 0.16616824 1.0157701 1.197104 2.0645165 -2.940297
-2.5915816 -3.6686563 -0.9983822 -0.4873484 -1.2035822 2.5678833 1.5934974 0.8096928
00000000: 18bd 1540 8772 05c1 3b5a 8ec0 5975 133f
00000010: 2fea 953e 88e4 22be 861a d6bf bb2a 023f
00000020: 2138 c4bf 8b7e 22bf d3c3 fa3c 99f3 3d3e
00000030: 9103 06c0 0fb7 57bd 4762 45bf 5898 f83d
00000040: 2da9 dfbf 062b bc3f 8bc0 bdbf fc4a 693f
00000050: 6e19 3dbf 7769 553f 5da8 2cbf 3cea 3ebf
00000060: 224e 2340 2c3b 23c0 5889 713f dbce b5bf
00000070: 3435 6a3f 9dfe c83f 370a ad3f a2a4 883f
00000080: 4735 d83f 05b5 e53f 2638 eb3f 5018 6cbf
00000090: 31b8 cabf 1db6 773f b428 cbbf 8dd8 013f
000000a0: 016d e53f 3ac9 d53f 4c99 bebe 285a 96be
000000b0: d223 993e 087a e03e 464a f7bd 4b68 353f
000000c0: 13aa 3f40 eada 45c0 0297 243d 8e2d 603f
000000d0: 01ca f83f b613 09c0 0b2b 86bf 483e 913f
000000e0: 9d39 2240 898a 20be d7a9 b6bf 4fdf 3440
000000f0: ecd3 48be fa9d adbf 7de9 32c0 afb8 febe
00000100: 9d88 2540 7381 7cbd e76f 22bf 9f51 ecbf
00000110: 4066 683e a115 24c0 50a0 e93f 5fd7 d53f
00000120: ac7c 8f3f 54c9 563f 9dc3 c2bf e079 693f
00000130: a743 503e a0e8 8abf 3e80 6a3f 9b5e 6540
00000140: db7e 4940 1e64 463f 80d9 b73d ac7a cebc
00000150: 3c82 1dbe 0eeb afbe 3b62 863f a6a3 e3be
00000160: cbf3 5e3f d142 16bf 0db9 f43d a082 0340
00000170: a26a a43e a3af e53f 4181 85c0 7f30 4fc0
00000180: a8b6 153f 1f93 d5be e01e bcbe 5476 7f3d
00000190: 1410 4f3e 38e6 fdbf 76c8 e23f 27c0 4bc0
000001a0: c2d5 e5bf a4ca 79c0 77e9 00c0 94ac 5a3f
000001b0: e0b9 d43c ef51 89bf cd97 6e3f 9868 823f
000001c0: 09f5 213f 92b7 4f3f 37f3 0dc0 b4bd e7bd
000001d0: 32af d63e f2f2 513f 22ed 0b40 67fd 17bf
000001e0: cd46 88bf 12dd 42bf 7571 5ec0 9c40 bbc0
000001f0: 1695 bd3f 2b94 703f 2bf1 03c0 c24b 4e3f
00000200: 134d b6bf de5f 2340 c515 2d3f 8206 2c40
00000210: adc3 5e3d fab6 2bbe 9fc0 3140 611a 3a3f
00000220: dbae 5140 6ac5 23bd f209 57bf e0f8 393d
00000230: eec3 06bf 21c5 ec3e 9a08 be3f 2500 53bd
00000240: 983d 2440 d56c fd3f 9c7f 1fbd dd2c c1be
00000250: 16a3 9ebe dd72 c1bf 3681 8a3f e52a 2840
00000260: e01f e73f 6ab0 943f 1271 72bf 8d69 363f
00000270: 3b02 44be dab8 afbf 2153 fabf 690e 00bf
00000280: 2998 563d 8990 30c0 8c75 5ebe 1845 75bf
00000290: ff83 c13e 8f15 cf3f b4db 7bbf becf 723f
000002a0: fd3e a1be 40b9 0bc0 4942 1ebe fc9d 573f
000002b0: 17d1 1d40 557c b4bf a00b 95bf 43b3 07c1
000002c0: 7b7e a3bf a6f1 23c0 a98e f6bf cb11 c4bf
000002d0: a00e 423f 2ea2 31bf c81b e0bf 0b4e 35c0
000002e0: 9c4c 5dc0 2148 d63f 2895 2cc0 429e e53f
000002f0: 011d 11c0 5155 93be 4297 a0bf 63d1 b63f
00000300: 4660 29c0 c946 1440 aa15 e8bf 0848 5dbf
00000310: 712c 06c0 7ec5 813e b457 edbf 3a59 4b40
00000320: 074a 043e 16df f3bf 9a25 8e3f 1d6d 513f
00000330: 3ae1 62bf c87a fcbd 53e5 97be 5b7f 5a3f
00000340: ecf2 ac3f ee13 a9bf 9f6b 1fbf 9782 55bf
00000350: 4449 ae3f d07c a33f 953b 4a40 b438 3dc0
00000360: 2a75 c0bf fca0 d5bd 6e96 9a3f 68cb cbbf
00000370: c19f 14c0 4c80 a33f d0b9 15c0 ac24 763f
00000380: f540 743f a523 323f 8775 203f 0aec d8bf
00000390: 9790 213d e2e7 ad3e 5059 adbf 8ac9 84c0
000003a0: 2672 98bf fba6 5d3f 6752 8a3f f360 b73e
000003b0: d086 973f c4a8 f13f 796c e23f a34d cac0
000003c0: 599b 0940 830f 87c0 b952 75bf 0228 2a3e
000003d0: c104 823f b43a 993f 0a21 0440 d32d 3cc0
000003e0: 79dc 25c0 44cb 6ac0 fa95 7fbf bb85 f9be
000003f0: fb0e 9abf 3358 2440 b9f7 cb3f 0748 4f3f

l1/b f4 [256]
0.29633415 -0.46018195 0.51168025 -0.16814981 0.23579098 -1.0613142 0.52229786 -0.23705639
0.13140827 -0.38659424 -1.7321527 -0.14930189 -1.1590648 0.33704036 -0.8401687 0.4243953
-0.31819353 -0.6254585 -0.27915055 0.0045211753 2.0511136 0.22155295 1.0772617 -0.67917997
-0.9484982 -2.1885803 0.3642739 0.96728307 -0.7853038 -2.2908704 -0.7594179 -0.9295054
0.610113 -0.5840897 -3.775518 0.9919696 1.6336428 1.0599146 0.17125344 -0.081890054
0.31731293 0.474868 -1.2124895 -0.5513091 -0.31196463 -0.3987382 -0.63548464 0.51843745
-2.1508849 1.4300458 -0.49703428 1.7247294 0.6639653 -0.27322602 1.1421918 0.70555395
-0.37935027 -0.34328732 0.814278 -0.0030092662 0.546423 -0.47813734 0.8949844 -2.2030103
-2.0476215 1.5654024 0.11787107 -0.45421433 -1.5154173 0.74826586 -1.4079269 0.49882215
0.41060916 -0.978119 1.5625646 -0.6849678 -0.20666906 0.20745593 1.8819076 2.0846672
-0.0785476 -3.636447 0.7551285 0.7884704 0.4383592 -1.3931417 0.35511208 0.8837079
0.66161 0.17110057 0.09059144 0.7363498 0.55308926 -1.592515 -0.1610716 -0.026132891
-2.366208 -2.4833949 1.7970198 0.21521524 1.8426005 1.4148444 -1.267313 -2.0291595
1.553739 -0.122420564 -0.5997378 -1.5750065 -0.15858303 1.3174372 -2.1363263 1.5885278
0.77598095 2.0171058 -0.984614 0.83391553 0.3476645 1.4950583 -0.0883245 0.8212818
1.6998934 -1.6470013 0.24155739 0.9880073 -2.186805 -0.10222598 0.10284241 -0.32579732
-0.20903519 -2.535386 2.3038704 -1.9082583 -1.7133082 0.106113784 0.531953 2.485161
-1.8466645 -0.4575165 0.77418596 1.0544343 -1.3089399 -1.9096218 1.6917672 -1.2228353
-0.76535326 0.036033012 -0.07996708 2.01507 1.2717141 -1.0436008 -0.5143026 0.73308
-0.5203408 0.0455981 -1.2853192 -0.20340069 -0.22983204 2.3745644 -2.2105412 2.1635084
0.16951409 0.2577981 1.5744987 0.7208194 0.18550341 -2.2955 1.094465 -3.228378
-2.704699 -0.9963741 0.98223823 0.20236854 -0.0058081388 0.7037084 1.6282468 -1.670966
-0.5069277 -1.9672298 0.08301318 -0.65660155 1.2896005 -0.74277484 0.8151978 0.72582716
0.66354305 -0.643514 -2.748271 1.4821105 0.20082697 0.9772699 -0.5022395 1.5338433
0.14028816 1.0375925 -1.7429637 -0.44085544 0.70112306 -1.2943833 -1.0452377 1.7903441
-0.958556 -0.40787444 -0.7728579 0.20073724 1.3344245 -2.435918 -2.1927373 -2.189572
0.7827708 0.050174095 -2.3125205 -0.73609155 -0.6402621 1.273963 -0.8901393 -0.71789736
-0.06008082 -1.5318084 -0.35148534 -1.3954738 0.64473367 0.038695928 -1.2675592 -2.308513
1.4549385 -1.5514281 0.29098767 -0.3119089 0.018052416 1.5276436 0.22372007 -2.162609
1.3678282 -1.4308655 0.9192743 -2.2434819 0.67099494 2.128046 -2.9533186 0.5620962
0.0021371115 -1.1205423 0.11874798 -1.4634327 -1.9728199 -2.1481903 -0.9910561 -0.12401439
0.58766127 -0.0710347 0.86069703 2.4039528 -2.4073176 0.5255681 0.22635575 -3.0606632
00000000: 1cb9 973e f89c ebbe 7afd 023f 772f 2cbe
00000010: 3173 713e 25d9 87bf 50b5 053f e9be 72be
00000020: e48f 063e aeef c5be 2eb7 ddbf 98e2 18be
00000030: 3c5c 94bf 8e90 ac3e 4c15 57bf 574a d93e
00000040: 43ea a2be 0c1e 20bf d2ec 8ebe 5e26 943b
00000050: 7245 0340 c7de 623e b6e3 893f bdde 2dbf
00000060: c7d0 72bf b311 0cc0 1c82 ba3e dd9f 773f
00000070: ab09 49bf 9f9d 12c0 3669 42bf 11f4 6dbf
00000080: 5e30 1c3f e786 15bf 16a2 71c0 b8f1 7d3f
00000090: 351b d13f 48ab 873f 105d 2f3e f9b5 a7bd
000000a0: d776 a23e e621 f33e db32 9bbf 9822 0dbf
000000b0: d4b9 9fbe 6a27 ccbe 1faf 22bf 51b8 043f
000000c0: 19a8 09c0 be0b b73f 477b febe efc3 dc3f
000000d0: a1f9 293f 48e4 8bbe 5733 923f 2f9f 343f
000000e0: 333a c2be 5bc3 afbe 8674 503f 1c37 45bb
000000f0: 61e2 0b3f 6bce f4be b31d 653f 1ffe 0cc0
00000100: 3b0c 03c0 1b5f c83f 6366 f13d c88e e8be
00000110: 32f9 c1bf 5a8e 3f3f f336 b4bf 9e65 ff3e
00000120: 5d3b d23e 0266 7abf 1e02 c83f 0d5a 2fbf
00000130: 0ea1 53be 546f 543e 59e2 f03f 306b 0540
00000140: 90dd a0bd 8cbb 68c0 1a50 413f 32d9 493f
00000150: 9e70 e03e 7852 b2bf 40d1 b53e ae3a 623f
00000160: 465f 293f fd34 2f3e 0188 b93d 6c81 3c3f
00000170: 4297 0d3f 88d7 cbbf f4ef 24be a514 d6bc
00000180: f46f 17c0 f1ef 1ec0 bf04 e63f 6261 5c3e
00000190: 55da eb3f 9f19 b53f 5037 a2bf c0dd 01c0
000001a0: ebe0 c63f a2b7 fabd 6b88 19bf d099 c9bf
000001b0: 9763 22be c8a1 a83f 92b9 08c0 e154 cb3f
000001c0: b0a6 463f 4318 0140 aa0f 7cbf 7d7b 553f
000001d0: 1501 b23e 125e bf3f 7ae3 b4bd 863f 523f
000001e0: 1b96 d93f f0d0 d2bf d25a 773e 0cee 7c3f
000001f0: 9df4 0bc0 db5b d1bd 0b9f d23d e8ce a6be
00000200: 520d 56be c443 22c0 9d72 1340 cf41 f4bf
00000210: af4d dbbf 2f52 d93d 122e 083f e10c 1f40
00000220: 815f ecbf 9a3f eabe 0d31 463f b4f7 863f
00000230: 588b a7bf 7d6e f4bf d48b d83f de85 9cbf
00000240: 31ee 43bf 5a97 133d c8c5 a3bd e8f6 0040
00000250: 87c7 a23f b694 85bf 56a9 03bf 22ab 3b3f
00000260: 0e35 05bf 13c5 3a3d 5785 a4bf 4548 50be
00000270: 1759 6bbe ddf8 1740 8279 0dc0 ec76 0a40
00000280: 1a95 2d3e 1dfe 833e 2c89 c93f 9f87 383f
00000290: 9bf4 3d3e 79e9 12c0 6e17 8c3f bf9d 4ec0
000002a0: ca19 2dc0 5f12 7fbf f773 7b3f b339 4f3e
000002b0: 3352 bebb 3c26 343f 646a d03f 37e2 d5bf
000002c0: 04c6 01bf 30ce fbbf d002 aa3d 0a17 28bf
000002d0: a111 a53f 7e26 3ebf ceb0 503f cfcf 393f
000002e0: f5dd 293f 55bd 24bf ace3 2fc0 ccb5 bd3f
000002f0: 96a5 4d3e 5c2e 7a3f c592 00bf fa54 c43f
00000300: b3a7 0f3e d5cf 843f 6f19 dfbf ceb7 e1be
00000310: cd7c 333f 5aae a5bf 59ca 85bf ff29 e53f
00000320: ed63 75bf ebd4 d0be 04da 45bf 108e 4d3e
00000330: 6cce aa3f 15e6 1bc0 cf55 0cc0 f321 0cc0
00000340: ab63 483f 5a83 4d3d 5600 14c0 7f70 3cbf
00000350: 38e8 23bf 3811 a33f 2be0 63bf 1fc8 37bf
00000360: 4e17 76bd 4c12 c4bf e3f5 b3be e39e b2bf
00000370: 440d 253f 9f7f 1e3d 613f a2bf adbe 13c0
00000380: 6d3b ba3f 3295 c6bf 56fc 943e 86b2 9fbe
00000390: a9e2 933c d389 c33f e016 653e 3068 0ac0
000003a0: ff14 af3f 9a26 b7bf 8f55 6b3f 3595 0fc0
000003b0: 53c6 2b3f e831 0840 2c03 3dc0 89e5 0f3f
000003c0: c80e 0c3b ee6d 8fbf 2432 f33d c351 bbbf
000003d0: 5d85 fcbf f37b 09c0 dab5 7dbf 42fb fdbd
000003e0: f870 163f a47a 91bd a456 5c3f 5dda 1940
000003f0: 7e11 1ac0 a28b 063f cdc9 673e e8e1 43c0

l4/W f4 [64, 256]
5.7641416 8.748408 5.45715 6.4513683 1.1826676 1.1739546 8.22624 7.383467
2.7654634 4.9363112 6.289535 5.200394 6.0213537 6.0838127 3.7070246 8.060764
5.3927655 4.6598606 4.798851 5.710678 6.4309645 6.215947 2.1787467 7.7618675
6.2305193 5.284037 6.601547 7.1518617 5.9548545 4.69847 8.271554 5.434592
7.2581987 4.9645042 6.7143064 0.78159326 7.584778 8.30345 6.9485283 5.2572875
3.2829523 4.531581 8.003903 5.8497176 6.809195 6.2056375 1.444385 8.090082
5.5204873 6.9441514 5.4819345 8.951752 7.9710865 8.14865 5.8894687 8.663946
6.7293506 9.579782 10.51717 6.684589 1.1357824 6.993643 6.406181 6.9558387
6.2995644 10.302674 6.760512 7.854821 10.276352 6.7385163 9.584542 6.536914
4.8058543 9.477722 10.652054 7.078031 7.2482414 5.75953 6.966751 5.406649
5.712672 7.4189215 7.4425716 7.2643714 3.8273044 1.3131281 6.2273536 6.0982537
7.0379605 5.158512 7.481291 7.455984 6.776205 3.387444 8.765386 8.603011
1.4853369 10.345766 5.302159 5.9393234 3.5586102 5.117293 6.101073 5.3310313
6.047563 6.193486 5.7902317 1.0450568 5.835392 4.971331 6.429314 1.6986809
6.465192 5.270492 2.2307892 7.9283056 1.7839186 5.4787354 7.2053103 4.707175
4.812742 8.553411 8.317644 7.548079 6.2411895 4.473752 9.500212 4.786137
6.9126105 2.4790246 4.0792503 5.1539803 4.246027 5.3492956 0.8676652 1.6370677
7.978305 8.847461 6.2667885 6.864182 5.943295 7.407838 5.3099737 6.567956
7.3722386 5.823034 5.8589907 4.565607 6.2054505 7.7983465 4.239814 7.285301
7.928957 6.7377133 1.2852876 10.191417 9.279677 6.896109 5.3238916 6.011664
5.4550295 1.6698632 5.2222867 6.84458 2.3644476 7.8195963 7.5790815 4.9793725
4.4135475 2.1610537 8.397165 5.43457 7.903759 6.195776 6.925647 1.2554482
5.9095592 8.7644005 6.468324 5.697675 7.0407586 7.1047926 1.302041 8.920874
7.505692 5.2323995 7.561455 5.2353415 5.9360332 6.250475 6.0009675 6.984236
5.288388 5.346021 1.7951095 7.0386577 7.8841634 1.9461533 5.650132 7.1808615
5.045561 5.7706237 7.496824 5.279576 7.479267 8.461769 8.277164 1.6843555
4.300611 8.344982 1.2800854 7.822805 9.730209 7.1297617 5.0272236 1.2579923
8.423139 4.996906 5.565423 2.5650492 1.6119655 -2.3786516 6.6745954 4.7534847
10.5233965 5.2276287 10.920549 9.362799 3.0423174 6.3726673 5.5732217 5.0483675
8.701436 5.421326 4.9998736 6.074825 7.5257173 5.267001 4.834048 7.4159746
5.864926 5.0294023 4.389848 6.3570933 6.833544 7.827416 4.2954874 5.692684
1.5735506 5.606747 6.377124 1.7314004 7.681181 5.562024 7.7806773 8.63698
00000000: d973 b840 7bf9 0b41 f9a0 ae40 9c71 ce40
00000010: a761 973f 2544 963f ae9e 0341 5d45 ec40
00000020: 5afd 3040 43f6 9d40 df43 c940 a169 a640
00000030: eeae c040 98ae c240 e43f 6d40 e4f8 0041
00000040: 8991 ac40 941d 9540 3090 9940 e0bd b640
00000050: 76ca cd40 0ae9 c640 9670 0b40 3861 f840
00000060: 6a60 c740 d516 a940 df3f d340 0ddc e440
00000070: 2b8e be40 de59 9640 4958 0441 2de8 ad40
00000080: 2a43 e840 38dd 9e40 99db d640 7f16 483f
00000090: 80b6 f240 eeda 0441 585a de40 b33b a840
000000a0: e41b 5240 b602 9140 fd0f 0041 e330 bb40
000000b0: ede4 d940 9594 c640 9ce1 b83f fa70 0141
000000c0: d5a7 b040 7d36 de40 026c af40 603a 0f41
000000d0: 2413 ff40 df60 0241 8776 bc40 869f 0a41
000000e0: d756 d740 c946 1941 5446 2841 27e8 d540
000000f0: 5161 913f eccb df40 6fff cc40 3b96 de40
00000100: 0896 c940 c1d7 2441 1d56 d840 b25a fb40
00000110: f06b 2441 eda1 d740 495a 1941 662e d140
00000120: 8fc9 9940 c0a4 1741 d06e 2a41 3b7f e240
00000130: 98f1 e740 124e b840 a0ef de40 4503 ad40
00000140: 36ce b640 ce67 ed40 8c29 ee40 bb75 e840
00000150: 8ef2 7440 9514 a83f 7b46 c740 e524 c340
00000160: f936 e140 8812 a540 bc66 ef40 6c97 ee40
00000170: acd6 d840 e2cb 5840 053f 0c41 efa5 0941
00000180: 851f be3f 4288 2541 49ab a940 f00e be40
00000190: 45c0 6340 ddc0 a340 fd3b c340 cf97 aa40
000001a0: a385 c140 0a31 c640 9449 b940 6cc4 853f
000001b0: 88bb ba40 2515 9f40 f1bc cd40 606e d93f
000001c0: dae2 ce40 dfa7 a840 40c5 0e40 aeb4 fd40
000001d0: 7257 e43f cd51 af40 e791 e640 2da1 9640
000001e0: fc01 9a40 c5da 0841 1215 0541 dd89 f140
000001f0: d3b7 c740 fa28 8f40 de00 1841 0928 9940
00000200: 1b34 dd40 57a8 1e40 3889 8240 68ed a440
00000210: 74df 8740 6e2d ab40 4e1f 5e3f 6f8b d13f
00000220: 464e ff40 338f 0d41 8889 c840 61a7 db40
00000230: 792f be40 020d ed40 4eeb a940 b22c d240
00000240: 61e9 eb40 4b56 ba40 da7c bb40 7419 9240
00000250: 0d93 c640 0e8c f940 8eac 8740 3021 e940
00000260: 04ba fd40 599b d740 4e84 a43f 0b10 2341
00000270: 8f79 1441 edac dc40 525d aa40 8d5f c040
00000280: 9a8f ae40 14be d53f f91c a740 cd06 db40
00000290: 1c53 1740 223a fa40 d687 f240 0557 9f40
000002a0: c83b 8d40 b44e 0a40 ca5a 0641 ffe7 ad40
000002b0: 98eb fc40 cc43 c640 e69e dd40 87b2 a03f
000002c0: 1c1b bd40 fc3a 0c41 83fc ce40 5b53 b640
000002d0: e54d e140 765a e340 48a9 a63f e6bb 0e41
000002e0: a12e f040 d16f a740 70f7 f140 eb87 a740
000002f0: fcf3 bd40 e403 c840 ed07 c040 dc7e df40
00000300: 793a a940 9b12 ab40 26c6 e53f af3c e140
00000310: 114b fc40 8d1b f93f e2cd b440 9ec9 e540
00000320: 3c75 a140 f3a8 b840 fbe5 ef40 49f2 a840
00000330: 2856 ef40 6863 0741 446f 0441 f698 d73f
00000340: 9b9e 8940 0c85 0541 d7d9 a33f 6b54 fa40
00000350: f0ae 1b41 0227 e440 04df a040 e405 a13f
00000360: 2dc5 0641 a7e6 9f40 f217 b240 c429 2440
00000370: e354 ce3f d43b 18c0 4996 d540 8c1c 9840
00000380: d55f 2841 bc48 a740 92ba 2e41 06ce 1541
00000390: 54b5 4240 e4ec cb40 d557 b240 3a8c a140
000003a0: 1539 0b41 817b ad40 f7fe 9f40 f764 c240
000003b0: add2 f040 468b a840 85b0 9a40 aa4f ed40
000003c0: 79ad bb40 ddf0 a040 a379 8c40 4f6d cb40
000003d0: 64ac da40 317a fa40 a274 8940 782a b640
000003e0: 1b6a c93f 796a b340 6611 cc40 879e dd3f
000003f0: 3ccc f540 1afc b140 4ffb f840 1231 0a41

l4/b f4 [64]
0.94488865 0.9012739 1.6805332 0.18435946 2.0071719 0.3894803 -0.34514847 1.8740404
0.1888326 2.454658 2.1089094 3.6332772 1.956644 2.9699647 2.448298 0.49631327
0.3425366 3.9968657 3.356841 1.7357204 3.3611104 2.1609454 2.1086364 1.501314
1.9507209 3.224425 2.072377 0.014956145 0.3976362 5.170386 3.775966 0.28761575
1.3769547 2.6583838 3.1102223 0.5363947 0.14375237 1.3181343 2.9775703 2.9838157
0.62190056 2.8204734 3.0955627 3.1373665 0.7455391 4.790264 1.233024 0.21882102
0.7548858 0.8484895 2.299673 3.5866935 2.7175581 3.1773982 4.1578608 0.6141661
0.24527372 -0.5925632 2.875136 1.6171093 1.2000345 0.42225727 -0.0010393263 1.5481497
00000000: 39e4 713f e3b9 663f b61b d73f bac8 3c3e
00000010: 8175 0040 f669 c73e 4db7 b0be 8ee0 ef3f
00000020: 555d 413e 1e19 1d40 5ff8 0640 9d87 6840
00000030: 5073 fa3f e713 3e40 eab0 1c40 c61c fe3e
00000040: f560 af3e a6cc 7f40 7cd6 5640 162c de3f
00000050: 6f1c 5740 ee4c 0a40 e6f3 0640 0f2b c03f
00000060: 39b1 f93f fb5c 4e40 d3a1 0440 9e0a 753c
00000070: f996 cb3e cd73 a540 6da9 7140 5f42 933e
00000080: 0d40 b03f f622 2a40 e20d 4740 2a51 093f
00000090: d233 133e a0b8 a83f 8390 3e40 d6f6 3e40
000000a0: e034 1f3f a382 3440 b31d 4640 9dca 4840
000000b0: a7db 3e3f d849 9940 bbd3 9d3f 9e12 603e
000000c0: 3240 413f 9c36 593f d82d 1340 638c 6540
000000d0: 79ec 2d40 7e5a 4b40 320d 8540 fd39 1d3f
000000e0: 0929 7b3e 39b2 17bf 3a02 3840 70fd ce3f
000000f0: bb9a 993f 1b32 d83e 013a 88ba c529 c63f

l3/W f4 [256, 256]
4.7774067 2.6547208 3.6188583 8.46505 3.8434072 5.27681 5.4041014 -1.5510213
2.050173 -0.9813176 -0.26196244 1.2296305 0.74927044 -2.7882667 6.680312 -3.9915793
10.196973 7.344105 7.9875283 -1.4433191 5.162271 5.743959 -0.013066279 4.100211
-3.2252014 0.16286814 -0.5919261 -2.232673 5.96662 -1.7706583 4.8194203 3.6404328
2.213846 4.158059 4.5364065 6.4926834 -3.0621717 2.855597 3.3810644 7.4958324
1.5616097 2.7406416 3.3418703 -2.32247 5.6037183 3.154774 -4.995435 -0.8617098
-6.4617815 -0.9466128 5.111681 -1.5801172 4.0142937 5.9728613 1.1933972 -3.0272005
-5.180093 5.9404073 -0.720291 -2.7545636 3.8194625 -1.2240322 4.2373314 -5.720337
-2.4205287 -0.060582172 -0.8269466 5.9065585 -6.8271923 -3.2893932 4.4742017 5.395889
-0.31552315 -2.4853835 -5.33812 5.185382 -1.9820503 -3.8610587 6.1583405 2.4818203
5.1999807 4.8357306 2.87101 3.2672837 2.1449206 -4.9401655 -2.6209154 -0.38646317
-7.752759 -1.8114809 5.735935 3.180289 -2.4704583 5.858629 8.893483 -0.30725023
3.6984513 -1.9541572 -2.919215 5.840705 6.4174786 0.88988656 2.9160774 2.7407017
5.090854 4.072526 -0.5331978 5.104422 4.0414047 3.5521667 5.1057043 4.4474587
2.428491 6.656515 -6.6629105 7.234544 5.3283143 7.527213 -2.1925507 5.8257494
-2.2845538 1.1921935 3.2084305 -1.929884 4.0997806 5.893395 5.209823 3.2382166
3.5497983 4.5581093 -3.086563 5.819609 6.362798 4.03137 1.0453708 5.1556563
4.905899 3.9895658 -2.3423285 3.7599723 5.9770627 -4.491415 4.336172 7.120936
5.1143265 -4.3773327 -1.5680476 1.0125748 0.7505082 7.743186 5.122637 -5.4631963
4.9036765 -5.696193 5.0402513 -3.506812 3.5507226 4.8164287 6.687022 -4.782671
4.2320714 5.3980994 -3.1839223 7.2731314 3.968087 2.3033473 -3.3686128 4.3893204
5.2945814 -2.0202277 2.8893337 4.9009905 4.146787 3.0036628 -2.578593 -5.2170053
-2.1546571 1.0120187 -4.422819 2.4179606 2.8930426 8.672779 0.4314775 3.228913
10.348788 4.3259935 6.040554 3.9807253 3.3014953 3.2054608 4.2292166 3.242895
0.986612 6.2015004 5.6901865 0.6264297 -1.466062 6.4446874 -4.7054214 6.4457064
7.5528355 -3.1731637 8.176417 3.505665 6.855437 5.7282715 -0.89960045 1.7055883
0.9736358 2.729102 2.3551395 -3.5353703 6.394798 2.3571348 6.262836 1.8965566
6.9621124 6.3874397 3.3761475 4.062888 1.9995476 4.026693 1.3735462 5.220077
3.347351 3.7277195 0.08989734 5.585223 -1.7902119 3.8990388 5.3197017 4.413877
-3.2925754 7.0699763 -2.5399466 1.5092975 3.997913 -1.8278136 1.0748247 -3.788209
-4.0095534 -4.4572077 7.26362 4.9310527 5.120446 -2.6802273 -0.2754454 1.2436646
1.7185917 5.442818 4.9252634 5.879652 4.435939 7.5614223 3.9690862 3.524262
00000000: 84e0 9840 f2e6 2940 609b 6740 d870 0741
00000010: 62fa 7540 a1db a840 66ee ac40 de87 c6bf
00000020: 0936 0340 a137 7bbf f11f 86be 8864 9d3f
00000030: 30d0 3f3f f672 32c0 1ec5 d540 0976 7fc0
00000040: cd26 2341 e802 eb40 d599 ff40 aebe b8bf
00000050: 5331 a540 83ce b740 f213 56bc ee34 8340
00000060: b369 4ec0 e8c6 263e 7888 17bf 1de4 0ec0
00000070: 8dee be40 eea4 e2bf b138 9a40 dafc 6840
00000080: a7af 0d40 d20e 8540 3e2a 9140 10c4 cf40
00000090: 9ffa 43c0 1ac2 3640 5c63 5840 dcdd ef40
000000a0: d4e2 c73f ac66 2f40 34e1 5540 59a3 14c0
000000b0: a951 b340 d1e7 4940 9bda 9fc0 0399 5cbf
000000c0: eac6 cec0 3755 72bf e492 a340 4841 cabf
000000d0: 1875 8040 ae21 bf40 3dc1 983f a7bd 41c0
000000e0: 52c3 a5c0 d117 be40 fe64 38bf c54a 30c0
000000f0: 1372 7440 16ad 9cbf 3898 8740 000d b7c0
00000100: f1e9 1ac0 0325 78bd c6b2 53bf 8702 bd40
00000110: 5c78 dac0 6b85 52c0 a92c 8f40 1fab ac40
00000120: 408c a1be 8610 1fc0 e1d1 aac0 a6ee a540
00000130: d3b3 fdbf 961b 77c0 2011 c540 25d6 1e40
00000140: 3e66 a640 4ebe 9a40 a1be 3740 2d1b 5140
00000150: 6146 0940 d615 9ec0 14bd 27c0 80de c5be
00000160: 9a16 f8c0 9bde e7bf c88c b740 db89 4b40
00000170: fd1b 1ec0 e479 bb40 b54b 0e41 e74f 9dbe
00000180: 6db3 6c40 d321 fabf 6bd4 3ac0 0ee7 ba40
00000190: fc5b cd40 9bcf 633f 03a1 3a40 a867 2f40
000001a0: 47e8 a240 2252 8240 a77f 08bf 6d57 a340
000001b0: 3053 8140 b356 6340 ee61 a340 9551 8e40
000001c0: 666c 1b40 2c02 d540 9036 d5c0 6281 e740
000001d0: 8d81 aa40 eede f040 c052 0cc0 8a6c ba40
000001e0: 2136 12c0 cc99 983f ed56 4d40 7006 f7bf
000001f0: 6731 8340 b196 bc40 dfb6 a640 f13e 4f40
00000200: e52f 6340 08dc 9140 408a 45c0 3d3a ba40
00000210: 0b9c cb40 fc00 8140 b6ce 853f 23fb a440
00000220: 20fd 9c40 0c55 7f40 b6e8 15c0 63a3 7040
00000230: 1944 bf40 acb9 8fc0 ecc1 8a40 b5de e340
00000240: 90a8 a340 1c13 8cc0 c9b5 c8bf 0d9c 813f
00000250: 4e21 403f 2ec8 f740 a4ec a340 81d2 aec0
00000260: ebea 9c40 3747 b6c0 bd49 a140 9c6f 60c0
00000270: 0a3f 6340 2f20 9a40 16fc d540 a40b 99c0
00000280: 216d 8740 3bbd ac40 62c5 4bc0 7ebd e840
00000290: 23f5 7d40 0b6a 1340 5a97 57c0 5075 8c40
000002a0: 366d a940 694b 01c0 d8ea 3840 ead4 9c40
000002b0: 7bb2 8440 033c 4040 ab07 25c0 b5f1 a6c0
000002c0: e7e5 09c0 d489 813f bc87 8dc0 debf 1a40
000002d0: 9c27 3940 b4c3 0a41 9eea dc3e 83a6 4e40
000002e0: a394 2541 8a6e 8a40 384c c140 34c4 7e40
000002f0: b34b 5340 4526 4d40 be55 8740 978b 4f40
00000300: 9b92 7c3f b172 c640 0216 b640 b25d 203f
00000310: eba7 bbbf e13a ce40 d092 96c0 3a43 ce40
00000320: d4b0 f140 1d15 4bc0 9bd2 0241 d15c 6040
00000330: bd5f db40 004e b740 374c 66bf b850 da3f
00000340: 3240 793f 9ba9 2e40 9bba 1640 8243 62c0
00000350: 2fa2 cc40 4cdb 1640 2769 c840 5ec2 f23f
00000360: a0c9 de40 e865 cc40 cd12 5840 2e03 8240
00000370: 2df1 ff3f abda 8040 5dd0 af3f df0a a740
00000380: 003b 5640 f592 6e40 191c b83d 26ba b240
00000390: aa25 e5bf da89 7940 ff3a aa40 7b3e 8d40
000003a0: 8eb9 52c0 3f3d e240 7c8e 22c0 a930 c13f
000003b0: cedd 7f40 ccf5 e9bf db93 893f 0472 72c0
000003c0: 434e 80c0 72a1 8ec0 936f e840 2fcb 9d40
000003d0: b2da a340 d888 2bc0 2e07 8dbe 6730 9f3f
000003e0: d0fa db3f 912b ae40 c29b 9d40 1c26 bc40
000003f0: 36f3 8d40 2cf7 f140 8205 7e40 828d 6140

l3/b f4 [256]
-1.8967904 -1.3822347 0.33248028 -1.3673044 8.224337 8.926218 -2.4808052 -2.5937705
2.8984454 -3.9565332 -3.5208385 0.7044751 -0.5859649 -1.4964129 -0.6742965 -1.0297302
1.0331633 1.4511336 1.9255357 -0.6260161 -1.7909769 -1.6241256 8.855934 -0.63963914
-1.390475 0.72849923 -0.34913895 -1.002675 -2.7205753 -1.1371024 -1.987435 -0.99574375
-2.780631 2.23113 -1.5675489 10.120012 -1.1992263 -1.0668772 -1.965593 -0.44256487
7.8923817 -0.6144436 -1.3900583 -1.7987503 -1.2149062 0.26667923 8.605105 -0.794646
-1.1813766 -1.2462486 1.5142483 -1.9361349 -1.2139245 -2.2802424 -1.6168759 -0.77919275
-1.3361195 -1.5409054 -2.698432 -0.7981935 8.752915 -1.0568023 -2.2395802 -1.6145812
-1.4489732 -1.275738 -2.164057 -1.086772 -1.4976621 -0.80345917 -1.9564612 -0.6396928
-1.1547675 0.34494677 -0.9998709 -1.7267692 -1.3727095 -1.8614582 -0.31529006 -0.0017296262
-1.4290634 -1.5560237 -3.1792111 -1.4208157 4.031233 9.986525 1.8592653 -0.6696422
-1.4333278 -2.2378755 -2.2213173 -2.0533755 -1.3184994 4.172982 0.19841775 -1.3667611
8.802562 -1.537192 0.7534215 -0.92175823 0.2709102 -0.11593835 0.12943849 1.2609054
-1.0640815 -0.57128656 -0.42086777 9.763784 -2.6747935 -1.1189636 -1.5182334 -2.1504486
0.1402323 0.062757365 9.852923 -0.82527715 7.561489 2.567729 -1.1330446 -1.4095656
-0.8129465 -0.8089262 -0.14559568 -0.5770498 -0.9221915 -3.4384816 -2.0388205 3.0210361
-1.7936977 4.597028 -1.5099632 -1.9609104 -1.8419164 -1.0113487 8.254908 8.88863
-1.2778785 -1.0001255 -1.014735 0.2150099 -2.213589 -0.9987393 -1.3445762 -2.24884
-0.96854115 -2.5291967 -1.0294008 -1.1573197 0.4608034 -1.7912176 3.7022297 -0.21154737
-1.7905614 -2.3309066 8.9195 -1.7231203 -1.8482099 -1.9261825 -1.8907046 0.9955865
-0.7738786 9.0351715 0.069341 0.061564133 3.417968 -1.4056349 -0.10578181 -1.7290189
-1.1729255 10.013218 -0.3516271 1.2446665 -1.3160325 -0.92228395 -0.76737565 7.4197836
-0.7166585 -1.5389977 0.520814 0.51661223 -0.012970651 -1.6523145 8.02529 -1.8935829
-1.4976459 0.79294324 -1.3290658 0.17302936 0.1884727 -0.46600237 -0.0026878552 -1.7714748
-1.2120588 -2.3668444 9.550451 -0.8755086 -1.7300998 6.189 -1.2413943 -1.8143096
0.23195608 -1.1758173 -0.99005395 -1.2425166 -0.99264795 -1.0281551 -1.5605989 9.515463
-0.34055856 -1.0428768 8.737047 -0.37376687 -1.4112045 -1.5743847 0.5437904 8.937985
-0.7132268 -1.8808035 1.5095546 3.4996033 9.439565 4.2656903 -1.2618465 -2.532495
-1.6037937 1.5388875 -1.8957772 -1.4950527 -1.6247432 0.05000398 -1.4051447 -1.7202592
-1.8033323 0.58827657 -1.8302082 0.20600675 -1.6527438 0.76920164 -1.0160817 -1.5521419
-1.8072187 -1.507279 -0.99316484 -1.1861142 -1.4213974 -1.3168132 -1.4967549 1.4423207
8.92438 -0.05065108 -2.548387 10.039135 -1.7686633 -1.4961067 -1.4848309 -1.0620242
00000000: 07ca f2bf 11ed b0bf db3a aa3e d503 afbf
00000010: e296 0341 cad1 0e41 83c5 1ec0 5600 26c0
00000020: 2180 3940 d737 7dc0 6b55 61c0 7b58 343f
00000030: cc01 16bf 758a bfbf b29e 2cbf 33ce 83bf
00000040: b23e 843f bfbe b93f f477 f63f 9742 20bf
00000050: bb3e e5bf 59e3 cfbf e8b1 0d41 64bf 23bf
00000060: 16fb b1bf ed7e 3a3f 57c2 b2be a857 80bf
00000070: e81d 2ec0 928c 91bf 4564 febf 10e9 7ebf
00000080: dcf5 31c0 d5ca 0e40 71a5 c8bf 92eb 2141
00000090: 3f80 99bf 6f8f 88bf 8d98 fbbf dd97 e2be
000000a0: 648e fc40 2d4c 1dbf 6eed b1bf 733d e6bf
000000b0: 0c82 9bbf 2e8a 883e 83ae 0941 ec6d 4bbf
000000c0: 5937 97bf 1385 9fbf e3d2 c13f 45d3 f7bf
000000d0: e161 9bbf 7eef 11c0 caf5 cebf 2d79 47bf
000000e0: f705 abbf 633c c5bf 1cb3 2cc0 6956 4cbf
000000f0: f10b 0c41 4c45 87bf 4855 0fc0 99aa cebf
00000100: f477 b9bf 624b a3bf e97f 0ac0 581b 8bbf
00000110: 64b3 bfbf 80af 4dbf 526d fabf e8c2 23bf
00000120: 6ccf 93bf dd9c b03e 8af7 7fbf c606 ddbf
00000130: f2b4 afbf 4344 eebf b36d a1be a0b4 e2ba
00000140: 8deb b6bf c92b c7bf 3278 4bc0 4add b5bf
00000150: dcff 8040 cec8 1f41 68fc ed3f ac6d 2bbf
00000160: 4977 b7bf 5a39 0fc0 102a 0ec0 816a 03c0
00000170: 97c4 a8bf 1289 8540 062e 4b3e 07f2 aebf
00000180: 4bd7 0c41 b5c2 c4bf 3be0 403f 59f8 6bbf
00000190: beb4 8a3e 1671 edbd 868b 043e 5965 a13f
000001a0: d333 88bf d63f 12bf fb7b d7be 7638 1c41
000001b0: d12f 2bc0 333a 8fbf 7955 c2bf f3a0 09c0
000001c0: 0e99 0f3e ef86 803d 93a5 1d41 5d45 53bf
000001d0: b8f7 f140 ac55 2440 9b07 91bf a56c b4bf
000001e0: 431d 50bf ca15 4fbf 0917 15be 89b9 13bf
000001f0: be14 6cbf 1510 5cc0 097c 02c0 a858 4140
00000200: e397 e5bf da1a 9340 7946 c1bf 1dff fabf
00000210: ebc3 ebbf e073 81bf 1a14 0441 d437 0e41
00000220: 8691 a3bf 1d04 80bf d6e2 81bf 8e2b 5c3e
00000230: 71ab 0dc0 61ad 7fbf 131b acbf ffec 0fc0
00000240: 50f2 77bf 5cde 21c0 68c3 83bf 0d23 94bf
00000250: 6cee eb3e 9e46 e5bf 55f1 6c40 e09f 58be
00000260: 1e31 e5bf 932d 15c0 46b6 0e41 358f dcbf
00000270: 2492 ecbf 268d f6bf 9c02 f2bf c2de 7e3f
00000280: e81c 46bf 1090 1041 a702 8e3d ac2a 7c3d
00000290: fdbf 5a40 d8eb b3bf 22a4 d8bd 7e50 ddbf
000002a0: 6c22 96bf 2436 2041 7808 b4be 3b51 9f3f
000002b0: c173 a8bf cd1a 6cbf bb72 44bf de6e ed40
000002c0: ee76 37bf e0fd c4bf 1154 053f b340 043f
000002d0: da82 54bc 0b7f d3bf 9667 0041 ed60 f2bf
000002e0: dcb2 bfbf 54fe 4a3f d41e aabf 9c2e 313e
000002f0: fdfe 403e dd97 eebe ba26 30bb b0bf e2bf
00000300: be24 9bbf 617a 17c0 a6ce 1841 5521 60bf
00000310: e973 ddbf 4a0c c640 02e6 9ebf 4c3b e8bf
00000320: e585 6d3e 2e81 96bf 2d74 7dbf c90a 9fbf
00000330: 2d1e 7ebf 969a 83bf b4c1 c7bf 563f 1841
00000340: b15d aebe fd7c 85bf f2ca 0b41 5f5e bfbe
00000350: 59a2 b4bf 7085 c9bf d935 0b3f fd01 0f41
00000360: 0896 36bf 2bbe f0bf 1639 c13f 80f9 5f40
00000370: 7508 1741 8980 8840 3084 a1bf 6614 22c0
00000380: 1d49 cdbf 44fa c43f d4a8 f2bf e35d bfbf
00000390: 96f7 cfbf f9d0 4c3d c8db b3bf 7431 dcbf
000003a0: 98d3 e6bf 4b99 163f 4344 eabf 6ff3 523e
000003b0: 1c8d d3bf 66ea 443f f70e 82bf 96ac c6bf
000003c0: f152 e7bf 85ee c0bf 0d40 7ebf 97d2 97bf
000003d0: 5af0 b5bf 568d a8bf aa95 bfbf f79d b83f
000003e0: 43ca 0e41 8277 4fbd c618 23c0 4ca0 2041
000003f0: 8f63 e2bf 6d80 bfbf f00e bebf 69f0 87bf
