size8/agent_white_161000/target_model.npz (npz, 608951 bytes, 8 tensors)

l2/W f4 [256, 256]
-11.829284 -18.542362 -30.183289 -8.096585 -41.707596 19.246737 8.011244 30.496151
5.052663 -23.612888 26.86706 15.835857 8.904732 -15.906298 -20.580818 -2.9770794
21.301147 -6.9066744 -3.7626832 -6.713039 -38.17683 16.62101 8.149435 -13.204633
-28.750376 2.716317 4.8150864 -18.353653 40.475235 45.005817 15.188528 8.200863
-20.152214 -2.3332653 -10.046467 3.7857392 13.222162 16.843267 -28.055136 14.249073
14.953253 4.8196926 -12.166118 5.399309 7.8602667 34.05281 11.256765 27.1542
6.45614 -22.929832 19.075794 1.7502365 -1.8157583 -23.098541 5.603795 18.74011
-5.9637575 -8.932589 22.043217 9.726602 -28.660187 6.5118737 22.750988 -9.813808
-4.708029 -39.36188 -38.15524 -17.761448 11.529922 14.438274 2.0568752 21.429342
23.658054 25.339466 -19.878168 21.29506 7.680291 -20.07633 23.74873 16.651184
26.421013 5.9938583 7.712186 -12.702467 13.185192 19.980282 2.7631721 30.76068
19.443092 -17.03215 18.359573 -2.2574694 -23.430063 9.3160305 15.170445 12.807806
-41.284172 8.200571 10.370219 3.9751055 2.337708 -38.956226 -6.338358 -8.289822
7.371892 -43.556004 -24.444855 -60.67506 23.069857 -42.348248 7.1258593 -8.148662
9.373561 22.639107 15.831214 -42.29645 -12.721415 -4.3041096 0.7056268 -20.807991
-3.4872541 -37.142597 17.569307 -45.951653 12.451783 -44.155525 -10.335786 9.028884
25.116812 -38.135826 10.928996 -38.34519 17.733454 34.576412 13.988706 21.826038
-67.33454 -19.929472 5.975478 1.9855287 -9.545683 4.5979486 -6.5841064 30.60122
-18.982666 -56.735073 42.568787 9.951787 36.43091 11.989352 3.8898723 18.627275
15.982625 -5.6753087 12.883249 8.407714 -24.470531 -18.139387 5.6396794 -23.079542
-20.419365 -13.107587 8.369923 27.54503 -22.423521 -9.830663 -0.49211392 -9.654002
-35.725357 15.898637 -27.310041 -9.646628 2.0142262 10.847613 -55.71983 -2.050849
-22.40977 18.077858 18.25394 8.75785 16.611462 48.308678 -15.899949 8.107888
25.464827 -21.847923 17.195282 10.586634 -56.336155 36.94389 27.542019 10.860721
26.064692 -16.789146 27.2187 10.152916 23.547976 13.723295 22.012232 11.1195345
-7.8517656 -19.616703 -12.969266 -22.098036 -46.320896 -9.7549715 -22.846083 -21.569944
-28.939257 -5.2799644 -35.264866 -10.487719 -21.140196 -15.334486 -27.929342 -26.291904
-6.1295795 10.555042 -24.330235 -15.700191 1.7101738 8.097126 -20.764996 -2.5607753
-17.324736 -14.862664 -5.771887 -31.796478 -26.88309 -15.027095 19.731949 -0.73644304
19.847136 -15.080876 21.335087 -17.08851 -17.451057 41.51432 11.211458 13.201231
11.477974 -12.991406 -21.1187 10.314633 -38.845448 -29.23939 31.298937 -16.862133
36.290512 33.322437 38.16305 -8.578858 -24.361225 -42.262604 -2.0497453 16.312447
00000000: bf44 3dc1 c256 94c1 6077 f1c1 9d8b 01c1
00000010: 94d4 26c2 51f9 9941 0e2e 0041 1ef8 f341
00000020: 6aaf a140 32e7 bcc1 bdef d641 ac5f 7d41
00000030: c879 0e41 3280 7ec1 84a5 a4c1 7888 3ec0
00000040: c068 aa41 7a03 ddc0 cdcf 70c0 37d1 d6c0
00000050: 13b5 18c2 d4f7 8441 1664 0241 2d46 53c1
00000060: c500 e6c1 23d8 2d40 3015 9a40 48d4 92c1
00000070: a4e6 2142 f505 3442 3604 7341 bc36 0341
00000080: bc37 a1c1 3854 15c0 54be 20c1 8d49 7240
00000090: fa8d 5341 03bf 8641 eb70 e0c1 34fc 6341
000000a0: 8640 6f41 ec3a 9a40 6ba8 42c1 24c7 ac40
000000b0: 4e87 fb40 1436 0842 b61b 3441 cd3b d941
000000c0: b398 ce40 4c70 b7c1 3a9b 9841 c007 e03f
000000d0: c56a e8bf d0c9 b8c1 4a52 b340 bfeb 9541
000000e0: 1ad7 bec0 e2eb 0ec1 8258 b041 29a0 1b41
000000f0: 1048 e5c1 4561 d040 0602 b641 5c05 1dc1
00000100: 2ca8 96c0 9172 1dc2 f79e 18c2 7217 8ec1
00000110: 8f7a 3841 2c03 6741 d8a3 0340 4b6f ab41
00000120: b243 bd41 3ab7 ca41 7d06 9fc1 485c aa41
00000130: f2c4 f540 539c a0c1 66fd bd41 a035 8541
00000140: 3c5e d341 b0cd bf40 3aca f640 4e3d 4bc1
00000150: 8cf6 5241 9ed7 9f41 d0d7 3040 df15 f641
00000160: 748b 9b41 d841 88c1 68e0 9241 617a 10c0
00000170: c570 bbc1 760e 1541 25ba 7241 c6ec 4c41
00000180: fe22 25c2 8a35 0341 6bec 2541 2168 7e40
00000190: 029d 1540 2dd3 1bc2 d4d3 cac0 1ca3 04c1
000001a0: 8ae6 eb40 5939 2ec2 108f c3c1 43b3 72c2
000001b0: 118f b841 9b64 29c2 0a07 e440 eb60 02c1
000001c0: 1bfa 1541 e41c b541 a74c 7d41 912f 29c2
000001d0: ea8a 4bc1 44bb 89c0 f5a3 343f c476 a6c1
000001e0: 2c2f 5fc0 0592 14c2 f18d 8c41 7ece 37c2
000001f0: 813a 4741 429f 30c2 615f 25c1 4f76 1041
00000200: 3bef c841 168b 18c2 2bdd 2e41 7961 19c2
00000210: 1dde 8d41 3f4e 0a42 bdd1 5f41 ba9b ae41
00000220: 49ab 86c2 8f6f 9fc1 1e37 bf40 ce25 fe3f
00000230: 1ebb 18c1 6522 9340 00b1 d2c0 4ccf f441
00000240: 80dc 97c1 b7f0 62c2 7046 2a42 853a 1f41
00000250: 40b9 1142 63d4 3f41 abf3 7840 a904 9541
00000260: d5b8 7f41 219c b5c0 ca21 4e41 ff85 0641
00000270: a6c3 c3c1 771d 91c1 4178 b440 e7a2 b8c1
00000280: dc5a a3c1 adb8 51c1 34eb 0541 395c dc41
00000290: 5f63 b3c1 654a 1dc1 5bf6 fbbe cb76 1ac1
000002a0: c4e6 0ec2 d160 7e41 f77a dac1 9758 1ac1
000002b0: 15e9 0040 d38f 2d41 1be1 5ec2 1c41 03c0
000002c0: 3547 b3c1 749f 9041 1208 9241 2720 0c41
000002d0: 46e4 8441 163c 4142 3166 7ec1 e9b9 0141
000002e0: f7b7 cb41 8cc8 aec1 f08f 8941 da62 2941
000002f0: 3958 61c2 8bc6 1342 0e56 dc41 83c5 2d41
00000300: 7d84 d041 2c50 86c1 e6bf d941 5872 2241
00000310: 4162 bc41 9e92 5b41 0d19 b041 9de9 3141
00000320: aa41 fbc0 02ef 9cc1 1d82 4fc1 c7c8 b0c1
00000330: 9948 39c2 5d14 1cc1 c7c4 b6c1 3f8f acc1
00000340: 9983 e7c1 78f5 a8c0 390f 0dc2 b2cd 27c1
00000350: 1f1f a9c1 0e5a 75c1 4b6f dfc1 d255 d2c1
00000360: 8425 c4c0 74e1 2841 52a4 c2c1 fb33 7bc1
00000370: fae6 da3f d48d 0141 b61e a6c1 bee3 23c0
00000380: 0f99 8ac1 79cd 6dc1 4cb3 b8c0 305f fec1
00000390: 9110 d7c1 fb6e 70c1 08db 9d41 8887 3cbf
000003a0: efc6 9e41 454b 71c1 42ae aa41 45b5 88c1
000003b0: c49b 8bc1 aa0e 2642 2262 3341 3e38 5341
000003c0: c8a5 3741 cddc 4fc1 19f3 a8c1 bd08 2541
000003d0: bd61 1bc2 45ea e9c1 3964 fa41 a6e5 86c1
000003e0: 7c29 1142 2d4a 0542 f7a6 1842 0143 09c1
000003f0: cae3 c2c1 e80c 29c2 072f 03c0 e47f 8241

l2/b f4 [256]
21.638468 10.153533 13.6735115 27.191957 14.376456 28.490856 0.2618789 -0.64744633
16.121988 -4.1771336 0.5234943 10.178595 -2.5023365 -6.5310006 4.485766 0.6249472
-0.039473083 14.349047 15.660624 -14.533376 12.720135 30.590807 15.982828 0.21896392
1.7978784 -4.1966257 4.4162726 4.8793116 20.102257 -7.2845263 28.616165 15.498887
21.367945 21.754951 17.399797 0.67982066 -18.354818 16.716375 1.2960217 15.91492
10.936025 18.527372 21.290367 -4.488209 12.696935 20.319178 -22.398682 15.715383
-11.795609 -10.654581 33.687473 -27.241066 20.540056 26.164879 14.405379 -13.53797
-1.3599156 14.056172 -0.12957337 -3.8133287 17.634983 -9.548572 -7.4692755 -7.1696053
2.7459955 -5.1708355 -1.1198293 28.565304 -7.0633893 -14.630203 0.2617838 5.2673264
-0.4340489 -12.61485 -14.221516 26.214827 -10.219147 -13.281308 16.468039 8.602122
32.95524 20.784752 22.181345 19.391794 22.911152 -17.344774 1.8434958 -16.278637
-16.772732 -6.5971746 -2.2856445 8.110286 -10.245364 17.823061 -0.93204814 -8.074833
-9.355721 3.2551067 4.5334077 -0.52294695 22.362675 2.2113466 8.570768 11.210627
-0.16541025 14.762946 -8.136516 -1.2636263 27.13558 25.15612 3.1396153 23.879145
28.142778 22.113312 -9.925231 22.672485 16.481436 20.576998 2.192713 21.004488
14.646239 18.159098 4.6976204 14.241253 20.539677 20.23007 21.645346 20.90693
-3.300007 12.263722 -20.142723 18.431952 19.655548 31.18461 7.0556097 -0.670957
29.129494 18.216084 -6.196219 21.747858 9.935496 -8.220817 25.799187 19.974731
21.017647 -17.478382 -17.594416 6.367684 20.31847 -2.40969 24.099007 -16.504566
14.2905655 -10.9303 10.089749 -12.6340475 13.838063 22.61997 22.838089 -20.973045
10.543185 12.197546 -14.036164 2.5977533 11.68374 -19.456087 -21.2928 16.770922
24.700958 -6.70549 23.789415 25.091618 12.9546385 -1.5000293 -27.082516 0.6529768
8.634211 15.535828 -0.7106778 14.610722 16.425138 17.97245 -4.5377264 4.0602775
18.924528 16.773169 1.06761 18.677544 18.34196 13.119912 14.111762 6.089097
-3.3740273 18.618622 17.971607 28.036867 -1.5614358 12.167786 -8.650239 13.4321785
22.866402 -6.1381526 20.50686 15.266037 20.176113 31.669159 -18.307333 7.5961323
-4.3229194 29.196365 22.924566 0.19802418 16.570993 13.651095 23.596292 16.398159
-2.0152657 28.533833 21.414028 9.56071 24.67282 21.181248 21.257076 22.996965
13.9096 24.257921 -6.5706396 16.495056 -24.42359 32.09305 19.3905 26.730757
-13.113067 -0.8670448 -8.0128765 0.536126 23.366444 0.5640067 10.869284 -24.257504
-13.774343 -14.84759 26.326235 36.99278 0.14963502 -5.795736 2.673945 -0.5311238
19.343882 18.073826 29.277365 19.948788 9.494135 21.449509 19.52693 4.8690104
00000000: 951b ad41 df74 2241 b4c6 5a41 2189 d941
00000010: f705 6641 46ed e341 fe14 863e 0bbf 25bf
00000020: d5f9 8041 14ab 85c0 b903 063f 86db 2241
00000030: 4826 20c0 f5fd d0c0 658b 8f40 8afc 1f3f
00000040: 87ae 21bd b295 6541 ea91 7a41 b588 68c1
00000050: ac85 4b41 f9b9 f441 aab9 7f41 1438 603e
00000060: e120 e63f c24a 86c0 1b52 8d40 5223 9c40
00000070: 6cd1 a041 d71a e9c0 e8ed e441 71fb 7741
00000080: 8df1 aa41 240a ae41 c932 8b41 ba08 2e3f
00000090: abd6 92c1 23bb 8541 0ae4 a53f 83a3 7e41
000000a0: f5f9 2e41 0f38 9441 ac52 aa41 689f 8fc0
000000b0: a526 4b41 ad8d a241 8030 b3c1 3572 7b41
000000c0: d1ba 3cc1 2a79 2ac1 f9bf 0642 b4ed d9c1
000000d0: 0952 a441 ac51 d141 6f7c 6641 869b 58c1
000000e0: b711 aebf 15e6 6041 e2ae 04be 940d 74c0
000000f0: 7214 8d41 f3c6 18c1 4e04 efc0 686d e5c0
00000100: 64be 2f40 7c77 a5c0 9156 8fbf be85 e441
00000110: 4907 e2c0 5015 6ac1 8708 863e f08d a840
00000120: a83b debe 6dd6 49c1 548b 63c1 f7b7 d141
00000130: a081 23c1 3d80 54c1 8bbe 8341 4ba2 0941
00000140: 2ad2 0342 2c47 a641 6573 b141 6522 9b41
00000150: 0a4a b741 19c2 8ac1 acf7 eb3f a63a 82c1
00000160: 8e2e 86c1 0e1c d3c0 0048 12c0 bbc3 0141
00000170: 03ed 23c1 a195 8e41 b59a 6ebf 8432 01c1
00000180: 09b1 15c1 ab53 5040 ad11 9140 dadf 05bf
00000190: c2e6 b241 b486 0d40 de21 0941 ba5e 3341
000001a0: 4e61 29be 0735 6c41 2b2f 02c1 82be a1bf
000001b0: ab15 d941 bc3f c941 75ef 4840 7d08 bf41
000001c0: 6924 e141 10e8 b041 bfcd 1ec1 4061 b541
000001d0: fbd9 8341 b19d a441 6955 0c40 3109 a841
000001e0: ff56 6a41 d545 9141 e852 9640 2cdc 6341
000001f0: 4251 a441 2fd7 a141 ab29 ad41 6541 a741
00000200: 5133 53c0 3538 4441 4c24 a1c1 a374 9341
00000210: 903e 9d41 157a f941 8ec7 e140 d7c3 2bbf
00000220: 3409 e941 8aba 9141 6d47 c6c0 9dfb ad41
00000230: cbf7 1e41 7788 03c1 bc64 ce41 40cc 9f41
00000240: 2424 a841 bad3 8bc1 5dc1 8cc1 11c4 cb40
00000250: 3a8c a241 5c38 1ac0 c4ca c041 5a09 84c1
00000260: 28a6 6441 82e2 2ec1 9d6f 2141 0f25 4ac1
00000270: b568 5d41 b3f5 b441 68b4 b641 ccc8 a7c1
00000280: e3b0 2841 2629 4341 2194 60c1 9741 2640
00000290: 99f0 3a41 11a6 9bc1 a857 aac1 d92a 8641
000002a0: 909b c541 6093 d6c0 b950 be41 a2bb c841
000002b0: 3346 4f41 f600 c0bf fea8 d8c1 7d29 273f
000002c0: ba25 0a41 c092 7841 fbee 35bf 84c5 6941
000002d0: af66 8341 94c7 8f41 0e35 91c0 cbed 8140
000002e0: 6f65 9741 732f 8641 72a7 883f 9c6b 9541
000002f0: 56bc 9241 29eb 5141 c7c9 6141 e2d9 c240
00000300: 10f0 57c0 f0f2 9441 dac5 8f41 814b e041
00000310: 21dd c7bf 40af 4241 6167 0ac1 34ea 5641
00000320: 64ee b641 bf6b c4c0 0d0e a441 b041 7441
00000330: ae68 a141 705a fd41 6b75 92c1 8413 f340
00000340: 5b55 8ac0 2892 e941 8365 b741 dac6 4a3e
00000350: 6591 8441 e36a 5a41 35c5 bc41 6e2f 8341
00000360: 1dfa 00c0 4a45 e441 ee4f ab41 abf8 1841
00000370: ef61 c541 3273 a941 7e0e aa41 c9f9 b741
00000380: b98d 5e41 3910 c241 ae42 d2c0 e0f5 8341
00000390: 8363 c3c1 485f 0042 be1f 9b41 97d8 d541
000003a0: 1fcf 51c1 a6f6 5dbf be34 00c1 8e3f 093f
000003b0: 7aee ba41 be62 103f 96e8 2d41 5e0f c2c1
000003c0: b563 5cc1 bb8f 6dc1 219c d241 9bf8 1342
000003d0: ec39 193e ab76 b9c0 ea21 2b40 bbf7 07bf
000003e0: 45c0 9a41 3297 9041 0b38 ea41 1e97 9f41
000003f0: fae7 1741 9898 ab41 2737 9c41 efce 9b40

l1/W f4 [256, 64]
51.945694 -3.9671903 15.460543 5.5832314 13.517754 31.415415 -2.736161 2.0559003
-12.69937 -5.2212944 -27.051748 26.524393 -40.329227 7.439912 4.4722486 -8.183123
-10.093781 22.322096 -1.1614726 -5.2789598 21.217607 0.47810546 44.11366 9.025331
25.501726 -7.0187173 24.875467 -19.104252 -8.223641 21.059803 16.05916 8.55216
-25.805674 -17.671904 -1.3904747 -18.499067 1.8339618 -7.326998 -5.8261275 7.936773
22.423075 9.259922 -12.227545 24.669163 -0.8272983 -8.753371 8.825694 -30.403246
9.4907675 21.282047 -2.8228142 -26.97129 0.69907725 8.191424 -18.925194 29.123732
34.370125 -3.1466978 -20.761852 -25.951689 7.518752 0.005122529 -23.039185 -22.597286
15.506942 8.824969 48.728523 4.226474 -11.802903 -32.52804 19.189375 0.7297952
-10.796191 -5.9975424 26.5179 -20.448772 -17.050873 -23.057983 8.727978 -46.51697
10.709021 -29.827187 3.423352 -9.274587 17.009264 0.5252972 2.1183622 -6.1165295
6.469849 -15.421513 -8.27709 -8.657978 -4.159334 -16.202932 -15.391564 -32.290638
-8.547202 -7.876487 14.916317 1.6621594 1.2391573 -6.984493 22.433208 -1.5144554
3.906979 -33.327576 21.453625 19.207094 -6.4135995 19.959553 57.571453 -13.548798
-40.261444 2.8952992 -6.700467 -22.782373 9.083279 18.63898 -3.8024473 8.344867
5.0648932 -13.519755 -83.98732 -7.6597753 36.441257 31.48713 6.295811 -12.716616
18.423897 30.252487 -3.255703 31.256256 -0.28802422 19.983252 3.7018018 -0.89671427
34.062958 -17.366493 -36.800476 18.62031 13.114852 30.784323 14.840782 8.857721
2.321643 37.617325 -15.356946 11.2827 -4.432696 7.9887114 31.154203 12.836095
59.668182 -26.915812 22.606033 13.600741 0.95464647 18.984772 -0.96107984 3.8719308
2.395569 26.413147 -41.2062 8.931062 -3.6435933 4.315783 -9.253029 -24.272655
-49.676647 -17.761477 17.682447 -7.1573906 13.2496395 9.950637 -2.55198 -34.63831
-23.634186 -50.20726 -10.932686 -5.9282336 15.981818 -19.284193 6.418165 -22.724817
26.98731 15.028616 -47.13882 25.274534 -4.868734 -8.951322 38.937145 -5.7720656
-23.71991 10.762724 -25.018373 -22.63841 -16.283346 22.395178 27.346968 -27.605665
7.075747 -72.2544 -24.891441 -8.2799835 -23.407396 21.351183 16.926983 -3.889622
-27.956926 -22.728159 -0.17448571 9.304216 39.896015 -4.4458246 20.604776 -7.0584106
5.215675 -6.4579415 16.191582 -4.924227 -7.7034116 13.814567 7.7488966 -2.726563
-10.433697 35.463238 21.772058 2.1692715 4.975579 0.010034308 -1.0133593 17.274937
-15.54615 -27.831055 -17.253756 -9.75855 0.96102226 27.72182 20.841383 -31.588068
-35.70573 -34.99908 1.3814954 -43.65267 -9.522271 39.4418 36.136982 -38.86922
-74.36247 14.017543 -67.40095 22.357084 -30.225632 -9.978956 43.014965 -16.102896
00000000: 64c8 4f42 72e6 7dc0 625e 7741 d5a9 b240
00000010: b848 5841 c552 fb41 431d 2fc0 df93 0340
00000020: 9f30 4bc1 d814 a7c0 fb69 d8c1 f531 d441
00000030: 2151 21c2 c213 ee40 a91c 8f40 12ee 02c1
00000040: 2180 21c1 a793 b241 22ab 94bf 3ded a8c0
00000050: a9bd a941 3dca f43e 6374 3042 c167 1041
00000060: 8903 cc41 5599 e0c0 f500 c741 82d5 98c1
00000070: 0994 03c1 7a7a a841 2979 8041 a6d5 0841
00000080: 0572 cec1 0f60 8dc1 13fb b1bf 17fe 93c1
00000090: 43bf ea3f c576 eac0 a36f bac0 0bfa fd40
000000a0: 7562 b341 a428 1441 06a4 43c1 725a c541
000000b0: d2c9 53bf cf0d 0cc1 0b36 0d41 d939 f3c1
000000c0: 2fda 1741 a241 aa41 fda8 34c0 34c5 d7c1
000000d0: baf6 323f 1310 0341 cc66 97c1 67fd e841
000000e0: 027b 0942 7f63 49c0 4618 a6c1 0f9d cfc1
000000f0: 9e99 f040 e3da a73b 4050 b8c1 3ec7 b4c1
00000100: 6f1c 7841 1333 0d41 02ea 4242 463f 8740
00000110: b1d8 3cc1 b71c 02c2 d783 9941 dcd3 3a3f
00000120: 33bd 2cc1 deeb bfc0 a924 d441 1697 a3c1
00000130: 3068 88c1 c076 b8c1 cca5 0b41 6111 3ac2
00000140: 2658 2b41 149e eec1 3318 5b40 b564 14c1
00000150: f912 8841 e179 063f 3f93 0740 9cba c3c0
00000160: 0109 cf40 84be 76c1 f66e 04c1 1487 0ac1
00000170: 4419 85c0 9b9f 81c1 d943 76c1 9d29 01c2
00000180: 57c1 08c1 2e0c fcc0 3ca9 6e41 a4c1 d43f
00000190: b59c 9e3f f780 dfc0 3677 b341 add9 c1bf
000001a0: f20b 7a40 704f 05c2 06a1 ab41 21a8 9941
000001b0: 353c cdc0 2aad 9f41 2b49 6642 e0c7 58c1
000001c0: b80b 21c2 954c 3940 3a6a d6c0 4d42 b6c1
000001d0: 1c55 1141 a21c 9541 4c5b 73c0 9384 0541
000001e0: 9b13 a240 eb50 58c1 82f9 a7c2 e11c f5c0
000001f0: d9c3 1142 a4e5 fb41 4977 c940 4277 4bc1
00000200: 2464 9341 1805 f241 705d 50c0 d00c fa41
00000210: e977 93be b3dd 9f41 52ea 6c40 118f 65bf
00000220: 7840 0842 94ee 8ac1 b033 13c2 65f6 9441
00000230: 6fd6 5141 4b46 f641 d873 6d41 3ab9 0d41
00000240: cd95 1440 2478 1642 0db6 75c1 f085 3441
00000250: a5d8 8dc0 86a3 ff40 cf3b f941 a560 4d41
00000260: 38ac 6e42 9553 d7c1 28d9 b441 a39c 5941
00000270: b663 743f d0e0 9741 5409 76bf b7cd 7740
00000280: 0151 1940 204e d341 26d3 24c2 a1e5 0e41
00000290: a230 69c0 e51a 8a40 680c 14c1 662e c2c1
000002a0: e3b4 46c2 8117 8ec1 a775 8d41 5809 e5c0
000002b0: 86fe 5341 cf35 1f41 a453 23c0 a18d 0ac2
000002c0: d012 bdc1 3cd4 48c2 48ec 2ec1 17b4 bdc0
000002d0: 87b5 7f41 0746 9ac1 9c61 cd40 6dcc b5c1
000002e0: 03e6 d741 3675 7041 278e 3cc2 3f32 ca41
000002f0: abcc 9bc0 9d38 0fc1 a3bf 1b42 c3b4 b8c0
00000300: 60c2 bdc1 1e34 2c41 a125 c8c1 771b b5c1
00000310: 4b44 82c1 5329 b341 97c6 da41 67d8 dcc1
00000320: 856c e240 4182 90c2 ac21 c7c1 d07a 04c1
00000330: 5942 bbc1 39cf aa41 766a 8741 91ef 78c0
00000340: c9a7 dfc1 45d3 b5c1 62ac 32be 12de 1441
00000350: 8595 1f42 3244 8ec0 95d6 a441 80de e1c0
00000360: cfe6 a640 75a7 cec0 5c88 8141 4593 9dc0
00000370: 5982 f6c0 7708 5d41 f6f6 f740 0280 2ec0
00000380: 6cf0 26c1 5bda 0d42 2d2d ae41 58d5 0a40
00000390: f137 9f40 f066 243c c2b5 81bf 1233 8a41
000003a0: 08bd 78c1 00a6 dec1 b107 8ac1 0523 1cc1
000003b0: 8e05 763f 4ac6 dd41 27bb a641 5db4 fcc1
000003c0: abd2 0ec2 0fff 0bc2 d7d4 b03f 569c 2ec2
000003d0: 395b 18c1 67c4 1d42 458c 1042 157a 1bc2
000003e0: 96b9 94c2 db47 6041 49cd 86c2 4fdb b241
000003f0: 18ce f1c1 cea9 1fc1 530f 2c42 bbd2 80c1

l1/b f4 [256]
-21.22164 2.1473322 12.954189 5.247826 3.571228 2.9220834 -10.346102 4.222302
0.8573938 6.923641 -40.53959 16.63615 -10.157343 -2.2292614 17.915321 2.5723355
4.2484336 10.739482 9.017534 9.531212 16.728962 3.82874 1.1200186 10.945606
-5.798257 -40.86433 3.2260988 -4.6052213 7.436069 3.4601045 7.861258 1.3835174
8.26695 9.750196 -33.176735 10.196157 30.171751 14.013146 7.5832424 20.916065
9.240663 -21.063242 -9.07993 -20.724499 -7.917027 16.750492 -15.564324 4.8156643
-17.562885 16.223494 -24.252844 20.910135 12.006968 -14.571847 5.509475 11.067667
-18.355585 -11.876432 21.27946 9.299112 9.791305 -1.84856 10.678736 -29.601814
-4.65023 24.246243 -28.209333 -0.85643786 -8.037563 -8.170548 2.8231232 -8.121027
7.5164967 5.3899374 -7.2012925 -22.649837 16.970463 -6.353554 -8.883462 23.386707
-4.136586 -40.398895 -8.350936 7.5923696 22.700058 3.0497081 5.342555 -5.774091
16.553259 10.269507 -6.47185 -0.3859415 19.544209 -6.27574 2.1071393 -10.152878
-51.19104 -33.402214 -0.4207563 -13.817495 7.354954 7.0005374 3.8606148 -2.0559213
8.861177 2.0311036 4.932369 -7.12414 -21.960878 24.357016 -8.270292 -2.3994563
13.616093 11.18894 -1.8377453 8.524425 12.324762 -0.24621972 -5.37151 0.09206097
20.101215 -23.635767 -18.613392 1.9454263 2.7106168 5.6648245 -6.656031 -1.7335937
-31.839022 -10.936262 22.080477 -10.437398 23.270588 9.056766 -3.9150023 8.114199
-26.402136 -17.918709 -9.16684 -13.860776 -39.20321 -2.7515056 16.886528 -17.03002
-3.56858 10.705572 18.009161 -2.1286974 2.8991282 -32.799816 -16.126612 12.277651
33.544304 -18.037683 -18.557314 14.596116 -18.175407 -10.931404 -52.357388 10.629535
2.6324632 -2.8155942 0.50089514 9.4505415 7.32127 -46.194744 13.946767 -18.620537
-3.1502552 -48.535217 -21.256369 -14.711434 6.126687 9.980419 21.656052 -10.530694
3.4254649 -5.529281 -5.442052 -5.8693056 5.713546 -1.379442 12.054924 -5.015236
2.0041955 1.7541281 -23.046385 19.878336 7.0883055 3.5857825 -2.641477 10.8907385
5.7241664 -7.3200307 -10.166795 14.779748 18.062834 -12.673627 7.554425 9.420943
-7.4857373 1.493751 -4.676134 3.9588778 4.3451543 -7.962263 -10.175358 -27.14969
6.3454013 1.3326088 -52.257217 -5.7807765 -4.0161753 10.81434 -15.8133335 1.6715575
0.87935346 -31.571373 -8.704223 -15.635431 -23.062145 17.867315 0.49243325 -60.144928
18.806488 12.4889 -4.664283 -3.6221244 -1.2692499 24.166164 15.385741 -8.331347
7.2906303 -7.206372 18.866415 -13.801263 -2.3435783 0.83312947 -43.504326 1.3681899
1.1074206 -23.407305 -25.198015 -9.752596 -55.492527 -64.97111 -4.7846756 -33.76364
10.795887 8.930011 -6.6590447 2.0887666 -25.427399 18.515469 -4.4722548 -21.526644
00000000: ebc5 a9c1 e46d 0940 5c44 4f41 31ee a740
00000010: 008f 6440 6a03 3b40 a289 25c1 191d 8740
00000020: 297e 5b3f 788e dd40 8a28 22c2 d616 8541
00000030: 7a84 22c1 38ac 0ec0 9452 8f41 25a1 2440
00000040: 2bf3 8740 ebd4 2b41 d247 1041 d87f 1841
00000050: ead4 8541 130a 7540 c55c 8f3f 3421 2f41
00000060: 528b b9c0 1375 23c2 6778 4e40 f95d 93c0
00000070: 47f4 ed40 5a72 5d40 6d8f fb40 1917 b13f
00000080: 6d45 0441 ce00 1c41 fab4 04c2 7623 2341
00000090: bf5f f141 d935 6041 eca9 f240 1a54 a741
000000a0: c1d9 1341 8581 a8c1 6547 11c1 c6cb a5c1
000000b0: 4958 fdc0 0201 8641 7907 79c1 ec19 9a40
000000c0: ca80 8cc1 b7c9 8141 d305 c2c1 f547 a741
000000d0: 8a1c 4041 4926 69c1 9f4d b040 2a15 3141
000000e0: 3dd8 92c1 de05 3ec1 563c aa41 2ac9 1441
000000f0: 2fa9 1c41 9d9d ecbf 1adc 2a41 84d0 ecc1
00000100: afce 94c0 4ef8 c141 b7ac e1c1 833f 5bbf
00000110: dc99 00c1 91ba 02c1 0dae 3440 baef 01c1
00000120: 2487 f040 5e7a ac40 fd70 e6c0 de32 b5c1
00000130: 82c3 8741 5050 cbc0 a922 0ec1 fa17 bb41
00000140: ea5e 84c0 7898 21c2 6f9d 05c1 b1f4 f240
00000150: b899 b541 6b2e 4340 36f6 aa40 5ac5 b8c0
00000160: 136d 8441 e74f 2441 6519 cfc0 209a c5be
00000170: 8a5a 9c41 ddd2 c8c0 5fdb 0640 3072 22c1
00000180: a0c3 4cc2 de9b 05c2 5f6d d7be 7614 5dc1
00000190: c85b eb40 6704 e040 5014 7740 3794 03c0
000001a0: 62c7 0d41 9afd 0140 f8d5 9d40 f4f8 e3c0
000001b0: e1af afc1 2bdb c241 1e53 04c1 b190 19c0
000001c0: 84db 5941 e605 3341 3d3b ebbf 0b64 0841
000001d0: 3a32 4541 0621 7cbe 69e3 abc0 768a bc3d
000001e0: 4acf a041 0d16 bdc1 3ae8 94c1 bb03 f93f
000001f0: bf7a 2d40 3e46 b540 35fe d4c0 66e6 ddbf
00000200: 51b6 fec1 eefa 2ec1 d1a4 b041 95ff 26c1
00000210: 2a2a ba41 83e8 1041 668f 7ac0 c2d3 0141
00000220: 9337 d3c1 8459 8fc1 60ab 12c1 bdc5 5dc1
00000230: 16d0 1cc2 ab18 30c0 9c17 8741 7b3d 88c1
00000240: 9d63 64c0 064a 2b41 c312 9041 943c 08c0
00000250: 518b 3940 0333 03c2 4d03 81c1 4271 4441
00000260: 5e2d 0642 2d4d 90c1 6175 94c1 b189 6941
00000270: 3c67 91c1 08e7 2ec1 f76d 51c2 9312 2a41
00000280: 477a 2840 b232 34c0 aa3a 003f 6b35 1741
00000290: d847 ea40 6bc7 38c2 f525 5f41 dcf6 94c1
000002a0: c89d 49c0 1024 42c2 0b0d aac1 0962 6bc1
000002b0: d20d c440 ccaf 1f41 983f ad41 b97d 28c1
000002c0: d13a 5b40 dfef b0c0 4a25 aec0 5ad1 bbc0
000002d0: 5ed5 b640 8e91 b0bf f8e0 4041 d07c a0c0
000002e0: bd44 0040 4587 e03f ff5e b8c1 d506 9f41
000002f0: 66d3 e240 767d 6540 f60d 29c0 7740 2e41
00000300: 5f2c b740 b13d eac0 31ab 22c1 d979 6c41
00000310: af80 9041 2dc7 4ac1 d9bd f140 2fbc 1641
00000320: 298b efc0 3c33 bf3f e4a2 95c0 415e 7d40
00000330: 810b 8b40 dcca fec0 44ce 22c1 9132 d9c1
00000340: 870d cb40 ed92 aa3f 6407 51c2 1ffc b8c0
00000350: 8284 80c0 8907 2d41 6a03 7dc1 99f5 d53f
00000360: 4f1d 613f 2c92 fcc1 7f44 0bc1 ba2a 7ac1
00000370: 467f b8c1 43f0 8e41 3620 fc3e 6894 70c2
00000380: b073 9641 89d2 4741 ce41 95c0 e3d0 67c0
00000390: c876 a2bf 4e54 c141 ff2b 7641 334d 05c1
000003a0: d84c e940 999a e6c0 6bee 9641 f9d1 5cc1
000003b0: 30fd 15c0 f947 553f 6e04 2ec2 d920 af3f
000003c0: f5bf 8d3f 2942 bbc1 8995 c9c1 a20a 1cc1
000003d0: 59f8 5dc2 35f1 81c2 101c 99c0 f80d 07c2
000003e0: f4bb 2c41 53e1 0e41 e516 d5c0 5aae 0540
000003f0: 506b cbc1 ae1f 9441 b61c 8fc0 9136 acc1

l4/W f4 [64, 256]
58.293415 55.527306 48.934982 102.42447 37.87681 56.945873 63.503212 53.941257
50.017616 59.540592 59.34624 56.773815 58.386898 63.081814 55.568665 53.38435
61.789845 53.593502 50.401337 59.069218 56.173725 46.290855 53.998226 45.22317
56.996403 48.490005 65.34817 68.19591 63.03872 52.333466 93.63343 63.571594
57.05852 53.15944 60.475407 3.699268 59.23903 48.027058 62.87861 49.85442
40.601887 51.158268 71.6294 58.579346 66.360855 53.035984 41.41825 48.96069
63.823776 98.77442 41.62815 77.455 53.90902 53.384422 66.20091 104.05042
57.53779 96.056625 61.658478 67.96301 48.384 91.97626 64.358116 50.77275
53.725773 99.90495 89.8849 50.984127 43.251358 50.592 62.607758 50.52608
52.760162 53.248837 47.20231 48.76953 57.115334 46.155556 51.46017 57.024857
48.834793 58.23757 62.3497 70.7408 47.77825 44.06357 60.950798 59.15249
89.09721 92.90496 60.270573 45.757984 60.328484 55.882584 60.09137 46.049282
55.27223 59.167645 48.936977 39.33919 57.060394 52.25852 57.17239 68.20714
53.685726 44.754 51.753136 44.59075 72.849846 58.81796 66.040276 55.757404
46.82612 35.205452 34.660767 41.77866 60.271984 49.90351 62.02572 53.483143
49.934505 47.114838 55.772694 46.38158 56.817066 58.506313 56.369137 54.274605
55.02662 47.216187 52.48038 68.82876 50.827137 31.517773 27.870533 35.297066
16.538864 67.016464 56.043987 55.107872 51.948242 63.93529 57.80587 50.422382
47.687138 45.230484 53.096947 50.684418 50.07354 60.632717 39.64278 63.16666
66.21896 60.822956 23.832836 52.18945 55.407185 64.01473 50.813824 53.072346
36.00412 43.412617 50.55515 68.06095 44.41099 55.41948 56.463154 46.803917
64.768265 89.622536 58.863567 52.56572 80.16449 61.698357 48.318874 69.75894
58.423153 48.707638 47.250904 40.78391 78.442795 64.22878 33.58039 58.186005
65.3765 47.319958 59.23373 49.650593 62.909237 58.896423 62.553665 52.93556
38.66828 52.358326 43.462456 60.051453 56.30112 54.620014 55.554573 57.171
49.356277 62.799957 61.302822 40.97298 66.06879 81.13599 63.699482 44.739258
65.67662 58.286354 49.522625 43.736626 52.915688 58.0968 60.80239 52.463474
57.261982 60.094482 53.770927 62.343143 28.530655 57.449432 57.31571 58.290607
59.375126 44.00919 56.27848 57.71045 58.2854 42.975155 51.561466 47.34931
56.831493 50.02098 58.395412 40.450214 41.90499 54.54936 60.033993 107.77321
64.63513 50.50242 64.670906 56.665 64.49096 44.7792 57.691067 48.219982
37.148045 61.51765 46.675987 96.3411 47.881798 50.253227 61.64915 62.199116
00000000: 752c 6942 f61b 5e42 6cbd 4342 54d9 cc42
00000010: da81 1742 93c8 6342 4a03 7e42 d9c3 5742
00000020: 0a12 4842 9129 6e42 8d62 6d42 6318 6342
00000030: 2f8c 6942 c753 7c42 5046 5e42 9389 5542
00000040: cd28 7742 bf5f 5642 f89a 4942 e146 6c42
00000050: e5b1 6042 d629 3942 2ffe 5742 87e4 3442
00000060: 51fc 6342 c4f5 4142 43b2 8242 4e64 8842
00000070: a627 7c42 7855 5142 5144 bb42 5049 7e42
00000080: ed3b 6442 44a3 5442 d1e6 7142 cfc0 6c40
00000090: c4f4 6c42 b51b 4042 b283 7b42 ed6a 4742
000000a0: 5568 2242 11a2 4c42 4142 8f42 4051 6a42
000000b0: c2b8 8442 d924 5442 4aac 2542 bfd7 4342
000000c0: 8c4b 7f42 818c c542 3a83 2642 f6e8 9a42
000000d0: d6a2 5742 a689 5542 de66 8442 d119 d042
000000e0: b226 6642 fe1c c042 48a2 7642 10ed 8742
000000f0: 3789 4142 d8f3 b742 5bb7 8042 4c17 4b42
00000100: 31e7 5642 56cf c742 12c5 b342 bfef 4b42
00000110: 6401 2d42 355e 4a42 586e 7a42 b51a 4a42
00000120: 680a 5342 cffe 5442 2acf 3c42 0014 4342
00000130: 1a76 6442 4a9f 3842 37d7 4d42 7419 6442
00000140: d456 4342 46f3 6842 1866 7942 4a7b 8d42
00000150: ee1c 3f42 1841 3042 9ecd 7342 269c 6c42
00000160: c631 b242 57cf b942 1115 7142 2d08 3742
00000170: 5e50 7142 c487 5f42 905d 7042 7732 3842
00000180: c316 5d42 abab 6c42 77bf 4342 555b 1d42
00000190: d83d 6442 b908 5142 87b0 6442 0e6a 8842
000001a0: 2fbe 5642 1904 3342 3603 4f42 ee5c 3242
000001b0: 1fb3 9142 9745 6b42 9f14 8442 9507 5f42
000001c0: f24d 3b42 62d2 0c42 a0a4 0a42 591d 2742
000001d0: 8316 7142 329d 4742 561a 7842 bdee 5542
000001e0: efbc 4742 9875 3c42 3d17 5f42 bd86 3942
000001f0: ad44 6342 7706 6a42 ff79 6142 3219 5942
00000200: 421b 5c42 60dd 3c42 e9eb 5142 53a8 8942
00000210: fd4e 4b42 6624 fc41 daf6 de41 3230 0d42
00000220: 984f 8441 6e08 8642 0b2d 6042 766e 5c42
00000230: 00cb 4f42 bdbd 7f42 3639 6742 85b0 4942
00000240: a1bf 3e42 04ec 3442 4663 5442 d8bc 4a42
00000250: 4e4b 4842 e787 7242 3592 1e42 a9aa 7c42
00000260: 1c70 8442 b54a 7342 a6a9 be41 ffc1 5042
00000270: f5a0 5d42 8b07 8042 5b41 4b42 154a 5442
00000280: 3804 1042 85a6 2d42 7938 4a42 351f 8842
00000290: dba4 3142 8cad 5d42 45da 6142 3637 3b42
000002a0: 5a89 8142 bd3e b342 4b74 6b42 4c43 5242
000002b0: 3854 a042 1ecb 7642 8746 4142 9484 8b42
000002c0: 4fb1 6942 9fd4 4242 ed00 3d42 b922 2342
000002d0: b6e2 9c42 2375 8042 5252 0642 78be 6842
000002e0: c5c0 8242 a347 3d42 57ef 6c42 359a 4642
000002f0: 0fa3 7b42 f095 6b42 f436 7a42 03be 5342
00000300: 52ac 1a42 ed6e 5142 8ed9 2d42 b034 7042
00000310: 5934 6142 e57a 5a42 e237 5e42 1baf 6442
00000320: d46c 4542 2833 7b42 1736 7542 55e4 2342
00000330: 3823 8442 a045 a242 45cc 7e42 00f5 3242
00000340: 6e5a 8342 3a25 6942 2b17 4642 4ef2 2e42
00000350: aaa9 5342 2063 6842 a635 7342 99da 5142
00000360: 450c 6542 c060 7042 6e15 5742 615f 7942
00000370: c83e e441 38cc 6542 4943 6542 9529 6942
00000380: 2180 6d42 6909 3042 2a1d 6142 80d7 6642
00000390: 4024 6942 8fe6 2b42 f13e 4e42 b265 3d42
000003a0: 7353 6342 7c15 4842 e794 6942 05cd 2142
000003b0: b69e 2742 8b32 5a42 cf22 7042 e28b d742
000003c0: 3045 8142 7a02 4a42 8157 8142 f6a8 6242
000003d0: 5ffb 8042 e71d 3342 a7c3 6642 43e1 4042
000003e0: 9997 1442 1312 7642 36b4 3a42 a5ae c042
000003f0: f686 3f42 4e03 4942 bb98 7642 e5cb 7842

l4/b f4 [64]
-97.84219 -97.84358 -97.84191 -97.846436 -97.84051 -97.84231 -97.8425 -97.83758
-97.84796 -97.84031 -97.86748 -97.894066 -97.85352 -97.85047 -97.84971 -97.84027
-97.8461 -97.846695 -97.85471 -97.84224 -97.8503 -97.84576 -97.849594 -97.84813
-97.853645 -97.85463 -97.8606 -97.84029 -97.851875 -97.85742 -97.84477 -97.83586
-97.84579 -97.84834 -97.859276 -97.83806 -97.85381 -97.848816 -97.850365 -97.846085
-97.846436 -97.84706 -97.85166 -97.849144 -97.870445 -97.83587 -97.853455 -97.84475
-97.83416 -97.84065 -97.845535 -97.84498 -97.84133 -97.83929 -97.84475 -97.84048
-97.84579 -97.85253 -97.848564 -97.83878 -97.84665 -97.83397 -97.846794 -97.851494
00000000: 34af c3c2 eaaf c3c2 0faf c3c2 60b1 c3c2
00000010: 57ae c3c2 43af c3c2 5caf c3c2 d7ac c3c2
00000020: 28b2 c3c2 3dae c3c2 26bc c3c2 c3c9 c3c2
00000030: 01b5 c3c2 71b3 c3c2 0db3 c3c2 38ae c3c2
00000040: 34b1 c3c2 82b1 c3c2 9db5 c3c2 3aaf c3c2
00000050: 5bb3 c3c2 07b1 c3c2 feb2 c3c2 3eb2 c3c2
00000060: 11b5 c3c2 92b5 c3c2 a1b8 c3c2 3aae c3c2
00000070: 29b4 c3c2 00b7 c3c2 86b0 c3c2 f6ab c3c2
00000080: 0bb1 c3c2 5ab2 c3c2 f3b7 c3c2 16ad c3c2
00000090: 27b5 c3c2 98b2 c3c2 63b3 c3c2 32b1 c3c2
000000a0: 60b1 c3c2 b2b1 c3c2 0db4 c3c2 c3b2 c3c2
000000b0: abbd c3c2 f7ab c3c2 f8b4 c3c2 83b0 c3c2
000000c0: 17ab c3c2 6aae c3c2 eab0 c3c2 a1b0 c3c2
000000d0: c3ae c3c2 b7ad c3c2 83b0 c3c2 53ae c3c2
000000e0: 0bb1 c3c2 7fb4 c3c2 77b2 c3c2 75ad c3c2
000000f0: 7cb1 c3c2 feaa c3c2 8fb1 c3c2 f7b3 c3c2

l3/W f4 [256, 256]
-0.87619555 -44.414932 -9.355429 1.5204666 16.755013 33.233932 4.137756 -12.973034
-7.5594172 9.205877 35.112946 24.018148 3.188715 21.990543 1.7113053 -2.989337
13.658812 -32.151844 -6.6044636 -22.040005 -46.291126 -28.512716 16.350197 3.3344944
-6.5521116 15.905628 10.056945 -43.801125 -5.0491605 -7.458958 -18.00845 1.2059731
5.9876256 11.058527 -28.339703 7.6760764 -65.783424 7.2024126 -14.528526 -2.2769034
6.8522005 -6.210602 -22.342604 22.599836 12.483089 18.406866 10.793484 24.76955
-7.4811716 14.754067 5.258474 -20.951916 -16.33562 13.432635 -2.9868999 -54.999683
25.765718 -17.446997 -39.003666 31.166096 19.071157 -24.30372 -32.76334 -24.819782
-10.633094 10.480356 -32.89824 -3.4364996 4.664318 -14.357047 -14.001985 21.85399
27.420969 3.2633035 -37.069115 -10.19591 -4.78191 -12.511646 -27.26697 16.018757
-4.839909 -15.937321 -15.39028 -23.815027 -35.30188 1.4710479 -23.877172 7.2521195
-29.39188 0.15453038 10.409122 28.379478 10.099169 0.7160375 9.655524 -13.676621
3.1608174 -0.41197672 -43.842464 10.112481 -22.303644 -36.191353 47.541637 8.123043
-12.57724 -24.292385 38.91243 6.1682005 -16.840914 -36.36278 2.935138 -0.36986473
-27.531229 -59.796078 18.22494 -33.659092 21.587307 23.44846 8.074005 -10.283696
-16.120398 -15.975515 1.8578105 -5.907199 29.618885 -38.551895 -8.577907 0.8350899
19.906013 -72.170525 17.051134 -15.007602 -38.37657 18.91843 -45.54321 8.167051
3.3891544 14.614432 -26.460676 -14.739616 11.083002 -21.488564 3.1422646 -20.80577
-61.688717 -9.778464 5.0642204 -64.06368 3.669361 7.9551415 -30.473164 -13.864055
-19.4648 16.8516 -27.610685 -21.118563 -5.488501 -6.076411 21.023842 -9.831397
-41.114647 -13.662642 -47.923992 14.399547 -67.700806 -18.08626 -34.84827 7.8252926
-65.08611 -25.250975 -43.214115 5.347117 28.498129 -24.056105 -1.7504743 -5.6031847
-3.8388927 -3.758463 12.993622 -52.759396 -70.76985 -30.353636 34.41138 -42.381134
47.247265 -25.174526 7.156328 -0.5096301 -8.34937 -12.778369 1.8459979 14.553229
0.8891383 11.519264 6.635555 -9.028799 -16.653915 17.197891 -60.8416 36.04878
-11.098899 -10.365311 9.269383 30.00813 -39.47106 15.207038 16.972265 -3.94465
-10.422017 -22.442848 -36.51162 -0.8805802 10.348087 29.579355 28.680468 -3.806121
7.205812 -52.46159 -3.1004863 -9.014397 -37.449116 -56.62115 -24.613417 -24.243158
-43.19083 -18.044964 -20.344252 -4.8319635 3.2103066 10.0422945 16.568312 -17.217999
15.953291 8.078827 -25.081676 9.391314 0.004474323 -7.155595 -32.672813 -22.861235
-19.137117 -6.3210354 -52.47311 54.830067 12.199812 -1.6010486 9.243743 -1.2237505
-34.031567 21.142641 10.668883 -38.57357 36.710876 -7.463316 44.710464 8.40055
00000000: 5a4e 60bf e4a8 31c2 d6af 15c1 a69e c23f
00000010: 440a 8641 8cef 0442 7f68 8440 8c91 4fc1
00000020: bfe6 f1c0 464b 1341 a873 0c42 2b25 c041
00000030: e813 4c40 a2ec af41 0d0c db3f 4c51 3fc0
00000040: 7e8a 5a41 7d9b 00c2 c457 d3c0 ee51 b0c1
00000050: 1d2a 39c2 0b1a e4c1 34cd 8241 5b68 5540
00000060: e6aa d1c0 747d 7e41 3fe9 2041 5a34 2fc2
00000070: b992 a1c0 c9af eec0 4e11 90c1 545d 9a3f
00000080: a19a bf40 baef 3041 b6b7 e2c1 6ba2 f540
00000090: 1d91 83c2 2a7a e640 d874 68c1 c9b8 11c0
000000a0: 3a45 db40 40bd c6c0 a7bd b2c1 77cc b441
000000b0: bcba 4741 4341 9341 1cb2 2c41 0a28 c641
000000c0: c265 efc0 a910 6c41 6b45 a840 869d a7c1
000000d0: 5aaf 82c1 13ec 5641 5e29 3fc0 adff 5bc2
000000e0: 3120 ce41 7393 8bc1 c103 1cc2 2a54 f941
000000f0: bb91 9841 056e c2c1 a90d 03c2 ea8e c6c1
00000100: 2721 2ac1 8aaf 2741 cc97 03c2 9cef 5bc0
00000110: 1842 9540 77b6 65c1 2108 60c1 f9d4 ae41
00000120: 255e db41 f7d9 5040 c646 14c2 7322 23c1
00000130: 6805 99c0 b42f 48c1 c122 dac1 6a26 8041
00000140: 89e0 9ac0 44ff 7ec1 963e 76c1 2d85 bec1
00000150: 2035 0dc2 4c4b bc3f 7304 bfc1 5d11 e840
00000160: 9222 ebc1 363d 1e3e c48b 2641 2c09 e341
00000170: 3296 2141 3c4e 373f 077d 1a41 71d3 5ac1
00000180: d54a 4a40 9dee d2be af5e 2fc2 b9cc 2141
00000190: dd6d b2c1 f2c3 10c2 a32a 3e42 fcf7 0141
000001a0: 603c 49c1 ce56 c2c1 54a6 1b42 e661 c540
000001b0: 31ba 86c1 7d73 11c2 4dd9 3b40 e95e bdbe
000001c0: f53f dcc1 2f2f 6fc2 adcc 9141 e9a2 06c2
000001d0: ceb2 ac41 7296 bb41 202f 0141 058a 24c1
000001e0: 93f6 80c1 b69b 7fc1 bccc ed3f c607 bdc0
000001f0: 7af3 ec41 2435 1ac2 1b3f 09c1 74c8 553f
00000200: 843f 9f41 4f57 90c2 b968 8841 231f 70c1
00000210: 9c81 19c2 f258 9741 3f2c 36c2 3eac 0241
00000220: e8e7 5840 b7d4 6941 77af d3c1 78d5 6bc1
00000230: fa53 3141 94e8 abc1 dd1a 4940 3872 a6c1
00000240: 3fc1 76c2 9774 1cc1 180e a240 9b20 80c2
00000250: d0d6 6a40 8590 fe40 0ac9 f3c1 2bd3 5dc1
00000260: e9b7 9bc1 14d0 8641 afe2 dcc1 d1f2 a8c1
00000270: cda1 afc0 f571 c2c0 d430 a841 674d 1dc1
00000280: 6675 24c2 2e9a 5ac1 2bb2 3fc2 8b64 6641
00000290: d066 87c2 a9b0 90c1 a164 0bc2 cc68 fa40
000002a0: 172c 82c2 ff01 cac1 41db 2cc2 951b ab40
000002b0: 2bfc e341 e772 c0c1 8b0f e0bf 4a4d b3c0
000002c0: 6bb0 75c0 a88a 70c0 e0e5 4f41 9f09 53c2
000002d0: 2a8a 8dc2 3fd4 f2c1 41a5 0942 4886 29c2
000002e0: 33fd 3c42 6e65 c9c1 a400 e540 1e77 02bf
000002f0: 0597 05c1 3374 4cc1 a949 ec3f 07da 6841
00000300: 919e 633f e84e 3841 7756 d440 f675 10c1
00000310: 383b 85c1 4895 8941 cc5d 73c2 f331 1042
00000320: 1795 31c1 50d8 25c1 654f 1441 a610 f041
00000330: 5ee2 1dc2 0750 7341 33c7 8741 2575 7cc0
00000340: 95c0 26c1 f48a b3c1 e60b 12c2 b46d 61bf
00000350: c491 2541 85a2 ec41 9971 e541 7d97 73c0
00000360: 0396 e640 abd8 51c2 5e6e 46c0 f83a 10c1
00000370: e5cb 15c2 0f7c 62c2 47e8 c4c1 fdf1 c1c1
00000380: 69c3 2cc2 165c 90c1 07c1 a2c1 729f 9ac0
00000390: aa75 4d40 3dad 2041 e78b 8441 76be 89c1
000003a0: ae40 7f41 e042 0141 46a7 c8c1 d242 1641
000003b0: 579d 923b a2fa e4c0 f6b0 02c2 cfe3 b6c1
000003c0: d118 99c1 ec45 cac0 77e4 51c2 fd51 5b42
000003d0: 6e32 4341 29ef ccbf 5fe6 1341 dba3 9cbf
000003e0: 5320 08c2 2124 a941 bfb3 2a41 564b 1ac2
000003f0: f0d7 1242 7cd3 eec0 84d7 3242 a768 0641

l3/b f4 [256]
2.4255009 -1.6646217 0.3251311 -4.76366 19.599796 27.90795 16.942154 8.858266
10.516567 4.0172668 -4.6061397 9.43368 1.3184919 2.475557 2.7150693 11.588531
2.0697155 9.746451 11.24219 6.8253837 4.346353 -3.3883896 29.602327 10.506685
6.889003 2.277714 1.5925198 14.024759 0.5518727 6.26509 0.28602958 11.012068
-5.965346 7.755866 0.30391285 74.96873 6.088879 -1.9773365 0.18746893 -2.8457377
5.295066 10.086178 11.288736 9.219329 -5.4598265 5.0803328 33.658096 11.158736
-0.28786036 -4.2279468 13.431915 -4.822455 -2.5267339 -2.8313258 -3.050342 5.29999
6.4351487 -9.169286 10.932308 6.399226 24.928753 -1.6884731 0.11651003 2.2367535
3.6008844 -3.2684584 6.5020847 11.216146 5.23188 12.455195 10.285035 9.719832
-1.1691487 14.729778 3.5582366 3.0960655 -0.31812173 4.7821436 18.782104 2.3694794
4.575387 2.7617555 0.8529548 -1.6099494 5.3664966 28.435795 8.63804 3.6378791
0.10979113 -7.668686 7.3013883 16.910288 3.279267 12.630018 6.328318 10.890244
23.34307 -1.3485295 12.217408 8.416885 8.072381 13.167794 3.508339 12.628061
-2.7382607 5.0692043 3.4719632 28.83645 8.35273 -2.4681797 -8.471059 7.250981
1.0946325 6.3955517 35.83652 8.775683 18.76301 17.81013 -3.3377447 3.3622022
15.687748 6.830237 -3.5620484 5.1932616 -3.0168188 -0.74679565 -0.43607914 0.4386229
10.007359 13.992904 0.7020595 6.6573644 3.6656013 13.37262 39.5165 29.661972
1.1584496 -0.2868897 10.201798 -1.5411184 8.321661 -2.6320093 6.1878843 9.126778
13.6345415 3.03681 1.2666901 -3.5614135 12.793308 2.005219 12.562019 9.422254
16.002022 0.48882246 30.900688 -5.5395303 6.8849926 10.836177 0.2615019 0.534165
13.05901 27.121199 6.7646117 10.360026 20.68163 7.9664164 4.614192 9.696695
-5.7050085 17.67803 -2.2221014 13.605796 8.286759 -7.047442 6.622908 15.000922
7.0207577 8.924649 10.524926 7.809673 10.981219 18.983135 30.79122 1.369444
8.216781 5.737042 6.0509024 7.2082415 6.8178306 -4.7804966 -0.13822797 3.8776374
7.565415 -1.6045384 28.496382 -2.4262533 9.037423 17.575352 -2.7461302 5.2302284
3.8235283 1.4914404 -1.5278081 10.231879 1.470575 2.544999 18.754587 32.304462
1.357842 9.584592 28.31918 12.605476 6.395516 11.559982 0.53813416 34.095856
7.0016336 3.6238616 1.2086072 17.689688 59.986534 20.908949 -0.44098186 -0.6788851
17.637075 -0.17797868 16.269049 12.546473 -1.272411 5.63392 -0.5515723 0.47913924
2.6024644 9.4088125 7.4625864 0.82983536 0.8468061 6.969931 11.411911 1.6157341
-5.256692 -8.385899 9.34903 5.9967766 14.224539 11.154518 -6.2416153 12.057713
28.752981 3.9450443 12.140743 29.444191 6.9894214 -2.5581121 5.453379 -2.1496513
00000000: 683b 1b40 5312 d5bf 9577 a63e e76f 98c0
00000010: 62cc 9c41 7b43 df41 8889 8741 75bb 0d41
00000020: dc43 2841 738d 8040 7f65 93c0 5af0 1641
00000030: 58c4 a83f 876f 1e40 b2c3 2d40 9f6a 3941
00000040: 3876 0440 77f1 1b41 03e0 3341 8b69 da40
00000050: 5315 8b40 60db 58c0 91d1 ec41 621b 2841
00000060: b672 dc40 11c6 1140 b0d7 cb3f 6a65 6041
00000070: 8747 0d3f 9e7b c840 7872 923e 6e31 3041
00000080: 1de4 bec0 0e30 f840 779a 9b3e fdef 9542
00000090: 19d8 c240 5d19 fdbf dbf7 3f3e 9120 36c0
000000a0: 2e71 a940 fc60 2141 aa9e 3441 5f82 1341
000000b0: e6b6 aec0 1692 a240 e4a1 0642 2f8a 3241
000000c0: 6f62 93be 574b 87c0 20e9 5641 8d51 9ac0
000000d0: 02b6 21c0 7134 35c0 ce38 43c0 8599 a940
000000e0: bdec cd40 65b5 12c1 bcea 2e41 76c6 cc40
000000f0: 166e c741 e31f d8bf d09c ee3d f826 0f40
00000100: e474 6640 6c2e 51c0 1411 d040 5675 3341
00000110: 906b a740 7b48 4741 818f 2441 6f84 1b41
00000120: aaa6 95bf 2cad 6b41 26ba 6340 f025 4640
00000130: dae0 a2be 5207 9940 c041 9641 8da5 1740
00000140: 9269 9240 9ac0 3040 3f5b 5a3f d212 cebf
00000150: 57ba ab40 827c e341 6935 0a41 03d3 6840
00000160: 2cda e03d e065 f5c0 f9a4 e940 4548 8741
00000170: 83df 5140 8e14 4a41 9581 ca40 703e 2e41
00000180: 9bbe ba41 9d9c acbf 817a 4341 90ab 0641
00000190: 7928 0141 49af 5241 a088 6040 8a0c 4a41
000001a0: aa3f 2fc0 ec36 a240 a534 5e40 0db1 e641
000001b0: c8a4 0541 a8f6 1dc0 7589 07c1 0908 e840
000001c0: eb1c 8c3f 5ca8 cc40 9958 0f42 3369 0c41
000001d0: a51a 9641 257b 8e41 9c9d 55c0 522e 5740
000001e0: 0401 7b41 4d91 da40 9af8 63c0 332f a640
000001f0: 8f13 41c0 002e 3fbf c445 dfbe 2e93 e03e
00000200: 241e 2041 efe2 5f41 2cba 333f 2109 d540
00000210: 3699 6a40 40f6 5541 e510 1e42 b84b ed41
00000220: 1448 943f 35e3 92be 913a 2341 5e43 c5bf
00000230: 8625 0541 d772 28c0 2603 c640 4807 1241
00000240: 1527 5a41 185b 4240 e722 a23f 33ee 63c0
00000250: 64b1 4c41 8255 0040 08fe 4841 8dc1 1641
00000260: 2404 8041 f046 fa3e 9c34 f741 d543 b1c0
00000270: dc51 dc40 fb60 2d41 94e3 853e 0abf 083f
00000280: b4f1 5041 37f8 d841 b377 d840 abc2 2541
00000290: fa73 a541 e2ec fe40 76a7 9340 aa25 1b41
000002a0: 6e8f b6c0 9b6c 8d41 e936 0ec0 57b1 5941
000002b0: 9196 0441 a584 e1c0 ddee d340 c703 7041
000002c0: 0caa e040 5dcb 0e41 1966 2841 d7e8 f940
000002d0: 13b3 2f41 76dd 9741 6b54 f641 f149 af3f
000002e0: ef77 0341 d995 b740 fea0 c140 eaa9 e640
000002f0: ab2b da40 d4f9 98c0 a28b 0dbe 362b 7840
00000300: e117 f240 8461 cdbf 97f8 e341 bc47 1bc0
00000310: 4999 1041 529a 8c41 99c0 2fc0 085e a740
00000320: b0b4 7440 85e7 be3f 378f c3bf c7b5 2341
00000330: cd3b bc3f 43e1 2240 6509 9641 c537 0142
00000340: c4cd ad3f 7d5a 1941 ae8d e241 08b0 4941
00000350: 11a8 cc40 b0f5 3841 29c3 093f 2862 0842
00000360: 620d e040 59ed 6740 a4b3 9a3f 7b84 8d41
00000370: 36f2 6f42 8745 a741 60c8 e1be 6acb 2dbf
00000380: bb18 8d41 0b40 36be 0327 8241 5abe 4841
00000390: 5dde a2bf 1349 b440 d833 0dbf bd51 f53e
000003a0: c78e 2640 7f8a 1641 82cd ee40 1770 543f
000003b0: 49c8 583f ad09 df40 3097 3641 60d0 ce3f
000003c0: d236 a8c0 a42c 06c1 a095 1541 98e5 bf40
000003d0: b697 6341 e878 3241 50bb c7c0 64ec 4041
000003e0: 1b06 e641 9b7b 7c40 7c40 4241 b48d eb41
000003f0: 57a9 df40 1cb8 23c0 1582 ae40 e393 09c0
