size8/agent_black_34000/model.npz (npz, 608365 bytes, 8 tensors)

l2/W f4 [256, 256]
000000 e8 53 b8 40 fc 2f c4 c0 7e f8 89 c1 ad 05 0a c1
       5.7602425 -6.1308575 -17.246334 -8.626386
000010 b6 12 85 c0 57 57 2f 40 57 5c 41 41 8c c4 a3 c0
       -4.158534 2.7397058 12.085044 -5.1177425
000020 80 13 b0 40 f5 8c 99 c0 9e 10 68 c0 f8 67 c3 40
       5.5023804 -4.7984567 -3.6260142 6.1064415
000030 25 b6 30 40 0f 56 d4 c0 b7 6b 39 c1 c8 0b 30 c1
       2.7611172 -6.635505 -11.588798 -11.002876
000040 00 f9 33 3f 2d 52 f1 c0 6c 96 98 c1 3d d1 56 c0
       0.7030182 -7.541281 -19.073448 -3.356521
000050 2d 8e 78 c1 25 e9 ed 3f 2a 49 a8 40 15 e1 ec bf
       -15.534711 1.8586775 5.258931 -1.850619
000060 2a cd f6 bf e3 38 0c c1 42 c4 31 c1 ed 65 84 40
       -1.9281361 -8.763888 -11.1104145 4.137442
000070 d3 f7 5d 41 9c c8 2d 41 6b 07 00 40 ef e4 49 3f
       13.873004 10.861477 2.0004528 0.7886495
000080 21 53 e8 c0 cd 98 22 c0 29 62 fd c0 4b e0 8e 40
       -7.2601476 -2.5405762 -7.9182324 4.4648795
000090 ed b6 2f 41 fe 9b 0a 41 93 8c 25 c1 40 b8 0e 41
       10.98216 8.663084 -10.34682 8.919983
0000a0 f0 8a d3 c0 2f 54 5b c1 79 66 e6 bf 32 a2 5e 3f
       -6.61071 -13.708053 -1.8000022 0.8696624
0000b0 6e af 6e c0 27 eb e5 3f 02 8e 9a 40 3c 98 1b 41
       -3.7294574 1.7962388 4.829835 9.724667
0000c0 b9 02 06 41 82 f9 d5 c0 fd 0a 30 c1 0c e9 80 40
       8.375665 -6.6867075 -11.002683 4.028448
0000d0 5c a0 cf 3f f4 77 9f c0 bf 0d 67 c0 57 11 19 41
       1.6220813 -4.9833927 -3.610214 9.566733
0000e0 e2 01 34 c1 6b a2 35 c0 8d dd 87 c0 7c 07 0c c0
       -11.25046 -2.8380382 -4.245795 -2.1879568
0000f0 b6 37 d4 c0 29 95 19 3f e8 28 a2 c0 bc 80 5c 40
       -6.6318007 0.59993225 -5.0674934 3.4453573
000100 9b 1d d7 3f 24 ea 52 c1 9f 80 6a c1 3d cd 23 3f
       1.680591 -13.182163 -14.656402 0.63985044
000110 bf 09 5a 3f 29 81 b2 40 b0 53 26 40 ba 59 19 41
       0.8517112 5.5782666 2.5988579 9.584406
000120 c5 7f e9 40 e8 5e fb bf 24 16 94 c0 4f ca 19 41
       7.296847 -1.9638338 -4.6277027 9.611892
000130 2f e7 1d c1 35 a4 02 c0 47 9a c8 c0 fa af 70 40
       -9.868941 -2.0412724 -6.2688327 3.7607408
000140 78 6a 95 c0 5a 7e 32 c0 66 26 1b 41 d3 62 73 c0
       -4.6692467 -2.788962 9.696875 -3.8029068
000150 3a 3b 00 c1 c3 08 9a 40 ef 13 f8 c0 52 2e 57 41
       -8.01446 4.8135695 -7.7524333 13.448809
000160 b4 a2 90 be 51 45 13 40 01 12 1b c0 34 60 01 3f
       -0.28249133 2.3011057 -2.4229739 0.5053742
000170 e5 be 19 c0 cc df 21 41 89 7d 0a 41 dc 5c e6 40
       -2.4022763 10.117138 8.655648 7.1988354
000180 a4 b8 bb c0 96 82 87 c0 ff e7 dc 40 14 d1 72 3f
       -5.866289 -4.2346907 6.90332 0.9485028
000190 d7 03 6d c0 3a b5 df bf 4d 4f 1d c0 fa 05 35 40
       -3.7033594 -1.7477181 -2.4579651 2.8284898
0001a0 93 cd 68 40 b2 31 42 c1 10 9f 0b c1 75 50 c4 c0
       3.6375473 -12.137133 -8.726334 -6.1348214
0001b0 2c 40 21 c0 ac 1d db c1 aa 77 de c0 17 b6 37 40
       -2.5195417 -27.389488 -6.9521074 2.870489
0001c0 03 cc 0b c0 63 a8 9a c0 f6 e2 a1 c0 fb c8 30 c1
       -2.184327 -4.833055 -5.058955 -11.0490675
0001d0 fe 74 a1 40 54 02 37 c1 a9 61 18 c1 75 82 e5 40
       5.0455313 -11.438068 -9.523843 7.172175
0001e0 83 75 9d c0 72 d6 93 c1 95 9c 76 c0 95 79 6d c1
       -4.9205947 -18.47971 -3.853307 -14.842183
0001f0 14 10 60 40 72 88 3a 3f 51 00 f7 be 1b 5f 19 c0
       3.5009813 0.7286445 -0.4824243 -2.3964298
000200 9b e0 70 c0 58 17 7d c1 bd 91 81 3f 9b b8 93 3f
       -3.7637088 -15.818199 1.0122601 1.1540712
000210 17 31 95 c0 04 e2 71 3f be 2a ce 3f a8 55 e2 40
       -4.6622424 0.944855 1.6106794 7.072956
000220 e6 ff 82 c1 f4 5b ce c0 29 28 5d 40 6d 83 4e 40
       -16.37495 -6.4487247 3.4555762 3.2267716
000230 95 c7 43 3f a8 27 ed 40 93 2c 33 c0 83 d8 a1 c0
       0.76476413 7.411091 -2.7995956 -5.0576797
000240 dd 19 2a c1 19 21 05 40 ef 78 3d 41 e1 df 84 3f
       -10.631314 2.0801451 11.842025 1.0380822
000250 b1 e0 17 bf 59 15 e7 3e 9b ab b9 3f 8d 6a b1 c0
       -0.59327227 0.45133474 1.4505495 -5.5442567
000260 53 93 c6 40 3e fd 1f c0 12 bf 75 40 b7 40 ec bf
       6.205484 -2.4998317 3.839787 -1.8457249
000270 b7 05 2a c0 40 67 bc 3f 35 1e bb 3f 5b d0 78 c1
       -2.6565988 1.4719009 1.4618593 -15.550868
000280 8f 60 31 c1 94 5f 85 40 f4 cd 8e bf dd 50 3a 40
       -11.086074 4.1679173 -1.1156602 2.9111855
000290 80 09 a7 c0 1b 8f 82 c1 11 bd 27 c0 96 8c 0f 40
       -5.2199097 -16.319876 -2.6209147 2.2429557
0002a0 ce 16 75 c0 2a 5e 7f c1 4f 9b 72 40 6c 8c dc 3f
       -3.829517 -15.960489 3.7907293 1.7230353
0002b0 34 f5 42 c1 7f 39 99 bf f3 f9 f0 c1 a0 8d 27 c1
       -12.184864 -1.1970671 -30.122046 -10.472076
0002c0 ce 5d f2 bf 67 64 8b 40 ab 43 25 41 19 a9 81 c0
       -1.8934877 4.356006 10.3290205 -4.051892
0002d0 79 f9 06 c0 a8 4f 9f 41 27 39 03 c1 d7 0d 0c bf
       -2.1089766 19.913895 -8.201453 -0.5470862
0002e0 f3 35 2b c0 e8 bf 0b c0 74 fd 17 40 9a f5 47 c0
       -2.6751678 -2.183588 2.3748446 -3.1243653
0002f0 67 42 88 c1 7d eb cd be 37 fc d9 40 4f 87 03 41
       -17.032423 -0.40218726 6.812038 8.220534
000300 09 06 c2 c0 0f 7d bf 40 83 02 1b 3f c8 82 e2 3e
       -6.0632367 5.984016 0.6055071 0.44240403
000310 8e 63 dc 40 9c 2d 53 3f 4d 5a 0e 41 26 e5 23 41
       6.8871527 0.8249147 8.897046 10.243444
000320 8e b9 2e 40 ac 46 82 c0 63 a9 cb c1 5b 61 70 c1
       2.7300754 -4.071127 -25.457708 -15.023768
000330 d2 45 7c c0 68 ab c4 c1 9e 2f 80 40 56 21 4c c0
       -3.9417615 -24.583694 4.0058126 -3.1895347
000340 a0 ad 5d bf 7a 74 63 c0 49 48 93 c1 a5 f0 a4 bf
       -0.86593056 -3.5539842 -18.410295 -1.2885939
000350 38 83 c3 c0 4a 7a 8e c1 12 c8 9d c1 bb e8 23 c1
       -6.109768 -17.809711 -19.72269 -10.244319
000360 da 71 fc 40 49 37 e6 bf 19 28 de c0 55 6e 37 c1
       7.888898 -1.7985622 -6.9423947 -11.464437
000370 e6 e2 88 c0 f2 60 c3 c0 d6 a8 e9 3e ec dc 9e 40
       -4.2776976 -6.105584 0.45636624 4.964468
000380 3d 36 86 c1 a1 81 6e c1 a4 79 80 40 3f 86 1b 40
       -16.776484 -14.906648 4.0148487 2.4300687
000390 0f 14 9d 40 b0 d7 85 c1 60 22 bb 40 3f 7f ee 40
       4.9086986 -16.730316 5.847946 7.453033
0003a0 2d 82 54 c0 eb 4b 46 c1 3c 29 70 c0 05 fb 11 c0
       -3.3204453 -12.393535 -3.7525167 -2.280946
0003b0 2a 2d 8b 3f 1a d5 2b 40 69 9f 57 c1 04 e4 df 3e
       1.0873158 2.6848817 -13.4764185 0.4372865
0003c0 bd ce 48 3e de ec 0e 40 2e 60 46 bf 98 47 7a c0
       0.19610114 2.2332072 -0.7749051 -3.9106197
0003d0 be a8 3f c1 5c 3a 07 c1 64 4b a1 40 4f 5f 8a 40
       -11.978697 -8.451748 5.040453 4.3241343
0003e0 80 6c 15 41 02 66 e2 40 cd d9 ca 40 eb 43 29 41
       9.338989 7.074952 6.339087 10.579082
0003f0 71 e3 93 c0 cf 9d 88 be fe fb 0b 40 da b8 85 40
       -4.621514 -0.26682898 2.1872554 4.178815

l2/b f4 [256]
000000 4d 64 79 40 27 5c a7 3f c2 1c c7 3f 41 9c 01 40
       3.8967469 1.3074998 1.5555651 2.025162
000010 a7 cc 01 40 fb f8 bb 40 fe 14 86 3e 92 c0 25 3f
       2.028116 5.874143 0.2618789 0.64746964
000020 60 1b 35 3f 59 c5 23 41 24 09 68 40 b2 00 af 3f
       0.70744896 10.235681 3.625558 1.3672087
000030 bd 0d 34 40 5c af 87 40 1e 99 82 40 03 ef c4 bf
       2.8133385 4.240156 4.081191 -1.538544
000040 87 ae 21 bd e1 68 b2 3f de c8 10 40 71 d3 2d 40
       -0.039473083 1.3938257 2.26226 2.7160304
000050 d9 c7 38 3f fa 07 52 40 37 2d a9 41 28 ed 35 40
       0.72179943 3.2817369 21.147078 2.8425999
000060 a6 f9 87 3f ad af 07 40 27 aa 0a 41 ad f8 b9 40
       1.0623062 2.1200974 8.666541 5.811606
000070 3d aa 2f 3f 8e ad a6 bf a5 21 95 40 6a b3 c5 3e
       0.6861914 -1.3021715 4.660357 0.38613445
000080 ff fd 97 40 39 85 be bf c0 58 bf 40 ba 08 2e 3f
       4.7497554 -1.4884406 5.9795837 0.67982066
000090 0a 4b 1f 40 46 df 36 3d d9 02 8a bf f4 d7 69 40
       2.488955 0.044646524 -1.0782119 3.6538057
0000a0 ce 89 68 40 0e 04 34 40 fa 6c 81 40 d0 f3 4b 40
       3.633411 2.8127475 4.044553 3.1867561
0000b0 8c fd 77 40 e5 34 58 40 06 7d 75 3f 3f 46 6b 40
       3.8748503 3.3782284 0.95893896 3.6761625
0000c0 93 9b e7 bf c0 4c 8f 40 af 93 f0 3f 74 1c 79 40
       -1.8094352 4.478119 1.879507 3.8923616
0000d0 60 38 81 40 89 74 6b 40 82 49 11 3f 95 8a fe 3f
       4.0381317 3.6789877 0.5675279 1.9886042
0000e0 6b 8c 02 3e d3 f6 1e 40 5f 17 d3 40 4b 75 a9 40
       0.12748878 2.483815 6.596603 5.295568
0000f0 ce f5 a8 bd 63 78 8f 3f 52 a2 81 bf 42 af c7 3d
       -0.082500085 1.1208614 -1.0127661 0.09750225
000100 d1 0b bf 40 58 0d ad 3f b5 e3 0c 41 73 36 ef 3f
       5.9701924 1.3519697 8.805593 1.8688492
000110 98 53 3e c0 f6 78 6d bf 47 ff 23 bc 4f cb a7 3e
       -2.9738522 -0.92762697 -0.010009593 0.327723
000120 2e 8a c0 40 db 7e 10 40 be 43 4b c0 4a 26 10 40
       6.0168676 2.2577426 -3.1760097 2.252337
000130 08 d4 a2 40 83 e3 6e bf 41 96 81 3e df 21 51 40
       5.0883827 -0.93315905 0.25309947 3.2676923
000140 de bf f7 3f 71 94 6c 40 a0 7e 30 40 58 6f 50 40
       1.9355428 3.6965601 2.7577286 3.256796
000150 45 6a 99 3e 3e d0 2d 40 b3 3b 23 40 a0 a1 be 3e
       0.2996389 2.715835 2.5505188 0.37232685
000160 2e 53 0e c0 c2 3f 9d 40 00 48 12 c0 a4 bb 10 40
       -2.223827 4.914033 -2.2856445 2.2614527
000170 cd 83 d7 bf aa 78 f1 bb b5 9a 6e bf 39 a9 4c 3f
       -1.6837097 -0.0073691206 -0.93204814 0.79945713
000180 a9 05 e6 3f 5f 33 e7 40 b3 b2 99 40 da df 05 bf
       1.7970477 7.225021 4.803064 -0.52294695
000190 aa 57 ad 3f dd d6 1b be ee d6 54 3f fc af db 3f
       1.3542378 -0.15218683 0.83140457 1.7163081
0001a0 d0 61 d2 bf 6d 1e b4 3f 3f e5 90 40 82 be a1 bf
       -1.64361 1.4071785 4.527984 -1.2636263
0001b0 3a f0 a1 40 f5 e1 16 40 da eb bb 3f 55 f2 84 be
       5.0605745 2.3575413 1.4681351 -0.25966135
0001c0 1c ba a0 40 53 bf 81 3f a9 d2 c3 3e 24 ec 9e 40
       5.0227184 1.0136513 0.38246658 4.9663258
0001d0 6d 06 15 40 2a fe ff 3f f6 30 9d be 07 c8 f5 3f
       2.3285172 1.999944 -0.30701417 1.9201669
0001e0 67 17 b6 40 10 53 07 41 a9 4c 1a be 38 6d 0b 41
       5.6903567 8.457779 -0.15068306 8.714165
0001f0 01 28 d8 40 e9 fe 69 3f 3f d5 56 40 df 53 fc 3f
       6.7548833 0.9140459 3.3567655 1.9713095
000200 77 2e 8c 3f 42 58 9d 3f 33 c6 0e 3e 3b cc 21 40
       1.095168 1.2292559 0.13942795 2.5280902
000210 90 54 20 3f 6f 8a 86 40 6c 02 02 40 d7 c3 2b bf
       0.6262903 4.2043986 2.0313978 -0.670957
000220 19 af b5 3f 87 4e 33 40 bc 69 5e 40 e3 3d 54 40
       1.419406 2.801668 3.4752035 3.3162773
000230 f5 02 c0 3d 2d b7 95 3f c3 15 60 40 c2 aa a2 40
       0.09375564 1.1696526 3.5013282 5.0833445
000240 3e 2b a0 40 80 ff 7f 3e fd d2 b6 bf a9 2b e8 3f
       5.0052786 0.2499981 -1.4283139 1.8138324
000250 27 f2 c8 3f 5c 38 1a c0 34 8f 98 3f 24 2a 0a 40
       1.5698899 -2.40969 1.1918702 2.158822
000260 f0 af 85 40 d0 8a a6 40 8b 90 5c bf d9 02 26 40
       4.1777267 5.204445 -0.86158055 2.5939238
000270 b4 bb 4c bf 81 73 3d 40 4f d8 5a 3e dd e7 0a c0
       -0.7997391 2.9601748 0.21371578 -2.1704018
000280 3d db 20 40 31 e5 bb 3f 32 8d 7c 3d 06 c0 48 40
       2.5133812 1.4679319 0.06165809 3.1367202
000290 5d fc 04 bf 86 a7 78 3c 07 9d 9c 40 cd 57 d3 3f
       -0.51947576 0.015176659 4.8941684 1.651117
0002a0 79 51 c5 3f 0c e5 87 40 6f 97 a4 40 c8 56 2d 40
       1.5415488 4.24671 5.1434855 2.7084217
0002b0 8e 66 82 40 43 48 d9 3d b0 a5 fe 3e ef 36 af 40
       4.075019 0.10609486 0.49735785 5.4754558
0002c0 01 bc ce 3f eb 6c 61 bf 6a 3f a4 3f c1 d1 52 40
       1.6151124 -0.8805682 1.2831852 3.2940524
0002d0 46 be 7b 3f ba 65 8b 40 4e b1 1b 3f fb 2a a4 be
       0.9833721 4.356168 0.6081742 -0.32064041
0002e0 ab f8 fe be 00 c9 cf bf 72 a7 88 3f 4a f8 ba 3f
       -0.49799094 -1.6233215 1.06761 1.4607022
0002f0 58 3c 56 3f 23 38 8a 40 24 65 c3 3f 81 ae 24 40
       0.8368583 4.3193526 1.5265241 2.5731509
000300 3b 7e af 40 12 35 95 3f 35 72 50 40 ce 7e b2 be
       5.484159 1.1656821 3.2569706 -0.3486237
000310 9f 2c 07 40 f1 62 b0 3f 6e 35 56 40 45 16 76 40
       2.1120985 1.3780195 3.347011 3.8451092
000320 02 46 b2 3f ce af 8b 40 b4 57 99 40 9d dc f9 3f
       1.3927615 4.3652105 4.791956 1.9520451
000330 15 bf 21 40 7f 35 dd 40 ac f4 44 3f 67 b5 12 3f
       2.5272877 6.9127803 0.7693584 0.5730805
000340 a6 8c f1 3f 95 97 38 40 94 6e 1e 40 91 15 af 40
       1.8871047 2.8842518 2.4754992 5.4713826
000350 d7 92 83 40 55 ab ed 3d bc 6c 23 40 50 3a 1f 40
       4.111675 0.116049446 2.5535116 2.487934
000360 1d fa 00 c0 ba af b1 3f 2d 2b 3e 40 24 b4 b0 3f
       -2.0152657 1.3881752 2.9713852 1.3804975
000370 b6 de ff 3f 77 e0 a0 40 9e 90 ef 3f 42 d8 7d 40
       1.9989841 5.0274005 1.8716009 3.9663243
000380 70 22 22 40 51 c0 fe 3f f5 cc 34 40 84 e0 9e 40
       2.533352 1.990244 2.8250096 4.9649067
000390 83 83 b0 3f 19 3a bc 40 8c aa 85 40 52 5d f7 3f
       1.3790134 5.882092 4.1770687 1.9325354
0003a0 61 c0 3f bf a6 f6 5d bf 83 c2 38 bf 8e 3f 09 3f
       -0.7490292 -0.8670448 -0.721718 0.536126
0003b0 c0 f2 6a 40 32 a5 16 40 37 9b 37 3f 4c ee 43 40
       3.6710663 2.3538327 0.71721214 3.0614195
0003c0 7a 02 9e bf 02 58 a3 3f 39 f7 0f 3f 6d 06 88 40
       -1.2344506 1.2761233 0.56236607 4.2507844
0003d0 ec 39 19 3e 06 5b bf 3f f7 94 f5 40 bb f7 07 bf
       0.14963502 1.4949653 7.674434 -0.5311238
0003e0 4c 4b 0f 40 97 82 1f 40 c4 e4 8e 40 90 fd 85 40
       2.2389708 2.4923456 4.4654255 4.1872025
0003f0 d6 2d 38 40 fd 61 80 40 90 53 04 40 58 ce 3d 3f
       2.8777976 4.0119615 2.0676003 0.7414298

l1/W f4 [256, 64]
000000 a8 62 c1 41 a4 ba b7 c1 cb dc 53 c1 12 ed a2 41
       24.173172 -22.966133 -13.241405 20.365757
000010 ee 42 5b 40 bd ed b9 c0 a5 4a 09 c1 93 3a ab 40
       3.42596 -5.810271 -8.580724 5.3509
000020 c2 3a 24 40 c6 e0 a0 40 23 5c 92 3f 13 e2 11 3f
       2.5660863 5.027438 1.1434368 0.56985587
000030 96 fd 93 c0 e0 57 9e 40 44 c5 40 40 8d 68 b9 c0
       -4.6247053 4.948227 3.0120401 -5.7940125
000040 9d 7b 25 40 80 86 0e 40 be be ec 3f db fc a1 c0
       2.5856698 2.2269592 1.849571 -5.062116
000050 29 f5 ad c0 6d 52 94 bf 1c 75 cb 40 0c ae 67 bf
       -5.436177 -1.1587654 6.3580456 -0.9049995
000060 87 6e 1a 41 6c d4 be c0 15 cb a9 40 f6 61 eb c0
       9.651984 -5.9634304 5.3060403 -7.355708
000070 62 d5 38 40 91 01 9d 40 5f a2 c4 40 21 ed 24 40
       2.8880239 4.906441 6.1448207 2.5769732
000080 4f 07 98 c0 44 67 b5 c0 1d 55 df 40 81 59 81 c0
       -4.750892 -5.6688557 6.97914 -4.042176
000090 a9 77 cd be 7e 27 20 c0 d0 11 dc c0 4d 99 1e c0
       -0.40130356 -2.5024104 -6.8771744 -2.4781067
0000a0 12 4e 55 41 c6 97 96 40 15 ab ff bc 13 b9 87 40
       13.33156 4.706027 -0.031209508 4.241342
0000b0 2c bc 56 3e 70 7a 7a 40 86 f9 30 c0 71 a0 61 c1
       0.2097022 3.913723 -2.7652297 -14.10167
0000c0 13 e8 b6 40 8b f8 55 40 5e 0d 86 bf 46 fd cc 40
       5.7158294 3.3432949 -1.0472829 6.405917
0000d0 b4 60 c5 40 0c cd 85 c0 81 87 1f 3e 38 e9 9f bf
       6.1680546 -4.18128 0.15579034 -1.2493048
0000e0 9e e0 ce 41 d1 48 0d 3e c6 79 bc c0 af dd cc 40
       25.859676 0.13797309 -5.889865 6.402061
0000f0 35 e0 9a 3f cb 57 da c0 60 f4 2b c1 b1 e5 21 c1
       1.2099673 -6.823217 -10.747162 -10.118577
000100 01 3b 98 41 07 e4 0b c1 ab dd d4 40 11 4b a7 c0
       19.02881 -8.743171 6.652059 -5.2279134
000110 4e 2e e7 c0 40 fd 37 c1 a3 d3 5f 41 ad 0e 81 c0
       -7.2244024 -11.499329 13.989169 -4.0330415
000120 d8 09 ae c0 31 50 f9 40 5c 74 31 3f 60 d5 d7 3d
       -5.4387016 7.791039 0.69318175 0.10538745
000130 66 11 bf c0 8c 16 a3 c0 83 43 0e 41 b4 c3 f8 40
       -5.970874 -5.0965023 8.891482 7.7738895
000140 5d 49 19 41 d6 7a e6 c0 05 0e 11 be d3 95 54 be
       9.580411 -7.2024946 -0.14165504 -0.20760278
000150 ba 6a a7 3f c7 24 8e 3f 8e c4 a3 40 d3 ba be c0
       1.3079445 1.1104974 5.1177435 -5.9603057
000160 48 1d e2 40 cf 31 9b 40 32 0c 1c c0 dc a2 ac ba
       7.0660744 4.84983 -2.4382443 -0.0013171094
000170 07 7c 7f 40 f2 c3 86 c0 39 1b 67 c1 85 2d 2c c1
       3.991945 -4.211419 -14.444146 -10.761113
000180 c7 aa a3 3f 3b 69 c5 40 08 9c 5d 40 7f 43 ee bf
       1.2786492 6.1690955 3.4626484 -1.8614348
000190 c1 4b 38 bf 70 63 9a c0 9a 4b 06 41 dc 7d 97 c0
       -0.7199059 -4.8246384 8.393457 -4.7341137
0001a0 db df 03 c1 34 08 ab c1 4e 89 8f 40 89 57 a1 40
       -8.242152 -21.379005 4.485511 5.0419354
0001b0 7a c7 a5 be b8 a9 b5 40 f0 f2 a6 40 4b 3f 8b c0
       -0.3237875 5.6769676 5.2171555 -4.351476
0001c0 eb ad e0 40 d0 9c db be d3 2a 1a 40 85 58 71 c1
       7.02123 -0.42893076 2.4088638 -15.084111
0001d0 db 19 af bf 98 f7 07 c0 cd 46 0e 41 c3 2d e6 c0
       -1.3679765 -2.124487 8.892285 -7.193086
0001e0 cd 6b de 40 7f 39 78 3f ec e4 3c c1 cb 37 e5 c1
       6.9506593 0.9696273 -11.805889 -28.652243
0001f0 b0 5f 8e 41 f9 95 b9 40 ce 04 1a 40 7d 83 09 41
       17.796722 5.799557 2.4065433 8.594602
000200 cd e8 46 c1 39 05 fc 40 34 ee 32 41 8b fe 8f 41
       -12.431836 7.8756375 11.183155 17.999289
000210 c0 8b 45 c0 59 f6 1c 41 bc 1a a1 3f 11 94 2f bd
       -3.0866547 9.810143 1.2586284 -0.042865817
000220 e1 80 18 41 41 22 03 c0 a5 d7 d6 c0 ea 11 49 40
       9.531465 -2.0489657 -6.713824 3.1417184
000230 4c 4b 5c bf ba f6 43 40 38 e5 b9 40 e7 13 14 3f
       -0.86052394 3.061934 5.809231 0.5784287
000240 2d 74 09 c1 87 a4 f3 40 dd 04 f9 c0 da 15 70 bf
       -8.590863 7.613834 -7.7818437 -0.9378334
000250 9f 81 b4 bf ac 6a 93 40 4a d3 c2 40 41 f4 ca 3f
       -1.4102057 4.6067715 6.088292 1.585579
000260 f8 cd 3f 41 65 e2 39 c1 52 6a 4c 3f 14 0d 8f 40
       11.987785 -11.617772 0.7984973 4.4703465
000270 c6 9e 91 3f 42 17 ee 3f 8f 1e a8 c0 55 3d d8 c0
       1.1376579 1.8600848 -5.2537303 -6.757487
000280 00 0f 93 c0 50 4b 49 40 92 b5 32 c1 1b 21 4f 40
       -4.595581 3.1452217 -11.169329 3.2363956
000290 f8 0b 4c 40 29 e0 88 c0 44 e6 5e c0 00 d5 1c c1
       3.1882305 -4.2773633 -3.4828043 -9.802002
0002a0 27 84 ce 40 a5 63 35 c1 dc 68 0c be 99 cf 0d 40
       6.453632 -11.336827 -0.13711876 2.2157958
0002b0 36 4d 6a 40 6e 1d 54 c0 b0 db 49 40 7b 38 58 c1
       3.6609626 -3.3142962 3.1540337 -13.513789
0002c0 51 50 70 c1 49 98 7f c1 b4 7d 38 c1 89 cf 9d 3f
       -15.0196085 -15.974679 -11.530689 1.232896
0002d0 8c 17 da 3e 0a 4d 29 c1 9e 29 a4 be 7f b7 9d c1
       0.4259609 -10.581308 -0.32063 -19.714598
0002e0 96 15 47 c0 08 00 95 3f a2 15 df 3e 0c e2 65 41
       -3.1106925 1.1640635 0.43571192 14.367687
0002f0 3e c1 32 c1 c3 8f 6a c1 84 3b 4e 3f 0f c6 4b c1
       -11.172178 -14.660098 0.80559564 -12.735854
000300 26 cd 13 bd 1d 42 34 41 7a 02 09 bf 84 de a1 bf
       -0.036084317 11.266141 -0.53519404 -1.2646031
000310 e4 ae b1 c0 a3 02 25 bc cc b9 af 40 26 58 46 41
       -5.552599 -0.010071429 5.4914303 12.396521
000320 d8 e8 83 c0 6d 08 45 c1 81 ea 61 40 16 3e c9 40
       -4.1221733 -12.314557 3.529938 6.288829
000330 b2 63 68 c1 c5 53 4f 3e 5f be 32 41 93 7d e3 40
       -14.52434 0.202468 11.171477 7.109079
000340 e6 61 38 41 28 59 2a c0 b5 b5 4a 40 28 1a db c0
       11.523901 -2.6616917 3.1673405 -6.846943
000350 65 c3 b9 40 40 02 9d bf 03 b4 00 41 8d 92 3b c0
       5.805102 -1.2266312 8.043948 -2.9308197
000360 5d 7e b2 c0 5f a9 cf 40 9a 00 c4 40 5b ee 8e bf
       -5.577925 6.489425 6.1250734 -1.116649
000370 21 23 8d c0 b2 3d a6 40 43 dd 3f bf 15 d6 4d 40
       -4.410538 5.195031 -0.74946994 3.2161915
000380 c6 08 f3 c0 b9 e8 c9 40 0f d3 7f 40 1b 34 67 c0
       -7.594821 6.3096585 3.997257 -3.6125553
000390 35 bf 73 bf c5 e7 32 bf 4a c7 78 3e f1 f5 ec c0
       -0.95213634 -0.698849 0.24294773 -7.405022
0003a0 74 48 4c c0 37 a2 4d 3d 91 fc 1f c1 59 4a ad bf
       -3.1919222 0.05020353 -9.999162 -1.3538314
0003b0 65 39 31 bf 02 3e 9a 40 91 9d b6 bf 1a 18 84 c1
       -0.692282 4.8200693 -1.4266835 -16.511768
0003c0 a9 ef 3f 40 26 c5 14 c1 39 6f 08 be ff c5 3a c1
       2.9990027 -9.298132 -0.13323678 -11.673339
0003d0 4a 22 9d 40 2d 12 75 41 db 77 df 40 e0 ea 92 40
       4.9104357 15.316937 6.983381 4.5911713
0003e0 e2 9f 66 c1 4a 31 a7 c0 97 59 6d c1 3a 2e 62 bf
       -14.414034 -5.2247667 -14.8343725 -0.88351786
0003f0 6a ae 44 c1 22 ad 47 41 12 80 67 41 9a ea f6 3f
       -12.292582 12.479769 14.468767 1.9290345

l1/b f4 [256]
000000 1f 1e 89 bf 6e 53 7b 3f dd c0 78 40 04 d5 6c bf
       -1.0712317 0.9817418 3.8867714 -0.92512536
000010 79 32 85 bf 73 67 c2 be eb 64 fa 3e ad 2a d6 3f
       -1.0406028 -0.3796955 0.4890512 1.6731774
000020 60 b6 84 3e ed c3 dd be f5 5d d2 c0 53 70 6d bf
       0.2592039 -0.43313542 -6.5739694 -0.9274952
000030 4d 3f ab c0 7c ee 24 c0 b9 32 e1 bf 43 32 1a c0
       -5.351477 -2.577056 -1.7593604 -2.4093177
000040 bf f9 5e 3e 3b 70 1a bf 2b 77 11 40 ca 8d f9 3f
       0.21774958 -0.603275 2.2728984 1.9496396
000050 3a 20 8d 3f d8 de d7 3f 97 b6 97 40 60 28 9e 3f
       1.102546 1.6864882 4.741039 1.2356071
000060 e0 5c cd bf 4d a0 1a c1 c5 e4 41 3f 81 83 ef bf
       -1.6043968 -9.664136 0.757397 -1.8712007
000070 59 ae 5e 40 b0 2f 78 c0 a8 1e e4 bf 3a de 23 40
       3.4793913 -3.8779106 -1.7821856 2.5604386
000080 58 7e 31 40 c6 c0 da 3f 83 ff 21 c1 9f b5 8a 40
       2.7733364 1.709008 -10.124881 4.3346705
000090 26 7d 90 40 bc f4 9a 40 8d 55 1d 3f 25 a7 10 40
       4.515277 4.842375 0.61458665 2.2602017
0000a0 a9 53 52 be 6d 2c f6 bf e3 2d 75 3e be af fb c0
       -0.20539726 -1.9232308 0.23943286 -7.865203
0000b0 be 6b 7f bf 6b 26 00 bf 94 8d 82 c0 ac 3d 60 c0
       -0.99773777 -0.5005862 -4.0797825 -3.5037642
0000c0 9f a4 c9 c0 7c 0b a2 40 6a d5 49 3f ac ff bb 40
       -6.3013453 5.063902 0.7884127 5.87496
0000d0 21 e1 82 40 00 e9 06 c0 46 b4 22 40 0f c8 82 3f
       4.0899816 -2.1079712 2.542253 1.0217303
0000e0 a3 18 1c c0 9d 5a 37 bf 08 f7 a0 40 00 ad 48 bf
       -2.4390037 -0.7162264 5.030155 -0.7838898
0000f0 a1 8a 95 40 ef 20 84 c0 60 83 a6 40 f8 50 58 bf
       4.6731725 -4.12902 5.203537 -0.8449855
000100 44 d9 36 c0 a8 52 b0 40 4e 05 5f c0 fe e2 2a be
       -2.8570108 5.51009 -3.4846988 -0.16688153
000110 99 6d 91 c0 63 57 35 40 79 a1 4d 3f 48 e8 1f 3f
       -4.5446286 2.8334587 0.8032451 0.6246381
000120 21 b0 80 3e d9 36 26 3e bb 4a 0c 40 8b a2 6a c0
       0.25134376 0.1623186 2.1920612 -3.6661708
000130 0e e3 53 40 e3 16 42 c0 87 8b 11 40 73 70 59 41
       3.3107333 -3.032647 2.274141 13.589953
000140 c1 f6 0e be dc cf 51 c1 a7 7d b0 bf d3 1d d2 be
       -0.13961317 -13.113247 -1.3788346 -0.4103838
000150 1a 17 60 3e f3 f5 ea bf 96 97 44 bf 65 11 77 40
       0.21883813 -1.8356308 -0.767938 3.8604367
000160 9a 91 75 40 59 ee 9d 40 8f 18 87 bf cf 7b 51 40
       3.8370118 4.935345 -1.055437 3.2731817
000170 25 e6 3b 40 6b 3a 69 c0 11 a7 4f 40 ad e7 a9 3f
       2.935922 -3.6441905 3.244572 1.3273827
000180 0f 1a 41 c1 0a 9c 3f c1 16 39 30 40 88 80 4a c0
       -12.068862 -11.975595 2.7534842 -3.164095
000190 46 83 2b 40 cb 91 cf bf 55 68 72 c0 6c 96 08 bd
       2.6798873 -1.6216367 -3.787618 -0.03334658
0001a0 05 c2 91 40 b3 fc f7 bf 92 64 d2 be 64 bc 73 3f
       4.554934 -1.9373993 -0.41092354 0.95209336
0001b0 4f 2b 46 c0 d5 29 e5 40 03 24 d0 c0 92 53 ab 40
       -3.0963933 7.1613564 -6.504396 5.3539515
0001c0 f3 fd b2 40 18 6a 26 40 ed 72 a7 c0 27 11 ab bd
       5.5934997 2.6002254 -5.232779 -0.08352881
0001d0 d7 e5 a9 be 5e 5e a1 40 60 57 2c 40 29 33 30 bf
       -0.33183166 5.0427694 2.692833 -0.68828064
0001e0 6b 2a a6 40 91 0c eb c0 ed 24 82 c0 97 50 00 c0
       5.192678 -7.345284 -4.0670075 -2.0049188
0001f0 86 d6 ef bf e4 0b b4 3f 65 a8 07 c0 fb 20 8e bf
       -1.8737342 1.4066129 -2.119653 -1.1103815
000200 c8 e8 dc c0 cd 4b 0b c1 56 a3 02 41 bc ba 90 bf
       -6.9034157 -8.706006 8.164877 -1.1306987
000210 e2 3b 9a 40 3d d7 8d bf eb 14 d6 be af e0 c6 40
       4.81981 -1.108131 -0.41812834 6.214927
000220 f6 d4 e7 c0 4a 13 3e c0 a6 ed 07 3e 0d 60 96 bf
       -7.244746 -2.9699273 0.1327425 -1.1748062
000230 a3 a4 1c c1 59 ff 2e c0 c7 2a 1b 40 b2 06 81 c0
       -9.7901945 -2.7343352 2.424486 -4.0320673
000240 c8 c0 c1 c0 01 6a 1d 3f 1c a2 92 be 17 51 5d 40
       -6.054783 0.61489874 -0.28639305 3.4580743
000250 15 1f 9d 40 70 93 c4 c0 38 b3 30 c0 e3 57 43 40
       4.910044 -6.1429977 -2.7609386 3.0522392
000260 14 1e 10 40 0a e3 72 c0 85 a0 41 c0 a3 5a f3 bb
       2.2518358 -3.7951074 -3.0254223 -0.007426576
000270 f1 e6 29 c0 3b b7 9d 40 79 84 3a c1 93 69 17 41
       -2.6547205 4.928617 -11.657342 9.463275
000280 69 36 f0 3f e7 51 7b bf 2e 64 f2 3f 99 71 3b 40
       1.8766605 -0.9817185 1.8936822 2.9288085
000290 b1 ea 86 40 5a 63 06 c1 da bc d5 40 9b 4e a5 c0
       4.216149 -8.399256 6.679303 -5.1658454
0002a0 c6 59 da c0 54 3c 5f c1 9b 5d 97 c0 8a e6 32 40
       -6.8234587 -13.952229 -4.7301764 2.795321
0002b0 78 87 91 3e ba 85 38 40 98 00 b3 40 4c 09 fa c0
       0.28423667 2.883162 5.5938225 -7.813635
0002c0 96 06 2b c0 11 37 d1 be c5 e9 66 40 b4 b0 27 c0
       -2.672277 -0.40862325 3.6080182 -2.62016
0002d0 ec 08 69 40 76 27 83 3e 12 ec 5b 3f d7 f1 7c bf
       3.6411695 0.25616044 0.8590709 -0.9880652
0002e0 c2 4b f8 3e 0d ec 78 40 3b 20 d9 c0 34 c2 05 40
       0.484953 3.8894074 -6.7851844 2.0899782
0002f0 36 e7 14 c0 f2 8e d8 3f f9 61 dc bf 8b 5d 7f 40
       -2.326612 1.6918623 -1.7217399 3.9900844
000300 f1 c5 96 bf a6 63 ff 3f 58 66 a3 c0 74 ae 9f 3f
       -1.1779157 1.9952285 -5.106243 1.2475114
000310 c6 b6 b9 40 e8 c9 e0 bf ac f4 de 3d 2a ac a1 40
       5.803561 -1.7561617 0.10886511 5.052266
000320 d6 19 0c c0 87 32 03 c0 ba 05 8b c0 6e 1c 9d 3e
       -2.189077 -2.049959 -4.344449 0.30685753
000330 1d 41 eb 3f 6f f9 a0 c0 8e 7f 81 c0 d6 2c 18 c1
       1.8379246 -5.0304484 -4.0468206 -9.510946
000340 56 94 47 c0 ed fb 9e bf f0 20 3d c1 22 33 78 bf
       -3.1184287 -1.2420632 -11.820541 -0.9695302
000350 d3 19 b1 c0 f9 b4 50 40 f7 d6 df bf cc 9e d7 be
       -5.5344024 3.2610457 -1.7487477 -0.4211334
000360 36 1a 88 40 fc 80 08 3e 0b 5c 2d bf da 03 cc bf
       4.2531996 0.13330454 -0.6771857 -1.5938675
000370 46 95 82 c0 aa 7d c0 bf db 7f f3 bf b9 e7 4e c1
       -4.080722 -1.503835 -1.9023393 -12.931573
000380 57 a4 44 40 76 8f 3b c0 de 41 0b be c6 12 85 c0
       3.0725305 -2.9306312 -0.13599345 -4.1585417
000390 3c 16 ee be e2 b3 9c 40 ef 8f b0 3f 48 12 86 c0
       -0.46501338 4.8969584 1.3793925 -4.1897316
0003a0 0b 30 16 40 f8 bd 26 c0 65 3f 80 40 e0 fc 98 c0
       2.3466823 -2.6053448 4.0077386 -4.7808685
0003b0 e3 56 4f 3e f6 c1 12 41 8a 59 50 c1 7f 5d be 3f
       0.20247988 9.172354 -13.02186 1.4872283
0003c0 34 8e 86 c0 eb de 17 c1 a3 50 9e c0 2b c9 5c c0
       -4.204859 -9.491923 -4.9473433 -3.4497783
0003d0 72 73 85 c1 14 b8 8c c1 9f 1e 92 c0 3c 9f 15 c0
       -16.68137 -17.589882 -4.566238 -2.337844
0003e0 95 07 8b 40 32 b3 16 40 32 7f e7 bf 51 cb bf 40
       4.3446755 2.3546872 -1.8085692 5.993569
0003f0 1f 4e c6 c0 ac 20 46 3e 12 24 53 c0 06 e0 d4 c0
       -6.1970363 0.19348401 -3.2990766 -6.6523466

l4/W f4 [64, 256]
000000 ae aa a9 41 c4 75 b0 41 c8 7e 8c 41 4a 3a 07 42
       21.20834 22.057503 17.561905 33.806923
000010 18 bc 16 41 22 99 55 41 84 94 b3 41 d8 a4 97 41
       9.420921 13.349886 22.447517 18.95549
000020 fb c9 8c 41 18 41 aa 41 42 67 bb 41 80 5c be 41
       17.598623 21.281784 23.425419 23.795166
000030 37 fb aa 41 d8 39 dc 41 b2 f1 96 41 2a df a5 41
       21.372663 27.528244 18.868015 20.733967
000040 f5 26 c0 41 43 3e 8f 41 65 b7 a6 41 0e a9 a9 41
       24.019022 17.905401 20.839548 21.207546
000050 cf fb a4 41 5b d2 a3 41 c5 d6 7a 41 a0 d4 90 41
       20.622953 20.477713 15.677434 18.10382
000060 1a 5f a3 41 f6 2b ab 41 50 29 be 41 f9 c7 ea 41
       20.421436 21.396465 23.770172 29.347643
000070 b0 66 ca 41 60 37 db 41 23 6e fe 41 c4 a5 b7 41
       25.30014 27.402039 31.803778 22.95594
000080 b1 f0 da 41 fd 18 97 41 7e da e0 41 b7 72 23 40
       27.367525 18.887201 28.106686 2.5538766
000090 7c 1b dc 41 86 48 ac 41 19 e5 bb 41 0c db 90 41
       27.51342 21.535412 23.486864 18.106956
0000a0 c1 bf 83 41 5b 99 9f 41 da e6 f2 41 cf 8f ad 41
       16.46863 19.94988 30.36272 21.695219
0000b0 65 06 9f 41 7b a9 99 41 b7 82 48 41 b3 03 ad 41
       19.878122 19.207754 12.531913 21.626806
0000c0 2a 1f be 41 01 f7 ff 41 ae da 9a 41 4a b6 f1 41
       23.765217 31.995607 19.356777 30.214008
0000d0 e9 ea db 41 15 1f d5 41 cc 46 c5 41 88 9e 04 42
       27.489702 26.640177 24.659569 33.154816
0000e0 a6 5e c8 41 de 4e e3 41 c9 10 9e 41 fb 2c f1 41
       25.046215 28.41351 19.758196 30.146963
0000f0 3c ee 6d 41 84 3a 01 42 cc 19 ec 41 20 88 c4 41
       14.870663 32.307144 29.512596 24.566467
000100 0c aa a4 41 ac 02 d8 41 b1 39 f2 41 9b 38 98 41
       20.58303 27.001305 30.27817 19.02764
000110 e0 47 d7 41 52 ec 80 41 66 48 d0 41 49 16 c0 41
       26.910095 16.11539 26.03535 24.010881
000120 f6 12 b7 41 2c 62 b2 41 ff 34 a9 41 9c fd b3 41
       22.884258 22.297935 21.150877 22.498833
000130 b4 ba c0 41 7e 60 a5 41 cb 2f b6 41 51 62 a4 41
       24.091164 20.672115 22.773336 20.548006
000140 b9 d0 a5 41 89 d0 e1 41 e5 e8 dc 41 fb f3 e2 41
       20.726915 28.226824 27.613718 28.369131
000150 65 12 76 41 84 78 11 41 18 8d a5 41 47 94 b4 41
       15.379491 9.091923 20.693893 22.572401
000160 42 6f d1 41 5c 7d e1 41 68 32 d5 41 cb 4b a9 41
       26.179325 28.18621 26.649612 21.162008
000170 08 89 eb 41 8e 2e 83 41 64 87 bc 41 a9 9b 90 41
       29.44191 16.397732 23.566109 18.076006
000180 96 08 7d 41 d0 0a d0 41 bb 3d 7a 41 4d b3 60 41
       15.814596 26.00528 15.640071 14.043775
000190 fd 31 c1 41 15 d4 a2 41 8f 79 94 41 3c 6b e7 41
       24.149408 20.353556 18.559355 28.92736
0001a0 99 d7 89 41 95 4f 9f 41 47 79 ab 41 69 f9 4e 41
       17.230272 19.913858 21.434217 12.935891
0001b0 98 e6 d4 41 0f 73 c8 41 1a 6f ac 41 6f b3 ab 41
       26.612595 25.056181 21.554249 21.462614
0001c0 e6 13 97 41 12 a0 b3 41 1f b3 48 41 c3 2d b3 41
       18.884716 22.45316 12.543731 22.397345
0001d0 dd d5 96 41 33 6f 58 41 ea b8 c7 41 e6 f9 9b 41
       18.854425 13.527148 24.96529 19.49702
0001e0 ba ca a1 41 5b e6 91 41 52 b8 a5 41 22 d7 ab 41
       20.223988 18.237478 20.715 21.480045
0001f0 a6 41 be 41 63 d1 c9 41 d5 ec 02 42 50 52 b1 41
       23.782055 25.22724 32.73128 22.165192
000200 a6 2b c7 41 ec fa 45 41 c0 39 85 41 2a 3e c1 41
       24.896313 12.37376 16.653198 24.155354
000210 1b 1a aa 41 54 7d ec 40 79 1d 08 41 c3 70 4c 41
       21.262747 7.390299 8.507195 12.77753
000220 64 44 1c 41 2a b3 b0 41 bb eb cc 41 77 7c c0 41
       9.766697 22.087482 25.615103 24.060774
000230 9d 77 ac 41 99 cd c0 41 7d df af 41 0d b4 a2 41
       21.558405 24.10039 21.984125 20.337915
000240 fa 3b 9a 41 bf 3e b0 41 58 f3 e0 41 ac 8e 96 41
       19.279285 22.030638 28.11882 18.819664
000250 ff 0c ca 41 0e 76 e2 41 3a e8 6b 41 a1 a4 d6 41
       25.256346 28.307644 14.744196 26.830385
000260 58 04 ef 41 10 37 eb 41 2a 96 32 3c 12 a1 ad 41
       29.877121 29.401886 0.01090006 21.703648
000270 57 7c db 41 3c 52 c5 41 57 73 b2 41 96 cc b3 41
       27.435713 24.665154 22.306318 22.474895
000280 b0 5e 87 41 f3 af 3f 41 1b cc a5 41 1c ce 9d 41
       16.921234 11.980456 20.72466 19.72564
000290 d9 94 87 41 cc 67 e7 41 83 ec b2 41 79 61 a7 41
       16.94768 28.925682 22.365484 20.922594
0002a0 dd ef f9 41 c8 cf 65 41 e8 4e c1 41 00 20 a9 41
       31.24212 14.363228 24.163528 21.140625
0002b0 ce e0 e6 41 65 77 cc 41 01 53 a6 41 e0 dd 93 41
       28.859768 25.558298 20.79053 18.483337
0002c0 43 ab c1 41 29 73 a8 41 7d 83 a9 41 32 5d 84 41
       24.208624 21.05623 21.189203 16.545506
0002d0 11 9a a4 41 0a a1 d7 41 cf 1e 3a 41 46 03 dc 41
       20.575228 26.953632 11.632522 27.501598
0002e0 e8 1c b7 41 dc c8 a8 41 f8 fe c9 41 e8 7a 9d 41
       22.889114 21.098076 25.249496 19.685013
0002f0 c2 48 aa 41 26 b1 d1 41 91 63 c0 41 3b 6f ad 41
       21.285526 26.211498 24.048616 21.679312
000300 d2 1f bf 41 e9 b4 b3 41 eb 9a 40 41 ac a3 dd 41
       23.890537 22.463335 12.037822 27.704918
000310 a4 48 bf 41 8a d6 83 41 18 29 a9 41 c7 7b d6 41
       23.91047 16.479755 21.145065 26.810438
000320 85 1c 98 41 24 6e b3 41 a6 f0 c2 41 53 07 68 41
       19.013926 22.42878 24.367504 14.501788
000330 af 6d c9 41 58 77 ec 41 9b f3 cf 41 bb 8f 9a 41
       25.178556 29.558273 25.993948 19.32018
000340 33 3d ca 41 a7 9e af 41 b1 f8 48 41 2f b5 98 41
       25.279882 21.952467 12.560716 19.088469
000350 8e e9 b1 41 8d 35 b6 41 db 56 af 41 f9 20 59 41
       22.23904 22.776148 21.91741 13.57055
000360 92 08 d4 41 76 ec ba 41 58 60 a5 41 66 e7 a9 41
       26.504185 23.36546 20.672043 21.237988
000370 21 50 97 40 29 17 95 41 25 18 c8 41 8e 5a 9d 41
       4.7285314 18.636309 25.01179 19.669216
000380 8f e4 d3 41 f9 97 a6 41 75 de c3 41 35 b7 c4 41
       26.4866 20.824205 24.483622 24.589457
000390 44 e5 ba 41 e6 3c 9d 41 db 6f c8 41 08 9d b8 41
       23.361946 19.654736 25.054617 23.076675
0003a0 02 ea aa 41 1d 4e 7d 41 cf e6 a4 41 4d 90 9a 41
       21.364262 15.831571 20.6127 19.32046
0003b0 9f 44 a8 41 48 3e cf 41 ca 6d ec 41 ed 5b 11 42
       21.033506 25.90541 29.553608 36.33977
0003c0 53 27 d9 41 f9 12 b9 41 5c ed ac 41 50 82 dc 41
       27.144201 23.134264 21.615898 27.56363
0003d0 da ce ed 41 da ba b7 41 91 a9 d6 41 f9 88 8b 41
       29.726002 22.966236 26.832796 17.441881
0003e0 5e 06 2b 41 b8 6d a5 41 55 ff 96 41 69 f7 1e 41
       10.6890545 20.678574 18.874674 9.935403
0003f0 4d ea 85 41 09 03 d7 41 27 9d d8 41 0c 67 ea 41
       16.739405 26.876482 27.076735 29.300316

l4/b f4 [64]
000000 24 e3 bd c2 08 e0 bd c2 0c dc bd c2 ba e2 bd c2
       -94.943634 -94.93756 -94.92978 -94.942825
000010 57 e8 bd c2 8e e4 bd c2 68 db bd c2 5f df bd c2
       -94.95379 -94.946396 -94.92853 -94.93627
000020 88 e3 bd c2 68 e6 bd c2 b9 e7 bd c2 ca e6 bd c2
       -94.9444 -94.95001 -94.95258 -94.95076
000030 d5 f3 bd c2 0d e4 bd c2 27 e9 bd c2 7e ee bd c2
       -94.976234 -94.94541 -94.955376 -94.965805
000040 e9 e7 bd c2 89 f2 bd c2 bc d9 bd c2 d2 e8 bd c2
       -94.95295 -94.9737 -94.92526 -94.95473
000050 97 e2 bd c2 87 d8 bd c2 e3 ea bd c2 39 e2 bd c2
       -94.94256 -94.922905 -94.95876 -94.94184
000060 a7 de bd c2 d2 e7 bd c2 9d f4 bd c2 cb e3 bd c2
       -94.93487 -94.952774 -94.97776 -94.94491
000070 80 ef bd c2 54 dc bd c2 2a e5 bd c2 01 ed bd c2
       -94.96777 -94.93033 -94.947586 -94.9629
000080 3b e9 bd c2 2b f2 bd c2 ab e6 bd c2 be eb bd c2
       -94.95553 -94.972984 -94.95052 -94.960434
000090 6d dd bd c2 87 d0 bd c2 cc ec bd c2 3d e9 bd c2
       -94.93247 -94.90728 -94.962494 -94.95554
0000a0 3d f0 bd c2 2d f4 bd c2 c9 de bd c2 b6 db bd c2
       -94.969215 -94.976906 -94.93513 -94.92912
0000b0 bb ea bd c2 b7 df bd c2 72 eb bd c2 e6 ef bd c2
       -94.95846 -94.93694 -94.959854 -94.96855
0000c0 4a e5 bd c2 83 f0 bd c2 d8 f9 bd c2 5c de bd c2
       -94.94783 -94.96975 -94.987976 -94.934296
0000d0 7c f3 bd c2 9e e7 bd c2 fd e3 bd c2 3e db bd c2
       -94.975555 -94.95238 -94.94529 -94.92821
0000e0 62 e5 bd c2 2d ed bd c2 e6 e5 bd c2 68 eb bd c2
       -94.94801 -94.963234 -94.94902 -94.95978
0000f0 cf eb bd c2 f7 e7 bd c2 87 db bd c2 57 e4 bd c2
       -94.96056 -94.95306 -94.928764 -94.94598

l3/W f4 [256, 256]
000000 e3 66 3c bd 2c 32 a3 40 8c f2 0d 41 f9 cd 66 41
       -0.045996558 5.0998745 8.871716 14.425286
000010 42 85 67 41 8c 78 96 40 7f 68 84 40 e6 05 1e c0
       14.470034 4.702215 4.137756 -2.46911
000020 5d 41 24 c1 fb 46 07 c1 6c 7b b4 40 40 f0 1e c1
       -10.265958 -8.454829 5.640066 -9.933655
000030 9e 04 1b c1 94 8a f8 c0 62 5d e4 40 85 24 fd c0
       -9.688627 -7.7669163 7.1363993 -7.910708
000040 7e 8a 5a 41 44 68 7b 41 ef 20 02 41 ea bd fb 40
       13.658812 15.712955 8.13304 7.866933
000050 5d b7 96 3f 70 7b 22 41 21 38 1b 41 09 b4 82 c0
       1.1774708 10.155136 9.701203 -4.084477
000060 bb 38 16 c1 ea 54 55 40 df 13 89 40 7f 34 56 c1
       -9.38885 3.3333077 4.2836757 -13.387816
000070 56 cc 7a 40 5f 19 aa 3f 5c a1 98 be 56 0f 28 41
       3.9187217 1.3288993 -0.29810607 10.503744
000080 f6 36 bd be e3 e7 2b 41 6a 66 eb 40 6b a2 f5 40
       -0.36955994 10.744113 7.3562517 7.6760764
000090 6d 53 91 c0 69 49 40 c1 eb 48 a3 bf 1c 39 9a 41
       -4.541434 -12.017922 -1.2756628 19.277885
0000a0 13 28 ff c0 a0 56 52 41 60 d0 b5 be d9 ef 5a 40
       -7.973642 13.146149 -0.3551054 3.4208891
0000b0 0e 40 1d bf 62 ef 97 41 4c f8 91 c0 2c d5 61 40
       -0.61425865 18.991886 -4.5615597 3.528636
0000c0 fe ca 7e c1 a4 da 04 3f 5b d2 1d 41 ab 48 04 c1
       -15.924559 0.5189612 9.863856 -8.267741
0000d0 74 87 45 40 c0 4d f9 40 51 ec 70 c1 6c 5c a3 c1
       3.0863924 7.790741 -15.057694 -20.420128
0000e0 d4 cb aa c0 48 ae 9c 40 50 5c 1e c1 7c 5a a5 c1
       -5.3373814 4.8962746 -9.897537 -20.669182
0000f0 8d e2 9d 41 27 3c 32 c0 a3 7b a3 40 a9 e9 60 c1
       19.73562 -2.7849214 5.1088424 -14.057046
000100 ec eb 5c 40 55 c2 1a 41 34 81 0c c1 10 1e 28 41
       3.4518995 9.672444 -8.781544 10.5073395
000110 72 77 e6 bf 65 ea c8 c1 90 16 4a 40 25 29 99 40
       -1.8005202 -25.11445 3.157627 4.7862725
000120 93 ec c0 40 0e ff 3e c1 4f 00 8f c0 3e 89 e4 40
       6.0288787 -11.937269 -4.4687877 7.141753
000130 f5 27 90 c0 88 15 09 c0 82 ff dd 40 ab 63 58 bf
       -4.5048776 -2.1419392 6.93744 -0.8452708
000140 88 14 a9 40 6d 72 c9 40 dd 3b e2 40 12 fb 51 41
       5.2837563 6.295218 7.0698075 13.123796
000150 6a d5 6f c0 f2 ba dc c0 54 c2 a0 c1 55 2d 8d 40
       -3.7474008 -6.8978205 -20.094887 4.4117837
000160 4d 49 36 c1 c0 08 b1 bf c4 8b 26 41 51 b6 73 41
       -11.392896 -1.3830795 10.409122 15.232011
000170 f0 fb 6c c1 c5 f7 f6 40 07 7d 1a 41 8d 10 16 3f
       -14.811508 7.7177453 9.655524 0.58619004
000180 da 97 f3 c0 74 85 fd bf de 04 00 c1 b9 cc 21 41
       -7.6122866 -1.9806352 -8.001188 10.112481
000190 ad f7 87 c0 ee d3 23 c1 8e 6c 49 41 17 33 0a 3e
       -4.248984 -10.239241 12.589003 0.13496052
0001a0 aa c6 63 40 8e 97 63 40 4e c4 c2 41 e6 61 c5 40
       3.5590005 3.5561252 24.345852 6.1682005
0001b0 6f bc 14 c0 c1 da 9a c0 4d d9 3b 40 7a 16 1c 40
       -2.324001 -4.8392034 2.935138 2.4388719
0001c0 56 3f eb c0 6c 45 b1 3e 15 29 77 40 7e 9d 93 c0
       -7.3514814 0.34623277 3.8618824 -4.612975
0001d0 65 2d 2b 40 f1 e7 2d 40 7b e2 ec 40 ef 10 19 41
       2.6746457 2.7172816 7.4026465 9.566634
0001e0 be 7c a5 c1 e9 3d 7b c1 77 2c 28 3f 2a 6b 56 bf
       -20.68591 -15.702615 0.6569285 -0.8375727
0001f0 d5 25 18 41 c9 11 bf 40 ee 48 45 41 6c be 18 c0
       9.509236 5.970921 12.330305 -2.3866224
000200 59 4c b7 40 96 e2 1c c1 09 11 92 bf 46 14 dd 40
       5.72807 -9.805319 -1.1411449 6.908725
000210 fa 3c f0 40 6b 1c 9f c0 de 7a b2 c0 3e ac 02 41
       7.5074434 -4.972219 -5.5774984 8.167051
000220 dc c7 32 41 9e 42 ff bf 5a f2 87 c1 47 36 20 c1
       11.173794 -1.9942205 -16.993336 -10.013251
000230 eb 04 15 41 6c 89 54 c0 a5 d9 24 41 3f f0 80 40
       9.313701 -3.3208876 10.303136 4.029327
000240 65 29 01 41 1f 9c c0 c0 64 44 47 c0 ab 85 8c c1
       8.072606 -6.0190578 -3.1135492 -17.565268
000250 c9 c0 7d 40 85 90 fe 40 62 96 bf 40 97 c2 71 c1
       3.9648917 7.9551415 5.9871073 -15.110007
000260 46 15 3b 41 2a 84 7c c1 16 8f 35 40 1a d2 1e c1
       11.692694 -15.782267 2.8368583 -9.926294
000270 a4 e7 94 bf 64 40 b8 41 fb 29 af 40 ba f6 57 40
       -1.1633191 23.03144 5.4738746 3.374434
000280 2d 33 34 c0 2c 47 2f c1 4a 18 89 c1 8e 04 84 41
       -2.8156235 -10.954876 -17.13686 16.502224
000290 39 04 28 41 c7 9c db 40 3c 85 40 c1 62 ed 23 41
       10.501031 6.862888 -12.032528 10.245455
0002a0 b2 0a 84 40 36 40 bc 40 77 b8 85 40 58 f7 46 3f
       4.1263056 5.8828382 4.1787677 0.77721167
0002b0 eb 33 ec bf 74 47 d1 40 92 92 6c 41 31 85 0e c1
       -1.8453344 6.5399723 14.785784 -8.907517
0002c0 b0 9f 44 c0 8b a1 91 40 85 8b ad 40 d1 21 9a c1
       -3.0722466 4.5509696 5.423281 -19.266512
0002d0 47 eb 13 c1 f4 53 95 41 77 fe 9e 3f bc eb ed bf
       -9.244941 18.665993 1.2421407 -1.8587565
0002e0 db d2 d6 40 5c fe 4a 40 a4 00 e5 40 f2 45 36 41
       6.713239 3.1717749 7.156328 11.3920765
0002f0 72 67 1d c0 ad db b4 40 e3 ca 54 41 66 16 aa 40
       -2.4594388 5.651816 13.299533 5.315234
000300 10 e9 94 40 53 c5 c6 41 49 92 02 41 d6 d7 61 40
       4.65345 24.84635 8.160714 3.5287986
000310 e9 4a 82 c0 e0 4e f1 40 7b 8e 3c c1 c4 8e 67 41
       -4.0716443 7.5408783 -11.784785 14.472355
000320 1c b1 cd 40 68 2c 48 c1 11 04 2c 40 cf 63 9c 41
       6.42787 -12.510841 2.6877482 19.548735
000330 48 e3 09 41 4a 86 69 40 68 87 ed 40 83 b9 58 3f
       8.617989 3.6488214 7.422779 0.8465807
000340 97 6f 4c c1 77 3c ed c0 29 f7 7d c1 9e 75 58 c0
       -12.777244 -7.413631 -15.872842 -3.3821788
000350 69 5d e1 41 a1 ad e4 40 6f 77 90 41 43 5d f5 40
       28.17061 7.146195 18.058317 7.6676345
000360 03 96 e6 40 ba f5 35 41 f9 fa 8a 40 84 47 4c 40
       7.205812 11.372492 4.3431363 3.191865
000370 a4 ac 28 c0 fd 79 87 c0 68 d2 a1 40 6d c9 8c 3f
       -2.6355371 -4.233641 5.0569344 1.099897
000380 77 6d e1 40 f5 74 42 c1 5b 3c 57 c1 f9 60 2a c1
       7.0446124 -12.153554 -13.452235 -10.648675
000390 cb ff 86 40 41 37 43 41 2a 33 a4 40 77 29 aa 3f
       4.2187247 12.20099 5.1312456 1.3293904
0003a0 05 33 83 3e e0 42 01 41 b5 d3 7d c0 d2 42 16 41
       0.25624862 8.078827 -3.9660466 9.391314
0003b0 a9 de b5 40 e5 8c 19 c1 3d fe b9 c0 0a 0e ad c1
       5.68343 -9.596898 -5.812285 -21.631855
0003c0 98 29 32 c1 3d 61 8d 40 d2 bf f3 40 26 14 aa 41
       -11.135155 4.41812 7.6171656 21.259838
0003d0 6e 32 43 41 22 58 33 40 ca 7d 00 40 db a3 9c bf
       12.199812 2.8022542 2.0076776 -1.2237505
0003e0 b0 c4 c4 c0 2d d2 4b 41 a1 da 83 40 4d 6f 78 c0
       -6.1490097 12.738812 4.120438 -3.8817933
0003f0 e1 67 79 41 0e c6 c7 40 a3 c1 70 41 aa 51 c8 40
       15.587861 6.2429266 15.047275 6.2599688

l3/b f4 [256]
000000 98 b2 ac 3f 2f c2 83 40 a5 4d a2 3e a7 fb 85 40
       1.3492002 4.117454 0.31699863 4.1869693
000010 4d f2 52 41 0d 4b 33 41 73 ee fd 3e ef cd a8 40
       13.184155 11.205823 0.49595985 5.2751384
000020 2e f2 12 40 4d c2 b4 c0 3e 83 38 c0 59 b6 00 41
       2.2960315 -5.6487184 -2.8830104 8.044518
000030 c5 5d ce bf ad ce 9e c0 1d d2 d3 be 63 2b 04 41
       -1.6122366 -4.962729 -0.4137124 8.260592
000040 37 ae 66 40 71 c9 a1 bf 52 33 7e 40 aa c5 8b 40
       3.6043832 -1.26396 3.9718823 4.367879
000050 00 31 b8 bf 3d 2f 1c c0 59 1b 86 41 3d a5 85 40
       -1.4389954 -2.4403832 16.763353 4.1764207
000060 67 6c 2c c0 e7 d9 9b 40 c0 d0 16 40 8d 76 a0 40
       -2.6941164 4.8703494 2.356491 5.0144715
000070 41 8e 04 c0 92 5f e7 3f 96 b4 41 40 88 3d d4 be
       -2.0711825 1.8076041 3.026647 -0.41453195
000080 b2 8b ee 3e 0c 67 b9 40 10 09 98 40 60 b8 4c 42
       0.46590954 5.793829 4.7511063 51.180054
000090 9f 63 2f 3f a0 ba 86 be 7f 56 6f bf ab 65 0b 40
       0.68511385 -0.2631426 -0.9349136 2.1780803
0000a0 74 4c 12 41 a1 91 28 40 42 9f 7c 40 68 f5 dd 40
       9.143665 2.6338885 3.9472203 6.936207
0000b0 25 e4 10 bf 2e 89 af 40 8d c7 9c 41 ec 7c c2 40
       -0.5659812 5.4854956 19.597437 6.0777493
0000c0 f5 8a 86 40 86 71 a9 3f f4 d5 5f 40 36 04 0e 40
       4.2044625 1.323777 3.4974337 2.219007
0000d0 ac e4 9a bf 4d c0 8f 3f 0a 32 d1 3f 78 1a 9b 40
       -1.2101035 1.123056 1.6343396 4.846981
0000e0 f9 1c 88 c0 ea ed 1c 3f 6b 6a 91 3f 11 9f 13 40
       -4.2535367 0.6130053 1.1360601 2.3065836
0000f0 58 71 59 41 0f fe f1 3e 00 52 24 bf 5e 18 f9 3f
       13.590172 0.47264144 -0.6418762 1.9460561
000100 de 95 42 be c4 d3 67 40 dd 60 45 40 ac b5 93 40
       -0.19002482 3.6223001 3.084037 4.6159267
000110 7d 93 86 40 9f e3 bb 40 ab bd 84 40 90 08 23 bf
       4.205504 5.871536 4.148153 -0.6368494
000120 b4 86 86 c0 02 08 2f 40 66 43 f1 40 4b 1f 85 40
       -4.2039433 2.7348638 7.5394773 4.16007
000130 c9 c8 71 40 d3 11 e5 bf 4a ed 82 40 ab 78 3f c0
       3.77788 -1.7896065 4.091466 -2.99174
000140 f0 da 9a 40 bb 78 63 40 cb bc 7c bf 25 f5 d4 40
       4.839226 3.5542438 -0.98725575 6.654925
000150 a0 07 a2 40 13 4d a2 41 3a 4c 01 40 8a 0d c7 3f
       5.063431 20.287634 2.0202775 1.5551007
000160 99 9b 5e 40 1c 25 c2 3e 52 be 82 40 85 fa 9d 40
       3.478247 0.37918937 4.0857325 4.936831
000170 1c ee 43 3f 90 c3 6f 40 96 9f de 40 4a c7 fe 40
       0.765352 3.7463112 6.9569807 7.9618273
000180 7d c6 61 41 0d 5a 80 40 09 1e ff bf 59 98 b6 c0
       14.110959 4.0109925 -1.9931041 -5.706097
000190 80 96 02 40 93 1a 96 be a7 51 97 3f 1f 4a 54 40
       2.0404358 -0.2931715 1.1821793 3.317024
0001a0 b3 19 ea c0 de c8 ed 3f eb a1 5f 40 a9 33 a6 41
       -7.315637 1.8576925 3.4942577 20.775225
0001b0 22 5c 89 3f c4 91 47 40 9c c4 90 c0 f0 eb b9 3d
       1.0731242 3.1182718 -4.524 0.09078205
0001c0 2c 36 12 41 8a af 15 40 7c 9d 93 41 40 e9 f2 40
       9.138226 2.338839 18.451897 7.590973
0001d0 9e 28 94 41 0b 3b 2d 40 8b 82 ba 3e 27 e0 03 c0
       18.519833 2.7067287 0.3642772 -2.0605562
0001e0 a0 81 83 3f 44 e0 d0 40 a8 07 d0 bf d7 49 ca 40
       1.0273933 6.527376 -1.6252337 6.3215137
0001f0 ae d2 80 bf 66 c6 a2 c0 48 59 3e 3f a6 c5 c3 40
       -1.0064294 -5.0867186 0.7435498 6.117877
000200 94 5f 11 40 68 17 8f 40 d4 c6 f8 3e 6c 9d 29 c0
       2.2714586 4.471607 0.48589194 -2.6502333
000210 58 a0 c5 40 14 fa 91 c0 85 fd c8 40 73 72 92 41
       6.175823 -4.561777 6.280947 18.305883
000220 e5 3e af bf d2 f7 02 40 1d 4e 2f 40 68 83 1b c0
       -1.3691069 2.0463758 2.7391427 -2.4298954
000230 86 13 63 bf d2 d3 51 40 4f 19 4c bf ba 06 a2 40
       -0.88701665 3.2785535 -0.7972612 5.063321
000240 f4 05 e4 40 bc d3 5d bf 7a 60 4a 40 6d 30 9c c0
       7.1257267 -0.86651206 3.1621385 -4.8809114
000250 de 22 5d 40 ff 46 76 40 84 a3 08 41 31 11 47 40
       3.4552531 3.8480833 8.539921 3.1104243
000260 55 ff 8b 40 da 49 e4 bd 0e 96 23 41 d9 2e ab 40
       4.3749185 -0.111468986 10.224134 5.3494687
000270 ff 6d 98 bd c8 d5 c1 bf 44 57 86 bf 46 fa 73 40
       -0.07442855 -1.5143366 -1.0495381 3.8121505
000280 7e 2d 43 40 97 dc c1 41 8c 75 3e bf 20 ba 00 41
       3.0496516 24.23271 -0.7439811 8.045441
000290 67 d5 e5 40 8c df 85 40 da 9f ad 40 c5 55 0d 40
       7.1823 4.1835384 5.425763 2.20836
0002a0 3a b3 af 40 e8 ee c1 41 38 bf d5 40 b6 19 6f 40
       5.4906282 24.241653 6.679592 3.7359443
0002b0 27 34 60 40 51 5c 67 3c e2 68 05 41 9d 23 38 41
       3.5031831 0.014121131 8.338106 11.508695
0002c0 bc 5d 7c 40 b5 c8 d1 40 64 85 13 bf 8f a5 86 40
       3.943221 6.5557504 -0.5762541 4.20771
0002d0 3f 6a 07 41 e7 1a d7 40 45 eb 76 41 d7 13 7c 40
       8.463439 6.722034 15.432439 3.938711
0002e0 60 73 4a 3f ce e1 ca 40 ce d0 5a 40 d7 79 3a c0
       0.790823 6.340064 3.4189944 -2.9136865
0002f0 78 6f 0f 40 28 6d 62 3f 77 f3 54 40 7f 08 9b 40
       2.2411785 0.8844781 3.32736 4.844787
000300 ae 6e b5 40 42 83 a3 c0 41 2e 90 41 1b d7 3c 40
       5.6697607 -5.1097727 18.022585 2.950629
000310 c9 d0 dd bf 47 5f 24 41 df 2d ab 3f fd 2d a8 40
       -1.7329341 10.273261 1.3373374 5.255614
000320 ec 4e 89 c0 2a 7d 79 c0 51 95 4b bf d8 62 04 41
       -4.290884 -3.8982644 -0.79524714 8.274132
000330 fa 8d e2 3f 44 f4 6b 40 d3 04 c5 40 42 50 a2 41
       1.7699578 3.6867838 6.156839 20.289188
000340 2b ea 2b 40 95 b2 4e 40 5f 49 9a 41 eb d8 ec 40
       2.6861675 3.2296498 19.285826 7.4014792
000350 5c ad d1 40 6a 69 8f 40 e8 c6 9e 40 69 64 85 41
       6.552412 4.481618 4.9617805 16.674028
000360 cd 58 0c 41 4c eb 3c 3e df d8 aa 3f 78 a8 69 40
       8.77168 0.18449134 1.3347434 3.6509075
000370 a0 db 32 42 82 ab dd 40 0e 10 88 3b 88 83 4f c0
       44.714478 6.927186 0.0041523045 -3.242403
000380 84 35 c1 40 41 16 ee 3f 7c 16 15 40 c5 2f 23 41
       6.0377827 1.8600541 2.3294973 10.1991625
000390 1e 88 77 c0 4c 61 2e bf bf da 52 40 2a 09 20 c0
       -3.867683 -0.68117213 3.2946012 -2.5005593
0003a0 63 eb b2 40 51 f2 d6 3f 66 48 00 3f 3a 75 0c c0
       5.5912337 1.6792699 0.5011047 -2.194655
0003b0 71 c6 9b 40 5a e8 01 c0 cd 76 fd 3f c6 56 c5 40
       4.867974 -2.0298066 1.980188 6.1668425
0003c0 a5 aa 7e c0 2b 53 a7 40 98 87 d8 40 b1 6e 8b 40
       -3.9791653 5.2289023 6.766552 4.357262
0003d0 68 af 59 40 d3 73 12 40 9b 78 92 be f4 b5 b9 40
       3.401331 2.2883193 -0.2860764 5.803461
0003e0 a7 c1 91 41 28 b9 2c 40 5d e2 b6 3f f1 9f 16 42
       18.219557 2.698801 1.428783 37.656193
0003f0 d6 db 04 41 15 07 cf 3f 33 fa 67 40 b4 1b 4c 40
       8.303671 1.6174036 3.624646 3.1891909
