size8/agent_white_73000/model.npz (npz, 608982 bytes, 8 tensors)

l2/W f4 [256, 256]
8.864438 -17.961227 -16.950636 -7.9381237 -2.702856 8.7031145 17.719296 3.0186448
8.014493 5.902298 3.9170268 14.933064 1.3689624 3.2786427 -27.918406 3.6068094
8.907308 -0.09476172 -20.015648 -5.143314 -18.691347 5.0662236 8.414758 -3.8389616
3.314765 -2.3102872 -21.571867 -8.669546 28.654612 26.498611 2.502049 -1.7897778
-16.87632 -10.571344 -1.6202725 3.8331845 11.131103 11.912668 -23.95643 18.43353
-17.402954 -15.515231 -2.45695 -31.471298 -6.4357185 13.156246 13.312926 6.8184037
-6.574312 -29.156439 -1.1631134 7.1214604 4.746502 -25.700346 -7.773003 3.9503288
-7.4034977 -7.3114653 8.62304 -2.7193708 -15.266385 7.196096 3.426826 -10.582969
-0.36530483 -22.05517 -41.4384 -14.839641 -8.533875 8.009461 9.716107 14.896524
13.953379 12.612717 -8.750204 3.0498583 -5.4784117 -9.03465 9.370885 9.696223
7.4810686 -11.930328 5.559709 -9.521632 9.644933 9.672869 -11.405989 6.368441
16.512936 -16.300526 0.99700576 6.7296834 -24.67216 12.076227 6.5473847 1.2681985
-19.947325 -7.452318 5.3300066 -9.897192 -6.223811 -37.021587 -7.8151464 -8.480196
1.8616128 -17.01604 -3.8147798 -40.37974 10.377376 -33.03681 -4.1491413 7.423886
-10.557131 -13.608432 0.58134156 -12.39742 2.4977949 -15.983884 -9.394172 -8.014791
-6.4411607 -24.936304 -4.8913574 -44.23195 1.7362154 -6.230056 -8.271051 -7.2685657
3.7052112 -37.76377 4.40225 8.188945 5.7341533 10.76957 8.614488 18.404366
-41.37241 -18.666277 17.091476 -13.616447 -12.451329 -0.57764757 -1.3415537 13.39044
-8.985368 -24.042475 23.187916 3.4348733 11.867447 0.5138602 -4.4025908 6.5980663
0.10045508 -15.185077 -3.095177 8.610599 -3.9039152 -8.58657 -1.4040227 -2.9054089
-0.2695926 -4.562453 10.177041 14.230239 -6.517881 -28.624195 11.783459 1.9810821
-16.901793 -0.04568473 -17.814732 -2.0944455 5.2668467 4.9840803 -33.399273 -9.785022
-1.6345174 7.831054 3.41685 4.1241984 -14.810173 32.1244 -15.750789 7.7234445
9.909227 -22.921404 3.243496 -1.1092917 -17.487572 13.939804 10.031551 10.448077
2.8423057 11.725209 7.7164807 -8.198196 8.140715 5.667545 10.01627 15.77178
-10.8181 -17.54082 -39.601463 -10.6654005 -10.416031 -18.260885 -7.7303166 -11.840392
9.392619 -7.20834 -37.988636 1.6012722 -1.8648053 -6.4298935 -39.95526 -14.25643
6.7729087 -3.6524203 -15.522544 -11.525714 0.7602507 -2.3912613 4.10303 -13.501842
-16.875134 -27.85152 -0.61686504 -26.365667 3.9398808 -31.713459 16.950113 -0.26373827
4.6963997 -14.703907 12.472451 -10.256441 -7.908127 7.4313087 -12.472784 -4.1629734
-0.6621144 3.758604 -5.5675306 2.4074378 -30.150982 -21.858812 -0.089219555 -32.87451
24.639114 29.6871 7.0598435 6.002069 -5.8338494 -17.036991 4.3934813 20.112785
00000000: bdd4 0d41 98b0 8fc1 e79a 87c1 1c05 fec0
00000010: 98fb 2cc0 f53f 0b41 1ec1 8d41 7a31 4140
00000020: 5d3b 0041 a0df bc40 91b0 7a40 d5ed 6e41
00000030: 293a af3f 48d5 5140 e558 dfc1 f7d5 6640
00000040: 5584 0e41 6f12 c2bd 0c20 a0c1 0796 a4c0
00000050: e187 95c1 811e a240 d9a2 0641 8cb1 75c0
00000060: 1c25 5440 bfdb 13c0 2f93 acc1 76b6 0ac1
00000070: a53c e541 28fd d341 9221 2040 7017 e5bf
00000080: b402 87c1 3a24 29c1 1765 cfbf e552 7540
00000090: ff18 3241 4a9a 3e41 c5a6 bfc1 df77 9341
000000a0: 4039 8bc1 633e 78c1 ab3e 1dc0 38c5 fbc1
000000b0: 68f1 cdc0 fc7f 5241 bf01 5541 5d30 da40
000000c0: c460 d2c0 6340 e9c1 e6e0 94bf 01e3 e340
000000d0: 58e3 9740 4f9a cdc1 71bc f8c0 30d2 7c40
000000e0: 74e9 ecc0 86f7 e9c0 f9f7 0941 2c0a 2ec0
000000f0: 1d43 74c1 6b46 e640 1e51 5b40 d753 29c1
00000100: 3c09 bbbe fd70 b0c1 ecc0 25c2 2b6f 6dc1
00000110: c18a 08c1 c126 0041 2d75 1b41 2a58 6e41
00000120: 0a41 5f41 b0cd 4941 d600 0cc1 e130 4340
00000130: 264f afc0 ed8d 10c1 25ef 1541 bb23 1b41
00000140: ea64 ef40 a0e2 3ec1 23e9 b140 9b58 18c1
00000150: a551 1a41 12c4 1a41 ee7e 36c1 45ca cb40
00000160: 7e1a 8441 7a67 82c1 c53b 7f3f 9159 d740
00000170: 9560 c5c1 3a38 4141 2d84 d140 5454 a23f
00000180: 1f94 9fc1 6479 eec0 6a8f aa40 e65a 1ec1
00000190: 7629 c7c0 1b16 14c2 ae15 fac0 e2ae 07c1
000001a0: 5449 ee3f da20 88c1 5a25 74c0 db84 21c2
000001b0: bb09 2641 b225 04c2 c4c5 84c0 7990 ed40
000001c0: 02ea 28c1 23bc 59c1 cdd2 143f d55b 46c1
000001d0: dfdb 1f40 fdbd 7fc1 874e 16c1 953c 00c1
000001e0: fd1d cec0 8d7d c7c1 0086 9cc0 84ed 30c2
000001f0: 4e3c de3f 9e5c c7c0 3a56 04c1 1798 e8c0
00000200: 2e22 6d40 1a0e 17c2 3bdf 8c40 eb05 0341
00000210: 2f7e b740 2950 2c41 f1d4 0941 243c 9341
00000220: 597d 25c2 8954 95c1 58bb 8841 f8dc 59c1
00000230: a538 47c1 b6e0 13bf 08b8 abbf 3e3f 5641
00000240: 11c4 0fc1 fd56 c0c1 da80 b941 f7d4 5b40
00000250: 10e1 3d41 588c 033f 06e2 8cc0 5c23 d340
00000260: 65bb cd3d 13f6 72c1 6117 46c0 03c5 0941
00000270: bfd9 79c0 9762 09c1 04b7 b3bf 38f2 39c0
00000280: 0b08 8abe 9dff 91c0 29d5 2241 0faf 6341
00000290: 7b92 d0c0 5afe e4c1 0c89 3c41 1994 fd3f
000002a0: df36 87c1 e91f 3bbd 9284 8ec1 650b 06c0
000002b0: 028a a840 967d 9f40 db98 05c2 738f 1cc1
000002c0: de37 d1bf ff97 fa40 acad 5a40 6ff9 8340
000002d0: 78f6 6cc1 637f 0042 3b03 7cc1 7526 f740
000002e0: 328c 1e41 095f b7c1 7095 4f40 45fd 8dbf
000002f0: 8ce6 8bc1 7009 5f41 3c81 2041 532b 2741
00000300: 56e8 3540 759a 3b41 69ed f640 d02b 03c1
00000310: 5e40 0241 875c b540 a442 2041 3659 7c41
00000320: f016 2dc1 9953 8cc1 e667 1ec2 7ba5 2ac1
00000330: 10a8 26c1 4b16 92c1 c15e f7c0 3f72 3dc1
00000340: 2b48 1641 b9aa e6c0 5df4 17c2 7df6 cc3f
00000350: f1b1 eebf b0c1 cdc0 30d2 1fc2 561a 64c1
00000360: abbb d840 41c1 69c0 575c 78c1 5369 38c1
00000370: ca9f 423f 6d0a 19c0 064c 8340 8b07 58c1
00000380: 4600 87c1 eacf dec1 deea 1dbf e3ec d2c1
00000390: 0227 7c40 2ab5 fdc1 d599 8741 b408 87be
000003a0: e848 9640 3443 6bc1 298f 4741 621a 24c1
000003b0: 600f fdc0 48cd ed40 8690 47c1 1437 85c0
000003c0: 5480 29bf f88c 7040 3629 b2c0 7613 1a40
000003d0: 3635 f1c1 d9de aec1 beb8 b6bd 807f 03c2
000003e0: e81c c541 2e7f ed41 3dea e140 f310 c040
000003f0: e5ae bac0 c24b 88c1 6697 8c40 fce6 a041

l2/b f4 [256]
12.730001 4.47138 3.524701 14.741855 5.7176576 13.150208 0.2618789 0.8185111
11.635025 3.4623015 5.141352 9.986328 2.8485043 2.416612 4.485766 -0.5766506
-0.039473083 6.6874466 6.025305 -2.2827408 3.4190903 12.939313 16.631718 5.313487
0.42373195 -1.4772304 6.991728 4.76072 4.199573 -0.19179095 12.8725605 5.5653725
12.529629 4.479091 7.5177336 0.67982066 -0.99311334 5.779525 -3.8508465 8.843671
6.10219 6.174847 8.317466 -1.0638605 11.29514 12.26652 -4.3042455 8.747554
-3.4959807 1.8120023 13.673954 -3.3621843 11.27818 9.960068 6.0050063 -0.7928043
-0.64851725 9.2485075 5.028815 4.3244166 5.2040153 -0.68755496 1.5636116 -0.038662437
5.386272 0.15121207 5.1795754 11.074161 -2.882029 -4.3945284 4.810329 5.707424
5.262662 2.4573154 -6.1416593 9.255695 1.7270768 -2.0010118 9.592638 6.823857
10.55199 8.261612 11.97478 7.983514 8.783555 -2.4097075 2.2639117 -5.140092
-7.2675247 4.0566716 -2.2856445 7.037291 -7.8164754 10.958145 -0.93204814 -4.7046413
0.96646196 3.8690448 2.2053688 -0.52294695 12.1250305 5.533242 4.1764927 5.1530433
1.7300564 7.978619 -1.0837262 -1.2636263 15.542549 10.901866 3.1396153 8.340188
7.7662206 11.656668 -2.57966 10.430134 9.926243 8.267115 0.6983403 11.183344
11.676201 16.191185 1.757777 10.196054 12.2898035 6.252516 11.272066 7.7011876
-0.04352112 9.280591 -2.3636422 5.775969 9.461339 12.949261 5.175889 -0.670957
10.562478 9.675524 2.4846518 14.53168 5.812366 -4.232651 10.870368 10.287091
9.094515 -4.5731826 -6.3464046 6.3026514 3.566394 -2.40969 11.7595 0.9737976
11.57129 3.0593278 4.1057706 -1.277804 5.3165345 7.9593945 8.310703 -6.7824645
10.05419 7.530828 -6.4143257 2.5977533 5.012913 0.9163757 -3.9555135 9.476001
10.1582775 4.5598907 14.971424 7.9285617 7.487335 3.5671194 -5.327054 4.6793084
-0.85185677 6.989539 -0.72997874 5.199526 5.425741 11.4513035 -3.0905359 2.3461652
6.2186565 5.088117 1.06761 10.143323 4.95264 10.3041 4.301274 4.1306934
8.064263 5.8585105 9.6036 6.671903 3.034756 6.754721 -0.528289 6.7043633
11.399526 8.769495 12.014905 7.3929334 10.065892 12.340429 -1.3927398 -1.5544229
3.333758 14.459861 10.7318535 5.346127 8.622374 8.755414 10.563446 8.85914
-2.0152657 13.117978 9.854542 4.862589 7.1330795 12.606208 6.4266567 8.618318
9.314607 5.9369717 1.5054969 10.794683 -4.326347 15.910763 7.993869 8.009959
-3.5333157 -0.8670448 -0.3617733 0.536126 10.829978 0.8382158 4.433742 -2.3896406
-3.0622852 -0.9694995 6.522789 14.688201 0.14963502 -2.1510344 4.7811494 -0.5311238
7.4605994 7.147938 10.185987 11.6089115 7.463708 10.3829365 11.399043 4.8690104
00000000: 16ae 4b41 8c15 8f40 b494 6140 a3de 6b41
00000010: 0df7 b640 4167 5241 fe14 863e f289 513f
00000020: 1029 3a41 5996 5d40 f585 a440 00c8 1f41
00000030: e54d 3640 c5a9 1a40 658b 8f40 609f 13bf
00000040: 87ae 21bd 90ff d540 4ccf c040 6d18 12c0
00000050: 60d2 5a40 6d07 4f41 c20d 8541 1608 aa40
00000060: 65f3 d83e e315 bdbf 3cbc df40 d157 9840
00000070: e762 8640 d964 44be 02f6 4d41 8817 b240
00000080: 5c79 4841 b754 8f40 4691 f040 ba08 2e3f
00000090: ad3c 7ebf def1 b840 4574 76c0 ad7f 0d41
000000a0: 2445 c340 5998 c540 5714 0541 952c 88bf
000000b0: e5b8 3441 aa43 4441 61bc 89c0 fbf5 0b41
000000c0: 26be 5fc0 b1ef e73f 84c8 5a41 072e 57c0
000000d0: 6d73 3441 705c 1f41 0329 c040 39f5 4abf
000000e0: 3a05 26bf e3f9 1341 0dec a040 9f61 8a40
000000f0: 4b87 a640 9a03 30bf 6d24 c83f 815c 1ebd
00000100: 575c ac40 56d7 1a3e 15bf a540 c32f 3141
00000110: 2a73 38c0 fa9f 8cc0 37ee 9940 38a3 b640
00000120: ba67 a840 a844 1d40 7988 c4c0 5417 1441
00000130: da10 dd3f 9410 00c0 727b 1941 095d da40
00000140: f3d4 2841 902f 0441 b398 3f41 f278 ff40
00000150: 7189 0c41 a638 1ac0 eee3 1040 a27b a4c0
00000160: 908f e8c0 41d0 8140 0048 12c0 7d31 e140
00000170: 9120 fac0 9054 2f41 b59a 6ebf 6c8c 96c0
00000180: 0d6a 773f 6e9e 7740 c324 0d40 dadf 05bf
00000190: 2000 4241 5210 b140 d4a5 8540 bbe5 a440
000001a0: 7d72 dd3f d950 ff40 8ab7 8abf 82be a1bf
000001b0: 48ae 7841 0b6e 2e41 75ef 4840 6971 0541
000001c0: e184 f840 b681 3a41 2619 25c0 d4e1 2641
000001d0: e4d1 1e41 1a46 0441 6ec6 323f faee 3241
000001e0: b8d1 3a41 8c87 8141 d6fe e03f 0a23 2341
000001f0: 09a3 4441 9c14 c840 625a 3441 2170 f640
00000200: 3443 32bd 4d7d 1441 ea45 17c0 bdd4 b840
00000210: a561 1741 2c30 4f41 e2a0 a540 d7c3 2bbf
00000220: e9ff 2841 f2ce 1a41 8904 1f40 c381 6841
00000230: e7fe b940 e171 87c0 07ed 2d41 ed97 2441
00000240: 2283 1141 8357 92c0 bf15 cbc0 52af c940
00000250: cd3f 6440 5c38 1ac0 e926 3c41 cd4a 793f
00000260: 0124 3941 07cc 4340 7962 8340 158f a3bf
00000270: 0d21 aa40 5cb3 fe40 a4f8 0441 f309 d9c0
00000280: f6dd 2041 8bfc f040 2842 cdc0 9741 2640
00000290: c969 a040 9997 6a3f 2227 7dc0 b39d 1741
000002a0: 4e88 2241 a0ea 9140 f48a 6f41 c7b6 fd40
000002b0: 4098 ef40 af4b 6440 3a77 aac0 e5bc 9540
000002c0: 4913 5abf 4eaa df40 e3df 3abf 8462 a640
000002d0: ac9f ad40 8a38 3741 57cb 45c0 9227 1640
000002e0: 3cff c640 dbd1 a240 72a7 883f 0d4b 2241
000002f0: 077c 9e40 98dd 2441 09a4 8940 a42e 8440
00000300: 3907 0141 eb78 bb40 58a8 1941 3b80 d540
00000310: 7139 4240 ad26 d840 f33d 07bf 258a d640
00000320: 7564 3641 da4f 0c41 0d3d 4041 e992 ec40
00000330: e50d 2141 6672 4541 4c45 b2bf 54f7 c6bf
00000340: 4b5c 5540 975b 6741 acb5 2b41 7913 ab40
00000350: 3ef5 0941 2d16 0c41 e003 2941 0abf 0d41
00000360: 1dfa 00c0 3de3 5141 34ac 1d41 549a 9b40
00000370: 3042 e440 07b3 4941 2ca7 cd40 a1e4 0941
00000380: a108 1541 acfb bd40 1fb4 c03f 06b7 2c41
00000390: 6f71 8ac0 7c92 7e41 c6cd ff40 cb28 0041
000003a0: d821 62c0 a6f6 5dbf 5a3a b9be 8e3f 093f
000003b0: 9747 2d41 5095 563f 37e1 8d40 dfef 18c0
000003c0: 7bfc 43c0 1f31 78bf b0ba d040 df02 6b41
000003d0: ec39 193e 8caa 09c0 2dff 9840 bbf7 07bf
000003e0: 3bbd ee40 e8bb e440 cef9 2241 1abe 3941
000003f0: b2d6 ee40 8220 2641 7b62 3641 efce 9b40

l1/W f4 [256, 64]
52.707966 -7.107919 -28.665472 17.50837 19.863222 -0.8776343 -2.5783489 -4.621507
0.9962773 8.228154 -17.994066 8.378135 -23.308674 16.75597 3.3997624 -19.619272
1.7170986 5.513548 0.58527035 -7.7132297 -5.5597486 -6.891788 25.280893 10.934271
10.698491 -4.240483 19.403906 -9.616802 -8.604293 16.592386 11.425465 0.6141872
-3.6858335 -1.0413951 5.5623918 -14.811826 3.7955828 -1.5233922 -5.604215 18.74394
-0.84890306 6.2962127 -5.1726274 18.127682 7.02463 -0.26437524 3.065565 -15.912646
4.4914684 17.689762 6.382728 12.370887 10.102851 -3.4886854 -3.1448271 7.7671065
21.966145 -3.2869213 -6.367344 -7.0274987 5.9822574 0.965456 -21.12757 -33.857983
31.926746 -15.5128565 15.585206 4.144595 6.6856265 -31.238329 -1.4500716 0.7476198
-25.183374 5.296656 8.385925 -13.325613 -7.0217333 -20.052237 8.178518 -10.237399
21.183601 -17.192589 5.843392 -4.332036 8.601647 4.7612348 19.387602 -20.426973
5.4656916 -3.1457088 2.1980226 -0.75987726 5.377392 -9.719863 -16.059029 -13.184608
8.16716 4.8624554 14.95806 -1.3783399 -0.7902223 -7.5028105 22.710407 -2.4526126
4.0295568 -14.530352 14.3780365 6.1068234 -3.8238826 14.470905 13.197711 -5.9080186
-0.04617493 -11.098727 3.7396295 -41.26997 -4.2178926 2.073258 24.591908 -20.603437
15.02423 7.755607 -18.781942 -25.518045 26.597216 1.484201 -5.226828 2.1386428
-2.9323702 13.00602 14.266143 15.979447 10.016392 17.495033 12.424071 0.7437135
17.834711 2.8070757 -5.563568 1.6508911 4.3200145 26.466661 14.899128 2.2297328
5.9918766 5.8455667 -13.484706 2.314028 1.336615 9.977086 17.101511 -18.742577
37.243313 -16.157555 2.2740624 3.2987297 3.5734336 11.710014 -6.860198 -12.859142
-17.255571 4.789144 -26.089893 1.1955178 9.626921 -1.9638954 -16.445982 -31.4368
-12.04424 -11.690145 0.8461653 3.8856735 2.1209261 -9.872645 2.8326051 -26.514563
-15.823294 -27.894323 -5.2405586 6.840285 20.35552 -10.9427395 -1.5382417 -32.34837
-4.5551343 -5.6958127 -6.135981 17.36032 -16.144167 -12.571832 1.2332383 -12.857544
-21.699371 12.458251 -4.742786 8.05686 1.3480211 -0.1120119 15.346199 -12.555176
3.3374164 -40.436375 2.4021633 5.157302 -14.743878 1.551106 6.2967052 -0.3067599
4.4530015 -14.816099 -0.10711137 -2.615579 17.505136 -2.097234 18.024984 -17.715572
2.3884065 3.1970377 10.060645 0.1675057 -0.22931993 3.8953686 -0.14295156 -3.8399677
-15.578339 15.576528 18.850958 -0.9979689 -2.1117368 -0.41288602 -11.515901 -3.8175163
20.741243 -6.251993 -13.627198 -17.427563 -1.1280674 19.418282 1.305194 -29.587141
-4.8912983 -17.396072 -0.14959483 -34.118305 -3.9497387 24.188877 20.748169 -3.6886768
-25.677763 17.563244 -39.06999 -7.4331193 -32.943172 2.3054981 34.53941 -3.6893065
00000000: f5d4 5242 1374 e3c0 e352 e5c1 2411 8c41
00000010: e1e7 9e41 a4ac 60bf ab03 25c0 63e3 93c0
00000020: 070c 7f3f 85a6 0341 d9f3 8fc1 d70c 0641
00000030: 2a78 bac1 3a0c 8641 b595 5940 45f4 9cc1
00000040: e3c9 db3f fc6e b040 47d4 153f c7d2 f6c0
00000050: 76e9 b1c0 8789 dcc0 453f ca41 c6f2 2e41
00000060: 052d 2b41 09b2 87c0 333b 9b41 6cde 19c1
00000070: 2fab 09c1 35bd 8441 b4ce 3641 5f3b 1d3f
00000080: b2e4 6bc0 6f4c 85bf 1dff b140 3dfd 6cc1
00000090: d4ea 7240 84fe c2bf bb55 b3c0 97f3 9541
000000a0: b651 59bf 937a c940 2a86 a5c0 7e05 9141
000000b0: c5c9 e040 315c 87be 3832 4440 339a 7ec1
000000c0: 1cba 8f40 a284 8d41 4f3f cc40 27ef 4541
000000d0: 47a5 2141 9f46 5fc0 d944 49c0 238c f840
000000e0: aaba af41 eb5c 52c0 48c1 cbc0 45e1 e0c0
000000f0: a76e bf40 2028 773f 4305 a9c1 936e 07c2
00000100: fa69 ff41 a934 78c1 015d 7941 86a0 8440
00000110: a7f0 d540 19e8 f9c1 f29b b9bf 0364 3f3f
00000120: 8d77 c9c1 357e a940 c02c 0641 b635 55c1
00000130: 0ab2 e0c0 fb6a a0c1 36db 0241 63cc 23c1
00000140: 0478 a941 6c8a 89c1 11fd ba40 0aa0 8ac0
00000150: 59a0 0941 095c 9840 cf19 9b41 716a a3c1
00000160: f2e6 ae40 4b53 49c0 67ac 0c40 5187 42bf
00000170: 9813 ac40 8f84 1bc1 e478 80c1 28f4 52c1
00000180: b0ac 0241 3c99 9b40 3754 6f41 716d b0bf
00000190: 024c 4abf 0617 f0c0 eaae b541 9bf7 1cc0
000001a0: 21f2 8040 527c 68c1 700c 6641 196b c340
000001b0: 7eba 74c0 d488 6741 d329 5341 7d0e bdc0
000001c0: ec21 3dbd 6394 31c1 1756 6f40 7314 25c2
000001d0: faf8 86c0 42b0 0440 3abc c441 d7d3 a4c1
000001e0: 3f63 7041 ef2d f840 6b41 96c1 f524 ccc1
000001f0: 19c7 d441 4cfa bd3f 2d42 a7c0 86df 0840
00000200: f4ab 3bc0 a818 5041 1f42 6441 d1ab 7f41
00000210: 2443 2041 d4f5 8b41 ffc8 4641 0264 3e3f
00000220: 7dad 8e41 21a7 3340 c008 b2c0 6650 d33f
00000230: 8f3d 8a40 b9bb d341 d462 6e41 f1b3 0e40
00000240: 74bd bf40 e20e bb40 5bc1 57c1 0919 1440
00000250: 3316 ab3f 25a2 1f41 e5cf 8841 ccf0 95c1
00000260: 27f9 1442 ac42 81c1 3d8a 1140 631e 5340
00000270: 23b3 6440 385c 3b41 be86 dbc0 0cbf 4dc1
00000280: 690b 8ac1 ab40 9940 1ab8 d0c1 ba06 993f
00000290: de07 1a41 ed60 fbbf 5f91 83c1 917e fbc1
000002a0: 35b5 40c1 d50a 3bc1 4a9e 583f e0ae 7840
000002b0: 41bd 0740 5bf6 1dc1 6749 3540 d31d d4c1
000002c0: 362c 7dc1 9327 dfc1 a8b2 a7c0 9de3 da40
000002d0: 1bd8 a241 7615 2fc1 1be5 c4bf bb64 01c2
000002e0: a9c3 91c0 1944 b6c0 f559 c4c0 efe1 8a41
000002f0: 4127 81c1 3926 49c1 c1da 9d3f 80b8 4dc1
00000300: 5098 adc1 ff54 4741 e7c4 97c0 e6e8 0041
00000310: f58b ac3f 7f66 e5bd 088a 7541 00e2 48c1
00000320: 3b98 5540 d9be 21c2 0bbd 1940 9e08 a540
00000330: ede6 6bc1 a48a c63f 9c7e c940 a20f 9dbe
00000340: fd7e 8e40 be0e 6dc1 355d dbbd a565 27c0
00000350: 850a 8c41 1539 06c0 2b33 9041 7eb9 8dc1
00000360: a7db 1840 449c 4c40 67f8 2041 9d86 2b3e
00000370: d8d2 6abe b84d 7940 e561 12be 08c2 75c0
00000380: e040 79c1 7539 7941 c3ce 9641 e47a 7fbf
00000390: b226 07c0 cc65 d3be 2141 38c1 3052 74c0
000003a0: 11ee a541 5410 c8c0 0109 5ac1 a66b 8bc1
000003b0: 8364 90bf a458 9b41 9910 a73f 77b2 ecc1
000003c0: 8485 9cc0 282b 8bc1 632f 19be 2579 08c2
000003d0: 85c8 7cc0 d282 c141 40fc a541 4813 6cc0
000003e0: 0f6c cdc1 8681 8c41 ab47 1cc2 1ddc edc0
000003f0: cfc5 03c2 488d 1340 5b28 0a42 991d 6cc0

l1/b f4 [256]
-6.4277177 0.86661935 10.168757 2.3680134 -3.5824025 0.010527251 0.8475671 8.591408
-1.9500419 5.70468 -19.470623 4.0380645 -0.25298038 -8.423457 -1.0417784 -3.8532686
4.093993 1.0161201 5.0239844 4.7852006 3.8733087 3.2785401 8.284074 7.751149
-0.17929704 -21.079985 8.703677 2.6689217 9.533397 0.9141473 -1.7366774 0.19333416
4.1045227 7.8358274 -20.390762 7.4772525 20.957718 7.263868 3.571778 5.1990156
8.1535425 -3.2174213 0.5687924 -16.339895 -3.6633167 4.9103556 -3.0577226 -2.3449485
-11.411626 4.7292075 -3.4801297 6.3880143 8.84261 -4.8125787 2.5282092 0.7722036
-5.7682023 -4.3948474 7.810225 -2.6221118 7.3398275 -1.4568647 12.814012 -11.561181
-5.6543946 7.7579474 -10.968627 0.35977048 -0.49010628 0.8284754 2.05322 2.438278
4.589247 4.888071 -0.5702647 -7.18456 8.681939 -3.2424436 3.2460258 26.244669
2.5745564 -29.364086 -9.997038 2.823915 -0.95739925 -1.4347588 1.3670987 3.648547
8.359464 9.644818 1.711611 4.695745 9.974775 -8.528428 -1.2375987 -1.0861486
-24.265089 -24.879015 5.7073493 -2.9908676 5.7756343 11.63901 -2.8695498 2.0102997
7.890955 -0.2534354 1.7059243 1.4634868 -9.440374 12.71605 -7.957574 1.570165
13.073344 4.9478545 -6.0637574 -0.031201055 2.1668394 4.3475995 1.6135869 0.00038703898
10.504288 -8.532321 -10.960678 3.1680124 -3.980532 1.9755177 -5.648987 0.41624743
-22.189518 -10.30686 15.5913925 1.8067884 10.946461 -0.1324741 -4.7851615 9.1023245
-15.88526 -6.546078 0.8364087 -4.124463 -18.218252 0.014481502 9.24653 -8.017856
-6.405025 5.3622036 6.598486 -0.835866 7.3934135 -13.933963 -5.056341 8.22388
10.727429 -2.7590046 -8.259648 6.1496305 -11.17355 6.422046 -25.859476 9.804919
2.5913696 -2.6440103 3.1450016 9.159201 9.324445 -18.57505 15.132252 -7.9187727
-3.186161 -29.940674 -8.388916 1.0099639 -0.5391584 6.0384912 14.080555 -10.170022
-5.049088 2.678096 -0.3177551 0.33790678 5.766565 -1.3020991 7.0561748 -4.2668543
3.0255244 8.34816 -13.313375 4.1670547 1.3343469 6.3946047 1.1512694 6.902651
3.145067 5.2057066 -7.1490884 3.8864615 10.90985 -8.73292 0.30766472 11.685172
-6.8043566 -2.3790047 -4.5976844 3.9202013 6.833674 -12.478264 -2.3849623 -18.332773
4.9493823 -1.9295144 -27.216002 0.116723455 -6.253817 9.523787 -1.6800604 -0.93052655
1.9139743 -10.461655 -1.4830781 -9.138678 -9.47754 3.0630953 0.3642062 -32.286346
10.1917 1.5596428 2.204611 -2.4335353 1.4466122 8.9771595 8.513086 -6.705682
4.0449934 -0.5657359 11.065622 -4.4429626 -3.3166182 7.682555 -29.448856 3.1419375
-1.7108128 -9.954695 -11.440052 -0.88713 -31.518406 -42.315773 -7.1094046 -8.607692
9.291222 5.5658484 -10.688981 7.434503 -12.865373 5.6160026 -5.5298777 -9.448456
00000000: ddaf cdc0 c4da 5d3f 3bb3 2241 888d 1740
00000010: 1546 65c0 7e7a 2c3c 28fa 583f 6876 0941
00000020: f99a f9bf bd8c b640 d6c3 9bc1 d337 8140
00000030: a586 81be 7bc6 06c1 ff58 85bf f49b 76c0
00000040: fe01 8340 3910 823f 7bc4 a040 5d20 9940
00000050: 4ae4 7740 9ad3 5140 918b 0441 6a09 f840
00000060: a599 37be cfa3 a8c1 4342 0b41 9dcf 2a40
00000070: cb88 1841 8f05 6a3f 724b debf 64f9 453e
00000080: 4058 8340 19bf fa40 4820 a3c1 a745 ef40
00000090: 68a9 a741 9b71 e840 0398 6440 565e a640
000000a0: e974 0241 3bea 4dc0 619c 113f 1bb8 82c1
000000b0: c873 6ac0 a221 9d40 bab1 43c0 a313 16c0
000000c0: 0596 36c1 ab55 9740 72ba 5ec0 9d6a cc40
000000d0: 557b 0d41 a500 9ac0 2ece 2140 23af 453f
000000e0: 1d95 b8c0 97a2 8cc0 5ded f940 aed0 27c0
000000f0: dedf ea40 8b7a babf 3106 4d41 99fa 38c1
00000100: cdf0 b4c0 1b41 f840 7f7f 2fc1 d633 b83e
00000110: 36ef fabe f716 543f f567 0340 bf0c 1c40
00000120: 1ddb 9240 146b 9c40 defc 11bf eae7 e5c0
00000130: 39e9 0a41 3284 4fc0 e3be 4f40 15f5 d141
00000140: 88c5 2440 a6e9 eac1 def3 1fc1 06bb 3440
00000150: 1e18 75bf 2da6 b7bf 17fd ae3f cb81 6940
00000160: 5dc0 0541 2d51 1a41 1216 db3f 8b43 9640
00000170: ae98 1f41 7174 08c1 a269 9ebf eb06 8bbf
00000180: e71e c2c1 3908 c7c1 9ba2 b640 606a 3fc0
00000190: ffd1 b840 6339 3a41 b4a6 37c0 c0a8 0040
000001a0: b482 fc40 49c2 81be ba5b da3f 8953 bb3f
000001b0: c60b 17c1 f174 4b41 72a4 fec0 2bfb c83f
000001c0: 6b2c 5141 d354 9e40 4d0a c2c0 5b99 ffbc
000001d0: 7fad 0a40 891f 8b40 048a ce3f 7eeb ca39
000001e0: 9011 2841 6384 08c1 f05e 2fc1 b7c0 4a40
000001f0: 09c1 7ec0 c4dd fc3f 80c4 b4c0 621e d53e
00000200: 2284 b1c1 e6e8 24c1 5876 7941 d844 e73f
00000210: b424 2f41 4aa7 07be 0b20 99c0 1fa3 1141
00000220: 062a 7ec1 7979 d1c0 e11e 563f 9afb 83c0
00000230: fbbe 91c1 d243 6d3c c9f1 1341 2349 00c1
00000240: f7f5 ccc0 2c97 ab40 cc26 d340 50fb 55bf
00000250: d896 ec40 83f1 5ec1 8ccd a1c0 0395 0341
00000260: 8da3 2b41 8893 30c0 8527 04c1 c6c9 c440
00000270: dcc6 32c1 6781 cd40 35e0 cec1 f3e0 1c41
00000280: 00d9 2540 7737 29c0 b547 4940 168c 1241
00000290: ed30 1541 b499 94c1 b41d 7241 9666 fdc0
000002a0: 10ea 4bc0 8086 efc1 0039 06c1 7f46 813f
000002b0: 4906 0abf 523b c140 f449 6141 69b8 22c1
000002c0: 2192 a1c0 ed65 2b40 ccb0 a2be 1e02 ad3e
000002d0: b387 b840 2fab a6bf 2fcc e140 128a 88c0
000002e0: 31a2 4140 1092 0541 9603 55c1 8358 8540
000002f0: e1cb aa3f 9aa0 cc40 cc5c 933f 84e2 dc40
00000300: c748 4940 2695 a640 55c5 e4c0 c9bb 7840
00000310: bf8e 2e41 0aba 0bc1 3b86 9d3e 77f6 3a41
00000320: 4abd d9c0 9d41 18c0 3b20 93c0 94e4 7a40
00000330: 75ad da40 f8a6 47c1 39a3 18c0 85a9 92c1
00000340: 5761 9e40 54fa f6bf 5fba d9c1 b50c ef3d
00000350: 451f c8c0 6e61 1841 380c d7bf fd36 6ebf
00000360: 1cfd f43f f062 27c1 81d5 bdbf 0638 12c1
00000370: 01a4 17c1 c109 4440 3c79 ba3e 3825 01c2
00000380: 3411 2341 60a2 c73f 5918 0d40 0bbf 1bc0
00000390: 972a b93f 72a2 0f41 9a35 0841 f294 d6c0
000003a0: 9670 8140 11d4 10bf ca0c 3141 c02c 8ec0
000003b0: 7943 54c0 7ed7 f540 4297 ebc1 8115 4940
000003c0: eafb dabf 6e46 1fc1 740a 37c1 f41a 63bf
000003d0: b225 fcc1 5a43 29c2 3e80 e3c0 1bb9 09c1
000003e0: d8a8 1441 6e1b b240 1106 2bc1 73e7 ed40
000003f0: 91d8 4dc1 4bb6 b340 c2f4 b0c0 e02c 17c1

l4/W f4 [64, 256]
36.6426 37.876686 32.035694 64.90562 26.844532 36.965027 37.607067 34.14499
35.91262 42.334377 40.86107 41.49223 38.847717 49.950302 37.940796 34.898304
43.851727 33.339993 38.35729 39.75423 37.253906 37.321968 35.638218 28.777298
41.101013 34.9852 39.45301 49.49785 45.505966 33.730797 60.31007 41.597645
45.306347 36.919514 45.475662 4.874647 47.09902 34.362743 44.31262 36.031883
28.195707 33.743713 46.874935 39.47398 41.361446 33.52391 27.182549 38.287296
39.836422 65.857735 32.78128 54.615803 36.181538 49.73033 48.31063 60.942314
41.22878 56.662827 43.560738 50.215607 29.69362 54.18668 45.953987 41.336575
36.21444 56.863937 55.850533 33.7294 28.806477 35.13363 42.272488 42.38165
39.377254 43.336575 35.273705 30.769783 40.793877 41.565277 40.764244 31.900276
36.544365 40.394726 51.980587 48.8805 31.724089 27.371054 39.644012 41.155865
55.97247 59.321766 39.4982 31.922812 45.260674 33.16697 43.453545 29.678967
36.595615 42.448635 32.14218 24.097904 41.379906 39.45322 36.36707 45.57527
36.116745 33.43417 36.83199 29.945257 55.457302 40.777164 36.203556 39.020657
28.246067 43.255276 22.453527 32.04882 34.160473 32.075798 43.776115 32.558468
35.31687 32.532898 43.44447 39.32501 42.19855 41.393295 48.84864 38.17921
47.120403 28.562273 36.669544 43.118797 36.137047 18.273188 19.301662 25.077473
9.766697 50.366993 45.073864 38.023743 38.205387 42.41255 42.18278 39.936066
29.509962 33.03707 50.60249 35.929176 43.961403 42.629818 28.843409 54.09749
47.524326 53.63549 16.466345 37.646004 51.482174 44.862335 36.00195 36.614246
32.23784 28.0703 33.36222 38.31126 33.617416 45.189743 43.62707 33.19809
52.789276 50.282486 40.921574 40.325058 49.943993 42.066395 35.314945 41.440735
41.23857 35.346203 34.999447 28.968172 52.76768 49.74956 22.971338 46.09161
40.003742 36.995636 40.38373 40.8955 42.112133 42.49842 44.936638 31.436665
21.667847 39.784863 25.916594 48.239056 50.515564 34.480873 40.033543 43.85364
29.179625 41.04089 38.824512 34.516556 38.51057 50.311195 46.834274 35.632557
37.442944 41.596752 28.570839 26.779463 41.055042 41.282948 35.807262 31.01773
45.805267 41.30265 38.45312 42.510983 17.879238 37.03615 50.135113 37.963623
43.94103 36.42953 42.10313 43.15442 45.004017 30.787794 40.06982 33.0808
42.346607 32.727352 37.515305 38.924652 30.975647 49.257553 52.840767 71.700745
45.891953 40.273197 40.63817 42.81764 48.078358 40.936024 44.403706 30.360268
25.647818 38.418888 32.020832 48.34277 28.600315 43.449284 46.11991 47.031097
00000000: 0692 1242 ba81 1742 8d24 0042 adcf 8142
00000010: 9ac1 d641 30dc 1342 a36d 1642 7894 0842
00000020: 86a6 0f42 6756 2942 bc71 2342 0bf8 2542
00000030: 1064 1b42 1ccd 4742 60c3 1742 dd97 0b42
00000040: 2b68 2f42 275c 0542 dd6d 1942 5504 1f42
00000050: 0004 1542 b249 1542 898d 0e42 e837 e641
00000060: 7067 2442 d8f0 0b42 e2cf 1d42 ccfd 4542
00000070: 1c06 3642 56ec 0642 833d 7142 fd63 2642
00000080: b339 3542 95ad 1342 14e7 3542 1cfd 9b40
00000090: 6565 3c42 7373 0942 1f40 3142 a620 1042
000000a0: cf90 e141 90f9 0642 ef7f 3b42 5be5 1d42
000000b0: 1f72 2542 7c18 0642 dc75 d941 3126 1942
000000c0: 7f58 1f42 29b7 8342 0820 0342 9576 5a42
000000d0: e5b9 1042 dceb 4642 163e 4142 eec4 7342
000000e0: 45ea 2442 bca6 6242 323e 2e42 c8dc 4842
000000f0: 898c ed41 29bf 5842 e2d0 3742 a758 2542
00000100: 96db 1042 ac74 6342 f266 5f42 e8ea 0642
00000110: aa73 e641 d688 0c42 0717 2942 cf86 2942
00000120: 4f82 1d42 a758 2d42 4618 0d42 8428 f641
00000130: ee2c 2342 d842 2642 960e 2342 c433 ff41
00000140: 6e2d 1242 3394 2142 1fec 4f42 a285 4342
00000150: efca fd41 ebf7 da41 7893 1e42 9b9f 2442
00000160: cfe3 5f42 7d49 6d42 28fe 1d42 eb61 ff41
00000170: ee0a 3542 faaa 0442 6ed0 2d42 866e ed41
00000180: e961 1242 67cb 2942 9891 0042 82c8 c041
00000190: 0685 2542 19d0 1d42 e177 1142 144d 3642
000001a0: 8c77 1042 97bc 0542 f553 1342 e38f ef41
000001b0: 47d4 5d42 d11b 2342 71d0 1042 2715 1c42
000001c0: f2f7 e141 6705 2d42 d3a0 b341 fe31 0042
000001d0: 53a4 0842 9e4d 0042 be1a 2f42 df3b 0242
000001e0: 7a44 0d42 b021 0242 23c7 2d42 cf4c 1d42
000001f0: 51cb 2842 bc92 2542 0265 4342 83b7 1842
00000200: 4b7b 3c42 897f e441 9dad 1242 a679 2c42
00000210: 568c 1042 7d2f 9241 ce69 9a41 aa9e c841
00000220: 6444 1c41 cd77 4942 a34b 3442 5018 1842
00000230: 51d2 1842 74a6 2942 2bbb 2842 88be 1f42
00000240: 6714 ec41 f625 0442 f368 4a42 7ab7 0f42
00000250: 7ad8 2f42 ef84 2a42 4dbf e641 d463 5842
00000260: e918 3e42 be8a 5642 13bb 8341 8295 1642
00000270: bfed 4d42 0873 3342 ff01 1042 fd74 1242
00000280: 8cf3 0042 f98f e041 ea72 0542 bb3e 1942
00000290: 3c78 0642 4cc2 3442 1f82 2e42 d8ca 0442
000002a0: 3828 5342 4421 4942 b1af 2342 dc4c 2142
000002b0: a6c6 4742 fd43 2842 8142 0d42 50c3 2542
000002c0: 4cf4 2442 8362 0d42 6fff 0b42 d1be e741
000002d0: 1b12 5342 8dff 4642 4dc5 b741 cf5d 3842
000002e0: d503 2042 88fb 1342 f188 2142 fe94 2342
000002f0: d372 2842 62fe 2942 1ebf 3342 4a7e fb41
00000300: c057 ad41 b323 1f42 2f55 cf41 cbf4 4042
00000310: f00f 4a42 6aec 0942 5922 2042 216a 2f42
00000320: df6f e941 df29 2442 4d4c 1b42 f410 0a42
00000330: d30a 1a42 aa3e 4942 4c56 3b42 bd87 0e42
00000340: 93c5 1542 1363 2642 1491 e441 573c d641
00000350: 5d38 2442 bd21 2542 a33a 0f42 5024 f841
00000360: 9838 3742 ea35 2542 ffcf 1942 3f0b 2a42
00000370: ae08 8f41 0525 1442 5b8a 4842 c0da 1742
00000380: 9dc3 2f42 d7b7 1142 9b69 2842 209e 2c42
00000390: 1d04 3442 674d f641 7f47 2042 bd52 0442
000003a0: ed62 2942 cfe8 0242 ac0f 1642 d8b2 1b42
000003b0: 20ce f741 bc07 4542 f25c 5342 c866 8f42
000003c0: 5c91 3742 c117 2142 7c8d 2242 4345 2b42
000003d0: 3d50 4042 7dbe 2342 659d 3142 d4e1 f241
000003e0: bb2e cd41 f1ac 1942 5515 0042 ff5e 4142
000003f0: 72cd e441 11cc 2d42 ca7a 3842 d81f 3c42

l4/b f4 [64]
-96.855 -96.85223 -96.83331 -96.845276 -96.84826 -96.841675 -96.84579 -96.85323
-96.853645 -96.85208 -96.88276 -96.86813 -96.94524 -96.85342 -96.84975 -96.84228
-96.849754 -96.87333 -96.86208 -96.86276 -96.85996 -96.8885 -96.83295 -96.84319
-96.84823 -96.886 -96.84657 -96.83416 -96.85375 -96.846954 -96.848564 -96.85035
-96.83638 -96.85245 -96.85013 -96.842316 -96.85244 -96.85246 -96.850365 -96.854965
-96.849754 -96.84036 -96.84606 -96.85501 -96.847885 -96.84551 -96.86908 -96.86529
-96.855515 -96.88277 -96.853165 -96.86129 -96.86256 -96.85481 -96.85843 -96.84388
-96.845085 -96.8584 -96.8607 -96.85018 -96.84812 -96.85448 -96.84311 -96.83374
00000000: c3b5 c1c2 57b4 c1c2 a8aa c1c2 c8b0 c1c2
00000010: 4fb2 c1c2 f0ae c1c2 0bb1 c1c2 dbb4 c1c2
00000020: 11b5 c1c2 44b4 c1c2 f9c3 c1c2 7cbc c1c2
00000030: f6e3 c1c2 f3b4 c1c2 12b3 c1c2 3faf c1c2
00000040: 13b3 c1c2 25bf c1c2 63b9 c1c2 bcb9 c1c2
00000050: 4db8 c1c2 e9c6 c1c2 78aa c1c2 b7af c1c2
00000060: 4bb2 c1c2 a2c5 c1c2 72b1 c1c2 17ab c1c2
00000070: 1fb5 c1c2 a4b1 c1c2 77b2 c1c2 61b3 c1c2
00000080: 3aac c1c2 74b4 c1c2 44b3 c1c2 44af c1c2
00000090: 73b4 c1c2 76b4 c1c2 63b3 c1c2 beb5 c1c2
000000a0: 13b3 c1c2 44ae c1c2 2fb1 c1c2 c4b5 c1c2
000000b0: 1eb2 c1c2 e7b0 c1c2 f8bc c1c2 07bb c1c2
000000c0: 06b6 c1c2 fac3 c1c2 d2b4 c1c2 fbb8 c1c2
000000d0: a1b9 c1c2 aab5 c1c2 84b7 c1c2 11b0 c1c2
000000e0: afb0 c1c2 80b7 c1c2 aeb8 c1c2 4bb3 c1c2
000000f0: 3db2 c1c2 7eb5 c1c2 acaf c1c2 e0aa c1c2

l3/W f4 [256, 256]
0.4760378 -9.80034 -29.862524 0.46703467 30.046858 2.6063251 4.137756 0.2156593
-11.705357 -10.57816 27.763174 15.729219 -8.735399 6.528567 1.7113053 -4.957876
13.658812 -18.358309 14.347764 15.902596 -16.549576 7.0677314 14.1021595 -0.32297662
-2.3650656 8.544877 5.894421 -18.346283 0.35318625 5.709448 -4.6543593 7.1067657
-15.975275 -1.5450174 -19.509066 7.6760764 -6.6856437 -21.594587 -16.388285 15.361505
-0.38687512 8.885876 7.0662603 14.37796 19.253628 22.065413 11.639059 22.971178
0.15019137 -0.8066716 12.938126 -18.810553 -0.68901044 23.664677 -3.6378155 -28.466974
9.290792 2.0693488 -19.576012 -12.172759 26.206749 -14.961459 -9.216494 -12.269066
-6.8305063 9.855928 -19.01438 18.458485 -1.7992451 -10.941908 -16.435818 13.46212
0.41165996 -7.547717 -20.367369 -5.056016 -6.0926065 -9.384367 -8.667962 6.5482597
8.398684 -25.151213 -7.1433606 -11.510655 -0.14605969 -30.768509 -29.59103 19.530495
-29.945694 9.329963 10.409122 28.45443 -12.517754 -7.594541 9.655524 -16.810812
11.392924 0.77462584 -7.802618 10.112481 13.131066 -20.759342 22.646893 0.36873347
-6.4446096 5.311806 17.984804 6.1682005 -5.7480073 -26.399244 2.935138 -9.334402
-8.8905 -12.6292095 10.911038 -14.875499 13.680827 -16.268593 2.026789 -27.74454
-18.779053 4.3602777 -13.728171 -14.831801 -1.5819032 3.3410606 -3.36935 10.791875
15.428372 -24.330183 8.513825 23.643995 0.22686292 26.379248 -8.833473 8.167051
15.042132 7.304592 -34.023056 -15.600916 24.174574 -11.06994 13.036206 10.32382
-13.898661 -7.300582 6.9589534 -39.05596 20.369003 7.9551415 -20.833094 -18.168268
-5.2075133 -14.3584795 21.449074 -8.01058 -22.18552 24.213608 5.815246 -0.41394258
8.259589 -52.41905 -36.56969 14.399547 -14.3249235 2.4955199 -14.187861 -0.36936033
-38.261253 19.297712 -25.298023 -0.3462914 -3.1071332 4.741944 16.133371 -11.07882
-19.59524 -5.396517 6.7210965 -14.603664 -31.303518 11.87038 1.0345925 -18.820381
10.067218 -45.211056 7.156328 3.8212864 3.5416496 -7.320065 -9.782016 11.563903
15.188824 16.281963 5.446593 5.105499 -7.7446113 10.45379 -27.607706 -5.556799
0.15648226 0.026155058 2.5386856 27.158264 -10.20803 9.44002 8.558734 -8.01924
-6.3270497 -31.514448 -37.927505 -0.388856 30.201704 22.129375 23.432192 -10.621094
7.205812 10.928128 0.456886 -4.7856326 -11.138864 -11.407631 -11.700345 -37.235493
-4.3650646 -21.729168 -19.965488 -9.916732 12.675317 33.052345 23.160086 12.914442
3.7296493 8.078827 -3.9482033 9.391314 5.811489 8.04635 -33.51922 -22.586346
-16.182339 14.458051 -5.3906703 25.791735 12.199812 9.937232 -10.385109 -1.2237505
-44.684044 4.1823697 2.4872777 -3.9676876 8.551923 6.765399 22.78478 8.40055
00000000: 3abb f33e 31ce 1cc1 73e6 eec1 2b1f ef3e
00000010: f75f f041 08ce 2640 7f68 8440 cbd5 5c3e
00000020: 2449 3bc1 2540 29c1 fb1a de41 e2aa 7b41
00000030: 32c4 0bc1 05ea d040 0d0c db3f eca6 9ec0
00000040: 7e8a 5a41 d1dd 92c1 7190 6541 0971 7e41
00000050: 8865 84c1 db2a e240 72a2 6141 315d a5be
00000060: 3c5d 17c0 d1b7 0841 199f bc40 30c5 92c1
00000070: d4d4 b43e ccb3 b640 83f0 94c0 a06a e340
00000080: ba9a 7fc1 21c3 c5bf 9112 9cc1 6ba2 f540
00000090: cbf0 d5c0 b7c1 acc1 351b 83c1 b9c8 7541
000000a0: 7f14 c6be 8c2c 0e41 ce1e e240 200c 6641
000000b0: 6e07 9a41 f785 b041 9639 3a41 f9c4 b741
000000c0: c4cb 193e 0882 4ebf 9002 4f41 037c 96c1
000000d0: fd62 30bf 4251 bd41 f8d1 68c0 5dbc e3c1
000000e0: 16a7 1441 3670 0440 ac9b 9cc1 9fc3 42c1
000000f0: 6ca7 d141 2362 6fc1 c276 13c1 184e 44c1
00000100: 8293 dac0 e2b1 1d41 731d 98c1 faaa 9341
00000110: aa4d e6bf 0e12 2fc1 8e7c 83c1 d864 5741
00000120: 18c5 d23e e686 f1c0 5ff0 a2c1 e2ca a1c0
00000130: a2f6 c2c0 5e26 16c1 f9af 0ac1 588b d140
00000140: 0261 0641 af35 c9c1 6996 e4c0 a52b 38c1
00000150: ac90 15be e825 f6c1 6eba ecc1 743e 9c41
00000160: c890 efc1 8747 1541 c48b 2641 aca2 e341
00000170: b848 48c1 7b06 f3c0 077d 1a41 8b7c 86c1
00000180: 6b49 3641 e14d 463f 0caf f9c0 b9cc 2141
00000190: d918 5241 2213 a6c1 d62c b541 a2ca bc3e
000001a0: 3e3a cec0 51fa a940 e1e0 8f41 e661 c540
000001b0: adef b7c0 a731 d3c1 4dd9 3b40 b659 15c1
000001c0: 7d3f 0ec1 3e11 4ac1 9d93 2e41 0b02 6ec1
000001d0: abe4 5a41 1426 82c1 e9b6 0140 d1f4 ddc1
000001e0: 803b 96c1 6587 8b40 97a6 5bc1 0f4f 6dc1
000001f0: ce7b cabf f0d3 5540 6ea3 57c0 85ab 2c41
00000200: 9dda 7641 37a4 c2c1 a138 0841 e726 bd41
00000210: c14e 683e b308 d341 e855 0dc1 3eac 0241
00000220: 93ac 7041 38bf e940 9c17 08c2 5a9d 79c1
00000230: 8765 c141 791e 31c1 4d94 5041 5e2e 2541
00000240: ea60 5ec1 5e9e e9c0 bfaf de40 4e39 1cc2
00000250: b8f3 a241 8590 fe40 2daa a6c1 9d58 91c1
00000260: f3a3 a6c0 55bc 65c1 b497 ab41 562b 00c1
00000270: f27b b1c1 78b5 c141 7f16 ba40 48f0 d3be
00000280: 4727 0441 1bad 51c2 5d47 12c2 8b64 6641
00000290: e332 65c1 99b6 1f40 7b01 63c1 cc1c bdbe
000002a0: 860b 19c2 b761 9a41 5a62 cac1 1b4d b1be
000002b0: 45db 46c0 01be 9740 2511 8141 d942 31c1
000002c0: 0dc3 9cc1 44b0 acc0 3913 d740 9ca8 69c1
000002d0: 9b6d fac1 14ed 3d41 876d 843f 2490 96c1
000002e0: 5313 2141 1fd8 34c2 a400 e540 f58f 7440
000002f0: 63aa 6240 f93d eac0 2383 1cc1 bf05 3941
00000300: 6c05 7341 7641 8241 7d4a ae40 3f60 a340
00000310: dbd3 f7c0 b942 2741 95dc dcc1 4cd1 b1c0
00000320: e33c 203e 2243 d63c d379 2240 2044 d941
00000330: 1754 23c1 520a 1741 93f0 0841 cf4e 00c1
00000340: 3177 cac0 971d fcc1 c4b5 17c2 2218 c7be
00000350: 179d f141 f608 b141 2175 bb41 00f0 29c1
00000360: 0396 e640 9dd9 2e41 f6ec e93e e723 99c0
00000370: c938 32c1 a885 36c1 9d34 3bc1 25f1 14c2
00000380: 9cae 8bc0 56d5 adc1 52b9 9fc1 efaa 1ec1
00000390: 19ce 4a41 9a35 0442 db47 b941 8ea1 4e41
000003a0: 93b2 6e40 e042 0141 5daf 7cc0 d242 1641
000003b0: b8f7 b940 d9bd 0041 ae13 06c2 d6b0 b4c1
000003c0: 6e75 81c1 2d54 6741 5f80 acc0 7955 ce41
000003d0: 6e32 4341 e7fe 1e41 6829 26c1 dba3 9cbf
000003e0: 76bc 32c2 f9d5 8540 8f2f 1f40 98ee 7dc0
000003f0: add4 0841 267e d840 3b47 b641 a768 0641

l3/b f4 [256]
5.5025897 5.0460114 1.8219433 -2.4794946 19.413313 19.617998 7.2794433 11.247704
4.128097 3.1193357 -0.64884925 11.234198 -3.008048 -1.8538489 7.53094 7.387995
4.224702 1.0280097 7.968469 8.06693 3.1944149 0.9504581 28.825485 7.1882677
5.3400197 6.5205655 -1.0759026 1.5867941 2.121181 5.581942 -1.0617201 5.408707
3.0565023 7.7846465 3.7078245 51.66012 1.261075 -0.53463835 -1.3005167 3.2843091
4.93411 6.230412 11.466097 5.707891 -4.235763 5.9859834 25.247793 2.9982083
2.4891174 -1.463351 6.427434 -5.966446 0.3323775 2.3903773 -2.616309 3.6126604
0.2211921 -2.4085758 6.1042347 4.9093575 21.29854 -3.3837905 -11.425017 3.3814604
-2.0362117 -1.1789474 -1.5918528 7.142906 2.0801554 3.3956327 7.504025 7.1843433
0.72867656 3.3994384 7.929641 1.7985153 4.880674 3.328708 5.76025 -4.653274
3.7692754 4.9215055 -0.60232437 6.9107766 7.858234 24.30672 6.5597496 4.277945
-1.4631124 -6.236453 5.3550415 6.181731 2.741781 9.416393 5.311919 12.980338
20.119522 2.3750362 14.374203 3.393624 5.939436 4.6630473 1.0558182 2.163674
-4.9785185 2.1952872 6.21182 23.84845 -0.39545804 3.8979833 -1.6473899 3.4614797
3.0490284 3.8605292 27.884527 6.1722617 17.769125 9.019102 2.8333936 0.9899374
10.5212145 9.214962 -3.9720726 2.321114 -0.049224935 -4.1092687 -0.3189686 3.2333474
2.1581986 14.852095 -1.6442277 -0.21567625 5.1040006 6.5974393 19.575806 19.079582
-1.4953454 7.6086016 3.726054 -0.85424775 5.0627546 1.5327073 -0.6554962 9.037788
8.419504 -3.1261704 -0.29362866 -1.1952689 5.8219185 1.7297696 10.955251 4.1635733
6.470443 2.2232246 14.644097 8.051624 8.232527 1.4409543 -2.26833 3.7131908
8.033672 26.389858 3.969301 13.089751 12.473899 2.5478394 7.391607 7.182417
3.7454188 17.456657 7.8606877 4.2510543 0.8733407 -5.2292786 9.826048 15.494317
1.4514171 6.921339 2.8449059 5.750998 8.058272 9.785273 21.652647 -0.37835342
2.4568803 6.4949346 -1.4081755 5.299602 4.875911 -2.7143543 -0.05619277 6.2650037
4.4601517 -1.6407505 21.664246 0.0997266 -0.7784762 15.368944 -2.2884796 4.9721518
-3.7724383 -1.3990549 -1.0157753 10.955214 4.5177374 4.751975 3.8616374 25.325489
3.4587748 8.542211 21.496777 11.75255 6.773497 2.8594036 7.4116883 22.250486
9.768413 -0.8405883 2.9938822 10.581484 52.117786 17.222128 2.185372 2.0142426
6.710906 4.1240573 4.5029106 11.393049 -2.6938658 -2.6989512 2.0321372 -2.8721755
1.4888979 7.033934 6.5712748 -7.7824345 2.590087 4.27433 7.264793 -2.6250012
0.42134702 3.8805003 5.429073 5.644872 -0.2712585 4.7830663 -1.3045619 8.478691
22.372478 3.325854 10.708971 32.42183 6.9799056 -2.1667197 5.376048 2.1559613
00000000: 3715 b040 ed78 a140 7035 e93f 0ab0 1ec0
00000010: 774e 9b41 a9f1 9c41 33f1 e840 98f6 3341
00000020: 5f19 8440 32a3 4740 fc1a 26bf 46bf 3341
00000030: dc83 40c0 ec4a edbf 76fd f040 746a ec40
00000040: c230 8740 d295 833f b3fd fe40 2512 0141
00000050: 4b71 4c40 3951 733f 989a e641 4a06 e640
00000060: 71e1 aa40 79a8 d040 2db7 89bf 121c cb3f
00000070: 6ec1 0740 459f b240 72e6 87bf 2114 ad40
00000080: bc9d 4340 d31b f940 ff4c 6d40 f6a3 4e42
00000090: e86a a13f 0fde 08bf 5577 a6bf 1f32 5240
000000a0: 3be4 9d40 895f c740 2275 3741 0ba7 b640
000000b0: 5f8b 87c0 2d8d bf40 7bfb c941 a5e2 3f40
000000c0: b34d 1f40 164f bbbf 8aad cd40 20ed bec0
000000d0: 622d aa3e f1fb 1840 9b71 27c0 d435 6740
000000e0: 2f80 623e 1b26 1ac0 e455 c340 7519 9d40
000000f0: 6963 aa41 0690 58c0 dfcc 36c1 d969 5840
00000100: 4b51 02c0 c0e7 96bf d5c1 cbbf b092 e440
00000110: 4421 0540 0c52 5940 f920 f040 24e6 e540
00000120: 8c8a 3a3f 6690 5940 9ebf fd40 c035 e63f
00000130: 7b2e 9c40 8d09 5540 f853 b840 9fe7 94c0
00000140: cf3b 7140 f97c 9d40 ee31 1abf 1525 dd40
00000150: a776 fb40 2a74 c241 78e9 d140 ede4 8840
00000160: 4447 bbbf 0691 c7c0 805c ab40 bed0 c540
00000170: 5779 2f40 8ca9 1641 3efb a940 77af 4f41
00000180: c8f4 a041 9800 1840 bcfc 6541 2331 5940
00000190: dc0f be40 af37 9540 0d25 873f a379 0a40
000001a0: 0650 9fc0 967f 0c40 3bc7 c640 a0c9 be41
000001b0: 7a79 cabe 8f78 7940 acdd d2bf e288 5d40
000001c0: 4823 4340 e912 7740 8313 df41 2b83 c540
000001d0: 2b27 8e41 3e4e 1041 5256 3540 8a6c 7d3f
000001e0: e556 2841 7c70 1341 7036 7ec0 228d 1440
000001f0: 16a0 49bd 217f 83c0 da4f a3be 2aef 4e40
00000200: ed1f 0a40 2ea2 6d41 0e76 d2bf 3cda 5cbe
00000210: f953 a340 391e d340 409b 9c41 fca2 9841
00000220: 7a67 bfbf aa79 f340 ab77 6e40 fbaf 5abf
00000230: 1602 a240 c12f c43f 99ce 27bf c89a 1041
00000240: 4ab6 0641 2d13 48c0 7f56 96be 92fe 98bf
00000250: 284d ba40 1769 dd3f b548 2f41 fe3b 8540
00000260: de0d cf40 5049 0e40 394e 6a41 74d3 0041
00000270: 6eb8 0341 3171 b83f 522c 11c0 eba4 6d40
00000280: ec89 0041 6e1e d341 0709 7e40 9f6f 5141
00000290: 1795 4741 cd0f 2340 0b88 ec40 5cd6 e540
000002a0: f1b4 6f40 3ca7 8b41 c18a fb40 a308 8840
000002b0: 4293 5f3f 4056 a7c0 7e37 1d41 b9e8 7741
000002c0: 09c8 b93f 9c7b dd40 f012 3640 2d08 b840
000002d0: afee 0041 7a90 1c41 9f38 ad41 8ab7 c1be
000002e0: 873d 1d40 81d6 cf40 183f b4bf 5796 a940
000002f0: 7707 9c40 fbb7 2dc0 642a 66bd e97a c840
00000300: 90b9 8e40 1d04 d2bf 6050 ad41 763d cc3d
00000310: 374a 47bf 32e7 7541 7376 12c0 de1b 9f40
00000320: a16f 71c0 3b14 b3bf ed04 82bf 8e48 2f41
00000330: 4e91 9040 2e10 9840 1125 7740 9a9a ca41
00000340: 915c 5d40 e5ac 0841 66f9 ab41 720a 3c41
00000350: 7dc0 d840 7800 3740 8d2c ed40 ff00 b241
00000360: 6b4b 1c41 cb30 57bf c49b 3f40 c24d 2941
00000370: 9d78 5042 ebc6 8941 23dd 0b40 5ae9 0040
00000380: bebf d640 47f8 8340 d817 9040 ee49 3641
00000390: 4c68 2cc0 9ebb 2cc0 890e 0240 b9d1 37c0
000003a0: 3594 be3f fd15 e140 e247 d240 b409 f9c0
000003b0: fcc3 2540 50c7 8840 2f79 e840 0500 28c0
000003c0: ccba d73e 1e5a 7840 f7ba ad40 cba2 b440
000003d0: 65e2 8abe e10e 9940 e2fb a6bf b8a8 0741
000003e0: d6fa b241 cbda 5440 f257 2b41 f4af 0142
000003f0: 635b df40 89ab 0ac0 9608 ac40 45fb 0940
