size8/agent_white_2000/target_model.npz (npz, 608073 bytes, 8 tensors)

l2/W f4 [256, 256]
0	0x3e280d9f	0.16411446
1	0xbefec9c4	-0.4976331
2	0x3f23e483	0.64020556
3	0x3eaa2390	0.33230257
4	0x3fa5f958	1.2966719
5	0x3d90a261	0.07062221
6	0x3ee3c3b4	0.44485247
7	0x3fa8f2b0	1.3199062
8	0xbec94f81	-0.3931847
9	0x3fa9cee3	1.3266262
10	0x3f2b12a5	0.66825324
11	0xbfb952b5	-1.4478365
12	0x3fa34c67	1.2757691
13	0x3f8e79aa	1.1130879
14	0x3e0399b3	0.128516
15	0x3de42412	0.11139692
16	0xbe8801e3	-0.2656394
17	0x3fa93fe0	1.3222618
18	0xbf6af601	-0.9178162
19	0xbcb57b0e	-0.022153404
20	0xbfa68f01	-1.3012391
21	0xbe520950	-0.20511365
22	0x3f0b1101	0.5432282
23	0x3f1d3932	0.614154
24	0x3ecb0b93	0.39657268
25	0x3f0948ac	0.53626513
26	0xbf477f0a	-0.7792822
27	0xbfc0c702	-1.5060732
28	0x3f17bee5	0.59275657
29	0x3f63f73b	0.8904912
30	0xbf0a3b2c	-0.5399654
31	0xbf73faa0	-0.953043
32	0xbf18d25d	-0.5969599
33	0xbf33d894	-0.70252347
34	0x3eb4d79a	0.3532074
35	0x3f076b41	0.5289803
36	0xbf8cad2e	-1.099035
37	0xbf0360e1	-0.513197
38	0xbe040cba	-0.1289548
39	0x3e375a94	0.17905647
40	0xc0206cb9	-2.506636
41	0xbe75eea5	-0.24016817
42	0xbd8cf84f	-0.068832986
43	0xbf285acc	-0.65763545
44	0xbfd87c59	-1.6912948
45	0x3e9c316d	0.3050646
46	0xbe9d4b26	-0.30721396
47	0x3ff522e4	1.9151273
48	0x3cddcaf3	0.027074313
49	0xbf2fec80	-0.68720245
50	0xbf981ed4	-1.1884408
51	0xbeadcd9a	-0.33945924
52	0xbe1d4a52	-0.15360382
53	0xbf7d3723	-0.98912257
54	0xbfc260f3	-1.5185837
55	0x3e9f9c7a	0.3117407
56	0xbdc9775c	-0.09837219
57	0x3f406ce0	0.7516613
58	0xbf389fb2	-0.72118676
59	0xbf75eb57	-0.96062225
60	0xbeb74146	-0.35791987
61	0x3fbc7f9f	1.4726447
62	0xbdea4a78	-0.11439985
63	0xbee8478d	-0.4536709
64	0x3e9f5c75	0.31125227
65	0xbfdb2c5d	-1.7122914
66	0xc02d0182	-2.703217
67	0x3fa23514	1.2672448
68	0xbf9bf304	-1.2183537
69	0xbec75d02	-0.38938147
70	0xbf9b1f46	-1.2118919
71	0x3ea751a2	0.32679468
72	0xbec750d4	-0.38928854
73	0xbe889b48	-0.2668097
74	0xbf3e41f6	-0.743194
75	0x3f73bc78	0.95209455
76	0xbee9a9d9	-0.45637396
77	0x3fa5067c	1.2892604
78	0x3ec25f4a	0.37963325
79	0x3f26d87b	0.65174073
80	0x3f2692b5	0.6506761
81	0xbf78aa68	-0.9713502
82	0x3e20411b	0.15649836
83	0xbf3ff316	-0.74980295
84	0xc04dc01a	-3.21485
85	0xbf25caeb	-0.64762753
86	0x3f4018c3	0.75037783
87	0x3fde7159	1.7378341
88	0x3f6b6235	0.9194673
89	0xbec29da1	-0.38010886
90	0xbf6067d7	-0.8765845
91	0x3f1419ab	0.57851666
92	0xbf94589a	-1.1589539
93	0xbea171cf	-0.31532142
94	0xbc834307	-0.016023172
95	0x3f13015f	0.5742397
96	0x3fa551c6	1.291558
97	0x3f196efa	0.5993496
98	0xbeecb21f	-0.46229646
99	0xbf470bfc	-0.7775266
100	0x3ea4034f	0.32033774
101	0x3fcc1f22	1.5947001
102	0xbec9f6a5	-0.39445987
103	0x3f703f5c	0.9384668
104	0xbfa83189	-1.3140117
105	0xbfe1cdc6	-1.7640922
106	0xbf9f0a7b	-1.2425073
107	0x3f505fa7	0.81395954
108	0xbfa64c8c	-1.299211
109	0xbe0a4116	-0.13501391
110	0x3e49ccb2	0.19706991
111	0xbff695f3	-1.9264511
112	0x3e668e1c	0.22515148
113	0x3f733eff	0.95018
114	0x3e40816b	0.18799369
115	0xbf74b3ec	-0.9558704
116	0x3edeca5b	0.4351376
117	0x3f84e073	1.0380996
118	0xbf96c9e8	-1.1780367
119	0xbf9149a0	-1.1350594
120	0x3f90fc86	1.1327064
121	0x3f47e6b1	0.7808638
122	0x3eb0aaab	0.3450521
123	0xbf1192d0	-0.56864643
124	0x3f8bf486	1.0933998
125	0x3f4c19f1	0.79727083
126	0x3de257f8	0.11051935
127	0xc006eb3a	-2.108107
128	0x3e533420	0.20625353
129	0x3dd6a944	0.104815036
130	0xbeaf4782	-0.34234244
131	0x3f568635	0.83798534
132	0xbe90abb4	-0.28256
133	0xbf1c1dc4	-0.6098292
134	0xbfb52fbe	-1.4155195
135	0x40052002	2.0800786
136	0xbf8adf3f	-1.0849379
137	0xbef6486d	-0.4810213
138	0xbfb424d5	-1.407374
139	0xbeacf4cd	-0.33780518
140	0x3e93f1c0	0.28895378
141	0x3e74fe53	0.23925142
142	0x3f18eea2	0.59739125
143	0x3f7e66f0	0.9937582
144	0xbf3327a4	-0.6998236
145	0x3f4f3c08	0.80950975
146	0xbf0a5cba	-0.5404774
147	0xbfa1fed0	-1.2655888
148	0xc03f17c5	-2.9858258
149	0x3f9b1f1c	1.2118869
150	0x3dafe3da	0.08588381
151	0xbf283362	-0.65703404
152	0xbf000065	-0.500006
153	0xbdfca58b	-0.12336262
154	0x3f716ed0	0.9430971
155	0xbf8a5e76	-1.0810077
156	0xbfa42fdf	-1.2827109
157	0xbe5f1a5d	-0.217874
158	0x3e087962	0.13327554
159	0xbf2771c1	-0.6540795
160	0xbf7e936c	-0.994437
161	0xc03bb7d7	-2.9330957
162	0xc011c172	-2.277432
163	0x3ed21a37	0.41035625
164	0x3de4f04d	0.11178646
165	0xbf866459	-1.0499374
166	0xbd945865	-0.072434224
167	0xbec1ddc5	-0.3786451
168	0x3ebe9330	0.3722167
169	0xbfb3234e	-1.3995149
170	0x3fa9cfcc	1.326654
171	0x3dfa3dcf	0.1221882
172	0xbf46dcc5	-0.7768062
173	0xbf65f434	-0.8982575
174	0x3f859572	1.0436232
175	0xbf2b4d28	-0.66914606
176	0xbecdc5be	-0.40189928
177	0x3f2a9814	0.666383
178	0x3d44ce67	0.048048403
179	0xbce7b899	-0.028286265
180	0x3f8170b5	1.011252
181	0x3f11a764	0.5689604
182	0xbfdfb640	-1.7477493
183	0x3f36d6fb	0.71421784
184	0x3edf8804	0.4365846
185	0x3e95727b	0.29188904
186	0xbeba3383	-0.36367425
187	0xbfee98c3	-1.8640369
188	0x3f813f62	1.0097468
189	0x3e88e632	0.26738125
190	0x3e88f86a	0.26752025
191	0x401127e2	2.2680593
192	0x3e3d0470	0.18458724
193	0x3ea4f16c	0.3221544
194	0x3e08c5b8	0.13356674
195	0x3f37dd20	0.71821785
196	0xbf09d794	-0.5384457
197	0xbf4a0567	-0.78914493
198	0xbefdc302	-0.49562842
199	0x3f43bbb3	0.7645828
200	0x3f4dbbaa	0.8036448
201	0x3df930fc	0.12167546
202	0xc068c6d3	-3.6371353
203	0xbefaa464	-0.48953545
204	0xbf14bbcd	-0.5809906
205	0xbd1e917d	-0.038712967
206	0xbdc3bca9	-0.095574684
207	0xbfaf9cc7	-1.371972
208	0x3f05fe3d	0.5234106
209	0xbeae4a7f	-0.3404121
210	0xbd935395	-0.071936764
211	0xbed11ed8	-0.40843844
212	0x3f9fa4d5	1.2472178
213	0xbfbbeb63	-1.4681209
214	0xc02d6506	-2.709291
215	0x3eb76a15	0.35823122
216	0x3eb99362	0.36245257
217	0x3f82095c	1.0159106
218	0xbe9c6ce0	-0.30551815
219	0xbfda432a	-1.7051747
220	0x3ea5a1b1	0.32349923
221	0x3f144924	0.57924104
222	0xbf355cf3	-0.70844954
223	0xbf07b27e	-0.5300673
224	0xc037f834	-2.874524
225	0x3f9668be	1.1750715
226	0x3fe6787c	1.8005519
227	0xbfad31be	-1.3530805
228	0x40007a51	2.0074656
229	0xc03be7cd	-2.936023
230	0xbd69336e	-0.056933813
231	0xbe1bda06	-0.15219888
232	0xc0497f1c	-3.1483831
233	0xc00da2b9	-2.2130568
234	0xbf22d416	-0.6360487
235	0x3f4f11b7	0.80886406
236	0xbf8eddbe	-1.116142
237	0xbf54fb26	-0.8319572
238	0xbcd19daa	-0.025587875
239	0xbff0bfb3	-1.8808502
240	0x3ed79606	0.42106646
241	0x3f00402d	0.50097924
242	0xbb3ee5fd	-0.0029128783
243	0xc022989e	-2.540565
244	0xbf23699d	-0.6383303
245	0x3cc26f3b	0.02373468
246	0x3e53e093	0.20691137
247	0x3f08f84d	0.53503877
248	0x3ee5e39d	0.44900218
249	0x3ee4144e	0.4454674
250	0xbe9b352c	-0.30314004
251	0xbf9dceae	-1.2328699
252	0x3e9f5ced	0.31125584
253	0xbfd18923	-1.6369976
254	0xbeb411aa	-0.35169727
255	0xbf4e8bbb	-0.8068196

l2/b f4 [256]
0	0x3f871db0	1.0555935
1	0x3e38eade	0.18058345
2	0x3f410e47	0.7541241
3	0x3d6d4b10	0.057932913
4	0x3f955259	1.1665756
5	0x3f5985db	0.8496987
6	0x3f29c403	0.66314715
7	0xbf34dcfa	-0.70649683
8	0xbee88e20	-0.45420933
9	0x401caa6d	2.447902
10	0x3f44f7ec	0.769408
11	0x3eb59d6d	0.3547167
12	0xbe0c4a6f	-0.13700269
13	0x3f35c171	0.70998293
14	0x3e5d897b	0.21634476
15	0xbfade59f	-1.35857
16	0x3f003856	0.5008596
17	0xbd77bac2	-0.06048084
18	0x3f592aa9	0.8483072
19	0x3e59d12b	0.21271197
20	0x3f1ee23a	0.62063944
21	0x3f0a237e	0.53960407
22	0x403676af	2.8509939
23	0xbeb904fd	-0.36136618
24	0x3f9c417c	1.2207484
25	0xbd84c6ad	-0.06483207
26	0x3fcf1ed0	1.6181278
27	0x3e6d56a6	0.23177585
28	0x3f12a147	0.5727734
29	0x3e9585f9	0.29203776
30	0x3fb3277a	1.3996422
31	0x3f2e9f50	0.6821184
32	0xbe9df0fb	-0.30847916
33	0x3ec0fdd7	0.37693664
34	0x3e8a792d	0.27045575
35	0x3f6bd4b4	0.92121434
36	0x3ff07c0e	1.8787858
37	0x3f5d7008	0.8649907
38	0x3ea66f2b	0.3250669
39	0x3f672ad9	0.90299755
40	0x3e84dc32	0.25949246
41	0x3eb64ec3	0.35606965
42	0x3e91028d	0.2832226
43	0x4016a2b0	2.3536797
44	0x3f632394	0.8872616
45	0x3f67126b	0.9026248
46	0xbf05f77d	-0.5233076
47	0x3f8ba1ff	1.0908812
48	0xbf73c7c4	-0.95226693
49	0x3f313164	0.6921599
50	0x3f2cb3cc	0.6746185
51	0xbde8f13e	-0.11374138
52	0x3f898092	1.0742362
53	0x3f06411c	0.524431
54	0x3d2c21ed	0.04202454
55	0xbe556ea2	-0.20842984
56	0x3e8dcc8b	0.27695116
57	0x3f25d731	0.6478148
58	0xbe3823c8	-0.179824
59	0x3f8bdbbb	1.0926431
60	0x3f55ce0c	0.8351753
61	0xbf1daa06	-0.6158756
62	0x3f3623a1	0.71148115
63	0x3ec4fd48	0.38474488
64	0x3f72162e	0.94565094
65	0x3ea7b662	0.32756335
66	0x40007237	2.0069711
67	0x3fb3ce32	1.4047301
68	0xbf938c76	-1.152724
69	0xbf12525f	-0.5715694
70	0x3e074533	0.13209991
71	0x3f95d34c	1.1705108
72	0x3e1a237d	0.150526
73	0x3f41296d	0.75453836
74	0xbf8f190d	-1.117952
75	0x3e23918c	0.1597349
76	0x3ffdbc8c	1.9823165
77	0xbf959833	-1.1687073
78	0x3f5b81f5	0.85745174
79	0xbea46b45	-0.3211309
80	0x3f78939e	0.97100246
81	0x3fb51e95	1.4149958
82	0xbf4d7b31	-0.802661
83	0xbcc4c4a4	-0.024019547
84	0x3f2dac29	0.6784082
85	0x3fd33fd4	1.6503854
86	0x3ee365d6	0.44413632
87	0xbf484ed1	-0.78245264
88	0xbf6d4934	-0.92689824
89	0x40275d45	2.6150677
90	0x3f36f159	0.7146202
91	0x3fce2dd2	1.6107733
92	0x3ed84531	0.4224029
93	0x3eb7bf81	0.35888293
94	0x3ea9d72a	0.3317197
95	0xbef90f1b	-0.48644337
96	0x3f298592	0.6621944
97	0x3fd8d534	1.6940064
98	0x3f67edcf	0.9059724
99	0x3ed1baa5	0.4096271
100	0x3ea3b092	0.3197065
101	0xbfbc2884	-1.4699864
102	0x3f22b0ff	0.63551325
103	0x3f806803	1.0031742
104	0x3f34a160	0.7055874
105	0x3f9251be	1.1431196
106	0xbb33e223	-0.002744802
107	0x3e5aa49a	0.21351853
108	0x3ef7e906	0.4841997
109	0x3e6a276b	0.228666
110	0x3f07f3dc	0.53106475
111	0xbee440ca	-0.4458068
112	0x3f6ab5fc	0.91683936
113	0x3f174f95	0.5910581
114	0xbf901e60	-1.125927
115	0x3f4afcf5	0.7929223
116	0x3f5a7842	0.8533975
117	0x3f03ada1	0.5143681
118	0xbd743466	-0.059620284
119	0x3faead40	1.3646622
120	0xbe0ddaac	-0.13852948
121	0x3ff5ea7c	1.9212184
122	0x3ea95c29	0.33078125
123	0x3e61c4b0	0.22047687
124	0x3f704480	0.9385452
125	0x3f903d3b	1.1268686
126	0x3f70488e	0.9386071
127	0x3f8b7c29	1.0897266
128	0x3ed9d313	0.4254385
129	0x3f95a909	1.169221
130	0x3f041b39	0.5160404
131	0x3f8d91cf	1.1060122
132	0x3f7fd2bf	0.9993095
133	0x3f5bad36	0.85811174
134	0x3f229f6c	0.6352451
135	0x3f765522	0.9622365
136	0x3f5939c0	0.84853745
137	0x3f5deaea	0.86686575
138	0xbe2c2457	-0.16810738
139	0x3fdb371c	1.7126193
140	0x3f0f3ec1	0.5595513
141	0x3ee8e5e3	0.4548789
142	0x3f5ca3f4	0.8618767
143	0x3f7736a5	0.96567756
144	0x3f6ebc84	0.932564
145	0xbf051f19	-0.52000576
146	0xbf100a5d	-0.56265813
147	0x3e82986f	0.25506923
148	0x3d2c97b2	0.042136855
149	0x3e3ceef3	0.18450527
150	0x3f2b2534	0.6685364
151	0x3e0b2ad2	0.13590553
152	0x3f1f8197	0.62307113
153	0x3fea8fb1	1.8325101
154	0x3f1fb524	0.62385774
155	0xbf211ba1	-0.62932783
156	0xbf4596f7	-0.7718348
157	0x3fadbf80	1.3574066
158	0xbfc11b7c	-1.5086513
159	0xbfa80aa9	-1.3128253
160	0x3f8ec621	1.1154214
161	0x3dd3a185	0.10333542
162	0xbf04346a	-0.5164248
163	0x3eedec24	0.46469223
164	0xbf1b5dca	-0.60689986
165	0x3f1aa2a8	0.60404444
166	0x3eabe4cb	0.33572993
167	0x3f6e2517	0.93025345
168	0x3e730082	0.23730662
169	0x3f9d8766	1.2306945
170	0x3f543654	0.828954
171	0x3f2dcd42	0.67891324
172	0x3e5c110c	0.21490878
173	0xbefee8a9	-0.4978688
174	0xbe8227ba	-0.25420934
175	0x3fe99524	1.8248639
176	0xbf1d67d8	-0.6148658
177	0x3f7610f4	0.9611962
178	0x3f6e08e3	0.9298231
179	0x3f0c6cdc	0.54853606
180	0x3e134a1d	0.1438374
181	0x3f61c806	0.88195837
182	0xbf88cf2d	-1.0688225
183	0x3ed21cc4	0.4103757
184	0x3cae34f1	0.021265479
185	0xbf6e1104	-0.92994714
186	0x3f04b656	0.5184072
187	0x3f01cd1a	0.50703585
188	0xbecca183	-0.39966974
189	0x3fc91c74	1.5711808
190	0x3f2a99f8	0.6664119
191	0x3e29edb7	0.16594587
192	0x3fa31d6e	1.2743356
193	0x3eb09cc3	0.344946
194	0x3f95b454	1.1695657
195	0xbe5ff153	-0.21869402
196	0x3e8ef632	0.27922207
197	0x3f3ad418	0.7297988
198	0x3fc2a237	1.5205754
199	0x3f27ac09	0.6549688
200	0x3e73c072	0.23803881
201	0x3f19d138	0.6008487
202	0x3f3b2094	0.73096585
203	0x3f9d3808	1.2282724
204	0x3f5549a2	0.8331548
205	0x3f862d48	1.0482569
206	0xbef326a7	-0.47490427
207	0xbd9e1f0f	-0.07720768
208	0x3fa1dc6e	1.2645395
209	0x3fbb3b7e	1.462753
210	0x3f514fc6	0.8176235
211	0x400a8292	2.1642194
212	0x3f64f3cd	0.8943451
213	0x3f9d6507	1.2296456
214	0x3f88edf2	1.0697615
215	0x3f94f2be	1.1636579
216	0x3e93e728	0.28887296
217	0x3f51fe0c	0.8202827
218	0x3f762882	0.9615556
219	0x3ed48778	0.41509604
220	0xbd025a14	-0.031824186
221	0x3fe14eb1	1.760214
222	0x3e8a53f1	0.27017167
223	0x3f9030a7	1.1264848
224	0x3d914b10	0.07094395
225	0x3f3e472c	0.7432735
226	0x3eff1fe9	0.49829033
227	0x3f67094a	0.9024855
228	0x3fc1bac1	1.5135118
229	0x3f70da46	0.9408306
230	0x3f81f51f	1.015293
231	0x3f3c74b8	0.736156
232	0xbefa5645	-0.48893943
233	0x3f3d62da	0.7397896
234	0xbf1405c9	-0.5782133
235	0x3f472188	0.7778554
236	0x3f95175f	1.1647757
237	0x3e1e4e4f	0.1545956
238	0x3fa3e198	1.2803221
239	0x3f710518	0.941484
240	0xbf23aad5	-0.63932544
241	0x3f0b1794	0.5433285
242	0x3ee81af2	0.45333058
243	0x3fa0942f	1.2545222
244	0x3f8cd32a	1.1001942
245	0xbf8f0f7c	-1.11766
246	0x4010301a	2.252936
247	0x3f451611	0.76986796
248	0x3ea0129d	0.312642
249	0x3f8a8035	1.0820376
250	0x3f21a2c9	0.63139015
251	0x3fa5d44b	1.2955412
252	0x3f25ef43	0.6481821
253	0xbe968a99	-0.29402617
254	0xbf3f8c72	-0.7482368
255	0x3f3f2bdd	0.74676305

l1/W f4 [256, 64]
0	0x3f20b9aa	0.627833
1	0xc071e556	-3.7796226
2	0xc06e6c37	-3.725355
3	0x3f4a4721	0.79014784
4	0xbea23e5e	-0.31688207
5	0xbe679eed	-0.22619219
6	0xbf428f5b	-0.75999993
7	0x3ee78a8d	0.45222893
8	0xbf98fb9a	-1.1951783
9	0xbd98d468	-0.07462388
10	0xbe1eff5c	-0.155271
11	0x3eb3d066	0.35119933
12	0xbf12c761	-0.5733548
13	0x3e69edb7	0.22844587
14	0xbf436e1c	-0.7633989
15	0x3d0ae57b	0.033910256
16	0xbf65bb6f	-0.89739126
17	0x3ef6fca4	0.48239625
18	0xbf6bc552	-0.9209796
19	0x3f0d8365	0.5527862
20	0xbdd4b9cd	-0.10387001
21	0xbe4279f7	-0.18991838
22	0xbe7c6b8c	-0.24650401
23	0xbf7237e4	-0.9461653
24	0x40215b85	2.521211
25	0xbfca56e3	-1.5807766
26	0x3f26c989	0.6515127
27	0xbf42f4cb	-0.76154774
28	0x3f824f28	1.0180407
29	0x3f33d4f9	0.70246845
30	0x3f51dad5	0.81974536
31	0x3f4e6ccf	0.8063478
32	0x3fc32a79	1.5247337
33	0x3fd3dc4f	1.6551608
34	0x3eff03a8	0.49807477
35	0xbec0917d	-0.37611
36	0xbf9f4114	-1.2441735
37	0x3f1d6f19	0.61497647
38	0xbf8cd79d	-1.10033
39	0x3f801de9	1.0009128
40	0x3e1535f2	0.1457136
41	0x3f6229ed	0.88345224
42	0xbf41a405	-0.756409
43	0xbf15a18f	-0.58449644
44	0x3e7d5700	0.24740219
45	0xbe0566dd	-0.1302752
46	0xbe011370	-0.12605071
47	0xbdba5417	-0.0909807
48	0x40084b6a	2.129603
49	0xbfc78e27	-1.5590256
50	0xbec7720b	-0.38954195
51	0x3ea61452	0.32437378
52	0x3fe2a5dc	1.7706866
53	0xbf836337	-1.0264653
54	0xbf4c2879	-0.79749256
55	0x3f1cc871	0.6124335
56	0x3f916e3a	1.1361763
57	0x3f491232	0.7854339
58	0x3d585cec	0.052822992
59	0x401dd87b	2.466338
60	0xbeabca6c	-0.33552873
61	0xbe9f620a	-0.31129485
62	0xc05f62ee	-3.4904132
63	0xbf64541a	-0.8919083
64	0x3ffdad65	1.9818541
65	0xbc893f88	-0.016753927
66	0x3e9b6f53	0.3035837
67	0xbfbf0127	-1.4922227
68	0x3ef13d00	0.47116852
69	0xbfdac9cb	-1.7092832
70	0x3fb9e0a9	1.4521686
71	0x3f805c86	1.0028236
72	0x3f939aad	1.1531578
73	0x3f9d85ca	1.2306454
74	0xbea4baaf	-0.32173678
75	0x3f425a91	0.75919443
76	0xbf19953b	-0.5999333
77	0xbf32df49	-0.69871956
78	0x3ec8da92	0.39229256
79	0x4036ae5c	2.854392
80	0x3fc45a46	1.5340049
81	0x3ed351ab	0.41273245
82	0xbedc7143	-0.43055162
83	0xbdc334df	-0.09531569
84	0x3e52d8c3	0.205905
85	0xbdff9094	-0.12478748
86	0x3e86b7f9	0.26312235
87	0xbf390f25	-0.72288734
88	0x3f529139	0.8225284
89	0x3d6086e0	0.054816127
90	0xbe84e9d1	-0.25959638
91	0x3fe0732f	1.7535151
92	0x3bc154d0	0.005900003
93	0x3f531aa5	0.8246253
94	0xc02be16e	-2.6856341
95	0xbf8c119e	-1.0942876
96	0x3c1ae8b3	0.009454894
97	0xbeabef4b	-0.33581004
98	0xbf845702	-1.0339053
99	0xbe33c1ee	-0.17554447
100	0x3da29565	0.07938651
101	0xbfd08288	-1.6289835
102	0x3f92952d	1.1451775
103	0xbff3281b	-1.8996614
104	0xbf837e48	-1.0272913
105	0xc0106215	-2.2559865
106	0xbfad1661	-1.3522455
107	0x3f0e20d7	0.5551886
108	0x3eec77e2	0.46185213
109	0xbc0640c2	-0.00819415
110	0x3ec72226	0.3889324
111	0x3f348b07	0.7052464
112	0xbed8ac34	-0.4231888
113	0xbf8867df	-1.0656699
114	0xbf8b65d8	-1.0890455
115	0xbe9751b0	-0.2955451
116	0x3d116be5	0.035503287
117	0x3fa233a3	1.2672008
118	0x3f114833	0.5675079
119	0x3e3f036e	0.18653652
120	0xbe9d0771	-0.3066974
121	0xbfb0fcfa	-1.3827202
122	0xc00edb60	-2.2321396
123	0xc07530c7	-3.8311021
124	0x3f8b07a8	1.0861712
125	0xbf220d0e	-0.6330117
126	0xbfd18b5c	-1.6370654
127	0x3f239aa0	0.63907814
128	0xbedda4b5	-0.43289724
129	0x3fab1b6b	1.3367742
130	0x3cd9d762	0.02659196
131	0x3ff49e35	1.9110781
132	0xbf31de55	-0.69479877
133	0xbe348dde	-0.17632243
134	0x3fe9627c	1.823318
135	0x3fa3c4f5	1.2794482
136	0x3fd63ae8	1.6736727
137	0xbea74b70	-0.32674742
138	0xbf61fb76	-0.88274324
139	0x3f2d3418	0.67657614
140	0xbf2b2a59	-0.6686149
141	0x3d642e9a	0.055708505
142	0x3fd34622	1.6505778
143	0x3d861663	0.06547239
144	0x3f39401a	0.72363436
145	0x3fbd659c	1.4796634
146	0x3f4907ec	0.7852771
147	0xbec6153c	-0.38688076
148	0x3eec6e76	0.46178025
149	0xbfeae0f7	-1.8349904
150	0x3e413d8c	0.18871135
151	0x3ff46ad5	1.9095103
152	0x3f648425	0.89264137
153	0x3f97752d	1.1832634
154	0xbf886bd8	-1.0657911
155	0x3f5630a6	0.8366798
156	0x3e68cc52	0.22734192
157	0xbf3bc957	-0.73354095
158	0xbfccbac0	-1.5994492
159	0x3d6e1382	0.058124073
160	0xbf506b3a	-0.81413615
161	0xbfb33e6c	-1.4003425
162	0x3bfb68b6	0.0076723946
163	0xbf6611ae	-0.8987073
164	0xbe93bc6e	-0.28854698
165	0x3f8d0051	1.1015722
166	0xbf80d4ca	-1.0064938
167	0xbe2ac688	-0.16677296
168	0xbf0b2f6b	-0.5436923
169	0xbf7d16ec	-0.988631
170	0xbe158677	-0.14602076
171	0x3f0f86cf	0.56065077
172	0x3fbe24bc	1.485496
173	0xbf8e1507	-1.1100167
174	0xbeeb94f8	-0.46012092
175	0xc09d8fbf	-4.923797
176	0xbf99feb3	-1.2030853
177	0xbfd91dd5	-1.6962229
178	0xbf9966c9	-1.1984493
179	0xbf7af997	-0.98037094
180	0xbf010bb7	-0.504085
181	0xbf8241b8	-1.0176306
182	0xbfa1dc11	-1.2645284
183	0xbf3a4038	-0.7275424
184	0xc0271cc3	-2.6111305
185	0x3ef5a814	0.47979796
186	0xbf37ede4	-0.7184737
187	0x3fc62815	1.5480982
188	0xbe8def81	-0.2772179
189	0x3e4aa468	0.19789279
190	0xbfac3972	-1.3455031
191	0xbfbe0985	-1.4846655
192	0xc0022866	-2.0337157
193	0x3f863aa3	1.0486645
194	0xbf92eea1	-1.1479074
195	0xbe453a00	-0.19260406
196	0xc029ac83	-2.6511543
197	0x3e2b980e	0.16757223
198	0x3cd8542b	0.026407322
199	0x400733f7	2.1125467
200	0x3f11abeb	0.5690295
201	0xbf9a7989	-1.206834
202	0x3fb92060	1.4463005
203	0xbed701db	-0.41993603
204	0xbf8d71d7	-1.1050366
205	0x3e189c8b	0.14903466
206	0xbe52235d	-0.20521303
207	0x3f12d29d	0.5735262
208	0x3ea29bdd	0.3175954
209	0xbeb19610	-0.346848
210	0xbf870d56	-1.0550945
211	0xbea4a099	-0.32153776
212	0x3f6f6fea	0.9353014
213	0xbc0306c6	-0.00799722
214	0x3ffce55e	1.9757497
215	0xbf9e7fee	-1.2382791
216	0xbf39cc2f	-0.72577184
217	0xbeddbbd4	-0.43307364
218	0x3f90947b	1.1295313
219	0xbf712603	-0.94198626
220	0xbfaefd21	-1.3670999
221	0x3f5af27e	0.85526264
222	0xbe619a7e	-0.2203159
223	0x3f3a0f6b	0.72679776
224	0x3f3044a6	0.6885475
225	0x3d2fc638	0.042913646
226	0x3d6ccdb8	0.057813376
227	0xbfb15249	-1.3853236
228	0xbeb64b7b	-0.35604462
229	0xbec820e6	-0.390876
230	0xbef97853	-0.48724613
231	0xc0203b64	-2.503625
232	0xbf007e47	-0.50192684
233	0x3f758a38	0.9591403
234	0x3e897ebe	0.2685451
235	0x3f0fdc18	0.5619521
236	0x3f348c04	0.70526147
237	0x3f9c6a3a	1.2219918
238	0x3f92695c	1.1438403
239	0xc04d1097	-3.2041376
240	0x3f9f3cc1	1.2440416
241	0xc05c89bb	-3.4459064
242	0xbf600484	-0.8750689
243	0x3dfff13b	0.12497183
244	0x3fc79662	1.5592768
245	0x3f41a362	0.7563993
246	0x3fd173ad	1.6363426
247	0xbfadb26d	-1.3570076
248	0xbedf720c	-0.43641698
249	0xc0159f77	-2.337858
250	0xbf8bca6c	-1.0921149
251	0xbf6ee06b	-0.93311185
252	0xbe034957	-0.12820946
253	0x3fb4aa74	1.4114518
254	0x3f655eb8	0.89597654
255	0x3e97db07	0.29659292

l1/b f4 [256]
0	0x3ee023af	0.43777224
1	0xbd23d2e7	-0.039996054
2	0x3f7b98e1	0.9828015
3	0xbddca419	-0.10773487
4	0x3e8a1672	0.2697025
5	0xbf00359e	-0.50081813
6	0x3f14d4f0	0.58137417
7	0x3e812568	0.2522385
8	0x3f1de4eb	0.61677426
9	0xbed0c6ba	-0.40776616
10	0xbf01697c	-0.5055158
11	0x3effe149	0.49976566
12	0xbf605755	-0.8763326
13	0x3f1a4b1f	0.60270876
14	0xbf59e242	-0.8511087
15	0x3ebd205d	0.36938754
16	0x3d9bdb3b	0.07610174
17	0xbf4a5970	-0.7904272
18	0xbe551751	-0.20809676
19	0xbf02596c	-0.50917697
20	0x3f855f09	1.0419627
21	0x3f3f405e	0.7470759
22	0x3f1e8b5c	0.61931396
23	0xbecf3ad1	-0.4047456
24	0xbf4133bf	-0.75469583
25	0xbf8875e0	-1.0660973
26	0x3e5266f4	0.20547086
27	0x3f9ba447	1.2159508
28	0xbecc1015	-0.3985602
29	0xbf87d76d	-1.0612618
30	0xbf6828ff	-0.90687555
31	0xbf32e515	-0.698808
32	0x3e58e49e	0.2118096
33	0xbd0bdd74	-0.03414674
34	0xbfdcacdc	-1.7240252
35	0x3f55a9cf	0.8346223
36	0x3f3a6f48	0.7282605
37	0x3f768ff3	0.963134
38	0x3e0c9ab7	0.13730894
39	0xbd92cf77	-0.07168477
40	0x3ec6c73b	0.38823876
41	0x3e8e2843	0.27765092
42	0xbeeca98c	-0.46223104
43	0xbe09bd00	-0.13451004
44	0x3f4fd1fb	0.8117978
45	0xbda70d38	-0.08156818
46	0xbd0a9889	-0.033836875
47	0x3f0f6f92	0.5602962
48	0xbfafeb24	-1.3743634
49	0x3fb854be	1.4400861
50	0xbe23e8de	-0.160068
51	0x3f901111	1.1255208
52	0x3ee5ed5a	0.44907647
53	0x3da14e41	0.07876254
54	0x3f879480	1.0592194
55	0x3f16fb46	0.5897716
56	0xbe0eaa13	-0.13932066
57	0xbeb7ba9d	-0.35884562
58	0x3f332bb1	0.6998854
59	0x3e24d795	0.16097863
60	0x3f876f71	1.0580884
61	0x3d475aee	0.0486707
62	0x3ec8e7e1	0.3923941
63	0xbfc90ffc	-1.5708003
64	0xbf6a7c1f	-0.91595644
65	0x3f780279	0.9687877
66	0x3e95b71e	0.2924127
67	0xbe18781c	-0.14889568
68	0xbf6bf83b	-0.92175645
69	0x3f057d27	0.5214409
70	0xbe9efc2b	-0.31051764
71	0x3f07e854	0.5308888
72	0x3eb2bfe3	0.34912023
73	0xbe51fb0a	-0.2050592
74	0x3fb0b6f7	1.3805836
75	0x3d9ae43c	0.075630635
76	0x3f1dc5da	0.6163002
77	0x3eada8fe	0.33917993
78	0x3fcca506	1.5987861
79	0x3faefe21	1.3671304
80	0x3e84d7df	0.25945947
81	0xc000773c	-2.0072775
82	0xbdbb91ff	-0.09158706
83	0x3ed40c74	0.4141575
84	0x3f0f3a5a	0.5594841
85	0xbf6d0e47	-0.9259991
86	0x3e3f4d6f	0.18681882
87	0x3e344dd9	0.17607822
88	0x3eadcb7e	0.33944315
89	0x3edf38c1	0.43597987
90	0xbda15a54	-0.07878557
91	0x3f0f42a2	0.5596105
92	0x3f79a959	0.9752403
93	0xbfaeec23	-1.3665813
94	0xbf5bfd69	-0.8593355
95	0x3dd0fc81	0.10204411
96	0xbfa1dfec	-1.264646
97	0xbfab52a5	-1.3384596
98	0x3fae7531	1.3629514
99	0x3f1629ee	0.5865773
100	0x3f98e409	1.1944591
101	0x3f789045	0.9709514
102	0xbd4ae8c3	-0.049538385
103	0xbf8f7e78	-1.121047
104	0x3f87aeb0	1.0600185
105	0x3d358160	0.044312835
106	0xbec80f3a	-0.39074117
107	0xbf7fcb23	-0.9991934
108	0x3e2126f8	0.15737522
109	0x3f84d024	1.037602
110	0xbf790a9e	-0.97281826
111	0x3f8825e4	1.0636563
112	0x3f3262ea	0.6968218
113	0x3fc27e6f	1.5194834
114	0x3e7124a5	0.23549135
115	0x3f589761	0.84605986
116	0x3ee51e3b	0.44749627
117	0x3f7f0520	0.99617195
118	0x3f908301	1.1289979
119	0x3efc7c31	0.493135
120	0x3f9f2823	1.2434124
121	0xbf93add9	-1.1537429
122	0x3ebd4bba	0.36971837
123	0x3e3efb13	0.18650465
124	0xbfe871a4	-1.815968
125	0xbef1492a	-0.47126132
126	0x3ece8dbc	0.4034251
127	0xbe866049	-0.26245335
128	0x3ca58ccd	0.02020874
129	0xbfe1ad6b	-1.7631048
130	0x3fbe2539	1.485511
131	0xbf79e752	-0.9761859
132	0xbf671540	-0.902668
133	0x3ec499a9	0.38398483
134	0x3f1f1584	0.62142205
135	0x3fb98d30	1.4496212
136	0xbf81b7ab	-1.0134176
137	0x3bdd452d	0.006752631
138	0x3f6e1bd6	0.93011224
139	0x3f5a69c9	0.85317665
140	0xbfb1e46e	-1.3897836
141	0xbf1e3d0f	-0.6181192
142	0x3fa09cda	1.2547867
143	0xbf059bc0	-0.5219078
144	0x3e5b12b8	0.2139386
145	0x3f0ce1d9	0.55032116
146	0x3ed6d848	0.41961884
147	0x3fbdb7d3	1.4821724
148	0x3f2fa994	0.6861813
149	0xbde79d92	-0.11309351
150	0xbe0c3f95	-0.1369613
151	0x3f45f164	0.7732146
152	0xbf010497	-0.5039763
153	0xbdfd2cf4	-0.1236209
154	0xbec9e642	-0.39433485
155	0xbbf1e604	-0.0073821563
156	0x3ec8756d	0.3915209
157	0x3fe915da	1.8209794
158	0xbfa6d3ca	-1.3033383
159	0x3fd01466	1.6256225
160	0x3c371ddf	0.011176555
161	0x3f164def	0.5871267
162	0x3f850aaa	1.039388
163	0x3f2dbff8	0.67871046
164	0x3f4e2b6b	0.80535
165	0xbf9e39f4	-1.2361436
166	0x3f7b8c7c	0.9826124
167	0xbfe81cb5	-1.8133761
168	0xbfc597b1	-1.5436918
169	0xbeaa1a99	-0.33223417
170	0x3f5a7ac9	0.85343605
171	0xbe068f88	-0.1314069
172	0xbd87ab2d	-0.06624446
173	0x3e9f425d	0.3110532
174	0x3f97035f	1.1797904
175	0xbf40d36e	-0.75322616
176	0xbec33d15	-0.3813254
177	0xbf87883b	-1.0588449
178	0xbe8e3460	-0.27774334
179	0xbf8c0809	-1.0939952
180	0x3f7a5234	0.9778168
181	0xbe234624	-0.15944725
182	0x3f25919a	0.64675295
183	0x3f31896a	0.693503
184	0x3f0bcf52	0.5461322
185	0xbe02f948	-0.12790406
186	0xbfe6d271	-1.8032972
187	0x3f84e611	1.0382711
188	0x3e4f6b18	0.20255697
189	0x3f775337	0.9661135
190	0x3e79a635	0.24379809
191	0x3f9f1890	1.2429371
192	0x3e8b09ec	0.27156007
193	0x3f768e77	0.96311134
194	0xbfa0b7db	-1.2556108
195	0xbeb40f7f	-0.35168073
196	0xbd58bae7	-0.05291262
197	0xbf8842f0	-1.0645428
198	0xbeb0573a	-0.3444155
199	0x3f8f89b1	1.1213895
200	0xbeb746d4	-0.35796225
201	0x3eb66691	0.35625127
202	0xbf2ef2ca	-0.68339217
203	0x3f33e3cc	0.70269465
204	0x3ee23caa	0.44186908
205	0xbf9b0235	-1.2110049
206	0xbfbc1344	-1.4693379
207	0xbfc58f00	-1.5434265
208	0x3f18d82f	0.5970487
209	0x3e84e404	0.25955212
210	0xbf98d3dd	-1.1939656
211	0xbed03a56	-0.40669507
212	0xbd81eedd	-0.06344388
213	0x3fa94afa	1.3226006
214	0xbe53869a	-0.20656815
215	0xbc8be443	-0.017076617
216	0x3ecb30f3	0.39685783
217	0xbf5e92e8	-0.8694291
218	0xbdfc6b92	-0.12325205
219	0xbf1b5986	-0.60683477
220	0x3f6559d3	0.89590186
221	0x3e606d2d	0.21916647
222	0xbf034906	-0.512833
223	0xbf9af554	-1.2106118
224	0x3f9bffb8	1.2187414
225	0xbf7d8e0a	-0.9904486
226	0x3f1ce2ce	0.61283576
227	0x3e6bb34c	0.23017615
228	0x3ec924f7	0.39286014
229	0x3f8673f3	1.0504135
230	0x3e86b956	0.26313275
231	0xbfd32718	-1.6496305
232	0x3f74714e	0.9548539
233	0xbf2ed426	-0.6829246
234	0x3eb7143d	0.35757628
235	0xbf67cbfe	-0.9054564
236	0x3f4c31c3	0.7976343
237	0x3fb4cc23	1.4124798
238	0xbfbd1f30	-1.4775143
239	0x3f84f216	1.0386379
240	0x3f083e56	0.5322012
241	0xbf207563	-0.6267912
242	0x3ee1cd9f	0.4410219
243	0xbf227ed5	-0.6347478
244	0xbfa63b36	-1.298682
245	0xbf9d92d7	-1.2310437
246	0x3dbb29a4	0.09138802
247	0xbd50a91c	-0.050942525
248	0x3da4b436	0.08042185
249	0x3de21842	0.11039783
250	0x3f222430	0.6333647
251	0x3fb3c290	1.4043751
252	0xbf62d400	-0.88604736
253	0x3ebc95a5	0.3683292
254	0x3eb3bfae	0.35107177
255	0xbfe3a5ad	-1.7784935

l4/W f4 [64, 256]
0	0x3ff7f444	1.9371419
1	0x4088307a	4.2559175
2	0x403e91a3	2.977639
3	0x4022d009	2.5439475
4	0x3fe70fba	1.8051674
5	0x3feab7b9	1.8337318
6	0x404d9a95	3.21256
7	0x4064f246	3.5772872
8	0x3fad2f26	1.3530014
9	0x3fdbb037	1.7163152
10	0x407f1981	3.9859316
11	0x4000bd10	2.0115395
12	0x400dd1ab	2.215922
13	0x40740e58	3.8133755
14	0x403aa7b5	2.916486
15	0x407f083a	3.984877
16	0x40102b05	2.2526257
17	0x401a69a8	2.4126987
18	0x4018cc40	2.3874664
19	0x408094f7	4.018184
20	0x408c0fc3	4.376924
21	0x40872096	4.222728
22	0x3f9649e0	1.1741295
23	0x4057e927	3.3736055
24	0x406db478	3.71414
25	0x3fd02fc9	1.6264583
26	0x408771c1	4.232636
27	0x403eaff8	2.9794903
28	0x402274d9	2.5383818
29	0x4030f895	2.7651722
30	0x406c5459	3.6926482
31	0x400861ce	2.1309695
32	0x40448681	3.0707095
33	0x3fc23ebc	1.5175395
34	0x402ebd36	2.7302985
35	0x3f6eb1b9	0.93239933
36	0x4094d17a	4.650571
37	0x407379f7	3.8043191
38	0x406fbef7	3.7460306
39	0x40047ab5	2.0699894
40	0x401a8aab	2.4147136
41	0x401f8b5a	2.4928803
42	0x40869c7c	4.206602
43	0x4000e165	2.013757
44	0x401663d2	2.3498425
45	0x403ee7c0	2.982895
46	0x3fcc1c59	1.5946151
47	0x4082861e	4.0788717
48	0x405c5a9e	3.4430308
49	0x400295e8	2.0403996
50	0x40143137	2.3155038
51	0x405b35c4	3.4251566
52	0x4068aa64	3.6353998
53	0x403e5272	2.973782
54	0x401e94e9	2.4778388
55	0x40654578	3.582365
56	0x40533605	3.300172
57	0x40813a98	4.0384026
58	0x40c2891d	6.0792375
59	0x406e17f2	3.7202115
60	0x3fb3d9e6	1.4050872
61	0x408ee88b	4.4658866
62	0x409c83cf	4.89109
63	0x4057d912	3.372624
64	0x4030ca1c	2.7623358
65	0x40c11efe	6.035033
66	0x402f2447	2.7365892
67	0x40957960	4.6710663
68	0x40a0109c	5.0020275
69	0x403cc7b6	2.9496894
70	0x40934b7f	4.602966
71	0x4012dbdd	2.2946694
72	0x3fd8cc79	1.69374
73	0x409f8ee4	4.9861927
74	0x40b695bb	5.7057776
75	0x403bf042	2.9365392
76	0x40308c88	2.7585773
77	0x403e1374	2.9699373
78	0x40361ffc	2.8457022
79	0x403e4611	2.9730265
80	0x3fe9d33e	1.8267591
81	0x40847fdb	4.1406074
82	0x4092a154	4.5821934
83	0x40361d82	2.845551
84	0x3ff1d582	1.8893282
85	0x3fb73eff	1.43161
86	0x40778bf4	3.867917
87	0x401fc754	2.496541
88	0x4045d72a	3.0912576
89	0x3f9fc7c9	1.2482845
90	0x40255436	2.5832648
91	0x40682623	3.6273277
92	0x403b74fd	2.9290154
93	0x3fbbd1bb	1.467338
94	0x409cf2aa	4.904622
95	0x40832b06	4.099002
96	0x3faea09e	1.3642766
97	0x40b4d041	5.6504216
98	0x405039a5	3.2535183
99	0x4024b947	2.5738084
100	0x3ff9fa43	1.9529499
101	0x3f0c8169	0.54884964
102	0x4069ff5e	3.6562114
103	0x40703993	3.753514
104	0x4031de45	2.7791913
105	0x4072150a	3.7825341
106	0x403baef1	2.9325526
107	0x3f93f745	1.1559836
108	0x4001d6b4	2.0287294
109	0x3fd1d8c5	1.6394278
110	0x4056538d	3.3488495
111	0xbf9efb59	-1.2420455
112	0x405da7b3	3.4633605
113	0x404b0fd3	3.1728408
114	0x3fdbe561	1.7179376
115	0x4069f99a	3.6558595
116	0x3faddcb5	1.358298
117	0x40904567	4.508472
118	0x4043c60c	3.0589628
119	0x3fd361e9	1.6514255
120	0x3f8c8f0d	1.0981156
121	0x4051812c	3.273509
122	0x409f45a1	4.9772496
123	0x408a578a	4.323186
124	0x4058a6c9	3.3851798
125	0x400648d6	2.0981956
126	0x40a93b5d	5.2884965
127	0x40217202	2.5225835
128	0x4047f71d	3.1244576
129	0x3fe43c06	1.7830818
130	0x3f35a8b2	0.70960534
131	0x3fb27b79	1.3943931
132	0x3f070fe5	0.5275863
133	0x404b67a7	3.1782014
134	0x3fb65502	1.4244692
135	0x3fc432e8	1.5328035
136	0x40733e9e	3.8006968
137	0x40a561ab	5.1681724
138	0x400ebe64	2.2303705
139	0x409e1c09	4.9409223
140	0x4036d067	2.8564699
141	0x4052f300	3.2960815
142	0x404b66d8	3.178152
143	0x400ee6da	2.23284
144	0x402497f5	2.5717747
145	0x4094db61	4.6517797
146	0x40026627	2.037485
147	0x403df9e3	2.9683769
148	0x404c83a2	3.1955342
149	0x4081810e	4.0470037
150	0x40098b79	2.1491377
151	0x405c89b9	3.445906
152	0x40324158	2.7852383
153	0x403febd1	2.998768
154	0x3fb4ae28	1.4115648
155	0x40a8e9e6	5.278552
156	0x408ae922	4.3409586
157	0x405fd174	3.497159
158	0x3f8118c2	1.008568
159	0x40762009	3.8457053
160	0x400bf534	2.186841
161	0x3fdbaceb	1.7162145
162	0x403a5a6c	2.911769
163	0x402baa1f	2.6822584
164	0x3fe8acc8	1.8177729
165	0x406b802f	3.6796987
166	0x404bbaaf	3.1832693
167	0x4024c7d8	2.5746975
168	0x3ee7e68e	0.45293087
169	0x400a513c	2.1612082
170	0x409f76e1	4.9832616
171	0x4079baa8	3.9020176
172	0x406fa0d5	3.7441914
173	0x401d1fc3	2.4550636
174	0x406bde0f	3.6854284
175	0x3fda9adf	1.7078513
176	0x401cd5b8	2.4505444
177	0x40874577	4.2272296
178	0x4060b273	3.5108917
179	0x405391f3	3.305783
180	0x408bcf55	4.369059
181	0x40841cd4	4.128519
182	0x3fc7c396	1.5606563
183	0x407b5d30	3.9275627
184	0x406b1e6b	3.6737316
185	0x4047c425	3.1213467
186	0x404dc2ca	3.215014
187	0x404ab0b3	3.1670349
188	0x409c3b66	4.882251
189	0x4022e308	2.545107
190	0x404e6d9e	3.2254405
191	0x409d81e7	4.922107
192	0x3fa6d1cf	1.3032779
193	0x401935a4	2.393899
194	0x3feafe34	1.8358827
195	0x403b5cd8	2.9275417
196	0x408795a3	4.237016
197	0x3fd63bab	1.6736959
198	0x402b047d	2.672149
199	0x40296f32	2.6474118
200	0x3fca1578	1.5787802
201	0x403b05a3	2.922219
202	0x404e973b	3.2279804
203	0x4006cb7d	2.10617
204	0x4038d6da	2.8881135
205	0x4068003f	3.625015
206	0x404f034d	3.2345765
207	0x3fbee951	1.4914953
208	0x402f95d7	2.7435205
209	0x408836bb	4.256681
210	0x3fb6b8fd	1.4275204
211	0x404fee1c	3.248908
212	0x409fc6ca	4.9930162
213	0x40411445	3.0168622
214	0x404ae5ed	3.1702836
215	0x3fb5bd65	1.4198424
216	0x40821171	4.064629
217	0x3ff4f33d	1.913673
218	0x4069e8a5	3.6548245
219	0x3febf4f4	1.8434129
220	0x3fdaacb3	1.7083954
221	0xc0b0ba8f	-5.5227733
222	0x4047af49	3.1200736
223	0x40219aaf	2.5250661
224	0x40a800d9	5.2501035
225	0x404cdc56	3.2009482
226	0x40b3d6b3	5.6199584
227	0x40a1b371	5.0531545
228	0xbf7d3bcd	-0.98919374
229	0x407771cd	3.8663208
230	0x402817e1	2.6264575
231	0xbf50b6e2	-0.8152906
232	0x407bb681	3.9330142
233	0x405fb1aa	3.4952188
234	0x401653be	2.3488612
235	0x401c9d1d	2.4470894
236	0x406475d4	3.5696917
237	0x4022a1a1	2.541115
238	0x3f9d7db0	1.2303982
239	0x401a7779	2.413542
240	0x40006c62	2.0066152
241	0x3f878d31	1.0589963
242	0x3fbb6b5d	1.464214
243	0x401bab22	2.43232
244	0x40625059	3.536154
245	0x4039d1b7	2.903425
246	0x3c95ad57	0.018271131
247	0x3fee953f	1.8639296
248	0x3fedb71b	1.8571504
249	0x403a36c6	2.909593
250	0x4045ccc7	3.0906236
251	0x3fd023b0	1.6260891
252	0x403ee4cb	2.9827144
253	0x40209798	2.5092525
254	0x4052e5b7	3.2952707
255	0x408269b5	4.0754037

l4/b f4 [64]
0	0x3da5294c	0.080645174
1	0x3f87edd1	1.0619451
2	0x3fae5311	1.36191
3	0xbe716d3d	-0.23576827
4	0x3f5776df	0.8416576
5	0x3eee94ef	0.46598002
6	0xbf3ef1bd	-0.74587613
7	0x3dd31335	0.10306398
8	0x3f212360	0.629446
9	0x3f7af0f3	0.9802391
10	0x3f6b0c5d	0.9181574
11	0x3fb6b865	1.4275023
12	0x3f9ef0bd	1.2417217
13	0x3fe7a10c	1.8096023
14	0x3f9713db	1.1802934
15	0xbe77971e	-0.2417874
16	0x3e95ddb9	0.29270723
17	0x3fbd9f0a	1.481416
18	0x3fc9c646	1.5763633
19	0x3fa2d432	1.2721007
20	0x3f92d68d	1.1471726
21	0x3fc08d2e	1.5043085
22	0x3f67c1b3	0.90529937
23	0x3f41da4c	0.7572372
24	0x3fafa099	1.3720886
25	0x3ffd5c19	1.9793731
26	0x3f9baa1c	1.2161288
27	0x3e36c992	0.1785033
28	0x3ed701a3	0.41993436
29	0x3fe68eb3	1.8012298
30	0x3ff0f9fc	1.8826289
31	0x3f7cbc0f	0.98724455
32	0x3fafa1c3	1.3721241
33	0x3fbaa73d	1.4582287
34	0x3ff6215a	1.9228928
35	0x3e2bb132	0.16766813
36	0x3e8b4a65	0.27205196
37	0x3f683971	0.9071265
38	0x3f670814	0.902467
39	0x3f8413d1	1.0318547
40	0x3ed6e44e	0.41971058
41	0x3fdc751b	1.7223238
42	0x3f656cba	0.8961903
43	0x3fcfcc7c	1.6234279
44	0x3f790ebe	0.9728812
45	0x3fecc616	1.8497951
46	0x3f072f11	0.5280619
47	0xbc64d1f1	-0.01396607
48	0x3f26c825	0.65149146
49	0x3ec8e71c	0.39238822
50	0x3fa115cf	1.258478
51	0x3f968298	1.1758604
52	0x3f8e0215	1.1094385
53	0x3fca0abd	1.5784527
54	0x400163a0	2.0217056
55	0xbe2eac35	-0.1705788
56	0x3deb9515	0.115030445
57	0xbf1058c2	-0.56385434
58	0x3fd2ea45	1.6477743
59	0x3fa4fd1a	1.288974
60	0x3f90436d	1.1270577
61	0x3ec22f3e	0.37926668
62	0x3e98c6de	0.29839224
63	0x3f5da952	0.8658649

l3/W f4 [256, 256]
0	0x3f9418dc	1.1570086
1	0x3ed6627e	0.4187202
2	0x4017d9b4	2.3726625
3	0x4027e7bb	2.6235187
4	0x400c60d0	2.193409
5	0x3f39f0c6	0.72633016
6	0x40045207	2.0675066
7	0xbc023f79	-0.007949703
8	0x3f59c920	0.8507252
9	0xbed3ea38	-0.41389632
10	0x3f13fee2	0.57810795
11	0x3f364da0	0.71212196
12	0x3fa28116	1.2695644
13	0xbf550895	-0.8321622
14	0x4087effc	4.248045
15	0xbf095054	-0.53638196
16	0x40825b28	4.0736275
17	0x3fe6f851	1.804453
18	0x3fd42474	1.6573625
19	0x3ea8009c	0.32812965
20	0x3f264708	0.64952135
21	0x4008dee8	2.138605
22	0x3db968c8	0.090531886
23	0x3fe1d0dd	1.7641865
24	0xbf6da8e4	-0.9283583
25	0x3daa071d	0.08302138
26	0xbd40b11c	-0.047043905
27	0x3e21ecdb	0.1581301
28	0x3f689590	0.90853214
29	0xbe2f03b0	-0.1709125
30	0x3f82f819	1.0231963
31	0x3fe97ad4	1.8240609
32	0x3f5c238f	0.8599176
33	0x3fdae2d2	1.710047
34	0x3f26b0c2	0.6511346
35	0x3f50ed20	0.81611824
36	0xbf422af9	-0.7584682
37	0x3fa3fa19	1.2810699
38	0x3f9f58bd	1.2448956
39	0x3efa5893	0.48895702
40	0x3f249808	0.6429448
41	0x3dd93ddb	0.10607501
42	0x3fc21c13	1.5164818
43	0xbecbe25f	-0.39821145
44	0x3f15c59f	0.5850467
45	0xbf9f435e	-1.2442434
46	0xc07550af	-3.8330495
47	0xc00b6af0	-2.178402
48	0xbf816f6e	-1.0112131
49	0x3ee7fcef	0.4531016
50	0x40460949	3.0943167
51	0xbddbc1c4	-0.10730317
52	0x3f993c30	1.1971493
53	0x3fcddf5f	1.6083792
54	0xbe90dc7a	-0.2829321
55	0xbf956740	-1.1672134
56	0xbfe3609f	-1.7763861
57	0x400b0e54	2.1727495
58	0x3ed124db	0.4084843
59	0xbf85d8c8	-1.0456781
60	0x3fe1b157	1.7632245
61	0xbf0b400d	-0.5439461
62	0xbec3207c	-0.3811072
63	0xbfbc51a5	-1.4712416
64	0xbeac6431	-0.3367019
65	0x3f3e7312	0.74394333
66	0x3f72ed93	0.9489376
67	0x3ff24e28	1.8930101
68	0xbfcb602e	-1.5888727
69	0xc00219ce	-2.032825
70	0x400bc9bb	2.1841877
71	0x401a1ad3	2.4078872
72	0x3f01663f	0.5054664
73	0xbf9adb56	-1.2098186
74	0xc0203811	-2.503422
75	0x4054d540	3.3255157
76	0xbf81a217	-1.0127591
77	0xbfe5902c	-1.7934623
78	0x4019aa16	2.4010062
79	0x3f83f3cb	1.0308775
80	0x4022d869	2.5444586
81	0x3ff0b93c	1.8806529
82	0x3f3296b7	0.6976122
83	0x3f0d05df	0.55087084
84	0xbe831a62	-0.25606066
85	0xbfd9b108	-1.7007151
86	0xbf1567d2	-0.5836154
87	0x3e0ca893	0.13736181
88	0xc0313969	-2.769129
89	0x3ed15929	0.40888336
90	0x3fba9857	1.457774
91	0x3f761e3a	0.9613987
92	0xc002b0f5	-2.0420506
93	0x40415fe7	3.0214784
94	0x4064c36c	3.5744276
95	0x3ecdbe24	0.40184128
96	0x408759d1	4.229714
97	0x3f23f301	0.6404267
98	0x3ede56e7	0.43425676
99	0x3fddfc1f	1.7342566
100	0x406183fe	3.5236812
101	0x3f5dd59c	0.8665407
102	0xbfdc3d90	-1.7206287
103	0x3f2a4d7a	0.6652447
104	0x40122daa	2.284037
105	0xbf0165bb	-0.50545853
106	0xbe27732c	-0.16352528
107	0x3f88b1a9	1.0679218
108	0x4088f7a3	4.280229
109	0x3f081801	0.5316163
110	0x4048e9bb	3.1392658
111	0x401af6c4	2.4213114
112	0xbfa3f18b	-1.2808088
113	0x40898cf1	4.2984548
114	0xc02b79a3	-2.679299
115	0x409b06ba	4.844571
116	0x400a81e9	2.164179
117	0x40217796	2.522924
118	0x3ea1425c	0.3149594
119	0x3e1e1bc3	0.15440278
120	0xbfeb02bb	-1.8360208
121	0x3fb266c1	1.3937608
122	0x3fce146b	1.6099981
123	0xbf12f257	-0.5740103
124	0x3ee653bf	0.44985768
125	0x3fbaaeb7	1.4584569
126	0x3f1608b4	0.5860703
127	0x3fc24b2d	1.5179192
128	0x3fd2b96d	1.6462837
129	0x3f9ea04d	1.239267
130	0x3d05ce41	0.032667402
131	0x40264b45	2.598344
132	0x3ffb6ce5	1.9642607
133	0x3f613cb0	0.87983227
134	0x3e413a7a	0.18869963
135	0xbf642d27	-0.89131397
136	0x3fe4df8e	1.7880723
137	0x3eb4fc16	0.35348576
138	0xbfbb88a4	-1.4651074
139	0x3fd76947	1.6829003
140	0x400bd09b	2.1846073
141	0xbfb9929a	-1.4497864
142	0x3eff33d4	0.4984423
143	0x3f2cad0c	0.6745155
144	0x4006d189	2.106539
145	0xbfa478a1	-1.2849313
146	0xbf102740	-0.5630989
147	0x3fd91cc4	1.6961904
148	0xbeab2b53	-0.3343149
149	0x400897ad	2.1342576
150	0x3fa4223c	1.2822948
151	0xc0132d8e	-2.2996554
152	0x3fbdd2a6	1.482991
153	0xc001abb3	-2.0261047
154	0x403758db	2.8647983
155	0xc006330e	-2.0968661
156	0x3fa4a1b4	1.2861848
157	0x3fe941bb	1.8223184
158	0x40606e59	3.506735
159	0xbf668b42	-0.9005624
160	0x404d9971	3.2124903
161	0x4013e154	2.310628
162	0xc00c8c94	-2.1960802
163	0x4085e1fa	4.183835
164	0x3ecf182e	0.40448135
165	0x3f68dc43	0.9096109
166	0xbff4d13e	-1.9126356
167	0xc02b0cd3	-2.6726577
168	0x40477897	3.1167352
169	0xc01b255f	-2.424156
170	0x3fae0c29	1.3597461
171	0x40849cf7	4.1441607
172	0x3fe41779	1.7819663
173	0x3f6c415d	0.92287236
174	0xbfa5ddc0	-1.2958298
175	0xc03e4fa7	-2.9736116
176	0x3d2a50ce	0.041580968
177	0xbfb87a54	-1.4412332
178	0xbf8a1549	-1.0787746
179	0xbf330d23	-0.6994192
180	0x401ef4d9	2.4836943
181	0x40adc814	5.4306736
182	0x3f93a993	1.1536125
183	0x3f915ada	1.1355851
184	0x408c186c	4.377981
185	0x400ee065	2.232446
186	0x3fa2c4eb	1.2716345
187	0x3f8b9c8a	1.0907147
188	0x3eefe23d	0.46852294
189	0x401b3aa7	2.4254549
190	0x3fc1d61a	1.5143464
191	0x402428b9	2.5649855
192	0x3ea77762	0.3270827
193	0x4007f597	2.1243646
194	0x401c019b	2.437598
195	0x3ea643aa	0.324735
196	0x3eba9c8c	0.3644756
197	0x3f867e3b	1.0507272
198	0xbf760530	-0.96101665
199	0x3f6bc590	0.9209833
200	0x40ad072d	5.407126
201	0xbf8585c1	-1.0431443
202	0x407cf5c0	3.9524994
203	0x3f29819e	0.66213405
204	0x3fd2da58	1.6472883
205	0x3faec109	1.365266
206	0xbfa818e1	-1.3132592
207	0x3f278e69	0.65451676
208	0xbf4a3469	-0.7898622
209	0x402eff65	2.734338
210	0x3e2c41ec	0.16822022
211	0xbfc1fc01	-1.515503
212	0x404a3ed2	3.1600842
213	0x3f5bffd6	0.8593725
214	0x3f98c789	1.1935893
215	0x3fe82ce5	1.8138701
216	0x4069f884	3.6557932
217	0x4001ee67	2.030176
218	0xbed0672e	-0.4070372
219	0x3d227fd6	0.039672695
220	0x3f92e412	1.1475852
221	0x3ef1c46f	0.4722018
222	0xbec95809	-0.39324978
223	0x3e4759b2	0.1946781
224	0x404dfc7c	3.2185354
225	0x3f7c48d3	0.9854862
226	0x40105d96	2.255712
227	0x3fc4cdad	1.5375267
228	0xbfc28b4e	-1.5198762
229	0xbe98c54c	-0.29838026
230	0x3f8a9968	1.0828066
231	0x3f51884b	0.8184859
232	0xbfc54a58	-1.5413313
233	0x40a09b18	5.0189323
234	0xbf0692f9	-0.5256801
235	0x3f49b9a6	0.787989
236	0x40248f95	2.5712636
237	0x3e7747c2	0.24148467
238	0x3f0fcfbc	0.5617635
239	0xbf149cb4	-0.5805161
240	0xbfbdf25f	-1.4839591
241	0xbf2e1eb0	-0.68015575
242	0x4007a58a	2.1194787
243	0x4009c31a	2.152533
244	0x403e7edc	2.976493
245	0x3f071dd6	0.527799
246	0xbfa1dd98	-1.264575
247	0x3f1ec52e	0.6201962
248	0x3e647a25	0.2231222
249	0xbec2e591	-0.3806577
250	0x3f257262	0.6462766
251	0x3f856194	1.0420403
252	0x3f8cc95e	1.0998952
253	0x407b562c	3.9271345
254	0x401f4174	2.48837
255	0x3fb77104	1.4331365

l3/b f4 [256]
0	0x3e5bd385	0.21467407
1	0x3fae4c2f	1.3616999
2	0x400c7bd0	2.195057
3	0x3f578063	0.8418028
4	0x404c9f5f	3.1972272
5	0x406314be	3.548141
6	0xbe12eba0	-0.14347696
7	0xbd289c47	-0.041164663
8	0x404a3f3d	3.1601098
9	0xbf400bb6	-0.7501787
10	0xbf459167	-0.7717499
11	0x4042db63	3.0446403
12	0x3fa39104	1.277863
13	0x3fac630a	1.3467724
14	0x3fb829c3	1.4387745
15	0x3fbb4e31	1.4633237
16	0x3ff93a28	1.9470873
17	0x4036f5e4	2.858758
18	0x3fd2e55e	1.6476247
19	0x400c177e	2.1889338
20	0xbf3830c1	-0.7194939
21	0xbdf0eb70	-0.11763656
22	0x404e18c4	3.2202616
23	0x40013e44	2.0194254
24	0x3f429bd6	0.76019037
25	0x3fc95c57	1.5731305
26	0x3fbdc308	1.4825144
27	0x3faa6d71	1.3314649
28	0xbbfea50d	-0.0077711404
29	0x3c17b7a7	0.009260095
30	0x3f3d1200	0.7385559
31	0x3fbc8c38	1.4730291
32	0x3d0f01e6	0.03491392
33	0x403d5a93	2.9586532
34	0x3f5f220d	0.8716133
35	0x409007b8	4.500942
36	0x3fc5cfbf	1.5454024
37	0x3f568e34	0.83810735
38	0x3e328be2	0.17436174
39	0x3fc38f95	1.5278193
40	0x406420e8	3.5645084
41	0x3ff615ba	1.922538
42	0x3f817a7c	1.0115504
43	0x3ed45d03	0.41477212
44	0x3f87498a	1.0569317
45	0x402d74a1	2.7102435
46	0x4054e2e1	3.3263476
47	0x3fd2b5ca	1.6461728
48	0x3f444710	0.7667093
49	0x3f86926c	1.0513434
50	0x402a7b05	2.6637585
51	0x3f048498	0.5176482
52	0x3f980616	1.1876857
53	0x3e85af10	0.26110125
54	0x3f9a2cf9	1.2044975
55	0x40031331	2.0480464
56	0x3f637a5a	0.8885857
57	0x3f340278	0.70316267
58	0xbd614d09	-0.055005107
59	0x3feed4f6	1.865874
60	0x4068157e	3.6263118
61	0x3f999968	1.1999941
62	0x3f01de2f	0.5072965
63	0x3f69b902	0.91297925
64	0xbe4806ee	-0.19533893
65	0x3f870c41	1.0550615
66	0x3e7336de	0.23751399
67	0x3f851092	1.0395682
68	0x3f83492b	1.0256704
69	0x3fd97965	1.6990172
70	0x3f14561f	0.5794391
71	0x3f54ac20	0.8307514
72	0x3e10d0ca	0.14142147
73	0x4017c793	2.371556
74	0x4004e1c8	2.0762806
75	0x3f433413	0.76251334
76	0x3f94cbf9	1.1624748
77	0x3ea1f4bb	0.31632027
78	0x400bfce7	2.187311
79	0x3f6be1f8	0.92141676
80	0x3f2ba80c	0.67053294
81	0x3fa6d386	1.3033302
82	0xbe138f1b	-0.14410059
83	0x3f050a35	0.519687
84	0x40631278	3.5480022
85	0x408ccfa7	4.400348
86	0x401b554f	2.4270818
87	0x3fadcf72	1.3578932
88	0x3f87e58a	1.0616925
89	0xbdf8cc37	-0.12148326
90	0x3e4aaaba	0.1979169
91	0x3efa5fb7	0.4890115
92	0x3f45628a	0.77103484
93	0x4059e4be	3.4045863
94	0x403df40e	2.968021
95	0x3f88e047	1.0693444
96	0x4061ff35	3.5312016
97	0x3f835ed2	1.0263312
98	0x3f65ec17	0.8981337
99	0x3edc66d1	0.43047193
100	0x3f8b5a02	1.0886843
101	0x3e0b65c8	0.13613045
102	0x3f629cc4	0.88520455
103	0x40291fe8	2.6425724
104	0x3e9a9dfb	0.30198655
105	0x3fcb8b9c	1.590198
106	0x3fa8c455	1.3184916
107	0x40896386	4.293399
108	0xbbc6b14d	-0.0060636164
109	0x3f9575e2	1.16766
110	0x3eb6e6a7	0.3572285
111	0x3ebae14e	0.3650002
112	0x402f3db0	2.73814
113	0x3fef2676	1.8683612
114	0x405f5b6b	3.4899547
115	0x400b9e36	2.1815314
116	0x405c5804	3.442872
117	0x400a4957	2.1607263
118	0x3f8fc716	1.1232631
119	0x3e97024c	0.2949394
120	0x3dbdcf20	0.092680216
121	0x400132c7	2.0187242
122	0x4008acdd	2.1355507
123	0x3feed1ff	1.8657836
124	0x3f95db47	1.1707543
125	0xbeddb412	-0.43301445
126	0x3ef60688	0.48051858
127	0x4061cd34	3.5281496
128	0x3eb8efe9	0.36120537
129	0x405507dd	3.328605
130	0xbbcc7f66	-0.006240773
131	0xbee30e7c	-0.44346988
132	0x3efa0e7a	0.4883917
133	0x3f473663	0.7781736
134	0x4050f1d2	3.2647595
135	0x4062b39d	3.5422127
136	0x3f970009	1.1796886
137	0x3fcfc965	1.6233336
138	0x3fedc245	1.8574911
139	0x3fb082ea	1.3789952
140	0x3f477e5b	0.7792718
141	0x3fc5b870	1.5446911
142	0x3e6a0be8	0.22856104
143	0x3e995c43	0.29953203
144	0x3fb35a52	1.4011939
145	0x3e8827b7	0.265928
146	0x3f933702	1.1501162
147	0xbbad4082	-0.005287231
148	0x4024a88e	2.5727878
149	0x3f54378a	0.82897246
150	0x402901b7	2.6407297
151	0x3fb4ecfa	1.413482
152	0x3ee269ac	0.44221246
153	0x3e6ed30d	0.23322697
154	0x406a164b	3.6576107
155	0x3e60777d	0.21920581
156	0x3f415db3	0.755336
157	0xbd217bdd	-0.039424766
158	0x3edbca4f	0.42927787
159	0x40179779	2.3686202
160	0x3f94fc65	1.1639525
161	0x4073b7e0	3.8080978
162	0x3d7beba4	0.06150402
163	0x400d0923	2.2036827
164	0x404ded43	3.2176063
165	0x3fb65a91	1.4246389
166	0x40150417	2.3283746
167	0x3dee17cf	0.11625635
168	0x3f906e96	1.1283748
169	0x4089d72b	4.3075156
170	0x4003a645	2.0570233
171	0x3fe0abb6	1.7552402
172	0x3f890416	1.0704372
173	0x3f948704	1.1603703
174	0x3fc8b61b	1.5680574
175	0x4054d62e	3.3255725
176	0x4002fec2	2.0467992
177	0x3f62dfc2	0.8862268
178	0x4011ddb0	2.2791557
179	0x3fc0e3c5	1.506951
180	0x3ffebcf3	1.9901413
181	0x3f3626cd	0.71152955
182	0x403e8af7	2.9772317
183	0x3f64d6fc	0.8939054
184	0x3f445f63	0.7670805
185	0x402075aa	2.5071816
186	0x3fbf642f	1.4952449
187	0xbd5fba63	-0.05462111
188	0x3f9e89c1	1.2385789
189	0x3fd6e282	1.6787875
190	0x40099106	2.1494765
191	0xbef48d3c	-0.47764003
192	0x3f888f39	1.0668708
193	0x3f3505d7	0.70712036
194	0x40830e31	4.0954823
195	0x3fd9f65d	1.7028309
196	0x3ed539b9	0.416456
197	0x40543fbb	3.3163898
198	0x3f2a26f8	0.6646571
199	0x3f5e1ce1	0.86762816
200	0x400a3a30	2.1598015
201	0x3f89ca0a	1.0764782
202	0x3f8cd699	1.100299
203	0x3f720658	0.9454093
204	0x3f5d556f	0.86458486
205	0x3f534829	0.8253198
206	0x3f99f579	1.2028037
207	0x40840d5a	4.12663
208	0x3fa2fdb4	1.2733674
209	0x3fca235b	1.579204
210	0x406439d8	3.5660305
211	0x400e037e	2.2189631
212	0x3fbd7094	1.4799981
213	0x3f461634	0.7737763
214	0x3fe67b76	1.8006427
215	0x405c59e6	3.442987
216	0x3fd3eaa7	1.6555985
217	0x3f6f2dcd	0.9342926
218	0x40261169	2.5948126
219	0x404ea56f	3.2288473
220	0x4083edcf	4.1227794
221	0x3f0af85a	0.54285204
222	0x3f7e5df7	0.9936213
223	0x3f14b175	0.5808328
224	0x3f29e50d	0.6636513
225	0x40038a4f	2.0553167
226	0x3f53dd27	0.82759327
227	0x3f854360	1.0411186
228	0x3f73f57f	0.9529647
229	0x3f9125e0	1.1339684
230	0x3f79085d	0.97278386
231	0xbe8fa4ac	-0.28055322
232	0x3ee9eb32	0.45687252
233	0x3f7108af	0.94153875
234	0x3e98febd	0.2988185
235	0x3fde1f46	1.7353294
236	0x3f7eb10f	0.9948892
237	0x3fdd23eb	1.7276586
238	0x3f10aff2	0.5651847
239	0x3dcaa09e	0.098939165
240	0x3f22b8db	0.6356332
241	0x3f92777d	1.1442715
242	0x3fb6428b	1.4239057
243	0x3fba4335	1.455176
244	0x3fa0743d	1.2535473
245	0x3f8ec631	1.1154233
246	0x3f94448d	1.158342
247	0x402ef173	2.733487
248	0x4062b526	3.5423064
249	0x3fa2bff4	1.271483
250	0xbe9a325b	-0.30116543
251	0x408ec4e0	4.4615326
252	0x3eff09d7	0.49812195
253	0x3f3ef2a3	0.74588984
254	0x3f547051	0.8298388
255	0x3f93bb76	1.1541584
