size8/agent_white_19000/target_model.npz (npz, 603893 bytes, 8 tensors)

l2/b f4 [256]
000000 97 8d e3 3e f4 68 9d 3d cc 22 f6 be 3e ae 05 40
       0.44443962 0.07686034 -0.48073423 2.08876
000010 bf bb 4c 40 66 8a 0d 40 f6 96 79 40 9a d1 9c 40
       3.198959 2.2115722 3.899839 4.900586
000020 5f d4 eb 3f d0 f5 1e 40 7e 9b 10 3f 6c 49 a8 40
       1.8424186 2.4837532 0.5648726 5.2589626
000030 ed 43 01 40 f6 19 b2 40 e1 c5 ef bf 98 56 59 40
       2.0197709 5.565669 -1.8732263 3.3959103
000040 5c d1 b7 40 8c 13 c1 be d8 c1 ad 3f 88 52 ee 3e
       5.7443066 -0.37710226 1.3574781 0.4654734
000050 aa 40 06 3f 1e 3b 18 40 c5 db ce 40 87 65 7b 40
       0.5244242 2.3786082 6.4643273 3.9280717
000060 39 4d 34 41 9c 05 df 3f 4c f7 75 40 1b e4 0a 40
       11.268853 1.7423587 3.8432188 2.1701725
000070 01 6c 1d 40 ca 97 cd 40 d1 c1 fb 3f bb 89 cb 3f
       2.459717 6.424779 1.9668523 1.5901407
000080 ac 39 46 bf 2c 0b 55 40 87 41 72 40 99 1e 62 c0
       -0.7743175 3.3288069 3.7852495 -3.5331175
000090 46 20 d5 40 5a aa 90 40 23 5f e4 bf be 66 94 40
       6.6601896 4.520795 -1.7841533 4.637542
0000a0 74 ec 32 40 d1 ac d2 40 d5 4f 8d 40 a1 b1 d8 3f
       2.795682 6.5835958 4.415995 1.6929208
0000b0 30 4f 17 40 8b 65 a6 bf 68 c4 9c bf 5e c4 5b 40
       2.3642082 -1.2999738 -1.2247438 3.4338603
0000c0 3b 43 bb 3f 49 c6 9e 40 85 d5 98 40 ed b3 0d 40
       1.4629892 4.9617047 4.7760644 2.2141068
0000d0 5c 94 cc 40 fc 98 25 40 a6 9c 1d 3f 46 24 94 40
       6.3931103 2.5874624 0.6156715 4.629428
0000e0 9e cd 61 40 9b 77 81 3f 9c a4 87 bc 86 f1 d5 bf
       3.5281749 1.0114626 -0.016557984 -1.6714332
0000f0 e3 e4 8a 40 bb bb 1d c0 08 6c 9e 40 70 ca 03 40
       4.3404403 -2.4645832 4.9506874 2.0592308
000100 e0 e1 38 3f b6 0d c9 bf ff 17 96 3f d3 cf 6f 40
       0.7221966 -1.5707309 1.1726073 3.7470596
000110 bd 29 24 40 17 70 27 40 b3 0f 86 3f d0 a6 74 40
       2.5650475 2.6162164 1.0473541 3.8226814
000120 71 0f bf bf 34 4b 00 be 5f be 05 40 92 ac 32 3f
       -1.4926587 -0.12528688 2.0897443 0.6979457
000130 3e 78 50 40 7d 17 13 40 28 2b 7b 40 0b ef 5e 40
       3.257339 2.2983086 3.924509 3.48334
000140 0e e8 a4 40 09 1e 46 40 b5 f0 0d bf 2e c6 5b 40
       5.153327 3.0955832 -0.55445415 3.433971
000150 54 87 a8 3f e6 e2 61 40 07 32 ff 3c 09 6d 8c 40
       1.3166299 3.5294738 0.031151785 4.38831
000160 1c 93 92 41 d5 da 0b c0 d9 8c 8b 40 66 45 b5 3e
       18.32183 -2.1852314 4.3609433 0.3540451
000170 12 da f9 be d5 62 01 40 9a 23 2f 3f 3e 9e ba 3f
       -0.48799187 2.0216572 0.684137 1.4579542
000180 85 18 63 40 0c 87 09 40 8f ed 96 3e ac 79 88 40
       3.5483716 2.1488676 0.29478118 4.2648525
000190 aa 0d 38 40 85 70 08 3f 47 26 72 40 68 ad 4e 40
       2.875834 0.5329669 3.7835863 3.2293339
0001a0 ec e5 63 40 7c df a5 3e ce 8a 81 40 21 60 cc 3f
       3.5609083 0.32397068 4.048194 1.5966836
0001b0 1c 52 f1 3e ab 59 b6 bf c4 ef e1 3f 18 60 1d 3f
       0.47132957 -1.4246114 1.7651296 0.6147475
0001c0 ab 37 90 bf 43 c8 d1 bc c9 37 82 3f a5 05 88 40
       -1.1266989 -0.025608188 1.0173274 4.250689
0001d0 39 5e b5 be e6 9c 7c 40 37 66 db 40 65 76 3f c0
       -0.3542345 3.9470763 6.8562274 -2.9916012
0001e0 80 2c 59 40 08 6c 1f 40 63 6b c2 3f 8e 65 fb 3f
       3.393341 2.4909687 1.5189022 1.9640367
0001f0 31 b8 8c 40 33 86 2c 40 0f 71 0d 40 99 d7 2e 40
       4.3974843 2.6956909 2.2100255 2.731909
000200 fd 35 87 bf 8a 5a 7d 40 45 e6 12 40 7f d1 7f 40
       -1.0563351 3.958651 2.2953045 3.9971616
000210 ad af 0c 40 c6 7f 13 40 ea c8 e0 3f bc bf 93 40
       2.1982224 2.3046737 1.7561314 4.617155
000220 90 d1 97 40 8a 5f 4c 40 77 32 47 40 9a d3 0d 40
       4.7443314 3.1933312 3.1124551 2.2160401
000230 0a 3a a0 40 40 07 9a 40 7a 0e 1c 40 0f fa 9e 40
       5.007085 4.813385 2.4383836 4.9680247
000240 ec d4 ee bf 0f 50 c8 40 00 35 01 40 cd de 0e 40
       -1.8658729 6.259773 2.0188599 2.2323487
000250 09 94 63 40 72 50 91 40 7f 23 0e 40 bf ed 17 40
       3.5559103 4.54107 2.2209165 2.3738859
000260 10 a3 02 3e f9 af 61 40 4c 17 64 40 f6 9d dd 40
       0.12757516 3.5263655 3.563922 6.9255323
000270 5f c4 f7 3f c7 16 72 40 a5 a6 0a 3f d8 b4 d0 3f
       1.9356803 3.7826402 0.5416053 1.6305189
000280 bc eb 30 bf 06 6f e2 3f 54 40 27 40 c3 eb f9 3f
       -0.691097 1.7690132 2.6133013 1.9525074
000290 54 06 73 40 b5 c0 1a bf 7c 86 80 40 c7 0b 2f c0
       3.7972612 -0.604503 4.0164165 -2.7350938
0002a0 8f 00 fe 3f 93 8e 8a 3f 2e 43 b3 40 5f 82 66 40
       1.984392 1.082476 5.6019506 3.6017072
0002b0 b5 f6 fc 3f 1f 18 6d 40 6d d9 34 40 95 9f 23 3f
       1.9762789 3.7045972 2.8257706 0.6391538
0002c0 ce 5c 06 40 02 cd db 40 ff 1e 09 40 7a 85 65 c0
       2.0994143 6.8687754 2.1425169 -3.5862718
0002d0 0d 88 73 40 33 cf 01 bf da 3a c1 3f e1 b8 68 41
       3.8051789 -0.50706786 1.5096085 14.545136
0002e0 e9 01 96 40 b0 76 b3 40 15 81 06 40 99 6b 95 40
       4.687733 5.608238 2.1016285 4.6693845
0002f0 79 21 8e c0 14 f5 1a 3f b2 5c b6 3e d3 c1 e1 be
       -4.441586 0.6053021 0.35617596 -0.4409319
000300 dd 6f 7c 3f 9a 95 af 3f da 96 80 40 f6 c1 23 3f
       0.9860819 1.371753 4.0184145 0.63967836
000310 72 cc 47 40 3b 20 5e 3e d8 4a 2d 40 19 85 c5 3e
       3.1218534 0.21691982 2.707693 0.38578108
000320 de 42 88 40 b9 06 a1 40 a8 29 67 bf e2 e5 dd 3f
       4.2581625 5.0320706 -0.9029794 1.733578
000330 15 17 58 40 91 0d ae 3f d7 76 68 40 23 60 68 40
       3.3764088 1.359789 3.6322534 3.6308677
000340 11 0c a1 40 e3 87 80 40 8a 98 ab 40 0f ce ca 3f
       5.032723 4.0165877 5.3623705 1.5844134
000350 fe 83 7d bf c4 31 3b 40 ad b3 2f bf a3 e9 4e 3f
       -0.9902953 2.9249125 -0.6863354 0.8082525
000360 c4 3b 96 3f 74 e8 df 3f a0 29 83 3f 5f cc e6 3d
       1.1736989 1.7492814 1.0247078 0.112694494
000370 94 4a 37 40 b1 a2 86 40 ab 1d db bf c5 a2 b7 3f
       2.863927 4.20736 -1.7118429 1.4346548
000380 ab a5 ac 40 d2 56 34 3f 3f 88 59 40 a9 69 04 c0
       5.395223 0.7044498 3.3989408 -2.068949
000390 67 97 4d 3f 99 a4 a4 40 6e fa 52 40 7c eb 2b c0
       0.80309147 5.1450925 3.296535 -2.6862478
0003a0 18 d7 06 40 2a 70 15 40 08 a6 d1 3f a1 7a 5c c0
       2.1068783 2.334971 1.6378794 -3.4449847
0003b0 63 50 97 3f da 88 b0 be d5 da b1 40 6c b6 73 40
       1.1821407 -0.3447941 5.557963 3.8080091
0003c0 40 5e 9c 40 20 10 00 40 85 4f 5a 3f 6b 4b 5f 40
       4.886505 2.0009842 0.8527759 3.4889781
0003d0 1f e3 70 c0 12 8e 8c 40 5f 26 7b 40 82 bd 64 40
       -3.7638624 4.3923426 3.924217 3.5740666
0003e0 e0 00 7a 40 a6 82 84 3f ff 1a 82 40 a0 12 af 40
       3.9063034 1.0352371 4.0657954 5.4710236
0003f0 10 7c 1f 40 46 a8 00 40 7f 63 79 be 0a c2 b1 40
       2.4919472 2.0102706 -0.24354361 5.5549364

l2/W f4 [256, 256]
000000 2e 19 8b c0 de c0 9f c0 91 5d d6 c0 e7 4b 91 c0
       -4.3468237 -4.9922934 -6.6989217 -4.5405154
000010 69 a5 1f c1 64 b6 be 40 9f fc 1d 40 16 49 32 41
       -9.977883 5.9597645 2.4685438 11.142843
000020 1e da 19 c1 d9 44 1e c0 db c6 11 c1 d8 17 11 c1
       -9.615751 -2.4729521 -9.111049 -9.068321
000030 ed 5c 17 40 ce 0a 07 41 dd 90 66 c1 9e 67 00 c0
       2.3650467 8.440138 -14.410367 -2.0063243
000040 d7 e8 01 c1 99 57 52 3e cc 12 6b c0 30 e3 78 c0
       -8.119346 0.20541228 -3.6730223 -3.8888664
000050 6d 15 bc c0 11 9c c6 bd 9c 9f fd c0 b6 ea 4a c0
       -5.8776155 -0.09697736 -7.9257336 -3.1705756
000060 bc 9b 8e c1 8b bb 80 bf 3e fc 13 c1 e7 f5 c5 40
       -17.826042 -1.0057234 -9.249083 6.1862674
000070 20 c9 a7 40 9a 45 9a 40 b2 9a 2c c1 f7 19 5e c0
       5.2433014 4.8209963 -10.787767 -3.4703348
000080 b9 f6 98 3e ee b0 17 c1 42 f5 46 c1 d5 5c 02 c0
       0.29875734 -9.480696 -12.434877 -2.036916
000090 c7 f4 04 c1 87 8c 28 c1 7d a6 3f 40 e3 e8 62 40
       -8.30976 -10.534308 2.9945366 3.5454643
0000a0 0c 2b 05 41 89 ea b9 be 75 9d 93 c0 6f 27 c6 bc
       8.3230095 -0.3631175 -4.612971 -0.024188725
0000b0 6b 3f 3f c1 ba bf 7c c0 a9 d7 06 40 6a 4b 50 bf
       -11.952983 -3.949202 2.1069129 -0.8136507
0000c0 2e e6 7f 40 14 10 c3 3f 16 ad 9a 3e 72 01 49 40
       3.998424 1.5239282 0.3021018 3.1407132
0000d0 2c 8d 1a c1 53 0b 5a c0 a8 3c 1c c0 f0 c5 4a 40
       -9.659466 -3.4069412 -2.4412022 3.1683311
0000e0 c6 08 ed 40 af d0 a4 40 95 af d7 c0 f4 ae 8b 3e
       7.407321 5.150474 -6.7401834 0.27281916
0000f0 46 b3 fe bf e2 d1 7d c0 cf 25 ae c0 3a 19 92 c0
       -1.989846 -3.9659352 -5.4421153 -4.5655794
000100 7c ac db bf 26 e0 10 c1 4b e0 6d 40 48 c7 2f c1
       -1.7162013 -9.054724 3.7168148 -10.986153
000110 24 2e 0f c1 4f d4 9f bf b0 a9 23 c1 08 57 e4 bc
       -8.948765 -1.2486666 -10.228928 -0.027873531
000120 67 c9 bb 3f ba c3 9f c0 8e 47 5c 3f 96 21 e1 40
       1.4670838 -4.9926424 0.86046684 7.03535
000130 3f f5 21 41 b0 c3 23 40 48 9d cc c0 55 65 13 bf
       10.122375 2.5588188 -6.3941994 -0.57576495
000140 17 35 0c c0 30 74 07 c0 10 b5 84 c0 86 16 bc c0
       -2.1907403 -2.1164665 -4.1471024 -5.8777494
000150 51 22 83 3f af 71 8f 40 fb 5d 6d 40 65 dc 13 c0
       1.0244848 4.4826274 3.708861 -2.3103268
000160 5d a8 9c 3f 1a fa 13 c1 82 2e 86 bf 4b bb 7b 3f
       1.223888 -9.24856 -1.0482943 0.9833266
000170 f7 48 44 c0 1e 3e 20 40 2f d4 97 c0 4a 98 74 3f
       -3.0669534 2.5037913 -4.7446513 0.95544875
000180 65 7c c4 c0 0a 75 96 c1 34 75 49 3b 8a 39 09 c1
       -6.140185 -18.807148 0.0030740025 -8.576548
000190 a9 fb d9 c0 e9 56 b7 40 f4 b3 df 40 7e 48 6b bf
       -6.81197 5.729359 6.990717 -0.9190749
0001a0 64 06 a8 be 1c 45 0f c0 29 8f 44 40 11 f6 87 c1
       -0.32817376 -2.238593 3.0712378 -16.99515
0001b0 fb 76 5f c0 51 16 8b c1 08 8b 2c c1 6f 84 2a c0
       -3.491637 -17.385897 -10.783943 -2.664333
0001c0 f7 44 68 3f d6 62 7a c0 58 a8 3f bf 07 83 01 c1
       0.9073023 -3.9122825 -0.7486625 -8.094489
0001d0 be 1e dc c0 a5 ed 45 c1 31 03 f0 c0 45 81 8d 40
       -6.8787527 -12.370519 -7.5003896 4.42203
0001e0 a8 0c 15 c1 41 e0 61 be 9f ed d6 40 df 2b 12 41
       -9.31559 -0.22058202 6.7165065 9.135711
0001f0 6d bf 34 41 d8 96 bd 40 99 86 59 bd b6 39 80 c1
       11.296735 5.9246635 -0.053106878 -16.02818
000200 f7 ae b6 3f 0e d3 e0 3f 20 76 5a c1 ad 1d 03 3f
       1.4272145 1.7564409 -13.653839 0.51217157
000210 3d 70 92 40 33 1a e2 40 1f 60 7f c1 58 33 44 40
       4.576201 7.065698 -15.960967 3.0656338
000220 af 3a a2 c1 2c c4 0c bf 2c ca 69 c1 8d 28 2e c1
       -20.278654 -0.54986835 -14.611858 -10.8849
000230 5a c6 90 c0 05 4b 06 c1 c2 f2 0e c1 3a 10 6b c1
       -4.524213 -8.393315 -8.934267 -14.691462
000240 1c a2 67 40 19 0a 40 41 77 6a d1 c0 e7 3f ac 40
       3.6192694 12.002465 -6.544246 5.3828006
000250 8e 0e 88 c0 ca 61 e8 3f 6a 3e 9f c1 51 11 9a 40
       -4.2517767 1.8154843 -19.905476 4.814614
000260 12 d0 85 40 0c 0c 17 bf 99 ff 8b 40 04 64 5f 41
       4.181649 -0.5900276 4.374951 13.961918
000270 32 05 09 41 91 5b 61 c1 c2 90 d5 40 f8 db 2f c1
       8.563768 -14.084855 6.6739206 -10.991203
000280 91 b8 ad 40 39 73 5c 40 ad 5c a2 c1 13 7f 53 c0
       5.42878 3.4445326 -20.295252 -3.304631
000290 32 6a 8a c0 14 08 1a c1 a8 c0 81 c0 7b 20 60 3f
       -4.3254633 -9.626972 -4.0547676 0.8754956
0002a0 a5 ac 45 3f 4e fa 85 c1 8e e3 2d 41 51 1b f8 3e
       0.7721656 -16.74722 10.868055 0.4845834
0002b0 95 c7 90 40 b4 17 b5 c1 4e 7e 7b 40 15 a3 43 c0
       4.524363 -22.636574 3.929584 -3.0568287
0002c0 13 bb 87 3f f3 ff 0b c1 74 e7 a4 40 08 11 3e c0
       1.0603966 -8.749988 5.1532536 -2.9697895
0002d0 29 02 c6 bf 18 c3 8f c0 46 1c cd 40 43 50 ab c0
       -1.5469409 -4.492565 6.4097013 -5.3535476
0002e0 aa 6d 9a 40 8f f1 b5 40 9e 1b 4d c1 4b 22 de c0
       4.8258867 5.685737 -12.8192425 -6.941686
0002f0 06 33 d2 3f d7 f9 e9 c0 47 94 14 c1 61 39 1c c0
       1.6421821 -7.311748 -9.286201 -2.4410021
000300 a0 98 10 bf 5f 6f 64 c0 10 d3 0c 40 ec fe ef 40
       -0.5648289 -3.5692976 2.2003822 7.4998684
000310 a5 1a 97 40 39 61 4d 41 25 fc 68 bd 36 e7 29 41
       4.7220025 12.836236 -0.05688109 10.618948
000320 83 94 01 bf b4 89 e5 40 09 85 45 c1 ec ef 03 c1
       -0.50617236 7.1730595 -12.344979 -8.246075
000330 35 52 58 c0 cc 07 b2 c1 62 c2 9a 3f f5 0e 6b c0
       -3.3800175 -22.253807 1.2090571 -3.672788
000340 b7 be 5f bf 53 85 52 c0 80 ef 87 c1 46 a2 0f c1
       -0.8740038 -3.2893875 -16.991943 -8.977118
000350 b7 d6 2c 3e 6a 1b 9a 40 f1 d2 0e c0 ad a4 be c0
       0.16878782 4.8158464 -2.2316248 -5.957602
000360 85 9e 16 c1 5b 0c 07 c1 ee ee a1 c0 a3 54 6f c1
       -9.413701 -8.440516 -5.060416 -14.958163
000370 5a 19 99 3e 22 0c d5 bf c5 f6 93 3f a2 79 d7 bf
       0.29902154 -1.6644328 1.1559683 -1.6833994
000380 8c 3a 06 40 33 9f 2c c1 7f cb 91 40 32 a0 94 c1
       2.0973234 -10.788867 4.556091 -18.57822
000390 8d 71 38 c0 75 00 64 c0 96 41 1a c0 89 ef ac c0
       -2.8819306 -3.562528 -2.410253 -5.40424
0003a0 49 8c 33 40 a1 1f 11 40 8f bb 9c c0 d0 f1 01 bf
       2.8054373 2.2675555 -4.8978953 -0.507596
0003b0 96 d8 96 be 14 24 4f c0 ed e5 af bb 46 87 e9 3e
       -0.29462117 -3.236577 -0.0053679855 0.45611018
0003c0 82 8e 2b c1 45 db cb c0 20 fa 0c c1 bb 7e e4 c1
       -10.722292 -6.3705163 -8.811066 -28.56188
0003d0 a1 5d 00 41 55 c0 45 c1 f4 95 56 c1 55 6c ae c0
       8.022859 -12.359456 -13.41161 -5.450724
0003e0 85 7b 86 c0 4f d2 05 c1 99 55 06 40 60 e0 ce 3f
       -4.202578 -8.363845 2.0989745 1.6162224
0003f0 f8 7c 9d c0 60 79 09 c0 ca 98 ea 40 08 39 55 40
       -4.921505 -2.1480331 7.331151 3.331606

l3/b f4 [256]
000000 f4 ad 3c 41 87 77 99 bf 18 8d bb 3f 5c c7 3c 41
       11.792469 -1.1989602 1.4652433 11.798672
000010 f3 64 21 41 48 50 b2 40 b2 53 21 41 2d e4 36 41
       10.087146 5.5723 10.082933 11.430707
000020 1e 81 5a 41 5d 93 45 41 db b5 21 41 2c c6 23 41
       13.656523 12.348477 10.106898 10.235882
000030 7d cc 34 41 b0 ad c4 40 18 df 2e 41 34 fb 25 3f
       11.299924 6.146202 10.929466 0.6483643
000040 c8 d6 37 41 41 46 9d 41 9f 98 13 bf d7 75 c7 c0
       11.489937 19.659304 -0.57654756 -6.2331347
000050 1a 04 ea 3f 78 17 be be 61 76 a6 41 53 33 0d 41
       1.8282502 -0.3712728 20.807802 8.82503
000060 1a 73 84 3f ed b0 37 41 39 b4 24 41 f7 a3 34 41
       1.0347626 11.480695 10.294 11.2900305
000070 f1 78 72 40 e4 f5 b0 bf 6c e6 e8 3f b3 cc 1f 41
       3.7886317 -1.382504 1.8195319 9.987475
000080 90 6a b0 40 17 52 11 41 8b 51 c6 40 e0 9e 6a 40
       5.513008 9.082541 6.197454 3.665947
000090 4a f2 71 bf fc d4 b4 40 77 56 44 40 cd 19 19 bf
       -0.9451033 5.650999 3.0677774 -0.59804994
0000a0 1c 44 21 41 9c ca 1d 41 80 44 5c c0 63 8e c9 40
       10.079128 9.861965 -3.441681 6.298631
0000b0 42 66 47 41 a1 b0 bb 3f 5a 49 0c 41 fd 97 52 bf
       12.462465 1.4663278 8.767908 -0.82263166
0000c0 a3 54 33 41 7e 42 24 41 5d d7 d6 be 53 37 91 c0
       11.208163 10.266233 -0.41961184 -4.5380034
0000d0 c2 89 2a 41 00 f9 c0 40 9b c2 e1 be 97 06 ba 3f
       10.658632 6.0303955 -0.44093785 1.4533261
0000e0 75 f5 88 3d eb 22 62 3e 7b c4 c1 40 cf e0 b6 40
       0.06687442 0.22083633 6.0552344 5.7149425
0000f0 ab 9e 38 41 07 c2 21 41 71 ff 31 41 d7 4c 2a 41
       11.538737 10.10987 11.124864 10.64376
000100 a6 18 8a 41 3f f4 53 c0 76 ee 03 41 74 3b dc c0
       17.262035 -3.3117826 8.245718 -6.8822575
000110 9a 4c 03 40 ae ab 3b 41 d6 cb ad 40 95 64 02 3f
       2.0515504 11.729414 5.4311323 0.50934726
000120 6d 56 14 40 2f b2 1e 41 43 02 1b 41 7a 2b 17 bf
       2.317775 9.918502 9.688052 -0.59050715
000130 27 b0 33 41 da d7 1a 41 a9 04 98 be ba 69 00 41
       11.230506 9.677698 -0.29691055 8.025812
000140 5e 3b fc 40 4e c5 35 41 0b 53 87 40 0d 49 34 bf
       7.882247 11.36067 4.228887 -0.70423967
000150 f1 15 df 40 eb 93 3a bf b7 d7 1c c0 30 a9 38 41
       6.9714284 -0.72881955 -2.4506662 11.541306
000160 42 1f e5 40 3d af cc 40 11 d2 4a 41 d1 0e 21 41
       7.1600657 6.3963914 12.676286 10.066117
000170 8a 21 08 41 0d 28 6c 40 aa 68 30 41 8c aa 5a 40
       8.508188 3.6899445 11.025553 3.4166594
000180 0a eb 0f 41 45 1f 10 41 8f 5c 22 41 1f fb 1b 41
       8.994883 9.007634 10.147597 9.748809
000190 99 6b 3a 41 cb f3 22 40 4b 64 28 41 b1 50 54 c0
       11.651269 2.54613 10.524486 -3.317425
0001a0 74 ad 01 40 58 a5 1a 41 8d 0f 42 41 79 f5 ae 40
       2.0262117 9.665367 12.128797 5.467465
0001b0 b8 7c d7 bf 43 5f 2c 41 ae e1 a8 40 aa b5 28 41
       -1.6834936 10.773257 5.277549 10.544352
0001c0 c8 b2 42 41 e0 ec a5 40 dc db e4 3d bb 42 3b 41
       12.168648 5.1851654 0.11174747 11.703792
0001d0 ff 80 b2 3f fe d4 30 41 16 43 2e 41 77 ca b7 40
       1.3945616 11.052 10.891378 5.743465
0001e0 e6 0f 3b 41 87 98 f8 3f 31 81 8a 3f 5e 30 27 41
       11.691381 1.9421548 1.0820676 10.449308
0001f0 4b 47 3f 41 e2 7b 49 40 4f a6 80 c0 01 71 ac 40
       11.9549055 3.1481862 -4.0203013 5.3887944
000200 6e a6 0f 41 fd d0 3a 41 a7 cf 39 41 63 9c b4 bf
       8.978132 11.676023 11.613196 -1.4110225
000210 c7 b8 5e c0 7f 23 15 41 29 af fa 40 c6 8e 4d c0
       -3.480028 9.321166 7.833882 -3.2118392
000220 ad d0 40 41 1e a3 2c 41 f4 92 25 41 7a 77 8f bd
       12.050946 10.789824 10.348377 -0.0700521
000230 b2 75 8c c0 31 a7 37 41 93 21 c3 40 fc 74 de 40
       -4.389367 11.478318 6.0978484 6.9517803
000240 8f 09 17 40 be 18 70 c0 0e 62 82 41 52 f9 fb bf
       2.3599584 -3.7515101 16.297878 -1.9685462
000250 e1 73 6b 40 cd cd 0d 41 87 16 47 c0 10 e3 24 41
       3.6789477 8.862744 -3.11075 10.305435
000260 34 ea 34 41 5f 88 22 bc 08 e3 bf c0 25 ff cd 40
       11.3071785 -0.009920209 -5.996464 6.4373956
000270 57 c6 a6 40 47 20 3d 41 c9 e8 17 41 a1 ab ec 40
       5.2117114 11.82038 9.494332 7.395951
000280 57 c4 6a 41 e2 b7 02 40 6a f8 38 41 e8 54 f1 3e
       14.672935 2.0424733 11.560648 0.4713509
000290 a3 62 25 41 93 24 0c 40 bd c7 ea c0 03 13 49 41
       10.336581 2.1897323 -7.336882 12.567142
0002a0 81 fe 79 41 cc 05 5d 40 86 5a 0d bf c5 d0 1b 41
       15.624635 3.4534788 -0.5521625 9.738469
0002b0 cb 99 92 40 54 5b 9e be e2 eb 17 41 8e ca 87 c0
       4.5812736 -0.30929053 9.495089 -4.243476
0002c0 70 70 1d 41 fe 78 82 40 1f 92 26 41 79 cc 3c 41
       9.839951 4.0772696 10.410674 11.79992
0002d0 1d 79 4f 41 a6 f9 14 40 fc 28 27 41 83 d8 ce 3f
       12.967069 2.3277373 10.447506 1.6159824
0002e0 d3 9e 0b 41 4e ca d8 be cc 5b 9e bf 0f c8 07 3f
       8.726275 -0.42341846 -1.2371764 0.5303964
0002f0 00 54 6d 41 00 cb 88 41 de c8 3a 41 87 91 02 41
       14.833008 17.099121 11.67404 8.160529
000300 f5 b6 69 41 33 39 32 41 a8 48 40 41 10 43 7b c0
       14.607167 11.138965 12.017738 -3.9259682
000310 f5 83 76 40 18 04 8f 3f 22 9b 1d 41 aa 3a 1c bf
       3.851804 1.1173124 9.850374 -0.61027014
000320 df 8f 2d 41 91 d8 45 40 24 7a 25 41 6b 1c 74 3f
       10.847625 3.0913432 10.3423195 0.9535586
000330 b1 88 41 41 83 d9 e2 40 40 9a 17 41 dc 2e ce 40
       12.095872 7.0890517 9.475159 6.44322
000340 ed 17 9c 40 fa 72 84 40 c0 58 8d 3c 00 ba b5 40
       4.8779206 4.139035 0.017254233 5.678955
000350 0f 41 2e 40 52 c6 22 c0 99 57 f6 40 64 c4 65 40
       2.7227209 -2.5433545 7.698193 3.5901117
000360 6a 82 3d 41 62 34 3b 3f 48 bc 5d bf f8 55 12 41
       11.844339 0.73126805 -0.8661542 9.145988
000370 d4 1f 62 c0 98 0b 0d 40 6d 97 fc c0 09 df 42 41
       -3.5331926 2.2038326 -7.8934846 12.179452
000380 9a 66 fe 40 56 1d e2 3f c6 fa 28 41 54 77 07 41
       7.9500246 1.7665203 10.561224 8.466633
000390 3f 9e 4d c0 ce 9c 6a c0 16 bb 47 41 e9 af 2a 41
       -3.2127836 -3.6658206 12.483175 10.667947
0003a0 1e 3b 42 41 4a ca de bf 8d 24 3f 41 be 1b 3f 41
       12.139433 -1.7405484 11.946424 11.944273
0003b0 6b 8a 25 c0 be 71 05 40 9e fc 26 41 95 4c 2b 41
       -2.5865734 2.0850673 10.436674 10.706197
0003c0 b9 18 33 41 72 a3 d1 40 2c e3 46 41 29 bb df c0
       11.193536 6.551202 12.430462 -6.9915967
0003d0 c5 43 cb 40 bf 99 46 3f 90 8d 2d 41 cc 9c e7 3e
       6.3520226 0.7757835 10.847061 0.45236814
0003e0 fc 77 c4 40 b8 fd c6 3f d8 3b 10 40 5a 5c 50 41
       6.1396465 1.5546179 2.2536526 13.022547
0003f0 72 82 95 40 77 7b b7 bf c4 f5 21 c0 4a dc 10 41
       4.6721735 -1.4334553 -2.5306253 9.0537815

l3/W f4 [256, 256]
000000 8e 34 6c 41 a0 70 65 c1 6e eb 8c c1 f2 14 e9 c0
       14.762831 -14.339996 -17.614956 -7.283807
000010 2a 5a 25 41 cd b0 bd c1 70 fa 23 41 cb 25 ad 41
       10.334513 -23.711329 10.248642 21.643454
000020 ff b2 78 41 f9 7d 1c c1 32 07 94 c1 35 7c 6a 41
       15.5437 -9.780755 -18.503513 14.655324
000030 aa 4c bd 41 18 21 9d 41 df fa b3 c1 3b fc b8 40
       23.662434 19.64116 -22.497496 5.78079
000040 48 2e d5 41 b8 8d db 40 c3 8c 12 41 6a 17 22 41
       26.647598 6.8610497 9.159366 10.130716
000050 89 b6 5a c1 17 2b 0d 41 69 24 50 41 f5 4e 1f 41
       -13.669564 8.82302 13.008889 9.956777
000060 05 4b 1d 41 7f ca 2a 41 6a d3 8c 41 8b bd 99 41
       9.830815 10.6744375 17.60323 19.21755
000070 98 9d 25 41 1f 67 a5 41 30 c1 2e 41 4f 73 9f 41
       10.350975 20.675352 10.922165 19.931303
000080 ec d7 3f 41 a6 7a 27 41 2d 04 39 41 e3 90 9f c1
       11.990215 10.467443 11.5635195 -19.945745
000090 cc 25 9f 41 09 86 e6 40 ed 38 a1 c1 80 c9 80 c1
       19.893456 7.2038617 -20.152796 -16.098389
0000a0 c5 1d 92 40 eb 3e 21 41 f0 5e ae 41 87 79 35 41
       4.566134 10.077861 21.796356 11.34217
0000b0 0a 05 89 41 b0 ae c5 c1 94 01 43 c1 30 eb c7 c1
       17.12746 -24.710297 -12.187885 -24.989838
0000c0 ff ff 4b 41 a0 8f 43 41 54 f1 98 41 a8 0c 8b 41
       12.749999 12.222565 19.117836 17.38118
0000d0 77 56 93 41 7b 9d 8d 41 3e 48 9c 41 02 cf a9 41
       18.41722 17.701895 19.535275 21.226078
0000e0 55 9e 9a 41 5c c3 2a 41 f5 e9 7e c1 26 ef b9 c1
       19.32731 10.672695 -15.932118 -23.241772
0000f0 bb 2e 87 c1 bb 6a cb c1 6e 7d 67 41 8d 60 2a 41
       -16.897818 -25.427114 14.4681225 10.648572
000100 30 b6 80 41 40 1a ab c1 b9 d9 85 41 94 41 bd 41
       16.088959 -21.387817 16.73131 23.65702
000110 3f 8d 97 41 c0 a3 46 41 79 b3 60 41 a7 44 c9 41
       18.943968 12.414978 14.043817 25.158522
000120 45 78 f9 c1 53 f2 3c 41 d6 8e 1b 41 d1 b6 2a 41
       -31.183725 11.809161 9.722372 10.669633
000130 8e 6b bb 41 f4 56 45 41 43 64 a4 41 ab 66 65 41
       23.427517 12.333729 20.548956 14.337565
000140 3c 05 78 41 b9 56 42 41 b6 a9 c7 40 f9 97 9c 41
       15.501278 12.146173 6.2394667 19.574205
000150 94 70 9c 40 3b 9a ae 41 cf ee c7 40 9f e3 c3 41
       4.8887424 21.825308 6.2479014 24.486143
000160 35 23 57 41 20 4c 36 41 83 dc 66 41 c6 74 7c 41
       13.446095 11.393585 14.428836 15.778509
000170 30 f1 cd c1 85 c7 30 41 f2 fe 32 41 d3 31 d7 c1
       -25.742767 11.048711 11.1872425 -26.899328
000180 35 00 93 41 f2 8a f0 c0 40 4d 5b 41 2e b4 8e 41
       18.375101 -7.516961 13.70636 17.837978
000190 30 72 0e 41 5b ec 05 c0 15 2c bf 41 7a 7b 78 41
       8.902878 -2.092551 23.896524 15.530146
0001a0 d6 ba d7 c0 59 45 8b 41 4a f8 9c 41 03 89 f0 40
       -6.741557 17.408861 19.621235 7.516725
0001b0 1a 38 05 41 53 24 20 c1 a7 93 da 41 0f 69 1b 41
       8.326197 -10.008868 27.322096 9.713149
0001c0 55 70 d8 40 a5 ac 3d c0 67 97 8a c1 87 ce a3 41
       6.7637124 -2.9636624 -17.323927 20.475843
0001d0 9b c0 32 41 78 01 87 c1 dc bb 3e 41 9d 12 db c1
       11.172023 -16.875717 11.920864 -27.384089
0001e0 18 af 4a 41 7f d0 67 41 c9 04 9c 41 19 b7 bf 41
       12.6677475 14.488402 19.502337 23.964403
0001f0 94 73 a8 41 3f f9 be 40 90 4a 24 41 51 93 4f 41
       21.056435 5.9679255 10.268204 12.973466
000200 41 e1 ae c1 c4 95 c7 41 35 b2 b0 41 8a 50 14 41
       -21.859987 24.948128 22.087015 9.269663
000210 6f b2 96 41 25 a8 82 c1 58 8e 6c 41 f2 df 77 41
       18.837126 -16.332102 14.784752 15.492174
000220 fc 0c 7f 41 5a e5 3c 41 9c 90 36 41 a9 c3 99 41
       15.94067 11.805994 11.410305 19.220537
000230 56 9f 99 41 b8 66 99 41 df 34 bf 41 f5 45 a5 41
       19.2028 19.175156 23.900816 20.659159
000240 d0 04 f0 c0 37 bd 0c 41 6d 0c 5e 41 ec 88 2b 41
       -7.5005875 8.796195 13.878034 10.720928
000250 28 86 c8 41 7c 46 2b 41 3d 52 af 41 6f 37 df c0
       25.065506 10.704708 21.915155 -6.975517
000260 83 d6 d6 c1 3a 72 73 41 53 d0 95 c1 82 ef 29 41
       -26.854742 15.215387 -18.72672 10.620974
000270 30 aa 44 41 c0 bf ad c1 b0 d6 34 c1 8f ac 88 41
       12.29155 -21.718628 -11.302414 17.084257
000280 9f fc 2b 41 7a 34 3a 41 64 dc 15 41 75 1a 80 41
       10.749175 11.637812 9.366306 16.012918
000290 c2 46 7c c1 51 a6 68 c1 d7 ee 3f 41 e4 6b 88 bf
       -15.767275 -14.540605 11.9958105 -1.0657926
0002a0 6f ff a1 41 6d 30 96 41 23 a7 ad 41 7a 9b 0a 41
       20.249723 18.773645 21.70661 8.662958
0002b0 65 ad bd c1 b1 6a 6f 41 ed a5 9f 41 c3 1d d2 c1
       -23.709665 14.963548 19.956018 -26.264532
0002c0 5c 46 50 41 61 5c 9b 41 04 90 f8 c0 62 1f bf c1
       13.017178 19.420107 -7.76758 -23.890324
0002d0 ba 33 a2 41 42 fd 0d c1 b5 12 9d c0 4d ff d5 40
       20.275257 -8.8743305 -4.9085336 6.6874146
0002e0 43 4b 96 41 47 33 07 c1 c9 0e 9f c1 50 3e 4c 41
       18.786749 -8.450019 -19.88222 12.765213
0002f0 21 aa 27 41 4c f0 19 41 7c 24 61 c1 9c 61 4f c1
       10.479035 9.621166 -14.071407 -12.96133
000300 ca 26 27 41 4e 7b 85 c1 7d b7 8a c1 83 cd 41 41
       10.44697 -16.685207 -17.339594 12.112674
000310 c0 d2 3e 41 59 5e 0c 41 61 ad a3 41 b5 52 b5 c1
       11.926453 8.773034 20.459658 -22.665384
000320 1c 5a 8e 41 e2 8c 9a 41 52 a5 7e 41 c5 08 62 41
       17.793999 19.31879 15.915361 14.127141
000330 93 65 b8 41 ab cd 20 c1 d8 e5 42 41 7a 78 0f 41
       23.049597 -10.050212 12.181114 8.966913
000340 46 73 23 41 15 4a 6a 41 9e 97 19 41 09 4a 3c 41
       10.215643 14.643086 9.599516 11.768075
000350 91 15 8d 41 6b 65 ed 40 e1 da a3 c1 f4 6c 47 c1
       17.63553 7.41863 -20.481874 -12.4641
000360 d5 28 26 41 51 f6 d5 40 83 cd 57 41 db 91 cb 41
       10.384969 6.686318 13.487674 25.446218
000370 1d 3f 35 41 46 68 57 41 c6 e8 13 41 b9 8a 20 41
       11.3279085 13.462957 9.244329 10.033868
000380 e8 6b e1 c0 5d e5 26 41 a0 50 4a 41 d8 de 94 40
       -7.044422 10.430997 12.644684 4.6522026
000390 79 67 98 c1 17 0a 8f 41 fd 9f 34 41 35 6c b6 c1
       -19.050524 17.879927 11.28906 -22.802835
0003a0 5c 16 ba c1 47 5d 9b 41 4d c0 1a 41 16 7d ab c1
       -23.260918 19.420546 9.671948 -21.436077
0003b0 08 4f 34 41 89 cd e9 c0 0b 5a 94 41 78 ff 0f c1
       11.269295 -7.3063397 18.543966 -8.99987
0003c0 aa e5 77 41 bc 3e b2 41 7d 5e a8 c1 0b da a3 41
       15.49357 22.280632 -21.046137 20.481466
0003d0 07 c9 a7 c1 0c 9f 68 41 2a f8 30 41 31 da 3a 41
       -20.973158 14.53883 11.060587 11.678269
0003e0 32 fc 31 41 4c 35 96 41 00 d5 32 41 c4 46 cd 41
       11.124071 18.776024 11.177002 25.659554
0003f0 9d e6 52 41 f0 81 1a 41 09 1c 47 41 cb 3f 29 c1
       13.181302 9.656723 12.4443445 -10.578074

l1/b f4 [256]
000000 dd c4 b0 40 ea 4a 78 3e 1c 58 9d 40 2f 97 5b c0
       5.524031 0.24247327 4.9170055 -3.4311025
000010 c8 eb 14 bf af d9 49 bf a6 99 b3 bf 43 62 74 40
       -0.58172274 -0.78847784 -1.4031265 3.8184974
000020 05 04 78 be 6c 84 7c c0 d7 7f 90 bf dc fc 3a 40
       -0.24220283 -3.9455824 -1.1289014 2.9216833
000030 6e 90 d9 be f4 23 76 40 25 51 c9 bf 1f 4c 30 3e
       -0.42493004 3.8459444 -1.5727888 0.17216538
000040 c6 84 e4 3f 28 5b 56 40 b7 45 3b c0 3a 47 70 40
       1.7853019 3.3493137 -2.92613 3.7543473
000050 ed ff a6 bf fa 4c 7f 3e 01 fd d6 bd cb f0 53 c0
       -1.3046852 0.24931708 -0.104974754 -3.3115718
000060 9e b4 73 40 db 3a 2f 3e db 11 e3 40 eb f8 09 3f
       3.807899 0.17112295 7.0959296 0.53895444
000070 05 e6 03 40 b9 63 cf bf e0 5d a4 3d 02 6e 0f 40
       2.0609143 -1.6202308 0.08025718 2.2410893
000080 78 67 e7 3f ea a2 4f 40 15 89 76 3e 44 03 79 c0
       1.8078451 3.2443185 0.2407573 -3.8908243
000090 a5 cf 6d 40 63 e6 eb 3f 28 f8 79 c0 be ee 0a bd
       3.7157986 1.8429683 -3.9057713 -0.03391909
0000a0 bc c9 5b c0 f5 85 0b c0 3f e5 33 c0 4c 0f b4 40
       -3.434188 -2.180051 -2.810867 5.6268673
0000b0 86 b4 0b 40 49 99 f3 3f 17 59 21 c0 25 52 9b c0
       2.1828933 1.9031154 -2.5210626 -4.8537774
0000c0 e1 4a 2a be 0f 5d d8 3f 8b b0 1b c0 02 ef 57 c0
       -0.16630127 1.6903399 -2.4326503 -3.3739629
0000d0 d4 5b 99 40 bb 8c 8e 3d 61 8a 24 3e 85 a7 7d 3f
       4.7924595 0.06960436 0.16068412 0.9908374
0000e0 07 ca 2b 40 a5 4e 4c bf 46 d7 d2 3f ca c0 02 40
       2.6842058 -0.798075 1.6471946 2.043017
0000f0 ef b6 c2 3f 86 d8 23 be f7 31 9b 40 e1 a9 36 40
       1.5212077 -0.16000566 4.849849 2.8541186
000100 8d 97 ba c0 b0 7b 1c 3f f1 a7 1a 40 ee e4 e6 3f
       -5.831 0.6112623 2.4165003 1.8038614
000110 8a 8f b2 c0 ae 6c a4 bf de c5 0b 40 b3 b0 83 40
       -5.580022 -1.2845666 2.1839519 4.1153197
000120 0c 35 9c be 98 c0 eb bf 20 61 91 c0 c6 50 83 3f
       -0.30509222 -1.841815 -4.543106 1.0259025
000130 b7 9f b9 40 8b 66 ef be bd b6 f9 3f c6 65 d8 bf
       5.8007464 -0.46757922 1.9508892 -1.6906059
000140 0c 9c 1f c0 16 2f 6f c0 39 cf 9b be e5 67 63 3f
       -2.4938993 -3.737249 -0.30431536 0.88830405
000150 cd 49 cd bf 96 24 e6 bf 97 d8 57 3e dc c8 9f bf
       -1.6038147 -1.7979915 0.21078716 -1.2483172
000160 a2 c9 61 40 45 88 ad 3f d6 fc 65 bf f6 ab 89 bf
       3.5279317 1.3557211 -0.8983892 -1.0755603
000170 a2 9e 08 40 27 94 a0 3f 44 ed 08 40 13 b3 ba be
       2.1346822 1.2545213 2.1394815 -0.36464748
000180 01 03 44 c0 cc 39 99 40 0c 2f 5f 3e 1f 2b 38 c0
       -3.0626833 4.7883053 0.2179529 -2.877632
000190 79 74 93 c0 44 f6 c7 bf 39 87 0a bf ea 7b 4f 40
       -4.607968 -1.5622029 -0.54112583 3.241938
0001a0 89 17 ec be 4d 37 fe be ea 9b 35 c0 1d 23 13 40
       -0.46111706 -0.49651566 -2.8376412 2.2990181
0001b0 b2 51 7b 3f 21 92 85 40 6a 26 0f 3e 1c c8 4b c0
       0.9817153 4.174088 0.13979498 -3.1840887
0001c0 82 f7 24 c0 fc aa 81 40 1b b3 b5 bf dc a3 7b bf
       -2.5776067 4.052122 -1.4195284 -0.98296905
0001d0 af 5b a3 3e d4 c9 e2 bf e6 d7 e0 bf 08 27 02 bf
       0.31905887 -1.7717843 -1.7565887 -0.50840807
0001e0 c6 7a 64 c0 7d 0d 70 3f 79 5d 5a 40 47 3b 55 40
       -3.5699935 0.9377058 3.411955 3.331743
0001f0 0d 04 ce 3f ea 0b eb be 7c 05 3f c0 a8 bf 17 40
       1.6094986 -0.45907527 -2.9847097 2.3710728
000200 d2 ef 00 40 45 d8 d0 3e 3f 97 c4 3e ce d6 1a 40
       2.0146375 0.4079 0.38396642 2.4193606
000210 3e 63 1c c0 d1 8c ff 3f 29 ec 2f 40 34 28 01 40
       -2.4435573 1.9964849 2.748789 2.0180788
000220 8f d8 fe 3f 0f b2 8f 40 4b 8e f6 3f 7b 7a 19 41
       1.9909838 4.4904857 1.9262174 9.592402
000230 04 49 05 3f 09 3f d6 3e 13 0e 3d 3f 1e 17 d9 3f
       0.5206454 0.41844967 0.738496 1.696018
000240 4f 2b 57 c0 23 b5 8e bf 55 5e 95 40 f2 65 e3 3e
       -3.3620183 -1.1149029 4.667765 0.44413716
000250 d6 30 1c 3f ad 30 67 c0 f8 bd 34 be 1a a8 4a 3e
       0.6101202 -3.612346 -0.17650592 0.19790688
000260 86 7d 73 bf 4d 64 6a c0 54 bd 86 bf 8e 7b 9b bf
       -0.9511341 -3.6623719 -1.0526528 -1.2147081
000270 a3 94 56 c0 97 5d 08 bf e8 91 53 3f b6 f4 41 40
       -3.352822 -0.53267807 0.8264451 3.030561
000280 9f 37 40 bf a6 22 dc 3f e5 8c 0c 3e 2d a2 5f 40
       -0.7508487 1.7198074 0.13725622 3.4942734
000290 14 b5 c1 3f 76 90 b5 3f cd 99 04 40 0a 8a ab bf
       1.5133386 1.4184711 2.0718873 -1.3401501
0002a0 9c 15 49 3f 62 94 85 c0 68 d9 6d 3f f1 25 82 be
       0.785486 -4.174363 0.9290986 -0.25419572
0002b0 9e c1 65 bf 89 74 93 3f 86 1c 8c 40 b8 31 3d c0
       -0.8974856 1.1519939 4.378482 -2.9561596
0002c0 3e 19 43 3f c5 6e 56 40 b4 f6 98 3f e2 aa 25 3f
       0.7621039 3.3505108 1.1950288 0.6471387
0002d0 01 21 82 bf f2 57 03 40 cc 93 26 3f 42 23 5b be
       -1.0166322 2.0522428 0.6506927 -0.21400169
0002e0 b0 56 3d 3f d4 e2 5f 3e 5a a1 6e 3f d0 a3 30 c0
       0.739604 0.21863872 0.9321495 -2.7599983
0002f0 24 37 94 bd d0 9d c7 be 83 6f d6 bf 63 17 b6 40
       -0.0723708 -0.3898759 -1.6752781 5.690355
000300 88 80 93 bf 5a 8d 29 3e 7d 67 af bf a4 c9 49 c0
       -1.15236 0.16557828 -1.3703457 -3.1529322
000310 e1 ea 09 40 5c 20 b0 3f 50 61 4b c0 4a a3 6c 3e
       2.1549609 1.3759875 -3.1778145 0.23109165
000320 e0 a5 c9 3e 09 4e e4 3e c0 ac c8 3f 53 76 bc 3f
       0.39384365 0.44590786 1.5677719 1.472361
000330 d9 7b 2c c0 91 53 b9 3f 6c df 21 c0 10 07 91 40
       -2.695059 1.4478627 -2.5292616 4.532112
000340 64 a4 3c 40 65 a4 7c 40 7b cd 06 bf eb cc 9f bf
       2.9475336 3.9475338 -0.5265729 -1.2484411
000350 ba 43 2b bf 4e f6 ef 3e 80 9d 33 c0 43 18 84 40
       -0.6690022 0.46867603 -2.806488 4.1279616
000360 2b dd 65 c0 68 51 b4 bf e8 a1 f9 bf 52 d0 df bf
       -3.591624 -1.4087343 -1.9502535 -1.7485449
000370 d5 19 2c 40 6d 2b 4e c0 a8 e9 dd 3e cd eb 6c 40
       2.6890767 -3.2214005 0.43342328 3.7018921
000380 53 a0 b3 3d b4 43 82 bf a8 a6 4c c0 06 ce 30 40
       0.08770814 -1.0176911 -3.197672 2.7625747
000390 c2 10 05 c0 b6 2b c6 bf d9 9f 6d 40 36 cf 61 c0
       -2.0791478 -1.548209 3.7128813 -3.5282722
0003a0 38 30 09 40 5a ac 98 bf c5 b0 ea bf a1 fd 20 3f
       2.143568 -1.1927598 -1.8335196 0.62887007
0003b0 10 1a 34 c0 4c 8f a8 40 8a 38 1e 3f 19 ae a1 3f
       -2.8140907 5.2674923 0.6180502 1.2631255
0003c0 80 a7 07 40 36 4f 47 c0 72 1e 1c bf 4a 95 8c bf
       2.1195984 -3.1142097 -0.60983956 -1.098306
0003d0 b2 1e 65 40 c4 95 4d 40 b9 bc d2 bf a6 98 85 3f
       3.5799985 3.212266 -1.6463844 1.043721
0003e0 a1 fd 1e c0 b9 ae b6 3e 63 94 af bf 5b 8b 0c 3f
       -2.4842303 0.35680178 -1.3717159 0.5490014
0003f0 88 4d 5e 3b 90 9b 6a 40 21 9e 8d 40 42 4b b4 40
       0.0033920724 3.6657448 4.425553 5.6341867

l1/W f4 [256, 64]
000000 89 3a b5 c0 ae 17 a1 c0 31 d3 92 c0 4a 67 c1 40
       -5.6633954 -5.0341406 -4.58828 6.0438585
000010 92 af da bf ba 21 13 c1 d8 15 cd c0 1b 47 56 c0
       -1.708483 -9.195734 -6.4089165 -3.34809
000020 0d b7 1c 40 2c 9a c9 c0 8e 22 14 c1 be 07 c2 be
       2.4486725 -6.30007 -9.258436 -0.37896532
000030 7c d0 05 bf 4d 5f 8a 40 a8 f5 dc c0 1d 6c 8f c1
       -0.52271247 4.3241334 -6.9049873 -17.92779
000040 9c 55 0a 41 f8 3a 3c 40 4f 81 51 40 5b 8e 25 bf
       8.645901 2.9410992 3.2735174 -0.6467034
000050 ac 7f 6e 40 0d 63 db 3f 5b 1b c9 c0 1b 3f a6 c1
       3.7265425 1.7139603 -6.2845893 -20.780813
000060 a4 2c b9 c0 89 32 0d 41 97 94 f2 40 b2 ce 5e 40
       -5.7866993 8.824838 7.5806384 3.4813657
000070 90 2b a0 bf 99 ee 2a 40 52 00 5f 3e 7f 7a 81 c1
       -1.2513294 2.6708128 0.21777466 -16.184813
000080 49 9c ad c0 2b b2 fe c0 cb 3b b5 40 c0 d5 9e 40
       -5.425328 -7.959249 5.663549 4.9635925
000090 12 49 c5 bf 33 f5 d2 bf 40 88 e6 40 7b 30 ef c0
       -1.5412924 -1.6481079 7.204132 -7.474668
0000a0 2f 16 3f c1 b9 56 4e c0 28 95 c4 3f 2d 62 ab c0
       -11.942916 -3.2240431 1.5358019 -5.3557343
0000b0 47 93 bc 40 20 29 0a c0 94 0f a7 bf 39 02 ca 3f
       5.892978 -2.15876 -1.3051629 1.5781928
0000c0 76 3e 78 c1 cd 00 65 3e 49 05 80 c1 f3 69 7a c0
       -15.515249 0.22363587 -16.00258 -3.9127166
0000d0 11 21 c4 bf e4 65 3b c0 64 ca 0a 3f dc 35 20 be
       -1.5322591 -2.928094 0.54215074 -0.15645546
0000e0 f2 6b 12 c1 9e 52 d1 c1 49 e5 50 c1 f1 92 d1 c0
       -9.151354 -26.16534 -13.055978 -6.549187
0000f0 4a 2c 15 c1 bc 5a 81 3f f4 8d ed c0 49 34 10 c0
       -9.323313 1.0105815 -7.4235783 -2.2531912
000100 19 49 a1 41 70 5d 71 3f 52 61 82 3f e5 bd c3 40
       20.160692 0.942832 1.018595 6.1169305
000110 ea 8e c3 be 67 45 e5 40 e7 99 9f 3f b7 69 bc c0
       -0.38194972 7.164722 1.2468842 -5.8879046
000120 c2 a2 ee 40 4a e0 06 40 fb 21 92 c0 06 f9 f8 bf
       7.457368 2.1074395 -4.566648 -1.9450996
000130 8f 0c 9c 40 31 11 fe c0 c6 db 85 40 40 04 a8 c0
       4.876533 -7.9395986 4.183078 -5.250519
000140 1a 86 30 c1 e9 fc 70 bf d3 a3 40 40 a3 c2 c8 40
       -11.03274 -0.9413591 3.009999 6.2737594
000150 1f 54 7e 40 5d 4e 61 40 70 32 86 c0 3f 65 1f 40
       3.9738843 3.520408 -4.193657 2.4905546
000160 6c 01 19 40 c7 07 6e c0 40 e6 aa 3f ec 7e 6c c0
       2.3907118 -3.7192247 1.3351517 -3.6952467
000170 c8 34 7c c0 92 21 c0 3e b0 ce e5 40 f7 24 95 c0
       -3.9407215 0.37525612 7.1814804 -4.6607623
000180 e8 1f 6a 40 27 ed c0 40 a4 05 d0 40 f3 3c 44 3f
       3.6581974 6.0289493 6.5006886 0.766555
000190 e0 be 2b c0 62 4d e4 3f c3 96 b1 40 96 f8 8a 3f
       -2.683525 1.7836115 5.5496535 1.0857112
0001a0 03 db ac 40 e6 88 3c bd c7 08 8b 40 06 15 ad c0
       5.401735 -0.046028994 4.3448215 -5.4088163
0001b0 8e 7a ba 40 f7 03 4c bf c6 ad 26 3f de eb 75 40
       5.8274603 -0.7969355 0.6510891 3.8425212
0001c0 1b 71 cb 40 d5 0c 15 c0 15 12 6a 40 ca ef c7 40
       6.357557 -2.3289082 3.6573536 6.248021
0001d0 9f b7 8e 3f 5d b6 84 3f d1 54 dc 3f 07 a5 ec c0
       1.1149787 1.0368153 1.7213384 -7.395145
0001e0 d6 96 df be 53 c1 01 bf 83 08 a4 40 d3 18 ba bf
       -0.43669766 -0.50685614 5.126039 -1.4538826
0001f0 5a 7d df 40 c3 32 65 c1 b0 ab c5 bf 0a dd bc c0
       6.9840517 -14.324893 -1.544302 -5.9019823
000200 ad fd fc c0 2c a5 81 40 b7 f5 0f c1 d6 14 7f c0
       -7.9059663 4.0514126 -8.997489 -3.9856467
000210 bd 33 2f c0 f3 65 1b c1 12 98 7c c1 87 93 41 40
       -2.7375329 -9.71239 -15.787127 3.0246294
000220 c8 62 b5 c0 b6 03 56 c1 49 0c 23 41 8c 73 5e c1
       -5.6683083 -13.375906 10.190499 -13.90321
000230 ef e2 19 c1 a1 13 cb c0 d9 c5 f3 3f 36 af fb 3e
       -9.617904 -6.346146 1.9044753 0.49157113
000240 d8 f7 d6 c0 58 5a 7b c0 2b 78 48 40 a4 16 18 c1
       -6.7177544 -3.9273891 3.1323345 -9.5055275
000250 68 7c 89 c0 47 be 96 c0 9e 2e 64 c0 05 81 ca be
       -4.2964363 -4.710727 -3.5653453 -0.3955156
000260 a5 a2 03 41 5e 5c 10 41 c5 0d 34 40 04 62 9b 3f
       8.227208 9.022551 2.8133404 1.2139287
000270 67 93 98 40 c0 fb 47 3f 01 60 0a be 3e 31 0c 41
       4.7679935 0.78118515 -0.13513185 8.762022
000280 98 76 48 c0 66 1c ea 40 f6 91 b9 40 d3 95 9a 40
       -3.1322384 7.3159666 5.7990675 4.830789
000290 3e 63 95 3f df bb f5 3f 8d 99 21 40 00 f3 f5 c0
       1.1670911 1.9197959 2.524997 -7.685913
0002a0 4b a1 a5 c0 f3 f2 9e c0 1c 88 d0 40 46 59 ad 3e
       -5.175939 -4.967157 6.516615 0.33857173
0002b0 bc 2f b1 40 e5 e6 a9 40 8e c5 43 c0 84 9e 90 c0
       5.537077 5.3094354 -3.0589328 -4.51935
0002c0 63 5c 04 c1 b1 8b f8 40 67 d0 69 c0 2e 84 06 41
       -8.272555 7.767052 -3.6533449 8.40727
0002d0 aa df 8f c0 5f c8 38 40 95 53 63 c0 0c 21 10 40
       -4.4960527 2.8872297 -3.5519764 2.252017
0002e0 91 79 58 c1 aa 68 66 c0 68 b1 35 41 1d 0f c1 40
       -13.529679 -3.6001382 11.355812 6.033095
0002f0 71 f7 d8 40 05 21 96 40 be 20 90 bf 64 76 19 c0
       6.7802052 4.6915307 -1.1259992 -2.397851
000300 1e a9 ab 40 a5 1d 31 41 8e de 3b c1 2f 22 75 3f
       5.364394 11.069737 -11.741835 0.95755285
000310 bc bf 94 c0 47 e8 18 40 26 da d6 c0 c1 d5 72 3c
       -4.648405 2.389177 -6.7141294 0.014821471
000320 f0 4c 86 bf d7 55 3a bf b3 2c 78 40 ae b7 2f c0
       -1.049223 -0.7278723 3.8777282 -2.745586
000330 e6 66 bb 40 5a 6f c5 40 a4 ab 20 40 eb e5 76 40
       5.856311 6.1698427 2.510476 3.857783
000340 a0 fe 25 41 34 36 31 40 ee 9b eb c0 61 9d 51 40
       10.374664 2.7689333 -7.3627844 3.2752306
000350 79 fb 80 3e cc 4d 30 c0 e2 5e 83 3e af e9 81 3e
       0.25191858 -2.7547483 0.25658327 0.253736
000360 ca f6 d8 bf 38 8c 9e c0 cd 78 8f bf fe bc d3 bf
       -1.6950314 -4.9546165 -1.120874 -1.6542051
000370 08 b8 a2 3f d9 f1 f5 bf 69 7e 27 bf eb 9b d8 40
       1.2712412 -1.9214431 -0.6542726 6.769033
000380 68 33 cb bf 73 0c c7 40 38 4d bb 3f 54 87 b3 bd
       -1.5875063 6.2202697 1.463294 -0.08766046
000390 21 ae 00 c0 9d d7 23 c0 5c 7b f3 3e 12 6c 1b c0
       -2.010628 -2.560035 0.47555053 -2.428471
0003a0 f1 2f d5 c0 56 ea 86 3d 7b 40 41 c0 e4 48 6a 40
       -6.662102 0.06587665 -3.0195606 3.660699
0003b0 ca 01 29 c0 48 27 0e c1 a5 a8 5c 40 25 b2 31 c0
       -2.6407342 -8.88459 3.4477932 -2.776498
0003c0 ce 22 80 c0 84 39 a3 3e 5b c4 a7 c0 f1 a0 81 40
       -4.0042486 0.31879818 -5.242719 4.050896
0003d0 0a 0f 16 c0 6d 85 3f 40 1e 63 b2 bf 07 6f c1 bf
       -2.344668 2.9925187 -1.3936498 -1.5112008
0003e0 95 4a ae 40 e2 f6 de 40 24 53 b0 40 c7 41 b4 40
       5.4466043 6.967637 5.510149 5.6330295
0003f0 3e 5a e1 3c d7 84 14 c1 ed e3 84 3f 07 fe dd c0
       0.027508851 -9.282432 1.0382057 -6.937259

l4/b f4 [64]
000000 5e e0 27 c0 1b d7 7c c1 66 5a 10 c0 f4 4f 44 c1
       -2.6230693 -15.802516 -2.2555175 -12.26952
000010 43 5f 46 c0 de dd 7f c1 bb 1d 20 c1 de 93 54 c1
       -3.0995643 -15.991667 -10.007258 -13.2861
000020 c6 ab 8c c1 12 83 07 40 f6 b0 91 40 81 f4 b0 40
       -17.583874 2.117375 4.5528517 5.5298467
000030 80 b9 3d 41 02 35 84 40 02 31 a8 c0 61 58 21 c1
       11.857788 4.1314707 -5.2559824 -10.084077
000040 a5 7b 1c c1 01 b1 53 41 cd 3a 55 42 6a ce a0 42
       -9.780187 13.230714 53.307423 80.40315
000050 1e 9d 51 42 1a d3 97 41 2c 17 02 40 1e 35 33 c1
       52.403435 18.978077 2.0326643 -11.200468
000060 be 9f 8d c1 ed e6 0d 41 98 06 93 42 8b 24 65 c0
       -17.703 8.868878 73.51288 -3.5803554
000070 2b dd 80 c0 1b 1e ce 41 0c a5 c3 40 45 32 15 c1
       -4.026998 25.7647 6.1138973 -9.324773
000080 29 91 86 c1 f8 c7 7e 40 65 9e 3e 42 6a 8d 5e c0
       -16.820879 3.9809551 47.654682 -3.4773812
000090 e7 fa 46 c0 8b c1 a2 42 e8 fb 14 40 ac 51 99 c1
       -3.1090639 81.37801 2.3278751 -19.164879
0000a0 db a2 71 c0 08 44 b6 40 92 c2 c3 41 bf d4 3d 42
       -3.775565 5.6958046 24.470005 47.45776
0000b0 e1 ed 8f 42 5b 93 8d 41 36 65 3b 41 c7 3b 37 40
       71.96461 17.69695 11.71221 2.8630235
0000c0 12 d4 e5 c0 92 74 e2 bf b9 f0 20 41 2e 14 eb 40
       -7.1821375 -1.7691824 10.05877 7.3462133
0000d0 72 05 8f 41 f6 22 5f 40 39 ca 01 41 e3 2a 11 c1
       17.877659 3.4865088 8.111871 -9.07297
0000e0 ea da 26 c1 45 88 28 c1 be 20 1c c1 e6 66 84 c1
       -10.428446 -10.533269 -9.757994 -16.550243
0000f0 4e 6d d9 c0 e9 b7 fc c0 af 45 96 c0 3f 10 5e c1
       -6.794593 -7.89745 -4.6960063 -13.878966

l4/W f4 [64, 256]
000000 8f 26 8e 41 14 82 85 41 cb a6 af 41 c7 a7 80 41
       17.768827 16.688515 21.956442 16.081923
000010 53 a6 70 41 af 24 6b 41 86 90 81 41 e0 4e 89 41
       15.0406065 14.696456 16.195568 17.163513
000020 a8 3e 31 41 7d 70 8a 41 8f f7 87 41 7c 93 ba 40
       11.077797 17.304926 16.995878 5.8305035
000030 b6 be c5 40 76 e4 ad 41 56 c3 94 41 a8 19 b4 41
       6.17953 21.736553 18.595379 22.512527
000040 1e 30 6d 41 ea 1a 98 3f 6b 32 9d 41 1e 7c 98 41
       14.824247 1.1883214 19.649618 19.060604
000050 f0 e6 9f 41 53 99 a9 41 9d 82 13 41 3c 5e 97 41
       19.987762 21.199865 9.219388 18.921013
000060 32 b8 93 41 f8 9c 87 41 bb 73 8d 41 3c 6c 84 41
       18.46494 16.951645 17.681509 16.552849
000070 bf d3 ac 41 61 fd 95 41 c7 fe 8c 41 e9 47 8a 41
       21.603392 18.74872 17.624403 17.285112
000080 79 26 a2 41 9b 2b 82 41 10 02 ad 41 a1 1c ae 41
       20.268785 16.271292 21.626007 21.763979
000090 16 eb af 41 5c b7 ad 41 c3 d3 c3 41 c5 ff b6 41
       21.989788 21.71453 24.4784 22.874887
0000a0 4c db ab 41 dc 37 94 41 cb 4d 9f 41 99 08 a3 41
       21.482079 18.527275 19.912985 20.379198
0000b0 f8 bb 89 41 34 d3 c3 41 59 5d a3 41 d2 15 b7 41
       17.216782 24.478127 20.42058 22.885654
0000c0 8b 0a 86 41 db 5b 80 41 d2 72 61 41 d3 2a 92 41
       16.755148 16.044851 14.090532 18.27091
0000d0 21 2a 87 41 96 6b a1 41 57 57 b9 41 6f e1 be 41
       16.89557 20.177532 23.167646 23.860075
0000e0 9c eb ac 41 88 c0 41 41 1a 85 a4 41 ab b2 88 41
       21.615044 12.109505 20.564991 17.08724
0000f0 9a 61 8a 41 73 90 86 41 ce 41 86 41 67 a5 83 41
       17.297657 16.820532 16.782131 16.455763
000100 9e ca ac 40 72 09 c3 41 01 05 ad 41 15 2d 75 41
       5.3997335 24.379612 21.627443 15.323506
000110 a3 5f b2 41 89 a4 95 41 3f 08 b8 41 29 54 c7 41
       22.296698 18.70534 23.004026 24.916094
000120 8c 6c a5 41 c4 e8 89 41 46 6a e6 40 c6 f5 b0 41
       20.678001 17.238655 7.200473 22.120007
000130 b5 60 88 41 6f ea a4 41 1a 5e a8 41 f4 17 9e 41
       17.04722 20.61447 21.045948 19.761696
000140 db db 9c 41 e1 31 4f 40 df 47 a2 41 34 d2 a8 41
       19.607351 3.2374194 20.285093 21.102638
000150 45 87 a7 41 07 28 c9 41 d9 e3 ba 41 6f 2e 89 41
       20.94105 25.144545 23.361254 17.147673
000160 b7 f5 aa 41 3f 4e ae 41 aa e7 82 41 30 d7 a6 41
       21.369978 21.788206 16.363117 20.855072
000170 dd a0 79 41 41 83 9e 41 1e 23 26 41 b3 6f a8 41
       15.601773 19.814089 10.383574 21.05454
000180 2f 65 88 41 e2 5a a0 41 fd 9c 11 41 ce 2d b5 41
       17.049406 20.044376 9.100827 22.647366
000190 e6 7c 8d 41 08 a6 ab 41 22 69 60 41 c3 75 a6 41
       17.685986 21.45607 14.025667 20.8075
0001a0 91 a9 b8 41 b5 69 7e 41 68 97 74 41 87 48 bb 41
       23.082796 15.900807 15.286964 23.410414
0001b0 10 90 94 41 46 64 a6 41 46 1d a1 41 4f dd 3a 41
       18.570343 20.798962 20.139294 11.67903
0001c0 e4 c3 82 41 e7 a6 a3 41 c5 6e b2 41 d6 b2 82 41
       16.34565 20.456495 22.304087 16.337322
0001d0 27 f3 ae 41 4e de 8b 41 4b 9e 8a 41 fa 65 a3 41
       21.868727 17.483547 17.327291 20.424793
0001e0 9f 1d 91 41 c6 d5 50 41 37 40 bb 41 65 9b aa 41
       18.139463 13.052191 23.406355 21.325876
0001f0 01 ec 90 41 37 ed a9 41 40 09 9b 41 53 db b1 41
       18.115236 21.240828 19.379517 22.232092
000200 3b c0 aa 41 e2 95 7c 41 3d 8f 89 41 55 e8 af 41
       21.343863 15.7865925 17.19494 21.988443
000210 54 c5 96 41 f2 ca 68 41 c1 42 ab 41 3c 8a 8d 41
       18.846352 14.549547 21.407595 17.692497
000220 3a 3d 91 41 d0 41 9a 41 fa 0b 97 41 1d 85 0d 41
       18.154896 19.282135 18.880848 8.844998
000230 a3 20 ad 41 90 ca 85 41 8c c9 a1 41 02 14 a6 41
       21.640936 16.723907 20.223412 20.75977
000240 5c b9 84 41 25 7e 9a 41 6a 45 49 40 da d8 a7 41
       16.590508 19.311594 3.1448617 20.980885
000250 06 ae a9 41 a2 c7 9b 41 77 af b4 41 23 ac ab 41
       21.209972 19.472477 22.585676 21.459051
000260 d9 a7 87 41 0c 1a a3 41 3e 6d 98 41 26 a3 be 41
       16.956957 20.387718 19.05334 23.829662
000270 65 c0 b7 41 eb 15 95 41 56 a7 4f 41 ba 56 a5 41
       22.968943 18.635702 12.9783535 20.667347
000280 ff 06 08 41 3e 82 6c 41 59 62 ab 41 bb e7 8f 41
       8.501708 14.781797 21.423021 17.98815
000290 5d 9e 8d 41 34 c9 b0 41 8e f2 93 41 28 45 81 41
       17.702326 22.098244 18.493435 16.158768
0002a0 3f 81 5f 41 e2 bd 1e c1 2e cf ab 41 f2 24 95 41
       13.969054 -9.921358 21.476162 18.64304
0002b0 2a be ad 41 d9 f8 a2 41 ec de 75 41 44 45 b4 41
       21.717854 20.371508 15.366924 22.533821
0002c0 08 f2 9f 41 78 ff b3 41 c8 6e 51 41 fd c6 79 41
       19.99318 22.49974 13.089546 15.611081
0002d0 c3 85 90 41 42 50 95 41 35 b5 96 41 e2 6a b6 40
       18.065313 18.664188 18.83848 5.700547
0002e0 73 e6 89 41 f6 10 a9 41 e1 ed 9a 41 28 9f be 41
       17.237524 21.133282 19.366152 23.827713
0002f0 67 d2 58 41 5e cb 95 40 dc 65 6a 41 8b 23 a4 41
       13.551368 4.681075 14.649868 20.517355
000300 d2 23 58 41 c2 49 8c 41 33 d6 b4 41 11 6d af 41
       13.508745 17.536015 22.60459 21.928255
000310 c1 61 99 41 00 1b 9e 41 79 04 74 41 c3 6c be 41
       19.172731 19.763184 15.251092 23.803106
000320 a8 81 8a 41 c5 a1 bb 41 f2 e3 83 41 a6 37 96 41
       17.313309 23.453989 16.486301 18.777172
000330 83 98 8c 41 c0 d0 8e 41 47 ab 85 41 a0 02 a2 41
       17.574469 17.851929 16.708632 20.251282
000340 44 82 b4 41 e0 18 8c 41 cc 28 a8 41 d5 2e a6 41
       22.563606 17.512146 21.01992 20.772867
000350 61 bb b1 41 69 72 b4 41 22 93 f1 40 11 d0 98 41
       22.216494 22.555864 7.5492105 19.101595
000360 c4 66 83 41 a8 1f a1 41 9e 8f aa 41 4f 56 9e 41
       16.425179 20.140457 21.320126 19.792143
000370 4b dc 84 41 1a 2c b4 41 f6 84 4a 41 4a 54 8e 41
       16.607565 22.521534 12.657461 17.791157
000380 08 12 a2 41 24 fe 99 41 41 e6 9e 41 b2 e5 97 41
       20.258804 19.249092 19.862429 18.987156
000390 08 f5 9f 41 2a cf 8f 41 e8 74 7b 41 42 d9 8b 41
       19.994644 17.976154 15.716042 17.481083
0003a0 e6 af 8e 41 e6 90 63 41 74 b2 8a 41 91 1e 97 41
       17.835888 14.222876 17.337135 18.889925
0003b0 3a c1 87 41 7e c3 d9 40 36 76 91 41 e1 50 84 41
       16.969349 6.805114 18.18272 16.539492
0003c0 56 1d 87 41 0f 69 9f 41 28 dc 8b 41 4d 9c 51 41
       16.889324 19.926298 17.482498 13.100659
0003d0 63 97 ad 41 06 06 a0 41 37 2d 9e 41 0c b2 a3 41
       21.69892 20.002941 19.772078 20.461937
0003e0 64 a5 9e 41 9a c5 c0 41 f0 d3 b6 41 ec 65 b8 40
       19.830757 24.096485 22.853485 5.7624416
0003f0 9a 36 e6 40 94 20 b1 41 7a f2 a4 41 91 f0 8d 41
       7.194165 22.140907 20.618397 17.742464
