size8/agent_white_135000/model.npz (npz, 608513 bytes, 8 tensors)

l2/W f4 [256, 256]
00000000: 54d8 7140 681a aac1 49ee fcc1 6e01 19c1
00000010: b510 0dc2 9147 8a41 364b a03f 10d9 4741
00000020: a9fb 8e41 0629 a7c1 f2d5 3241 08d1 9e41
00000030: aaed 45bf eaea 64c0 4694 acc1 9953 853d
00000040: 3f17 5641 bd3d 17c1 7b64 8dc1 319f 5dc1
00000050: bd4c 7ec1 caba 6e41 c6ae ae40 4752 4dbf
00000060: 33e7 30bf 7718 82c1 4edf b740 ed78 1ec1
00000070: d5cd dd41 d62c 2542 6aa0 9740 8a70 9140
00000080: a037 e6c0 4bc9 0941 b155 87c1 dc1d 15c0
00000090: 69ab d641 7d63 7941 6aad d3c1 533c 4e41
000000a0: 9578 6cc1 9088 d6c0 6473 0dc1 4893 35c1
000000b0: 6544 9ac0 19b7 fc41 13a0 7841 571c ab40
000000c0: c2ab 04c1 4249 dcc1 5dd1 0a41 22cd 843f
000000d0: 027d 3641 029e fcc1 33f2 1241 23e7 3541
000000e0: b379 6ac1 82be 48c1 0d19 8041 f30d 2e41
000000f0: fe16 83c1 9908 f240 b528 8840 8b3c 80c1
00000100: 4759 66c1 e812 ddc1 4c59 d9c1 807f 51c1
00000110: a963 a040 d37a cc40 f746 f8c0 ea75 3541
00000120: 6bee 0142 32e2 b541 ad82 bbc0 2cb9 ba40
00000130: 477a 7040 8411 bcc1 857e c841 4644 1b41
00000140: 8aa8 d340 acaf acc0 a323 c740 c8bc 78c1
00000150: 77b9 9940 52a6 7141 6dc6 77bf 0313 d041
00000160: ab1d 6c41 dbcf 93c1 e948 aec0 9cc9 2b40
00000170: 459c 9bc1 e008 a53f 7cc1 7e40 02ef 9c41
00000180: 5ae0 dec1 9afa 0e40 adea 8c41 a222 5bc0
00000190: ab9b b8bf b2ba 64c2 19e8 49c1 bb21 1ac1
000001a0: 0213 8dc1 3655 0ac2 d7cf e2c1 a259 47c2
000001b0: ac88 a741 6cc0 38c2 a804 0d41 052f 3240
000001c0: 998c 8e40 aa65 3bc0 0599 4e40 7dd4 f8c1
000001d0: d433 18c1 e59e b6c0 1306 b9c0 20d7 6dc0
000001e0: 2d09 8ec0 b9f8 f3c1 8233 f73f 8094 3fc2
000001f0: 2d17 b040 1412 c1c1 a5e9 0bc1 1fa8 5c3f
00000200: b575 c841 ca2e dac1 4438 e2bd fe5d 52c2
00000210: 4cc0 1941 0441 ee41 1b8a be40 632a 8e41
00000220: c475 76c2 1e52 61c1 a2de 0a41 0f73 bcc0
00000230: 55e6 0fc2 ce3d 84c1 db28 1cc1 67f2 b141
00000240: 9221 77c1 6557 66c2 1368 0d42 3f96 cc40
00000250: 311a 0c42 a5cd 2941 c6b1 2cc0 c196 4441
00000260: 30e4 2f41 7b96 4cc1 baa0 8141 5697 0c40
00000270: 3ffa bbc1 fe72 3fc1 8ece 3f40 8f11 f7c1
00000280: e991 97c0 3ccf fcc1 12ef 7241 18f1 9a41
00000290: fc82 d6c1 2275 b1c1 3995 00c1 b02a 7a41
000002a0: 296c d0c1 80fc 1241 7fc8 1ac1 611f 35c1
000002b0: f17a 1fc1 e844 b641 9ab6 40c2 30a7 dbbf
000002c0: 3528 d7c1 e0ed b041 154b 9b40 36b9 1e41
000002d0: 766e b140 ac1d 5842 a16b 28c1 92ba ac40
000002e0: 784d 2d41 ba61 1dc2 5aed e9bf d611 cbbf
000002f0: 0ca5 37c2 0ca6 f241 c5b5 c041 7c00 8e41
00000300: fe11 fc41 0fdc bdc0 9972 9f41 ff0c f140
00000310: 7625 d241 523b 4d41 eb8b cd41 5d4a 5a41
00000320: f39b 3cc1 ba50 f5c1 05cf f9c1 eaf5 4cc1
00000330: c376 a1c1 b6c1 c8c1 a65d c8c1 786b f7c1
00000340: a90d d7c1 1d12 93c0 9ab3 09c2 ce9b 4440
00000350: fa66 58c1 a726 63c1 9eb0 01c2 b359 7cc1
00000360: 8ed2 1ec1 e00a 5a40 e5da 97c1 b12f 36c1
00000370: c6cf f1bf 05ec d340 ce84 8dc1 a754 1ac1
00000380: 71db d3c1 71c8 88c0 4484 0140 3b13 0ac2
00000390: fe76 fec1 07af c7c1 4d8b 7641 5777 d440
000003a0: a9e8 8041 3a92 a1c1 2d01 8541 5244 24c1
000003b0: 7c51 77c1 7395 d641 9c00 a6c0 3b2e 3741
000003c0: 2c11 9040 f1c7 5bc1 9c3b ffc0 d005 c93f
000003d0: 763a 23c2 3dd3 cfc1 3713 ef41 747e 79c1
000003e0: 7946 0242 d1f9 f141 0d8e d341 7b30 8e40
000003f0: 6d94 dcc1 764c 0ac2 8776 dcc0 0a09 ae40
3.7788286 -21.262894 -31.61635 -9.562849 -35.266315 17.284945 1.2522953 12.490494
17.87288 -20.895031 11.177233 19.852066 -0.7731577 -3.576838 -21.5724 0.065100856
13.380675 -9.452573 -17.674063 -13.851365 -15.893735 14.920603 5.4588346 -0.8020367
-0.6910278 -16.261946 5.746009 -9.904523 27.725504 41.293785 4.738332 4.5449877
-7.19429 8.611644 -16.916842 -2.3299475 26.833696 15.586789 -26.459675 12.889728
-14.779439 -6.70417 -8.840672 -11.348457 -4.820849 31.589403 15.539081 5.3472095
-8.291933 -27.53577 8.676114 1.0375102 11.4055195 -31.577152 9.184131 11.36893
-14.654712 -12.546511 16.012232 10.878406 -16.386227 7.5635495 4.254969 -16.029562
-14.396796 -27.634232 -27.168602 -13.093628 5.0121655 6.389993 -7.7586627 11.341288
32.48283 22.735447 -5.8597016 5.835104 3.7574632 -23.508553 25.061777 9.704168
6.6143236 -5.3964443 6.2231 -15.546089 4.8038898 15.103106 -0.9678715 26.009283
14.757243 -18.476492 -5.4464 2.6841803 -19.451303 1.2893333 3.9805593 19.616703
-27.859547 2.2340455 17.614588 -3.4239888 -1.4422506 -57.18232 -12.619164 -9.633235
-17.634281 -34.583214 -28.351484 -49.837532 20.941734 -46.187912 8.813637 2.7841198
4.454663 -2.92808 3.2280896 -31.103754 -9.512653 -5.7068963 -5.7819915 -3.7162552
-4.43862 -30.496447 1.9312594 -47.89502 5.502829 -24.133827 -8.744542 0.8619403
25.057474 -27.272846 -0.11045888 -52.59179 9.6094475 29.781746 5.9543586 17.770697
-61.615005 -14.082548 8.679354 -5.8890452 -35.974934 -16.530178 -9.7599745 22.24336
-15.445696 -57.585346 35.351635 6.3933406 35.025578 10.612706 -2.6983504 12.286805
10.99321 -12.786738 16.20348 2.1967368 -23.49719 -11.965574 2.996982 -30.883574
-4.7365613 -31.601189 15.183367 19.367722 -26.813957 -22.182194 -8.036431 15.635422
-26.052813 9.1866455 -9.673949 -11.320161 -9.967515 22.783646 -48.17832 -1.7160397
-26.894632 22.11615 4.8529153 9.9202175 5.544734 54.028976 -10.526277 5.3977747
10.831413 -39.345436 -1.8275559 -1.5864818 -45.91118 30.331078 24.088755 17.750237
31.508785 -5.9331126 19.930956 7.5328364 26.268291 12.8269825 25.69332 13.643155
-11.788074 -30.664417 -31.226084 -12.810038 -20.18299 -25.094585 -25.045727 -30.927475
-26.88167 -4.595961 -34.425392 3.0720096 -13.525141 -14.196937 -32.422478 -15.771899
-9.926405 3.4069138 -18.981882 -11.386643 -1.8891532 6.622561 -17.689846 -9.645667
-26.48215 -4.274468 2.0236979 -34.51878 -31.808102 -24.960463 15.409009 6.639568
16.113604 -20.1964 16.625574 -10.26668 -15.457394 26.822973 -5.1875744 11.448787
4.502096 -13.736314 -7.9760265 1.5704899 -40.80709 -25.978144 29.884382 -15.593372
32.56882 30.24698 26.44436 4.443418 -27.572474 -34.57467 -6.8894687 5.4386034

l2/b f4 [256]
00000000: a7c0 8041 482f 4041 741d 2b41 5a73 cb41
00000010: 0607 5a41 d842 a641 fe14 863e 7226 39c0
00000020: c5fa 8141 12fa 85c0 dc94 2540 de1b 0441
00000030: a257 83c0 a029 76c0 658b 8f40 ad47 643f
00000040: 87ae 21bd 934a 7541 4ac6 4441 ccc2 61c1
00000050: 14dd 0741 b8d4 fc41 44d6 8741 0f77 28bf
00000060: c7b0 2940 7123 87c0 bff5 f940 2f02 e040
00000070: 47de 6841 bd94 4ac0 d9c0 cd41 9038 7841
00000080: bef3 a841 636f 9c41 90ee 8441 ba08 2e3f
00000090: c914 7cc1 522d 8841 ea9f 39c0 7dd5 6b41
000000a0: 7bc5 2e41 673c 6f41 1f05 8f41 9260 58c0
000000b0: cf38 5f41 dcd1 9341 abaf 96c1 ef0f 8841
000000c0: d1ea 2fc1 f58a 21c1 abc4 0942 d74b c2c1
000000d0: a4b8 9641 83dd ab41 3165 8241 b243 81c1
000000e0: 8946 4bc0 3cb7 6541 2bf4 5640 85f4 67bf
000000f0: 5497 4641 ff42 e6c0 cddf e7c0 31af d2c0
00000100: 5638 cf3f fb9f 0dc1 1c5c 2240 4c0b d041
00000110: 7748 b7c0 7672 1cc1 7b88 a340 b2ea 0641
00000120: e43a 4040 17cd 15c1 cd02 49c1 c3ef 9641
00000130: 3c42 1ac1 26cd 3cc1 2568 6941 c267 1041
00000140: 4fd2 c041 401d a441 8184 a541 407d 8041
00000150: 7c20 8541 a8b0 42c1 e0d4 0340 0e53 67c1
00000160: 5a53 87c1 77d2 b1c0 0048 12c0 b4fc 0d41
00000170: 9f8f 41c1 8d00 a041 b59a 6ebf 1abe 2dc1
00000180: 8f5b 20c1 4b6a c13f d746 b740 dadf 05bf
00000190: 13a0 bb41 a412 1340 47e0 2541 9da6 4a41
000001a0: 0323 2fc0 c3a7 6041 e057 0cc1 82be a1bf
000001b0: a8ac d041 99b9 ae41 75ef 4840 504a b341
000001c0: b6c2 b141 5eab 9441 98b9 0bc1 b8c2 9b41
000001d0: c43f 7841 9b99 a441 c389 0b40 63d4 af41
000001e0: 6378 8541 16e6 b041 157e ec40 0ee7 3f41
000001f0: 3fb9 7a41 3c91 9541 fdbc 9741 1e60 9941
00000200: ecd8 38bf 7eed 5141 9b6d 87c1 4757 5e41
00000210: 2bfb a441 c338 ba41 ec9f 0241 d7c3 2bbf
00000220: 661b d641 c235 9641 cc6c 91c0 b43c a841
00000230: 0b86 f540 ef6d 18c1 3d8b b041 e336 8d41
00000240: e0ef 9a41 2bc7 62c1 f2e5 78c1 8b53 e640
00000250: 682b 9641 5c38 1ac0 1306 a041 467d 4cc1
00000260: 7866 3641 177d a1c0 61fb 0141 ff74 08c1
00000270: ad5d 5c41 6741 8241 3e81 ba41 3344 84c1
00000280: 1447 8a41 76a9 3441 7aef 75c1 9741 2640
00000290: 6ab8 7c41 070f 65c1 3ea3 81c1 5348 7641
000002a0: 0ba9 c141 6fdf 8dc0 6e7e a041 1699 9341
000002b0: 8407 2641 2c21 0440 036a c2c1 8aa3 b03f
000002c0: 3303 a140 b6cf 8741 3979 173f d93e 6941
000002d0: cc30 4341 9869 8841 5711 d8be f931 8f40
000002e0: 9f95 8541 e71c 7a41 72a7 883f 50f0 6441
000002f0: f279 6741 7165 7641 c91e 3141 0402 b83f
00000300: 369c dbbf 9f8b 6541 5490 9b41 8548 b541
00000310: b275 f9bf 42dd 7841 7919 91c0 9f06 4641
00000320: f2d8 ac41 fbbd 06c0 1764 8f41 62e2 8341
00000330: c0bd b441 b293 d141 e7b0 66c1 9a3b 9040
00000340: 3514 90c0 b2bd de41 19ec 9a41 3275 0740
00000350: f1b3 8541 1841 2541 91a7 a141 02e4 8041
00000360: 1dfa 00c0 75fa b341 9add 6341 2b57 fe40
00000370: 6029 9e41 b8f1 8941 4277 8541 0777 9f41
00000380: c598 9641 e1e1 8041 827e 70c0 5e15 3f41
00000390: f89b 81c1 517f d341 dc7a 9a41 4ebd b141
000003a0: 7141 ddc0 a6f6 5dbf e502 71c0 8e3f 093f
000003b0: ff6d b341 0ffd 7abf 5781 4841 aa50 8ac1
000003c0: 6d2f 23c1 1ee0 4bc1 197b 9241 3814 ee41
000003d0: ec39 193e 5dec cec0 c00f c340 bbf7 07bf
000003e0: 01a7 a941 d355 8c41 5db9 e541 254e 9f41
000003f0: a733 6c41 c100 7b41 a412 aa41 efce 9b40
16.094069 12.011543 10.694691 25.431324 13.626715 20.782639 0.2618789 -2.8929715
16.247446 -4.186776 2.5872107 8.2568035 -4.1044474 -3.8462906 4.485766 0.8917187
-0.039473083 15.330707 12.29841 -14.110058 8.491474 31.603867 16.979622 -0.6580667
2.6514146 -4.2230763 7.8112483 7.0002666 14.554267 -3.1653283 25.719164 15.513809
21.119015 19.554388 16.616486 0.67982066 -15.7550745 17.02213 -2.9003854 14.739621
10.923213 14.952247 17.8775 -3.3808942 13.951369 18.47747 -18.835775 17.00778
-10.994828 -10.096425 34.44206 -24.287031 18.840157 21.48316 16.29941 -16.158054
-3.1761801 14.357235 3.3586528 -0.9060748 12.411945 -7.195678 -7.2460694 -6.5838857
1.6189067 -8.851558 2.536872 26.005516 -5.727596 -9.777945 5.11041 8.432299
3.0035944 -9.362571 -12.563184 18.867071 -9.6411705 -11.800085 14.587926 9.0253315
24.10269 20.514282 20.6897 16.061157 16.640862 -12.168129 2.0598679 -14.457777
-16.915699 -5.5569415 -2.2856445 8.874195 -12.097564 20.000269 -0.93204814 -10.8589115
-10.022353 1.5110563 5.7273974 -0.52294695 23.453161 2.2980127 10.367255 12.665677
-2.736512 14.040957 -8.771454 -1.2636263 26.084305 21.840624 3.1396153 22.411285
22.220074 18.583675 -8.732811 19.470078 15.515568 20.575003 2.1802833 21.978704
16.683783 22.112347 7.390391 11.99391 15.670226 18.695915 18.96728 19.171932
-0.72205997 13.1204815 -16.928518 13.896308 20.62264 23.277716 8.164043 -0.670957
26.763378 18.776249 -4.544531 21.02964 7.6726127 -9.526839 22.067987 17.6518
19.367126 -14.173625 -15.556139 7.197698 18.771194 -2.40969 20.002966 -12.780584
11.400017 -5.0465198 8.123872 -8.5285635 13.77287 16.281935 23.313107 -16.5333
17.284706 11.291372 -15.370966 2.5977533 15.795023 -14.316169 -16.204708 15.392657
24.20754 -4.4335246 20.061733 18.449749 10.376835 2.0645247 -24.301764 1.3799908
5.0316405 16.976421 0.59169346 14.577844 12.199413 17.05156 -0.4220073 4.47485
16.698057 15.632056 1.06761 14.30867 14.467272 15.399766 11.070016 1.4375615
-1.7157047 14.346587 19.445473 22.66041 -1.9489043 15.554018 -4.5343595 12.3766165
21.60593 -2.1053455 17.923872 16.485538 22.592651 26.197117 -14.418189 4.5072756
-4.5024667 27.842625 19.365282 2.116528 16.712862 10.328392 20.20682 16.111332
-2.0152657 22.497293 14.241602 7.9481406 19.770203 17.243027 16.683231 19.933119
18.824594 16.110292 -3.7577214 11.942717 -16.201157 26.437166 19.30999 22.217434
-6.9142385 -0.8670448 -3.7658017 0.536126 22.428709 -0.98042387 12.531577 -17.289387
-10.199079 -12.742216 18.310106 29.759872 0.14963502 -6.466353 6.0956726 -0.5311238
21.206545 17.541906 28.71551 19.913157 14.76261 15.687684 21.259102 4.8690104

l1/W f4 [256, 64]
00000000: be48 7142 04ed 89c0 6c90 9e3f 682d 6f40
00000010: 8abb 9740 0b00 0b41 d54b c340 5dac 4241
00000020: a3b7 8cc1 deeb 8c41 3f33 cac1 c40e 8b41
00000030: 9900 3ac2 2c4c 2cbd a575 d0bd 17e6 02c2
00000040: 48b8 44c0 e6d8 c041 7619 4741 2afd d9c0
00000050: 81dd 7941 b359 0cc1 6669 0142 96e2 a540
00000060: 183c c841 280a cebf 8a45 af41 5a9c adc1
00000070: 7c10 3ec1 1ac8 9141 74ed 0f41 09d6 3e41
00000080: 8778 373f 98bc cf40 200e bd3f e228 9ec1
00000090: e852 e93f 799b 42c1 4643 c4c0 654e 1541
000000a0: 09a5 7341 f407 8841 fe50 72c1 fe38 cf41
000000b0: d657 aa40 76b3 0dc0 d981 6841 7b97 c2c1
000000c0: 62de b040 8762 3b41 26df bcc0 0d10 04c1
000000d0: dce4 f140 9b29 d840 950c c6c0 635e 2142
000000e0: b5b5 7c41 1ad1 fdc0 0373 6dc1 1c50 99c1
000000f0: 48ef 5c41 4660 75c1 8f33 b03f fcb4 e3c1
00000100: af28 a841 e509 dabf fedb 1d42 ae83 59c1
00000110: 5f30 bdbf 5942 41c2 ed80 5a41 4e5b 7541
00000120: babc 47c1 6525 65bf a7b5 b041 1c17 95c1
00000130: b63f fdc0 7167 00c2 a739 0041 78e1 a5c1
00000140: 63a9 9141 ad20 b6c1 117c 6640 126f d7c0
00000150: d54a 3d41 1fc1 6abf 52f9 4e41 e34b b6c1
00000160: a897 1141 c8c6 44c0 4a8b e4bf 67c3 fac0
00000170: 4300 70c0 69d6 2ec1 c528 7ac1 e4cf d7c1
00000180: 51a7 5fc0 364b 8cc1 7831 9941 8eb6 9d3f
00000190: 6a8e 3440 581c 45c1 2b23 c341 0619 7fc1
000001a0: ea16 acc0 8f9d fdc1 8494 9d41 6e9d 3e41
000001b0: a687 efc0 8e8a 9b41 e0e7 1e42 b903 aec1
000001c0: 80e0 2fc2 b173 5ec1 0f62 2bc1 b0d1 3bc2
000001d0: 9d76 0d41 7e6d 8d41 14f7 2b40 8c1c 4cc0
000001e0: c298 56c1 79c7 c6c1 10a8 4fc2 1459 56c1
000001f0: 70d6 2542 bbe1 9f41 a87e e03f cb38 6dc0
00000200: 66fa d641 f8a1 ec41 c9c6 b9bf 5d50 a341
00000210: 000f 41c1 639d 4641 b347 6fc1 0db9 4641
00000220: 91ae b441 aa8c 6f40 9778 0ac2 f29e 2041
00000230: 2c52 9741 fa28 ed41 2602 9541 2aa0 cf40
00000240: c03a 28c1 a196 df41 3233 e9c1 160d 2d41
00000250: 8bbd 0940 a2ce 2141 3979 c541 6515 7e40
00000260: b502 5042 889b f1c1 db9a 3f41 0c4c ee40
00000270: 81ca 46c0 f125 5341 371a 9940 86ad 7740
00000280: 5207 8cc1 255c 5e41 fb6e 2bc2 d1fa cb40
00000290: 85d4 ee3e 38c3 3641 6239 d5c0 68be 71c1
000002a0: ef40 efc1 6944 1ac1 3548 7ec0 4459 36c1
000002b0: b5d5 2241 b7e9 e740 ab89 5dc1 a410 b7c1
000002c0: e12b 61c1 5606 10c2 0b98 64c1 9552 c040
000002d0: da59 ae41 ceeb 81c1 42e3 0741 e91b eec1
000002e0: fd47 b041 9357 9741 4a85 bac1 93a9 f141
000002f0: bf55 88bf 7a33 d03f 3a07 a841 08c3 6341
00000300: c6aa 09c2 ff05 0042 820e 90c1 157d 1e40
00000310: 21e5 0dc1 c41e 9741 42e6 9c41 a549 24c2
00000320: 800b 7240 65af 69c2 b526 53c1 6b50 8f40
00000330: c72f dcc1 05b8 ce41 d765 4d41 ad96 9ac0
00000340: eb32 cfc1 2869 f3c1 e676 1f40 977d b640
00000350: 89f0 1442 3a42 91c0 8ced 7341 108e 053f
00000360: 0625 c640 f14c 8cc0 c1e1 4a41 27d5 86c0
00000370: 454a e8c0 3d33 4e41 5198 ed40 900c 2dc1
00000380: 483c 94c1 7df7 0442 b4e8 8e41 6397 453f
00000390: f9b2 393f 22ea 22c0 60bf bac0 5813 a741
000003a0: dd46 8540 da50 fbc1 a490 c5c1 a7bb 38c1
000003b0: 6920 2c40 6bcf dd41 e446 9f41 a8fc 1bc2
000003c0: e4ea b3c1 ef34 9cc1 ea19 01c0 a66c 25c2
000003d0: b1b0 0ec1 5cbe 1842 3271 0d42 4952 12c2
000003e0: 057a 86c2 d8fd 5b41 a015 8fc2 bf69 9f40
000003f0: b4aa 09c2 cd57 a5c0 bc47 3a42 46cb b8c1
60.321037 -4.3101826 1.2387824 3.7371464 4.741643 8.6875105 6.103007 12.167081
-17.589666 17.61517 -25.275023 17.38221 -46.500584 -0.04206483 -0.10178689 -32.724697
-3.0737476 24.105907 12.443716 -6.812154 15.616578 -8.771899 32.35293 5.1839094
25.029343 -1.609685 21.908955 -21.701344 -11.8790245 18.222706 8.995472 11.927255
0.71668285 6.4917717 1.4769936 -19.769962 1.8228426 -12.162957 -6.133212 9.331639
15.227792 17.003883 -15.1447735 25.902828 5.323222 -2.2140784 14.531701 -24.323965
5.5271463 11.711555 -5.90224 -8.253919 7.559187 6.755079 -6.189036 40.342175
15.794362 -7.931775 -14.840579 -19.164116 13.808418 -15.336004 1.3765734 -28.463371
21.019865 -1.703427 39.464836 -13.594648 -1.4780387 -48.314793 13.656476 15.334791
-12.483576 -0.89510185 22.088697 -18.636284 -7.914027 -32.101017 8.014075 -20.735092
18.207708 -22.765955 3.6013224 -6.7323084 11.83077 -0.9170093 12.935869 -22.787054
9.099525 -3.0746326 -1.7855008 -7.836353 -3.750016 -10.927346 -15.6349535 -26.97651
-3.4945872 -17.536724 19.149155 1.2321336 2.8211923 -12.31942 24.392172 -15.943609
-5.377797 -31.701933 19.697517 11.913435 -7.4853086 19.442654 39.72644 -21.751818
-43.96924 -13.903245 -10.71144 -46.954773 8.841458 17.678463 2.6869555 -3.1892424
-13.412294 -24.847399 -51.914124 -13.396748 41.45941 19.98522 1.7538652 -3.7065914
26.872265 29.579086 -1.451379 20.41424 -12.066162 12.4134245 -14.955005 12.420178
22.585238 3.7429605 -34.617764 10.038805 18.915123 29.645008 18.626049 6.4883013
-10.514343 27.94855 -29.149998 10.815695 2.1521938 10.112947 24.68419 3.9700558
52.002644 -30.200943 11.9753065 7.446783 -3.1061099 13.196763 4.78445 3.869966
-17.503574 13.897496 -42.85838 6.374367 0.46646515 11.422661 -6.6632547 -15.108986
-29.906706 -9.641702 -3.9731572 -11.396793 10.177175 7.2472796 -13.84611 -22.883125
-14.073213 -36.006187 -14.28712 6.010081 21.793873 -16.240139 8.492983 -29.763628
22.03515 18.91776 -23.315083 30.2078 -1.0651168 1.6265709 21.003529 14.235115
-34.41677 32.005856 -18.007084 2.4763844 -8.86844 18.890022 19.61243 -41.07192
3.781952 -58.421284 -13.19695 4.4785666 -27.523329 25.839853 12.837363 -4.830893
-25.899862 -30.426346 2.491632 5.702831 37.234898 -4.5393343 15.245495 0.52169895
6.1920195 -4.3843923 12.680116 -4.2135196 -7.259066 12.887509 7.4248433 -10.815567
-18.529434 33.241688 17.863625 0.7718412 0.72538716 -2.5455403 -5.835861 20.884445
4.1649003 -31.414478 -24.695625 -11.545814 2.6894782 27.726278 19.909615 -38.996735
-22.489693 -19.525846 -2.0172067 -41.356102 -8.918138 38.185898 35.360542 -36.580357
-67.23832 13.749474 -71.54224 4.9816585 -34.416702 -5.166968 46.570053 -23.099255

l1/b f4 [256]
00000000: f59c afc1 8a4d 1340 4083 0f41 0081 8740
00000010: 5fba e43c 575b 0d41 a260 f4c0 2468 c540
00000020: 549c a2be 8b9f 8c40 92d3 1ec2 a0e8 7141
00000030: 7345 67c0 b0da 18c1 cb2b 2241 7aaa 3640
00000040: d26a 1541 2392 1041 9aef 3f41 af62 fe40
00000050: 602f 6b41 8a59 62bd 8a41 9540 244a 5d41
00000060: 9dcd 94c0 9a8e 37c2 568c ba40 dbcf a5be
00000070: 254f 3441 10f7 9740 8dfe f740 113e 3840
00000080: c264 1741 7152 1a41 bd99 10c2 6a0c 1c41
00000090: 574d fa41 5511 3e41 3643 fe40 7883 9541
000000a0: 59c6 2c41 798e bdc1 8f08 3bc1 218f a1c1
000000b0: d81e 10c1 ee1d 4941 ee5f 36c1 21a8 80c0
000000c0: 0a20 82c1 c99f 5041 0bd7 aec1 5891 9341
000000d0: 5aa7 5041 b33e ffc0 fbdc 0241 b8aa 1541
000000e0: 8e7c 84c1 670a 1dc1 03ba 9641 3cb1 d240
000000f0: b52e 5741 2d4c 413e 367c 8441 7139 cac1
00000100: d16d a33e 5b40 8b41 8fb1 a5c1 74a1 26c0
00000110: 580a 23c0 2d67 fbc0 07eb 823f e765 0fc1
00000120: 143e 3441 8afe 8240 813c 89bf 4173 a0c1
00000130: 79d1 9041 4f1b 0cc1 5446 a9c0 8cd2 ed41
00000140: 5715 0ac0 7101 26c2 860e 0ac1 441d 0941
00000150: f3a1 5041 bff6 1040 7efd fc3e 03dd 81c0
00000160: 0344 6941 3bda 4a41 6e3c cbbf 212b 933f
00000170: 0d36 9b41 bc4b bac0 7aae b43f 352c 25c1
00000180: 5128 37c2 dbd6 0dc2 6380 ad40 e0f6 4ac1
00000190: 3ca4 a640 02cb 3f41 7d4b 6740 ac5f 71bf
000001a0: 90a5 2a41 287a a83f fa7d f6bf 5567 eec0
000001b0: 4f61 b0c1 6ca6 b041 b325 b9c0 7018 5ac0
000001c0: 3cc7 9f41 2e19 1b41 8ec6 89c0 a3d2 e740
000001d0: f78b a540 fffa 3dbf 0da1 9c3f c40a 6040
000001e0: a36a 8041 5b38 9bc1 3a50 abc1 e790 4d40
000001f0: 2705 123e 35a8 a13e b331 2dc0 b636 acc0
00000200: 5cdc 15c2 1f7c a0c0 3864 c441 7dce 30c1
00000210: 3f8a ad41 0838 3841 6426 89c0 647a 2fbf
00000220: 425d c2c1 4d30 21c1 7964 f2c0 9c79 3bc1
00000230: 9a35 07c2 be5a 8ac0 a90b 8541 d4b5 88c1
00000240: a466 05c0 52c6 0a41 18ea 5941 4e3c 023f
00000250: e4ee 3440 ba41 dec1 a83b 91c1 cea4 3441
00000260: 3834 0142 e351 84c1 d044 44c1 ae7c 3541
00000270: 21cc 92c1 831a 093f c294 4bc2 5270 3541
00000280: aa05 bd3e a4a1 a2be 0bdd 74c0 342c 0c41
00000290: c7c5 f940 a8a7 13c2 83b4 7b41 8194 3ac1
000002a0: dc3e c1c0 2575 3ac2 24dd 75c1 dccf 10c1
000002b0: 50f3 5040 b629 3841 de9f 9741 6afe 52c1
000002c0: 8fa2 2f40 dacb b3bf 5cf9 2dc1 202f 9e40
000002d0: d74d 8d40 1782 eebf 8f7f cf40 9545 aec0
000002e0: fac6 e03f 0d4e c540 a89f b7c1 29ff 6c41
000002f0: 848c 833f 6174 0c40 660c 88bf b7ae b740
00000300: c04a 9940 b99b b5c0 3edb 56c1 df2b 5341
00000310: 0d5c 8d41 c260 4ac1 0f48 1741 0942 1141
00000320: 68b1 58c1 0955 4e40 c069 09c1 9334 9d3f
00000330: bc22 4a40 cbc6 22c1 2edc 8dc0 8727 c9c1
00000340: a2f3 4a40 b139 fdbe 48bc 37c2 487c 3abf
00000350: 004d cdc0 68d5 6541 d63d 30c1 8570 1340
00000360: a67a 1440 b69c f9c1 3a9c 12c1 66b3 60c1
00000370: ca07 c3c1 6a1f 9241 6c88 6840 7164 6ac2
00000380: 83d8 9241 5966 ca40 fbe7 833e bdf1 52be
00000390: a5bc 42c0 ccb3 b341 3dab 5641 0f04 0cc1
000003a0: dbd9 f040 0b4e dbc0 759e 8441 3a74 50c1
000003b0: ef86 04c0 c721 51bf 8118 2bc2 55dd d640
000003c0: 382b ec3f fec7 c2c1 5d64 a2c1 b846 ddc0
000003d0: aca6 4bc2 041a 79c2 2a1b a3c0 df4a cec1
000003e0: 3e11 f940 2fed 1441 9e58 06c1 e7f3 7dc0
000003f0: 35dc b9c1 e700 5241 5915 84c0 a318 c9c1
-21.95164 2.3016076 8.969543 4.234497 0.0279209 8.8348 -7.636796 6.1689625
-0.31759894 4.3944755 -39.70661 15.119293 -3.6136138 -9.5533905 10.135692 2.854155
9.338579 9.035678 11.995996 7.9495463 14.699066 -0.055261172 4.6642504 13.830601
-4.6500993 -45.88926 5.829631 -0.32385144 11.269322 4.748909 7.749823 2.8787882
9.462099 9.645127 -36.150135 9.753031 31.287764 11.879231 7.9457045 18.689194
10.798425 -23.694567 -11.6895895 -20.194887 -9.00753 12.569807 -11.39842 -4.0205235
-16.265644 13.03901 -21.855001 18.445969 13.040857 -7.9764037 8.17895 9.354179
-16.560818 -9.81504 18.840826 6.584135 13.448903 0.18876715 16.56065 -25.278048
0.3191972 17.406424 -20.711699 -2.6036043 -2.5475063 -7.8563447 1.0227975 -8.9623785
11.265156 4.0935717 -1.0721589 -20.056276 18.102282 -8.756667 -5.289835 29.727806
-2.1575525 -41.501408 -8.628546 8.569645 13.039538 2.2650602 0.4941215 -4.058229
14.579104 12.678279 -1.5877817 1.1497537 19.401392 -5.821745 1.4115746 -10.323293
-45.78937 -35.45982 5.421922 -12.685272 5.207548 11.987062 3.6139824 -0.9428661
10.665421 1.3162279 -1.9257195 -7.450114 -22.047514 22.08126 -5.785852 -3.4077415
19.972282 9.693647 -4.3054876 7.2444625 5.1733356 -0.74211115 1.2236649 3.500657
16.052069 -19.402517 -21.414173 3.2119691 0.14259778 0.31573644 -2.7061584 -5.3816786
-37.465195 -5.0151515 24.548935 -11.050412 21.692503 11.5136795 -4.2859364 -0.6854613
-24.295536 -10.074292 -7.5747647 -11.71719 -33.802345 -4.323577 16.630693 -17.088783
-2.0843897 8.673418 13.619652 0.5087327 2.8270807 -27.782093 -18.154129 11.2902355
32.300995 -16.539984 -12.2668 11.342939 -18.349672 0.5355608 -50.89527 11.339922
0.36918384 -0.31763947 -3.8259914 8.760792 7.8053927 -36.913727 15.73157 -11.661256
-6.0389233 -46.6144 -15.366489 -9.050747 3.2648506 11.510183 18.95306 -13.187113
2.7442968 -1.4046586 -10.873379 4.9432526 4.415752 -1.863345 6.484321 -5.445994
1.7560723 6.1657777 -22.952957 14.812295 1.0277257 2.1946032 -1.0628784 5.7400775
4.7903748 -5.675259 -13.428526 13.198211 17.669947 -12.6486225 9.455092 9.078622
-13.543312 3.2239401 -8.588318 1.2281669 3.15837 -10.173533 -4.4331274 -25.1443
3.1711202 -0.49458078 -45.93387 -0.7284589 -6.4156494 14.364601 -11.015097 2.3037426
2.3199859 -31.201519 -9.163141 -14.043798 -24.378803 18.265339 3.6333265 -58.598087
18.355719 6.3249936 0.25762925 -0.20600028 -3.042764 22.462791 13.416806 -8.750991
7.5265937 -6.8532767 16.577372 -13.028376 -2.0707357 -0.81692165 -42.77393 6.714518
1.8450689 -24.347652 -20.299006 -6.9148827 -50.912766 -62.275406 -5.097066 -25.786558
7.7833548 9.307906 -8.396635 -3.9680116 -23.232523 13.12522 -4.127606 -25.13703

l4/W f4 [64, 256]
00000000: b71b 5d42 0180 5442 e481 4442 58c3 b742
00000010: da81 1742 33fd 5d42 b1ac 7a42 fa59 5142
00000020: 0a12 4842 9129 6e42 ce14 6442 6318 6342
00000030: 2f8c 6942 3d94 7542 20af 5f42 a2d5 4642
00000040: cda8 6a42 6aa0 4d42 528b 5a42 e146 6c42
00000050: ac50 5642 d629 3942 5e36 5a42 130e 1942
00000060: 576e 5c42 c4f5 4142 893f 7142 1e79 8242
00000070: a627 7c42 7855 5142 5d4a ac42 c6d0 6b42
00000080: 3816 6642 a618 5342 45fa 7042 1082 3840
00000090: e5e5 6542 d154 2e42 c2a8 7942 ed6a 4742
000000a0: 5568 2242 ef73 4742 d34f 8442 b9e8 6342
000000b0: f1ab 7e42 2762 3442 e062 1742 fe7e 4442
000000c0: 0304 6742 8cfe ba42 5f04 3342 5a26 8942
000000d0: c93a 3f42 a689 5542 71bf 8042 2736 be42
000000e0: 5cc2 4b42 1c5e ad42 48a2 7642 27cc 7d42
000000f0: 4ae8 2642 2171 a542 1e6f 6f42 3049 4842
00000100: beec 5042 3de3 b042 19cb 9d42 8043 3a42
00000110: 6396 2142 c196 3d42 552c 6f42 b51a 4a42
00000120: 680a 5342 4495 5142 2acf 3c42 0014 4342
00000130: 384f 6042 82ea 3042 ba8c 5742 4d44 6842
00000140: d02f 4042 3906 6642 1866 7942 c238 7542
00000150: 8757 4d42 8e79 2942 4fba 7742 a967 6142
00000160: aa69 ab42 db80 b842 2ce6 6a42 5e6c 2942
00000170: 5e50 7142 7dae 5d42 322e 6c42 c777 2842
00000180: c316 5d42 dec1 6a42 a119 4242 d136 0a42
00000190: d83d 6442 a702 4c42 76f3 6142 d0a5 7e42
000001a0: d656 5842 f80f 2b42 1cfa 6142 875e 3a42
000001b0: 6fc5 8c42 e797 6442 2b12 6742 9507 5f42
000001c0: 3643 3042 62d2 0c42 a3e1 0a42 0c0b 2242
000001d0: 6756 5642 f860 4342 16c5 7342 a1fd 6142
000001e0: 5648 4542 b67d 4042 3d17 5f42 9452 3a42
000001f0: ad44 6342 7706 6a42 1b09 6342 0a66 5942
00000200: 421b 5c42 54ec 2f42 e774 5242 f70b 8e42
00000210: 13bb 4142 03c8 df41 3658 c641 e215 ef41
00000220: 4eee 5f41 d4a8 7342 c5bf 4c42 67e0 5142
00000230: 00cb 4f42 79a7 6742 b483 5d42 85b0 4942
00000240: 0215 2c42 cc3c 2a42 fb14 4e42 dfd3 4642
00000250: 4e4b 4842 f90b 6642 3592 1e42 915b 7242
00000260: fa57 7542 b54a 7342 139f 9b41 94f8 5842
00000270: 1cc0 4e42 c72b 6e42 eaea 3d42 c68a 5142
00000280: 3804 1042 85a6 2d42 9193 3e42 8b9f 8542
00000290: 983c 2642 6dc8 5742 45da 6142 619c 2f42
000002a0: 5a89 8142 593b 9b42 ca6f 5e42 1adc 4f42
000002b0: f4ba 9242 6cad 7342 3e2c 3e42 7b9b 8a42
000002c0: e6cf 5242 1ae4 4c42 ed00 3d42 b877 2342
000002d0: f6b2 8942 980b 7942 06c0 f341 78be 6842
000002e0: 6e20 6942 a347 3d42 cff8 5d42 a675 4542
000002f0: 1705 6342 86a5 7442 9aac 5b42 03be 5342
00000300: 52ac 1a42 9b1b 5942 aa69 2942 e99f 7a42
00000310: 0d45 5342 cbe6 5242 e237 5e42 5330 5842
00000320: c7cc 2942 710a 5842 b745 6442 55e4 2342
00000330: f5b7 7942 a44a 9942 572a 6942 f219 3842
00000340: c775 7142 3a25 6942 9dea be41 5acd 1942
00000350: d871 5a42 fc99 4442 0518 5042 b4e1 4742
00000360: 450c 6542 216d 6242 6a47 5242 4b3f 5b42
00000370: 4e8f dd41 ec8b 6042 4943 6542 690c 6942
00000380: 6f4a 5742 2497 3742 3ad4 5a42 ace8 5842
00000390: 4024 6942 d2d0 2842 1929 4a42 cac8 3142
000003a0: 35e6 6842 1ec0 4b42 9ec2 6342 05cd 2142
000003b0: 7871 2f42 ebf5 5142 34f7 5e42 ef3a c142
000003c0: 8e84 8442 7a02 4a42 b5d2 7042 f6a8 6242
000003d0: 4741 7242 4f1c 2d42 a7c3 6642 c98d 3b42
000003e0: 9997 1442 f5c3 7342 953e 3842 6491 a842
000003f0: 7bd5 2942 8ae0 4642 1298 7c42 e5cb 7842
55.277065 53.125004 49.126846 91.88153 37.87681 55.497265 62.668644 52.337868
50.017616 59.540592 57.020317 56.773815 58.386898 61.394764 55.92102 49.708626
58.664845 51.406654 54.636055 59.069218 53.57878 46.290855 54.553093 38.263744
55.107754 48.490005 60.312046 65.23656 63.03872 52.333466 86.14524 58.95388
57.521698 52.77407 60.244404 2.8829384 57.474506 43.58283 62.414803 49.85442
40.601887 49.863216 66.15591 56.97727 63.66791 45.09585 37.846558 49.124016
57.753918 93.49716 44.75427 68.574905 47.807407 53.384422 64.37391 95.10577
50.939804 86.68381 61.658478 63.449368 41.726845 82.720955 59.858513 50.071472
52.231194 88.443825 78.896675 46.565918 40.396862 47.39722 59.793293 50.52608
52.760162 52.395767 47.20231 48.76953 56.077362 44.22901 53.88743 58.0667
48.04669 57.506077 62.3497 61.305428 51.335476 42.368706 61.931942 56.35123
85.706375 92.25167 58.724777 42.355827 60.328484 55.4204 59.045113 42.11697
55.27223 58.689323 48.52503 34.55353 57.060394 51.00259 56.487755 63.661926
54.0848 42.765594 56.494247 46.59231 70.38561 57.148342 57.767742 55.757404
44.065636 35.205452 34.72035 40.510788 53.584377 48.844696 60.942467 56.497684
49.32064 48.122765 55.772694 46.580643 56.817066 58.506313 56.758892 54.349648
55.02662 43.98079 52.614162 71.02337 48.43269 27.972662 24.793072 29.885685
13.99568 60.91487 51.187275 52.469143 51.948242 57.913548 55.378616 50.422382
43.020515 42.559372 51.52049 49.706905 50.07354 57.511692 39.64278 60.58942
61.335915 60.822956 19.452673 54.242752 51.687607 59.54275 47.47941 52.38552
36.00412 43.412617 47.644108 66.81161 41.559174 53.94573 56.463154 43.902714
64.768265 77.61591 55.60917 51.964943 73.36514 60.919357 47.543205 69.30367
52.703026 51.222755 47.250904 40.866913 68.84953 62.261322 30.468761 58.186005
58.28167 47.319958 55.492977 49.36489 56.75497 61.161644 54.918556 52.93556
38.66828 54.27696 42.353188 62.656162 52.817432 52.725384 55.554573 54.04719
42.449978 54.010197 57.06808 40.97298 62.429646 76.64578 58.291348 46.025337
60.365017 58.286354 23.864557 38.45054 54.611176 49.150375 52.023457 49.970413
57.261982 56.60657 52.56974 54.81181 27.694973 56.136642 57.31571 58.26212
53.82269 45.8976 54.707253 54.22722 58.2854 42.203926 50.540134 44.446083
58.22481 50.937614 56.940056 40.450214 43.86081 52.490154 55.74141 96.615105
66.258896 50.50242 60.20577 56.665 60.563747 43.277645 57.691067 46.888462
37.148045 60.941364 46.061115 84.283966 42.458477 49.719276 63.148506 62.199116

l4/b f4 [64]
00000000: 130c c2c2 620c c2c2 ed14 c2c2 4519 c2c2
00000010: 690e c2c2 1d13 c2c2 770a c2c2 4a06 c2c2
00000020: 7510 c2c2 3816 c2c2 1a14 c2c2 8112 c2c2
00000030: e80d c2c2 b219 c2c2 2113 c2c2 320e c2c2
00000040: f80b c2c2 fd10 c2c2 1018 c2c2 0a0c c2c2
00000050: 460e c2c2 ba14 c2c2 d615 c2c2 041d c2c2
00000060: 130d c2c2 d111 c2c2 c805 c2c2 140f c2c2
00000070: 2e0f c2c2 430d c2c2 f714 c2c2 8610 c2c2
00000080: 9713 c2c2 ca15 c2c2 e30e c2c2 8e0f c2c2
00000090: dd10 c2c2 5712 c2c2 0f14 c2c2 c509 c2c2
000000a0: 1c0b c2c2 4c14 c2c2 2720 c2c2 bf0a c2c2
000000b0: f30d c2c2 1610 c2c2 1218 c2c2 fc06 c2c2
000000c0: fd03 c2c2 5c0a c2c2 c40b c2c2 400d c2c2
000000d0: ed15 c2c2 2017 c2c2 be0f c2c2 b40d c2c2
000000e0: 1610 c2c2 d504 c2c2 2d17 c2c2 f60e c2c2
000000f0: 1e0e c2c2 8400 c2c2 de0e c2c2 7807 c2c2
-97.02358 -97.024185 -97.04087 -97.049355 -97.028145 -97.03733 -97.02044 -97.01228
-97.03214 -97.043396 -97.03926 -97.03614 -97.02716 -97.050186 -97.03736 -97.027725
-97.02338 -97.03318 -97.047 -97.02351 -97.02788 -97.04048 -97.04265 -97.05667
-97.025536 -97.0348 -97.01129 -97.02945 -97.02965 -97.0259 -97.04095 -97.03227
-97.03826 -97.04256 -97.029076 -97.03038 -97.032936 -97.03582 -97.03918 -97.01908
-97.0217 -97.03964 -97.0628 -97.02099 -97.027245 -97.03142 -97.04701 -97.01364
-97.00779 -97.02023 -97.02298 -97.02588 -97.04282 -97.045166 -97.03075 -97.026764
-97.03142 -97.00944 -97.045265 -97.02922 -97.02757 -97.00101 -97.02904 -97.01459

l3/W f4 [256, 256]
00000000: b6e8 e440 b85f c4c1 fa27 30c2 405c 7640
00000010: 6595 c241 ea6a ff41 7f68 8440 423a 18c1
00000020: 93f3 f5bf a4c7 82c0 a238 e541 d99b 7a41
00000030: 326e 09bf 8b33 d340 0d0c db3f d83e 44c0
00000040: 7e8a 5a41 8c78 95c1 81cc 3dc1 7897 38c1
00000050: d031 18c2 d500 c6c1 9eee b441 9bdb 2ec1
00000060: faec 2540 fc05 6b41 ec67 d840 0c53 f1c1
00000070: 812e fec0 b0ed 5740 1083 6dc1 79a0 9740
00000080: b13a 9f41 cd21 53bf 3079 e9c0 6ba2 f540
00000090: 4074 d7c1 d21f 94c0 4749 c8c1 14f8 15c1
000000a0: d580 5b41 ce8c 81c0 c58b ecc1 0b79 b341
000000b0: 482c 9341 9e03 8441 32bf bb40 dde4 9b41
000000c0: 60b2 3bc0 8ecd b740 7fd7 833f 7858 25c2
000000d0: 9d92 59c0 b49f 8c41 c902 acc1 1961 86c2
000000e0: 0ba2 c541 acd7 49c0 e0b8 06c2 054e be41
000000f0: 1e72 6a41 85f0 c0c1 46b9 10c2 f7a5 60c1
00000100: 652f b2c0 57d5 da40 d28b e6c1 284e 7e41
00000110: e54b 3140 a3da 21c1 3289 39c1 60c6 0942
00000120: 8907 0841 1518 6ec0 5248 11c2 e554 5ec1
00000130: 076f dbc0 fc52 24c0 815c a0c1 3193 bd40
00000140: 7b57 3e41 08e2 fec1 c9d5 c7c1 6b48 cdc1
00000150: 537d 11c2 16e4 96c0 87fb bac1 2715 8341
00000160: dc26 9ac1 cbd9 1bc1 c48b 2641 d98f 0a42
00000170: 6174 3641 f4ee a2c0 077d 1a41 a022 8bc1
00000180: 37bc 9341 4029 c2c0 a5d1 06c2 b9cc 2141
00000190: 11e6 71c0 8543 24c2 1d21 f141 de89 6e41
000001a0: 7dcb 04c1 a6d8 b4c1 1946 0c42 e661 c540
000001b0: 0d97 31c1 64d4 71c1 4dd9 3b40 fa74 25c0
000001c0: 4220 b7c1 9912 18c2 dac5 8c41 2dc5 03c2
000001d0: 9470 4b42 9d49 4bc0 d101 1440 423c 51c1
000001e0: 7185 67c1 318a 843f 82e0 48c1 3c66 95c1
000001f0: c323 8241 da4e 49c2 aa87 973d 8ff5 ae41
00000200: 3254 ad41 fd1b 35c2 bc91 0c41 7d5a c3c1
00000210: 8c91 a3c1 1d3a 2142 ed31 04c2 3eac 0241
00000220: 97e4 bf41 7128 4141 96d6 c7c1 a2e2 94c1
00000230: 2dc8 db40 f6e0 81c1 beeb 97c0 d27a 6ec1
00000240: de5e 35c2 a96f 90c1 cbc3 3e40 2c66 1ec2
00000250: c68f ff40 8590 fe40 e251 cebf 7836 9cc1
00000260: c545 95c1 89c7 fc3f 027d e8c1 2822 aac1
00000270: f697 06c2 d0b4 c93e 8fea 803d a76c 95c0
00000280: aa45 32c2 30ac c4c1 a21d 53c2 8b64 6641
00000290: 7da0 79c2 05e1 93c1 fa03 ddc1 d4ca 19c1
000002a0: bc49 7cc2 725d df3e fd9a f0c1 ed21 9b40
000002b0: b157 a841 f24c 8bc1 a098 bcc1 e70b 68c0
000002c0: 6890 63c0 8c61 af41 5fc7 5341 6317 15c2
000002d0: c745 87c2 15d5 a9c1 1ecc 4041 a392 29c2
000002e0: a7bd 2542 739f ccc1 a400 e540 7931 4940
000002f0: 669b 40c0 2d7d ccc1 a973 19bf ab81 0541
00000300: 1544 0140 2adb ce41 810b 7341 bd2c f5bf
00000310: 382a 35c1 f9ce 6e41 c1bc 39c2 577a d941
00000320: 6ff0 ba40 fe7b 94c0 666b 8341 25be ea41
00000330: a696 9dc1 986e a341 ad4d a641 7f5f edc0
00000340: bc22 76c1 4026 02c2 abb5 39c2 eb21 af40
00000350: 61c1 cf41 09c2 5e41 fcd4 6241 9b6a 83c1
00000360: 0396 e640 332a adc1 a72b 2ec0 fa6e 1cc1
00000370: 3312 00c2 cae8 50c2 51c1 79c1 6daa 2bc2
00000380: e264 fcc1 c575 e4c1 5a67 84c1 5b36 7341
00000390: eb4c 0241 395a bd41 3b90 4741 c260 b4bf
000003a0: 3f36 6141 e042 0141 d104 b5c1 d242 1641
000003b0: 4772 1cc0 2f9e f0c0 5979 1cc2 0d58 9ac1
000003c0: a38a 6fc1 c220 25c1 76f1 2ac2 3574 2e42
000003d0: 6e32 4341 c758 153e d937 2f40 dba3 9cbf
000003e0: f3d9 78c2 660c 0d41 6495 62c1 ac0b dcc1
000003f0: daaa 4841 2866 3cc1 9c5a cd41 a768 0641
7.153407 -24.546738 -44.03904 3.8493805 24.322947 31.927204 4.137756 -9.514223
-1.9214958 -4.08687 28.652653 15.663049 -0.5368377 6.600042 1.7113053 -3.0663357
13.658812 -18.68386 -11.862428 -11.53698 -38.048645 -24.750406 22.616512 -10.928615
2.592589 14.688961 6.762686 -30.16555 -7.9431767 3.3738823 -14.844498 4.738339
19.903658 -0.8247345 -7.2960434 7.6760764 -26.931763 -4.6288843 -25.03578 -9.373066
13.718953 -4.048438 -29.568247 22.434103 18.396622 16.501766 5.8670893 19.48675
-2.9327621 5.743842 1.0300139 -41.336395 -3.3995736 17.57798 -21.50136 -67.189644
24.704123 -3.1537886 -33.680542 23.788095 14.652861 -24.117441 -36.18093 -14.040519
-5.5682855 6.8385425 -28.818272 15.894081 2.7702572 -10.115878 -11.595995 34.443726
8.50184 -3.7202199 -36.320625 -13.895726 -6.857303 -2.567565 -20.045168 5.9242177
11.896358 -31.860367 -24.979387 -25.66036 -36.372387 -4.7153425 -23.372816 16.385328
-19.268974 -9.740672 10.409122 34.640476 11.403413 -5.091669 9.655524 -17.391907
18.466902 -6.0675354 -33.70473 10.112481 -3.7796671 -41.065937 30.141169 14.908659
-8.29968 -22.605785 35.068455 6.1682005 -11.099378 -15.114353 2.935138 -2.5852647
-22.89075 -38.01816 17.596607 -32.942554 50.85994 -3.176368 2.3126109 -13.077211
-14.470078 1.0354673 -12.5548115 -18.67492 16.267462 -50.327003 0.07398923 21.869902
21.666111 -45.277332 8.78558 -24.419184 -20.446068 40.30675 -33.048756 8.167051
23.986616 12.072373 -24.979778 -18.61066 6.8681855 -16.234844 -4.747527 -14.904985
-45.342644 -18.054522 2.9807003 -39.599777 7.9863005 7.9551415 -1.6118739 -19.526596
-18.659067 1.9748393 -29.061039 -21.266678 -33.6484 0.3939576 0.062947385 -4.669513
-44.56803 -24.584076 -52.77894 14.399547 -62.406727 -18.484873 -27.626942 -9.612019
-63.072006 0.4362598 -30.075678 4.8478913 21.042818 -17.41257 -23.574524 -3.6257265
-3.5556889 21.92263 13.236175 -37.27284 -67.636284 -21.229044 12.049833 -42.3932
41.435207 -25.577856 7.156328 3.1436446 -3.0094848 -25.561121 -0.5994211 8.344157
2.0197804 25.857014 15.190309 -1.9154278 -11.322807 14.92553 -46.43433 27.184736
5.84185 -4.640136 16.42744 29.342844 -19.698559 20.429 20.787928 -7.417907
-15.38348 -32.537354 -46.42741 5.4728904 25.969423 13.922372 14.176998 -16.427053
7.205812 -21.645605 -2.7214143 -9.777094 -32.017773 -52.227333 -15.609696 -42.91643
-31.54926 -28.557505 -16.550465 15.20077 8.143779 23.669054 12.4727125 -1.4092028
14.075744 8.078827 -22.627352 9.391314 -2.444475 -7.5193095 -39.118504 -19.292994
-14.971347 -10.3204975 -42.7358 43.613483 12.199812 0.14584647 2.7377837 -1.2237505
-62.21284 8.815527 -14.161472 -27.5057 12.541712 -11.7749405 25.669243 8.40055

l3/b f4 [256]
00000000: 1e5a 0041 5d25 303f 8f8c c83f 1d8a 85c0
00000010: b110 a041 3dc1 c241 12a2 8341 e053 4d41
00000020: dbed 2741 28f6 8840 b59d b4be 2729 1c41
00000030: 58c4 a83f c25a 13c0 7aee 8740 bd04 3c41
00000040: bb9a 9e3f 7585 f240 f415 5641 6b79 e840
00000050: 53ee 5840 9e04 3fc0 4445 ed41 7041 9a40
00000060: aefc 0541 11c6 1140 c142 0940 55bd 2c41
00000070: 5f8d 94bc 531c ca40 0071 b4c0 1629 2d41
00000080: 29ce 46bf 135d 1641 4a4f 033f 6606 7642
00000090: 97ad 7340 f639 45c0 1bb0 0840 9120 36c0
000000a0: 2e71 a940 2972 3e41 9e50 2141 9589 0441
000000b0: 5453 fdc0 c95c f740 25ea 0242 8a8e 0a41
000000c0: 5a8b 2d3f 09fd c8c0 1682 6b41 b00c 91c0
000000d0: 441c 443e 7134 35c0 59dc 46c0 38dd a73e
000000e0: 693e 7240 90d5 fec0 5374 3d41 26b4 b040
000000f0: f0cf b541 e3f3 a7bf b2fc 24c0 b679 0341
00000100: fb40 9640 fb65 8abf 0e7e 7bc0 fd2f 1341
00000110: 1467 1a41 e13e 4941 c00a 5041 55cf 2341
00000120: aaa6 95bf 9040 6641 26ba 6340 b908 5940
00000130: c50e bd3f e7f0 7340 a8b5 9441 4293 4940
00000140: 7138 aa3f 6111 7440 3f5b 5a3f 0d39 2940
00000150: 2dcd f140 f862 ce41 5f53 1c41 a869 de3f
00000160: a4de c0c0 bcd1 2dc1 31b5 1c41 c83a 1341
00000170: 83df 5140 de1d 3341 a977 ef40 2fa7 1341
00000180: 3208 bb41 71b1 dcbf a407 8941 8480 1741
00000190: 7928 0141 4a56 4841 14c6 c940 f987 2e41
000001a0: e44d d3be f7b3 cc40 a3b0 e53f 55b7 cd41
000001b0: 4598 8b40 2430 06bf 6b72 c1c0 0908 e840
000001c0: b6dd 8740 7e70 e840 7bb0 1442 32c2 ca40
000001d0: e13a b541 26d0 6041 05f9 61c0 6e60 c1bf
000001e0: b87a 6d41 737c 0d41 9af8 63c0 89df d340
000001f0: 8fdd 32c0 2984 2cbf a00b 81be 6bf0 bf3f
00000200: 52a3 2041 55ed 5441 fd07 643f 9518 e440
00000210: a056 bd40 41f7 4541 972b 1442 aaa4 d241
00000220: 5cf4 a240 1b22 323f bd2e 0c41 2bc5 dd3e
00000230: ab5a 0941 ae2d 7abf 20db 8440 ce4f 1c41
00000240: 6e05 9a41 a59e 3b40 7a52 a1c0 12e9 99bf
00000250: 43d4 3341 0d0c a2bf 08fe 4841 718e 0841
00000260: 6649 2a41 f046 fa3e 9f31 c841 faf9 41c0
00000270: d8bd c740 4af7 3741 8c42 08c0 7dcd e33f
00000280: b4f1 5041 523f de41 e93f c240 302c 1341
00000290: 4924 8b41 9848 0b41 3abc a840 dc45 2941
000002a0: eb37 e3c0 b939 8c41 22be bc3f c465 0e41
000002b0: 08f5 ef40 5d30 a9c0 8337 d440 a532 8341
000002c0: aa23 6340 d6ee d640 1966 2841 bf69 0541
000002d0: e274 1c41 7861 9541 3b3c f841 f16f c83f
000002e0: 115d 0b41 b8d0 c240 8c30 b040 5572 9340
000002f0: 7d00 1941 5a4e 88c0 e41d 1e40 362b 7840
00000300: e117 f240 cf70 12c0 d877 d141 475c 8d3d
00000310: bfa1 b93f 9ecf 8441 99c0 2fc0 a558 c840
00000320: 7b2b 943f da83 dcbf 4f29 5440 ab6e 1b41
00000330: 9a18 a140 e63a 4540 e0a1 7741 8254 c741
00000340: a960 1a40 7d5a 1941 4165 ea41 13e4 2e41
00000350: 7f7e 1041 2eb2 fa40 7cab bd40 d430 0a42
00000360: 59af 0341 8426 4740 23d4 6740 fb5d 8241
00000370: 6f8c 6f42 f7b4 aa41 0446 8bbc af08 783f
00000380: 1042 6141 c0d3 be3f f665 1141 5d66 4041
00000390: 8a5b 98bf 6951 4f40 b871 e43f 84b4 983e
000003a0: e61f 793e 7ec8 4141 218f c640 1770 543f
000003b0: 7adc 9c3f 6fae d140 fca0 dc40 94f3 0ac0
000003c0: dca2 7e3f a42c 06c1 be6c ee40 98e5 bf40
000003d0: 0fd9 7941 dae2 1541 50bb c7c0 59f8 6f41
000003e0: 6044 e741 b4b8 c140 6a57 3041 cee0 0042
000003f0: 2623 2741 81b2 0ec0 3e99 9240 e393 09c0
8.022001 0.6880701 1.5667895 -4.1731095 20.00815 24.344355 16.454136 12.832977
10.49557 4.2800484 -0.3527657 9.760047 1.3184919 -2.3024144 4.247861 11.751157
1.239097 7.578791 13.38036 7.2648215 3.3895462 -2.9846568 29.658821 4.820488
8.374189 2.277714 2.1446993 10.796224 -0.018133817 6.3159575 -5.638794 10.822531
-0.77658325 9.397723 0.5129286 61.50625 3.80747 -3.0816627 2.1357486 -2.8457377
5.295066 11.902871 10.082182 8.283589 -7.916422 7.7300763 32.728657 8.6598
0.6779076 -6.280888 14.719259 -4.532799 0.19151407 -2.8313258 -3.107199 0.32785964
3.7850592 -7.9635696 11.840899 5.521991 22.726532 -1.3121303 -2.5779233 8.217215
4.695432 -1.0812372 -3.9295688 9.199216 9.650166 12.577851 13.0026245 10.238118
-1.1691487 14.390762 3.5582366 3.3911574 1.4770132 3.8115785 18.5887 3.149613
1.3298475 3.8135607 0.8529548 2.644107 7.556296 25.798325 9.770354 1.7375994
-6.027178 -10.863705 9.794236 9.201851 3.279267 11.194792 7.483357 9.228316
23.379002 -1.7241651 17.12873 9.468876 8.072381 12.521067 6.3054295 10.908196
-0.41270363 6.3969684 1.794453 25.714518 4.3623376 -0.52417207 -6.045217 7.250981
4.2458143 7.263732 37.172344 6.3362055 22.65375 14.0508175 -3.530824 -1.5107553
14.842461 8.842883 -3.5620484 6.621037 -2.7947729 -0.6738916 -0.25204182 1.4995245
10.039873 13.307942 0.8907469 7.1280007 5.9168243 12.372865 37.04257 26.330402
5.092329 0.6958329 8.761411 0.4331449 8.584636 -0.9772595 4.1517487 9.769484
19.252651 2.931558 -5.041318 -1.2024252 11.239322 -1.2659928 12.562019 8.534776
10.64292 0.48882246 25.02423 -3.0308824 6.2419243 11.497873 -2.1290617 1.7797085
13.05901 27.780918 6.0703015 9.198288 17.392717 8.705223 5.272977 10.5795555
-7.100576 17.528185 1.4745524 8.899845 7.498661 -5.2871537 6.6317763 16.399729
3.5490518 6.716655 10.524926 8.338317 9.778536 18.672592 31.02941 1.5659162
8.710221 6.0879784 5.505926 4.6077065 9.562619 -4.2595644 2.4705744 3.8776374
7.565415 -2.2881353 26.183517 0.06902366 1.4502486 16.601376 -2.7461302 6.260821
1.1575769 -1.7227738 3.3150213 9.714519 5.034253 3.0817199 15.47702 24.916264
2.4121497 9.584592 29.29944 10.930682 9.030883 7.8342505 5.927183 34.547684
8.2303095 3.1117258 3.6223228 16.295889 59.887142 21.338362 -0.01700116 0.9688825
14.078629 1.4908371 9.087393 12.024991 -1.1902936 3.239344 1.7847204 0.29825222
0.24328575 12.111448 6.204972 0.82983536 1.2254784 6.552543 6.8946514 -2.1711168
0.99467254 -8.385899 7.450774 5.9967766 15.615493 9.367884 -6.2416153 14.998132
28.908386 6.053797 11.021341 32.219536 10.446081 -2.229645 4.5812063 -2.1496513
