size8/agent_black_82000/model.npz (npz, 608765 bytes, 8 tensors)

l2/W f4 [256, 256]
000000 c0 25 43 41 08 ae 7b c1 72 f4 74 c1 fa bd dd c0
       12.196716 -15.729988 -15.309679 -6.9294405
000010 6f a4 14 c1 89 51 d4 40 af 3a 8f 41 83 7f 04 41
       -9.290145 6.634953 17.903654 8.281131
000020 8b 32 4d 40 7e 06 88 40 b8 df 4e 41 cc 28 88 41
       3.20621 4.2507925 12.929619 17.01992
000030 ac 7e ba 3f 40 0b 92 40 07 ab f6 c1 80 54 8e 40
       1.4569907 4.5638733 -30.83351 4.447815
000040 0d cc 2a 41 70 02 32 bf 12 9b 87 c1 a3 38 de c0
       10.674817 -0.6953497 -16.950718 -6.9444137
000050 f1 b5 8f c1 f1 e6 8f 3f 0a 1d b5 40 03 dd 30 c1
       -17.963839 1.1242353 5.659795 -11.053958
000060 e4 48 de c0 8c 87 61 40 32 a1 81 c1 d5 67 3d c1
       -6.946398 3.5238981 -16.203709 -11.83785
000070 c8 ea bd 41 0a 3f c0 41 be ac a0 3e c2 0d 98 bf
       23.73964 24.03078 0.31381792 -1.1879199
000080 4e 09 5e c1 d7 91 6a c1 68 78 de 3e e9 86 7b 40
       -13.877272 -14.660605 0.43451238 3.9301093
000090 6b 43 85 41 ab fd 6f 41 25 08 b3 c1 c3 dc a9 41
       16.657919 14.999431 -22.378977 21.232794
0000a0 3c 40 96 c1 2c c7 84 c0 3f 73 5f c0 d5 07 a3 c1
       -18.781364 -4.149313 -3.491409 -20.378824
0000b0 cb df 8f c0 e1 93 4e 41 e2 0f 8f 41 d3 b0 99 40
       -4.4960685 12.911103 17.882755 4.802835
0000c0 40 66 3d c0 c4 49 c4 c1 aa fa 45 40 3c eb c4 40
       -2.9593658 -24.536018 3.0934243 6.153715
0000d0 12 89 f0 40 63 a4 a1 c1 9c c4 9b c1 98 42 73 41
       7.516732 -20.205267 -19.471 15.203758
0000e0 ec 71 37 c1 59 88 09 40 e3 e9 66 41 02 1c df bf
       -11.465313 2.148947 14.432101 -1.7430422
0000f0 7e a5 c3 c1 d9 9d 49 40 36 3a 8e 40 9a c6 2e c1
       -24.455807 3.1502593 4.444606 -10.923487
000100 82 9c ca c0 cb 3f 78 c1 c2 51 2d c2 2c 5f 80 c1
       -6.331605 -15.515574 -43.32984 -16.04647
000110 31 60 42 c1 b5 ef 0d 41 6d e5 25 41 c1 01 b5 41
       -12.148484 8.871022 10.368512 22.625856
000120 2c 23 3e 41 ed 86 0b 41 53 26 ef c0 ec f0 1e 41
       11.883587 8.720441 -7.4734282 9.933819
000130 54 53 7d c0 9d e8 31 c1 06 b7 65 41 d1 44 fd 40
       -3.958211 -11.11929 14.357183 7.9146504
000140 54 b9 df 40 98 2f d7 c0 bf 20 3c 40 97 0e 50 c1
       6.991373 -6.72456 2.9394987 -13.003562
000150 d7 08 ef 40 7b 54 56 41 03 40 5d c1 4d da 08 41
       7.469829 13.395625 -13.828128 8.553296
000160 eb 42 6b 41 c1 32 92 c1 bd 86 c8 be 82 27 58 41
       14.703837 -18.274782 -0.39165297 13.509645
000170 f1 1b b5 c1 ee 78 5a 41 13 a8 6c 40 26 6a 77 40
       -22.638643 13.654524 3.6977584 3.8658538
000180 b5 df 84 c1 51 03 81 c0 79 c4 b1 40 ba 9d 25 40
       -16.609232 -4.031655 5.5552335 2.5877519
000190 d4 c6 03 c1 fe cc 10 c2 2f 07 8d c0 df 95 68 c1
       -8.236042 -36.200188 -4.407127 -14.53659
0001a0 40 5a e6 c0 5e 81 4c c1 94 13 4d c1 ea d6 15 c2
       -7.198517 -12.781584 -12.81728 -37.459877
0001b0 c6 ec 5a 41 a4 a3 32 c2 9f 32 86 be 23 c5 de 40
       13.682806 -44.659805 -0.26210496 6.9615645
0001c0 ba 75 12 c1 f2 97 41 c1 29 e5 4d 40 99 41 79 c1
       -9.153742 -12.099596 3.2171118 -15.578515
0001d0 ff e7 89 3f b7 bb 80 c1 54 cb 17 c1 c2 4d 9a c0
       1.0773925 -16.091658 -9.487141 -4.821992
0001e0 7c 2d da c0 10 2b d4 c1 2b 25 05 c0 8b fe 32 c2
       -6.8180523 -26.521027 -2.0803936 -44.748577
0001f0 9b ab 9c be 8f e1 cb bf 77 64 da 3e b7 87 04 c1
       -0.30599675 -1.592821 0.42654774 -8.2831335
000200 d4 b1 0d 41 8d 6d 1f c2 0c 55 da 40 bd 6c 76 c0
       8.855915 -39.856983 6.8228817 -3.8503869
000210 08 4d 81 41 d0 d8 25 41 8c 98 ee 40 ed e6 97 41
       16.162613 10.365433 7.4561214 18.987757
000220 b0 13 3c c2 94 22 2e c1 f8 4e 89 41 70 85 8c c1
       -47.019226 -10.883442 17.163559 -17.565155
000230 68 43 3d c1 b7 f9 5e 40 2d 38 05 c1 bb 50 6b 41
       -11.828957 3.4839914 -8.326215 14.70721
000240 07 eb 5d c1 34 8e a7 c1 ff 30 d9 41 40 b3 86 bf
       -13.86988 -20.944435 27.148924 -1.0523453
000250 73 ff 9a 41 22 85 22 c0 9f 1e 51 c0 bc c4 ad 40
       19.374731 -2.5393758 -3.267494 5.4302654
000260 26 27 40 c0 f7 68 64 c1 ab de 4d 41 e9 dc 7a 40
       -3.0023894 -14.275626 12.866862 3.9197333
000270 7e 9b 96 3f 77 eb 2c c1 de 25 6b 40 cf 3c c2 c0
       1.1766202 -10.807487 3.6741862 -6.069923
000280 d4 46 8a 3f 4c f2 11 c1 03 f5 6f 41 08 0c 7b 41
       1.0802865 -9.1216545 14.997317 15.690437
000290 17 96 d1 c0 93 d9 e2 c1 5a 8d 8d 41 12 75 99 40
       -6.5495715 -28.356237 17.69402 4.795541
0002a0 56 ae a0 c0 91 2c fa 40 91 4d 9f c1 87 ca a0 ba
       -5.0212812 7.81794 -19.912874 -0.0012267389
0002b0 eb 61 1d 40 f2 ec 6d 40 ca 55 18 c2 e2 9d c8 3e
       2.4591014 3.717587 -38.08378 0.39182955
0002c0 25 2d 3e c0 84 e2 1b 41 28 14 14 41 f5 97 06 3f
       -2.9715054 9.742802 9.254921 0.5257562
0002d0 3c 00 36 c1 9f ee 21 42 26 2f fa c1 f1 b8 cc 40
       -11.375057 40.48303 -31.273022 6.397576
0002e0 8b 5e 30 41 27 ac dc c1 1d 4b 07 41 43 59 54 40
       11.023082 -27.584059 8.455838 3.317948
0002f0 98 cb c6 c1 36 8d 49 41 a9 52 bc 41 5d 1f 3c 41
       -24.849411 12.596975 23.540361 11.757657
000300 a8 42 98 40 14 27 88 40 6c 98 b1 40 b3 33 54 c0
       4.7581367 4.2547703 5.549856 -3.3156555
000310 b9 a6 31 41 84 de 93 40 c7 3f 5e 41 81 c6 87 41
       11.103204 4.6209126 13.890571 16.971926
000320 a2 f1 06 c1 9c cb 9c c1 7a 77 33 c2 ec 32 57 c1
       -8.433992 -19.599419 -44.866676 -13.449932
000330 6b 4f 9c c0 c4 9b 6b c1 ad 36 45 c1 6c ad c3 c0
       -4.8846946 -14.725529 -12.325849 -6.1149197
000340 1b 63 03 c0 19 3f 73 c1 3d 21 04 c2 2e 12 a8 40
       -2.052924 -15.202905 -33.03246 5.252219
000350 98 92 dd c0 fc 67 0d c1 86 f2 1e c2 e2 98 18 c1
       -6.9241447 -8.837887 -39.73684 -9.537325
000360 86 99 5a 40 90 59 64 40 34 fb 4f c1 28 d2 fe c0
       3.4156203 3.5679665 -12.998829 -7.963154
000370 ac 90 dc bf 25 1c cf 3f c1 ba b4 bf 01 b4 17 c1
       -1.723165 1.6180464 -1.4119493 -9.481446
000380 57 1b 88 c1 2d dc ce c1 3c 7e 96 bf 5d 29 f1 c1
       -17.01335 -25.857508 -1.1757274 -30.145197
000390 8c 7a de bf e7 cc d4 c1 3f b5 41 41 dc 1e 32 41
       -1.7381148 -26.60005 12.10675 11.132534
0003a0 86 de 2e 41 9c 3b 56 c1 c3 2b 8a 41 0d 5a 27 c1
       10.929327 -13.389553 17.271368 -10.459485
0003b0 30 cb 49 c0 1f 88 03 41 ea 16 56 c1 9b 68 08 c1
       -3.1530266 8.220733 -13.380594 -8.525538
0003c0 de b7 14 c0 6e f6 f3 40 8c c2 14 c1 05 30 45 41
       -2.3237224 7.6238317 -9.297497 12.3242235
0003d0 75 b1 ab c1 cc 15 a3 c1 8c c4 9f 3f 8f 49 02 c2
       -21.461649 -20.385643 1.2481856 -32.571835
0003e0 f1 77 c6 41 8a a4 f4 41 51 b2 81 41 28 90 22 3f
       24.808565 30.580341 16.212069 0.63501215
0003f0 3c 5c 34 c1 46 91 12 c2 aa 84 6d 3f a9 cc bd 41
       -11.272518 -36.64187 0.92780554 23.724932

l2/b f4 [256]
000000 a2 89 65 41 aa be df 40 41 ff 65 40 e0 5c 83 41
       14.346102 6.9920244 3.5937045 16.42035
000010 12 4f d3 40 c0 19 6e 41 fe 14 86 3e e0 8a 06 bf
       6.603402 14.881287 0.2618789 -0.52555656
000020 66 c0 40 41 45 19 33 40 86 43 09 40 e4 10 15 41
       12.046972 2.7984173 2.1447463 9.316624
000030 49 f5 9d 3f ad f5 b9 be 65 8b 8f 40 2a e9 1d c0
       1.234048 -0.36320248 4.485766 -2.4673562
000040 87 ae 21 bd ed c4 c1 40 12 c6 c3 40 95 46 97 c0
       -0.039473083 6.055289 6.1179285 -4.727366
000050 8d 71 cc 40 90 8c 8f 41 5e 99 62 41 cc ad 6c 40
       6.388861 17.943634 14.162443 3.6981077
000060 ed 18 bf bc 6c e8 1b c0 aa 5e a6 40 36 54 b0 40
       -0.023327315 -2.436061 5.1990557 5.5102797
000070 a2 de bb 40 eb c2 9f bf e6 08 76 41 12 d6 ae 40
       5.870927 -1.2481359 15.377172 5.4636316
000080 4f 67 67 41 4a 53 a8 40 cb 9f 32 41 ba 08 2e 3f
       14.462722 5.260167 11.164012 0.67982066
000090 a8 00 69 c0 c4 a4 04 41 2a 4e 84 c0 cd 61 ee 40
       -3.640665 8.290226 -4.1345415 7.4494386
0000a0 a1 96 d2 40 67 e4 fc 40 24 63 39 41 6c 66 70 c0
       6.5808873 7.902881 11.586704 -3.7562513
0000b0 c1 77 35 41 da cf 73 41 e2 d9 fd c0 7a 39 50 41
       11.341737 15.238245 -7.932847 13.014032
0000c0 9e 44 99 c0 6c 49 88 3f 11 19 78 41 12 65 ac c0
       -4.789626 1.0647407 15.50612 -5.3873377
0000d0 10 48 33 41 f2 f1 28 41 49 09 f8 40 98 f1 83 c0
       11.205093 10.559069 7.7511334 -4.1232414
0000e0 dc c8 a6 bf ec 89 12 41 90 0a 5f 40 ef 59 27 40
       -1.3030047 9.158672 3.4850197 2.614864
0000f0 68 8b a9 40 de ea 01 c0 10 9a 4c be 44 d0 10 bf
       5.2982674 -2.0299602 -0.19980645 -0.5656779
000100 76 3f 86 40 dc 2d 22 c0 28 92 5b 40 cd 01 4e 41
       4.1952467 -2.534049 3.4307957 12.87544
000110 bf d4 99 c0 c2 33 e5 c0 48 f5 95 40 d2 aa 21 41
       -4.80722 -7.162568 4.6861916 10.104204
000120 78 ff ee 40 76 ec 9b bf 2f 2d 10 c1 53 1e 37 41
       7.468685 -1.2181537 -9.011031 11.444903
000130 32 43 9c 3f 1e 35 cb c0 81 03 19 41 83 52 e2 40
       1.2208006 -6.350234 9.563355 7.072572
000140 68 3c 44 41 6e bf 31 41 d1 42 37 41 39 3d 70 41
       12.264748 11.109236 11.453813 15.014947
000150 e2 2f 30 41 a6 97 3a c0 75 6b ef 3f 1c 05 a1 c0
       11.01169 -2.915506 1.8704668 -5.0318737
000160 a2 92 25 c1 1c a8 28 40 00 48 12 c0 10 68 04 41
       -10.348299 2.6352606 -2.2856445 8.275406
000170 48 3f 1e c1 c1 79 5d 41 b5 9a 6e bf 90 62 ea c0
       -9.89045 13.842225 -0.93204814 -7.3245316
000180 bb ae e9 bf 4e e2 72 40 bc d7 8c 40 da df 05 bf
       -1.8256449 3.7950625 4.401335 -0.52294695
000190 47 a8 4f 41 fb 67 c8 40 aa 91 cd 40 a6 64 ed 40
       12.978583 6.262693 6.4240313 7.418536
0001a0 59 b5 4c 40 d4 76 32 41 bb f2 20 c0 82 be a1 bf
       3.1985686 11.154011 -2.514815 -1.2636263
0001b0 85 02 83 41 d2 0f 6f 41 75 ef 48 40 9f 16 35 41
       16.37623 14.941362 3.1396153 11.318023
0001c0 8c 3e 2a 41 c1 dd 41 41 b7 b5 41 c0 d5 b4 66 41
       10.64027 12.116639 -3.026716 14.419148
0001d0 15 b3 17 41 8a 18 1d 41 85 f7 32 3f 75 08 42 41
       9.481221 9.818491 0.69908935 12.127065
0001e0 4e 6c 3e 41 0d 88 91 41 60 2d 4c 3f e9 1a 59 41
       11.901442 18.191431 0.79756737 13.56907
0001f0 6c c2 70 41 a3 9a d2 40 68 1b 40 41 ff c3 18 41
       15.047466 6.5813766 12.006691 9.547851
000200 5d 96 08 40 ca 91 3d 41 b8 20 a8 c0 8e 96 e9 40
       2.1341774 11.848093 -5.253994 7.2996283
000210 f6 a6 31 41 cf bb 7c 41 cb fd 77 40 d7 c3 2b bf
       11.103262 15.795852 3.8748653 -0.670957
000220 08 31 51 41 60 fc 39 41 bf 72 3f 3f 42 26 57 41
       13.0744705 11.624115 0.74784464 13.44684
000230 3c 82 c6 40 5f 8f dc c0 f1 a5 31 41 9c bb 4a 41
       6.2033978 -6.8925014 11.103013 12.670803
000240 2a 30 1b 41 55 bc f2 c0 78 a4 12 c1 29 47 01 41
       9.699259 -7.5854897 -9.1651535 8.079873
000250 c1 81 f0 40 5c 38 1a c0 a6 a2 67 41 15 61 0d c0
       7.515839 -2.40969 14.477209 -2.2090504
000260 f4 e2 4b 41 b3 7d 85 3f 94 e1 b0 40 eb 33 2d c0
       12.7429085 1.0428985 5.5275364 -2.7062938
000270 27 86 fd 40 3a bf 2b 41 96 a2 55 41 4b d3 03 c1
       7.922626 10.734186 13.352194 -8.239085
000280 ae cf 3f 41 a3 cf 18 41 11 b3 e8 c0 97 41 26 40
       11.988203 9.550693 -7.2718587 2.5977533
000290 05 b6 b7 40 62 4a de bf 45 c4 f3 c0 19 55 66 41
       5.740969 -1.736645 -7.6177087 14.395776
0002a0 82 26 57 41 40 b0 be 3f 55 68 75 41 a2 07 26 41
       13.446901 1.4897537 15.337972 10.3768635
0002b0 37 97 f5 40 6c 89 e8 3f 46 f4 e8 c0 af 55 af 40
       7.674709 1.8166938 -7.2798185 5.4792094
0002c0 67 08 95 bf 41 90 29 41 02 93 96 bf 78 b1 0c 41
       -1.1643189 10.597718 -1.1763613 8.793327
0002d0 c6 5f 84 40 5e f1 27 41 51 0c 82 c0 2d 38 c3 3f
       4.136691 10.496428 -4.0640035 1.5251518
0002e0 4f 41 31 41 87 a9 c9 40 72 a7 88 3f 9c ec 2b 41
       11.0784445 6.3019443 1.06761 10.745266
0002f0 1b 50 d0 40 09 a4 14 41 81 aa b5 40 37 e6 cf 3f
       6.5097785 9.290048 5.6770635 1.6242131
000300 6e 79 b7 40 8e 1a f0 40 17 f7 4b 41 76 ee 2a 41
       5.733573 7.5032415 12.747825 10.683218
000310 3e 3a f4 3f 6f ac 0c 41 1c 09 4d c0 bd 06 1c 41
       1.9080274 8.792098 -3.203681 9.751645
000320 a5 3c 61 41 6c 1b 0b 41 a9 41 60 41 98 ee 35 41
       14.077306 8.694195 14.01603 11.37075
000330 00 77 60 41 e6 06 84 41 57 f0 9a c0 ca 0f 18 c0
       14.029053 16.503368 -4.8418384 -2.3759637
000340 3e 4e 8b 3f 12 04 9e 41 f6 65 28 41 b2 2d f9 3f
       1.0883253 19.751987 10.524893 1.946707
000350 18 1e 21 41 0c 3c ed 40 34 22 38 41 6d 9f 24 41
       10.069847 7.41358 11.50835 10.288922
000360 1d fa 00 c0 0a ec 77 41 78 fc 3d 41 09 93 9b 40
       -2.0152657 15.495127 11.874138 4.8616986
000370 77 a7 f9 40 0c 4a 6b 41 00 e5 02 41 25 7b 0d 41
       7.8016925 14.705578 8.180908 8.842565
000380 a8 df 2b 41 0e 4a 02 41 7f 28 30 3f 44 5b 3d 41
       10.742104 8.14308 0.6881179 11.834782
000390 c1 b1 ad c0 93 db 8b 41 a0 94 06 41 13 6a 24 41
       -5.4279485 17.482214 8.411285 10.275897
0003a0 59 32 ae c0 a6 f6 5d bf a9 b8 36 c0 8e 3f 09 3f
       -5.443646 -0.8670448 -2.8550208 0.536126
0003b0 19 df 66 41 1c c5 95 bf 88 e9 14 41 2d 77 6b c0
       14.429467 -1.1700778 9.307014 -3.679149
0003c0 4c 4f 97 c0 0e be 2b c0 ea 4a 00 41 8a 7f 8a 41
       -4.72843 -2.683475 8.01829 17.312275
0003d0 ec 39 19 3e 50 38 7c c0 05 d6 84 40 bb f7 07 bf
       0.14963502 -3.940937 4.1511254 -0.5311238
0003e0 47 70 24 41 2f 28 f6 40 48 5b 5a 41 2e 7c 69 41
       10.277411 7.692405 13.647285 14.592817
0003f0 f3 6d f9 40 49 89 41 41 f4 48 46 41 ef ce 9b 40
       7.7946715 12.096017 12.392811 4.8690104

l1/W f4 [256, 64]
000000 a3 cb 55 42 f2 a4 ae c1 2e 97 07 c2 96 fb a2 41
       53.448864 -21.83054 -33.897636 20.372845
000010 66 ed db 41 19 34 03 c1 c0 b0 9f 40 99 16 87 c1
       27.490917 -8.200219 4.990326 -16.886034
000020 c5 35 20 40 9f 82 34 41 97 97 9e c1 c2 68 52 40
       2.5032818 11.28189 -19.824018 3.287644
000030 ba 93 85 c1 e2 1a b9 41 c6 c3 1f be da 25 9e c1
       -16.697132 23.138126 -0.15602025 -19.768482
000040 fb 27 1a c1 c1 86 2b 40 3a aa 76 40 42 de c9 c0
       -9.634761 2.6800997 3.8541398 -6.308381
000050 c0 90 a7 3e e5 c0 d9 c0 c2 25 be 41 03 bf c9 40
       0.32727623 -6.8047967 23.768436 6.304567
000060 66 3c 38 41 e7 88 5f c0 e3 9d a0 41 5c f1 13 c1
       11.514746 -3.4927309 20.077093 -9.246426
000070 b5 83 15 c1 41 28 7d 41 40 d0 1a 41 30 97 10 41
       -9.344655 15.822328 9.675842 9.036911
000080 18 fb a5 c0 87 25 5c bf 9d 43 9b 40 10 3a 3f c1
       -5.186901 -0.8599476 4.8520036 -11.951675
000090 fb ff 5a bf f6 b4 96 c0 8f d0 cf 3f 7f 8a 9c 41
       -0.85546845 -4.70959 1.6235522 19.567625
0000a0 50 6d 45 bf f5 26 09 41 2b 39 02 bf c5 b5 c5 41
       -0.7711992 8.572011 -0.5086848 24.713755
0000b0 f0 55 df 40 6a de e5 bf d3 49 80 3f 69 ce 4e c1
       6.9792404 -1.79585 1.0022529 -12.925393
0000c0 45 c5 df 3e fe 3a a3 41 c4 c9 17 40 68 de b7 40
       0.43705192 20.403805 2.3716898 5.745899
0000d0 bb 27 0c 41 62 70 0a c0 b1 a7 17 3f 45 5b 5e 41
       8.7597 -2.1631093 0.5924025 13.897283
0000e0 10 3b ec 41 bc 1f c3 c0 e5 56 6b c0 c4 87 b7 c0
       29.52884 -6.097624 -3.6771786 -5.735323
0000f0 ed f2 73 41 33 1e 12 41 99 d4 b2 c1 b7 b0 0a c2
       15.246808 9.132373 -22.353807 -34.672573
000100 28 d5 e3 41 98 98 cf c0 ee 5e 9c 41 e0 9c 7d c0
       28.47908 -6.487377 19.546352 -3.9627
000110 4c 8e e5 3e ff 79 d9 c1 e5 64 d8 bf 93 c7 d1 40
       0.44835126 -27.184568 -1.690579 6.555612
000120 29 00 a7 c1 09 8b 18 41 ee 53 76 41 a4 d7 30 c1
       -20.875078 9.533944 15.395491 -11.052647
000130 3b 29 b1 c0 72 e6 d9 c1 6f eb 2a 41 39 cb 27 c1
       -5.536283 -27.237522 10.682479 -10.487115
000140 92 28 a5 41 bc ea 7a c1 ed 49 5b 40 88 60 bb 3d
       20.64481 -15.682308 3.426387 0.09149271
000150 2a 92 f3 40 0b 7f 86 bf da b5 c5 41 79 19 e4 c1
       7.6115923 -1.050752 24.713795 -28.512438
000160 d3 d9 70 41 e4 44 a4 c0 4d 3d 5a 3f 09 12 a3 c0
       15.05318 -5.1334095 0.8524979 -5.0959516
000170 14 9c be 3f 1b 1d b4 c0 a4 27 8b c1 57 06 d2 c1
       1.4891381 -5.628553 -17.394356 -26.253096
000180 dd 5c 02 41 1c 71 56 40 c1 61 63 41 c7 3d 83 c0
       8.147672 3.3506536 14.211366 -4.101291
000190 bc 1e ab 3f ec 2f 2b c1 e5 f6 c5 41 3d 17 90 c0
       1.3368754 -10.6992 24.745554 -4.5028367
0001a0 90 c0 0f 41 e8 d1 d2 c1 99 a2 8d 41 c0 e5 fc 3f
       8.984512 -26.352493 17.704393 1.9757614
0001b0 60 68 59 be cb 40 92 41 97 f8 7f 41 cd df 3d c1
       -0.21231222 18.281637 15.998191 -11.867139
0001c0 5b 1c 22 3e 1b 3d 97 c0 72 7e 1b 41 17 d8 28 c2
       0.15831129 -4.726209 9.71837 -42.211025
0001d0 9a b7 0e c0 d1 dd c6 40 c2 54 b0 41 28 b0 66 c1
       -2.2299562 6.214577 22.041386 -14.418007
0001e0 d9 58 aa 40 8b 8b bb c0 28 0d 15 c1 65 1d c5 c1
       5.3233457 -5.860784 -9.315712 -24.639353
0001f0 e2 04 10 42 14 22 a6 bf 59 de a3 bf 68 80 0a 41
       36.00477 -1.297915 -1.280223 8.656349
000200 c4 47 3b 40 53 b0 ab 41 40 39 83 41 fc 45 83 41
       2.9262552 21.461096 16.402954 16.409172
000210 c2 85 81 bf 32 02 9f 41 0f 9d fd 40 10 10 9d 40
       -1.0118945 19.876072 7.925422 4.9082108
000220 39 33 bd 41 f0 5c ba 40 98 11 c3 bf b3 e6 de be
       23.650011 5.823845 -1.5239744 -0.43535385
000230 3c 8b 6d 40 86 75 f0 41 50 3c 59 41 31 0b af c0
       3.7116232 30.057384 13.577225 -5.470116
000240 2b 7b 18 41 0b 32 a4 40 91 2f 18 c1 20 43 8b 40
       9.53007 5.1311088 -9.511613 4.351944
000250 f4 cd ce 3f 30 47 a9 40 91 fe 98 41 6e 43 ac c1
       1.6156602 5.28994 19.1243 -21.532925
000260 2c 1e 2d 42 66 bb 96 c1 1e 72 d0 40 53 d7 c3 40
       43.279465 -18.841503 6.5139303 6.1200347
000270 1b 01 db 3f f7 75 77 41 b7 94 df c0 b0 3f 96 c0
       1.7109712 15.4663 -6.9869037 -4.6952744
000280 5b 1a 6d c1 f7 4c 21 41 c7 d1 cf c1 5e e6 a8 3f
       -14.818934 10.08129 -25.97743 1.3195302
000290 1f de d1 40 1c eb e9 bf ed 97 85 c1 76 e0 bb c1
       6.5583644 -1.8274875 -16.699183 -23.4846
0002a0 dc a1 95 c1 7f b1 32 c1 59 2b 41 bf 90 3b 62 be
       -18.704033 -11.168334 -0.7545677 -0.22093034
0002b0 24 81 a1 3f 26 59 ef c0 ca 34 22 40 bc 3a d9 c1
       1.2617536 -7.4796324 2.534472 -27.153679
0002c0 a2 cf e8 c1 a1 84 d5 c1 bb 54 fa c0 80 79 ba 40
       -29.101383 -26.68976 -7.822843 5.8273315
0002d0 84 73 ad 41 b3 f5 f0 c0 24 3d 8d 40 8e da 19 c2
       21.681404 -7.5299926 4.4137135 -38.463432
0002e0 04 8b b2 40 72 ac 89 c1 ec 6d 72 c1 2e 0c a0 41
       5.5794697 -17.209202 -15.151836 20.005947
0002f0 76 51 a2 c1 5a 5a 71 c0 c1 ee f5 3f dd 1f 85 c0
       -20.289776 -3.7711396 1.9213487 -4.1601396
000300 47 ed c1 c1 ba 94 8e 41 4b 3c 38 c1 8e 4b 1d 41
       -24.240858 17.82262 -11.51472 9.830946
000310 57 91 d7 40 3a cd c1 40 63 14 19 41 1f 03 bc c1
       6.7364917 6.056302 9.567477 -23.501524
000320 e9 d5 e4 40 45 87 13 c2 fe 5e 2b c0 b0 1f 24 41
       7.151112 -36.8821 -2.6776729 10.257736
000330 8c 3d 78 c1 26 65 bb 40 54 1c 34 41 87 92 7b 40
       -15.515026 5.856097 11.256916 3.9308183
000340 ca 53 1d 3f 1a 20 80 c1 49 31 87 3c ee 4b 04 c0
       0.61455977 -16.015675 0.016502993 -2.0671344
000350 4a 08 83 41 4a ac 57 c0 e9 8d 81 41 29 8e 5d c1
       16.379047 -3.3698907 16.194292 -13.847207
000360 9a d1 f4 40 70 43 35 be c5 e1 0b 41 b7 25 36 40
       7.650586 -0.17701507 8.7426195 2.846052
000370 ef 2f ac bf 97 dc b7 40 eb 35 8e 40 ac ea 14 c1
       -1.3452128 5.7456775 4.444082 -9.307293
000380 9d b1 81 c1 34 6f 6a 41 e7 b1 a3 41 15 0a a7 c0
       -16.211725 14.652149 20.461866 -5.2199807
000390 3a 2e da 3f 42 c2 6e c0 ce ec 5f c1 a8 70 d7 3f
       1.7045357 -3.7306066 -13.995314 1.6831255
0003a0 af 46 67 41 4f 52 1d c0 f2 d4 68 c1 de b6 06 c1
       14.454757 -2.4581487 -14.551989 -8.419645
0003b0 8f 7b 99 bf 77 a3 7a 41 06 2e 9d 40 25 09 0f c2
       -1.1990832 15.664908 4.911868 -35.75893
0003c0 81 39 23 bf 36 97 a3 c1 79 cd 87 40 15 42 f1 c1
       -0.6375962 -20.448833 4.243832 -30.157267
0003d0 3d c9 26 40 f1 e9 ea 41 cd d2 ac 41 0d dd 0e c1
       2.6060326 29.36423 21.60293 -8.928967
0003e0 df 72 ae c1 6b d3 e5 41 c0 d4 e0 c1 7c 70 83 c0
       -21.80609 28.728231 -28.103882 -4.107481
0003f0 9b 68 01 c2 8d 95 0c 41 62 cc 1d 42 82 47 2c 40
       -32.352154 8.786511 39.449593 2.6918645

l1/b f4 [256]
000000 f0 cd 00 c1 01 55 d5 3f ee 4c 04 41 20 f0 e7 3f
       -8.050278 1.6666566 8.268782 1.8120155
000010 3a 8c 31 c0 8d 81 17 40 4f 9b 8d bf a5 9b ca 40
       -2.7741838 2.3672822 -1.1063021 6.3314996
000020 b6 39 d4 bf 4b f1 c2 40 cf 6e bc c1 1b b0 03 41
       -1.6580112 6.0919547 -23.554106 8.2304945
000030 53 17 6c bf 7b ee 18 c1 b5 c8 8d c0 48 77 89 c0
       -0.9222309 -9.558223 -4.4307504 -4.2958107
000040 4c 43 d0 3f e3 ad 3c 40 7f 17 01 41 a4 47 88 40
       1.6270537 2.9481132 8.068236 4.258745
000050 2c d3 c4 40 2c e2 35 3f 48 06 01 41 a5 02 f2 40
       6.150778 0.71048236 8.0640335 7.562823
000060 13 79 e4 bf 9b 56 e2 c1 25 e1 c4 40 49 f1 4c 40
       -1.7849449 -28.292288 6.1524835 3.2022269
000070 6e 93 e9 40 12 8a 06 be a2 54 a8 bd 59 89 3a 3f
       7.299247 -0.13138607 -0.082192674 0.72865826
000080 51 b1 53 40 a8 a1 1c 41 9f 02 b5 c1 17 46 16 41
       3.3076975 9.789467 -22.62628 9.392112
000090 f4 6c a5 41 5d 6a 19 41 81 72 8f 40 8a 3d 09 41
       20.6782 9.588468 4.4827275 8.577524
0000a0 d6 62 1c 41 63 a1 1a c1 13 a3 15 c0 f2 d8 98 c1
       9.77413 -9.664401 -2.3380783 -19.10593
0000b0 d7 40 06 c1 9b 7e b6 40 8d d2 bc c0 a0 31 fa bf
       -8.39083 5.702955 -5.900702 -1.9546394
0000c0 ab 6b 5d c1 fb 81 9f 40 3f c0 bb c0 1f b5 ef 40
       -13.838786 4.9846168 -5.8672175 7.4908595
0000d0 5a c8 16 41 17 3a f1 c0 c6 f5 bc 3e 0e 66 88 3f
       9.423914 -7.538341 0.3690626 1.0656145
0000e0 b3 c4 09 c1 e2 39 e0 c0 8f 6a 12 41 ef 8a f2 3e
       -8.610522 -7.007066 9.151015 0.47371623
0000f0 9f 0e ec 40 fa fc b2 bf 9a 12 3b 41 b6 88 63 c1
       7.376785 -1.3983452 11.692041 -14.220877
000100 92 52 5f c0 d1 09 23 41 44 34 52 c1 89 cd 14 3d
       -3.4894147 10.189897 -13.13776 0.036328826
000110 fb d2 c9 bf 74 0b 46 be c2 42 2c 40 a9 fb f6 be
       -1.5767511 -0.19340307 2.6915746 -0.48238876
000120 7e 1f ee 40 f8 c7 b2 40 a8 98 08 c0 00 da 1f c1
       7.4413443 5.5869102 -2.1343174 -9.990723
000130 36 81 19 41 5e b3 72 c0 08 6b ac 3f bf 89 d5 41
       9.594046 -3.7921977 1.3470163 26.692259
000140 f5 12 cf 3f 2c 1c f9 c1 5a dd 21 c1 86 f9 53 40
       1.617766 -31.138756 -10.116541 3.3121047
000150 7c 6e 17 40 8b df 8f bf 8b 85 b3 3f 32 9c 21 40
       2.3661184 -1.1240095 1.4025129 2.5251584
000160 a0 87 12 41 b9 94 1f 41 ac 71 5c 3f b2 87 a2 40
       9.158112 9.973809 0.8611095 5.0790644
000170 c9 3c 25 41 66 92 27 c1 7f d4 e6 bf 55 87 70 c0
       10.32734 -10.473242 -1.8033599 -3.75826
000180 23 5d e5 c1 54 9d d2 c1 97 d8 0f 41 e7 e4 96 c0
       -28.670477 -26.32682 8.990378 -4.715442
000190 7c 97 ae 40 6f 0f 32 41 32 47 68 3f 5b 8e 49 40
       5.4559917 11.128768 0.90733635 3.1493137
0001a0 8a fe 28 41 78 98 62 40 8e 92 03 40 c8 49 22 be
       10.562143 3.540556 2.05582 -0.15848458
0001b0 f9 06 3f c1 41 f9 80 41 3a 08 87 c0 c9 bc 25 40
       -11.939202 16.121706 -4.219754 2.5896475
0001c0 a4 7d 5d 41 3d 93 fa 40 ea 05 ad c0 cf f5 d4 bf
       13.843174 7.8304734 -5.406972 -1.6637515
0001d0 e5 b8 82 40 cb 5d 1b 40 08 22 f8 3f 0d e7 15 3e
       4.08507 2.4275997 1.9385386 0.1463892
0001e0 69 04 54 41 85 5d 37 c1 64 74 3a c1 f9 0f 37 40
       13.251077 -11.460332 -11.653416 2.86035
0001f0 73 79 f5 bf f2 c1 18 40 83 a1 b2 c0 8e f2 2a c0
       -1.9177688 2.3868375 -5.582216 -2.6710544
000200 8d c5 cb c1 ff 70 21 c1 c2 a2 81 41 c2 b8 7a 3f
       -25.47146 -10.090087 16.204472 0.9793817
000210 91 51 49 41 36 7e c8 3f bf df 82 c0 4c 15 a3 40
       12.582414 1.5663517 -4.0898128 5.0963497
000220 ba e3 8b c1 c7 04 39 c1 e5 65 85 bf cf 87 87 c0
       -17.486195 -11.563666 -1.0421721 -4.235328
000230 d7 84 a4 c1 d8 0f d0 3e 4e 6f 24 41 d1 93 db c0
       -20.564863 0.40637088 10.277174 -6.861794
000240 11 d6 ed c0 91 ac 17 41 be 0e aa 40 12 d0 85 bf
       -7.432381 9.47963 5.3142996 -1.0454123
000250 78 a5 eb 40 83 cd 8d c1 35 96 ef c0 0b cf 0d 41
       7.363949 -17.725348 -7.487086 8.863048
000260 e1 41 7a 41 ee 3b c5 c0 42 a6 15 c1 6e 88 e8 40
       15.641084 -6.1635656 -9.35309 7.266654
000270 29 0b 15 c1 95 fc c9 40 43 b7 fc c1 89 59 2b 41
       -9.315225 6.312083 -31.589483 10.709359
000280 b9 b4 89 40 78 7e 41 c0 4c 4f d7 3f 4f 90 2b 41
       4.303311 -3.023344 1.6821074 10.722732
000290 aa 7f b2 40 9d 6a 9e c1 f6 16 50 41 37 78 ed c0
       5.578084 -19.802057 13.005606 -7.4209247
0002a0 b6 8a 6a bf 3c 17 09 c2 88 d1 07 c1 7e ba 02 c0
       -0.91617906 -34.27269 -8.488655 -2.0426326
0002b0 11 e9 24 c0 1b a5 89 40 1d cb 86 41 ba 70 41 c1
       -2.5767252 4.3014045 16.849176 -12.090021
0002c0 92 5d 8c bf 45 36 f4 3f 3b 65 31 c0 ac 17 06 40
       -1.0966055 1.9079062 -2.7718036 2.0951948
0002d0 42 aa d3 40 24 b1 11 c0 72 87 d8 40 21 da cf c0
       6.6145334 -2.2764368 6.766534 -6.495377
0002e0 86 2b b1 40 23 ae 29 41 6e 5e 64 c1 c9 be da 40
       5.536563 10.605014 -14.273054 6.835789
0002f0 36 0f ad 3e d8 65 75 40 62 5a 39 bf 2b b8 c8 40
       0.33800668 3.834341 -0.7240354 6.2724814
000300 4b 73 9f 40 ea f0 49 40 ef 60 df c0 e2 5e be 40
       4.982824 3.1553292 -6.9805827 5.9490824
000310 11 3f 45 41 e7 65 2a c1 a5 cc 76 3f 4d ef 26 41
       12.327897 -10.6498785 0.9640601 10.433423
000320 e0 8a 1a c1 e4 d1 1a bf 0f 6c db c0 9c af 85 40
       -9.658905 -0.6047652 -6.8569407 4.1776867
000330 bf ef 0d 41 35 8c 5c c1 ae f0 41 c0 49 b1 a3 c1
       8.871032 -13.78423 -3.030315 -20.461565
000340 f4 67 87 40 35 6d c9 bf 51 50 01 c2 56 27 d5 bf
       4.2314396 -1.5736452 -32.328434 -1.6652629
000350 eb c1 b0 c0 aa 5a 32 41 74 d2 0f c0 ed 96 88 c0
       -5.5236716 11.147135 -2.24722 -4.2684236
000360 c2 21 e4 bf 39 e4 54 c1 b9 2d 8b c0 48 41 33 c1
       -1.7822802 -13.305718 -4.3493314 -11.203438
000370 7a 56 3f c1 b4 75 f2 40 8f c1 0c 3f d5 87 11 c2
       -11.958612 7.576868 0.54982847 -36.38265
000380 fb 78 4a 41 bd b8 81 40 c4 f0 5b 40 75 f4 4d c0
       12.654536 4.053801 3.4365702 -3.2180455
000390 45 d1 1f 40 3c f6 32 41 dc e6 02 41 12 14 9d c0
       2.4971478 11.185116 8.181362 -4.9087
0003a0 8c e9 c1 40 e2 d9 a4 3d 09 06 2a 41 59 64 99 c0
       6.059759 0.0804937 10.626473 -4.7934995
0003b0 c8 3e ba c0 f6 e8 b8 40 fc 01 09 c2 6f 4d 76 3f
       -5.8201637 5.7784376 -34.251938 0.96211904
0003c0 6a 76 84 c0 ac ca 69 c1 09 47 50 c1 2c d3 6b c0
       -4.139455 -14.61198 -13.017343 -3.684764
0003d0 f5 ff 0a c2 c1 a0 35 c2 29 07 1d c1 36 5f 4c c1
       -34.749958 -45.406986 -9.814248 -12.773245
0003e0 bc 29 24 41 c2 80 e9 40 0e dd 5a c1 a9 f3 c2 40
       10.260189 7.2969675 -13.678968 6.0922437
0003f0 45 0a 85 c1 c1 aa f5 40 8c dd d0 c0 c2 91 2e c1
       -16.630014 7.677094 -6.5270443 -10.910585

l4/W f4 [64, 256]
000000 be 60 e9 41 f2 59 22 42 87 c5 0a 42 59 89 90 42
       29.172237 40.587837 34.692898 72.26826
000010 d3 5a e2 41 06 8f 20 42 56 2e 27 42 6c 61 16 42
       28.294348 40.13967 41.79525 37.59514
000020 ed 37 26 42 e4 71 38 42 da 1f 2b 42 9a 4c 3a 42
       41.554615 46.11122 42.781105 46.574806
000030 71 55 26 42 cf 9d 46 42 0d fc 24 42 6b f8 1c 42
       41.58344 49.65411 41.246143 39.242596
000040 49 0c 35 42 f0 e4 12 42 90 fa 1b 42 5e 7d 29 42
       45.261997 36.72357 38.99469 42.37243
000050 44 b0 22 42 dd 2e 17 42 81 8c 19 42 55 8f f4 41
       40.672134 37.795765 38.38721 30.569986
000060 4f c3 2b 42 9a 2b 13 42 27 c6 30 42 93 83 5b 42
       42.94073 36.79258 44.19351 54.87849
000070 f4 c4 55 42 f6 1b 2b 42 26 ff 85 42 32 28 33 42
       53.442337 42.777306 66.99834 44.789253
000080 57 ec 3b 42 2b 37 24 42 25 e1 3e 42 8e 24 40 40
       46.9808 41.053875 47.719868 3.0022311
000090 43 db 47 42 b8 86 0f 42 31 9a 41 42 5f 03 1b 42
       49.964123 35.88156 48.400578 38.753292
0000a0 46 60 ed 41 f5 51 18 42 cb 29 50 42 70 47 2e 42
       29.672009 38.080036 52.040813 43.569763
0000b0 19 7a 41 42 a0 5b 0e 42 7f 2f e5 41 1a 21 1d 42
       48.369236 35.589478 28.648191 39.282326
0000c0 28 10 32 42 13 50 8f 42 3d 86 12 42 bc ad 6b 42
       44.515778 71.656395 36.631092 58.919662
0000d0 85 a0 2e 42 c8 15 4a 42 48 13 51 42 f5 78 88 42
       43.656757 50.52127 52.26883 68.236244
0000e0 31 d6 30 42 b3 49 7c 42 96 02 47 42 67 10 4e 42
       44.20917 63.07197 49.752525 51.516018
0000f0 4c df fa 41 36 39 78 42 98 30 42 42 c6 cc 2c 42
       31.359032 62.05587 48.547455 43.199974
000100 aa 2e 21 42 7b 3c 83 42 e4 51 72 42 14 12 0a 42
       40.29557 65.618126 60.57997 34.517654
000110 aa 73 e6 41 9e 08 11 42 92 e1 41 42 22 ad 21 42
       28.806477 36.258415 48.470284 40.419075
000120 b1 f6 2a 42 55 71 32 42 58 0f 18 42 69 93 08 42
       42.74091 44.610676 38.014984 34.143955
000130 48 62 34 42 80 44 35 42 f8 3c 26 42 13 f4 25 42
       45.095978 45.316895 41.55954 41.488354
000140 f0 42 14 42 ef 6e 27 42 67 d8 4e 42 1f e2 4c 42
       37.06537 41.858334 51.71133 51.22082
000150 b5 a1 15 42 aa c3 f0 41 47 40 29 42 64 c6 32 42
       37.407917 30.09554 42.31277 44.69374
000160 7c 92 86 42 9a c6 84 42 cf 85 40 42 2f 93 0a 42
       67.2861 66.38789 48.130672 34.643734
000170 a2 44 44 42 25 4c 13 42 c2 5e 2c 42 a5 6c f6 41
       49.067024 36.82436 43.092537 30.80305
000180 80 bd 1a 42 45 2a 34 42 5d 5a 13 42 74 94 cf 41
       38.68506 45.04128 36.838245 25.947487
000190 0a 8d 3a 42 a8 3c 20 42 39 86 14 42 5c a0 55 42
       46.637733 40.059235 37.131077 53.4066
0001a0 d3 f5 1b 42 09 08 0e 42 96 a6 20 42 b3 92 06 42
       38.990063 35.507847 40.16268 33.64326
0001b0 7e 51 6c 42 3e b9 2c 42 43 9f 29 42 14 61 22 42
       59.079582 43.1809 42.40553 40.594803
0001c0 21 e4 fa 41 17 05 28 42 3b 06 b9 41 47 aa 03 42
       31.361391 42.00497 23.128042 32.916286
0001d0 a7 9b 13 42 a7 7a 0b 42 8b 16 3f 42 6e 07 23 42
       36.902004 34.869778 47.772015 40.757256
0001e0 66 dc 19 42 fb 86 0b 42 49 eb 2f 42 15 bd 25 42
       38.465233 34.881817 43.97977 41.43465
0001f0 53 3a 37 42 52 55 2c 42 f8 15 4b 42 6f 44 25 42
       45.806957 43.08332 50.771454 41.31683
000200 1a ea 4e 42 b6 9f f1 41 ad 83 18 42 a0 1c 2b 42
       51.728615 30.202984 38.12859 42.777954
000210 f4 8d 15 42 74 11 9d 41 b9 dc 99 41 31 2d d6 41
       37.388626 19.633522 19.232775 26.772066
000220 64 44 1c 41 c1 4b 51 42 72 06 3d 42 b8 78 23 42
       9.766697 52.32398 47.256294 40.86789
000230 da 45 21 42 ca db 3b 42 5e f4 29 42 2f bd 28 42
       40.318214 46.964638 42.48864 42.18475
000240 01 9f ed 41 76 ff 08 42 4f 7a 51 42 52 97 20 42
       29.702639 34.249474 52.369442 40.147774
000250 b1 fa 35 42 03 1f 36 42 1e 81 f8 41 67 a1 5d 42
       45.494816 45.530285 31.063046 55.40762
000260 f7 66 50 42 e3 fe 5e 42 99 1d 8a 41 bd ac 1d 42
       52.10055 55.748913 17.264452 39.41869
000270 99 a6 4d 42 a7 38 4d 42 c3 ec 16 42 09 27 1f 42
       51.412693 51.305325 37.731213 39.78812
000280 d7 63 fe 41 4a 36 0a 42 2b 43 18 42 1f 88 31 42
       31.79875 34.553017 38.065594 44.38293
000290 20 a7 16 42 67 7b 3b 42 38 d7 3e 42 c1 be 09 42
       37.663208 46.87051 47.710175 34.436283
0002a0 ca 18 63 42 2d e8 5d 42 73 92 2e 42 6d 7a 33 42
       56.774208 55.476734 43.643017 44.869556
0002b0 3d 1a 50 42 d7 17 29 42 e2 b0 16 42 07 3f 34 42
       52.025623 42.27328 37.672737 45.06155
0002c0 a5 b6 31 42 76 03 1a 42 50 ad 0b 42 62 42 f8 41
       44.428364 38.50338 34.91925 31.032413
0002d0 7a 84 6a 42 c9 66 1d 42 e5 5c bc 41 7b f9 48 42
       58.62937 39.350376 23.545359 50.243633
0002e0 f7 b7 33 42 bc 88 16 42 04 80 31 42 b8 d2 2b 42
       44.929653 37.63353 44.375015 42.95578
0002f0 18 38 2e 42 1f ea 2f 42 0a ea 49 42 03 74 2a 42
       43.55478 43.978634 50.478554 42.613293
000300 24 9c 1e 42 5c ee 33 42 b6 28 e2 41 f6 46 66 42
       39.65248 44.982773 28.269878 57.569298
000310 6b d2 40 42 1f 6f 19 42 d8 01 2b 42 31 37 37 42
       48.205486 38.358517 42.7518 45.803898
000320 5a 1a 0c 42 01 32 2b 42 5f 40 27 42 59 fe 15 42
       35.025734 42.798832 41.812862 37.498386
000330 ff 90 45 42 cd 35 65 42 79 f6 49 42 87 da 12 42
       49.391598 57.30254 50.490696 36.713406
000340 b8 ef 25 42 17 86 2b 42 2a f1 ec 41 4b 8d dd 41
       41.4841 42.880947 29.617756 27.69399
000350 97 bb 2c 42 2a 01 28 42 fb 21 1c 42 99 19 05 42
       43.183193 42.001137 39.033184 33.274998
000360 b3 07 35 42 c5 ef 32 42 45 d8 24 42 a8 26 2a 42
       45.25752 44.73415 41.2112 42.53775
000370 8a bc a0 41 bf db 26 42 d2 d2 48 42 bf 5e 1a 42
       20.09206 41.714596 50.20588 38.592525
000380 35 a6 39 42 da ac 15 42 40 8f 38 42 77 27 40 42
       46.41231 37.4188 46.139893 48.03854
000390 f6 a1 4b 42 da f5 01 42 df 87 2b 42 8e d0 12 42
       50.908165 32.49009 42.882687 36.703667
0003a0 1a 3f 36 42 3f 04 15 42 22 50 28 42 66 3f 26 42
       45.561623 37.254147 42.078255 41.561913
0003b0 ed ab 06 42 2a 0d 3a 42 e3 82 4d 42 50 5e 8a 42
       33.667896 46.512856 51.37782 69.184204
0003c0 36 48 47 42 3b 0c 2e 42 b0 98 35 42 7c 82 39 42
       49.82052 43.511944 45.39911 46.377426
0003d0 49 2a 40 42 25 2b 25 42 cc 95 52 42 ef 15 fb 41
       48.041294 41.292133 52.646286 31.38571
0003e0 48 08 d5 41 21 a8 24 42 3c f0 09 42 1c 45 5b 42
       26.629044 41.16419 34.484604 54.81749
0003f0 c7 7c fa 41 6a 71 3b 42 e5 20 45 42 7e e8 45 42
       31.310926 46.860756 49.282124 49.477043

l4/b f4 [64]
000000 6e ac c2 c2 ee b3 c2 c2 b7 b4 c2 c2 54 b4 c2 c2
       -97.33678 -97.351425 -97.35296 -97.3522
000010 09 b8 c2 c2 e9 b0 c2 c2 5d b5 c2 c2 ae b0 c2 c2
       -97.35944 -97.34553 -97.354225 -97.34508
000020 7b ac c2 c2 37 b4 c2 c2 5c be c2 c2 10 c1 c2 c2
       -97.336876 -97.35198 -97.371796 -97.377075
000030 1d b9 c2 c2 10 b7 c2 c2 8b b1 c2 c2 ac b3 c2 c2
       -97.36155 -97.357544 -97.34676 -97.35092
000040 77 b6 c2 c2 ab b3 c2 c2 59 b5 c2 c2 eb ba c2 c2
       -97.35638 -97.350914 -97.354195 -97.365074
000050 a8 b0 c2 c2 6f b2 c2 c2 27 ae c2 c2 5c bc c2 c2
       -97.34503 -97.3485 -97.34014 -97.36789
000060 3d ae c2 c2 d2 b0 c2 c2 72 b0 c2 c2 4a ba c2 c2
       -97.34031 -97.34535 -97.34462 -97.363846
000070 bf ba c2 c2 6e ae c2 c2 a9 b1 c2 c2 9b b9 c2 c2
       -97.36474 -97.34068 -97.34699 -97.36251
000080 c7 b4 c2 c2 66 ba c2 c2 26 b3 c2 c2 31 b7 c2 c2
       -97.35308 -97.36406 -97.3499 -97.357796
000090 41 b5 c2 c2 1c bf c2 c2 85 bd c2 c2 82 b2 c2 c2
       -97.35401 -97.37326 -97.370155 -97.34865
0000a0 fb b5 c2 c2 03 b5 c2 c2 6e bd c2 c2 ef b2 c2 c2
       -97.35543 -97.35354 -97.36998 -97.34948
0000b0 3e b7 c2 c2 58 b5 c2 c2 cd bf c2 c2 60 ae c2 c2
       -97.357895 -97.35419 -97.37461 -97.340576
0000c0 92 b6 c2 c2 56 b6 c2 c2 cc b5 c2 c2 8f bb c2 c2
       -97.35658 -97.356125 -97.35507 -97.366325
0000d0 d4 b8 c2 c2 73 be c2 c2 ef b8 c2 c2 c0 b3 c2 c2
       -97.36099 -97.37197 -97.3612 -97.351074
0000e0 67 b0 c2 c2 8d af c2 c2 f3 b7 c2 c2 08 b3 c2 c2
       -97.344536 -97.34287 -97.359276 -97.34967
0000f0 96 b9 c2 c2 26 bb c2 c2 bb ad c2 c2 29 af c2 c2
       -97.36247 -97.365524 -97.33932 -97.34211

l3/W f4 [256, 256]
000000 83 e5 92 c0 1a c5 98 c0 bf 57 ce c1 d2 f7 d2 c0
       -4.5905166 -4.7740602 -25.792845 -6.5927515
000010 31 ac be 41 f5 5a 22 40 7f 68 84 40 32 c0 b1 40
       23.834078 2.5368016 4.137756 5.5547113
000020 ee 48 2d c1 d4 bd ab c0 31 23 e7 41 46 83 82 41
       -10.830305 -5.3669224 28.892183 16.314098
000030 56 d9 01 c1 4c 07 9e 40 0d 0c db 3f ed 05 f6 c0
       -8.115561 4.9383907 1.7113053 -7.6882234
000040 7e 8a 5a 41 66 38 9a c1 a1 43 e8 c0 17 02 07 41
       13.658812 -19.277538 -7.2582555 8.43801
000050 a8 66 de c1 dc 6c 18 41 8f 41 55 41 65 3d 87 40
       -27.800125 9.526577 13.3285055 4.2262444
000060 7d dd 77 c0 ba 49 2e 41 62 8f ae 40 1b 77 ab c1
       -3.8728936 10.893 5.455003 -21.433157
000070 cc d8 f7 be 9d ff 64 bf f9 9b 93 c0 b5 fb fb 40
       -0.4840759 -0.89452535 -4.6127896 7.874476
000080 58 e1 36 c1 b6 4d 1f 41 41 5d 43 c1 6b a2 f5 40
       -11.430016 9.956472 -12.210267 7.6760764
000090 af 9b 98 c1 ce 1f d0 c1 e9 52 a5 c1 a4 45 43 41
       -19.076017 -26.01553 -20.665483 12.204502
0000a0 b2 d4 0c 40 e3 05 98 41 79 59 3e 41 70 c3 41 41
       2.200482 19.002874 11.896844 12.110214
0000b0 16 af 93 40 41 0a f4 41 1e f6 63 41 4e 05 d4 41
       4.615123 30.505007 14.247587 26.50259
0000c0 43 53 1a 3e e1 8b 67 40 6c 1c 12 41 06 92 cc c1
       0.15070824 3.6179125 9.131939 -25.5713
0000d0 bb 7b c0 c0 bf d1 bd 41 a2 d2 05 c1 0c bd dc c1
       -6.015104 23.727415 -8.363924 -27.592308
0000e0 fb f2 01 41 11 d8 43 40 de 4a 8d c1 3e ed 43 c1
       8.121821 3.0600626 -17.661556 -12.24542
0000f0 00 23 e5 41 53 71 76 c1 6c a2 cf c0 02 3d 5b c1
       28.64209 -15.402667 -6.488577 -13.7023945
000100 82 3b bc c0 b3 3c 69 41 10 fd df c1 3b db c5 40
       -5.882264 14.577319 -27.998566 6.1830115
000110 34 7d 2f bf ea ff 5c c1 f8 4d b0 c1 76 f1 4d 41
       -0.6855042 -13.812479 -22.03807 12.87145
000120 9c 89 26 40 d6 53 1e c1 eb 34 aa c1 19 4e e6 c0
       2.602149 -9.895468 -21.275839 -7.1970334
000130 57 eb 9b bf 4f ba 2d c1 aa c4 dd c0 40 d1 41 41
       -1.2181195 -10.8579855 -6.930257 12.113586
000140 69 ee b1 40 54 fe fb c1 e9 51 14 c1 5e 72 c8 c0
       5.560353 -31.499184 -9.269998 -6.263961
000150 ea 29 3b 40 ee 32 04 c2 06 19 f1 c1 0a 40 6c 41
       2.9244332 -33.049736 -30.137218 14.765635
000160 40 1f c5 c1 68 41 ca 40 c4 8b 26 41 b5 9a 01 42
       -24.640259 6.320484 10.409122 32.40108
000170 a0 02 33 c1 2a fa de c1 07 7d 1a 41 61 26 aa c1
       -11.188141 -27.87215 9.655524 -21.26874
000180 76 28 41 41 c3 bd 40 3f be fa c0 c0 b9 cc 21 41
       12.072378 0.75289553 -6.030608 10.112481
000190 7b 45 61 c0 71 e6 a6 c1 91 a6 d8 41 a5 5a 7b 40
       -3.5198658 -20.86252 27.081331 3.9274075
0001a0 f7 9b 31 3d ca 28 cb 40 9c b2 af 41 e6 61 c5 40
       0.04336163 6.348729 21.962212 6.1682005
0001b0 25 92 26 3f 26 50 b8 c1 4d d9 3b 40 c5 14 24 c1
       0.6506675 -23.039135 2.935138 -10.255071
0001c0 5a 46 84 c1 0b 86 73 c1 d9 14 0f 41 37 97 e3 c0
       -16.534351 -15.220225 8.94259 -7.112209
0001d0 fb 6a 36 41 69 7e 34 c0 f2 8b 84 40 14 0f af c1
       11.401118 -2.8202155 4.142083 -21.882362
0001e0 e6 35 a3 c1 09 c8 02 bf 34 24 cb c1 11 c3 93 c1
       -20.401318 -0.5108648 -25.392677 -18.470247
0001f0 d3 24 4a 40 2b 74 2d 3e 84 bd dd 3f 53 9d bd 41
       3.1584976 0.16938846 1.732346 23.701818
000200 11 ee 3c 41 fb 96 e4 c1 0f cc 18 41 fc a0 85 41
       11.808122 -28.57372 9.549819 16.703606
000210 99 38 a8 3f 22 ab 01 42 97 27 c5 c1 3e ac 02 41
       1.3142272 32.41712 -24.644331 8.167051
000220 7d af 00 41 ca b6 91 41 2b 47 dc c1 f0 38 4b c1
       8.042844 18.214252 -27.53475 -12.701401
000230 bc 14 6e 41 ec e5 3e c1 b5 be 75 41 f7 d9 12 41
       14.880062 -11.931133 15.359059 9.178214
000240 fb 94 8f c1 4f 7d 16 c0 a2 05 24 40 2e 1b 1e c2
       -17.947744 -2.3513982 2.5628438 -39.526543
000250 8c 7a 52 41 85 90 fe 40 bf 0f a3 c1 45 ec 91 c1
       13.154919 7.9551415 -20.382689 -18.240366
000260 39 01 b9 c0 3f 29 8c c1 30 ff 5f 41 d6 38 cd c0
       -5.7813993 -17.52014 13.999802 -6.413188
000270 7a fe c0 c1 72 d1 12 42 18 68 c0 40 29 be 9c c0
       -24.124256 36.704536 6.0127068 -4.898213
000280 5e 28 20 40 a9 0b 70 c2 fd 16 fe c1 8b 64 66 41
       2.5024638 -60.011387 -31.761225 14.399547
000290 a6 3b 9b c1 fb 2c e2 c0 ac a3 00 c1 9e a3 f7 40
       -19.404125 -7.067991 -8.039959 7.738723
0002a0 33 cb 4f c2 f3 34 7f 41 cd ea d6 c1 2e 8d 1f c0
       -51.948437 15.950427 -26.864649 -2.492992
0002b0 8b 18 36 c0 05 0b 3d 40 4f 67 65 41 17 c1 ef c0
       -2.845248 2.9537976 14.337722 -7.4923205
0002c0 32 75 3e c1 f4 b5 57 40 25 72 ff 40 1d d8 8b c1
       -11.903612 3.3704805 7.9826837 -17.480524
0002d0 db c6 d4 c1 7a b5 9c 41 53 0a 0c c1 36 23 57 c1
       -26.597097 19.588612 -8.752521 -13.446096
0002e0 ba 51 2c 41 62 79 f0 c1 a4 00 e5 40 9d 21 7a 41
       10.769953 -30.059269 7.156328 15.633206
0002f0 1e 42 21 41 fd e0 95 c0 cf 67 18 c1 0a 96 5a 41
       10.078642 -4.6837144 -9.525344 13.661631
000300 d5 11 1d 41 55 ef ca 41 6f 1b 0a 41 a3 65 09 40
       9.816854 25.366861 8.631698 2.1468284
000310 81 fa 00 c1 03 bb 27 41 1f dc e1 c1 fa f6 b3 c1
       -8.061158 10.483157 -28.232481 -22.495594
000320 85 5a a5 40 96 e1 d1 be b0 2b 97 bf ef 3e b9 41
       5.1672997 -0.4099242 -1.1810207 23.15573
000330 07 f3 80 c0 ec 40 80 40 6b 4b 1f 41 28 a6 49 c0
       -4.0296664 4.007925 9.955913 -3.1507664
000340 40 3a aa c0 6e 35 0f c2 f9 70 44 c2 2d 94 af 40
       -5.3196106 -35.802177 -49.110325 5.486838
000350 91 14 fc 41 f7 0a 7e 41 b9 33 0b 42 e6 27 73 c1
       31.510042 15.877677 34.80051 -15.197241
000360 03 96 e6 40 73 da b2 3f 53 60 e8 3f fb 80 9b 3e
       7.205812 1.3972915 1.8154396 0.30371842
000370 e7 f5 22 c1 d0 3e 8d c1 d2 f8 08 c1 38 e9 24 c2
       -10.185035 -17.65567 -8.560747 -41.227753
000380 cd 76 83 c1 8f 24 af c1 b0 ac a4 c1 2b c0 f6 40
       -16.433008 -21.89285 -20.58432 7.710958
000390 39 24 8e 41 7a 39 19 42 db 81 e7 41 c1 fe 6a bf
       17.767687 38.30613 28.938406 -0.91794974
0003a0 50 84 ae 40 e0 42 01 41 d4 4d 6e c1 d2 42 16 41
       5.4536514 8.078827 -14.894001 9.391314
0003b0 3b 06 7f 40 91 8d d2 40 3f ba f1 c1 1e 28 d7 c1
       3.9847553 6.579781 -30.21594 -26.894588
0003c0 e9 8f 68 c1 db 86 99 41 a5 68 45 c1 0c fe 81 41
       -14.535134 19.190847 -12.338048 16.249046
0003d0 6e 32 43 41 70 e6 f8 40 92 98 0a 3f db a3 9c bf
       12.199812 7.7781296 0.54139054 -1.2237505
0003e0 39 7e 4b c2 0e 97 4e 41 b2 a1 9d c0 4a 73 1c c1
       -50.873264 12.911879 -4.925988 -9.778147
0003f0 98 56 30 41 f1 c1 f6 3f 13 50 9b 41 a7 68 06 41
       11.021141 1.9277936 19.414099 8.40055

l3/b f4 [256]
000000 58 af 8c 40 ef 0d 9f 40 aa 73 37 40 02 fc b5 bf
       4.3964043 4.970451 2.8664346 -1.4217532
000010 21 7d a3 41 d8 15 90 41 ae 8a 1f 41 91 a6 40 41
       20.436098 18.010666 9.971357 12.040666
000020 cc d3 ba 40 f9 91 86 40 ac c8 41 bf 60 5c 70 41
       5.838354 4.205319 -0.75696826 15.0225525
000030 d1 f7 02 c0 0a a3 3a c0 4a a2 fe 40 be 46 06 41
       -2.0463755 -2.916201 7.9573107 8.392271
000040 76 77 98 40 ae 2e 39 3f 1b ae 18 41 3f f5 88 40
       4.7645826 0.7233685 9.542506 4.2799373
000050 fc 0c d2 3f 0c e5 ec 3f d1 5d e5 41 0f 02 f7 40
       1.6410213 1.85074 28.670809 7.7190013
000060 5c e5 f1 40 85 ef a7 40 35 ec 05 3f 1e ff 00 40
       7.559248 5.247988 0.5231355 2.015571
000070 37 7f 83 3a bd ea f7 40 5e 20 cb 3f 63 5a ce 40
       0.001003242 7.7474046 1.5869253 6.4485335
000080 16 e6 8a 3e 28 73 1e 41 86 63 87 40 b8 bc 40 42
       0.27128667 9.903114 4.230899 48.184296
000090 05 98 32 bf f7 07 04 c0 2b 7e 70 c0 36 d2 df 3f
       -0.69763213 -2.0629861 -3.7577007 1.7486026
0000a0 76 96 a8 40 23 ef 1b 40 31 41 3c 41 84 d9 a7 40
       5.268367 2.4364707 11.765916 5.245302
0000b0 09 f3 2b c0 fc 54 c7 40 3f e2 ca 41 04 36 4d 40
       -2.6867087 6.229124 25.360472 3.2064219
0000c0 85 6a 1d 3f 9e dc 2e c0 dc eb 04 41 84 b4 eb c0
       0.6149066 -2.7322154 8.307583 -7.3657856
0000d0 75 71 ae 3e c0 3f 68 3e 2d 7c 13 bf cc 41 24 40
       0.34070936 0.22680569 -0.5761135 2.566516
0000e0 77 6f f6 bf 40 1d de 3e 93 ce 0a 41 94 00 ba 40
       -1.9252766 0.4338169 8.675433 5.8125706
0000f0 9e 9e a4 41 f2 7a 67 c0 0f 4a 4a c1 d6 93 88 40
       20.57745 -3.616879 -12.643081 4.2680464
000100 d7 0c 59 c0 b8 45 14 c0 c8 ea 03 bf c9 3f d9 40
       -3.3914087 -2.3167553 -0.5153012 6.7890363
000110 44 21 05 40 4c 24 50 40 d9 b7 f6 40 62 40 0e 41
       2.0801554 3.2522154 7.7099423 8.890718
000120 ca 72 88 bf 93 1b b7 40 7d 40 b0 40 61 1e 7b 3f
       -1.0660031 5.722116 5.507872 0.9809323
000130 18 89 7b 40 26 ac 03 40 f7 20 ec 40 9b 04 81 c0
       3.9302425 2.057382 7.379024 -4.031812
000140 12 18 07 40 47 a6 9a 40 64 3e 13 bf 3a c3 ff 40
       2.1108441 4.8327975 -0.57517076 7.9925814
000150 9c d2 0d 41 7f 1e c3 41 3a e1 b1 40 eb 91 8b 40
       8.863918 24.38989 5.5587435 4.3615623
000160 7d 18 ae bf 05 8b bb c0 bd ab 19 41 e3 cb 99 40
       -1.3601223 -5.86072 9.604428 4.8061385
000170 70 b2 ff 3f d0 74 22 41 5f 08 d2 40 8e 39 4d 41
       1.997633 10.153519 6.563522 12.826551
000180 3b df 9c 41 b9 bd 33 be d9 27 82 41 1a f5 91 40
       19.609 -0.17552842 16.269457 4.5611696
000190 56 b5 94 40 d8 2d 99 40 26 ba 68 40 8c f4 8e bf
       4.6471357 4.786846 3.6363616 -1.116838
0001a0 0b 68 3e c0 f3 e3 67 40 c1 cd 93 40 8a 52 c7 41
       -2.9751003 3.623288 4.6188664 24.915302
0001b0 88 75 66 c0 0d 75 86 40 1b 6b 9a 3e 1e fe 65 40
       -3.6009235 4.2017884 0.3015984 3.593635
0001c0 ce 6d f2 3f 2f 56 dd 40 3b 1b e9 41 f6 14 b1 40
       1.893976 6.9167705 29.138296 5.5338087
0001d0 97 61 84 41 52 a3 2d 41 75 60 85 40 92 7e e4 3e
       16.547651 10.852373 4.1680245 0.44627815
0001e0 55 e3 1a 41 80 bb 05 41 cf ee 70 c0 17 1a 8a 40
       9.680501 8.358276 -3.7645757 4.315685
0001f0 5d 62 ad 3f b0 2d 5e c0 4a 89 2c bf 0b 68 1d 40
       1.3545643 -3.4715385 -0.67396986 2.4594753
000200 e1 48 88 40 d9 e6 5a 41 8d 78 91 bf b6 dd bc bf
       4.2588964 13.681359 -1.1364914 -1.4755161
000210 2c 65 b2 40 67 66 18 41 66 f7 af 41 19 ac 96 41
       5.57485 9.525001 21.9958 18.834032
000220 7a 67 bf bf a8 07 c0 40 03 f1 a4 40 db 57 f4 bf
       -1.4953454 6.0009346 5.1544204 -1.9089311
000230 ca 62 f2 40 18 81 13 40 3a 72 90 40 c2 d3 1c 41
       7.574559 2.3047543 4.5139437 9.801699
000240 ad 49 0b 41 c1 2d d3 c0 10 c0 28 c0 ac ce 53 be
       8.705487 -6.599335 -2.6367226 -0.20684308
000250 13 ec ad 40 ab 08 b9 3f b8 1e 3f 41 e9 8e d1 40
       5.4350677 1.445577 11.945 6.548695
000260 f9 a5 1a 41 31 bf 97 40 f2 79 6f 41 0d fb 90 40
       9.665521 4.742089 14.967272 4.530646
000270 e6 a8 c8 40 da ed 2d 40 4a eb a6 c0 0a 3f 63 40
       6.2706175 2.7176423 -5.216222 3.5507226
000280 d1 b7 08 41 b6 35 ce 41 10 da 26 40 42 a5 24 41
       8.544877 25.776226 2.6070595 10.290346
000290 20 5d 45 41 45 3f 3b 40 0f 82 cf 40 b1 9a fe 40
       12.335236 2.9257367 6.4846263 7.956383
0002a0 ca 6c 63 40 f7 6a 9f 41 85 50 d1 40 55 4d 9d 40
       3.553515 19.927229 6.541079 4.91569
0002b0 39 5b 42 bf 01 56 6f c0 b4 07 fa 40 8c 73 6d 41
       -0.75920445 -3.7396243 7.8134403 14.84071
0002c0 07 18 09 40 e4 75 b3 40 c5 6f 39 40 65 15 69 40
       2.1420915 5.608141 2.8974469 3.6419308
0002d0 06 2b d3 40 d0 82 5f 41 70 1f bb 41 2d 26 21 c0
       6.599002 13.969437 23.39035 -2.517955
0002e0 c3 d8 32 3f ac d0 07 41 c1 55 14 40 b9 12 c8 40
       0.69862 8.488445 2.317734 6.2522855
0002f0 26 76 bf 40 48 23 4a c0 79 72 d5 3e 9a e6 91 40
       5.9831724 -3.1584034 0.41688898 4.5593996
000300 63 25 5b 40 4e 18 b4 c0 ad bf b0 41 62 4f 67 40
       3.424157 -5.627967 22.093592 3.6142201
000310 27 62 9b c0 8a 2b 5d 41 2f aa 8c c0 e7 4a 9b 40
       -4.8557315 13.82313 -4.3957744 4.8528934
000320 b8 ed f6 bf 2c c1 e8 3e 91 9b 03 be 7a 8a 3c 41
       -1.9291296 0.45459878 -0.12852313 11.783808
000330 7a 95 6b 40 05 58 a8 40 4b f7 16 41 92 54 ce 41
       3.6809983 5.2607446 9.435374 25.791294
000340 4b 9e 26 40 d7 a1 04 41 47 e7 af 41 8b c2 2a 41
       2.6034114 8.289512 21.987928 10.672496
000350 76 78 bb 40 d4 85 2d 40 08 37 d5 40 91 b9 ce 41
       5.8584547 2.7112932 6.6629677 25.840609
000360 6b b5 f7 40 04 d7 8e bf 3c 9e 43 40 8f f7 11 41
       7.7408957 -1.1159368 3.0565329 9.122939
000370 65 d9 4f 42 13 da 9e 41 14 b8 8e 40 9f 22 2b 40
       51.9623 19.856482 4.4599705 2.673988
000380 86 8c 0e 41 59 67 3f 40 28 f2 88 40 ff 28 46 41
       8.9093075 2.9906828 4.27956 12.385009
000390 6b ec af c0 6a fa 04 c0 26 c7 1f 40 c3 19 f5 be
       -5.4976096 -2.077784 2.49653 -0.47871217
0003a0 26 15 02 40 a5 2f 01 41 0e d5 c0 40 a5 ac bc c0
       2.0325408 8.074132 6.0260077 -5.896075
0003b0 81 32 79 be 0b 56 3e 40 04 39 12 41 d8 ee 32 bf
       -0.24335672 2.9740016 9.13892 -0.69895697
0003c0 fd ca 8a 3f 0d 1f cf 3d bd d7 97 40 f1 ee ce 40
       1.0843197 0.10113344 4.7450852 6.4666677
0003d0 58 4c 1a 40 15 65 27 40 e4 9b 1d c0 24 8e 25 41
       2.4109097 2.6155446 -2.4626398 10.347202
0003e0 ed 2d bb 41 fc 9b 99 40 20 58 29 41 6a c6 09 42
       23.397425 4.800291 10.584015 34.443764
0003f0 e1 70 93 40 02 9f 23 c0 07 82 71 40 b8 aa 58 40
       4.607529 -2.55658 3.7735612 3.3854198
