size8/agent_black_129000/target_model.npz (npz, 608355 bytes, 8 tensors)

l2/W f4 [256, 256]
00000000: 099b 3741 d6d4 59c1 50ce d6c1 1d26 c2c0
00000010: 4b2c 21c2 3ff5 9641 2a0a 6e40 e40f 7141
00000020: 1dde b940 f8b8 27c1 ff43 8c41 2b66 9d41
00000030: 0f79 a1c0 691b f3be 7679 e7c1 828d d9bf
00000040: c23b 7b41 fb14 55c1 ba62 8dc1 6771 2dc1
00000050: 4ed9 5cc1 b485 0341 5819 6740 e216 ea40
00000060: f9f6 25c0 ce34 13c1 7fd8 c740 6019 25c1
00000070: e38c fa41 5ac3 2c42 511e b240 f6a5 4c40
00000080: e2ae f1c0 d19f 9a40 6ff9 1ac1 a7ac a7c0
00000090: 0723 cb41 009d 6b41 5904 d4c1 65d3 6341
000000a0: 003d 14c1 dce0 cfbf 8a25 4cc1 55f0 0ec1
000000b0: e355 623f 9314 ef41 43a8 8b41 6f74 0dc0
000000c0: f49b 8ec0 ed1a dac1 68c3 5141 fe63 3cc0
000000d0: 2235 9540 31ce fbc1 53a2 bd40 3f79 1341
000000e0: cbc9 c0c1 8d35 4dc1 5bed 7c41 5c7d 1041
000000f0: 05a8 9cc1 30df 3540 18ab 543f c71d 7dc1
00000100: a260 75c1 5e3b e3c1 90f2 d2c1 0a11 78c1
00000110: 0bdd da40 a5e4 5e40 c033 06c1 f7af 8041
00000120: 357c d141 ce76 9341 74cc 82c0 1820 1441
00000130: a507 1f40 a9bc cac1 1dd6 e641 fcf7 2641
00000140: 3053 5041 9d92 ee3e 8b53 2740 8ce3 50c1
00000150: f651 1841 aef4 8841 cfd1 2dc0 23b7 df41
00000160: 331c 1a41 8b56 c4c1 7aca 2d3f beef 5640
00000170: 2756 09c2 f919 efc0 f7cd 0441 3706 a241
00000180: bb40 d1c1 c9fb 0840 dec4 9d41 e3c6 773f
00000190: 41b8 88c0 684c 61c2 3e70 56c1 1aa3 45c1
000001a0: 3106 cfc1 4bd6 b1c1 c970 ffc1 5e83 2cc2
000001b0: 2d2a 9d41 4dda 58c2 4bb1 0041 34b8 2241
000001c0: 93ad 1a41 4d96 d0c0 b5d8 1cc0 ec50 11c2
000001d0: afed 28c1 cd9d 79c1 289f fcc0 80d0 30c1
000001e0: fa1d 50c1 bdfd e4c1 de80 3f3d c691 35c2
000001f0: 28d5 0140 0bc2 c4c1 d112 3ac1 0bb9 27c0
00000200: d8d5 c341 91c9 cfc1 995f 8dbf 00ba 1fc2
00000210: 6562 5041 7e78 c841 eecc dc40 9f73 cc41
00000220: 3e38 68c2 8213 39c1 43c2 3641 c1b5 0ac1
00000230: 1d5d 08c2 b499 a9c1 3cac 6cc1 1b19 9641
00000240: f035 98c1 234e 39c2 c669 0442 1733 4a40
00000250: da45 f841 22ac 9640 3b8a 45be 15d8 6a41
00000260: a10b a540 f829 5dc1 7b34 8c41 9f18 f63f
00000270: 3ee6 79c1 946a 41c1 603c 4340 b1fe bdc1
00000280: 3551 7bc1 3e64 dcc1 e94d ae41 594c 8e41
00000290: fb53 99c1 3408 89c1 a4e9 b4c0 4f89 4841
000002a0: dbf3 6cc1 c4c4 6a41 f674 89c1 c457 b7c0
000002b0: 1b28 13c1 b5cb c241 37e6 3bc2 2754 c140
000002c0: 57df dac1 adf1 9c41 890e 8a40 ffac 1741
000002d0: 9377 0541 a131 4c42 a13e 56c1 7f2e a340
000002e0: 079e 3041 990c 25c2 1adb 3cc0 832f 7f40
000002f0: fb69 01c2 acf4 0f42 e30e ac41 3f97 8f41
00000300: f421 c041 da6a eabf fcf1 5241 796b e640
00000310: e951 a941 d343 3e41 c469 9d41 78c6 8a41
00000320: 9ac2 1ec1 d1ff e9c1 a0d1 cdc1 4d57 dbc0
00000330: e1a5 60c1 c08e a4c1 e996 cbc1 8b85 cec1
00000340: bb90 bdc1 3adf 01c1 8c8f 00c2 4999 acbf
00000350: 6be1 35c1 6d7b 9bc1 00e3 f8c1 f072 42c1
00000360: 1ebb 43c1 792d ebbf 90ad 87c1 000b 2bc1
00000370: dbd2 48c0 62ec 6c40 874b bbc1 b3ce 45c1
00000380: 9348 8dc1 e802 60c1 c68b 8fbe 95da 1ec2
00000390: 9f74 f3c1 3066 b9c1 0e0f 8941 7c73 1f41
000003a0: 4186 8841 b8d1 71c1 c4e9 8141 e9a3 f1c0
000003b0: 424c 76c1 3ed5 bf41 e662 a7be 8146 fe3f
000003c0: 9b5e 2fc0 919b 4fc1 b7bb e2c0 9d60 1941
000003d0: ba77 09c2 5b9d cdc1 0309 fc41 c7c6 0ec2
000003e0: 636d 1242 6bfd 0142 f77c c841 a7f2 a4bf
000003f0: 8532 a3c1 331f 39c2 0016 24c0 3283 fe40
11.47535 -13.614462 -26.850739 -6.0671525 -40.293255 18.86975 3.7193704 15.06638
5.8083634 -10.482658 17.533201 19.674887 -5.0460277 -0.4748185 -28.934307 -1.699631
15.702089 -13.317622 -17.673206 -10.840186 -13.803053 8.220142 3.6109219 7.3152933
-2.593199 -9.200392 6.2451777 -10.318695 31.318792 43.190773 5.5662007 3.1976295
-7.552598 4.832009 -9.685897 -5.2398257 25.392103 14.72583 -26.502123 14.23911
-9.264893 -1.6240497 -12.759165 -8.933675 0.884123 29.885046 17.457159 -2.2102315
-4.4565372 -27.263147 13.110207 -2.943603 4.662736 -31.47568 5.926065 9.217101
-24.098532 -12.825574 15.807948 9.030605 -19.58204 2.8417473 0.8307357 -15.81977
-15.336092 -28.403988 -26.368439 -15.50416 6.839483 3.4827054 -8.387634 16.08592
26.185648 18.43301 -4.0874577 9.257835 2.4848416 -25.34212 28.854548 10.435543
13.020309 0.46596232 2.614474 -13.055553 9.52001 17.119473 -2.7159307 27.964422
9.631885 -24.542257 0.6788708 3.3583827 -34.334133 -7.4719205 8.300284 20.253035
-26.156607 2.1403677 19.721127 0.9678785 -4.272492 -56.324615 -13.402403 -12.35232
-25.878023 -22.229635 -31.93007 -43.12829 19.645594 -54.213184 8.043284 10.169971
9.6673765 -6.5183473 -2.4507267 -36.329025 -10.558028 -15.601026 -7.8944283 -11.050903
-13.0073185 -28.623896 0.046753757 -45.392357 2.028635 -24.594748 -11.629594 -2.6206691
24.479416 -25.973421 -1.1044799 -39.93164 13.024022 25.058834 6.900016 25.556456
-58.054924 -11.567263 11.422427 -8.6693735 -34.09093 -21.20005 -14.792049 18.762259
-19.026337 -46.326305 33.103294 3.1593683 31.034107 4.7085123 -0.19291012 14.677754
5.1576695 -13.822746 17.525625 1.9226264 -15.618711 -12.08852 3.05056 -23.749361
-15.707326 -27.548946 21.788042 17.78728 -19.166006 -17.129005 -5.6535206 12.533523
-14.809535 14.6730385 -17.18211 -5.7294636 -9.197291 24.349466 -46.97482 6.0415225
-27.359053 19.618006 4.3142743 9.479735 8.341693 51.048466 -13.39029 5.099426
11.038581 -41.262302 -2.950873 3.987275 -32.353497 35.988937 21.507269 17.94885
24.016579 -1.8313859 13.184078 7.200619 21.164995 11.891559 19.676643 17.346909
-9.92251 -29.24991 -25.727356 -6.854407 -14.040498 -20.569702 -25.448687 -25.815207
-23.69567 -8.116999 -32.140182 -1.3484279 -11.367534 -19.435266 -31.11084 -12.153061
-12.233183 -1.8373252 -16.959747 -10.690186 -3.1378696 3.7019277 -23.411879 -12.362964
-17.660437 -14.00071 -0.28036326 -39.71346 -30.431944 -23.174896 17.13235 9.965694
17.065554 -15.113701 16.239143 -7.5512586 -15.393618 23.979122 -0.3269264 1.9865266
-2.7401493 -12.97548 -7.0854144 9.586087 -34.36692 -25.701834 31.5044 -35.69412
36.606823 32.49748 25.061018 -1.2886552 -20.399668 -46.280468 -2.5638428 7.953515

l2/b f4 [256]
00000000: ee01 8041 8a31 6b41 d4bc 1941 5a37 bf41
00000010: a005 3141 214b ac41 fe14 863e e40a 3ec0
00000020: af44 7441 1807 74c0 3e1d bf3e fba3 1941
00000030: e92c efbf e6f5 5fc0 658b 8f40 1df0 86bd
00000040: 87ae 21bd 710e 7841 1f7d 5241 1b10 5dc1
00000050: 6024 f040 8a64 fc41 6e91 8641 bc6a 9fbf
00000060: b655 f13f 0f02 3fc0 2e92 a240 bc51 aa40
00000070: 29cc 4e41 41b5 4ec0 a2c6 bf41 e4d3 6541
00000080: b4f2 ab41 1953 8641 55fd 6a41 ba08 2e3f
00000090: b593 6ec1 3475 5341 3adb 84c0 7936 7841
000000a0: 58b3 0e41 fca6 7241 858d 9041 def5 80c0
000000b0: 683a 5b41 21e0 a241 7804 83c1 bf81 7841
000000c0: e016 2bc1 8eb0 06c1 9791 0542 473f a5c1
000000d0: c83f 9141 7a00 9841 f029 8741 5c39 7bc1
000000e0: 3333 4ac0 fc28 5e41 adfd 7540 486c 06bf
000000f0: 792b 3a41 8123 c7c0 8865 dbc0 9810 77c0
00000100: 86ff 8440 01b4 05c1 df2e 3c40 1b7e bc41
00000110: b16e c2c0 f41a 04c1 5f94 c640 b37a ea40
00000120: 25ad 9f40 e5b4 27c1 e649 2fc1 6471 8c41
00000130: 8bf4 00c1 fbf5 3fc1 ea8b 6f41 3710 2641
00000140: 1146 cb41 5782 9841 fd2c 9641 bc23 8641
00000150: fe74 7c41 7f8a 0fc1 dc08 d93f 520d 32c1
00000160: c02a 82c1 ac12 a5c0 0048 12c0 9139 df40
00000170: 960f 4dc1 cc96 a341 b59a 6ebf f791 29c1
00000180: 00fe 21c1 089d 863f 8a01 c240 dadf 05bf
00000190: 862a b441 d551 773e d915 3241 5d3a 2f41
000001a0: d4f9 cabf 7abd 5741 0f3a f7c0 82be a1bf
000001b0: 4b41 da41 0cd1 a541 75ef 4840 9159 b041
000001c0: 43ea b041 e641 9641 ebe8 0bc1 388f 9641
000001d0: 110e 8541 6f5c a441 2757 5940 883c ab41
000001e0: 90f2 7741 ce78 a841 062b e040 931e 5341
000001f0: c1ff 7441 5490 9341 316f 9c41 323d 7741
00000200: ff95 8c3f 1490 3f41 9e7f 69c1 8383 7841
00000210: 843e 9741 a9e4 b841 83d4 f740 d7c3 2bbf
00000220: 487f cf41 a607 9b41 d94a 94c0 ffe1 a841
00000230: 173e f640 0dd3 2cc1 ee53 9d41 21bf 8441
00000240: 0e6e 9b41 177f 63c1 5207 64c1 7ca7 0341
00000250: 2677 8541 5c38 1ac0 68e9 a841 a4a1 56c1
00000260: b860 5141 3a47 79c0 be16 0841 08cd cfc0
00000270: 5a15 5241 532a 8441 4008 c041 b311 6ec1
00000280: 89d3 8241 8134 1441 d405 65c1 9741 2640
00000290: f0bc 8041 9dc2 51c1 1cae 63c1 ed99 8741
000002a0: 9978 ba41 9a53 71c0 398f 9c41 0a39 7541
000002b0: 5155 3141 b2e3 533f fd08 b4c1 0aa7 533f
000002c0: bd5a 0a40 227c 8141 12aa 8abf 5754 6241
000002d0: ffe9 4341 4db3 7441 c29d 9ebf f156 7440
000002e0: b8f4 6141 8a7e 7141 72a7 883f 814e 6341
000002f0: 6e24 4641 91ae 5441 8946 3e41 631b ba3f
00000300: 0a2f dcbf 8d8f 4d41 20f8 9641 bdd1 9841
00000310: 1279 9abe e392 7a41 fbf5 f8c0 bd98 3b41
00000320: 64b1 9a41 701b b8bf 4bda 9d41 403c 8c41
00000330: 35e1 a941 06ef cc41 ea09 54c1 9807 6840
00000340: 2078 7fc0 9db6 e741 6ca1 9b41 a697 6340
00000350: aeec 7041 dca6 3f41 952d 9841 10d1 7941
00000360: 1dfa 00c0 d1a9 ab41 b6cc 6141 1fd2 1e41
00000370: 9e69 9441 3782 8241 9e42 7141 ae5a a241
00000380: 0551 9241 f705 6941 e652 80c0 0074 2c41
00000390: 89cb 7ec1 07d4 c741 0939 8c41 10eb a741
000003a0: af28 c8c0 a6f6 5dbf 89bd 91c0 8e3f 093f
000003b0: eb29 a241 0355 06c0 c8bc 4741 9554 61c1
000003c0: 1ecc 1cc1 cbf8 3cc1 97e8 7e41 bfd3 ef41
000003d0: ec39 193e 8bef 9ec0 1779 df40 bbf7 07bf
000003e0: c3d8 a941 8c07 8e41 bca5 d041 34ed 9941
000003f0: bfc4 8041 1ec8 7e41 8810 a641 efce 9b40
16.000942 14.6995945 9.608601 23.902027 11.063873 21.536684 0.2618789 -2.9694147
15.266768 -3.812933 0.37326998 9.602534 -1.868558 -3.4993834 4.485766 -0.06588767
-0.039473083 15.503526 13.155547 -13.816432 7.5044403 31.549091 16.82101 -1.2454448
1.8854282 -2.9845006 5.080344 5.3224773 12.924844 -3.2298129 23.971989 14.364231
21.493507 16.790575 14.686849 0.67982066 -14.911061 13.216114 -4.151761 15.513299
8.918785 15.165768 18.069101 -4.030013 13.701759 20.359438 -16.377182 15.531676
-10.693085 -8.418104 33.392178 -20.655897 18.156143 19.000233 16.895477 -15.701504
-3.159375 13.885006 3.8436081 -0.52508974 11.635613 -6.223084 -6.856144 -3.8603878
4.156192 -8.356446 2.9403608 23.561575 -6.076012 -8.25658 6.2056117 7.327478
4.989886 -10.481664 -10.955542 17.555367 -8.059703 -11.997554 14.971659 10.378959
25.409212 19.063643 18.771967 16.767448 15.778563 -8.9713125 1.6955829 -11.128252
-16.270874 -5.1585293 -2.2856445 6.975777 -12.816305 20.448631 -0.93204814 -10.598136
-10.124512 1.0516672 6.062688 -0.52294695 22.520763 0.2415231 11.130334 10.951749
-1.5857491 13.483759 -7.725837 -1.2636263 27.281881 20.727074 3.1396153 22.043734
22.114386 18.782177 -8.744365 18.819931 16.631868 20.545134 3.3959444 21.404556
15.496719 21.058987 7.005252 13.194964 15.31244 18.445473 19.554293 15.45244
1.0983275 11.972675 -14.593657 15.532107 18.905525 23.11165 7.7446914 -0.670957
25.93715 19.378735 -4.6341367 21.11035 7.6950793 -10.801526 19.665981 16.593325
19.428738 -14.218528 -14.251787 8.22839 16.683178 -2.40969 21.113968 -13.414463
13.086113 -3.8949723 8.505552 -6.493778 13.130213 16.520666 24.004028 -14.879321
16.353289 9.262818 -14.313923 2.5977533 16.092255 -13.110013 -14.230007 16.95016
23.308886 -3.7707276 19.569933 15.326426 11.083329 0.8276931 -22.504389 0.82676756
2.1617882 16.185612 -1.0833151 14.145591 12.244628 15.293775 -1.2391894 3.8178065
14.122246 15.093393 1.06761 14.206666 12.383894 13.292619 11.8922205 1.4539608
-1.7201855 12.847547 18.871155 19.102411 -0.30170494 15.660861 -7.780027 11.72479
19.336617 -1.4383373 19.731588 17.529419 21.234964 25.61671 -13.25242 3.6254635
-3.9917068 28.964167 19.45382 3.556131 15.057783 11.978237 19.022257 15.613541
-2.0152657 21.457918 14.112478 9.926299 18.55157 16.313581 15.078764 20.294277
18.28956 14.563956 -4.0101194 10.77832 -15.924691 24.978529 17.52785 20.989777
-6.2549663 -0.8670448 -4.5543866 0.536126 20.270468 -2.0989387 12.483589 -14.08315
-9.799833 -11.81074 15.931785 29.978392 0.14963502 -4.966741 6.9835315 -0.5311238
21.23084 17.753685 26.080925 19.240822 16.096067 15.923857 20.758072 4.8690104

l1/W f4 [256, 64]
00000000: 94ea 6942 44c1 3bc1 6fe2 7ec0 6ccc 1441
00000010: d92e f940 a5e6 5741 6721 2641 f3e4 2241
00000020: 69be aac1 b361 9541 2f2f e2c1 9070 a541
00000030: 4236 14c2 4ba3 b740 7c5b 5f40 449a 00c2
00000040: dcea 47bf 197a a241 b9bc 8e40 c34a fec0
00000050: 1a80 8a41 c9cc 85c0 69ca fe41 55e4 8940
00000060: dcb3 5641 ad11 15c1 4a15 9341 3aeb a5c1
00000070: 65e8 7ec1 b263 9b41 efef 1141 b2e4 0c41
00000080: b858 ff3d fb69 2141 e95f d040 539e 9bc1
00000090: 3e0b 91bc c02f 38c1 e39f abc0 4df1 8141
000000a0: afdf 3741 5ad3 8241 5d62 6ac1 0828 d241
000000b0: 742f b43f 6aca d9bd 1639 3141 4400 a1c1
000000c0: b4be 6240 ea9d 5241 1116 c0c0 ff3c fdc0
000000d0: 0611 0341 3fac 7240 7c96 c3c0 5d82 1a42
000000e0: 0642 d741 c974 0cc1 4054 2fc1 a461 83c1
000000f0: b40c 4341 4af8 4cc1 99dd cbc0 6baa dfc1
00000100: fa27 a941 d4ca ef3e 8ef9 1c42 afbe 33c1
00000110: 37be 9fc0 1d00 48c2 a902 c341 a36d 8641
00000120: 62fd 12c1 64ea ed3f 75a3 c941 ed67 59c1
00000130: 9fc6 06c1 dc70 01c2 32b3 1c41 3457 a4c1
00000140: 0601 c741 0683 d0c1 05c1 d240 b6ae cdc0
00000150: 196c 4041 6d60 64bf 6064 6f41 fe63 2fc2
00000160: dd18 0141 6fa5 afc0 5882 d53d bef3 c1c0
00000170: 2c85 0cc0 2c6a 12c1 268a 1cc1 406a c6c1
00000180: 436d 82c0 4de2 a1c1 1ff7 7941 f023 0ebe
00000190: 96d9 8340 568d c1c0 4213 d941 fcfe ebc0
000001a0: 3b99 fac0 c02a ddc1 091f b941 d43d 0241
000001b0: 8b8a 96c0 b911 8841 eaa7 1d42 d69d 92c1
000001c0: 51c7 b2c1 a8a7 83c1 adb3 efc0 6476 3ac2
000001d0: 6a6e d940 8e91 5641 506f ad40 59c7 afbf
000001e0: a7d4 9ec1 b08c a4c1 43a4 1fc2 57b2 0fc1
000001f0: defd 2142 8166 9741 371f ccc0 805d 2340
00000200: 20c4 c341 0a1d b241 8354 afc0 e021 9b41
00000210: d925 94bf 205c 5841 8abb 2fc1 0b6d a541
00000220: b2a7 9341 20d8 be40 a719 c5c1 32de a640
00000230: 1eee 8241 a22f d141 b33c 9741 8a82 cf40
00000240: a6d1 48c1 1ce8 c541 a7ed 97c1 3003 4441
00000250: d249 f6bf 8b7f 4641 67d5 c241 3805 b1c0
00000260: f274 6842 0691 d7c1 bb64 6e41 346c f740
00000270: 17c8 0040 7d76 2e41 b2ad ba40 a8a3 3ec0
00000280: 8165 39c1 3af9 a641 dc45 34c2 0cc9 8d40
00000290: 0a2d e43f 8beb 9a41 8769 f8c0 558f eac1
000002a0: 463e dcc1 d312 58c1 f971 8ec0 57f7 a8c0
000002b0: 2f78 e840 1783 6040 ef87 04c1 77c4 b8c1
000002c0: b391 aec1 7798 dcc1 ea48 ffc0 f4f6 c540
000002d0: 3a59 a141 e9b1 17c1 5e89 5941 f02a 05c2
000002e0: 75ef 9741 c17c ba41 7272 9cc1 adae 0642
000002f0: eae5 bcbe 44c8 18c0 5365 1c41 8db3 6b41
00000300: dc8d 07c2 23be ea41 f037 89c1 fc6d 5abf
00000310: 8e05 8b3f 7a65 a541 109a a741 912b 22c2
00000320: 103e a340 7081 86c2 d5a0 7ac1 250c 3a3f
00000330: 0a48 b4c1 99bf ba41 e4f6 1441 fc79 1cc1
00000340: f186 a5c1 1ab0 dfc1 1097 3d40 2929 79c0
00000350: 1625 0642 6a46 9ac0 a956 2e41 8a6f 29c1
00000360: bc65 c440 1494 96c0 be41 2741 f75b b9c0
00000370: 47bd c6c0 ca0a 3341 abb9 3d40 38e5 48c1
00000380: 453a a3c1 fbf1 fc41 df62 8c41 a91c a93f
00000390: b3a1 01c0 cf9c f3bf c3e6 48c1 9196 ac40
000003a0: 1343 0e41 4458 0cc2 bbe6 b5c1 7081 54c1
000003b0: 0b6f 3b3d 00ef bc41 ad28 ca41 812e 1ec2
000003c0: 9c36 bac1 977e 96c1 7ee1 93c0 cfaa 2dc2
000003d0: cdde 1fc1 eb16 1b42 9632 1542 1921 0fc2
000003e0: 00e3 57c2 b082 4041 5766 9ac2 c23f 2c41
000003f0: 9e59 31c2 38e5 eebf e691 1342 b2f9 45c1
58.47908 -11.734684 -3.9825704 9.299908 7.7869687 13.49381 10.383155 10.180896
-21.342974 18.672705 -28.273039 20.679962 -37.052986 5.738683 3.4899588 -32.15065
-0.7809274 20.309618 4.4605374 -7.946626 17.31255 -4.181248 31.848833 4.3091226
13.418911 -9.316815 18.385395 -20.739857 -15.931737 19.42368 9.121078 8.805834
0.12468094 10.088374 6.511708 -19.452307 -0.017705556 -11.511658 -5.3632674 16.242823
11.49211 16.353199 -14.649014 26.269547 1.4076982 -0.106343105 11.076437 -20.12513
3.5428896 13.163553 -6.0026937 -7.913696 8.191656 3.791763 -6.1121197 38.627308
26.907238 -8.778512 -10.958069 -16.422676 12.190601 -12.810617 -6.3708005 -27.958212
21.14452 0.46834433 39.243706 -11.234054 -4.9919696 -50.00011 24.376299 16.803534
-9.186861 1.8587155 25.204813 -13.5878725 -8.4234915 -32.360214 9.793749 -20.54258
24.8755 -26.063976 6.586062 -6.427577 12.026391 -0.89209634 14.962006 -43.84765
8.06857 -5.4889445 0.10425252 -6.0610037 -2.1956282 -9.150921 -9.783728 -24.80188
-4.0758376 -20.235498 15.622832 -0.13880897 4.120311 -6.048503 27.134403 -7.374876
-7.831205 -27.645874 23.140154 8.140095 -4.704412 17.008654 39.41398 -18.327068
-22.347322 -16.456863 -7.490683 -46.615616 6.7947283 13.410536 5.419838 -1.3732711
-19.853834 -20.568695 -39.91041 -8.98104 40.497917 18.92505 -6.3788104 2.5525818
24.470764 22.26418 -5.4790664 19.39154 -1.157405 13.522491 -10.983286 20.678244
18.456882 5.9638824 -24.637526 5.2146235 16.366268 26.148258 18.904638 6.484685
-12.551184 24.738335 -18.991041 12.250778 -1.9241278 12.406138 24.3542 -5.531887
58.114204 -26.945812 14.899592 7.7319584 2.0122125 10.903928 5.833703 -2.9787388
-11.587281 20.871693 -45.068222 4.430792 1.7826245 19.365011 -7.7628818 -29.319986
-27.530407 -13.504596 -4.4514127 -5.280193 7.264671 3.508001 -8.283187 -23.09593
-21.821142 -27.574446 -7.9776506 6.1863956 20.168568 -9.480935 13.596037 -33.29193
18.991922 23.310915 -19.555882 33.67058 -0.3689416 -2.3872232 9.774737 14.731336
-33.888535 29.34284 -17.152313 -0.8532407 1.086107 20.67455 20.950226 -40.542545
5.101326 -67.25281 -15.664266 0.7267478 -22.535175 23.343554 9.310276 -9.779781
-20.69089 -27.960987 2.9623451 -3.8931372 33.536217 -4.8210955 10.896157 -10.589731
6.1374187 -4.705576 10.45355 -5.792476 -6.210605 11.190134 2.9644573 -12.555962
-20.403452 31.618155 17.548277 1.3211871 -2.0254943 -1.9032229 -12.556338 5.3933797
8.891376 -35.086197 -22.737661 -13.281601 0.045760196 23.6167 25.269861 -39.545414
-23.276665 -18.811811 -4.621276 -43.416805 -9.991895 38.77238 37.2994 -35.782322
-53.97168 12.031906 -77.19988 10.765566 -44.337517 -1.8663702 36.89248 -12.373461

l1/b f4 [256]
00000000: 9f58 afc1 6da5 3740 78a1 1041 c95a 0b40
00000010: dfa3 44c0 5cdc 0741 2596 01c1 6be1 0d40
00000020: 2c75 2fbf 01c4 c23f 60d2 19c2 5536 5841
00000030: 19ff 37c0 e2b5 00c1 551c b840 3dc9 e13f
00000040: 596d 0841 82fc 1b41 93c3 1e41 de2f 9140
00000050: 40d0 5c41 ae78 a93f 9cc2 9e40 a420 4a41
00000060: e0a0 9ac0 1133 33c2 37ec b040 e9b1 2c40
00000070: b18a 2141 ab53 7940 f79c d740 5131 fb3f
00000080: e1bc f240 a281 2041 ef61 10c2 82d2 1e41
00000090: 5e0f fb41 8af3 2441 559a b940 5c1f 9741
000000a0: 07de 1b41 ead4 b9c1 9ae3 70c1 86a7 8fc1
000000b0: 6546 20c1 3a7a 7241 eba7 40c1 f28f 98c0
000000c0: 3b5c 5ec1 9e50 3341 2593 a1c1 01c3 8e41
000000d0: 337a 3841 14fb d9c0 860d d540 9810 e340
000000e0: c128 71c1 adb4 23c1 a69d 8d41 bd25 e340
000000f0: 5c14 7941 1b43 afbf 6459 9941 10f5 b3c1
00000100: c7c1 f83f 9a34 5a41 d558 a1c1 3468 cdbe
00000110: 2c89 96bf df4a ccc0 412d d03e baf3 c2c0
00000120: da78 5041 a5e7 5e40 9080 efbf 2a5d 94c1
00000130: 2575 8e41 623d 1bc1 9c1e 3ec0 eb10 e641
00000140: a3f7 47c0 878a 27c2 4393 06c1 6ebe f340
00000150: 02f6 4841 cfb9 1240 5159 903f 3b4a 4ec0
00000160: 8e0a 6241 b7ee 3741 94d5 f9be bd0f c73f
00000170: 0cc3 a541 cffe bfc0 bef2 3ebd 8da5 edc0
00000180: 883d 30c2 2f9b 13c2 2127 c840 6eef 4cc1
00000190: a282 d340 d2d0 3441 57e8 a340 0649 23bf
000001a0: 85fc 0a41 ef80 2ebf 4b03 5fc0 45ba dec0
000001b0: 9c4c 9cc1 cc72 a141 2aa9 c1c0 7c47 f6be
000001c0: 5456 a541 acd7 5c41 e339 b6c0 cfd8 8a40
000001d0: e836 4c40 fdd4 2c3f a1a9 f33f 6544 c83f
000001e0: 220b 8141 2833 9dc1 4dde 9ec1 8db6 3740
000001f0: 2dfd b5bf 804d 8abf a7ea 65c0 2ee0 d0c0
00000200: 93bc 0fc2 8d03 d4c0 aa31 9841 7511 1ec1
00000210: 881e 9e41 2748 2741 1e7b c0c0 1079 7ebe
00000220: a8a9 b9c1 7200 3fc1 90d9 d1c0 011f 27c1
00000230: 5533 03c2 14db a6bf 6a1b 8641 c9eb 86c1
00000240: 7f21 21c0 a614 1241 7c62 3f41 20fc 38be
00000250: a8a8 1d40 34af e1c1 1b8a 92c1 d998 b640
00000260: 0027 f641 11b5 87c1 a3b3 27c1 bfd4 3541
00000270: 779f 88c1 499b 0740 5a5e 41c2 d7e6 5f41
00000280: 0e3a 8a40 f2ec 1ec0 1dbd 72c0 ce74 3141
00000290: 3906 d740 4358 0bc2 cf9e 6d41 5dbf 55c1
000002a0: 64e3 89c0 1eb3 2bc2 45ca 51c1 4a80 35c1
000002b0: 8305 7c3f 9176 0841 ad53 9841 18c2 29c1
000002c0: 06ec 8c40 0ed8 07be 3c95 20c1 4939 5b40
000002d0: c3d7 9d40 9396 eebf d4fc b740 2adb 7bc0
000002e0: 3bb4 3440 7415 9040 2269 9bc1 633c 6841
000002f0: 1b34 a33f 1ea0 1b40 ab43 8ebf 0e1f ff40
00000300: a4c7 b340 bbda 73c0 14b9 77c1 4ea6 5041
00000310: bddb 8a41 032a 3ec1 cdb5 bb40 ab4e fb40
00000320: f280 55c1 c498 8240 bff6 a9c0 772a 9740
00000330: a406 b140 c99c 43c1 8aa1 d3c0 29da e0c1
00000340: 5d36 c440 ba73 0fbf f000 34c2 0a0b 5dbf
00000350: 74f8 a2c0 caff 2341 cfd2 24c1 2270 1640
00000360: 864c 333f cebf dbc1 227a 12c1 11b4 76c1
00000370: ff78 c9c1 3996 9e41 9550 1540 c201 63c2
00000380: b78c 8041 9748 b640 089c 653e 5110 d8be
00000390: 15ea 9fbf d13a ab41 997f 2441 826f 14c1
000003a0: 2a4c 0941 9033 07c1 e784 6941 91c7 51c1
000003b0: 9ede 87bf 58ff 82bf 41ab 1fc2 05be e340
000003c0: 5368 eb3f c888 bdc1 3465 aec1 f024 12c1
000003d0: 4019 49c2 6d20 70c2 407c aac0 6e03 bcc1
000003e0: 91f8 fd40 c152 0841 faac 11c1 cd49 67c0
000003f0: 056f a9c1 79c9 5941 8394 7fc0 ce46 b6c1
-21.918272 2.8694718 9.039421 2.177416 -3.072502 8.491299 -8.099156 2.2168834
-0.68538165 1.5216066 -38.455444 13.513265 -2.874945 -8.044405 5.7534585 1.7639538
8.526696 9.749147 9.922748 4.537093 13.800842 1.3239954 4.961256 12.632969
-4.832138 -44.79987 5.528835 2.6983588 10.09636 3.8957317 6.7379107 1.9624425
7.5855565 10.031649 -36.09564 9.9263935 31.382504 10.309458 5.8000894 18.890312
9.741706 -23.228962 -15.055567 -17.956799 -10.017186 15.15484 -12.040996 -4.7675714
-13.897517 11.207182 -20.196848 17.845217 11.529834 -6.811899 6.657901 7.0957756
-15.07245 -10.23161 17.701977 7.0983567 15.567471 -1.3692354 19.168648 -22.49466
1.9434136 13.637842 -20.168375 -0.40118563 -1.1760612 -6.3841395 0.40659526 -6.092252
13.029505 3.4828885 -1.8711109 -18.54549 17.8072 -9.702486 -2.9706182 28.75826
-3.1244895 -41.88528 -8.410953 7.616996 12.5600605 2.2925909 1.1277257 -3.2232807
14.127577 11.49578 -0.4879576 1.5551678 20.720238 -5.9998546 -0.046618216 -7.426459
-44.06009 -36.901546 6.2547765 -12.8084545 6.6096964 11.3009815 5.122112 -0.637833
8.68665 -0.6816549 -3.484576 -6.960238 -19.537407 20.181053 -6.0519 -0.48101413
20.667152 13.802654 -5.6945662 4.338966 3.1908512 0.67512494 1.9036142 1.5645872
16.130436 -19.649979 -19.858545 2.870517 -1.4217888 -1.0804901 -3.592447 -6.5273657
-35.934155 -6.6254334 19.02425 -9.879262 19.764908 10.455115 -6.015029 -0.24850869
-23.20784 -11.937609 -6.557808 -10.445069 -32.80013 -1.3035607 16.763386 -16.86513
-2.5176694 9.130041 11.961544 -0.18064928 2.463419 -28.210548 -18.317434 5.706158
30.769043 -16.963411 -10.481357 11.36444 -17.077864 2.1188529 -48.34214 13.993857
4.3195868 -2.483212 -3.7927926 11.091017 6.7195096 -34.836193 14.851272 -13.35922
-4.3090076 -42.92492 -13.111882 -11.343821 0.9844591 8.528947 19.040857 -10.609886
4.4038115 -0.13266012 -10.036434 3.4253714 4.932588 -1.8639702 5.749613 -3.9352517
2.8235004 4.502619 -19.426334 14.514743 1.2750276 2.4316478 -1.1114401 7.972541
5.61812 -3.8102252 -15.482685 13.040602 17.357294 -11.885257 5.8659425 7.853353
-13.343981 4.081148 -5.3113704 4.7239337 5.5320606 -12.225778 -6.613469 -28.106524
6.131636 -0.5603596 -45.000916 -0.8634497 -5.0928288 10.2499485 -10.301467 2.350594
0.7003864 -27.468655 -9.154818 -15.418962 -25.18408 19.82335 2.3330433 -56.751717
16.068708 5.696361 0.22422802 -0.42199948 -1.2493311 21.403719 10.281152 -9.277224
8.581095 -8.4500885 14.594947 -13.111222 -1.0614812 -1.0234175 -39.91724 7.1169457
1.8391212 -23.691788 -21.799416 -9.134018 -50.27466 -60.031666 -5.327667 -23.501675
7.9365926 8.520204 -9.104731 -3.6138794 -21.179209 13.611688 -3.9934394 -22.784573

l4/W f4 [64, 256]
00000000: ad8d 5b42 9d69 5142 df93 4242 cb49 b542
00000010: da81 1742 c708 5d42 840f 7442 185e 5142
00000020: 9d3f 4842 9129 6e42 c9cd 5942 6318 6342
00000030: 2f8c 6942 3d94 7542 4cb3 5742 b4fc 4442
00000040: 22af 5e42 ceca 4942 221c 4c42 e146 6c42
00000050: 98c6 5642 d629 3942 0e89 5942 d786 1342
00000060: 6006 5442 c4f5 4142 6f6f 6a42 8342 8242
00000070: a627 7c42 7855 5142 aee6 a942 74ec 6642
00000080: 55fe 5e42 96d5 5142 3772 6a42 a075 0040
00000090: aee4 5942 ffd6 3042 3ef8 7642 ed6a 4742
000000a0: 5568 2242 8642 3d42 33cb 8342 c339 5742
000000b0: f1ab 7e42 e260 3742 1af8 1042 e692 4642
000000c0: e23e 6342 95ce b642 6ade 4e42 8aa6 8a42
000000d0: cb40 4e42 a689 5542 71bf 8042 e78f b942
000000e0: 294b 4542 b13b a642 b6e2 7842 5b59 7342
000000f0: 7482 2b42 ff49 a042 8719 6042 e9ff 4642
00000100: d417 4a42 3e70 a942 1f5f 9e42 8388 3b42
00000110: 5c69 1942 bef3 4342 7e6c 6e42 94d9 4442
00000120: 680a 5342 e42b 5542 2acf 3c42 7244 4342
00000130: 207b 5742 8d34 4042 6c78 4e42 731b 6542
00000140: d02f 4042 3812 6242 1866 7942 7eb5 7642
00000150: 91bd 4d42 5343 2c42 effc 7242 333d 5e42
00000160: 45cd a442 f6fa b342 a901 6442 a1c9 2542
00000170: e076 7242 b8db 5942 b5d6 6a42 20f6 2342
00000180: c316 5d42 15a5 6442 868c 4242 c038 0942
00000190: d83d 6442 76e1 4842 8c61 5b42 f778 7e42
000001a0: cad6 4c42 ec3d 4742 4897 5b42 14c2 3342
000001b0: c7c0 8942 7361 6442 46ce 6042 9507 5f42
000001c0: 3822 2a42 62d2 0c42 97f1 0a42 6a9a 1942
000001d0: 0b07 5442 f860 4342 cdd7 7142 ce26 5d42
000001e0: f908 2842 167c 4342 3d17 5f42 a5e2 3c42
000001f0: ad44 6342 7706 6a42 1b09 6342 1c7e 5b42
00000200: 421b 5c42 a801 2c42 ee79 4942 0ea0 7842
00000210: c886 4142 4acc e141 2bd0 b641 e6e6 f141
00000220: 8e52 4b41 8f90 7842 48e4 4342 c257 4742
00000230: 00cb 4f42 45fd 6d42 b483 5d42 85b0 4942
00000240: 1399 2242 df47 1e42 fb14 4e42 1a15 4242
00000250: 4e4b 4842 f90b 6642 3592 1e42 af08 7342
00000260: 5fe2 7542 b54a 7342 fd66 9641 731e 4c42
00000270: 1cc0 4e42 1d78 6542 6590 3942 41e0 4b42
00000280: 3804 1042 85a6 2d42 9193 3e42 a28b 7b42
00000290: a348 2342 354f 5c42 315f 5742 e1f5 2442
000002a0: 039e 7f42 1180 9a42 a9b6 5542 7b06 4b42
000002b0: 5117 8842 5c39 7042 a5c5 3e42 224c 8042
000002c0: ae18 4f42 efea 4c42 ed00 3d42 e361 2642
000002d0: d18c 8042 e47e 6b42 5ecc de41 78be 6842
000002e0: 51ff 5742 a347 3d42 61fc 5e42 a675 4542
000002f0: cb3c 5a42 1b95 6842 d53e 5f42 03be 5342
00000300: 52ac 1a42 c1e7 5642 2ed3 2042 8bcc 7a42
00000310: aa37 4d42 908b 4b42 e237 5e42 c231 5c42
00000320: c7cc 2942 dbf3 5942 0694 6042 55e4 2342
00000330: 4d30 7642 fe76 8b42 fee5 6442 98da 3742
00000340: 82b0 6642 3a25 6942 48c2 0542 760f 1342
00000350: 2748 5142 543d 4442 2fe2 4142 66c5 4242
00000360: 450c 6542 eecf 5d42 4eac 5442 883a 5d42
00000370: 3071 d941 a05f 5942 cd63 6542 fbd3 6242
00000380: 9268 5442 2497 3742 9d32 5742 c938 5942
00000390: 4024 6942 dcb8 1542 3c39 5742 cac8 3142
000003a0: 35e6 6842 32eb 4742 8b37 5442 05cd 2142
000003b0: c45f 2f42 545d 4b42 34f7 5e42 4b34 be42
000003c0: e1e5 7942 7a02 4a42 d64c 6242 f6a8 6242
000003d0: 21f8 6c42 ef26 3342 a7c3 6642 50cf 3342
000003e0: 9997 1442 2f3d 7542 8240 3842 ce9c 9842
000003f0: 2481 2342 8ae0 4642 4cec 7a42 e5cb 7842
54.888355 52.353138 48.644405 90.64413 37.87681 55.25857 61.015152 52.34189
50.062122 59.540592 54.450962 56.773815 58.386898 61.394764 53.925095 49.24678
55.67103 50.44805 51.027473 59.069218 53.69394 46.290855 54.383842 36.88168
53.006226 48.490005 58.60882 65.129906 63.03872 52.333466 84.95055 57.73091
55.74837 52.45858 58.611538 2.0071793 54.47332 44.209957 61.742424 49.85442
40.601887 47.314964 65.89687 53.806408 63.66791 45.844612 36.242287 49.643456
56.81141 91.40348 51.7172 69.32527 51.563274 53.384422 64.37391 92.78106
49.3234 83.116585 62.221397 60.83726 42.877396 80.14452 56.02493 49.749912
50.52327 84.71922 79.18578 46.883312 38.35289 48.98803 59.60595 49.21248
52.760162 53.292862 47.20231 48.81684 53.87024 48.05132 51.6176 57.276806
48.04669 56.51779 62.3497 61.67724 51.435123 43.065746 60.747005 55.559765
82.40092 89.99016 57.00162 41.446903 60.61609 54.46457 58.709675 40.990356
55.27223 57.161213 48.63723 34.30542 57.060394 50.220177 54.84526 63.61813
51.209755 49.81047 54.897736 44.93953 68.87652 57.095165 56.20144 55.757404
42.533417 35.205452 34.735928 38.400795 53.006878 48.844696 60.460743 55.287895
42.008762 48.871178 55.772694 47.221333 56.817066 58.506313 56.758892 54.873154
55.02662 43.001617 50.369072 62.156303 48.381622 28.22475 22.851645 30.237743
12.707655 62.14117 48.97293 49.8357 51.948242 59.497334 55.378616 50.422382
40.649487 39.570187 51.52049 48.520607 50.07354 57.511692 39.64278 60.75848
61.471066 60.822956 18.800287 51.029736 51.687607 57.3673 46.39101 50.968998
36.00412 43.412617 47.644108 62.88636 40.820934 55.07735 53.84296 41.240116
63.90431 77.25013 53.42838 50.75633 68.04554 60.056015 47.693012 64.1487
51.7741 51.229427 47.250904 41.595592 64.27503 58.873917 27.849789 58.186005
53.999332 47.319958 55.746464 49.36489 54.55937 58.14561 55.81136 52.93556
38.66828 53.726322 40.20623 62.69975 51.30436 50.88629 55.554573 55.04859
42.449978 54.48814 56.144554 40.97298 61.54717 69.73241 57.2246 45.96347
57.67237 58.286354 33.439728 36.7651 52.32046 49.05989 48.470882 48.692772
57.261982 55.453056 53.168266 55.30716 27.180267 54.343384 57.34746 56.707012
53.10212 45.8976 53.799427 54.305454 58.2854 37.430527 53.805893 44.446083
58.22481 49.979683 53.05424 40.450214 43.84352 50.84114 55.74141 95.102135
62.47449 50.50242 56.575035 56.665 59.242313 44.78802 57.691067 44.952454
37.148045 61.30975 46.062996 76.30626 40.876114 49.719276 62.73076 62.199116

l4/b f4 [64]
00000000: 130c c3c2 d90e c3c2 f70d c3c2 5811 c3c2
00000010: 120d c3c2 9305 c3c2 b30b c3c2 cb0b c3c2
00000020: 5d05 c3c2 1b0b c3c2 0a06 c3c2 f613 c3c2
00000030: bd0b c3c2 ba07 c3c2 2d0e c3c2 7e0c c3c2
00000040: 7a0c c3c2 1a0b c3c2 bf0c c3c2 a704 c3c2
00000050: ae0a c3c2 340c c3c2 7113 c3c2 6f0e c3c2
00000060: 350b c3c2 bf13 c3c2 130a c3c2 910b c3c2
00000070: c70f c3c2 e90c c3c2 120d c3c2 190f c3c2
00000080: 6808 c3c2 860b c3c2 2b0a c3c2 ce09 c3c2
00000090: bf0d c3c2 fe08 c3c2 9307 c3c2 1509 c3c2
000000a0: 9f0c c3c2 3c10 c3c2 0534 c3c2 6a0c c3c2
000000b0: 260b c3c2 7413 c3c2 ae13 c3c2 070e c3c2
000000c0: 1009 c3c2 4709 c3c2 620e c3c2 9103 c3c2
000000d0: 910b c3c2 bd0d c3c2 a60a c3c2 2208 c3c2
000000e0: 9106 c3c2 8806 c3c2 c406 c3c2 420d c3c2
000000f0: 3a09 c3c2 b70a c3c2 0f0a c3c2 e906 c3c2
-97.52358 -97.529 -97.527275 -97.533875 -97.52553 -97.51089 -97.52285 -97.52303
-97.510475 -97.52169 -97.511795 -97.53899 -97.52293 -97.51509 -97.52769 -97.5244
-97.52437 -97.52168 -97.524895 -97.50909 -97.52086 -97.523834 -97.53797 -97.52819
-97.52189 -97.53857 -97.51968 -97.52259 -97.530815 -97.525215 -97.52553 -97.52949
-97.51642 -97.52251 -97.51986 -97.51915 -97.52685 -97.51756 -97.51479 -97.51774
-97.52465 -97.53171 -97.6016 -97.52425 -97.521774 -97.537994 -97.53844 -97.5274
-97.5177 -97.51812 -97.52809 -97.506966 -97.52259 -97.52683 -97.5208 -97.515884
-97.512825 -97.51276 -97.513214 -97.525894 -97.51802 -97.52093 -97.519646 -97.5135

l3/W f4 [256, 256]
00000000: 4821 0041 0782 a3c1 bd46 23c2 6bac 0dc0
00000010: 5bd8 a441 a355 f841 7f68 8440 a1e8 9d40
00000020: d09f 2dc0 45dd 27c0 2beb c241 4831 b241
00000030: 4c5e 15c0 0624 8940 0d0c db3f f716 aec0
00000040: 7e8a 5a41 6b2b 94c1 f3d5 9bc1 bb7e bdc0
00000050: a1c0 0ec2 2a86 a8c1 2d72 9d41 1ddc bdc0
00000060: 62d2 cebe 17b4 6241 bda8 6f40 cf9b 01c2
00000070: 8c82 f7bf 66db 643f f85f a9c1 06f7 3a41
00000080: e560 9e41 119f 2c40 b6af 30c1 6ba2 f540
00000090: e567 d2c1 2f17 24c1 4a47 f3c1 a563 8140
000000a0: 706a 3541 0f0d f13f 697f 5ec1 b102 a241
000000b0: 6213 7b41 b71d 6b41 d901 d540 9eab 8b41
000000c0: 571d 58c0 8adf c840 aa64 9ac0 78b4 17c2
000000d0: 0268 09c1 a70d a541 bd27 e2c1 d042 5ec2
000000e0: 1acd ae41 d8a3 dec0 dc15 11c2 0d15 a441
000000f0: 28e5 6e41 1d60 dac1 a5ea dfc1 6e39 40c1
00000100: 477b e8c0 982c 7541 daa5 f1c1 08d3 9f41
00000110: a022 5d40 f694 90c0 e335 2fc1 c2c1 e841
00000120: fd31 1141 ee08 a4c0 7d7a 13c2 999e 24c1
00000130: 0439 b0bf 2a5e a3c0 2cea 36c1 a591 1541
00000140: fb65 9341 c746 f4c1 8ba4 ecc1 4f14 66c1
00000150: 95a7 c5c1 1172 163e 4674 c6c1 f9c3 6b41
00000160: fb80 a3c1 c488 a6c0 c48b 2641 7fec 3042
00000170: 1bf6 2241 2f4c 92c0 077d 1a41 4b72 75c1
00000180: c36f 8641 92af 61c0 a673 1fc2 b9cc 2141
00000190: 2bd5 c9c0 9677 2cc2 bf2b d841 29c6 8b41
000001a0: 517c d7c0 72cf 2cc1 7603 fd41 e661 c540
000001b0: d826 ebc0 5ab9 9ec0 4dd9 3b40 dc85 bfc0
000001c0: 44fc e0c1 25f8 01c2 3970 7b41 2dc5 03c2
000001d0: 3575 3042 6a2d 15c0 828b 1f40 73c0 a8c1
000001e0: 3633 86c1 603a c940 37a7 46c1 2b36 9dc1
000001f0: 985a a341 5188 28c2 a3ad 9640 50e8 b541
00000200: 7f8e e441 6186 52c2 7105 1541 066e dac1
00000210: 3f6b 8cc1 0bf1 1042 4b7a fcc1 3eac 0241
00000220: cf49 c541 e164 7241 c4da e8c1 62ab 9fc1
00000230: 8896 f140 d159 24c1 8515 82c0 0639 e6c0
00000240: d2e3 0ac2 4edd 6cc1 2437 4f40 e761 cec1
00000250: 4c43 7f41 8590 fe40 9b9a 23c0 0cb7 2bc1
00000260: ef0d cfc1 0eab cdbf 5b01 e3c1 b4cd 81c1
00000270: 8e66 02c2 690d a2c0 396d e1c0 daa2 5140
00000280: ce7b e7c1 cc31 9fc1 916d 64c2 8b64 6641
00000290: abd7 6fc2 0bf7 90c1 fc5e 99c1 65aa 20c1
000002a0: b2a9 83c2 b3a3 2240 9216 08c2 bc1d 4ec0
000002b0: dbee 9441 99a8 24c1 823a f4c0 3a7b e9c0
000002c0: 64fb af40 73b5 a941 c288 3041 5a69 18c2
000002d0: 9cea 82c2 e6e6 66c1 38d0 8d40 5ee6 0ac2
000002e0: 09a4 1342 a6b9 c2c1 a400 e540 c0e6 df40
000002f0: 0579 5a40 fadf cac1 375e 33c0 4d9a 6c41
00000300: 23bb 90c0 f276 d541 dfbe 6741 aaf4 2d40
00000310: b466 4ac1 a48c da40 88fa 18c2 62bf d641
00000320: cd77 8541 c472 6dc0 8a00 7d41 fc2b df41
00000330: 9a9b c1c1 6266 bc41 f863 9941 5c41 05c1
00000340: 2506 8fc1 86e4 09c2 acc8 00c2 c94d 8940
00000350: e6d5 0c42 59d0 8a41 c47c 8a41 46bf 6ec1
00000360: 0396 e640 fffc 4dc1 8389 1a3e c638 71c1
00000370: 9f3d dfc1 2768 5fc2 1b66 d7c0 6231 07c2
00000380: 5ceb fdc1 26e3 ecc1 428d bac1 f0d4 8041
00000390: f3df 9b41 57ab 8941 ff55 5a41 7cb7 a640
000003a0: 33e0 7041 e042 0141 490f ccc1 d242 1641
000003b0: cd6a 2540 9041 10c1 b043 07c2 bbf8 68c1
000003c0: 7d83 7dc1 94c8 dabf 0906 24c2 124f 3342
000003d0: 6e32 4341 ae3b 53bf 6a77 f040 dba3 9cbf
000003e0: d1f5 80c2 60e1 1041 9e4a c0c0 184b fac1
000003f0: 8f91 4a41 bcc9 95c0 9e59 c041 a768 0641
8.008125 -20.43849 -40.81908 -2.2136486 20.605642 31.041815 4.137756 4.934647
-2.7128792 -2.6228802 24.364828 22.274063 -2.3338804 4.2856474 1.7113053 -5.4403033
13.658812 -18.5212 -19.479467 -5.92172 -35.688114 -21.06551 19.68075 -5.9331193
-0.40394884 14.168967 3.744674 -32.402157 -1.9336715 0.89397275 -21.17186 11.685308
19.797312 2.6972086 -11.042898 7.6760764 -26.30073 -10.25566 -30.40981 4.0434136
11.338486 1.883211 -13.906106 20.251314 15.692232 14.694755 6.6564755 17.458797
-3.3767908 6.2772875 -4.824788 -37.92624 -8.587893 20.631666 -28.269403 -55.565247
21.850147 -6.9575005 -36.271347 20.510279 14.930946 -27.29693 -27.989573 -12.014021
-7.2650485 15.323387 -30.205982 19.978043 3.4552383 -4.5181837 -10.950656 29.094608
9.074704 -5.12609 -36.869617 -10.28872 -1.37674 -5.1052446 -11.432171 9.348058
18.424795 -30.53456 -29.580343 -14.379958 -24.706827 0.1469195 -24.806774 14.735345
-20.437979 -5.204195 10.409122 44.230953 10.185084 -4.5717998 9.655524 -15.340404
16.804571 -3.526341 -39.862938 10.112481 -6.3072715 -43.116783 27.02136 17.471758
-6.7339253 -10.800646 31.62669 6.1682005 -7.3484917 -4.960126 2.935138 -5.9850903
-28.123177 -32.49233 15.714898 -32.942554 44.11446 -2.3308969 2.49289 -21.09397
-16.775005 6.288376 -12.415824 -19.65145 20.419235 -42.13312 4.708696 22.738434
28.569578 -52.63123 9.313828 -27.303722 -17.552366 36.235394 -31.559713 8.167051
24.66104 15.149629 -29.10682 -19.958683 7.5496254 -10.271928 -4.065127 -7.194461
-34.72248 -14.804029 3.2377405 -25.797804 15.95393 7.9551415 -2.5563114 -10.732189
-25.881804 -1.6067827 -28.375662 -16.225441 -32.60015 -5.064137 -7.044583 3.2755647
-28.935452 -19.899315 -57.107 14.399547 -59.960613 -18.120626 -19.17138 -10.0416
-65.831436 2.5412414 -34.02204 -3.2205648 18.616629 -10.291162 -7.632142 -7.2962923
5.4994373 21.213598 11.033388 -38.102882 -65.45822 -14.431372 4.4316673 -34.724968
36.91019 -24.340649 7.156328 6.9969177 3.4136364 -25.359364 -2.8026254 14.787671
-4.522844 26.683079 14.484099 2.718058 -12.650074 6.829668 -38.24466 26.843449
16.683496 -3.7101297 15.812632 27.896477 -24.200977 23.549992 19.173813 -8.328457
-17.878 -34.473167 -32.19597 4.2907453 35.208885 17.351732 17.31092 -14.921698
7.205812 -12.874267 0.15091519 -15.076361 -27.905088 -55.85171 -6.731214 -33.798225
-31.739922 -29.610912 -23.318974 16.103973 19.48435 17.208662 13.645995 5.209898
15.054736 8.078827 -25.507463 9.391314 2.5846436 -9.016006 -33.8161 -14.560725
-15.844602 -1.7092462 -41.005894 44.827217 12.199812 -0.8251294 7.514577 -1.2237505
-64.48011 9.055023 -6.0091085 -31.286667 12.660537 -4.680876 24.043758 8.40055

l3/b f4 [256]
00000000: 994d c940 ab06 0bbf c68e a23f 3c6d 38c0
00000010: ded1 a141 aa2c bb41 24dd 7041 71a5 4e41
00000020: b0b2 2941 3131 9240 7c67 87bf 1bf8 1f41
00000030: 6d14 d13f 89e9 10c0 eb93 ae40 8ad0 3b41
00000040: 8280 cabf c803 e240 fccf 5141 6b79 e840
00000050: 432c 0840 9e04 3fc0 c196 f141 01fa 8b40
00000060: dfd9 db40 594c 1940 e860 07bf 2203 9a40
00000070: 5f8d 94bc 346b e140 dff5 b3c0 cc38 3441
00000080: 21ca 3fc0 c77d 1041 20e7 4c40 f1a2 6e42
00000090: be5a 6f40 b0cf a4c0 a5aa 3240 9120 36c0
000000a0: 2e71 a940 db37 2641 8f15 2c41 6354 e140
000000b0: 1bea f0c0 576b eb40 4694 fe41 e156 e140
000000c0: a258 453e 383e 93c0 c6a8 5d41 333f d5c0
000000d0: c5cd 693f 7134 35c0 c005 45c0 6bab c73f
000000e0: b8c6 5340 8e23 dac0 e766 2741 71a9 9940
000000f0: e119 b841 dd70 2ac0 e55a 9cc0 4487 ef40
00000100: dcde fb3f a5ee aebf f1d2 3cc0 8c6f 1c41
00000110: ac7f f040 01d0 3041 5e68 2841 54da 2441
00000120: aaa6 95bf d4b3 6241 26ba 6340 2cb6 9340
00000130: 2346 e9be 8dc5 f43f 5242 8541 31fd dc3f
00000140: 17c3 ab3f 81fb 9740 3f5b 5a3f 4523 9a3f
00000150: ace6 1341 ce67 c641 bc1b 2241 2d4a 3240
00000160: 6528 82c0 efa9 18c1 0ab7 1941 cf58 0141
00000170: e7ff 8840 2450 4441 b21b ba40 5da4 2241
00000180: 3208 bb41 da65 10c0 ffcb 8541 2b39 0e41
00000190: 7928 0141 480a 3941 a555 8940 0cc4 0b41
000001a0: 4a3f 623f 355e 9240 1fc0 fb3e a78f ca41
000001b0: 7288 5740 0d5f 19c0 8a00 b0c0 1b4f ed40
000001c0: 660a ce40 7e70 e840 1521 1442 b50b 0041
000001d0: 481c ad41 26d0 6041 e2de 03c0 8c85 e6bf
000001e0: d338 5241 8c9c ec40 9af8 63c0 3f57 d040
000001f0: 265f 22c0 6462 0fbe c529 c9be e065 813e
00000200: 3e8a 2141 6b5a 6d41 e10d a43f a6e0 9540
00000210: a594 a740 0745 4241 43f6 0f42 8c37 b241
00000220: b6a9 9d40 e760 473e e4a4 1741 777d 74bf
00000230: c9c7 0b41 ff03 c53f 47dc 8940 ce4f 1c41
00000240: 03c8 9241 800e 2d3f 64c5 a9c0 9a01 c6bf
00000250: da0e 3f41 1085 80bf 2467 4941 00d4 1641
00000260: 57d5 3a41 f046 fa3e 80bb bc41 d5cc 58c0
00000270: d8bd c740 bd20 3741 23d2 5dbf 7d73 073f
00000280: b4f1 5041 523f de41 e93f c240 8436 1341
00000290: 25fe 6d41 3451 b740 ac6f d540 90ff 2e41
000002a0: 0256 87c0 91af 9341 27e3 9a3f 0263 2c41
000002b0: 7c7e 0141 b53e c8c0 ca45 9840 8142 7d41
000002c0: 845f 7b40 1bb6 c940 9858 2b41 f4f6 da40
000002d0: 6047 dd40 c802 8a41 9a0c e641 b671 d63f
000002e0: 8b6a fb40 b8d0 c240 69ea a340 57d3 ba40
000002f0: 10a0 4f41 6f4c b4bf 2bb7 713f ef18 7f40
00000300: e117 f240 9fa0 28c0 eef0 c641 9a74 5d3f
00000310: 0bb9 c440 50ef 8041 99c0 2fc0 f26e f140
00000320: b2ea 9b3f a565 cfbf 210b 2440 ab6e 1b41
00000330: 06c6 7f40 3dc2 f9bf fcfa 4041 7f06 c841
00000340: efa1 6a3f 7d5a 1941 fcbe dc41 3f00 4541
00000350: 9021 0641 5b41 e040 028a 9240 b181 0742
00000360: 840b 0241 9ac9 8b3f 3914 7240 e4e8 5441
00000370: 32df 6042 8344 9341 30f7 1440 e72a 2c40
00000380: 2a34 3441 5324 c33f bda7 1241 fd58 3b41
00000390: 8a5b 98bf 6640 26bf d3fc cf3f 84b4 983e
000003a0: 1c9d 8c3f 2a37 1c41 d853 e040 f5ca 583f
000003b0: 399e d43f 02a6 b540 fca0 dc40 26c5 5abf
000003c0: 99a4 1340 a42c 06c1 5dea 9240 98e5 bf40
000003d0: be40 4441 ba51 0341 50bb c7c0 9adf 6c41
000003e0: 6044 e741 a3bc ba40 ad51 3641 271e fe41
000003f0: d99c 1441 81b2 0ec0 dacd 8b40 e393 09c0
6.2907224 -0.5430705 1.2699821 -2.8816671 20.227474 23.396809 15.053989 12.915391
10.606125 4.568505 -1.0578456 9.998073 1.6334358 -2.2642539 5.4555564 11.738413
-1.5820467 7.0629616 13.113277 7.2648215 2.1277015 -2.9846568 30.19861 4.374268
6.8703456 2.395285 -0.5288224 4.8128824 -0.018133817 7.0443363 -5.6237636 11.263866
-2.996712 9.030707 3.2016068 59.659122 3.7399135 -5.1503525 2.7916653 -2.8457377
5.295066 10.388637 10.755263 7.041551 -7.5285773 7.356853 31.8224 7.0418553
0.19272092 -4.601345 13.853704 -6.6639647 0.91329604 -2.8313258 -3.078476 1.5599188
3.3090038 -6.81684 10.462623 4.801934 23.012636 -2.6631386 -4.8860955 7.485262
1.9677386 -1.3666579 -2.9503748 9.777233 7.515585 11.050782 10.52548 10.303303
-1.1691487 14.168903 3.5582366 4.615988 -0.45561323 1.9122788 16.657383 1.7264768
1.3418912 4.749451 0.8529548 1.2042013 9.243816 24.800686 10.131771 2.7857773
-4.067431 -9.541488 9.607187 8.084182 4.281238 12.269566 5.815881 10.165128
23.379002 -2.2562165 16.724607 8.888957 8.072381 11.56501 4.2917047 8.735363
0.8837782 4.574 0.49170014 25.320143 3.367703 -2.3964264 -5.500066 7.4159064
6.4387693 7.263732 37.032307 8.002858 21.63881 14.0508175 -2.0604787 -1.8009505
13.138873 7.3941097 -3.5620484 6.51065 -2.5370574 -0.14002377 -0.3928968 0.25273037
10.096251 14.834575 1.2816736 4.683673 5.236895 12.141852 35.99049 22.277122
4.9269667 0.19470559 9.4777565 -0.95503944 8.736276 1.5391845 4.3081393 9.769484
18.347662 0.6760025 -5.3053455 -1.5469239 11.941126 -1.0040607 12.587681 9.426758
11.677085 0.48882246 23.591553 -3.387502 6.2419243 11.445493 -0.8664877 0.52910596
13.05901 27.780918 6.0703015 9.2008095 14.874547 5.7286625 6.669882 10.937393
-4.229249 18.460726 1.2100571 10.774172 8.09338 -6.2576547 4.758519 15.828736
3.9277048 6.3034797 10.709129 6.8426456 6.914963 17.251358 28.756153 1.6753452
7.8567557 6.0879784 5.1223645 5.8382983 12.976578 -1.4085826 0.9442012 3.9858968
7.565415 -2.6348035 24.867641 0.86506045 6.1475883 16.116852 -2.7461302 7.544793
1.2180998 -1.6202894 2.5631793 9.714519 3.9964614 -1.9512402 12.0612755 25.003172
0.9165334 9.584592 27.593254 12.31256 8.383194 7.007978 4.5793467 33.87665
8.127811 1.0920899 3.7824843 13.306858 56.217964 18.408453 2.3275871 2.6901186
11.262735 1.524546 9.165952 11.709226 -1.1902936 -0.64942014 1.6249031 0.29825222
1.0985446 9.763468 7.010235 0.8468469 1.6610786 5.6765146 6.8946514 -0.85457075
2.3069212 -8.385899 4.591109 5.9967766 12.265806 8.207453 -6.2416153 14.80459
28.908386 5.835527 11.39494 31.764723 9.288293 -2.229645 4.3688784 -2.1496513
