size8/agent_black_140000/target_model.npz (npz, 608669 bytes, 8 tensors)

l2/W f4 [256, 256]
000000 43 b9 c7 3f aa 02 9b c1 21 d4 fb c1 6e 15 4f c1
       1.5603412 -19.3763 -31.478579 -12.942732
000010 a7 fd 29 c2 2b 61 5d 41 3b 31 7e c0 68 95 a0 41
       -42.497707 13.836223 -3.9717548 20.072952
000020 88 77 65 41 0f 69 c3 c1 87 5d 25 41 aa c7 a9 41
       14.341682 -24.426298 10.335334 21.222492
000030 74 b3 78 3f 35 59 f1 c0 f7 a9 b1 c1 f2 eb 0a c0
       0.97148824 -7.5421395 -22.20799 -2.170651
000040 4b e1 89 41 7f 73 2f c1 79 c9 8a c1 fd c6 4b c1
       17.235006 -10.965697 -17.348375 -12.736081
000050 e2 f4 dd c1 af 7a 5b 41 60 07 95 40 7a 50 10 c1
       -27.744572 13.717452 4.6571503 -9.019648
000060 26 a5 7d c1 16 bc 46 c1 3d 30 33 41 02 c9 15 c1
       -15.852819 -12.420919 11.199277 -9.361574
000070 dc 1e e7 41 0a 31 32 42 13 2c f3 40 cd bf ec 40
       28.890068 44.54789 7.59913 7.398413
000080 c0 4a 2e c1 91 19 dd 3f 8b ac a0 c1 f3 f2 b1 40
       -10.8932495 1.7273427 -20.08425 5.560907
000090 1b 48 b7 41 14 40 4b 41 b8 59 fc c1 54 60 52 41
       22.910208 12.703144 -31.543808 13.148518
0000a0 e3 52 50 c1 e3 93 3e 40 8d 28 7d c1 25 1f b9 c0
       -13.020236 2.9777763 -15.8224 -5.785052
0000b0 40 d2 12 c0 b3 fd ea 41 ba 24 55 41 d8 0e 80 41
       -2.2940826 29.373877 13.321466 16.007248
0000c0 36 9a ab c0 bd e7 dc c1 7f 6f 97 3f 23 c3 8b 40
       -5.3625746 -27.613153 1.1830901 4.3675704
0000d0 bc 98 b0 40 4a 22 e3 c1 f5 9a 28 41 28 d2 56 41
       5.5186443 -28.391743 10.537831 13.426308
0000e0 85 df 45 c1 67 e4 b5 c0 fb a5 8c 41 96 68 5a 41
       -12.36707 -5.684131 17.581045 13.650534
0000f0 d4 12 a2 c1 0a c0 c4 40 3f 4c ba 40 3f be 5b c1
       -20.259193 6.1484423 5.8218074 -13.733947
000100 71 c6 84 c1 97 c3 01 c2 4d 32 a9 c1 d7 24 94 c1
       -16.596895 -32.441006 -21.14956 -18.517988
000110 d1 c8 d6 40 29 dc b9 40 ac 7c 15 c0 5a fe 34 41
       6.7120137 5.808125 -2.3357344 11.312098
000120 3f c6 d7 41 96 30 9e 41 cc 77 4a c1 1e 04 f3 40
       26.9718 19.773724 -12.654247 7.5942526
000130 c7 0b 9e 3f 27 41 85 c1 90 db d4 41 fc 47 2e 41
       1.2347344 -16.656813 26.607208 10.892574
000140 ca 8e 54 41 39 54 a3 be 31 38 85 40 80 40 6e c1
       13.284861 -0.31900194 4.1631093 -14.890747
000150 ba 60 13 40 ae e1 6d 41 b0 36 8b bf dd ef ef 41
       2.3027787 14.867598 -1.0876064 29.99212
000160 c6 b3 4e 41 5b 9e a1 c1 30 f4 83 c0 18 dc ce 40
       12.91889 -20.202322 -4.123558 6.464367
000170 9b 5d a4 c1 5b 10 82 40 32 88 a4 40 3a 5d da 41
       -20.545706 4.0644965 5.1416254 27.29552
000180 26 eb 0e c2 26 b5 ac bf 08 b2 c8 40 1d 47 8e 40
       -35.729637 -1.3492782 6.2717323 4.446181
000190 2c 6d 59 c0 77 e4 4a c2 25 fd 1d c1 ec 3d 76 c1
       -3.3972883 -50.72311 -9.874303 -15.390118
0001a0 8b 08 14 c1 4a 48 25 c2 45 ab cd c1 36 64 70 c2
       -9.252086 -41.320595 -25.708628 -60.097862
0001b0 b6 a2 8f 41 54 0c 42 c2 b4 1b 65 40 62 59 99 be
       17.954449 -48.51204 3.5798159 -0.29951006
0001c0 fa 93 e8 3e 22 e0 5d 40 5d a7 b4 40 e8 2c 0e c2
       0.45425397 3.466805 5.64543 -35.543854
0001d0 59 90 5f c1 72 71 8b c1 45 1b 8b c0 e4 e5 5d c1
       -13.972741 -17.430393 -4.347079 -13.868626
0001e0 06 1b cf c0 4e 67 04 c2 a2 2b ff 40 c2 95 3f c2
       -6.4720488 -33.100883 7.9740763 -47.896248
0001f0 18 a6 8b 40 50 34 f7 c1 e1 8f 66 c1 5e ba 60 40
       4.364025 -30.900543 -14.410127 3.511375
000200 35 c3 9a 41 a3 ab e6 c1 53 bc 00 40 b0 36 65 c2
       19.345316 -28.833807 2.0114944 -57.303406
000210 63 52 68 41 5e 1c b8 41 88 2b a9 40 b4 c4 63 41
       14.520114 23.013851 5.286564 14.235523
000220 93 af 80 c2 64 b4 79 c1 bb 8e 00 41 6f f9 0b bf
       -64.34292 -15.606541 8.034846 -0.5467748
000230 ef 55 1f c2 8b 36 85 c1 58 ae 38 c1 4c 06 c4 41
       -39.83392 -16.651632 -11.542564 24.503075
000240 0a 5e 5b c1 5d 5e 85 c2 48 32 08 42 bf 7d 1f 41
       -13.710459 -66.6843 34.049103 9.9682
000250 50 5e 04 42 a8 6e 3a 41 b9 67 24 c0 83 6e 4c 41
       33.092102 11.652016 -2.5688307 12.77698
000260 35 32 9d 41 17 42 b6 c0 29 0c 94 41 94 02 e3 be
       19.649515 -5.6955676 18.505938 -0.44337904
000270 40 22 d7 c1 e7 90 44 c1 bf e3 86 40 22 a3 f9 c1
       -26.891724 -12.285377 4.215301 -31.204655
000280 3c f1 de c0 f1 78 e4 c1 83 0b 8d 41 f2 d3 b1 41
       -6.9669476 -28.559053 17.630621 22.228489
000290 30 12 a5 c1 41 34 95 c1 b5 2f 90 c0 8c 4a 89 41
       -20.63388 -18.650515 -4.5058236 17.1614
0002a0 1f 2f 0b c2 79 97 bb 40 64 19 13 c0 21 99 40 c1
       -34.796017 5.8622403 -2.2984247 -12.037385
0002b0 ef c9 cf c0 65 46 a2 41 67 51 64 c2 6e 8c f1 bf
       -6.4934 20.284372 -57.079494 -1.8870981
0002c0 db ad c7 c1 84 40 9c 41 01 89 42 41 7b b4 1f 41
       -24.95989 19.531502 12.158448 9.981563
0002d0 09 29 04 41 11 ed 62 42 2e 92 9a c1 8c d9 c7 40
       8.260018 56.73151 -19.321377 6.245306
0002e0 af 55 7f 41 38 b8 17 c2 6f 5d 37 40 e7 de c3 3e
       15.958419 -37.9299 2.8650777 0.38255998
0002f0 f7 73 3c c2 29 16 f2 41 9c 17 a8 41 5f 68 61 41
       -47.113247 30.26082 21.011528 14.087981
000300 35 f8 e8 41 43 0c 79 c1 22 99 9a 41 73 19 27 41
       29.121195 -15.565494 19.324772 10.443713
000310 19 aa cd 41 40 a0 7b 41 c5 7f bb 41 28 ac 18 41
       25.708055 15.726624 23.437387 9.54203
000320 a8 6e 31 c1 c1 d2 ec c1 15 cf 93 c1 05 f4 86 c1
       -11.089516 -29.602907 -18.476114 -16.86915
000330 83 9a af c1 2d 5b bb c1 2e 32 bf c1 f9 e7 de c1
       -21.950445 -23.41952 -23.899502 -27.863268
000340 29 fc e4 c1 ba d9 7b c0 5b 49 ec c1 dd 08 40 40
       -28.623125 -3.935164 -29.535818 3.000541
000350 71 39 46 c1 9a a3 2b c1 bd 57 12 c2 93 06 bf c1
       -12.389024 -10.727442 -36.585682 -23.87821
000360 98 97 ce c0 5a 48 9d bf e5 b2 d7 c1 90 15 7c c1
       -6.456005 -1.2287705 -26.96235 -15.755264
000370 00 58 30 c0 ff ce e6 40 f9 d4 ab c1 cd 0f d7 c0
       -2.755371 7.212768 -21.47899 -6.720679
000380 00 f1 d0 c1 e8 16 1d c1 93 9d a0 3f 8e 16 15 c2
       -26.117676 -9.818092 1.2548088 -37.272026
000390 57 30 13 c2 ca 04 b1 c1 0c 52 10 41 91 11 a6 40
       -36.797207 -22.127338 9.020031 5.1896443
0003a0 0d 53 50 41 a2 78 b5 c1 53 68 8e 41 44 4a 90 c1
       13.020276 -22.683903 17.80094 -18.036263
0003b0 77 2a 91 c1 f5 77 0f 42 9b 63 2f c0 27 2f cb 40
       -18.145735 35.867146 -2.7404544 6.349506
0003c0 93 4a e4 40 22 7a 81 c1 76 2e 1c c1 51 f4 c3 bf
       7.1341033 -16.184635 -9.761343 -1.5308934
0003d0 eb a2 29 c2 ae 65 eb c1 21 d3 f5 41 60 4a a9 c1
       -42.4091 -29.424648 30.72809 -21.161316
0003e0 61 e6 06 42 b2 29 04 42 8e 89 05 42 f4 55 ce bd
       33.72498 33.040718 33.38433 -0.10074988
0003f0 59 80 ca c1 0f e8 2f c2 4f 54 93 bf 56 5f 67 41
       -25.31267 -43.97662 -1.1510104 14.460775

l2/b f4 [256]
000000 48 86 83 41 8a 37 06 41 0a 9e 45 41 c6 8c c8 41
       16.440567 8.388559 12.351084 25.068737
000010 0f 81 51 41 49 6d a1 41 fe 14 86 3e bd b4 3c c0
       13.094008 20.178362 0.2618789 -2.9485314
000020 87 5d 8a 41 f2 bc c3 c0 95 ea 7f 40 e4 b8 33 41
       17.295668 -6.1168146 3.9986928 11.232639
000030 2e 4e 74 c0 60 30 7c c0 65 8b 8f 40 40 97 11 40
       -3.8172717 -3.9404526 4.485766 2.2748566
000040 87 ae 21 bd 6a be 86 41 83 77 43 41 96 a4 63 c1
       -0.039473083 16.842976 12.216678 -14.227682
000050 d4 c6 21 41 b5 69 f7 41 01 8f 8c 41 57 ba a9 bf
       10.111042 30.926615 17.569826 -1.3259991
000060 85 d1 69 40 98 73 a3 bf 1e 88 0a 41 0e 03 d9 40
       3.653413 -1.2769651 8.658232 6.781623
000070 80 26 7c 41 0c ab 27 c0 c4 1a ce 41 a8 49 7a 41
       15.759399 -2.6198149 25.76307 15.6429825
000080 50 4c a5 41 6d 6f a8 41 53 7e 6d 41 ba 08 2e 3f
       20.662262 21.054407 14.843341 0.67982066
000090 be c7 7d c1 44 fe 8f 41 c3 18 56 c0 21 f0 6a 41
       -15.861265 17.999153 -3.3452613 14.683625
0000a0 97 87 13 41 19 7e 7f 41 bb 87 90 41 3b 57 03 c0
       9.220603 15.968286 18.066275 -2.0521991
0000b0 70 cb 5d 41 14 a7 9d 41 d4 c5 99 c1 5d bb 8d 41
       13.862167 19.706581 -19.221596 17.716486
0000c0 29 23 4d c1 1c 4d fd c0 3f fa 01 42 63 02 cc c1
       -12.821084 -7.915663 32.49438 -25.501165
0000d0 32 01 96 41 49 0a a8 41 a2 2c 82 41 b2 cc 85 c1
       18.750584 21.005022 16.271793 -16.724949
0000e0 d3 e2 47 c0 c8 45 71 41 68 e2 3b 40 e1 59 45 bf
       -3.1232193 15.079536 2.9356937 -0.7709027
0000f0 13 e6 7a 41 c0 5c e5 c0 88 12 e2 c0 e9 0c af c0
       15.68117 -7.167572 -7.064762 -5.470326
000100 5f 4a ee 3f 96 99 01 c1 eb 6a 9a 3f ed 87 d7 41
       1.8616446 -8.099997 1.2063879 26.94137
000110 7e 8c 78 c0 e3 4c 12 c1 01 ab aa 40 58 b8 0c 41
       -3.883575 -9.143771 5.3333745 8.795006
000120 3b 39 ba 3f 11 75 19 c1 e6 d0 46 c1 6d e9 a4 41
       1.4548715 -9.591081 -12.426001 20.613977
000130 4d bf 11 c1 eb 26 20 c1 82 43 6f 41 ab 64 05 41
       -9.109204 -10.009501 14.953981 8.337077
000140 5d c4 ce 41 53 95 90 41 81 bb a9 41 8a 47 89 41
       25.84588 18.072912 21.216555 17.159931
000150 8f bc 8d 41 9b 6a 5a c1 9c 1f 09 40 4a 49 70 c1
       17.71707 -13.651027 2.1425543 -15.017893
000160 2e 05 83 c1 1b 58 bf c0 00 48 12 c0 57 e4 07 41
       -16.37753 -5.979505 -2.2856445 8.493247
000170 e7 65 24 c1 54 73 ae 41 b5 9a 6e bf 45 d2 1e c1
       -10.2748785 21.806313 -0.93204814 -9.926335
000180 9f a4 1f c1 b3 af 73 40 2f d9 9a 40 da df 05 bf
       -9.977691 3.8075988 4.8390117 -0.52294695
000190 8d d4 c4 41 55 43 53 3f 57 a1 15 41 46 d0 45 41
       24.603785 0.82524616 9.35189 12.363348
0001a0 38 f7 8b c0 70 b6 4b 41 6d c7 0f c1 82 be a1 bf
       -4.373928 12.73204 -8.986188 -1.2636263
0001b0 4a d8 c9 41 09 0c b0 41 75 ef 48 40 8b 4b ba 41
       25.23061 22.005877 3.1396153 23.286886
0001c0 e1 27 bb 41 1f ff 8f 41 26 1d ed c0 ee 2f b0 41
       23.394472 17.99957 -7.409808 22.023403
0001d0 39 d9 60 41 3f f3 9d 41 f6 5a d3 3e 08 13 b0 41
       14.053033 19.743773 0.41280335 22.009293
0001e0 07 0e 95 41 1a 1d b5 41 ff 71 e5 40 1e df 29 41
       18.63185 22.63921 7.1701655 10.616972
0001f0 89 e4 69 41 18 ec 9a 41 36 36 92 41 24 06 aa 41
       14.618295 19.36528 18.27647 21.252998
000200 51 c1 01 3f eb 06 4b 41 71 13 90 c1 72 f3 73 41
       0.506856 12.689189 -18.009493 15.246935
000210 ca aa a3 41 c9 01 cd 41 ae 81 03 41 d7 c3 2b bf
       20.458393 25.625872 8.21916 -0.670957
000220 21 8f e8 41 69 43 95 41 b6 ec 84 c0 05 7c ab 41
       29.069887 18.657915 -4.1538954 21.435556
000230 66 23 05 41 ec 4a df c0 48 37 af 41 f7 d2 94 41
       8.321142 -6.9778957 21.901993 18.60301
000240 52 ac a3 41 86 2b 65 c1 e4 73 70 c1 54 f2 d0 40
       20.45914 -14.323126 -15.028294 6.529581
000250 1c f1 9d 41 5c 38 1a c0 85 a5 97 41 91 96 4f c1
       19.74273 -2.40969 18.95582 -12.974259
000260 3d ff 3e 41 83 c1 d3 c0 10 f5 1d 41 ef 96 14 c1
       11.937314 -6.617372 9.87233 -9.286849
000270 f3 0e 64 41 c2 30 91 41 15 a3 b6 41 e2 57 a1 c1
       14.25365 18.148808 22.82963 -20.167912
000280 ba b4 89 41 38 b6 36 41 f2 4e 6a c1 97 41 26 40
       17.213245 11.419487 -14.644274 2.5977533
000290 47 02 6b 41 42 aa 5e c1 dc f6 69 c1 62 d2 85 41
       14.688056 -13.916567 -14.622768 16.727726
0002a0 49 8e c2 41 53 f6 10 c0 99 b9 a2 41 de 28 a0 41
       24.319475 -2.2650344 20.340624 20.019955
0002b0 f3 f0 f7 40 82 8b a5 bd 9f 0b c7 c1 cd 4e 50 40
       7.7481627 -0.0808325 -24.880674 3.2548096
0002c0 7d 7e a7 40 ef 31 93 41 7b 42 a4 3f f4 3c 72 41
       5.2341905 18.399382 1.2832788 15.139881
0002d0 d2 d2 4d 41 b6 62 83 41 cd 98 00 be d5 23 35 40
       12.86397 16.423199 -0.12558289 2.830312
0002e0 1a a0 77 41 bf 78 73 41 72 a7 88 3f 75 52 5d 41
       15.476587 15.216979 1.06761 13.832631
0002f0 ea cb 84 41 db 4a 73 41 e8 2c 36 41 ac 99 9d 40
       16.599567 15.205775 11.385963 4.925009
000300 01 f6 35 bf 60 2c 6a 41 8b a1 93 41 d6 cc bc 41
       -0.710785 14.635834 18.453878 23.600018
000310 97 75 ff bf 4e 36 71 41 1f 24 a2 c0 0d 60 33 41
       -1.995776 15.075758 -5.0669093 11.21095
000320 b5 42 b1 41 d3 94 49 c0 ca 34 98 41 12 2a 86 41
       22.157572 -3.1497085 19.025776 16.770542
000330 74 c5 ad 41 a3 d3 e0 41 49 12 72 c1 68 72 8e 40
       21.721413 28.103338 -15.129464 4.4514656
000340 39 7d 86 bf f9 f9 e7 41 91 d3 a0 41 1e be eb 3f
       -1.0506965 28.997057 20.103304 1.8417394
000350 17 e7 7c 41 bf 58 41 41 50 19 9a 41 6a 5b 7d 41
       15.806418 12.084167 19.26236 15.834818
000360 1d fa 00 c0 da 1a bb 41 48 0c 57 41 e4 c3 25 41
       -2.0152657 23.388111 13.440498 10.360325
000370 cb a1 9d 41 09 64 92 41 97 24 8e 41 19 77 ac 41
       19.704 18.298845 17.767866 21.558153
000380 95 d9 9c 41 fc e7 94 41 33 9f 6c c0 1f e7 44 41
       19.606241 18.613274 -3.6972167 12.306426
000390 c5 b1 95 c1 30 99 d9 41 47 8b 83 41 82 71 ab 41
       -18.711802 27.199799 16.443007 21.430424
0003a0 74 13 f9 c0 a6 f6 5d bf b4 03 30 c0 8e 3f 09 3f
       -7.7836246 -0.8670448 -2.750226 0.536126
0003b0 c0 2d bc 41 fe 21 f0 3c 66 01 39 41 bd 0a 9d c1
       23.522339 0.029313084 11.562841 -19.630243
0003c0 a3 03 16 c1 87 6b 58 c1 93 c9 9b 41 74 4c ee 41
       -9.375888 -13.526252 19.473425 29.78733
0003d0 ec 39 19 3e 25 3b d8 c0 cd 50 ef 40 bb f7 07 bf
       0.14963502 -6.75722 7.4786134 -0.5311238
0003e0 7b 5d a1 41 94 e2 89 41 77 26 e1 41 99 76 ab 41
       20.170645 17.235634 28.143782 21.432909
0003f0 7e 8b 5b 41 91 6f 92 41 64 3f a5 41 ef ce 9b 40
       13.721556 18.304476 20.655952 4.8690104

l1/W f4 [256, 64]
000000 54 45 6e 42 f9 5d 05 c0 f3 db f8 3f 8d b4 10 c0
       59.567703 -2.0838606 1.9442123 -2.26102
000010 c4 76 80 41 9c ba f6 40 41 80 68 40 a4 a9 21 41
       16.057991 7.7102795 3.632828 10.103916
000020 3c a5 b1 c1 65 da c8 40 20 ab d5 c1 02 21 a3 41
       -22.20568 6.2766595 -26.708557 20.391117
000030 84 9f 26 c2 12 a8 ae 40 e9 42 e0 bf 95 00 a0 c1
       -41.655777 5.4580164 -1.7520419 -20.000284
000040 95 d0 4a c0 a3 1d f5 41 4f 02 28 41 85 e1 fd c0
       -3.1689808 30.639471 10.500564 -7.9337792
000050 c2 b9 98 41 94 c1 b6 c0 e1 e9 14 42 3f 94 6d 41
       19.090702 -5.71113 37.228397 14.848693
000060 c1 54 cd 41 27 c1 f2 bf a7 5b a9 41 26 28 c0 c1
       25.666384 -1.8965195 21.169752 -24.019604
000070 76 43 29 c1 42 ea af 41 e5 09 2f 41 da c6 8a 41
       -10.57897 21.989384 10.939916 17.347095
000080 88 e2 ea c0 a7 92 5c 40 cb 2e 93 40 07 ae a6 c1
       -7.3401527 3.446451 4.599462 -20.834974
000090 c0 ea b5 3e 05 6d 43 c1 34 6d 8c c0 6f 4e 81 41
       0.35530663 -12.214116 -4.3883305 16.163298
0000a0 73 5c 89 41 35 f4 80 41 16 09 67 c1 71 b0 ca 41
       17.170141 16.119242 -14.439718 25.336153
0000b0 26 41 ab 40 e0 3b 96 c0 3f 13 3b 41 3e 6c 90 c1
       5.3517027 -4.694809 11.692199 -18.052853
0000c0 f5 6f 31 bf 6b 4f 76 41 28 06 89 bf d8 53 57 c1
       -0.6931146 15.394389 -1.0705004 -13.45797
0000d0 1a 8a 8f 40 84 0d e6 40 5f b8 0c c1 37 fb 1a 42
       4.485608 7.18915 -8.795012 38.745327
0000e0 03 d0 81 41 08 6d 82 c1 2f 21 61 c1 bf 04 b2 c1
       16.226568 -16.303238 -14.070601 -22.252317
0000f0 c9 d2 1f 41 68 62 46 c1 ce 6a 4d c1 c3 af d2 c1
       9.988961 -12.399025 -12.838575 -26.335821
000100 b0 7d d3 41 55 9d 83 c0 2c 71 16 42 38 5a b9 c1
       26.43637 -4.1129556 37.61052 -23.169052
000110 9c c1 c6 c0 c3 ff 22 c2 39 3c 15 41 fa a5 2d 41
       -6.211134 -40.749767 9.327203 10.853022
000120 a0 c5 0e c1 34 2e 3c c0 ae 62 bc 41 de b4 b6 c1
       -8.923248 -2.94032 23.548183 -22.838314
000130 db 04 37 c1 98 8e f8 c1 76 c8 b1 40 96 5a c1 c1
       -11.438685 -31.069626 5.5557203 -24.169231
000140 d1 e2 9f 41 84 5d 8c c1 3e 4a f2 3f 76 21 95 c0
       19.98575 -17.545662 1.8928907 -4.6603346
000150 cd 76 79 41 d4 2b 22 3f 98 37 7d 41 e8 fa c8 c1
       15.591504 0.63348126 15.826073 -25.122513
000160 b8 a5 42 41 e1 c9 f4 c0 23 3a 92 c0 6d 74 2a c1
       12.165459 -7.6496434 -4.569597 -10.653424
000170 3d 1e bc c0 4d 27 85 c1 10 31 71 c1 18 e7 0b c2
       -5.878691 -16.64419 -15.074478 -34.975677
000180 cf 42 8a c0 bc 68 55 c1 4a fe 97 41 be 8d 35 bf
       -4.3206553 -13.33807 18.999165 -0.70919406
000190 6f 4c 44 3e 17 bd 84 c1 cf 28 a0 41 7e 5d 7e c1
       0.19169782 -16.592329 20.019926 -15.897825
0001a0 01 a8 b5 40 6c 17 06 c2 b0 8e c0 41 6f 5b 01 41
       5.6767583 -33.522873 24.069672 8.084823
0001b0 87 51 1e c0 36 4b 9b 41 24 45 14 42 29 b8 bf c1
       -2.473726 19.411724 37.06752 -23.964922
0001c0 a0 f3 3a c2 0f 0b 7c c1 ab 0f 4a c1 58 2d 3d c2
       -46.737915 -15.7527 -12.628825 -47.29428
0001d0 88 d6 0c 41 a3 89 5b 41 5b b4 d5 40 35 95 c6 c0
       8.802376 13.721103 6.678266 -6.2057137
0001e0 24 f7 3d c1 6c 89 87 c1 2f e6 66 c2 96 b6 5f c1
       -11.872837 -16.9421 -57.72479 -13.982077
0001f0 3f 6b 0e 42 91 21 80 41 49 8a 18 40 7c 26 06 40
       35.604733 16.01639 2.3834403 2.096099
000200 19 a3 ac 41 c1 40 f3 41 81 c7 12 c1 c7 24 e8 41
       21.579638 30.406618 -9.173707 29.017958
000210 33 65 62 c0 f9 fb 26 41 b6 d3 80 c1 7d 62 10 41
       -3.5374267 10.436517 -16.103374 9.024045
000220 86 a4 00 42 b0 9a 8a c0 3c ce e5 c1 aa c8 3c 41
       32.160667 -4.3313828 -28.7257 11.79899
000230 e2 4d 77 41 fb a4 f3 41 ce be 8d 41 36 f3 f4 40
       15.456514 30.455557 17.718166 7.654689
000240 54 a2 c5 c0 0f a0 f9 41 e2 11 f6 c1 36 2c 72 40
       -6.1760654 31.203154 -30.758732 3.7839484
000250 28 6a 00 c0 92 4f e6 40 ac b0 e0 41 64 27 5a 41
       -2.0064793 7.197213 28.086266 13.634617
000260 66 89 7e 42 80 30 e6 c1 24 73 7c 41 ea 9b 17 41
       63.63418 -28.773682 15.7781105 9.475565
000270 5d 1b db bf 24 fe 30 41 1c 1d f4 40 e8 63 a8 40
       -1.7117726 11.062046 7.6285534 5.2621956
000280 f7 7d 84 c1 82 f0 8c 41 db 52 2a c2 19 9c d4 40
       -16.561506 17.617435 -42.580914 6.644055
000290 6e 04 48 c0 2d b1 88 40 0b f7 11 c0 c9 db 9b c1
       -3.1252704 4.271628 -2.2807033 -19.482317
0002a0 3c 4d 03 c2 1d 7d 78 c1 bd f8 0f 40 6c c5 92 c1
       -32.825424 -15.530545 2.2495568 -18.346397
0002b0 5d ad 20 41 19 46 8a 40 26 c0 19 c1 fd 01 c9 c1
       10.042325 4.321057 -9.609411 -25.12597
0002c0 e7 92 f6 c0 c8 a6 0e c2 13 80 6a c1 d8 83 4a bf
       -7.7054324 -35.662872 -14.656268 -0.7910743
0002d0 2f 99 c9 41 06 a4 bc c1 1e 5b 16 c0 a5 12 dd c1
       25.199797 -23.58009 -2.3493114 -27.634104
0002e0 99 4a be 41 ce ff e7 41 cc 04 ed c1 41 a0 f0 41
       23.786425 28.999905 -29.627342 30.078249
0002f0 f5 06 60 c0 b1 30 31 c0 2f af a0 41 b8 f9 1a 41
       -3.5004246 -2.768597 20.085539 9.6859665
000300 20 e8 cc c1 05 ca 01 42 83 05 c3 c1 f6 47 51 3f
       -25.613342 32.447285 -24.377691 0.8175043
000310 15 84 34 c1 2a c6 b8 41 00 95 a7 41 ab d1 1c c2
       -11.282247 23.09676 20.947754 -39.204754
000320 54 9a 84 41 23 b7 5a c2 54 51 3d c1 82 d4 20 40
       16.575356 -54.678844 -11.8323555 2.5129704
000330 69 ac b2 c1 5b 4e e6 41 8a c2 77 41 15 16 12 c1
       -22.334185 28.78826 15.484995 -9.130391
000340 c7 e9 a8 c1 81 6d c1 c1 f0 bb 80 40 0b c0 c9 40
       -21.11415 -24.178469 4.0229416 6.3046927
000350 47 f6 1c 42 ed 81 70 c0 73 9a 75 41 58 4a 98 c0
       39.240505 -3.75793 15.350207 -4.759075
000360 57 ec 2e 41 79 55 73 c0 d1 c3 6c 41 8e cb 97 bf
       10.9327 -3.8020918 14.797807 -1.1858995
000370 8f 37 ad c0 5a 3d 55 41 19 3b 3f 41 b0 1c 2a c1
       -5.413032 13.327478 11.951928 -10.632004
000380 b4 32 66 c1 3e d6 f1 41 5e f4 b0 41 84 ad 3d 40
       -14.387379 30.22961 22.11932 2.9637156
000390 85 3a 75 3f 1f 69 53 bf bb 45 a6 c0 85 d8 89 41
       0.9579242 -0.8258228 -5.196012 17.230722
0003a0 1a 47 83 40 bd e0 0f c2 60 88 d8 c1 b6 a7 2e c1
       4.1024294 -35.96947 -27.06659 -10.915945
0003b0 d0 04 00 3f 53 68 c9 41 c8 00 8e 41 83 a7 11 c2
       0.50007343 25.17594 17.750381 -36.413586
0003c0 98 40 9f c1 01 01 c1 c1 81 d5 07 3f cb 01 2d c2
       -19.90654 -24.12549 0.53060156 -43.25175
0003d0 41 69 08 c1 b0 b9 23 42 ab 96 15 42 76 57 02 c2
       -8.525697 40.931335 37.397137 -32.58541
0003e0 f0 c2 87 c2 24 fa 2c 41 17 33 78 c2 81 62 09 41
       -67.88074 10.8110695 -62.049892 8.586549
0003f0 73 34 fa c1 02 5c 09 c1 c2 8b 40 42 d8 1a b4 c1
       -31.27561 -8.584963 48.136482 -22.513107

l1/b f4 [256]
000000 11 c7 b6 c1 f8 d6 a6 3f 62 70 02 41 e5 80 b1 40
       -22.8472 1.3034353 8.152437 5.546984
000010 85 7a 60 3f db 1b eb 40 2e 07 00 c1 4c 8e 13 40
       0.8768695 7.3471503 -8.001753 2.30556
000020 6b f7 61 bf b1 3e 87 40 b8 34 1f c2 1a 36 7a 41
       -0.88268155 4.2264028 -39.801483 15.638208
000030 a6 fd e8 bf 38 af c0 c0 05 c2 40 41 05 47 e1 3f
       -1.8202407 -6.021389 12.047368 1.7599798
000040 d3 d9 28 41 04 ed 1e 41 b6 ff 29 41 9e 94 1c 41
       10.55318 9.932865 10.624929 9.7862835
000050 2a 49 55 41 98 c9 14 40 b7 5b 95 40 cc 93 54 41
       13.330362 2.3248043 4.6674457 13.286083
000060 3f 4d b1 c0 fa 72 2c c2 50 60 9a 40 fa 32 c7 3e
       -5.5406795 -43.11228 4.824257 0.3890608
000070 59 74 30 41 b8 34 3e 3f 63 97 16 41 98 c3 31 40
       11.028405 0.7429919 9.41196 2.777563
000080 fe b4 0b 41 04 12 29 41 f0 57 07 c2 72 ba 27 41
       8.731688 10.566898 -33.835876 10.483019
000090 9c e4 f3 41 d5 d1 6d 41 45 15 df 40 8a cf 93 41
       30.486626 14.863729 6.9713464 18.476337
0000a0 9a 43 2f 41 06 e5 a6 c1 8e 20 27 c1 f8 99 b9 c1
       10.954004 -20.861828 -10.445448 -23.20018
0000b0 1a 0d 23 c1 fc 93 77 41 df db 23 c1 f6 af c3 bf
       -10.190699 15.473629 -10.241179 -1.5288074
0000c0 d2 70 90 c1 d4 a2 52 41 71 fa b2 c1 41 6e 94 41
       -18.055088 13.164753 -22.372286 18.553835
0000d0 41 af 29 41 6c 49 fc c0 e9 65 47 41 99 8a 07 41
       10.605287 -7.8839626 12.46238 8.471337
0000e0 7e 0b 85 c1 03 8b 40 c1 1b 33 93 41 c6 27 ee 40
       -16.630611 -12.033938 18.399954 7.442355
0000f0 17 d8 5a 41 be 9d 2b 3f 7b 9a 4b 41 02 f9 d6 c1
       13.677756 0.6703757 12.725215 -26.871586
000100 a8 20 44 40 ad 1b a3 41 52 ba b1 c1 00 51 18 c0
       3.0644932 20.388514 -22.215977 -2.3799438
000110 b6 bb 5f bf d5 33 68 c0 e7 62 10 3f 55 e0 35 c1
       -0.873958 -3.6281636 0.56400913 -11.367269
000120 96 6d 21 41 77 65 9a 40 82 ca 85 bf af 5c 94 c1
       10.089254 4.824886 -1.0452425 -18.545256
000130 f3 7e 8a 41 ac 1a e9 c0 44 9a d2 c0 50 a0 f5 41
       17.311987 -7.284506 -6.5813313 30.703278
000140 78 58 14 c0 87 d4 2a c2 87 ca 09 c1 1f 2d 13 41
       -2.3178997 -42.707546 -8.611945 9.198516
000150 01 43 8d 41 1f 2f 07 40 6b 44 a4 3f c5 5d 7f c0
       17.657717 2.112251 1.283338 -3.9900982
000160 29 bd 71 41 32 d8 49 41 93 f3 3c c0 b1 16 86 be
       15.108682 12.615282 -2.9523666 -0.26189187
000170 64 08 b4 41 5b e6 5e c0 ea 2a 81 3f 22 09 1d c1
       22.504097 -3.4828098 1.0091221 -9.81473
000180 26 db 3e c2 0b 53 09 c2 78 1f c6 3f 64 24 48 c1
       -47.714012 -34.331097 1.5478354 -12.508884
000190 d4 ac 94 40 62 8b 31 41 ed 32 35 40 3f ec f4 be
       4.646097 11.096529 2.8312333 -0.4783649
0001a0 bc 60 28 41 cf 0e 75 3f 18 a3 e7 be 12 23 b6 c0
       10.523617 0.9572572 -0.45241618 -5.691781
0001b0 35 8e b2 c1 8e 36 c0 41 ad e5 d3 c0 f2 82 58 c0
       -22.319437 24.026638 -6.6217866 -3.3829923
0001c0 4f 9d 9b 41 ca 9a 1b 41 bd f0 11 c0 be 0c b7 40
       19.45181 9.72529 -2.2803185 5.7203054
0001d0 11 b2 9e 40 86 af 8f 3f e8 3e b1 3f 7a 22 36 40
       4.9592366 1.122544 1.3847322 2.8458543
0001e0 20 33 a3 41 0b 9d 8e c1 e1 38 9e c1 93 05 1d 3f
       20.399963 -17.826681 -19.777773 0.6133663
0001f0 c5 b7 3b 40 0f 70 29 3f 8f bf a9 c0 f3 1a af c0
       2.9330914 0.6618661 -5.3046336 -5.4720397
000200 9e 05 0f c2 59 d2 7d c0 8d d6 d4 41 b8 84 3c c1
       -35.755486 -3.9659636 26.604761 -11.782402
000210 da 55 a5 41 bd 9d 28 41 c6 79 3c c0 6d 98 b0 3f
       20.66692 10.53851 -2.9449325 1.3796517
000220 99 47 cc c1 4f 85 45 c1 9f 4f d4 c0 c9 59 2b c1
       -25.53496 -12.345046 -6.6347194 -10.70942
000230 d0 87 0e c2 0d a0 ca c0 5e 94 94 41 db 2c 8d c1
       -35.63263 -6.3320374 18.572445 -17.646902
000240 52 05 fb bf 4d 9f 18 41 0e 10 85 41 1d 42 b6 bf
       -1.9610999 9.538892 16.63284 -1.4238926
000250 28 be 3e 40 7e de e7 c1 3a 40 85 c1 1f e4 15 41
       2.9803562 -28.983639 -16.65636 9.368194
000260 e9 e4 02 42 68 a1 89 c1 14 56 44 c1 8a 53 4f 41
       32.723545 -17.203812 -12.271015 12.957895
000270 cd 48 8c c1 59 b9 90 3e b2 ed 4d c2 df b1 39 41
       -17.535547 0.2826641 -51.482124 11.605926
000280 ec d9 e6 3e 78 d3 fa bf 01 9d f0 bf e1 d5 15 41
       0.45088136 -1.9595785 -1.8797914 9.364717
000290 b8 2f 15 41 f8 aa 16 c2 d8 dc 6d 41 36 48 3f c1
       9.32415 -37.66696 14.866417 -11.95513
0002a0 ed 73 86 c0 eb 1a 44 c2 6f c3 73 c1 03 53 f8 c0
       -4.201651 -49.026287 -15.235213 -7.7601333
0002b0 26 02 9e 40 b7 99 52 41 09 fc 8d 41 3b 39 4b c1
       4.9377623 13.162528 17.748064 -12.701472
0002c0 9f 15 fc 3f 16 66 29 c0 0d f5 1e c1 c8 7f d8 3f
       1.9694098 -2.6468558 -9.934827 1.6913996
0002d0 31 f5 85 40 fe 45 f2 bf bf 39 19 41 d2 a6 bf c0
       4.1861806 -1.892761 9.576598 -5.989114
0002e0 77 c7 93 40 68 33 91 40 1d 4e bd c1 9f 32 6c 41
       4.6180987 4.537525 -23.663141 14.762359
0002f0 a1 27 bf 3f 30 e5 59 40 6c fb 23 c0 06 2e 0f 41
       1.4933969 3.4046135 -2.5622206 8.948736
000300 87 99 87 40 60 0f 59 c0 c1 cb 6e c1 fc f5 45 41
       4.237491 -3.3915634 -14.924745 12.372555
000310 08 73 7e 41 e4 e2 4d c1 c2 98 3b 41 f3 50 0a 41
       15.903084 -12.867893 11.724794 8.644763
000320 1e 74 12 c1 75 a8 c1 40 81 0a fd c0 b0 c6 f6 3f
       -9.153349 6.0518136 -7.907532 1.9279385
000330 c5 37 94 40 f3 29 20 c1 fc 11 28 c0 60 41 d0 c1
       4.631808 -10.0102415 -2.6260977 -26.031921
000340 75 a4 96 40 3f 2b ba be aa 1d 45 c2 79 f4 15 c0
       4.7075753 -0.3636112 -49.27897 -2.3430464
000350 f7 9d ce c0 f4 9d 81 41 ac d7 34 c1 bc 50 54 40
       -6.456783 16.202126 -11.302654 3.3174276
000360 ea cc 1a 40 ea c6 f6 c1 c3 52 1f c1 65 ff 54 c1
       2.418757 -30.847126 -9.9577055 -13.312352
000370 b7 f6 b3 c1 95 e1 84 41 10 6f 13 40 21 e6 6d c2
       -22.495466 16.610147 2.3036537 -59.474735
000380 36 7d 85 41 4c ec 43 41 25 62 82 be 0d bf 6d c0
       16.686138 12.24519 -0.25465503 -3.7147858
000390 c0 75 87 bf 61 8e cb 41 fa f4 65 41 06 66 e8 c0
       -1.058281 25.44452 14.372309 -7.262454
0003a0 19 66 04 41 1d 3c a2 c0 37 09 82 41 99 eb 3b c1
       8.274926 -5.069838 16.2545 -11.745019
0003b0 6e ed 08 bf d5 d7 06 40 86 9a 2c c2 f0 4e b6 40
       -0.5348729 2.1069233 -43.1509 5.697136
0003c0 46 c7 6a 40 66 93 ce c1 99 a0 a2 c1 38 55 dc c0
       3.6684127 -25.821972 -20.328417 -6.8854027
0003d0 87 82 50 c2 98 12 80 c2 53 4f 7d c0 85 44 d2 c1
       -52.12747 -64.036316 -3.9579666 -26.283457
0003e0 89 fb 12 41 50 fb 15 41 f9 29 16 c1 c9 ef 8a c0
       9.18641 9.373856 -9.385247 -4.3417706
0003f0 92 35 bf c1 04 b1 83 41 05 4a 49 c0 f9 2c bf c1
       -23.901157 16.461433 -3.1451428 -23.89696

l4/W f4 [64, 256]
000000 3f 2b 68 42 5c bc 5c 42 ad 83 45 42 f2 b6 c1 42
       58.042233 55.183945 49.37859 96.857315
000010 da 81 17 42 30 34 60 42 06 33 7b 42 a5 43 5b 42
       37.87681 56.050964 62.799828 54.81606
000020 0a 12 48 42 91 29 6e 42 bb c0 6a 42 63 18 63 42
       50.017616 59.540592 58.688213 56.773815
000030 2f 8c 69 42 3d 94 75 42 d4 d0 57 42 04 21 48 42
       58.386898 61.394764 53.953934 50.03224
000040 0e a9 7f 42 f2 e7 4e 42 13 b5 63 42 e1 46 6c 42
       63.915092 51.72651 56.92683 59.069218
000050 68 5c 61 42 d6 29 39 42 5e 36 5a 42 c4 81 24 42
       56.34024 46.290855 54.553093 41.126724
000060 f7 a8 68 42 c4 f5 41 42 33 f3 71 42 dd 5a 83 42
       58.165005 48.490005 60.4875 65.67747
000070 a6 27 7c 42 78 55 51 42 0d 28 b2 42 74 a7 75 42
       63.03872 52.333466 89.078224 61.41353
000080 7a ca 71 42 13 52 53 42 98 83 73 42 ba a6 b1 40
       60.44773 52.83015 60.87851 5.5516024
000090 3f 9c 68 42 ab 7f 38 42 b2 83 7b 42 ed 6a 47 42
       58.152584 46.124676 62.87861 49.85442
0000a0 55 68 22 42 38 18 4c 42 9a 94 8b 42 1b 83 68 42
       40.601887 51.02365 69.79024 58.128033
0000b0 f1 ab 7e 42 18 e1 51 42 69 cf 1c 42 8b 5a 4b 42
       63.66791 52.46982 39.20255 50.83842
0000c0 9f 34 71 42 11 3b c1 42 2e a4 62 42 28 4b 8c 42
       60.301388 96.615364 56.66033 70.14679
0000d0 6a 15 5c 42 a6 89 55 42 f2 af 80 42 ab b0 cc 42
       55.020912 53.384422 64.34364 102.345055
0000e0 33 26 5c 42 97 49 b0 42 48 a2 76 42 54 be 80 42
       55.037304 88.14373 61.658478 64.371735
0000f0 60 cd 34 42 af a0 ad 42 93 be 72 42 2c bc 4d 42
       45.20056 86.813835 60.686108 51.43376
000100 5b a9 5b 42 d1 33 b7 42 44 aa a4 42 7b 19 44 42
       54.915386 91.601204 82.33255 49.024883
000110 c8 21 24 42 f1 ce 4a 42 58 df 76 42 b5 1a 4a 42
       41.03299 50.70209 61.71811 50.52608
000120 68 0a 53 42 cd 84 5b 42 2a cf 3c 42 00 14 43 42
       52.760162 54.87969 47.20231 48.76953
000130 43 9d 64 42 9c 83 44 42 3f 5e 5a 42 d2 32 69 42
       57.153576 49.128525 54.592037 58.29963
000140 d0 2f 40 42 60 73 63 42 18 66 79 42 5b 6e 89 42
       48.04669 56.86267 62.3497 68.71554
000150 46 a6 53 42 a4 9c 2f 42 5c e6 76 42 99 2c 63 42
       52.912376 43.90297 61.72496 56.793552
000160 b7 9a ac 42 48 0d bb 42 b1 77 6e 42 7a cd 35 42
       86.30218 93.52594 59.616886 45.45066
000170 5e 50 71 42 79 0c 61 42 ef 87 72 42 29 e7 2c 42
       60.328484 56.26218 60.632748 43.225742
000180 c3 16 5d 42 6a ea 6a 42 27 64 47 42 e8 e6 12 42
       55.27223 58.72892 49.847805 36.725494
000190 d8 3d 64 42 83 17 59 42 2b 6a 6b 42 64 76 83 42
       57.060394 54.27296 58.85368 65.73123
0001a0 75 c8 54 42 ca 3d 47 42 f4 cb 69 42 de ff 35 42
       53.19576 49.81034 58.449173 45.49987
0001b0 8f d9 8d 42 37 a3 6a 42 1c 8c 70 42 95 07 5f 42
       70.92492 58.65939 60.136826 55.757404
0001c0 a6 93 37 42 62 d2 0c 42 d5 22 11 42 f3 4e 26 42
       45.894188 35.205452 36.284016 41.5771
0001d0 dc 84 55 42 f8 60 43 42 ac 53 76 42 55 8f 67 42
       53.379745 48.844696 61.58171 57.889973
0001e0 f7 07 50 42 dd fd 43 42 3d 17 5f 42 72 30 38 42
       52.00778 48.997913 55.772694 46.04731
0001f0 ad 44 63 42 77 06 6a 42 1b 09 63 42 7b 4a 61 42
       56.817066 58.506313 56.758892 56.322735
000200 42 1b 5c 42 50 a3 38 42 b6 ff 57 42 d1 30 8e 42
       55.02662 46.159485 53.999718 71.095345
000210 96 b1 4d 42 57 9e e7 41 43 87 d7 41 52 76 0f 42
       51.423424 28.952314 26.941046 35.865547
000220 26 c9 85 41 8e e6 77 42 ce ca 4e 42 c9 52 5d 42
       16.723217 61.97515 51.69805 55.330845
000230 00 cb 4f 42 d7 e2 7d 42 b4 83 5d 42 85 b0 49 42
       51.948242 63.471523 55.378616 50.422382
000240 fd ea 37 42 cf 28 2e 42 7d 57 54 42 c9 b5 48 42
       45.97948 43.539852 53.085438 50.177525
000250 4e 4b 48 42 5f 1e 71 42 35 92 1e 42 c6 4d 7c 42
       50.07354 60.27966 39.64278 63.07595
000260 fa 57 75 42 b5 4a 73 42 4b 15 b7 41 1f ef 5e 42
       61.335915 60.822956 22.885397 55.733517
000270 36 b6 50 42 3f af 73 42 0e 61 47 42 55 00 53 42
       52.17794 60.92114 49.84478 52.750324
000280 38 04 10 42 85 a6 2d 42 91 93 3e 42 9e e8 84 42
       36.00412 43.412617 47.644108 66.45433
000290 e1 6b 2e 42 c5 2e 61 42 45 da 61 42 9b ba 2e 42
       43.60535 56.295673 56.463154 43.68223
0002a0 5a 89 81 42 74 0c a6 42 8b 72 63 42 f9 dc 5c 42
       64.768265 83.02432 56.86186 55.215794
0002b0 dd 81 91 42 78 40 75 42 5f 3c 44 42 94 84 8b 42
       72.75364 61.312958 49.058956 69.75894
0002c0 3a 41 5c 42 d6 53 54 42 ed 00 3d 42 e7 2e 26 42
       55.063698 53.08187 47.250904 41.545803
0002d0 f3 de 8d 42 1e 48 73 42 1a 87 fe 41 78 be 68 42
       70.93545 60.820427 31.815968 58.186005
0002e0 e8 05 6f 42 a3 47 3d 42 af 54 66 42 a6 75 45 42
       59.755768 47.319958 57.5827 49.36489
0002f0 84 7c 6c 42 8f ea 78 42 c3 17 6b 42 03 be 53 42
       59.121597 62.22906 58.773205 52.93556
000300 52 ac 1a 42 41 5f 5e 42 91 be 2f 42 b4 68 7f 42
       38.66828 55.59302 43.9361 63.85225
000310 d8 4d 5d 42 4d 00 39 42 e2 37 5e 42 74 d4 68 42
       55.32602 46.250294 55.554573 58.207474
000320 c7 cc 29 42 91 8d 62 42 ee f3 68 42 55 e4 23 42
       42.449978 56.63825 58.238213 40.97298
000330 99 a7 84 42 3d 9f 9f 42 2a 36 72 42 ba 30 37 42
       66.32734 79.81101 60.552895 45.797585
000340 b0 73 77 42 3a 25 69 42 6a e6 35 42 b8 3e 23 42
       61.862976 58.286354 45.475014 40.81125
000350 76 11 62 42 76 92 25 42 14 3e 5e 42 a7 34 4f 42
       56.51705 41.39303 55.560623 51.80142
000360 45 0c 65 42 ba 67 72 42 61 c0 5d 42 c3 10 71 42
       57.261982 60.601295 55.43787 60.26637
000370 34 14 ef 41 32 9c 66 42 49 43 65 42 85 8a 6c 42
       29.884865 57.652534 57.31571 59.135273
000380 6c b7 67 42 89 01 39 42 54 b1 60 42 80 d7 66 42
       57.929123 46.2515 56.173172 57.71045
000390 40 24 69 42 a9 67 30 42 f1 3e 4e 42 71 a8 31 42
       58.2854 44.10123 51.561466 44.414494
0003a0 35 e6 68 42 c7 54 52 42 6d ce 6d 42 05 cd 21 42
       58.22481 52.58279 59.451588 40.450214
0003b0 5d e0 32 42 e1 34 5c 42 1d 39 5e 42 22 c3 c9 42
       44.719105 55.05164 55.555775 100.88112
0003c0 02 77 82 42 7a 02 4a 42 40 35 7c 42 f6 a8 62 42
       65.23244 50.50242 63.052002 56.665
0003d0 d5 cd 82 42 21 a9 29 42 a7 c3 66 42 12 bc 3b 42
       65.402016 42.415165 57.691067 46.933662
0003e0 99 97 14 42 95 9c 7b 42 2f 4d 3b 42 0e 58 ac 42
       37.148045 62.902912 46.825375 86.17198
0003f0 70 67 31 42 8a e0 46 42 f5 e8 82 42 e5 cb 78 42
       44.351013 49.719276 65.454994 62.199116

l4/b f4 [64]
000000 ec 09 c0 c2 6d 04 c0 c2 88 16 c0 c2 17 16 c0 c2
       -96.01938 -96.008644 -96.04401 -96.043144
000010 e9 0c c0 c2 4e 12 c0 c2 ff 07 c0 c2 22 11 c0 c2
       -96.025215 -96.03575 -96.01562 -96.03346
000020 2e 14 c0 c2 12 15 c0 c2 79 39 c0 c2 d0 0d c0 c2
       -96.03941 -96.04115 -96.11225 -96.02698
000030 0a 17 c0 c2 fe 15 c0 c2 e5 21 c0 c2 c1 13 c0 c2
       -96.045 -96.04295 -96.0662 -96.03858
000040 7a 11 c0 c2 aa 16 c0 c2 00 23 c0 c2 dd 0f c0 c2
       -96.034134 -96.044266 -96.06836 -96.03098
000050 ec 1c c0 c2 b5 32 c0 c2 4b 22 c0 c2 87 11 c0 c2
       -96.05649 -96.09904 -96.06698 -96.03423
000060 8b 12 c0 c2 c1 19 c0 c2 67 17 c0 c2 94 09 c0 c2
       -96.03622 -96.0503 -96.04571 -96.01871
000070 79 11 c0 c2 37 15 c0 c2 4d 0b c0 c2 15 12 c0 c2
       -96.03413 -96.041435 -96.02207 -96.03532
000080 86 14 c0 c2 b8 1a c0 c2 f2 06 c0 c2 29 12 c0 c2
       -96.040085 -96.052185 -96.013565 -96.03547
000090 f3 18 c0 c2 60 0e c0 c2 73 11 c0 c2 ab 10 c0 c2
       -96.04873 -96.028076 -96.03408 -96.032555
0000a0 08 06 c0 c2 70 11 c0 c2 fc 1b c0 c2 b5 12 c0 c2
       -96.01178 -96.03406 -96.05466 -96.03654
0000b0 be 0e c0 c2 02 08 c0 c2 5a 18 c0 c2 3e 0e c0 c2
       -96.02879 -96.01564 -96.04756 -96.02782
0000c0 2b 0a c0 c2 a6 0e c0 c2 a6 18 c0 c2 ab 10 c0 c2
       -96.01986 -96.02861 -96.04814 -96.032555
0000d0 14 16 c0 c2 c8 21 c0 c2 5b 1e c0 c2 cd 13 c0 c2
       -96.04312 -96.06598 -96.05929 -96.03867
0000e0 43 0a c0 c2 3d 11 c0 c2 7c 08 c0 c2 56 0b c0 c2
       -96.02004 -96.03367 -96.01657 -96.02214
0000f0 5c 1a c0 c2 68 13 c0 c2 b4 17 c0 c2 a0 10 c0 c2
       -96.05148 -96.0379 -96.046295 -96.03247

l3/W f4 [256, 256]
000000 e6 8c df bd 9a a3 b6 c1 96 2c 04 c2 20 9d 62 40
       -0.10915546 -22.829884 -33.04354 3.5408401
000010 53 8b bc 41 3c cf 0c 42 7f 68 84 40 86 61 14 c1
       23.56803 35.202377 4.137756 -9.273809
000020 b9 8d de bf 7e 77 86 bf 08 cb 0c 42 6c af d0 41
       -1.7387 -1.0505216 35.198273 26.085655
000030 99 8c 75 40 a3 77 03 41 0d 0c db 3f dc 47 97 bf
       3.8367064 8.216708 1.7113053 -1.1818805
000040 7e 8a 5a 41 52 08 c4 c1 1e 3b 52 c1 09 0e e6 c0
       13.658812 -24.504063 -13.139433 -7.1892133
000050 a5 6d 3f c2 a3 8c f4 c1 17 02 c3 41 f0 c5 29 bf
       -47.857075 -30.56867 24.37602 -0.66317654
000060 5e 59 45 40 09 a2 a2 41 ba 15 eb 40 ba 58 10 c2
       3.0835795 20.329119 7.346402 -36.086647
000070 e8 de c2 c0 b4 61 41 40 81 12 7a c1 1e 44 2a 41
       -6.08971 3.0215883 -15.629518 10.64163
000080 e0 9e b0 41 4f 65 89 bf f8 eb 0b c1 6b a2 f5 40
       22.077576 -1.0734042 -8.74511 7.6760764
000090 61 0c 26 c2 c6 6a b7 c0 c5 37 af c1 74 71 0c c0
       -41.51209 -5.731784 -21.902231 -2.1944246
0000a0 44 3d 59 41 a0 cb 89 3d 43 ab 2e c2 f7 e4 c7 41
       13.577457 0.067282915 -43.667248 24.9868
0000b0 aa 3a 9c 41 f3 e7 8c 41 2e 3f 00 41 8d e2 ae 41
       19.528645 17.613256 8.015425 21.86062
0000c0 62 36 b5 be 5a dc 6e 40 38 1b 08 41 41 1d db c1
       -0.35393053 3.7321992 8.506645 -27.389284
0000d0 04 76 fc c0 ee f7 86 41 8c 47 39 c1 e5 46 8a c2
       -7.889406 16.87106 -11.5799675 -69.138466
0000e0 df 7f cf 41 30 6a 4f c0 de 4f 06 c2 7f e7 cf 41
       25.937437 -3.2408562 -33.577995 25.988035
0000f0 71 74 c6 41 d3 6d a2 c1 bb 43 11 c2 cd a5 7f c1
       24.806856 -20.303625 -36.316143 -15.977979
000100 c7 3d 09 c1 be 99 28 41 d0 5d de c1 6b 0a 63 41
       -8.577582 10.537535 -27.795807 14.190043
000110 cb 5c 49 40 0d 5f 8d c1 82 17 f4 c0 03 1c 0c 42
       3.1462886 -17.671412 -7.6278696 35.027355
000120 7b 21 90 41 2d aa 60 bc 2a ec 0d c2 47 25 17 c1
       18.016348 -0.013712448 -35.48063 -9.446601
000130 05 ec 29 c1 ff 0c 15 c1 b0 91 87 c1 07 e4 36 41
       -10.620122 -9.315673 -16.946136 11.430671
000140 e4 f6 b0 3f c5 f0 e2 c1 9e fc c3 c1 07 ab c7 c1
       1.3825345 -28.367563 -24.498348 -24.95851
000150 96 7e ce c1 1a fa 93 bf 0f 1a ac c1 c0 e2 87 40
       -25.81181 -1.15607 -21.512724 4.2464294
000160 4b f3 9e c1 50 a4 5f c0 c4 8b 26 41 a8 a1 0f 42
       -19.868795 -3.4944038 10.409122 35.907867
000170 a6 78 45 41 06 48 e1 3f 07 7d 1a 41 3e c8 63 c1
       12.341955 1.7600105 9.655524 -14.236387
000180 0c 84 a2 41 e1 f8 50 bf 58 c2 21 c2 b9 cc 21 41
       20.314476 -0.8162976 -40.43979 10.112481
000190 d8 4a 0e c1 96 c2 26 c2 1c a2 1a 42 a7 b1 91 41
       -8.893272 -41.690025 38.65831 18.211744
0001a0 af 17 33 c1 2b de d6 c1 4e 9e 00 42 e6 61 c5 40
       -11.193282 -26.85848 32.154594 6.1682005
0001b0 bf cc 19 c1 b6 5c d2 c1 4d d9 3b 40 65 0f 09 c1
       -9.612487 -26.295269 2.935138 -8.566258
0001c0 26 ac a8 c1 40 1b 29 c2 aa 6f a2 41 f2 df 05 c2
       -21.084057 -42.27661 20.304523 -33.468697
0001d0 65 73 3a 42 bd 39 dd 40 01 ca bd 40 0b 4f 25 c1
       46.61269 6.913298 5.9309087 -10.331798
0001e0 cc ca 45 c1 07 a9 b2 c0 e1 2d 79 3f c9 9c 54 c1
       -12.362011 -5.583133 0.9733563 -13.288278
0001f0 2f 92 e9 41 73 d4 32 c2 9d 7a 17 41 4a fe a8 41
       29.196379 -44.70747 9.467435 21.124165
000200 2e ce f3 41 22 24 47 c2 f3 11 8d 41 68 04 d5 c1
       30.475674 -49.785286 17.633764 -26.627151
000210 7e f1 90 c1 2e 25 27 42 24 80 0c c2 3e ac 02 41
       -18.117916 41.78631 -35.125137 8.167051
000220 f1 45 d1 41 35 bb 68 41 21 d0 e2 c1 4b 29 f8 c0
       26.159151 14.545705 -28.351625 -7.7550406
000230 be 93 5e 40 8f 74 5d c1 53 9e ae 40 e1 e8 89 c1
       3.4777675 -13.840957 5.4568267 -17.23871
000240 8a 08 4f c2 c6 ba 68 c1 17 d5 fa 40 51 4a 3a c2
       -51.75834 -14.545599 7.838512 -46.572575
000250 a4 7d 01 41 85 90 fe 40 0c 1a eb c0 8d 2c 99 c1
       8.093174 7.9551415 -7.3469296 -19.146753
000260 7b ec 94 c1 84 3f 21 41 93 8a 04 c2 1c e7 c1 c1
       -18.615469 10.078007 -33.135326 -24.237846
000270 4c 06 07 c2 d4 7d 2d 3d f3 67 72 40 75 1f 65 c1
       -33.75615 0.042356327 3.7875946 -14.32018
000280 4d e8 16 c2 b0 fc 82 c1 35 aa 56 c2 8b 64 66 41
       -37.726856 -16.373383 -53.666218 14.399547
000290 7f f2 7f c2 5c 37 18 c1 77 eb 02 c2 cc e1 00 40
       -63.986813 -9.513515 -32.729946 2.0137815
0002a0 76 3b 91 c2 32 b2 7b bf bf 25 cb c1 b9 51 28 41
       -72.616135 -0.9831878 -25.39343 10.519952
0002b0 4b 60 d8 41 b9 19 78 c1 5f 1d 75 c1 23 16 c8 c0
       27.047018 -15.50628 -15.319671 -6.252702
0002c0 f5 94 be c0 54 87 92 41 89 2a 73 41 18 3f 17 c2
       -5.955683 18.316078 15.197885 -37.811615
0002d0 5a f9 8c c2 c1 c7 a5 c1 ee 41 b1 41 25 62 33 c2
       -70.487015 -20.722536 22.157192 -44.845844
0002e0 37 bf 3a 42 af 25 c3 c1 a4 00 e5 40 db 61 a7 40
       46.686733 -24.3934 7.156328 5.2306952
0002f0 d0 bd 2a c1 bd d0 fb c1 01 3e 95 bf 27 da 59 41
       -10.671341 -31.476923 -1.1659547 13.61576
000300 90 f4 bb 40 83 98 c3 41 01 84 84 41 2c bc a6 bf
       5.873604 24.449469 16.564455 -1.3026175
000310 5b 93 1e c1 12 15 93 41 66 a4 46 c2 1b 59 1b 42
       -9.910975 18.385288 -49.660545 38.837017
000320 75 b1 97 3f 7e 80 0b c1 b5 0f 7a 41 e1 b1 f3 41
       1.185103 -8.71887 15.628835 30.461855
000330 17 46 9a c1 d4 a5 c4 41 45 da be 41 aa 1b bf c0
       -19.284224 24.58097 23.856577 -5.972127
000340 85 d2 67 c1 3c f6 f7 c1 f4 58 1b c2 9b a1 9e 40
       -14.488896 -30.995232 -38.83687 4.957227
000350 06 99 bb 41 dc c5 d1 41 e1 47 b5 41 28 3f 7a c1
       23.449718 26.221611 22.660097 -15.640419
000360 03 96 e6 40 d4 58 26 c2 2d cc c6 be 1a 7b a2 c1
       7.205812 -41.586746 -0.3882765 -20.310108
000370 e2 bf b7 c1 a7 7d 43 c2 3a 40 a7 c1 18 8a 49 c2
       -22.968693 -48.872707 -20.90636 -50.384857
000380 28 d7 20 c2 7b 4b 97 c1 dc 15 78 c1 81 79 2c 41
       -40.210114 -18.911856 -15.505337 10.779664
000390 ac 80 73 41 ac df 8b 41 58 75 c5 40 05 2b a6 c0
       15.218914 17.484215 6.170574 -5.1927514
0003a0 d1 74 88 41 e0 42 01 41 e5 d9 a9 c1 d2 42 16 41
       17.05704 8.078827 -21.231394 9.391314
0003b0 f3 8a b8 c0 f2 31 1c c1 69 bf 20 c2 70 12 9b c1
       -5.7669616 -9.762194 -40.186924 -19.384003
0003c0 ac 33 75 c1 6d a5 02 c0 7d 22 30 c2 8c 8e 37 42
       -15.325115 -2.0413468 -44.03368 45.889206
0003d0 6e 32 43 41 75 a4 b7 40 ea d7 14 41 db a3 9c bf
       12.199812 5.7388253 9.302713 -1.2237505
0003e0 0b a7 5d c2 2d 84 7f 41 f5 a9 0c c1 84 b3 e1 c1
       -55.413128 15.9697695 -8.791493 -28.212654
0003f0 a3 11 b4 41 4e 56 6a c1 c8 47 ec 41 a7 68 06 41
       22.508612 -14.6460705 29.53505 8.40055

l3/b f4 [256]
000000 0d f1 08 41 1f fc 71 bf d9 e9 34 40 27 95 96 c0
       8.55885 -0.9452533 2.826773 -4.705707
000010 ee 9e 9e 41 05 3f be 41 d6 de 8c 41 ac 51 3a 41
       19.827602 23.780771 17.608807 11.644939
000020 1b bf 23 41 6a 06 87 40 da 5b dc bf 5a f0 16 41
       10.234157 4.219533 -1.7215531 9.43368
000030 58 c4 a8 3f c2 5a 13 c0 c5 e8 8b 40 c7 01 3f 41
       1.3184919 -2.3024144 4.3721642 11.937934
000040 ed 65 3f 3f ad 13 fb 40 29 09 65 41 6b 79 e8 40
       0.747649 7.846152 14.314736 7.2648215
000050 a2 81 3d 40 9e 04 3f c0 58 4b f1 41 76 7b a1 40
       2.9610372 -2.9846568 30.161789 5.046321
000060 f3 1e 13 41 11 c6 11 40 e2 a2 45 40 13 d9 3f 41
       9.195056 2.277714 3.0880666 11.990497
000070 0e 62 01 bd 9e 7b c8 40 3d 7a b0 c0 f5 1b 22 41
       -0.031587653 6.26509 -5.5149217 10.131825
000080 79 29 b8 c0 81 1d 10 41 fe 0c cf 3f 95 00 6e 42
       -5.7550626 9.007203 1.617584 59.50057
000090 51 94 7b 40 6a 81 67 c0 34 9b 6a 3e 91 20 36 c0
       3.9309275 -3.6172738 0.22910768 -2.8457377
0000a0 2e 71 a9 40 1e 56 31 41 6d 21 3b 41 3f 03 e7 40
       5.295066 11.083525 11.695661 7.2191463
0000b0 54 53 fd c0 1b c0 c6 40 28 f0 05 42 36 2a 36 41
       -7.916422 6.2109504 33.484528 11.385305
0000c0 e7 44 ec 3f bc ae c9 c0 e3 90 6a 41 0c 41 e3 c0
       1.8458527 -6.30258 14.660373 -7.1016903
0000d0 8d 03 45 bf 71 34 35 c0 65 0d f4 bf 9e 22 d7 3f
       -0.76958543 -2.8313258 -1.9066588 1.6807439
0000e0 ea 6f 66 40 9b 03 01 c1 74 df 33 41 73 7d 8f 40
       3.6005807 -8.06338 11.242054 4.4840636
0000f0 44 0a cd 41 9e 7b 47 bf 97 2f 25 c0 0e 9d 6e 40
       25.630013 -0.77923 -2.5810297 3.7283359
000100 0b d1 9a 40 2c 16 2b c0 24 33 56 bf 33 e3 35 41
       4.838018 -2.6732283 -0.83671784 11.367969
000110 6d 22 33 41 53 0d 48 41 c9 04 4f 41 9d 9f 21 41
       11.195905 12.503253 12.938668 10.101468
000120 aa a6 95 bf 2a e7 85 41 26 ba 63 40 b9 08 59 40
       -1.1691487 16.737873 3.5582366 3.3911574
000130 37 2f 3a 40 21 38 95 40 b3 32 a0 41 99 01 87 40
       2.9091318 4.6631017 20.024755 4.218945
000140 71 38 aa 3f 85 f9 63 40 3f 5b 5a 3f 2a 9d b4 be
       1.3298475 3.5621045 0.8529548 -0.35276157
000150 4e 07 05 41 f6 1e df 41 66 c3 0f 41 f2 c3 40 40
       8.314283 27.890118 8.985205 3.0119596
000160 89 59 66 c0 8a 8f 5e c1 7d 8c 0e 41 5a 40 3a 41
       -3.5992148 -13.910044 8.909299 11.640711
000170 83 df 51 40 1b 6e 5e 41 27 a6 e2 40 d8 ba 17 41
       3.279267 13.901881 7.0827823 9.483116
000180 32 08 bb 41 3d 2c 0b bf 77 08 77 41 3f d7 0e 41
       23.379002 -0.5436438 15.439567 8.92755
000190 79 28 01 41 71 53 5e 41 2f 74 d1 40 52 cc 42 41
       8.072381 13.895371 6.5454326 12.174883
0001a0 83 af 4f c0 4d 5d ed 40 4d 62 7a 40 2c 1e de 41
       -3.2450874 7.4176393 3.9122498 27.764732
0001b0 20 f6 1e 40 f0 82 67 bf f2 8b ae c0 09 08 e8 40
       2.4837723 -0.9043417 -5.454583 7.250981
0001c0 06 33 73 40 b0 11 e2 40 24 65 16 42 91 0c e9 40
       3.7999892 7.064659 37.59877 7.282784
0001d0 8e 6b b0 41 26 d0 60 41 54 c1 07 c0 a3 01 3a be
       22.052517 14.0508175 -2.1211748 -0.18164687
0001e0 6d 02 84 41 f4 55 13 41 9a f8 63 c0 27 89 f8 40
       16.501184 9.208485 -3.5620484 7.766742
0001f0 8f 13 41 c0 00 2e 3f bf bb 6d 13 bf 81 72 05 40
       -3.0168188 -0.74679565 -0.5758931 2.0851138
000200 52 a3 20 41 0f ef 86 41 0a 54 61 3f 3a 1a d9 40
       10.039873 16.866728 0.8801886 6.7844515
000210 de 5f ad 40 e9 63 5e 41 4b d8 1b 42 73 8b d5 41
       5.4179525 13.899392 38.961224 26.69309
000220 15 6c 21 40 75 80 38 3f d0 a7 eb 40 de be 05 40
       2.5222218 0.7207101 7.364235 2.0897746
000230 30 d0 0b 41 34 70 f3 bf 05 22 7d 40 9d 5e 1a 41
       8.738327 -1.9018617 3.9552014 9.648099
000240 85 88 8a 41 bb 08 87 3f 99 93 86 c0 92 de 05 bf
       17.31666 1.0549539 -4.2055173 -0.5229274
000250 5d 7d 3e 41 ac 13 c7 3e 08 fe 48 41 af 2c 1c 41
       11.905606 0.38882196 12.562019 9.760909
000260 3e 7d 33 41 f0 46 fa 3e bb cb ce 41 cb fd 8b c0
       11.218077 0.48882246 25.849478 -4.3747306
000270 93 13 05 41 3b be 69 41 ec c2 ca bf d5 f1 ac 3f
       8.317279 14.608943 -1.5840735 1.3511301
000280 b4 f1 50 41 3a 10 db 41 e9 3f c2 40 d3 46 27 41
       13.05901 27.382923 6.0703015 10.454791
000290 f7 80 9d 41 c3 3a 1c 41 74 d1 a2 40 03 7b 1d 41
       19.687971 9.764346 5.088068 9.842532
0002a0 0d ec f1 c0 7a 65 85 41 12 8f fc 3f 31 ad 4e 41
       -7.560065 16.67455 1.9731162 12.917283
0002b0 af 15 0f 41 a0 9f 86 c0 7d 0f fe 40 4e a2 70 41
       8.942794 -4.2069855 7.9393907 15.039625
0002c0 84 c5 8f 40 2c 58 35 41 19 66 28 41 ec 54 09 41
       4.492861 11.334026 10.524926 8.583233
0002d0 3b 1e 1c 41 01 c5 91 41 3c d0 01 42 f1 49 af 3f
       9.7573805 18.221193 32.453354 1.369444
0002e0 6a a2 05 41 b8 d0 c2 40 39 d6 cf 40 55 72 93 40
       8.352152 6.0879784 6.4949 4.6077065
0002f0 e8 52 12 41 43 e7 23 c0 af 06 27 40 36 2b 78 40
       9.145241 -2.56099 2.609783 3.8776374
000300 e1 17 f2 40 17 32 07 bf 19 70 d1 41 7c 8a 4b 3f
       7.565415 -0.52810806 26.179735 0.79508185
000310 e2 01 ba 40 2d a4 9f 41 99 c0 2f c0 b6 d3 c8 40
       5.81273 19.955164 -2.7461302 6.2758436
000320 69 15 83 3f e9 71 bf 3f 5b cf 54 40 ab 6e 1b 41
       1.0240909 1.4956638 3.325156 9.714519
000330 e6 ce 7e 40 58 04 df 3f 04 b8 3f 41 4f bf f3 41
       3.981378 1.7423201 11.982426 30.468412
000340 c9 02 7d 40 7d 5a 19 41 9e 51 ef 41 84 36 25 41
       3.953295 9.584592 29.914852 10.3258095
000350 d5 a6 19 41 55 c8 f7 40 7b 33 94 40 45 de 09 42
       9.60323 7.7432046 4.631284 34.46706
000360 62 0d e0 40 c2 62 90 40 ba fa 8e 40 74 9a 8e 41
       7.0016336 4.5120554 4.4681063 17.825417
000370 e5 70 6a 42 dc b2 b1 41 fc d9 51 be e1 52 a2 3f
       58.61025 22.212334 -0.2049331 1.2681543
000380 ce 07 79 41 b6 d2 cf 3f d8 70 20 41 a8 19 56 41
       15.564405 1.6236179 10.02755 13.381264
000390 8a 5b 98 bf c7 c9 c1 40 5c 89 82 3d 9d 5a 5c 3e
       -1.1902936 6.055881 0.063738555 0.21518941
0003a0 e6 1f 79 3e f2 e2 29 41 46 3b 20 41 17 70 54 3f
       0.24328575 10.617907 10.014471 0.82983536
0003b0 67 29 f2 3e 39 ac 9d 40 14 14 13 41 5e 56 4c c0
       0.47297212 4.9272733 9.192402 -3.1927714
0003c0 84 3c a6 3f a4 2c 06 c1 96 30 1d 41 98 e5 bf 40
       1.2987218 -8.385899 9.824362 5.9967766
0003d0 2f 2d 80 41 80 7d 52 41 50 bb c7 c0 9f aa 63 41
       16.022062 13.15564 -6.2416153 14.229156
0003e0 60 44 e7 41 4c c4 ca 40 6e 20 4d 41 ab 7a f1 41
       28.908386 6.336462 12.820417 30.184896
0003f0 0b d6 07 41 61 0c 12 c0 e2 b0 f0 40 e3 93 09 c0
       8.489757 -2.2820055 7.521592 -2.1496513
