size8/agent_white_124000/target_model.npz (npz, 608433 bytes, 8 tensors)

l2/W f4 [256, 256]
14.0379 -10.815977 -29.969053 -8.978646 -29.674032 18.852068 9.9122 8.055351
9.363625 -8.97547 17.929087 19.541576 -0.7457164 -3.6811442 -32.18119 -2.2656372
16.719866 -9.877045 -17.774704 -10.316494 -18.971586 11.478857 3.3473132 2.5250146
-0.69383776 -11.977476 2.5498843 -13.594906 29.01335 39.38605 11.316268 -3.0898287
-9.332597 3.2269204 -9.157428 -0.5205997 23.10154 16.072868 -26.124935 14.902424
-16.714018 -9.045305 -6.732358 -9.214378 0.7048281 30.141518 15.813988 -0.33032146
-7.8164825 -25.98506 9.661526 -1.1590353 4.0464287 -24.20199 2.5799437 11.968815
-17.959185 -16.012283 14.302724 9.230417 -30.465593 1.9777956 7.248519 -12.337051
-17.518433 -24.003641 -23.784828 -14.636013 0.23794626 4.9460487 -13.093004 19.28948
22.659292 15.037749 -6.4408092 12.580807 1.7876937 -21.539072 25.380005 5.902082
11.433527 6.423967 5.8961697 -12.320062 1.7469213 12.4703 -3.870666 26.55199
6.8010716 -16.017006 0.8444878 2.1919746 -31.776783 2.383204 4.1216183 16.561178
-28.00986 -0.8623306 18.818945 -1.7410297 -6.7297354 -59.301357 -11.953326 -12.708721
-33.022137 -12.359108 -22.773844 -45.876472 12.724925 -53.60357 9.122217 5.615293
6.743341 -4.8375235 -3.5057292 -35.825996 -8.389241 -12.585396 -4.8948746 -11.587905
-9.076608 -30.171888 3.069566 -45.847824 3.5434542 -24.896105 -6.998 3.918881
26.316061 -22.969515 0.96169907 -28.058432 15.47937 22.845312 9.750397 21.801975
-55.67741 -11.9173155 13.368264 -6.983099 -30.310553 -9.255158 -10.594596 25.328558
-19.322432 -55.410168 39.380943 9.049166 26.123331 8.629547 -4.4766192 14.772888
5.670492 -13.173805 17.073189 3.9469151 -3.384833 -11.685967 1.9510444 -15.978931
-8.35672 -28.508652 19.147602 19.200945 -20.968971 -18.448606 -8.13912 12.222727
-13.638057 14.622384 -14.475127 -0.35197067 -3.1310344 20.075989 -50.510876 3.2822003
-21.731663 18.892649 4.8059216 9.059467 6.411287 45.127586 -15.515255 7.6293063
16.22858 -44.12039 -4.6538396 4.171598 -31.905682 26.955002 16.57029 20.290129
21.876768 3.4333432 12.147351 5.8578877 21.17365 16.192953 17.719055 16.519583
-9.820871 -29.529387 -29.630861 -8.801574 -15.760581 -23.255627 -24.35265 -20.312635
-20.08859 -10.071318 -24.20148 -1.3037784 -13.143325 -14.805081 -32.370953 -22.915392
-0.569563 0.92489374 -17.070656 -10.32216 -2.5554547 1.8158213 -20.194279 -10.06924
-14.143795 -17.046968 -1.7440743 -34.261814 -30.474398 -18.523647 19.14374 13.493595
12.037974 -15.627674 13.00738 -5.4436975 -6.558448 19.482227 -3.686967 -5.9813385
1.8087189 -6.6271677 -11.283581 8.298895 -33.020992 -18.261284 31.07015 -27.351667
30.537588 30.554365 21.710049 -7.0386477 -20.642841 -45.43557 1.3768976 13.398222
00000000: 3d9b 6041 3e0e 2dc1 9fc0 efc1 89a8 0fc1
00000010: 6b64 edc1 09d1 9641 5f98 1e41 b8e2 0041
00000020: 68d1 1541 869b 0fc1 c56e 8f41 2655 9c41
00000030: 45e7 3ebf de97 6bc0 8ab9 00c2 3300 11c0
00000040: 49c2 8541 6008 1ec1 9832 8ec1 5c10 25c1
00000050: cfc5 97c1 66a9 3741 613a 5640 d799 2140
00000060: 5a9f 31bf bea3 3fc1 4e31 2340 bc84 59c1
00000070: 571b e841 518b 1d42 6f0f 3541 c1bf 45c0
00000080: 5152 15c1 dd85 4e40 d384 12c1 0646 05bf
00000090: f4cf b841 3c95 8041 deff d0c1 5470 6e41
000000a0: 4fb6 85c1 92b9 10c1 7a6f d7c0 186e 13c1
000000b0: 9d6f 343f d421 f141 1806 7d41 e51f a9be
000000c0: a020 fac0 67e1 cfc1 9c95 1a41 455b 94bf
000000d0: 587c 8140 ad9d c1c1 cc1d 2540 4480 3f41
000000e0: 69ac 8fc1 2819 80c1 f5d7 6441 caaf 1341
000000f0: 89b9 f3c1 6828 fd3f def3 e740 9064 45c1
00000100: c025 8cc1 7507 c0c1 5447 bec1 1c2d 6ac1
00000110: 2fa8 733e 0846 9e40 f27c 51c1 db50 9a41
00000120: 3b46 b541 9f9a 7041 1c1b cec0 fc4a 4941
00000130: 26d3 e43f 0550 acc1 400a cb41 dbdd bc40
00000140: baef 3641 2391 cd40 6cad bc40 f91e 45c1
00000150: 1e9b df3f 5986 4741 feb8 77c0 7a6a d441
00000160: 61a2 d940 d422 80c1 5a30 583f 5049 0c40
00000170: da36 fec1 6a86 1840 4ce4 8340 4b7d 8441
00000180: 3114 e0c1 b3c1 5cbf 338d 9641 10da debf
00000190: fe59 d7c0 9734 6dc2 d340 3fc1 ec56 4bc1
000001a0: ab16 04c2 e8be 45c1 d530 b6c1 8281 37c2
000001b0: 4b99 4b41 0e6a 56c2 9af4 1141 7bb0 b340
000001c0: 73c9 d740 fecc 9ac0 de5d 60c0 d24d 0fc2
000001d0: 553a 06c1 c85d 49c1 d0a2 9cc0 0f68 39c1
000001e0: c939 11c1 0760 f1c1 c573 4440 2c64 37c2
000001f0: f4c7 6240 392b c7c1 9eef dfc0 f2ce 7a40
00000200: 4b87 d241 91c1 b7c1 e931 763f ab77 e0c1
00000210: 80ab 7741 33c3 b641 a001 1c41 726a ae41
00000220: abb5 5ec2 53ad 3ec1 69e4 5541 8c75 dfc0
00000230: 037c f2c1 2115 14c1 7783 29c1 e3a0 ca41
00000240: 5794 9ac1 03a4 5dc2 1686 1d42 62c9 1041
00000250: 95fc d041 a012 0a41 7740 8fc0 c05d 6c41
00000260: ac74 b540 e8c7 52c1 e495 8841 429a 7c40
00000270: 1ba1 58c0 b9f9 3ac1 d3bb f93f b4a9 7fc1
00000280: 20b5 05c1 b811 e4c1 4a2e 9941 899b 9941
00000290: 74c0 a7c1 bf96 93c1 d639 02c1 4a90 4341
000002a0: 7b35 5ac1 49f5 6941 1f9a 67c1 8035 b4be
000002b0: de62 48c0 a09b a041 230b 4ac2 920f 5240
000002c0: 72da adc1 2524 9741 1cca 9940 94f3 1041
000002d0: 4329 cd40 a682 3442 7c3e 78c1 4723 f440
000002e0: 22d4 8141 487b 30c2 41ec 94c0 bb7d 8540
000002f0: d63e ffc1 d8a3 d741 f48f 8441 2f52 a241
00000300: 9f03 af41 e5bb 5b40 8d5b 4241 d173 bb40
00000310: a363 a941 2b8b 8141 a0c0 8d41 1b28 8441
00000320: 4a22 1dc1 2f3c ecc1 010c edc1 3fd3 0cc1
00000330: 572b 7cc1 860b bac1 3ad2 c2c1 4780 a2c1
00000340: 6fb5 a0c1 1e24 21c1 a29c c1c1 36e2 a6bf
00000350: 0f4b 52c1 9de1 6cc1 db7b 01c2 b952 b7c1
00000360: e1ce 11bf d6c5 6c3f b490 88c1 9127 25c1
00000370: 928c 23c0 d56c e83f e28d a1c1 9b1b 21c1
00000380: fc4c 62c1 3160 88c1 d43d dfbf 190c 09c2
00000390: 91cb f3c1 6e30 94c1 6126 9941 c4e5 5741
000003a0: 8b9b 4041 f40a 7ac1 3a1e 5041 c532 aec0
000003b0: cede d1c0 9adb 9b41 44f7 6bc0 2067 bfc0
000003c0: 1a84 e73f c211 d4c0 8c89 34c1 46c8 0441
000003d0: 7f15 04c2 1c17 92c1 ab8f f841 37d0 dac1
000003e0: fb4c f441 576f f441 2eae ad41 9a3c e1c0
000003f0: 8a24 a5c1 06be 35c2 2e3e b03f 1e5f 5641

l2/b f4 [256]
14.096492 14.267058 9.195858 23.090855 8.4486065 21.01622 0.2618789 -3.434982
14.253351 -0.9282878 1.8003218 10.128752 -0.66929674 -1.7990202 4.485766 0.672562
-0.039473083 14.722452 12.725431 -14.031761 7.4104505 29.29919 17.728148 -1.8103653
2.287098 -1.0407958 3.4451497 6.5857153 11.478436 -3.1651237 23.838661 11.352899
21.207209 16.657589 14.441528 0.67982066 -11.879166 13.185246 -4.630517 13.871108
8.354512 15.092057 16.321836 -3.425396 13.217791 18.764797 -15.447551 14.545644
-9.346691 -6.9327383 31.28712 -16.240452 16.477715 18.233479 13.944302 -13.672256
-2.6748495 13.071407 3.0632448 0.19314764 10.3299265 -6.4751167 -7.2476287 -2.5705552
3.1240625 -6.4456353 4.359904 21.591974 -5.816919 -8.690274 8.355162 6.961739
7.930313 -11.267482 -10.593792 18.792141 -8.16898 -10.946487 15.166527 10.91568
23.691484 18.110958 17.743553 16.975721 15.926663 -7.2021184 2.5179434 -9.287872
-15.371537 -3.808289 -2.2856445 6.189815 -12.239794 18.180635 -0.93204814 -10.943834
-10.011547 0.018190673 6.296125 -0.52294695 21.027956 0.103908375 8.801286 12.692497
-0.56691426 12.378638 -6.8433495 -1.2636263 26.545517 20.45038 3.1396153 20.386217
20.942959 17.818924 -7.224335 19.804783 16.865 20.134172 4.4802575 20.027971
13.783729 21.78476 7.0677147 14.223132 14.026535 16.336493 17.936302 13.308768
2.253415 10.752954 -12.746246 15.319 15.881163 22.069283 7.7185206 -0.670957
25.728563 18.981218 -4.5168347 18.203321 6.3830214 -10.781235 16.933615 17.482723
17.801313 -13.126728 -15.206291 8.515874 16.33567 -2.40969 21.062298 -11.775189
11.228495 -2.7455208 8.557474 -6.506885 12.758489 14.081856 21.122934 -13.744044
16.589802 8.577331 -12.885515 2.5977533 14.687908 -10.815492 -13.717075 15.324987
22.043028 -1.6022327 18.103868 14.282546 10.274587 1.2076824 -22.719963 1.6500012
4.1258016 14.65586 -0.09742251 12.7278385 11.215172 16.092577 -0.64696884 2.5084586
14.336549 14.171621 1.06761 12.44991 11.734264 13.546567 11.576735 2.8444557
-2.0164526 13.185227 18.066635 15.8574915 0.50399673 11.166184 -5.782418 11.016961
16.064295 0.41365445 18.545692 16.711851 20.570303 25.71814 -12.661749 3.491672
-1.3024095 25.52517 18.877235 3.6155407 15.107955 10.346901 18.144102 14.425964
-2.0152657 19.183922 16.138689 9.195612 18.880136 16.007477 13.435998 20.796917
17.878855 13.3649435 -0.7389558 10.271821 -15.45427 22.583763 16.415627 21.250385
-5.5667086 -0.8670448 -2.830211 0.536126 20.58313 -0.34774455 12.111953 -12.888934
-8.0952635 -9.240727 13.725734 28.2403 0.14963502 -3.906157 7.4474983 -0.5311238
18.686262 15.879778 23.861307 18.413477 14.755924 15.380536 20.190863 4.8690104
00000000: 3b8b 6141 df45 6441 3c22 1341 12ba b841
00000010: 7e2d 0741 3821 a841 fe14 863e bfd6 5bc0
00000020: ba0d 6441 45a4 6dbf f270 e63f 5e0f 2241
00000030: 0857 2bbf 4b46 e6bf 658b 8f40 062d 2c3f
00000040: 87ae 21bd 2a8f 6b41 5e9b 4b41 1882 60c1
00000050: 6922 ed40 be64 ea41 3fd3 8d41 0dba e7bf
00000060: d05f 1240 cc38 85bf 557d 5c40 2ebe d240
00000070: ada7 3741 6391 4ac0 94b5 be41 79a5 3541
00000080: 5da8 a941 be42 8541 8010 6741 ba08 2e3f
00000090: 1011 3ec1 c5f6 5241 322d 94c0 0ff0 5d41
000000a0: 15ac 0541 1179 7141 1f93 8241 b039 5bc0
000000b0: 127c 5341 4e1e 9641 2b29 77c1 f5ba 6841
000000c0: 0c8c 15c1 fed8 ddc0 064c fa41 72ec 81c1
000000d0: 5cd2 8341 2ade 9141 dc1b 5f41 90c1 5ac1
000000e0: bc30 2bc0 7c24 5141 340c 4440 7fc8 453e
000000f0: 6147 2541 2834 cfc0 93ec e7c0 fa83 24c0
00000100: a4f0 4740 a542 cec0 5584 8b40 5dbc ac41
00000110: 3324 bac0 5d0b 0bc1 beae 0541 91c6 de40
00000120: 20c5 fd40 9b47 34c1 2c80 29c1 4e56 9641
00000130: 24b4 02c1 d024 2fc1 18aa 7241 a0a6 2e41
00000140: 2988 bd41 3ee3 9041 ccf2 8d41 47ce 8741
00000150: 9dd3 7e41 c177 e6c0 fc25 2140 209b 14c1
00000160: d1f1 75c1 02bb 73c0 0048 12c0 f712 c640
00000170: 32d6 43c1 f171 9141 b59a 6ebf f219 2fc1
00000180: 4c2f 20c1 9b04 953c db79 c940 dadf 05bf
00000190: 4139 a841 eacd d43d 11d2 0c41 7814 4b41
000001a0: 4b21 11bf e70e 4641 b8fc dac0 82be a1bf
000001b0: 385d d441 619a a341 75ef 4840 f916 a341
000001c0: 2e8b a741 288d 8e41 c12d e7c0 3270 9e41
000001d0: 85eb 8641 c912 a141 455e 8f40 4939 a041
000001e0: 278a 5c41 3047 ae41 b82a e240 f391 6341
000001f0: b06c 6041 23b1 8241 8c7d 8f41 b7f0 5441
00000200: f437 1040 190c 2c41 a0f0 4bc1 a01a 7541
00000210: 3e19 7e41 e48d b041 1ffe f640 d7c3 2bbf
00000220: 19d4 cd41 89d9 9741 e989 90c0 67a0 9141
00000230: b641 cc40 f07f 2cc1 0b78 8741 9edc 8b41
00000240: 1769 8e41 1407 52c1 f84c 73c1 0541 0841
00000250: 74af 8241 5c38 1ac0 967f a841 2d67 3cc1
00000260: eaa7 3341 9db6 2fc0 6aeb 0841 6738 d0c0
00000270: c522 4c41 484f 6141 c5fb a841 9be7 5bc1
00000280: eab7 8441 bf3c 0941 122b 4ec1 9741 2640
00000290: ac01 6b41 410c 2dc1 2479 5bc1 2633 7541
000002a0: 1f58 b041 f615 cdbf b9d4 9041 4f85 6441
000002b0: b564 2441 5695 9a3f 7cc2 b5c1 3d33 d33f
000002c0: 9106 8440 677e 6a41 7485 c7bd 3aa5 4b41
000002d0: 5871 3341 99bd 8041 c09f 25bf 968a 2040
000002e0: 8162 6541 f6be 6241 72a7 883f d532 4741
000002f0: 8cbf 3b41 bdbe 5841 4e3a 3941 900b 3640
00000300: 8f0d 01c0 b1f6 5241 7888 9041 49b8 7d41
00000310: ee05 013f b1a8 3241 9109 b9c0 7945 3041
00000320: ad83 8041 84ca d33e 945d 9441 dfb1 8541
00000330: fb8f a441 c0be cd41 8696 4ac1 8e77 5f40
00000340: 5bb5 a6bf 8c33 cc41 9404 9741 0565 6740
00000350: 2fba 7141 e88c 2541 1f27 9141 c0d0 6641
00000360: 1dfa 00c0 ac78 9941 091c 8141 3a21 1341
00000370: 850a 9741 500f 8041 d9f9 5641 1660 a641
00000380: e507 8f41 cfd6 5541 352c 3dbf 6159 2441
00000390: b144 77c1 8cab b441 3453 8341 ca00 aa41
000003a0: 7a22 b2c0 a6f6 5dbf 2d22 35c0 8e3f 093f
000003b0: 40aa a441 930b b2be 8fca 4141 1339 4ec1
000003c0: 3386 01c1 05da 13c1 9b9c 5b41 22ec e141
000003d0: ec39 193e 7afe 79c0 e851 ee40 bbf7 07bf
000003e0: 777d 9541 9213 7e41 f5e3 be41 cd4e 9341
000003f0: 4418 6c41 ad16 7641 e386 a141 efce 9b40

l1/W f4 [256, 64]
61.674652 -3.025297 -4.734912 10.236661 12.960479 16.202236 12.479059 2.2528346
-17.479647 15.230624 -31.344065 20.36489 -27.50667 9.602372 4.633044 -30.643848
-8.17676 11.958103 5.1915536 -6.1903057 11.396518 -3.1041837 37.34705 5.0861506
11.8641615 -4.887576 17.957825 -18.22566 -13.456015 23.353563 9.8224325 2.3073742
-1.380064 9.665153 7.781339 -18.241394 1.8114065 -12.237573 0.3920542 15.4463825
15.691441 7.551769 -11.104072 25.653845 0.117063686 0.46225825 7.687991 -17.918737
8.661675 15.022438 -5.9710054 -9.11662 8.414278 3.8961294 -5.2832932 27.260088
21.590673 -14.298057 -8.402578 -12.10171 6.330317 -16.045158 -13.753632 -36.738712
19.573038 -4.7107277 37.34201 -14.566944 2.504603 -47.08279 23.186178 12.23355
-15.636327 -4.7337494 23.708395 -18.137335 -7.377778 -40.612366 9.587822 -16.56595
22.419964 -28.75905 4.2677417 -6.276049 11.958259 -0.8023498 20.372267 -46.280117
12.014588 -4.205894 -1.3628405 -7.8229218 -2.2016828 -12.09419 -10.760598 -22.083563
-5.0907245 -13.508197 11.780057 -3.472881 0.9098015 -7.090351 29.959665 -5.4763265
-2.0739875 -21.185474 17.754797 3.345519 -5.487381 13.3549385 37.009834 -19.889004
-13.911621 -14.093791 -6.968651 -48.399044 7.147647 12.148829 2.5294714 -6.701117
-12.953142 -21.904415 -36.657597 -8.05581 43.46921 13.348041 -1.0418878 1.6679645
19.509232 25.936213 1.9710908 10.443295 -1.717418 23.280457 -5.472873 23.700327
20.203344 3.4888866 -24.551447 2.641634 9.530461 26.40477 15.747094 1.8707403
-12.759111 23.69958 -17.983294 6.478317 -5.7296023 9.738878 25.68332 -2.4465823
53.94726 -27.456831 10.960284 7.015511 -2.183281 13.384556 1.47153 -4.7255106
-18.432177 18.289062 -40.558487 1.2767423 0.031702198 12.239462 -13.882638 -21.285395
-22.059383 -17.1332 -1.9099934 -1.2478868 6.603518 6.6873364 -1.9303844 -18.628414
-31.56651 -33.0427 -16.97876 5.439122 27.024662 -7.7658815 17.329195 -23.24105
30.076473 15.478337 -14.201382 32.638134 -3.0247676 -7.071723 8.5463085 20.733953
-28.656446 27.182026 -10.460837 9.633177 4.400851 21.093834 25.723461 -40.208374
10.742233 -55.080334 -15.6910925 2.9211593 -22.073994 24.624407 9.936357 -6.3077064
-8.893534 -22.714584 4.3596535 -1.5510229 33.102562 -2.4511638 4.991294 -12.951456
8.877397 -3.1457365 13.22907 -6.2072086 -3.6364667 11.127231 -4.063908 -19.042133
-20.058668 28.76427 17.423561 2.6841435 -0.521989 -5.2177486 -14.181948 4.6837444
2.2984989 -30.03268 -20.745745 -12.565149 3.9994648 24.32723 26.348095 -29.48663
-24.410479 -18.94436 -6.5791316 -43.457764 -7.370472 34.71959 35.17682 -26.09502
-45.9035 14.657183 -62.09483 8.359125 -44.264717 1.2746491 38.592934 -3.9651985
00000000: d8b2 7642 779e 41c0 6684 97c0 5dc9 2341
00000010: 1f5e 4f41 2e9e 8141 3aaa 4741 712e 1040
00000020: 51d6 8bc1 a3b0 7341 a5c0 fac1 4beb a241
00000030: a90d dcc1 51a3 1941 e541 9440 9a26 f5c1
00000040: 02d4 02c1 6454 3f41 3521 a640 fc16 c6c0
00000050: 2358 3641 f2aa 46c0 6163 1542 bfc1 a240
00000060: 9bd3 3d41 0667 9cc0 a0a9 8f41 27ce 91c1
00000070: d64b 57c1 19d4 ba41 af28 1d41 05ac 1340
00000080: f0a5 b0bf 77a4 1a41 bb00 f940 60ee 91c1
00000090: 2bdc e73f 19cd 43c1 54bb c83e 6224 7741
000000a0: 2410 7b41 17a8 f140 47aa 31c1 133b cd41
000000b0: 16bf ef3d 1dad ec3e 0604 f640 9359 8fc1
000000c0: 3996 0a41 e85b 7041 7a12 bfc0 addd 11c1
000000d0: e2a0 0641 2f5a 7940 bd10 a9c0 a914 da41
000000e0: b3b9 ac41 d7c4 64c1 f670 06c1 9ba0 41c1
000000f0: f591 ca40 7c5c 80c1 e00e 5cc1 71f4 12c2
00000100: 9595 9c41 48be 96c0 385e 1542 3412 69c1
00000110: 6a4b 2040 c754 3cc2 4b7d b941 9fbc 4341
00000120: 652e 7ac1 e07a 97c0 cbaa bd41 4319 91c1
00000130: c216 ecc0 1073 22c2 b867 1941 1187 84c1
00000140: 165c b341 8912 e6c1 5791 8840 65d5 c8c0
00000150: 0755 3f41 cc66 4dbf 67fa a241 d71e 39c2
00000160: c13b 4041 af96 86c0 8f71 aebf 6055 fac0
00000170: 5fe8 0cc0 cd81 41c1 692b 2cc1 23ab b0c1
00000180: 37e7 a2c0 9321 58c1 1d7b 3c41 af43 5ec0
00000190: c0e8 683f 28e4 e2c0 65ad ef41 113e afc0
000001a0: 36bc 04c0 da7b a9c1 d309 8e41 fc1c 5640
000001b0: a098 afc0 d4ad 5541 120a 1442 ae1c 9fc1
000001c0: 0096 5ec1 2b80 61c1 30ff dec0 9f98 41c2
000001d0: 86b9 e440 9b61 4241 dce2 2140 8d6f d6c0
000001e0: 1240 4fc1 3e3c afc1 61a1 12c2 99e4 00c1
000001f0: 79e0 2d42 9391 5541 945c 85bf dc7f d53f
00000200: e812 9c41 5d7d cf41 b44c fc3f bc17 2741
00000210: 5ad4 dbbf 603e ba41 c721 afc0 459a bd41
00000220: 73a0 a141 eb49 5f40 5d69 c4c1 8810 2940
00000230: c57c 1841 f83c d341 19f4 7b41 6b74 ef3f
00000240: 5225 4cc1 bd98 bd41 c9dd 8fc1 5f4e cf40
00000250: e758 b7c0 72d2 1b41 7077 cd41 ce94 1cc0
00000260: ffc9 5742 97a7 dbc1 535d 2f41 117f e040
00000270: e0ba 0bc0 2427 5641 185b bc3f 6237 97c0
00000280: 1975 93c1 0050 9241 e43b 22c2 4b6c a33f
00000290: 2ada 013d d6d4 4341 491f 5ec1 7d48 aac1
000002a0: 9e79 b0c1 cb10 89c1 aa7a f4bf c1ba 9fbf
000002b0: 0550 d340 a9fe d540 d616 f7bf fe06 95c1
000002c0: 3688 fcc1 ba2b 04c2 80d4 87c1 4a0d ae40
000002d0: 8232 d841 1a82 f8c0 31a2 8a41 aced b9c1
000002e0: 9e9c f041 45a7 7741 dc38 63c1 738d 0242
000002f0: cb95 41c0 8e4b e2c0 aebd 0841 23df a541
00000300: 6740 e5c1 ca74 d941 975f 27c1 7e21 1a41
00000310: c5d3 8c40 2cc0 a841 a6c9 cd41 60d5 20c2
00000320: 30e0 2b41 4352 5cc2 b70e 7bc1 46f4 3a40
00000330: 8a97 b0c1 c9fe c441 51fb 1e41 bbd8 c9c0
00000340: ea4b 0ec1 78b7 b5c1 4882 8b40 eb87 c6bf
00000350: 0669 0442 dedf 1cc0 aeb8 9f40 2a39 4fc1
00000360: d109 0e41 bf53 49c0 45aa 5341 74a1 c6c0
00000370: dfbb 68c0 2309 3241 890b 82c0 4a56 98c1
00000380: 2778 a0c1 3a1d e641 7463 8b41 02c9 2b40
00000390: 12a1 05bf ccf7 a6c0 42e9 62c1 3ce1 9540
000003a0: 9b1a 1340 ee42 f0c1 49f7 a5c1 da0a 49c1
000003b0: 3bf7 7f40 2b9e c241 e6c8 d241 9ee4 ebc1
000003c0: a948 c3c1 0d8e 97c1 3f88 d2c0 c0d4 2dc2
000003d0: e8da ebc0 dce0 0a42 10b5 0c42 9ac2 d0c1
000003e0: 2f9d 37c2 d283 6a41 1b61 78c2 fabe 0541
000003f0: 120f 31c2 b427 a33f 2a5f 1a42 d0c5 7dc0

l1/b f4 [256]
-17.911802 1.0394152 9.0456705 2.901983 -2.0926611 8.886616 -6.113633 1.0959768
-1.9775556 2.325722 -36.274857 13.415585 -3.2520404 -9.9861145 5.952523 0.3135684
6.2021403 7.7431135 11.969293 4.207885 13.562544 2.9811199 4.726378 11.272547
-4.59051 -42.39385 4.7336516 4.2038293 9.075129 2.775408 6.1582456 3.9964528
6.5200105 9.317714 -35.396248 9.173091 31.135017 11.114521 6.604996 16.49489
10.724038 -16.508947 -12.6147585 -20.126976 -8.510926 14.181628 -10.441292 -4.113609
-14.305313 9.972617 -16.735031 16.744999 11.419848 -6.2933416 7.5303855 3.8112211
-18.196026 -9.854278 16.254938 4.4560757 16.575489 -2.4052284 17.580101 -19.820797
2.6526687 12.7471285 -18.412586 0.44081038 -4.449675 -5.518333 1.9119775 -5.7531466
12.340448 3.191769 -1.8922572 -19.565512 15.282369 -9.418087 -1.8542019 29.399946
-0.11266395 -41.047977 -8.322423 5.9340487 10.283181 1.5799928 -0.68817294 -2.471925
12.425092 11.712324 -0.63225347 0.3911836 18.942572 -6.4936314 0.5572467 -6.4145923
-40.565804 -33.71937 7.158684 -11.924607 4.5140815 13.052332 4.619341 -0.32702366
8.447028 -0.038651638 -1.3982664 -4.7319026 -18.914629 19.697294 -6.052268 -0.38398498
21.416433 12.293778 -4.924864 1.4540119 5.740505 0.48183224 1.2706625 -0.15866177
18.324162 -18.96617 -21.06142 2.9644725 -3.5250494 -1.2494102 -4.3050365 -7.3066974
-32.995377 -7.649152 17.687424 -9.061131 19.157028 8.528666 -7.5712466 3.0640128
-25.014112 -14.309138 -10.728066 -9.010019 -31.266146 0.0019093499 18.688463 -17.976105
-3.4214838 12.327554 10.242679 -1.20604 6.1698027 -26.250795 -16.970049 5.5585833
29.388556 -17.76838 -12.794746 9.349602 -16.233324 4.2548003 -48.344013 13.885957
1.5505247 -4.052674 -4.4284625 9.843648 6.1214747 -32.78568 13.601987 -13.416069
-2.7969985 -40.375546 -13.784126 -11.920539 3.8445475 8.090091 19.378931 -10.692895
3.8495913 1.1862664 -8.510829 0.689595 6.3959613 -1.8528934 7.6645207 -4.9096627
5.864572 5.001432 -18.654623 13.347822 5.1209726 0.31081608 -3.2991588 7.675272
6.6072674 -1.6154257 -13.86911 11.1870165 15.596295 -14.971259 7.4833093 5.924329
-13.360322 3.7337568 -3.5548062 4.4210014 6.556965 -11.584929 -6.560685 -29.221437
6.0796523 -0.30265722 -44.244473 -1.3062515 -2.4474866 12.156161 -7.5979977 1.4265103
0.95243955 -25.396814 -8.072413 -16.043346 -24.248144 17.518394 1.4034886 -53.612904
17.145166 3.1881506 0.33155847 0.60990715 0.4489435 21.122835 10.357439 -9.572189
3.6632645 -8.1340685 14.147349 -10.075608 -1.4230164 -2.2630491 -38.60987 7.9090414
0.047912963 -24.39903 -22.859825 -8.589223 -51.080353 -58.452656 -6.5351167 -23.033852
10.155214 9.536807 -9.298357 -1.2814757 -19.967224 12.824463 -3.1541378 -22.40025
00000000: 5f4b 8fc1 8f0b 853f 11bb 1041 17ba 3940
00000010: 29ee 05c0 942f 0e41 e2a2 c3c0 f848 8c3f
00000020: 8b20 fdbf a1d8 1440 7419 11c2 3ca6 5641
00000030: 6e21 50c0 20c7 1fc1 127b be40 0a8c a03e
00000040: ef77 c640 96c7 f740 3982 3f41 fea6 8640
00000050: 2e00 5941 abca 3e40 7d3e 9740 5a5c 3441
00000060: 75e5 92c0 4d93 29c2 137a 9740 c585 8640
00000070: ba33 1141 49a0 3140 5910 c540 e2c5 7f40
00000080: eda3 d040 5b15 1541 c295 0dc2 fbc4 1241
00000090: 8414 f941 14d5 3141 215c d340 89f5 8341
000000a0: a995 2b41 5312 84c1 0dd6 49c1 0c04 a1c1
000000b0: c12c 08c1 f3e7 6241 880f 27c1 afa2 83c0
000000c0: 90e2 64c1 d78f 1f41 58e1 85c1 c2f5 8541
000000d0: b3b7 3641 0e63 c9c0 ebf8 f040 0ceb 7340
000000e0: 7691 91c1 1fab 1dc1 1d0a 8241 2c98 8e40
000000f0: 9a9a 8441 43ef 19c0 0ca4 8c41 fe90 9ec1
00000100: 53c5 2940 3df4 4b41 fa4c 93c1 e6b1 e13e
00000110: bd63 8ec0 2f96 b0c0 aebb f43f c719 b8c0
00000120: 7a72 4541 f145 4c40 7c35 f2bf 2b86 9cc1
00000130: 9584 7441 7cb0 16c1 7d56 edbf 1733 eb41
00000140: 5bbc e6bd 2131 24c2 a528 05c1 bae3 bd40
00000150: e987 2441 343d ca3f 1a2c 30bf 0534 1ec0
00000160: 2dcd 4641 ae65 3b41 5ddb 21bf 3849 c83e
00000170: 638a 9741 d4cb cfc0 b8a7 0e3f 5744 cdc0
00000180: 6243 22c2 a3e0 06c2 f013 e540 31cb 3ec1
00000190: 5b73 9040 5ad6 5041 a4d1 9340 a56f a7be
000001a0: 0727 0741 2e51 1ebd 65fa b2bf bf6b 97c0
000001b0: 2951 97c1 0f94 9d41 2eac c1c0 ae99 c4be
000001c0: db54 ab41 51b3 4441 7c98 9dc0 101d ba3f
000001d0: 38b2 b740 b7b2 f63e 12a5 a23f 3b78 22be
000001e0: e297 9241 b7ba 97c1 ca7d a8c1 ebb9 3d40
000001f0: 699a 61c0 acec 9fbf dcc2 89c0 77d0 e9c0
00000200: 44fb 03c2 dac5 f4c0 d87f 8d41 64fa 10c1
00000210: 9841 9941 6a75 0841 a747 f2c0 c918 4440
00000220: e71c c8c1 3bf2 64c1 29a6 2bc1 0a29 10c1
00000230: 1121 fac1 2743 fa3a f981 9541 10cf 8fc1
00000240: 97f9 5ac0 a93d 4541 03e2 2341 855f 9abf
00000250: 066f c540 a101 d2c1 a9c2 87c1 eadf b140
00000260: c31b eb41 a425 8ec1 48b7 4cc1 f897 1541
00000270: d9dd 81c1 5327 8840 4560 41c2 e12c 5e41
00000280: 9877 c63f 81af 81c0 f7b5 8dc0 957f 1d41
00000290: 1fe3 c340 8924 03c2 bda1 5941 38a8 56c1
000002a0: 0602 33c0 8f80 21c2 c88b 5cc1 87ba 3ec1
000002b0: 110d 7640 0371 0141 0d08 9b41 1916 2bc1
000002c0: b45f 7640 94d7 973f 5b2c 08c1 4c89 303f
000002d0: b7ab cc40 9c2b edbf c143 f540 f51b 9dc0
000002e0: 93aa bb40 bb0b a040 ab3c 95c1 ae90 5541
000002f0: 02df a340 4923 9f3e 6b25 53c0 d49b f540
00000300: bc6e d340 45c6 cebf e0e7 5dc1 05fe 3241
00000310: 6d8a 7941 478a 6fc1 4577 ef40 1a94 bd40
00000320: e1c3 55c1 dff5 6e40 f281 63c0 d878 8d40
00000330: a8d2 d140 df5b 39c1 22f1 d1c0 81c5 e9c1
00000340: 838c c240 e3f5 9abe 57fa 30c2 4033 a7bf
00000350: 9fa3 1cc0 a37f 4241 cc22 f3c0 e497 b63f
00000360: 14d3 733f ad2c cbc1 9b28 01c1 c658 80c1
00000370: 33fc c1c1 ac25 8c41 84a5 b33f 9d73 56c2
00000380: 4d29 8941 a90a 4c40 08c2 a93e e022 1c3f
00000390: ecdb e53e 91fb a841 12b8 2541 b027 19c1
000003a0: ed72 6a40 2525 02c1 8b5b 6241 b135 21c1
000003b0: 6725 b6bf ccd5 10c0 8270 1ac2 de16 fd40
000003c0: 6240 443d 3731 c3c1 ece0 b6c1 756d 09c1
000003d0: 4852 4cc2 85cf 69c2 ad1f d1c0 5445 b8c1
000003e0: c27b 2241 c396 1841 12c6 14c1 6507 a4bf
000003f0: e0bc 9fc1 0031 4d41 65dd 49c0 b633 b3c1

l4/W f4 [64, 256]
55.043903 51.185574 47.675205 89.22672 38.003796 54.62437 57.89609 49.476383
51.10926 59.540592 53.733696 56.773815 58.386898 61.394764 54.496693 44.479782
56.208233 49.15988 53.367844 59.069218 53.42085 46.290855 53.19484 34.62943
51.56474 48.418983 58.975407 65.35437 63.03872 52.333466 84.111404 57.51093
43.01661 52.897396 55.68508 0.76666105 54.359444 44.429447 61.880142 49.85442
40.601887 45.13597 66.46429 53.580837 63.69974 50.266308 34.313435 51.2998
57.161564 90.10126 48.711952 67.84124 51.185795 53.384422 64.37391 90.826805
50.222984 82.24595 61.961323 63.556423 42.279644 77.64258 56.672737 50.339775
50.615833 83.35076 76.989174 45.316017 37.52499 46.246628 60.609543 49.21248
52.760162 50.027935 47.20231 47.601257 53.91755 45.455 52.006775 55.311295
48.04669 56.48343 62.384357 61.55068 37.1566 41.972786 61.067585 51.46555
78.8593 86.88199 54.92503 39.952423 56.749535 53.647568 58.64007 39.770226
55.27223 58.74344 48.50898 36.002937 57.060394 48.50296 56.09621 62.851234
50.439743 42.159367 56.59322 44.394207 62.92949 55.200783 55.118896 55.757404
42.530796 35.205452 33.537144 37.679607 49.03173 48.844696 59.939213 54.431377
45.795666 47.990807 55.73789 47.788937 56.817066 58.506313 56.758892 54.859554
55.02662 40.690838 50.231335 61.07306 48.097244 25.746738 23.718424 32.187565
9.5861435 60.21598 48.347176 54.365707 51.948242 59.09403 55.378616 50.422382
40.10448 33.198784 51.52049 48.398666 52.41141 57.511692 39.64278 57.332256
61.690826 60.822956 17.226522 53.5042 51.687607 55.970695 47.214474 52.468212
36.00412 43.412617 47.817745 61.82349 40.345318 55.964638 55.951668 42.41521
63.3803 76.1448 55.536438 53.82166 67.581436 59.850166 48.268875 61.437607
49.39488 51.191734 47.250904 40.642796 65.9966 61.15394 28.882412 58.3874
52.17511 47.319958 56.860004 49.693905 53.983192 55.70196 55.52301 52.93556
38.66828 54.38439 38.04284 62.95739 46.84181 46.181423 55.554573 55.361317
47.724606 54.629833 54.844887 40.97298 62.383293 72.18179 57.2246 44.246746
57.887135 58.286354 40.889416 36.14271 53.59763 48.106293 51.554867 48.359886
57.261982 51.520874 53.50684 56.57212 26.19129 54.343384 61.14707 55.55012
54.50003 45.960545 53.060284 55.77333 58.2854 39.767708 48.73173 44.446083
58.22327 48.875393 53.841633 40.57693 42.988117 44.81428 55.74141 94.76739
62.82689 50.75261 56.21335 56.665 60.587337 46.59898 57.691067 44.015476
37.148045 61.532875 47.366528 74.982 41.18051 49.719276 62.949192 62.199116
00000000: f52c 5c42 07be 4c42 69b3 3e42 1574 b242
00000010: e303 1842 5b7f 5a42 9995 6742 d1e7 4542
00000020: e26f 4c42 9129 6e42 4eef 5642 6318 6342
00000030: 2f8c 6942 3d94 7542 9dfc 5942 4ceb 3142
00000040: 3bd5 6042 b8a3 4442 ac78 5542 e146 6c42
00000050: f3ae 5542 d629 3942 84c7 5442 8984 0a42
00000060: 4b42 4e42 0aad 4142 d1e6 6b42 70b5 8242
00000070: a627 7c42 7855 5142 0a39 a842 310b 6642
00000080: 0211 2c42 ef96 5342 86bd 5e42 e643 443f
00000090: 1270 5942 c1b7 3142 4485 7742 ed6a 4742
000000a0: 5568 2242 3c8b 3442 b7ed 8442 c752 5642
000000b0: 89cc 7e42 b310 4942 f540 0942 ff32 4d42
000000c0: 71a5 6442 d833 b442 0ad9 4242 b7ae 8742
000000d0: 41be 4c42 a689 5542 71bf 8042 53a7 b542
000000e0: 56e4 4842 ed7d a442 65d8 7742 c739 7e42
000000f0: 5b1e 2942 0049 9b42 e2b0 6242 ee5b 4942
00000100: 9d76 4a42 97b3 a642 75fa 9942 9a43 3542
00000110: 9719 1642 8cfc 3842 2c70 7242 94d9 4442
00000120: 680a 5342 9b1c 4842 2acf 3c42 b067 3e42
00000130: 92ab 5742 ecd1 3542 f006 5042 c43e 5d42
00000140: d02f 4042 08ef 6142 9589 7942 e533 7642
00000150: 5ca0 1442 22e4 2742 3545 7442 b9dc 4d42
00000160: f6b7 9d42 94c3 ad42 3bb3 5b42 48cf 1f42
00000170: 86ff 6242 1c97 5642 6f8f 6a42 b614 1f42
00000180: c316 5d42 48f9 6a42 3209 4242 0203 1042
00000190: d83d 6442 0803 4242 8562 6042 aa67 7b42
000001a0: 4cc2 4942 31a3 2842 755f 6242 ab93 3142
000001b0: ccb7 7b42 9acd 5c42 c079 5c42 9507 5f42
000001c0: 891f 2a42 62d2 0c42 0926 0642 ebb7 1642
000001d0: 7e20 4442 f860 4342 c1c1 6f42 bbb9 5942
000001e0: c32e 3742 96f6 3f42 99f3 5e42 df27 3f42
000001f0: ad44 6342 7706 6a42 1b09 6342 2f70 5b42
00000200: 421b 5c42 6bc3 2242 e3ec 4842 d04a 7442
00000210: 9463 4042 52f9 cd41 55bf bd41 11c0 0042
00000220: d860 1941 2add 7042 8263 4142 7c76 5942
00000230: 00cb 4f42 4960 6c42 b483 5d42 85b0 4942
00000240: fd6a 2042 8ecb 0442 fb14 4e42 3c98 4142
00000250: 49a5 5142 f90b 6642 3592 1e42 3b54 6542
00000260: 68c3 7642 b54a 7342 ebcf 8941 4d04 5642
00000270: 1cc0 4e42 fee1 5f42 9fdb 3c42 73df 5142
00000280: 3804 1042 85a6 2d42 5f45 3f42 414b 7742
00000290: 9b61 2142 cadb 5f42 82ce 5f42 2da9 2942
000002a0: 6d85 7d42 234a 9842 5025 5e42 6149 5742
000002b0: b229 8742 9266 6f42 5413 4142 1cc0 7542
000002c0: 5b94 4542 56c4 4c42 ed00 3d42 3992 2242
000002d0: 42fe 8342 a29d 7442 2e0f e741 b38c 6942
000002e0: 50b3 5042 a347 3d42 a570 6342 8fc6 4642
000002f0: caee 5742 cfce 5e42 9017 5e42 03be 5342
00000300: 52ac 1a42 9e89 5942 de2b 1842 5ed4 7b42
00000310: 035e 3b42 c7b9 3842 e237 5e42 fd71 5d42
00000320: ffe5 3e42 f384 5a42 2a61 5b42 55e4 2342
00000330: 7e88 7942 145d 9042 fee5 6442 abfc 3042
00000340: 6d8c 6742 3a25 6942 c38e 2342 2392 1042
00000350: f963 5642 d86c 4042 2f38 4e42 8670 4142
00000360: 450c 6542 6015 4e42 0107 5642 da49 6242
00000370: c387 d141 a05f 5942 9a96 7442 5333 5e42
00000380: 0800 5a42 99d7 3742 bb3d 5442 e417 5f42
00000390: 4024 6942 2212 1f42 4bed 4242 cac8 3142
000003a0: a1e4 6842 6780 4342 d55d 5742 c74e 2242
000003b0: d5f3 2b42 d341 3342 34f7 5e42 e788 bd42
000003c0: bc4e 7b42 ac02 4b42 78da 6042 f6a8 6242
000003d0: 6f59 7242 5b65 3a42 a7c3 6642 d90f 3042
000003e0: 9997 1442 aa21 7642 5377 3d42 c9f6 9542
000003f0: d8b8 2442 8ae0 4642 f9cb 7b42 e5cb 7842

l4/b f4 [64]
-97.794426 -97.8008 -97.80119 -97.80743 -97.8162 -97.80397 -97.80817 -97.79531
-97.80606 -97.80965 -97.80795 -97.8105 -97.80961 -97.81223 -97.81105 -97.80402
-97.80078 -97.80983 -97.80786 -97.83112 -97.81529 -97.82421 -97.812996 -97.80689
-97.81616 -97.803925 -97.83568 -97.815384 -97.80447 -97.80674 -97.8176 -97.8038
-97.803535 -97.80996 -97.81269 -97.80064 -97.80595 -97.802475 -97.80992 -97.801926
-97.81019 -97.81598 -97.814354 -97.80484 -97.80335 -97.80177 -97.80753 -97.80517
-97.80284 -97.80528 -97.81947 -97.82041 -97.81977 -97.82092 -97.81093 -97.80607
-97.80651 -97.8019 -97.804405 -97.811005 -97.80308 -97.80048 -97.81035 -97.80075
00000000: bf96 c3c2 029a c3c2 369a c3c2 679d c3c2
00000010: e5a1 c3c2 a29b c3c2 c89d c3c2 3397 c3c2
00000020: b49c c3c2 8a9e c3c2 ac9d c3c2 fa9e c3c2
00000030: 859e c3c2 dd9f c3c2 429f c3c2 a99b c3c2
00000040: 009a c3c2 a29e c3c2 a09d c3c2 89a9 c3c2
00000050: 6ea1 c3c2 ffa5 c3c2 41a0 c3c2 219d c3c2
00000060: e0a1 c3c2 9c9b c3c2 deab c3c2 7aa1 c3c2
00000070: e39b c3c2 0d9d c3c2 9ca2 c3c2 8c9b c3c2
00000080: 699b c3c2 b39e c3c2 19a0 c3c2 ed99 c3c2
00000090: a59c c3c2 de9a c3c2 ae9e c3c2 969a c3c2
000000a0: d19e c3c2 c8a1 c3c2 f3a0 c3c2 149c c3c2
000000b0: 519b c3c2 829a c3c2 759d c3c2 3f9c c3c2
000000c0: 0e9b c3c2 4e9c c3c2 92a3 c3c2 0da4 c3c2
000000d0: b9a3 c3c2 50a4 c3c2 329f c3c2 b59c c3c2
000000e0: ef9c c3c2 939a c3c2 db9b c3c2 3c9f c3c2
000000f0: 2d9b c3c2 d999 c3c2 e69e c3c2 fc99 c3c2

l3/W f4 [256, 256]
17.290464 -24.278622 -36.575752 2.4130385 20.769888 28.596752 4.137756 5.4008904
-3.3511639 -11.171085 21.529488 20.68081 -0.46883756 3.5673358 1.7113053 -5.6973467
13.658812 -18.881426 -17.35927 -1.8998951 -44.13119 -15.957256 18.79397 1.7413967
-0.07156147 11.942329 2.6740987 -34.728035 -0.67545736 -1.9670844 -19.596502 9.779715
11.963921 6.958971 -9.478193 7.6760764 -16.681229 1.2315961 -29.06399 7.3375053
10.629834 12.78563 -13.755396 19.45357 15.294457 25.943556 11.057376 15.293648
-1.7403499 5.774311 -11.169038 -27.969013 -14.036291 19.865608 -19.884373 -52.248753
21.506105 -3.979189 -31.467316 19.332571 16.194492 -23.883373 -26.149746 -15.814499
-13.324772 13.856102 -29.151066 17.825172 3.6139808 -5.801934 -14.917653 27.297451
2.0995514 -3.6196892 -32.612938 -9.161633 -5.528778 -9.830404 -9.900948 12.403683
9.7792635 -24.37741 -30.947954 -11.08609 -20.688515 -5.1667233 -26.149273 11.544784
-30.717466 -3.2820008 10.409122 43.69017 9.586556 -3.463452 9.655524 -19.414354
17.01522 -4.825976 -36.035828 10.112481 -9.082071 -39.970135 30.230158 14.494889
-4.5756197 -14.215402 29.565493 6.1682005 -2.7041092 -22.839228 2.935138 -5.3605328
-26.499031 -22.602703 15.197901 -28.26693 44.46132 -17.401976 6.3200607 -22.006142
-17.433472 8.902758 -10.799634 -27.965704 19.731709 -40.11629 6.7092795 24.145847
26.345594 -52.469666 12.716018 -29.958904 -8.831373 34.261307 -34.860477 8.167051
24.320148 9.412659 -29.518866 -10.800921 7.849301 -17.938606 3.6972256 -2.9394822
-39.34422 -17.334776 1.5896238 -41.127445 12.347914 7.9551415 -12.032757 -12.533269
-29.894487 -0.598463 -28.86668 -22.302431 -25.550625 -1.157199 0.75257754 -2.9016638
-21.229214 -19.457354 -61.672153 14.399547 -55.65434 -10.545567 -16.198853 -9.665876
-72.59774 6.7114673 -27.697054 4.195324 16.268366 -9.55912 -1.3365241 -17.247946
3.3336453 10.463657 10.557052 -29.50318 -68.74314 -13.048342 -0.113399535 -21.911396
24.82394 -25.342308 7.156328 14.68831 7.215358 -24.533142 -9.504795 16.750404
-5.29574 23.966902 9.577067 11.165073 -12.060666 16.54191 -47.697422 21.685753
17.738596 -6.5722246 7.373179 27.123629 -32.828346 30.339394 19.394854 -11.242775
-22.150343 -32.888233 -30.362804 2.9894288 32.17404 16.532207 15.834906 -14.100255
7.205812 -11.1204815 -6.193549 -12.389204 -32.573933 -56.677837 -4.621816 -34.07722
-37.35746 -29.45035 -23.418587 11.768729 17.643608 15.781791 13.333975 -3.8393626
11.512378 8.078827 -25.328741 9.391314 17.88062 -7.2814093 -38.660492 -15.654963
-16.906609 3.8966827 -41.005894 38.907238 12.199812 -5.716695 7.041851 -1.2237505
-62.09269 7.341802 -6.762668 -28.255793 13.898847 -2.524582 26.244862 8.40055
00000000: df52 8a41 9e3a c2c1 924d 12c2 396f 1a40
00000010: bb28 a641 26c6 e441 7f68 8440 18d4 ac40
00000020: 7879 56c0 c4bc 32c1 643c ac41 4d72 a541
00000030: 7a0b f0be 3b4f 6440 0d0c db3f aa50 b6c0
00000040: 7e8a 5a41 290d 97c1 c9df 8ac1 c32f f3bf
00000050: 5786 30c2 ec50 7fc1 0d5a 9641 16e6 de3f
00000060: d28e 92bd c813 3f41 6f24 2b40 82e9 0ac2
00000070: c6ea 2cbf 6cc9 fbbf a3c5 9cc1 b679 1c41
00000080: 386c 3f41 e4af de40 aea6 17c1 6ba2 f540
00000090: 2873 85c1 f1a4 9d3f 0d83 e8c1 d8cc ea40
000000a0: cd13 2a41 f191 4c41 1a16 5cc1 e9a0 9b41
000000b0: 19b6 7441 678c cf41 03eb 3041 c8b2 7441
000000c0: c9c3 debf 28c7 b840 61b4 32c1 8ac0 dfc1
000000d0: a694 60c1 c4ec 9e41 3213 9fc1 b9fe 50c2
000000e0: 810c ac41 08ab 7ec0 10bd fbc1 1ba9 9a41
000000f0: 528e 8141 2611 bfc1 ae32 d1c1 3008 7dc1
00000100: 4432 55c1 98b2 5d41 6235 e9c1 f499 8e41
00000110: 764b 6740 71a9 b9c0 b5ae 6ec1 2e61 da41
00000120: 0d5f 0640 fda8 67c0 a673 02c2 0c96 12c1
00000130: c0eb b0c0 5649 1dc1 486a 1ec1 7c75 4641
00000140: dd77 1c41 f004 c3c1 6995 f7c1 a060 31c1
00000150: 1482 a5c1 cc55 a5c0 b631 d1c1 6fb7 3841
00000160: 5fbd f5c1 4d0c 52c0 c48b 2641 bcc2 2e42
00000170: 8962 1941 33a9 5dc0 077d 1a41 9950 9bc1
00000180: 2c1f 8841 656e 9ac0 b024 10c2 b9cc 2141
00000190: 2a50 11c1 6be1 1fc2 5dd7 f141 11eb 6741
000001a0: 7a6b 92c0 4972 63c1 2186 ec41 e661 c540
000001b0: 2010 2dc0 bdb6 b6c1 4dd9 3b40 7c89 abc0
000001c0: 04fe d3c1 56d2 b4c1 9a2a 7341 ac22 e2c1
000001d0: 64d8 3142 3f37 8bc1 f03d ca40 940c b0c1
000001e0: c077 8bc1 b271 0e41 4dcb 2cc1 c3b9 dfc1
000001f0: 8ada 9d41 1577 20c2 6bb2 d640 b22a c141
00000200: c7c3 d241 f0e0 51c2 cf74 4b41 d6ab efc1
00000210: 4e4d 0dc1 940b 0942 2171 0bc2 3eac 0241
00000220: aa8f c241 409a 1641 a326 ecc1 93d0 2cc1
00000230: 792d fb40 4482 8fc1 589f 6c40 7a20 3cc0
00000240: 7b60 1dc2 9fad 8ac1 cb78 cb3f 8182 24c2
00000250: 0e91 4541 8590 fe40 2c86 40c1 4588 48c1
00000260: e927 efc1 df34 19bf f6ee e6c1 616b b2c1
00000270: ae67 ccc1 191f 94bf eca8 403f dcb4 39c0
00000280: 6ed5 a9c1 a9a8 9bc1 49b0 76c2 8b64 6641
00000290: 0b9e 5ec2 a4ba 28c1 4097 81c1 6ea7 1ac1
000002a0: 0b32 91c2 57c4 d640 9193 ddc1 1840 8640
000002b0: 9d25 8241 28f2 18c1 3913 abbf cbfb 89c1
000002c0: 725a 5540 246b 2741 afe9 2841 8306 ecc1
000002d0: 7d7c 89c2 02c6 50c1 043e e8bd 8a4a afc1
000002e0: 6e97 c641 0cbd cac1 a400 e540 5103 6b41
000002f0: 36e4 e640 e043 c4c1 a413 18c1 d400 8641
00000300: b476 a9c0 37bc bf41 ab3b 1941 24a4 3241
00000310: 7df8 40c1 d555 8441 29ca 3ec2 6c7c ad41
00000320: a5e8 8d41 aa4f d2c0 15f1 eb40 31fd d841
00000330: 3a50 03c2 14b7 f241 a928 9b41 68e2 33c1
00000340: e733 b1c1 8d8d 03c2 06e7 f2c1 cd52 3f40
00000350: 38b2 0042 f641 8441 c65b 7d41 a59a 61c1
00000360: 0396 e640 7eed 31c1 8e31 c6c0 2e3a 46c1
00000370: b54b 02c2 1bb6 62c2 ebe5 93c0 134f 08c2
00000380: 0a6e 15c2 519a ebc1 4459 bbc1 b74c 3c41
00000390: 1c26 8d41 3782 7c41 f657 5541 1eb8 75c0
000003a0: b332 3841 e042 0141 43a1 cac1 d242 1641
000003b0: 820b 8f41 4e01 e9c0 58a4 1ac2 ba7a 7ac1
000003c0: bc40 87c1 4063 7940 0906 24c2 03a1 1b42
000003d0: 6e32 4341 2aef b6c0 d856 e140 dba3 9cbf
000003e0: ea5e 78c2 0bf0 ea40 c767 d8c0 dd0b e2c1
000003f0: ad61 5e41 c092 21c0 7af5 d141 a768 0641

l3/b f4 [256]
5.423017 -0.5383156 1.8801471 -4.2856784 20.644768 23.792702 15.027021 14.622023
10.8756695 5.1697755 -1.315029 10.419951 2.6734366 -0.9446373 4.740235 11.997979
-2.712966 7.010486 12.763958 7.2648215 0.48443604 -2.2864852 30.571304 3.1357439
7.1815486 4.539995 -0.43777123 4.8853054 1.1337087 7.914901 -6.826029 10.336584
-3.6813407 7.783343 3.3116393 56.60063 0.823183 -5.6677094 3.4374282 -2.60717
5.580464 9.323996 8.917545 7.795876 -6.968448 8.097763 30.803564 5.6170034
0.55188644 -5.877488 13.878304 -7.738066 0.47404772 -2.8313258 -1.5368645 0.65659684
2.7683709 -7.7218285 9.986196 6.1465974 21.893839 -1.5304546 -5.426919 8.0197315
-0.46458897 -3.1144228 -4.3654833 6.4674125 6.1676555 10.946707 10.118705 10.303303
-1.1691487 14.347834 5.01649 1.9096022 -0.21150273 -0.30349922 17.10258 1.5448667
2.346253 5.4203744 1.139713 2.9153547 7.9535375 24.55988 7.744624 2.5630696
-5.3978996 -7.8001842 9.974452 7.213951 3.9104137 9.378557 5.022126 9.317338
23.686438 -2.8655126 13.993341 7.9164906 8.340576 9.054845 3.4626873 8.569986
0.11261368 5.446712 0.5774191 23.712502 2.8137047 -0.45238277 -6.1626935 7.93172
6.1830144 7.586633 32.618313 9.009846 20.010674 15.069554 -0.9702092 -1.4212246
12.846183 6.5650306 -2.6826665 4.9931765 -1.1836625 0.33052605 0.8051991 -0.2641087
12.29617 15.543963 1.2292472 1.5458175 3.577519 9.007225 34.639256 21.243124
2.6067917 0.52026916 9.329291 -2.953251 8.976793 0.9500221 4.528857 9.769484
17.842104 -0.65977156 -4.570291 -3.9456475 9.65721 -1.0040607 12.718733 7.7377048
10.349432 1.1706905 22.916822 -1.765395 6.2419243 10.795047 -3.0531294 -1.019934
13.05901 28.770857 6.3544745 7.328277 11.90243 5.8797817 4.3162994 9.76988
-2.6922584 17.157478 1.2013301 10.054925 6.317121 -6.32361 4.9517527 16.208447
3.1900551 6.266944 11.693821 6.9639626 6.1584435 16.212275 28.482342 3.9254465
6.0575824 6.9712515 4.3140063 4.2299323 11.94734 -3.6212661 1.7124618 4.004071
7.9029965 -2.738341 23.478422 2.2700644 4.9011126 15.391294 -2.5869992 7.4374437
-1.0282761 -0.53120106 0.45596474 9.714519 4.875697 -3.2345405 14.258302 25.345085
1.7347734 9.987548 26.822712 12.776891 8.127413 6.319344 5.7981615 33.370743
8.15716 -1.556323 1.5975356 13.81082 56.149567 18.44262 1.821304 1.7829767
8.739633 1.4625782 10.690855 11.987386 -0.88233477 -0.76827526 1.4621952 0.4086323
2.8563821 7.883846 5.502351 1.5713979 -1.6109637 6.2098546 7.6631975 -1.4315697
1.4698101 -7.657262 1.3429546 5.9967766 11.85085 8.347844 -6.2416153 14.696623
29.450325 5.1367826 8.811795 31.872215 8.227573 -1.1987358 5.509247 -0.66711533
00000000: 5b89 ad40 0dcf 09bf a9a8 f03f 4724 89c0
00000010: 7c28 a541 7457 be41 ae6e 7041 cef3 6941
00000020: be02 2e41 cd6e a540 df52 a8bf 1fb8 2641
00000030: 9619 2b40 c0d3 71bf 01b0 9740 b9f7 3f41
00000040: 3ca1 2dc0 e755 e040 2c39 4c41 6b79 e840
00000050: 0008 f83e c655 12c0 0892 f441 07b0 4840
00000060: 3fcf e540 a447 9140 8d23 e0be 6c54 9c40
00000070: 5e1d 913f de46 fd40 d46e dac0 a662 2541
00000080: 169b 6bc0 2511 f940 e6f1 5340 0c67 6242
00000090: 1fbc 523f e05d b5c0 d3fe 5b40 e0db 26c0
000000a0: 2993 b240 162f 1541 44ae 0e41 d177 f940
000000b0: 87fd dec0 7090 0141 b36d f641 7ebe b340
000000c0: 6e48 0d3f 6214 bcc0 880d 5e41 3d9e f7c0
000000d0: 62b6 f23e 7134 35c0 fab7 c4bf bb16 283f
000000e0: fd2c 3140 3819 f7c0 75c7 1f41 edb0 c440
000000f0: 9526 af41 f0e5 c3bf 52a9 adc0 d250 0041
00000100: 9bde edbe b452 47c0 0ab2 8bc0 0bf5 ce40
00000110: 6f5d c540 b625 2f41 37e6 2141 54da 2441
00000120: aaa6 95bf ba90 6541 1687 a040 d86d f43f
00000130: 2c94 58be 4064 9bbe 15d2 8841 31be c53f
00000140: 0229 1640 b573 ad40 1ee2 913f 2c95 3a40
00000150: 6183 fe40 a27a c441 f6d3 f740 5509 2440
00000160: 98bb acc0 1c9b f9c0 5b97 1f41 b0d8 e640
00000170: 3844 7a40 920e 1641 42b5 a040 d113 1541
00000180: d37d bd41 8f64 37c0 bae4 5f41 e453 fd40
00000190: 0073 0541 a5e0 1041 ab9c 5d40 aa1e 0941
000001a0: 00a2 e63d 774b ae40 bdd1 133f 34b3 bd41
000001b0: bd13 3440 b79e e7be c934 c5c0 a6d0 fd40
000001c0: 41db c540 b3c5 f240 2779 0242 5428 1041
000001d0: dc15 a041 e51c 7141 a15f 78bf b0ea b5bf
000001e0: f789 4d41 bb14 d240 cfb0 2bc0 1ac8 9f40
000001f0: 4182 97bf b63a a93e 8721 4e3f 4139 87be
00000200: 1dbd 4441 13b4 7841 f957 9d3f 59dd c53f
00000210: 12f6 6440 981d 1041 998e 0a42 ebf1 a941
00000220: add5 2640 5c30 053f c744 1541 1002 3dc0
00000230: f2a0 0f41 a634 733f 66ec 9040 ce4f 1c41
00000240: a1bc 8e41 cae6 28bf d33f 92c0 7d85 7cc0
00000250: ef83 1a41 1085 80bf ee7f 4b41 479b f740
00000260: 4697 2541 30d9 953f a755 b741 77f8 e1bf
00000270: d8bd c740 83b8 2c41 7966 43c0 338d 82bf
00000280: b4f1 5041 b72a e641 db57 cb40 3f81 ea40
00000290: 5a70 3e41 2c27 bc40 201f 8a40 6e51 1c41
000002a0: f64d 2cc0 8442 8941 2fc5 993f f9e0 2041
000002b0: db25 ca40 035b cac0 c274 9e40 e6aa 8141
000002c0: dd29 4c40 ce8a c840 e419 3b41 c8d8 de40
000002d0: f811 c540 bdb2 8141 d6db e341 843a 7b40
000002e0: b7d7 c140 7e14 df40 570c 8a40 9b5b 8740
000002f0: 4e28 3f41 d3c2 67c0 f331 db3f 5a21 8040
00000300: 59e5 fc40 fb40 2fc0 cfd3 bb41 bc48 1140
00000310: ead5 9c40 bd42 7641 6591 25c0 8aff ed40
00000320: 8d9e 83bf cbfc 07bf 3674 e93e ab6e 1b41
00000330: b605 9c40 b602 4fc0 0122 6441 bcc2 ca41
00000340: 0e0d de3f ffcc 1f41 ea94 d641 256e 4c41
00000350: e209 0241 1138 ca40 8a8a b940 a47b 0542
00000360: ba83 0241 9835 c7bf 0c7c cc3f 1ef9 5c41
00000370: 2899 6042 7c8a 9341 7d20 e93f 9538 e43f
00000380: 89d5 0b41 c335 bb3f be0d 2b41 55cc 3f41
00000390: b1e0 61bf b0ad 44bf 3629 bb3f 4138 d13e
000003a0: f7ce 3640 7748 fc40 4213 b040 9123 c93f
000003b0: 0f34 cebf 21b7 c640 ea38 f540 ad3d b7bf
000003c0: bd22 bc3f 4a08 f5c0 f0e5 ab3f 98e5 bf40
000003d0: 159d 3d41 c590 0541 50bb c7c0 5e25 6b41
000003e0: 449a eb41 8660 a440 1dfd 0c41 4cfa fe41
000003f0: 24a4 0341 2d70 99bf c04b b040 12c8 2abf
